MLIPs/CACE-LES/dipep/caceles-r-5.5-nl-1-nu-2/best_model.pth (torch, 194850 bytes, 18 tensors)

embedding_weights f4 [4, 4]
0.3070284 0.32904264 -0.018331796 0.08399855 0.22970252 -0.26714122 -0.46997488 0.6267476
0.2595029 -0.33776933 0.5236976 0.57910746 0.32870612 -0.48988786 0.58026344 0.55448484
00000000: d432 9d3e 4778 a83e 902c 96bc 6f07 ac3d
00000010: 2337 6b3e bcc6 88be 8ca0 f0be 8872 203f
00000020: 90dd 843e 1af0 acbe 0c11 063f 6340 143f
00000030: 2b4c a83e 95d2 fabe 258c 143f b8f2 0d3f

embedding_weights f4 [4, 4]
0.0522435 0.38182998 -0.021784227 0.123009935 0.05441585 -0.030583555 -0.6262981 0.45275638
0.47027573 -0.06570179 0.66630465 0.18945594 0.68433154 0.18961754 -0.051023915 -0.33663175
00000000: 48fd 553d 387f c33e d674 b2bc a2ec fb3d
00000010: 28e3 5e3d 5d8a fabc 1355 20bf afcf e73e
00000020: fbc7 f03e a98e 86bd f192 2a3f bd00 423e
00000030: 5a30 2f3f 1a2b 423e 74fe 50bd ff5a acbe

bessel_weights f4 [6]
0.16459286 1.0426387 1.8132763 2.6377988 3.4649644 4.296131
00000000: 088b 283e 2f75 853f 7019 e83f b2d1 2840
00000010: fac1 5d40 e879 8940

0 f4 [6, 12, 16]
-0.065307625 0.28901884 -0.31678283 0.53146416 -1.7425112 0.025793111 0.64172626 -0.5188027
-0.27099776 -0.010338288 -0.7868987 2.1010654 0.22157194 -0.26443613 -0.3718693 0.44986582
0.20883426 0.68983567 -0.014673632 0.023221739 0.08511765 1.3362496 2.731971 -1.3414859
1.4525976 1.2998443 2.697107 0.09486655 0.046798803 0.069649525 0.42515048 0.4950039
0.27548817 -0.03531583 0.48908988 -0.4492198 -0.2685769 0.67308587 -0.0077513554 0.20441288
-0.722373 1.2413492 0.21437542 -0.7905581 -0.31817773 0.005146987 -0.064841114 0.6772173
0.03403156 0.61762655 -0.008806211 0.74496454 2.2112052 1.5017974 3.0439773 -2.3574615
-0.103894524 -0.9795695 -0.39024955 0.3491103 0.15033583 0.5793477 0.043158334 0.3713586
0.4103204 -0.2146056 0.6075772 0.44656947 1.9754221 1.5615098 -0.019537425 1.076218
-0.023652442 1.8976176 -0.4044268 2.2463052 0.87954503 0.47384375 0.4109553 0.50079036
0.041960355 1.0888726 -0.019788792 0.23320681 2.36377 0.08135117 0.57070565 0.27672425
1.876526 1.6816635 0.6461433 -1.676621 0.020771313 0.51970994 -0.16540304 0.15259881
0.0085540665 0.86243147 0.008115766 -0.37121361 1.9607929 0.5261455 -0.06385287 0.7631614
1.2710757 -0.085878484 0.31591845 0.9793855 0.8061249 0.31293666 0.02818795 0.2395164
-0.34402245 0.5712161 -0.034416817 -0.2734584 -0.9950698 0.42027006 0.32876477 1.5983536
2.346921 -0.19863474 0.7578222 1.2415179 0.5237298 0.12700741 -0.023261264 0.19135828
0.057406213 -0.022709908 -0.005429552 0.5368252 -0.82758296 0.7118518 -0.30798134 -0.89561015
2.0632558 -0.7326677 1.7847263 -1.0053726 1.0924971 0.36096132 1.2210505 -0.17888658
-0.20554622 0.037997838 -0.16802764 -0.5825896 -0.20532371 1.37339 -0.12138324 0.6929822
1.665162 -0.46406156 -0.50589603 2.4673471 0.027668513 -0.018748702 -0.07682261 -0.0683472
0.3105289 0.007018015 0.044331975 -0.29333752 -0.85793656 0.4959453 -0.0911242 -0.18760969
-0.49678093 1.1976937 0.9254247 1.1791914 0.020433879 1.0500938 -0.27978855 1.3500178
-0.0022087074 0.20803788 -0.015505478 -0.36768088 -1.6660364 0.67394763 0.74547976 0.83883405
2.3444586 1.6932303 -0.20119424 -1.3387256 0.31193265 0.49818036 0.010031253 0.02046004
0.01959161 1.2907501 0.5151459 -0.33730367 -0.29636022 0.65282947 -0.26629987 -0.34806785
0.3023278 0.020803139 0.5131842 -0.16968639 0.40205294 -0.14167403 0.62099546 0.33049768
0.5481752 -0.5406084 0.0046804794 -0.015671037 0.46700525 -0.35328275 0.6142672 -1.2530358
0.5413244 0.011155326 1.6794982 -0.027178532 0.19384529 0.23784842 0.11505194 0.740051
-0.10713716 0.68517417 -0.48842242 0.12368142 0.32078594 1.0349984 -0.010578999 -0.024896407
0.5521294 0.80633754 0.34484452 0.39327434 0.8195008 0.058856312 0.21955484 0.40078756
-0.032769628 -0.40183032 0.033318277 -0.16849087 1.0447546 -0.35265008 1.2289875 -1.2672101
0.46220806 0.38949218 -0.28647333 -0.19218193 0.4417245 -0.6483353 -0.053088196 0.21237153
00000000: 01c0 85bd 47fa 933e 5c31 a2be 090e 083f
00000010: 9b0a dfbf 134c d33c 2c48 243f 41d0 04bf
00000020: 38c0 8abe ec61 29bc 3172 49bf db77 0640
00000030: c1e3 623e 2c64 87be a765 bebe d054 e63e
00000040: a6d8 553e 1299 303f ac69 70bc 843b be3c
00000050: 2a52 ae3d 3a0a ab3f 9dd8 2e40 cfb5 abbf
00000060: b8ee b93f 4c61 a63f 679d 2c40 6549 c23d
00000070: 1ab0 3f3d 69a4 8e3d 53ad d93e 2771 fd3e
00000080: c90c 8d3e 55a7 10bd fd69 fa3e 2300 e6be
00000090: e982 89be 5b4f 2c3f 15ff fdbb 9c51 513e
000000a0: 70ed 38bf 88e4 9e3f 3b85 5b3e 0462 4abf
000000b0: 31e8 a2be 0ea8 a83b 6bcb 84bd 1d5e 2d3f
000000c0: ad64 0b3d c61c 1e3f ed47 10bc ffb5 3e3f
000000d0: 6384 0d40 e63a c03f 86d0 4240 a6e0 16c0
000000e0: a7c6 d4bd 11c5 7abf cace c7be 96be b23e
000000f0: a3f1 193e 2250 143f cbc6 303d b722 be3e
00000100: 8415 d23e 92c1 5bbe 2e8a 1b3f c1a4 e43e
00000110: a2da fc3f 8edf c73f f30c a0bc 83c1 893f
00000120: c4c2 c1bc 22e5 f23f 0811 cfbe 77c3 0f40
00000130: dd29 613f a69b f23e bc68 d23e cc33 003f
00000140: 9fde 2b3d 2d60 8b3f 1b1c a2bc c4cd 6e3e
00000150: 0248 1740 719b a63d c419 123f cdae 8d3e
00000160: 0132 f03f c040 d73f a669 253f 849b d6bf
00000170: 9a28 aa3c b60b 053f 6a5f 29be dd42 1c3e
00000180: 5b26 0c3c 4fc8 5c3f fdf7 043c b60f bebe
00000190: 43fb fa3f 79b1 063f 4bc5 82bd 8c5e 433f
000001a0: 9cb2 a23f 0fe1 afbd 10c0 a13e 02b9 7a3f
000001b0: 345e 4e3f 3c39 a03e 6aea e63c ca43 753e
000001c0: b623 b0be 383b 123f a6f8 0cbd bd02 8cbe
000001d0: e5bc 7ebf a32d d73e db53 a83e da96 cc3f
000001e0: f433 1640 e866 4bbe a300 423f 0fea 9e3f
000001f0: 2813 063f 3b0e 023e 688e bebc 6df3 433e
00000200: c722 6b3d 210a babc 62ea b1bb 606d 093f
00000210: 7adc 53bf eb3b 363f bbaf 9dbe b546 65bf
00000220: 620c 0440 1c90 3bbf e971 e43f 0db0 80bf
00000230: f2d6 8b3f eccf b83e 624b 9c3f 0b2e 37be
00000240: b57a 52be 9fa3 1b3d 700f 2cbe 9824 15bf
00000250: 6140 52be 3ecb af3f c797 f8bd 4867 313f
00000260: 0724 d53f 7a99 edbe 6782 01bf 04e9 1d40
00000270: 14a9 e23c e196 99bc 2c55 9dbd 9ef9 8bbd
00000280: a5fd 9e3e 60f7 e53b 7295 353d 5630 96be
00000290: bba1 5bbf 8bec fd3e 539f babd c11c 40be
000002a0: 125a febe 074e 993f a2e8 6c3f beef 963f
000002b0: f364 a73c 7969 863f 7240 8fbe 62cd ac3f
000002c0: f6bf 10bb e207 553e b00a 7ebc ab40 bcbe
000002d0: ae40 d5bf d587 2c3f c3d7 3e3f d4bd 563f
000002e0: 9c0b 1640 c5bb d83f dd05 4ebe 5c5b abbf
000002f0: a3b5 9f3e 7f11 ff3e 205a 243c d09b a73c
00000300: 967e a03c 4d37 a53f 9ae0 033f 11b3 acbe
00000310: 87bc 97be d51f 273f 7558 88be f335 b2be
00000320: b6ca 9a3e 586b aa3c 0a60 033f 45c2 2dbe
00000330: e2d9 cd3e ff12 11be 8ff9 1e3f fe36 a93e
00000340: 3655 0c3f 5065 0abf b55e 993b 8c60 80bc
00000350: 501b ef3e 7ae1 b4be 9d40 1d3f 7a63 a0bf
00000360: 3c94 0a3f d4c4 363c ccf9 d63f 83a5 debc
00000370: 617f 463e 898e 733e 5aa0 eb3d fb73 3d3f
00000380: ba6a dbbd 9367 2f3f 8112 fabe af4c fd3d
00000390: 0e3e a43e d47a 843f 8a53 2dbc 8df3 cbbc
000003a0: 5a58 0d3f 236c 4e3f 768f b03e 415b c93e
000003b0: ceca 513f 5113 713d fcd2 603e 0734 cd3e
000003c0: 7239 06bd b4bc cdbe bf78 083d df88 2cbe
000003d0: 85ba 853f 8d8e b4be 764f 9d3f f133 a2bf
000003e0: 89a6 ec3e 856b c73e a2ac 92be 57cb 44be
000003f0: b729 e23e 4df9 25bf 0273 59bd ec77 593e

1 f4 [6, 12, 16]
-0.24030304 0.80236834 1.3652041 -0.64088005 2.6629274 2.0947635 -1.1976331 -1.3353448
0.43185887 -1.1074362 -1.6186621 1.937196 -0.12191493 0.26727104 1.2323579 -0.24641398
0.9429607 -0.5418893 -0.42391333 -0.062088326 1.8542025 -0.8235014 -0.5722727 0.6660153
0.8815233 2.173538 -2.0117574 0.16872507 0.540794 -0.14544328 0.6284766 -1.1812096
1.3492821 -1.558599 1.801092 2.5379133 0.3887152 -0.4674451 2.6633945 0.8653692
0.3379799 3.3474157 1.6779977 -1.601589 0.47306132 -0.8670349 -0.060495 0.38928318
0.7407425 0.6524225 2.0683382 0.035641402 -3.2199147 -1.0095307 -0.01633682 0.18633942
0.8062367 -0.23081075 -1.0217217 -2.0233831 1.2757541 0.32543513 -0.25354597 1.8596585
-0.35841575 -0.19084725 0.434045 1.7586915 -1.2761376 -1.0908133 1.0243288 -3.4965901
-1.1753151 0.7068578 -0.5649161 1.5311921 1.029235 -0.33628112 1.7443894 -0.92334783
-1.2997427 0.44348863 1.2787225 -0.64769936 3.390417 -2.9303682 -0.07531053 -1.4867462
-0.9993571 -0.45213363 0.97803545 -0.69097203 -1.4141535 0.25276548 0.1690153 -0.32148543
-1.7953479 0.09793712 1.9176081 -1.3849595 0.013466652 -1.5262077 0.842233 -1.414343
1.56251 0.12414178 1.033509 2.102771 -0.5642715 -0.19537084 0.52195585 -1.3099147
0.4000656 -0.6085456 -0.3408022 3.0505252 0.35805362 1.2726779 -0.8692439 0.010413647
-1.11742 0.23618822 1.287672 -0.20556055 1.4945866 0.9484854 1.1694028 0.38306782
-1.8645345 -0.5908018 0.3865397 1.0747766 2.0482223 1.5909019 0.8724593 1.9854666
2.2443056 -0.93179137 1.383273 -1.7516829 -0.44517723 0.05930993 -0.6611079 0.46355063
1.6792383 -1.3175102 -0.08509883 2.812256 0.6290704 3.8707933 -0.7708339 -1.3189278
1.6084145 1.2566403 -2.3405182 0.91567314 0.82247293 -0.73767763 -0.6828347 0.5988997
0.048552185 -2.1319795 1.7713026 1.696689 0.9974556 0.044594303 1.2691406 0.48335692
4.0385585 1.420523 0.4855524 -3.6304734 0.85669917 0.63376194 0.7370538 -1.2299819
-1.3406307 0.09033663 -1.4870874 -0.5017965 -0.44862056 -0.12673952 0.0089440495 0.8166239
-1.0367955 -0.3790798 1.948683 1.1851268 0.28915465 0.76574534 0.93503785 -0.7038115
-1.7043873 -1.2737855 2.0123985 0.42841423 0.510038 1.3179797 -0.09313082 1.0226572
1.3326734 0.34571463 -1.1179403 1.6537673 -0.12192601 0.34619108 -1.0897899 -1.13525
1.7841451 0.30080804 0.75379366 1.7648324 0.807876 -0.40532482 0.9883128 0.90386665
-0.123099685 1.0836587 -1.166209 1.2100998 -0.7519521 1.0327659 0.16148666 -0.49408728
2.4919672 1.4255857 1.2100265 0.79885906 0.6953711 -0.06752244 0.3192631 1.0844653
1.7657166 0.25199154 2.1862733 -0.17667973 0.29708245 0.2055289 -0.48440006 1.6122164
-0.76126754 0.4794579 2.1182675 -0.37949365 0.07973097 0.34431893 1.0545396 -0.12412618
-0.21589994 -1.3437483 0.44877347 -0.28616944 0.67305154 -0.22067717 0.6311504 -1.2117652
00000000: 0012 76be 0368 4d3f 02bf ae3f b710 24bf
00000010: 676d 2a40 9b10 0640 0b4c 99bf 94ec aabf
00000020: 9b1c dd3e 78c0 8dbf 5230 cfbf 0af6 f73f
00000030: 89ae f9bd c0d7 883e e7bd 9d3f f253 7cbe
00000040: df65 713f 42b9 0abf 2b0b d9be 5450 7ebd
00000050: 8256 ed3f fdd0 52bf 7780 12bf fb7f 2a3f
00000060: 83ab 613f 3f1b 0b40 a2c0 00c0 44c6 2c3e
00000070: 7a71 0a3f 15ef 14be d8e3 203f e031 97bf
00000080: 47b5 ac3f 2c80 c7bf 2f8a e63f 2c6d 2240
00000090: ae05 c73e f754 efbe 0e75 2a40 d688 5d3f
000000a0: b40b ad3e 0f3c 5640 a1c8 d63f de00 cdbf
000000b0: 1835 f23e 00f6 5dbf 9bc9 77bd 2050 c73e
000000c0: 4da1 3d3f 2905 273f a75f 0440 b8fc 113d
000000d0: 1513 4ec0 4d38 81bf cbd4 85bc c3cf 3e3e
000000e0: 8765 4e3f a759 6cbe c7c7 82bf 1c7f 01c0
000000f0: e94b a33f 6f9f a63e c7d0 81be 4a09 ee3f
00000100: 4582 b7be 766d 43be 253b de3e ce1c e13f
00000110: 7a58 a3bf c59f 8bbf 351d 833f 22c8 5fc0
00000120: ba70 96bf a2f4 343f 579e 10bf 1afe c33f
00000130: f9bd 833f 0a2d acbe 2748 df3f 8660 6cbf
00000140: f85d a6bf f110 e33e 2ead a33f a0cf 25bf
00000150: 98fc 5840 278b 3bc0 683c 9abd b34d bebf
00000160: ded5 7fbf 0f7e e7be 8860 7a3f 8be3 30bf
00000170: fb02 b5bf 7a6a 813e 5912 2d3e bd99 a4be
00000180: f6cd e5bf 4293 c83d 2f74 f53f 5a46 b1bf
00000190: 3ba3 5c3c c65a c3bf 959c 573f 3109 b5bf
000001a0: 5400 c83f 0c3e fe3d 064a 843f cd93 0640
000001b0: 1974 10bf 4b0f 48be e69e 053f 49ab a7bf
000001c0: 66d5 cc3e a5c9 1bbf a07d aebe ce3b 4340
000001d0: ce52 b73e 1ce7 a23f c586 5ebf 009e 2a3c
000001e0: 9e07 8fbf 53db 713e 70d2 a43f 777e 52be
000001f0: 9d4e bf3f f0cf 723f feae 953f 7721 c43e
00000200: 11a9 eebf c93e 17bf 88e8 c53e 4892 893f
00000210: 1316 0340 aca2 cb3f 7e59 5f3f c523 fe3f
00000220: b4a2 0f40 e189 6ebf 170f b13f 2537 e0bf
00000230: 45ee e3be f8ee 723d 5e3e 29bf 8256 ed3e
00000240: 48f1 d63f 2da4 a8bf 4c48 aebd 01fc 3340
00000250: c20a 213f 14bb 7740 5f55 45bf a0d2 a8bf
00000260: 87e0 cd3f 97d9 a03f 0dcb 15c0 8e69 6a3f
00000270: 968d 523f 71d8 3cbf 41ce 2ebf 7e51 193f
00000280: a8de 463d 5a72 08c0 0bba e23f 1b2d d93f
00000290: 4059 7f3f 84a8 363d 3373 a23f 8f7a f73e
000002a0: df3b 8140 b3d3 b53f 539a f83e ad59 68c0
000002b0: a350 5b3f 393e 223f 8faf 3c3f 0c70 9dbf
000002c0: c999 abbf 6902 b93d e158 bebf bc75 00bf
000002d0: 98b1 e5be 01c8 01be 108a 123c 440e 513f
000002e0: b7b5 84bf bf16 c2be 726e f93f 3cb2 973f
000002f0: 140c 943e e307 443f a45e 6f3f fe2c 34bf
00000300: 5d29 dabf 670b a3bf 23cb 0040 1c59 db3e
00000310: da91 023f 8fb3 a83f 5fbb bebd 6ee6 823f
00000320: 0b95 aa3f 8201 b13e ab18 8fbf a6ae d33f
00000330: 58b4 f9bd f53f b13e 3c7e 8bbf df4f 91bf
00000340: de5e e43f 8303 9a3e 9ff8 403f 07e6 e13f
00000350: f6d0 4e3f bc86 cfbe 1102 7d3f ce63 673f
00000360: b01b fcbd 54b5 8a3f 5646 95bf 8de4 9a3f
00000370: ef7f 40bf ac31 843f c25c 253e 02f9 fcbe
00000380: 647c 1f40 9879 b63f 26e2 9a3f 0782 4c3f
00000390: d703 323f 3449 8abd 7476 a33e c2cf 8a3f
000003a0: 0003 e23f 0905 813e e7eb 0b40 88eb 34be
000003b0: 311b 983e 2b76 523e 4903 f8be 1b5d ce3f
000003c0: 6ee2 42bf 827b f53e b291 0740 fe4c c2be
000003d0: fe49 a33d 924a b03e 27fb 863f de35 febd
000003e0: e014 5dbe f2ff abbf a3c5 e53e cd84 92be
000003f0: 1b4d 2c3f 32f9 61be 1393 213f 1f1b 9bbf

2 f4 [6, 12, 16]
-0.5651221 -0.65144676 0.8773115 -0.14871813 1.0531247 -1.4234413 -1.2581347 2.0773199
-0.20474741 -1.2785736 2.0899878 -2.467912 0.400548 -0.18233389 0.945333 -0.09466012
0.14928186 1.2073987 0.10510225 0.5644513 2.4317446 2.4083698 0.38239372 1.4282988
2.1019228 1.4907423 1.9289072 0.04812465 0.0059719332 0.24523851 0.8099752 0.8248995
-0.30964088 0.17850247 1.2131971 -0.17713839 0.727707 -0.735819 0.5607232 -0.27949402
-0.524444 1.5143272 0.1830907 2.2686021 1.5674312 0.2254355 -0.14478731 0.57242405
0.14167117 0.23977569 0.35905764 -1.4526085 0.76884633 -1.1324552 -0.03439402 -1.4495281
1.8467025 2.765416 1.3357952 0.7651095 0.11407308 0.47782272 0.82251596 0.9136511
0.05616546 0.5640039 0.29489386 0.22228853 1.353203 2.0378444 -0.46767673 1.3875023
2.7753115 0.48356912 0.7753769 -0.121916346 1.4029533 1.1675098 0.7948289 -0.015957134
0.3970435 1.2751236 0.13831006 0.77062994 2.088518 -1.5935534 0.036419485 -0.85285217
1.3812512 -0.22532819 3.0666962 0.80546963 0.49626943 -0.47136608 -0.18134299 -0.795638
0.5119051 -0.11151767 0.6899412 0.4615904 1.3435435 2.3300316 1.6691571 0.10427333
-2.291583 -1.0794387 -0.72842914 1.0565665 -0.15519997 -0.5196759 1.1127815 -0.38606372
0.68195814 0.72803015 1.4222037 0.6525349 1.9628326 -0.30610412 -0.2896364 2.7297456
-0.036736105 2.5942523 0.8893292 -1.8711687 0.57642 1.0954901 0.71451503 0.4965708
-0.45735464 0.2978109 0.7204132 1.251079 2.0108993 -1.8296263 0.59198505 -0.26628047
1.6507816 -1.8767631 1.2126333 -0.4670902 -0.17405036 1.0745608 -0.0017984405 0.0978571
-0.0610668 -0.3686343 0.010884867 1.017364 -1.1404924 -0.14941175 0.25790676 2.0056953
-0.7876281 2.8697505 -0.06040787 -0.2070437 1.1276681 -0.24272874 -0.033703864 0.14435475
1.4229779 0.112430334 0.123642065 0.08042328 2.237042 1.8018767 0.5961331 -1.828163
0.8496058 2.1203938 -0.7211575 3.1821055 1.195556 -0.269687 0.06972659 0.739965
-0.35719737 0.94914305 -0.15897931 -0.23533101 0.7318846 -1.7769544 0.31858283 -0.5954486
-2.978187 0.547443 -1.8001369 1.241481 0.6536988 0.5003528 0.613209 0.025846137
0.30865636 0.81887186 0.068374015 0.7489177 1.480714 -0.36971948 -0.720888 0.72150505
-0.54347587 0.5932152 0.50445 -0.09896055 0.48446575 0.5105473 -0.21172777 0.9725282
-0.03471474 0.6749811 0.14560957 0.6633069 -0.11008368 0.98712814 0.24533723 0.5903113
2.0891113 1.2473987 1.058655 -1.4411305 1.0295053 1.4618068 0.39399564 -0.58884585
-0.24782784 0.6455354 0.09260255 0.91117495 -0.38999024 -0.4070011 1.4097582 -0.034689624
0.5313155 0.949866 -0.26820934 1.6369237 -0.2689971 0.21991679 -0.58199847 0.85295564
-0.6110499 0.044220947 0.28407133 -0.93521464 -0.030228596 0.59359396 0.4438431 1.066749
0.8415203 1.3864577 2.8660614 -0.18958274 -0.18992895 0.80612665 1.3999839 0.15255032
00000000: d8ab 10bf 37c5 26bf 7d97 603f 9149 18be
00000010: cacc 863f 5333 b6bf 8f0a a1bf cff2 0440
00000020: 4ea9 51be 4da8 a3bf 5cc2 0540 45f2 1dc0
00000030: a114 cd3e bcb5 3abe 5801 723f 2add c1bd
00000040: 58dd 183e 0a8c 9a3f d93f d73d e17f 103f
00000050: b4a1 1b40 bb22 1a40 1cc9 c33e 7fd2 b63f
00000060: e785 0640 a5d0 be3f 6ee6 f63f 5a1e 453d
00000070: 35b0 c33b ce1f 7b3e 895a 4f3f 9d2c 533f
00000080: 4089 9ebe 5ac9 363e 0b4a 9b3f c463 35be
00000090: 024b 3a3f a25e 3cbf 8e8b 0f3f d719 8fbe
000000a0: f641 06bf 79d5 c13f 217c 3b3e c730 1140
000000b0: 96a1 c83f 90d8 663e 2043 14be 628a 123f
000000c0: 3f12 113e c287 753e 67d6 b73e 13ef b9bf
000000d0: 1dd3 443f 4bf4 90bf bee0 0cbd 238a b9bf
000000e0: bf60 ec3f 93fc 3040 56fb aa3f 37de 433f
000000f0: 269f e93d 2ea5 f43e 6890 523f 0ae5 693f
00000100: c10d 663d 8f62 103f 54fc 963e 9b9f 633e
00000110: c235 ad3f 0b6c 0240 5373 efbe ad99 b13f
00000120: b49e 3140 5f96 f73e 1a7f 463f 47af f9bd
00000130: f993 b33f f670 953f e879 4b3f 89b8 82bc
00000140: 4949 cb3e 4037 a33f 27a1 0d3e 0148 453f
00000150: 47aa 0540 8ff9 cbbf 992c 153d 8554 5abf
00000160: d7cc b03f 6fbc 66be c044 4440 4233 4e3f
00000170: 0717 fe3e e556 f1be fab1 39be efae 4bbf
00000180: 360c 033f 6063 e4bd fd9f 303f 9455 ec3e
00000190: 3cf9 ab3f 3d1f 1540 f1a6 d53f 418d d53d
000001a0: 4ca9 12c0 0c2b 8abf 557a 3abf 923d 873f
000001b0: beec 1ebe 7b09 05bf a06f 8e3f 25aa c5be
000001c0: cf94 2e3f 2f60 3a3f c50a b63f 870c 273f
000001d0: 193e fb3f aeb9 9cbe 394b 94be 27b4 2e40
000001e0: 9978 16bd 3b08 2640 14ab 633f 7582 efbf
000001f0: 4390 133f 0539 8c3f 75ea 363f 873e fe3e
00000200: 632a eabe ac7a 983e 006d 383f 5b23 a03f
00000210: 93b2 0040 3231 eabf 558c 173f ea55 88be
00000220: d04c d33f c639 f0bf 9137 9b3f 7226 efbe
00000230: 423a 32be 358b 893f a6b9 ebba 4e69 c83d
00000240: 2e21 7abd a3bd bcbe 7156 323c fc38 823f
00000250: a8fb 91bf 65ff 18be 5b0c 843e 505d 0040
00000260: ffa1 49bf fea9 3740 3e6e 77bd 4403 54be
00000270: 6e57 903f e28d 78be 100d 0abd bbd1 133e
00000280: 2424 b63f e041 e63d 0d38 fd3d f6b4 a43d
00000290: b22b 0f40 e5a3 e63f 2e9c 183f 3f01 eabf
000002a0: c47f 593f 88b4 0740 c79d 38bf 9ea7 4b40
000002b0: fb07 993f 6a14 8abe d0cc 8e3d 596e 3d3f
000002c0: 93e2 b6be 0afb 723f 79cb 22be 9dfa 70be
000002d0: ca5c 3b3f 3e73 e3bf 4a1d a33e 526f 18bf
000002e0: 9e9a 3ec0 3925 0c3f e36a e6bf d9e8 9e3f
000002f0: ce58 273f 1f17 003f 44fb 1c3f 47bb d33c
00000300: 3508 9e3e 96a1 513f ad07 8c3d 12b9 3f3f
00000310: 0988 bd3f df4b bdbe 1e8c 38bf 8eb4 383f
00000320: 3c21 0bbf f4dc 173f a323 013f d4ab cabd
00000330: e50b f83e 3ab3 023f 2acf 58be 9cf7 783f
00000340: 0b31 0ebd 90cb 2c3f ad1a 153e 7bce 293f
00000350: 8d73 e1bd 6eb4 7c3f af39 7b3e a41e 173f
00000360: 00b4 0540 c3aa 9f3f 0282 873f f776 b8bf
00000370: d4c6 833f 7c1c bb3f ccb9 c93e 9abe 16bf
00000380: 95c6 7dbe cf41 253f 68a6 bd3d c342 693f
00000390: cdac c7be 7362 d0be f572 b43f b516 0ebd
000003a0: 4b04 083f 6b2a 733f bc52 89be b786 d13f
000003b0: fdb9 89be de31 613e dafd 14bf 4d5b 5a3f
000003c0: c46d 1cbf 0621 353d cc71 913e 3a6a 6fbf
000003d0: f6a1 f7bc c6f5 173f 673f e33e 3b8b 883f
000003e0: e06d 573f 7277 b13f 8d6d 3740 fa21 42be
000003f0: bc7c 42be 515e 4e3f ac32 b33f 2736 1c3e

weight f4 [32, 576]
0.05784992 0.20438676 1.0638927 0.09663336 0.58296406 0.13698925 -1.0792189 0.28979388
-0.22386195 0.254148 0.94160813 -0.8242226 0.3678061 -0.19567707 0.06735286 0.38378912
-0.02832018 1.2522423 -2.9936018 -3.1549492 -0.031778377 0.2679112 -1.9097086 -1.6246827
-0.0970364 -0.17248844 0.56103295 0.57243186 -0.10253838 0.22186731 0.92398566 1.7177052
-2.3012087 -0.04068702 -0.9960728 0.38317555 -0.8083583 -1.9031523 -0.80838096 -2.030283
-0.058538333 -1.14291 -0.3733041 2.274727 -2.2830577 0.38716277 -0.14356512 1.0892149
-0.34548494 0.45476413 -0.087115064 0.05986682 0.24353622 -0.699534 1.0992014 0.52394223
-0.120230645 0.3119827 0.63624185 -0.043327235 0.52804834 0.33738327 0.535189 -0.1916684
-1.0906464 0.003427967 0.15178357 -0.8153958 1.0936179 -1.0523027 -0.31970498 0.47434717
-0.15345956 2.0700088 0.51479113 -0.5628443 0.5997146 1.6382198 4.1070776 -0.15484084
0.9289367 -0.09550448 -0.99841934 -1.066023 -0.4947682 -0.24909404 -0.33182442 1.1754154
-0.37192708 -0.11505787 -0.0801455 -0.5558548 -0.16287999 -0.49845806 -0.59709555 1.8570012
0.5907197 -0.3559794 -0.9464589 -0.35263053 0.8211528 -0.081278145 0.008986241 -0.2111105
0.07599744 1.1470063 -0.6503609 -0.119206116 0.55849814 -0.10025294 0.11981737 -0.15315162
-0.36659616 0.5524382 -1.1630118 -1.7503028 -0.061095294 1.0170828 0.5268556 -1.3999572
1.2159033 -0.3368 1.2838268 -0.024381742 0.17516765 0.4753994 -0.9744444 -0.058654476
-2.337382 0.38816777 0.7518116 -0.6698586 -0.30816895 -1.2826576 -0.2324665 -2.6643314
-0.36148828 0.15574107 -0.3207501 0.2871756 0.49901378 0.16115437 -0.64261377 -0.3646914
0.46200317 0.8885771 0.19921881 -0.7040857 -1.0849761 -2.2414937 -0.44772422 0.3686742
-0.80962765 2.2960386 -0.6453559 -0.03682074 -0.3712696 0.43367317 -0.014806681 -0.29277265
0.49348995 -0.108321674 2.075956 -0.46181482 -1.4890624 -0.5842363 -2.2092628 -0.120382756
-0.5664353 -0.10544782 -3.2608068 -0.004103593 -0.51879865 -0.93078285 -2.0222144 0.1486358
-2.0622807 3.3430953 -1.1519562 1.1986629 1.4682609 1.5692754 0.3488569 -1.614323
-0.26003757 -1.921061 -0.33388072 0.3451529 0.17382342 1.0970964 0.16810489 -0.19667199
0.36003715 0.032489177 0.4591211 0.73164046 -0.006643596 -0.55470157 -0.19781764 -0.73395115
-0.33216023 0.5131754 -0.43253437 0.30208015 -0.32275712 0.030123886 1.2504616 0.26455495
0.31242675 -0.0073988377 -2.1751838 0.26508695 -1.9754386 0.08983567 -1.2834976 -1.9086542
-0.57963467 0.2833756 0.7277822 -0.5296589 -0.36033624 0.38626587 -0.046468534 -0.6372567
0.7474744 0.96169335 0.78513163 -0.48080385 -0.57663643 -0.4206889 0.8362428 1.1408124
-1.1547841 0.20043722 0.24370827 0.5280106 -1.7485245 0.62534523 -0.24302539 -0.4663534
-0.317535 0.010452704 -0.04487011 0.50609374 -0.67988026 0.317229 0.5603807 -0.7742179
0.82257605 -0.80853266 0.9873405 0.8989338 -0.19670139 0.28665364 -0.5679669 -0.6045493
00000000: 0af4 6c3d c34a 513e a32d 883f b6e7 c53d
00000010: 223d 153f e946 0c3e d823 8abf dd5f 943e
00000020: 113c 65be b01f 823e 3b0d 713f 4100 53bf
00000030: 1551 bc3e 925f 48be 4cf0 893d 0280 c43e
00000040: b9ff e7bc 7a49 a03f 2c97 3fc0 b0ea 49c0
00000050: 0b2a 02bd a82b 893e 5571 f4bf 9af5 cfbf
00000060: 05bb c6bd cfa0 30be db9f 0f3f e58a 123f
00000070: a4ff d1bd 2f31 633e 538a 6c3f c4dd db3f
00000080: 0147 13c0 6fa7 26bd a1fe 7ebf 962f c43e
00000090: 92f0 4ebf 7f9a f3bf 0ef2 4ebf 28f0 01c0
000000a0: e4c5 6fbd e04a 92bf b721 bfbe 2195 1140
000000b0: 9e1d 12c0 333a c63e bc02 13be 656b 8b3f
000000c0: 67e3 b0be d8d6 e83e 6269 b2bd e936 753d
000000d0: 8f61 793e a914 33bf a2b2 8c3f 1421 063f
000000e0: 7c3b f6bd 32bc 9f3e bfe0 223f e677 31bd
000000f0: 2d2e 073f 80bd ac3e 2502 093f b944 44be
00000100: 4d9a 8bbf bea7 603b 276d 1b3e c7bd 50bf
00000110: acfb 8b3f dbb1 86bf 5fb0 a3be a2dd f23e
00000120: 8124 1dbe 067b 0440 5ac9 033f 9016 10bf
00000130: e586 193f 30b1 d13f 2e6d 8340 998e 1ebe
00000140: ccce 6d3f da97 c3bd 6998 7fbf 7173 88bf
00000150: 4252 fdbe 8212 7fbe e4e4 a9be 0374 963f
00000160: 3a6d bebe 76a3 ebbd 5323 a4bd 804c 0ebf
00000170: 03ca 26be e535 ffbe 41db 18bf 37b2 ed3f
00000180: 6839 173f ef42 b6be 214b 72bf fd8b b4be
00000190: 1237 523f 2875 a6bd 073b 133c 5a2d 58be
000001a0: 8ca4 9b3d 1ad1 923f 0d7e 26bf 5622 f4bd
000001b0: bcf9 0e3f 6a51 cdbd cf62 f53d c7d3 1cbe
000001c0: 7eb2 bbbe 976c 0d3f 92dd 94bf ec09 e0bf
000001d0: 0f3f 7abd c52f 823f 02e0 063f cc31 b3bf
000001e0: b8a2 9b3f 0d71 acbe 7054 a43f 38bc c7bc
000001f0: 265f 333e 8d67 f33e 3075 79bf ad3f 70bd
00000200: ab97 15c0 edbd c63e ba76 403f da7b 2bbf
00000210: 52c8 9dbe 202e a4bf b30b 6ebe 6884 2ac0
00000220: fe14 b9be 967a 1f3e 5b39 a4be ae08 933e
00000230: bc7e ff3e a705 253e 5682 24bf d5b8 babe
00000240: ae8b ec3e ca79 633f 0400 4c3e f63e 34bf
00000250: 7fe0 8abf a274 0fc0 1c3c e5be ddc2 bc3e
00000260: c243 4fbf 4cf2 1240 0b36 25bf 58d1 16bd
00000270: 0d17 bebe 690a de3e b997 72bc 4ce6 95be
00000280: b7aa fc3e c1d7 ddbd 77dc 0440 fe72 ecbe
00000290: 9999 bebf 8390 15bf 9064 0dc0 3c8b f6bd
000002a0: e701 11bf 07f5 d7bd 0fb1 50c0 6f77 86bb
000002b0: fdcf 04bf c947 6ebf f66b 01c0 fc33 183e
000002c0: 68fc 03c0 46f5 5540 4d73 93bf c96d 993f
000002d0: f9ef bb3f 04de c83f 5f9d b23e 23a2 cebf
000002e0: a523 85be 54e5 f5bf 6af2 aabe e2b7 b03e
000002f0: c4fe 313e a86d 8c3f b023 2c3e 6264 49be
00000300: ca56 b83e 5f13 053d ec11 eb3e ca4c 3b3f
00000310: 86b2 d9bb ec00 0ebf b590 4abe 39e4 3bbf
00000320: e810 aabe 775f 033f 2575 ddbe 40aa 9a3e
00000330: 6c40 a5be 5ec6 f63c 200f a03f bf73 873e
00000340: 66f6 9f3e f371 f2bb 3636 0bc0 7ab9 873e
00000350: 2cdb fcbf c4fb b73d a649 a4bf c84e f4bf
00000360: f062 14bf 9b16 913e ef4f 3a3f ba97 07bf
00000370: fe7d b8be a4c4 c53e ca55 3ebd 4123 23bf
00000380: 7b5a 3f3f 8931 763f 63fe 483f ec2b f6be
00000390: 729e 13bf 8964 d7be 0214 563f 2406 923f
000003a0: f7cf 93bf 6a3f 4d3e a98e 793e b42b 073f
000003b0: a7cf dfbf a016 203f a6db 78be dfc5 eebe
000003c0: f393 a2be d141 2b3c b8c9 37bd 5c8f 013f
000003d0: a20c 2ebf d76b a23e 1c75 0f3f 2533 46bf
000003e0: 5894 523f fffb 4ebf 59c2 7c3f 8720 663f
000003f0: 176c 49be 44c4 923e 4766 11bf bec3 1abf

bias f4 [32]
-0.17746662 0.04426513 0.0358746 -0.06699384 0.11706743 -0.6223601 -0.7246207 -0.4447791
-0.040567826 -1.1890182 0.087106645 0.22544985 -1.3687309 -0.030592877 -0.1474231 -0.07287311
-0.20774667 0.0065477965 0.09993835 -0.25956538 -0.0119048655 0.16958944 0.014240532 -1.2699038
-0.67409915 -1.0194726 0.052093953 -1.1318336 -0.83657247 -0.57545286 -1.1666688 -1.0001817
00000000: cfb9 35be 5a4f 353d 3ff1 123d 1134 89bd
00000010: 0cc1 ef3d fe52 1fbf be80 39bf 16ba e3be
00000020: 732a 26bd c031 98bf f864 b23d 53dc 663e
00000030: 9332 afbf ea9d fabc 15f6 16be 7f3e 95bd
00000040: 8bbb 54be e68e d63b 7aac cc3d c1e5 84be
00000050: a00c 43bc dba8 2d3e 1f51 693c 358c a2bf
00000060: c391 2cbf 147e 82bf 7860 553d ecdf 90bf
00000070: 9d29 56bf e150 13bf 6755 95bf f405 80bf

weight f4 [16, 32]
-0.7792032 0.11803156 0.20794381 -0.5431095 0.8280641 -0.8431004 -0.4868841 -0.6732817
0.74182385 -0.94167435 1.0325608 1.3559119 -1.6911863 -0.763758 -1.0072322 0.73658913
0.4334185 -0.019837055 -0.18318902 0.06615827 -0.51134413 -0.82556546 -0.4134923 1.535142
1.0445015 1.1636732 -0.9130701 0.8462178 1.1821917 1.3361393 1.0325499 -0.88968897
-0.0449256 -0.45140263 0.05519319 -0.090731 0.054503255 0.032572348 -0.29598582 -0.14449306
-0.14565901 -0.3815005 -0.023589913 0.13844113 0.12478226 -0.099149525 0.15338121 0.07920065
0.23001273 0.027304912 0.016723286 -0.82917535 -0.024815615 0.27780542 -0.055583157 -0.57587415
0.03135672 -0.2983994 -0.012407565 -0.028236117 -0.037817933 -0.03687721 -0.26078698 0.36377826
-0.17922434 0.03569143 -0.06458399 -0.012609374 0.0750176 0.11268034 0.021835104 -0.0856437
-0.073974684 -0.35184237 -0.122891314 -0.27621835 0.1847046 -0.0789911 0.049521867 -0.0076463856
0.26537225 0.012109981 0.15789561 -0.72297764 0.063308105 -0.017442519 -0.08715004 -0.70542115
-0.078814924 -0.064967155 -0.100620896 0.10021649 -0.11458565 -0.11252858 -0.26304674 0.30419216
0.94984394 0.037280243 -0.47034732 0.24765824 -0.11376954 -0.51174486 -0.5333949 -0.19879712
-0.13360125 -0.5970499 0.16393566 0.43835202 -0.97230375 0.27160156 -0.25264487 0.038075678
-0.13654907 -0.6063498 -0.3117067 -1.1025168 0.15611395 -0.12158075 -0.6220729 0.030360261
0.6347137 0.21864925 0.13603401 0.6706902 0.56117463 0.49578112 0.62098736 -0.30829713
0.83487487 0.007542487 -0.38871428 -0.06418115 0.1060015 -0.96855104 -0.8407621 -0.16535504
-0.2609259 -0.8910835 0.28268465 0.40195334 -0.6637966 -0.11150787 -0.3633791 0.12021945
-0.04789685 -0.58218545 -0.6576796 -1.2274632 0.10774311 -0.6643479 -0.440191 0.54998237
0.80252475 0.20994289 -0.43192175 0.58807296 0.7445656 0.51439023 0.7374242 -0.53231174
-0.96020925 0.2609237 0.64448315 0.032695204 0.14438038 -0.64900583 -0.80927646 -0.39556944
0.23161581 -0.75696963 0.12857288 0.48632613 -1.5475688 -0.06354677 -0.08123684 0.25258124
0.12743929 -0.2641988 -0.28480926 0.07617533 -0.24767493 -0.3849867 -0.4581874 0.933542
0.8815818 1.2039288 -0.1315634 1.0312543 0.53178674 0.62772834 1.0778812 -0.28210223
-0.22418022 -0.5275801 -0.15521868 -0.039355893 0.06674532 -0.20303068 -0.2000483 0.08109303
0.067211166 -0.42213553 -0.0064109135 -0.0316182 0.35175872 -0.17587157 0.112919845 -0.048225198
0.39804745 -0.11677684 0.15228719 -0.6924938 0.052519448 0.13797104 -0.22963253 -1.0980686
0.018138027 -0.061420113 0.05465435 -0.16368487 -0.114631765 0.11815415 -0.3312599 0.3608436
-0.035652343 -0.013585116 -0.005557444 0.023958802 -0.025074372 -0.0059611094 -0.17451721 0.24905938
0.031387925 -0.36529028 0.07990597 -0.25222987 0.45361418 -0.11554844 0.042792834 -0.082718015
0.19895564 0.03789539 0.025133714 -0.6069048 0.012483794 -0.08292657 -0.07260168 -1.0968333
-0.13510334 -0.1309285 -0.03950708 -0.11786198 -0.28571326 -0.21405645 -0.35834152 0.40315774
00000000: dc79 47bf 88ba f13d 39ef 543e 3909 0bbf
00000010: 02fc 533f 6ed5 57bf df48 f9be 315c 2cbf
00000020: 2be8 3d3f 9211 71bf f42a 843f 858e ad3f
00000030: cb78 d8bf a585 43bf fcec 80bf 1b91 3c3f
00000040: 08e9 dd3e 5281 a2bc e795 3bbe fd7d 873d
00000050: 73e7 02bf 4258 53bf 43b5 d3be 887f c43f
00000060: 3ab2 853f 3ef3 943f f6be 69bf bba1 583f
00000070: 0f52 973f 9d06 ab3f 982a 843f a8c2 63bf
00000080: e803 38bd 3f1e e7be 4112 623d 2dd1 b9bd
00000090: ce3e 5f3d 956a 053d 748b 97be fdf5 13be
000000a0: a327 15be 0954 c3be a23f c1bc 83c3 0d3e
000000b0: d78d ff3d e80e cbbd f70f 1d3e f333 a23d
000000c0: 7588 6b3e 8dae df3c 46ff 883c d644 54bf
000000d0: 1e4a cbbc 833c 8e3e 2aab 63bd 7d6c 13bf
000000e0: e76f 003d cec7 98be 1949 4bbc 6e4f e7bc
000000f0: fae6 1abd 8f0c 17bd df85 85be 2541 ba3e
00000100: 9686 37be 2d31 123d 9c44 84bd 8c97 4ebc
00000110: d4a2 993d f3c4 e63d 88df b23c f765 afbd
00000120: 0a80 97bd af24 b4be 71ae fbbd 7e6c 8dbe
00000130: 3423 3d3e 16c6 a1bd 71d7 4a3d 888e fabb
00000140: dfde 873e f168 463c 63af 213e 1015 39bf
00000150: aea7 813d 9de3 8ebc b87b b2bd 7b96 34bf
00000160: b869 a1bd 800d 85bd 5412 cebd 4e3e cd3d
00000170: e2ab eabd 6275 e6bd 10ae 86be 13bf 9b3e
00000180: f928 733f 2bb3 183d 5dd1 f0be 1f9a 7d3e
00000190: 0100 e9bd b601 03bf 918c 08bf 7991 4bbe
000001a0: c4ce 08be 43d8 18bf c0de 273e ad6f e03e
000001b0: e6e8 78bf 5c0f 8b3e ab5a 81be 3ef5 1b3d
000001c0: 85d3 0bbe be39 1bbf 0598 9fbe 451f 8dbf
000001d0: 56dc 1f3e 54ff f8bd 2b40 1fbf 15b6 f83c
000001e0: 997c 223f 97e5 5f3e 804c 0b3e 5ab2 2b3f
000001f0: 24a9 0f3f 06d7 fd3e 07f9 1e3f 1fd9 9dbe
00000200: 5cba 553f f726 f73b 8f05 c7be 6871 83bd
00000210: 5017 d93d f6f2 77bf 2f3c 57bf d552 29be
00000220: 1498 85be 0c1e 64bf 0bbc 903e d4cc cd3e
00000230: 93ee 29bf 3d5e e4bd d30c babe 9d35 f63d
00000240: 7d2f 44bd 1b0a 15bf b15d 28bf 841d 9dbf
00000250: 6ba8 dc3d b412 2abf b760 e1be a5cb 0c3f
00000260: 4372 4d3f 45fb 563e d924 ddbe f38b 163f
00000270: da9b 3e3f 14af 033f d5c7 3c3f 9545 08bf
00000280: 46d0 75bf cb97 853e d9fc 243f 68eb 053d
00000290: 73d8 133e 3f25 26bf be2c 4fbf 1488 cabe
000002a0: b22c 6d3e c3c8 41bf 9ca8 033e bdff f83e
000002b0: bc16 c6bf cf24 82bd 805f a6bd 5452 813e
000002c0: 727f 023e 1145 87be 85d2 91be d001 9c3d
000002d0: 7f9e 7dbe fa1c c5be 8a97 eabe 9cfc 6e3f
000002e0: 58af 613f 571a 9a3f 8eb8 06be 2400 843f
000002f0: 2d23 083f ceb2 203f 03f8 893f b46f 90be
00000300: 808f 65be 7d0f 07bf a5f1 1ebe a533 21bd
00000310: c5b1 883d 46e7 4fbe 76d9 4cbe 1a14 a63d
00000320: 02a6 893d 2622 d8be a412 d2bb 1682 01bd
00000330: b819 b43e ad17 34be 8542 e73d c987 45bd
00000340: e0cc cb3e b228 efbd 2cf1 1b3e 4647 31bf
00000350: a21e 573d 4848 0d3e ca24 6bbe 838d 8cbf
00000360: 3396 943c a893 7bbd 3ddd 5f3d 029d 27be
00000370: 0fc4 eabd cefa f13d e69a a9be 7ec0 b83e
00000380: 3108 12bd 1b94 5ebc 381b b6bb 4045 c43c
00000390: c568 cdbc 6955 c3bb a4b4 32be 6c09 7f3e
000003a0: a090 003d 5407 bbbe bea5 a33d 4624 81be
000003b0: 1e40 e83e a9a4 ecbd 8a47 2f3d 1068 a9bd
000003c0: 07bb 4b3e 3238 1b3d 38e5 cd3c 1d5e 1bbf
000003d0: d488 4c3c 68d5 a9bd 31b0 94bd 0965 8cbf
000003e0: 8858 0abe 1f12 06be 2dd2 21bd 9f61 f1bd
000003f0: 0249 92be 9d31 5bbe 8a78 b7be b16a ce3e

bias f4 [16]
0.038278617 -0.1304031 -0.14430542 -0.1597759 -0.10208489 -0.11504861 -0.15454176 -0.113443725
-0.06517463 -0.18482098 -0.12781617 -0.17466007 -0.1337634 -0.21072984 -0.258118 -0.08132783
00000000: 0aca 1c3d 6488 05be cdc4 13be 4b9c 23be
00000010: e211 d1bd 9b9e ebbd 3240 1ebe 2f55 e8bd
00000020: 477a 85bd b641 3dbe 3ee2 02be 17da 32be
00000030: 46f9 08be 90c9 57be 0b28 84be 358f a6bd

weight f4 [1, 16]
0.4431846 0.014181447 -0.0044439207 0.19565217 0.3954658 0.15481773 -0.029260488 -0.010960497
0.16632877 0.017742652 0.18970233 -0.06765163 -0.061535046 0.2050042 -0.27079785 -0.07159521
00000000: 18e9 e23e 4d59 683c 4f9e 91bb 0b59 483e
00000010: 7e7a ca3e 8a88 1e3e b1b3 efbc a893 33bc
00000020: 1752 2a3e 0a59 913c 5441 423e f08c 8abd
00000030: 2c0c 7cbd 9fec 513e 04a6 8abe 82a0 92bd

weight f4 [1, 576]
-0.0016627656 0.14130522 0.024644641 0.37687764 0.59087074 0.18423587 0.15177809 -0.20011957
0.056363415 0.19712475 -0.48006135 0.30111334 -0.5649876 -0.12286234 -0.15153147 0.058710482
0.45778027 -0.116657004 0.20590997 -0.22421877 -0.017755656 -0.4477615 -0.38926446 0.4412514
-0.29651836 -0.27290526 -0.2213114 -0.23787461 -0.14683288 -0.16341884 -0.3761311 0.59981924
-0.14490218 0.2741621 -0.18146063 -0.072266914 -0.23937304 -0.2120238 -0.13875866 -0.2656958
0.45547128 -0.2628125 0.099536866 -0.2688618 0.07726663 -0.07653172 -0.1417146 0.12796515
-0.3903855 -0.014637412 -0.0042290315 0.013757244 -0.09269619 0.057306986 -0.24693392 -0.33536467
0.13258004 0.14701293 0.20786089 -0.009585738 -0.5964686 0.035400845 -0.074099444 0.3000461
-0.5314165 0.122767344 -0.14600515 -0.33555564 0.020881131 -0.25321898 0.20063801 -0.707791
0.21702369 0.6657186 -0.20329991 -0.5339667 0.2521629 -0.11880359 -0.07161043 0.36745054
0.30871737 0.08971295 0.13087155 0.61714137 0.23283006 0.1390785 -0.09956319 -0.08730286
0.22583018 0.13976915 0.21097964 0.20663632 0.061305974 0.08478028 -0.29562366 0.40820837
-0.014940633 -0.25782385 0.26738572 0.18703112 0.32057655 0.23393306 0.025532426 0.048702944
0.11291792 -0.19475606 -0.00058556395 0.068277836 -0.56425744 0.042678848 -0.015760183 0.0793085
0.40787846 0.64547783 0.09932885 -0.33076656 0.35615456 0.42088833 0.025920827 0.29077646
0.1499 -0.29933047 -0.013234989 -0.37338942 0.015151317 -0.0031558883 -0.40140405 -0.31272835
-0.032273628 -0.3988596 -0.37018943 -0.09339602 -0.31990668 -0.031843126 -0.18473431 0.1284697
0.37827933 -0.4563301 0.07544242 -0.38727218 0.30377188 0.13137136 -0.1891944 -0.14114651
-0.024022374 0.09758254 0.021285908 0.10425055 -0.33114418 0.15626566 0.37282473 -0.21212138
0.23222908 -0.16173126 -0.39741597 0.022871418 0.2641461 -0.018435463 -0.010430306 0.24932139
0.38384897 -0.15188205 -0.65519226 0.27052656 0.48074108 0.5380746 -0.085201114 0.58220965
0.2409959 -0.4467797 0.49709153 0.19257633 0.28373972 0.65264475 -0.4151629 -0.49485314
-0.32567534 0.08873353 -0.14330181 0.06600859 -0.43721655 0.29472962 0.23001078 -0.36512452
0.677062 0.5065483 -0.105744906 -0.33316332 0.7200464 -0.24384639 -0.16648202 -0.16940375
-0.07991309 -0.11675222 -0.0400562 0.10108467 0.079187326 0.06629714 -0.0007841089 0.31902882
0.11210049 0.016591009 -0.30989495 0.4258585 -0.13054357 0.04978748 -0.32924438 -0.20570114
-0.23500155 -0.49945596 -0.054550026 0.163782 -0.15835544 -0.16795832 -0.02523785 -0.59623575
0.057857826 -0.27886412 -0.11114434 -0.49621785 0.16816108 0.46060395 0.18709409 0.2589801
0.04717827 -0.03211445 -0.062818885 -0.2698879 0.564295 -0.029135946 0.06473847 0.098581485
-0.24875197 0.19446214 0.15691741 0.2613236 -0.21622668 0.2764993 -0.029833494 0.2949351
-0.00892359 -0.052798785 0.004665567 -0.0051642125 -0.51787627 -0.005103783 0.00092231546 0.42414638
-0.2329563 0.101043515 -0.08784559 0.081601486 0.041508265 0.022176398 0.042075306 0.096709125
00000000: 28f1 d9ba 51b2 103e 8fe3 c93c 1bf6 c03e
00000010: 4e43 173f 54a8 3c3e b76b 1b3e 25ec 4cbe
00000020: 53dd 663d 12db 493e 9aca f5be 872b 9a3e
00000030: 07a3 10bf 409f fbbd 112b 1bbe 677a 703d
00000040: 2d62 ea3e dee9 eebd 10da 523e 9b99 65be
00000050: 4f74 91bc ff40 e5be ac4d c7be b4eb e13e
00000060: 41d1 97be 3dba 8bbe 759f 62be 6795 73be
00000070: 5c5b 16be 4557 27be 4194 c0be c18d 193f
00000080: 3d61 14be fa5e 8c3e d1d0 39be ad00 94bd
00000090: 351e 75be c41c 59be c016 0ebe 4809 88be
000000a0: 8833 e93e 5c8f 86be fcd9 cb3d 41a8 89be
000000b0: f83d 9e3d aabc 9cbd a21d 11be 4c09 033e
000000c0: 9ce0 c7be c1d1 6fbc b093 8abb 1066 613c
000000d0: 80d7 bdbd bbba 6a3d 3fdc 7cbe ebb4 abbe
000000e0: 10c3 073e 8f8a 163e 7cd9 543e 800d 1dbc
000000f0: 2bb2 18bf 7a00 113d 73c1 97bd a49f 993e
00000100: e90a 08bf 726d fb3d 6082 15be f3cd abbe
00000110: e80e ab3c eba5 81be 0d74 4d3e ca31 35bf
00000120: 753b 5e3e 896c 2a3f da2d 50be 0bb2 08bf
00000130: 7f1b 813e 4c4f f3bd 7da8 92bd 7a22 bc3e
00000140: 3410 9e3e 6cbb b73d 3103 063e fafc 1d3f
00000150: 016b 6e3e 986a 0e3e c9e7 cbbd d8cb b2bd
00000160: 0740 673e a51f 0f3e 0c0b 583e 7998 533e
00000170: f91b 7b3d 49a1 ad3d fc5b 97be b000 d13e
00000180: 8fc9 74bc 7d01 84be c8e6 883e 1685 3f3e
00000190: 9c22 a43e 268c 6f3e 6129 d13c bd7c 473d
000001a0: 8341 e73d 226e 47be 8880 19ba 40d5 8b3d
000001b0: 2d73 10bf 04d0 2e3d 801b 81bc 7f6c a23d
000001c0: 72d5 d03e 093e 253f ed6c cb3d 3c5a a9be
000001d0: e459 b63e ad7e d73e ea57 d43c a7e0 943e
000001e0: 637f 193e d841 99be 91d7 58bc e62c bfbe
000001f0: 3b3d 783c 05d3 4ebb d584 cdbe ee1d a0be
00000200: 5a31 04bd 5337 ccbe 7889 bdbe 6a46 bfbd
00000210: cfca a3be f06d 02bd fe2a 3dbe 908d 033e
00000220: d4ad c13e 19a4 e9be 8e81 9a3d 8a48 c6be
00000230: fd87 9b3e 3786 063e 2dbc 41be b688 10be
00000240: 92ca c4bc 5bd9 c73d c95f ae3c 5081 d53d
00000250: bb8b a9be 1b04 203e e2e2 be3e 5936 59be
00000260: 76cd 6d3e e19c 25be 1b7a cbbe d75c bb3c
00000270: 283e 873e f805 97bc e0e3 2abc 1b4e 7f3e
00000280: da87 c43e f886 1bbe aeba 27bf 7582 8a3e
00000290: b223 f63e 42bf 093f ec7d aebd b10b 153f
000002a0: a1c7 763e 4fc0 e4be c882 fe3e bb32 453e
000002b0: 5546 913e ba13 273f 3b90 d4be 645d fdbe
000002c0: ebbe a6be edb9 b53d b6bd 12be 832f 873d
000002d0: d9da dfbe cde6 963e f287 6b3e 9af1 babe
000002e0: ef53 2d3f 26ad 013f c990 d8bd 6294 aabe
000002f0: f654 383f deb2 79be 437a 2abe 2d78 2dbe
00000300: 79a9 a3bd ca1b efbd f811 24bd 7b05 cf3d
00000310: f72c a23d ccc6 873d a88c 4dba bf57 a33e
00000320: f194 e53d dee9 873c 8daa 9ebe 200a da3e
00000330: 37ad 05be f5ed 4b3d b892 a8be 52a3 52be
00000340: 3fa4 70be b1b8 ffbe d96f 5fbd 78b6 273e
00000350: ee27 22be 44fd 2bbe 9cbf cebc e8a2 18bf
00000360: 54fc 6c3d 47c7 8ebe a59f e3bd 4410 febe
00000370: 6b32 2c3e 48d4 eb3e 9895 3f3e 0a99 843e
00000380: 003e 413d 718a 03bd 30a7 80bd bf2e 8abe
00000390: a375 103f 82ae eebc 9a95 843d 17e5 c93d
000003a0: d6b8 7ebe 1521 473e f5ae 203e 35cc 853e
000003b0: 876a 5dbe 5191 8d3e 5f65 f4bc bc01 973e
000003c0: 4034 12bc 8a43 58bd 9de1 983b 8e38 a9bb
000003d0: 8a93 04bf a33d a7bb 8bc7 713a b729 d93e
000003e0: 198c 6ebe e7ef ce3d 64e8 b3bd ae1e a73d
000003f0: 9204 2a3d 47ab b53c 2857 2c3d 6f0f c63d

weight f4 [32, 576]
0.0062607117 -0.25134856 0.47905332 -0.1898664 -0.21603099 -0.13691057 0.025083411 -0.25048745
0.08279579 -0.3434192 0.97802025 -0.7971997 -0.3830311 0.30158907 0.17936818 0.09391455
-0.9850654 -1.7720084 0.21534139 -0.8140604 -0.15213974 -0.045355037 -0.7518541 -0.6876385
-0.9378689 -0.880708 0.83307266 -1.057715 -1.1797801 -0.040874086 -0.739121 1.1646236
-0.47697666 -0.7406905 -0.7963242 -0.14592795 -0.7502299 0.10101006 -0.91604626 2.0048344
0.003657136 -0.5941327 -1.3069459 0.34192678 -0.25141117 -0.14167227 1.0421414 -2.212614
-0.44306284 -0.051957212 0.000674305 0.035289418 0.70873195 0.27591982 0.49885356 -0.2409749
0.2338365 -0.14897588 0.091606125 -0.015161956 -0.10223807 -0.05114582 0.4558719 0.13856207
0.34507334 0.063483685 0.7482759 -0.7348631 0.32699224 0.82048786 -0.72717744 -0.20582601
0.19163248 0.19852018 0.72293556 -0.7602755 0.10597426 -1.3465166 0.07708038 -0.35470244
0.005203457 -0.41140375 -0.49048796 -0.90835416 -0.26575273 0.27223262 -0.22935769 0.87802786
-1.7742027 0.0010234703 -0.5877037 -0.88798314 -0.9023171 0.502989 -0.08345338 0.3279316
0.2111598 0.2951445 -0.33775997 -0.5771709 -0.06204295 0.079196066 -0.0285571 0.003524542
0.15891773 0.005371449 -0.22713435 -0.74645317 -0.43849477 0.057871345 0.13750951 0.08987206
-0.62700254 0.27092528 -1.284006 0.40815407 -0.5484845 0.59405965 -0.0740522 -0.52577287
-1.8783607 -0.6728676 0.8853273 0.41305548 -0.3661016 0.18362734 -0.56044495 -0.14705306
0.24042805 -0.53976035 0.5770014 -1.2371353 0.538728 -0.0524311 0.26253298 -0.8188247
-0.6752784 0.71605796 -0.7867315 0.642281 -0.23405145 -0.81822145 0.28470126 0.222318
0.0059697013 -0.0852352 -0.012201284 0.043649856 0.03673144 0.25548944 -0.54637367 -0.22585928
0.44652006 0.092971295 0.9775428 -0.02889597 0.27654135 0.20877086 0.029835964 -0.40218192
-0.13921244 -0.50671136 2.3646715 0.40771726 0.1806353 -0.018468823 -1.0645247 0.3158545
0.3200685 0.82142764 -0.5637718 -2.0605168 -0.66374457 0.8343751 1.5839112 0.47690415
0.57154447 -0.15338668 -0.69628775 0.3839076 0.5198238 0.9424863 -0.16227962 0.38727322
-0.09197231 0.2811618 -0.31837508 1.0321805 0.25322166 -0.32967517 -0.18010019 -0.1820161
-0.010534053 0.091270916 -0.009771664 -0.013615162 0.014430341 -0.10546273 0.00014187937 -0.2225094
0.7791891 -0.675168 0.13726065 -0.6355991 -0.44641513 -0.8206727 0.115212515 -0.9021328
-0.24253659 0.69744486 -1.431959 0.048850328 0.17924155 0.25721186 -1.699402 0.11924082
-0.4642919 0.87296575 0.9837086 0.4753114 -0.84685117 0.12115087 -0.33419004 -0.16020544
0.3232525 0.30327556 1.6741176 -2.056297 -0.8189264 -0.47167543 -0.2010736 0.67911303
-0.70778495 -1.0940993 -0.71376723 -0.86824304 -0.4274447 -0.6736113 -2.011263 -1.5235351
-0.01193191 -0.10737712 -0.014040309 0.2522663 0.1652642 -0.29829502 0.03368085 -0.26787353
-0.12256348 -0.27565178 0.15497044 -0.662609 -0.2680784 -0.029200688 -0.03928049 0.120514184
00000000: a826 cd3b c2b0 80be 7a46 f53e 566c 42be
00000010: 3a37 5dbe 4932 0cbe ba7b cd3c e43f 80be
00000020: d790 a93d a4d4 afbe 895f 7a3f 4815 4cbf
00000030: a71c c4be e269 9a3e 4bac 373e 4656 c03d
00000040: 3f2d 7cbf 2cd1 e2bf 7482 5c3e 4366 50bf
00000050: 85ca 1bbe 34c6 39bd 8379 40bf 1409 30bf
00000060: 2d18 70bf 1476 61bf 4044 553f 3563 87bf
00000070: 0903 97bf 966b 27bd 0937 3dbf 6312 953f
00000080: 4936 f4be e59d 3dbf e7db 4bbf 236e 15be
00000090: 110f 40bf 5dde ce3d 0282 6abf 354f 0040
000000a0: 90ac 6f3b 1519 18bf 014a a7bf 0711 af3e
000000b0: f7b8 80be 8912 11be e464 853f 789b 0dc0
000000c0: 22d9 e2be 16d1 54bd d8c3 303a a38b 103d
000000d0: 756f 353f 5d45 8d3e bc69 ff3e 20c2 76be
000000e0: d672 6f3e 228d 18be fe9b bb3d da69 78bc
000000f0: 3162 d1bd 487e 51bd 0b68 e93e 37e3 0d3e
00000100: 74ad b03e bc03 823d 028f 3f3f fd1f 3cbf
00000110: 876b a73e 7e0b 523f 4d28 3abf 0ec4 52be
00000120: 4e3b 443e e048 4b3e 4e12 393f 6aa1 42bf
00000130: 0809 d93d a85a acbf 51dc 9d3d 8f9b b5be
00000140: c381 aa3b 83a3 d2be 3d21 fbbe e689 68bf
00000150: be10 88be 1362 8b3e bedc 6abe 6fc6 603f
00000160: 1319 e3bf f725 863a c073 16bf dd52 63bf
00000170: 41fe 66bf e3c3 003f 9be9 aabd a7e6 a73e
00000180: 463a 583e 2e1d 973e e0ee acbe 79c1 13bf
00000190: c020 7ebd 8c31 a23d 94f0 e9bc 01fc 663b
000001a0: 54bb 223e fb02 b03b e895 68be 8e17 3fbf
000001b0: 6382 e0be 810a 6d3d 4bcf 0c3e d80e b83d
000001c0: 3d83 20bf b8b6 8a3e 4f5a a4bf 92f9 d03e
000001d0: 7b69 0cbf 4b14 183f aea8 97bd 0d99 06bf
000001e0: 206e f0bf 0d41 2cbf cfa4 623f 027c d33e
000001f0: ab71 bbbe ce08 3c3e 5279 0fbf 1495 16be
00000200: c532 763e bc2d 0abf 5db6 133f 735a 9ebf
00000210: 14ea 093f fec1 56bd b96a 863e 7f9e 51bf
00000220: 0cdf 2cbf 934f 373f 3c67 49bf 876c 243f
00000230: 2fab 6fbe f676 51bf 5dc4 913e 54a7 633e
00000240: 7c9d c33b cb8f aebd e5e7 47bc 31ca 323d
00000250: b573 163d 83cf 823e 25df 0bbf a847 67be
00000260: 479e e43e bc67 be3d 3f40 7a3f 3eb7 ecbc
00000270: d496 8d3e 07c8 553e 8d6a f43c caea cdbe
00000280: b58d 0ebe d6b7 01bf c756 1740 51c0 d03e
00000290: 76f8 383e ee4b 97bc 5842 88bf aeb7 a13e
000002a0: 05e0 a33e 1549 523f 5953 10bf 82df 03c0
000002b0: 2aeb 29bf 9b99 553f 9abd ca3f c82c f43e
000002c0: bd50 123f 6611 1dbe ea3f 32bf 898f c43e
000002d0: 2c13 053f c846 713f a12c 26be ad48 c63e
000002e0: fa5b bcbd 70f4 8f3e 0f02 a3be 7e1e 843f
000002f0: 45a6 813e 2fcb a8be 2f6c 38be 6e62 3abe
00000300: 0597 2cbc 3fec ba3d 5419 20bc 2112 5fbc
00000310: 3d6d 6c3c d8fc d7bd 74c5 1439 81d9 63be
00000320: f078 473f cfd7 2cbf 0e8e 0c3e 9fb6 22bf
00000330: 8690 e4be 9b17 52bf 8af4 eb3d 2df2 66bf
00000340: 835b 78be bf8b 323f 6f4a b7bf 4817 483d
00000350: 198b 373e 46b1 833e 0186 d9bf 8834 f43d
00000360: abb7 edbe af7a 5f3f 54d4 7b3f 045c f33e
00000370: 3dcb 58bf f31d f83d f51a abbe e50c 24be
00000380: 5a81 a53e ef46 9b3e 7c49 d63f 5f9a 03c0
00000390: 29a5 51bf 717f f1be 3de6 4dbe 5ada 2d3f
000003a0: 6531 35bf 720b 8cbf 73b9 36bf 2d45 5ebf
000003b0: 08da dabe ca71 2cbf 88b8 00c0 3303 c3bf
000003c0: 0f7e 43bc 89e8 dbbd 5309 66bc 0c29 813e
000003d0: 053b 293e 20ba 98be eef4 093d b826 89be
000003e0: 9002 fbbd 3b22 8dbe 92b0 1e3e bea0 29bf
000003f0: 9241 89be 4836 efbc 94e4 20bd 24d0 f63d

bias f4 [32]
0.12568429 -0.83359975 -0.7100376 -0.37697074 -0.83027613 -0.68971294 0.20543532 -1.0754408
-0.27087423 -1.7083851 -0.5655027 -0.09478144 -0.05447256 -1.3698437 -1.0296153 -0.54125077
-1.745502 0.09275941 -0.72596556 -0.7936653 -0.81974286 -0.63188213 -0.48131967 -0.787773
-0.18788463 -0.933731 -0.81659853 -1.6132518 -1.3308756 -0.94254607 -0.25357655 -0.5578514
00000000: 62b3 003e cb66 55bf 06c5 35bf 4f02 c1be
00000010: fa8c 54bf 0791 30bf a35d 523e 0ba8 89bf
00000020: 07b0 8abe 5dac dabf c9c4 10bf c61c c2bd
00000030: 9e1e 5fbd 0a57 afbf 6fca 83bf 698f 0abf
00000040: 9c6c dfbf a5f8 bd3d e1d8 39bf a62d 4bbf
00000050: abda 51bf 07c3 21bf 886f f6be 7eab 49bf
00000060: d464 40be ff08 6fbf 9a0c 51bf 097f cebf
00000070: 225a aabf b34a 71bf c9d4 81be 59cf 0ebf
