MLIPs/CACE-LES/dipep/caceles-r-5.5-nl-1-nu-2/checkpoint.pt (torch, 543202 bytes, 54 tensors)

representation.node_embedding_sender.embedding_weights f4 [4, 4]
0.30703393 0.32906476 -0.018355241 0.08410497 0.22969842 -0.26713884 -0.46997347 0.626761
0.25950092 -0.33776948 0.52369815 0.5790982 0.3286846 -0.48987648 0.58026177 0.55450255
00000000: 8d33 9d3e 2d7b a83e bb5d 96bc 3a3f ac3d
00000010: 1036 6b3e 6cc6 88be 5da0 f0be 6973 203f
00000020: 4edd 843e 1ff0 acbe 1511 063f c83f 143f
00000030: 5949 a83e 17d1 fabe 098c 143f e1f3 0d3f

representation.node_embedding_receiver.embedding_weights f4 [4, 4]
0.052285112 0.3818518 -0.02186849 0.12309011 0.0544255 -0.030604817 -0.6263144 0.452775
0.47024122 -0.065746374 0.6662904 0.18962257 0.68432266 0.18961439 -0.05097176 -0.336628
00000000: ea28 563d 1482 c33e 8c25 b3bc ab16 fc3d
00000010: 46ed 5e3d f4b6 fabc 2456 20bf 20d2 e73e
00000020: 75c3 f03e 09a6 86bd 0292 2a3f 6b2c 423e
00000030: c52f 2f3f 462a 423e c4c7 50bd 815a acbe

representation.radial_basis.bessel_weights f4 [6]
0.16454868 1.0426546 1.8132819 2.6377993 3.4649644 4.296131
00000000: 737f 283e b575 853f 9f19 e83f b4d1 2840
00000010: fac1 5d40 e879 8940

representation.radial_transform.weights.0 f4 [6, 12, 16]
-0.065367185 0.28901005 -0.31673175 0.53146726 -1.7425195 0.025751218 0.6417337 -0.5187946
-0.27098718 -0.010372336 -0.7868021 2.1010995 0.22157508 -0.26443687 -0.37195823 0.4498455
0.20883071 0.6898281 -0.015001681 0.023216547 0.085286714 1.3362539 2.731971 -1.3414836
1.452775 1.299852 2.697107 0.09506095 0.04680748 0.06960075 0.4251986 0.49500012
0.2754637 -0.035249405 0.4891014 -0.4492153 -0.26858392 0.6730626 -0.007706522 0.20445462
-0.7226011 1.2413712 0.21450117 -0.79030126 -0.31823647 0.0051160585 -0.0649158 0.67720884
0.033979364 0.61760354 -0.008709446 0.74496394 2.2112052 1.5018089 3.0440176 -2.3574615
-0.10411796 -0.97959375 -0.39026037 0.34926295 0.15032482 0.5793466 0.043098293 0.37135598
0.4103455 -0.21450834 0.6076207 0.4466612 1.9754158 1.5615185 -0.019483704 1.0762217
-0.023591574 1.897632 -0.4044259 2.2463052 0.8794718 0.47383383 0.4109163 0.50079125
0.042057272 1.088859 -0.01976063 0.23331837 2.36377 0.081406556 0.5706676 0.2767275
1.8765228 1.6816803 0.6461691 -1.6765548 0.02049402 0.51961565 -0.16542703 0.1526007
0.008381682 0.8624352 0.008172165 -0.3714531 1.9608177 0.52616405 -0.06384008 0.76316506
1.2710677 -0.085857034 0.31624597 0.97942215 0.8061092 0.31293052 0.028163902 0.23951294
-0.34391037 0.57123595 -0.034703508 -0.27346957 -0.9950944 0.42022997 0.32883495 1.5983536
2.346928 -0.1986212 0.7578665 1.2415192 0.5236903 0.12701894 -0.023336478 0.1913372
0.05741313 -0.022659583 -0.0054001533 0.53683364 -0.8275326 0.7118271 -0.30789605 -0.895602
2.0632596 -0.7326521 1.784924 -1.0053521 1.0924906 0.3609558 1.221044 -0.17889608
-0.2055496 0.03799281 -0.16836518 -0.5826074 -0.20546474 1.3733993 -0.12142418 0.6929778
1.665173 -0.46403617 -0.5062018 2.4673471 0.027547078 -0.018799739 -0.07701427 -0.0683752
0.31052253 0.00708595 0.04446096 -0.2934511 -0.8579513 0.49595818 -0.091061644 -0.18757676
-0.49679497 1.1976829 0.9257541 1.1792126 0.020394204 1.0500875 -0.27985075 1.3500117
-0.0024331226 0.20808265 -0.015699107 -0.3677935 -1.666048 0.6739249 0.7454716 0.838842
2.3444605 1.6932507 -0.20106943 -1.3386537 0.31190258 0.4981736 0.009978465 0.020321537
0.019570703 1.2907562 0.5151974 -0.33731157 -0.2964951 0.6528419 -0.26623967 -0.34809366
0.3023887 0.020785585 0.5131988 -0.16964573 0.40203938 -0.14168938 0.6208739 0.33047828
0.548191 -0.54064643 0.004338012 -0.015655687 0.46717274 -0.35318255 0.614226 -1.2530413
0.54167414 0.011215551 1.6794963 -0.02700562 0.19383846 0.23783426 0.115124464 0.7400492
-0.10716837 0.68515104 -0.48838764 0.12367679 0.3206523 1.0350151 -0.010605438 -0.024875363
0.552048 0.8063692 0.34489456 0.39341855 0.81947017 0.0587973 0.21952292 0.40078282
-0.03287927 -0.40189594 0.033429105 -0.16847007 1.0447582 -0.35240898 1.228984 -1.2672173
0.4620372 0.3895101 -0.28647 -0.1921446 0.44172907 -0.64835006 -0.05320716 0.21238522
00000000: 3bdf 85bd 20f9 933e aa2a a2be 3d0e 083f
00000010: e10a dfbf 38f4 d23c a948 243f b9cf 04bf
00000020: d5be 8abe bbf0 29bc dd6b 49bf 6a78 0640
00000030: 94e4 623e 4564 87be 4f71 bebe 2652 e63e
00000040: b8d7 553e 9398 303f 9cc9 75bc a130 be3c
00000050: cdaa ae3d 5e0a ab3f 9dd8 2e40 bcb5 abbf
00000060: 88f4 b93f 8d61 a63f 679d 2c40 51af c23d
00000070: 33b9 3f3d d78a 8e3d a2b3 d93e a870 fd3e
00000080: 9409 8d3e ae61 10bd 806b fa3e 8cff e5be
00000090: d583 89be d54d 2c3f fe86 fcbb 8d5c 513e
000000a0: 63fc 38bf 40e5 9e3f 32a6 5b3e 2f51 4abf
000000b0: e4ef a2be 9ca4 a73b 93f2 84bd 8f5d 2d3f
000000c0: f22d 0b3d 441b 1e3f 10b2 0ebc f5b5 3e3f
000000d0: 6384 0d40 463b c03f 2fd1 4240 a6e0 16c0
000000e0: cc3b d5bd a8c6 7abf 35d0 c7be 98d2 b23e
000000f0: c0ee 193e 0f50 143f d687 303d 5f22 be3e
00000100: ce18 d23e 13a8 5bbe 088d 1b3f c7b0 e43e
00000110: 6dda fc3f d7df c73f 4a9c 9fbc a2c1 893f
00000120: 1e43 c1bc 9be5 f23f e910 cfbe 77c3 0f40
00000130: 1025 613f 599a f23e 9f63 d23e db33 003f
00000140: 3f44 2c3d bb5f 8b3f 0be1 a1bc 03eb 6e3e
00000150: 0248 1740 7bb8 a63d 4617 123f 3aaf 8d3e
00000160: e631 f03f 4d41 d73f 576b 253f 5999 d6bf
00000170: 13e3 a73c 8805 053f b465 29be 5c43 1c3e
00000180: 5353 093c 8ec8 5c3f 8be4 053c 1a2f bebe
00000190: 13fc fa3f b0b2 063f 96be 82bd c95e 433f
000001a0: 59b2 a23f d0d5 afbd feea a13e 69bb 7a3f
000001b0: 2c5d 4e3f 6e38 a03e fcb7 e63c e142 753e
000001c0: 0515 b0be 853c 123f 4425 0ebd 3404 8cbe
000001d0: 82be 7ebf 6228 d73e 0e5d a83e da96 cc3f
000001e0: 1134 1640 5b63 4bbe 8a03 423f 1aea 9e3f
000001f0: 9110 063f 4111 023e 242c bfbc e6ed 433e
00000200: 082a 6b3d 97a0 b9bc c5f3 b0bb ee6d 093f
00000210: 2dd9 53bf 4d3a 363f 8da4 9dbe 2c46 65bf
00000220: 720c 0440 178f 3bbf 6478 e43f 61af 80bf
00000230: bbd6 8b3f 33cf b83e 2b4b 9c3f 8930 37be
00000240: 987b 52be 599e 1b3d ec67 2cbe c225 15bf
00000250: 5965 52be 8ccb af3f 3ead f8bd fe66 313f
00000260: 6424 d53f 2696 edbe 7196 01bf 04e9 1d40
00000270: 69aa e13c e901 9abc a8b9 9dbd 4c08 8cbd
00000280: cffc 9e3e 4231 e83b b21c 363d 393f 96be
00000290: b2a2 5bbf 3bee fd3e 877e babd 1f14 40be
000002a0: e95b febe ac4d 993f 38fe 6c3f 70f0 963f
000002b0: bf11 a73c 4469 863f 9948 8fbe 2fcd ac3f
000002c0: 0675 1fbb 9e13 553e 6a9b 80bc 6e4f bcbe
000002d0: 1041 d5bf 5886 2c3f 3ad7 3e3f 59be 563f
000002e0: a40b 1640 70bc d83f 25e5 4dbe 0159 abbf
000002f0: b2b1 9f3e 9c10 ff3e b77c 233c 5a79 a63c
00000300: bd52 a03c 8037 a53f fae3 033f 1ab4 acbe
00000310: 35ce 97be a620 273f 9150 88be 5539 b2be
00000320: b1d2 9a3e 8846 aa3c ff60 033f 9cb7 2dbe
00000330: 1bd8 cd3e 0517 11be 98f1 1e3f 7334 a93e
00000340: 3f56 0c3f ce67 0abf e225 8e3b 5b40 80bc
00000350: 4431 ef3e 58d4 b4be ea3d 1d3f a863 a0bf
00000360: 28ab 0a3f 6ec1 373c bcf9 d63f e43a ddbc
00000370: 977d 463e d38a 733e 60c6 eb3d dd73 3d3f
00000380: 177b dbbd 0f66 2f3f f20d fabe 424a fd3d
00000390: 8a2c a43e 607b 843f 6ec2 2dbc 6bc7 cbbc
000003a0: 0553 0d3f 366e 4e3f 0596 b03e 286e c93e
000003b0: ccc8 513f 70d5 703d 9eca 603e 6833 cd3e
000003c0: 6aac 06bd 4ec5 cdbe f5ec 083d 6b83 2cbe
000003d0: a3ba 853f f36e b4be 594f 9d3f 2d34 a2bf
000003e0: 2490 ec3e de6d c73e 32ac 92be 8ec1 44be
000003f0: 502a e23e 45fa 25bf c0ef 59bd 837b 593e

representation.radial_transform.weights.1 f4 [6, 12, 16]
-0.24045898 0.8024034 1.3655366 -0.64087397 2.6629274 2.0947635 -1.1976151 -1.3353244
0.43183395 -1.107446 -1.6186769 1.9371938 -0.1218749 0.26722595 1.2323492 -0.24651657
0.9429283 -0.5417197 -0.42415735 -0.062207744 1.8542054 -0.82354885 -0.57216513 0.66602665
0.8816057 2.1735377 -2.0117602 0.16866806 0.5406816 -0.14540945 0.6284372 -1.1812075
1.3493063 -1.5584079 1.8010992 2.5379133 0.38881156 -0.46726832 2.6633976 0.8653123
0.33801907 3.3474197 1.6779815 -1.6014967 0.47332644 -0.8669315 -0.06053105 0.38940242
0.7407298 0.65241975 2.0683382 0.035730183 -3.2199147 -1.0095102 -0.016307263 0.18627945
0.8062603 -0.23065256 -1.0217057 -2.0234184 1.275749 0.3252138 -0.2535553 1.8595327
-0.35832235 -0.1909036 0.43405563 1.758702 -1.2761307 -1.0908451 1.0243146 -3.4965901
-1.1753414 0.7069123 -0.5649696 1.5311966 1.0292029 -0.3362974 1.7443871 -0.92335343
-1.29973 0.44344497 1.2787024 -0.64762986 3.3904161 -2.930368 -0.07525873 -1.4867444
-0.99936205 -0.45202747 0.97799534 -0.69073236 -1.4141474 0.25276855 0.16892718 -0.32144114
-1.7952714 0.098159514 1.9176059 -1.3848342 0.013456114 -1.5262208 0.8424111 -1.414338
1.5624989 0.12412354 1.0335004 2.1027703 -0.5642668 -0.19538936 0.52197564 -1.3099107
0.39995602 -0.60851955 -0.34066796 3.0505254 0.3581499 1.2726675 -0.86923814 0.010454448
-1.1174494 0.23617789 1.2876908 -0.20544714 1.4945933 0.9485594 1.169342 0.38292792
-1.864527 -0.59089696 0.3865487 1.0747731 2.0482223 1.5909249 0.87239593 1.9854467
2.2443073 -0.93185455 1.3832816 -1.7516865 -0.4452184 0.059354343 -0.66112214 0.46352512
1.6792264 -1.3175751 -0.085095115 2.812256 0.6287922 3.8707933 -0.7708165 -1.3189186
1.6084042 1.2563894 -2.340516 0.915642 0.822508 -0.7376815 -0.6828119 0.5989075
0.048279624 -2.1319795 1.7712725 1.6966633 0.9974436 0.044639718 1.2691599 0.4832953
4.0385585 1.4205068 0.4856119 -3.6304734 0.85670316 0.6337341 0.73703885 -1.229982
-1.3406031 0.090420626 -1.4870731 -0.5017929 -0.44852337 -0.12675685 0.009058715 0.81659836
-1.0367868 -0.3790053 1.9486531 1.1852034 0.2892093 0.7656819 0.9348914 -0.703865
-1.7043883 -1.2737793 2.0124042 0.42836887 0.5100632 1.3179911 -0.093189694 1.0226772
1.3326629 0.34565026 -1.1179451 1.6537797 -0.122029014 0.3460898 -1.0897942 -1.1352518
1.7841591 0.3008928 0.75380635 1.7648132 0.80791795 -0.40538707 0.9881787 0.90380514
-0.123021424 1.0836489 -1.1662116 1.2100756 -0.75188917 1.032791 0.16138424 -0.49409118
2.4919698 1.4255525 1.20988 0.7989172 0.6953487 -0.06733039 0.31937525 1.0844662
1.7657187 0.25195497 2.1862733 -0.1765841 0.29703173 0.20563263 -0.4843666 1.6122034
-0.7612869 0.4794191 2.1182675 -0.37965557 0.0797823 0.34433755 1.0545417 -0.124115765
-0.21579261 -1.3436916 0.44882086 -0.28640154 0.67307496 -0.22057115 0.6311791 -1.2116317
00000000: e13a 76be 4f6a 4d3f e7c9 ae3f 5110 24bf
00000010: 676d 2a40 9b10 0640 744b 99bf e9eb aabf
00000020: 5719 dd3e cac0 8dbf ce30 cfbf f7f5 f73f
00000030: 8c99 f9bd d7d1 883e 9ebd 9d3f d76e 7cbe
00000040: c063 713f 24ae 0abf 272b d9be 8ccd 7ebd
00000050: 9a56 ed3f 19d4 52bf 6a79 12bf b980 2a3f
00000060: e9b0 613f 3e1b 0b40 aec0 00c0 52b7 2c3e
00000070: 1c6a 0a3f 37e6 14be 43e1 203f cf31 97bf
00000080: 12b6 ac3f e979 c7bf 6b8a e63f 2c6d 2240
00000090: 4f12 c73e cb3d efbe 1b75 2a40 1b85 5d3f
000000a0: d610 ad3e 203c 5640 19c8 d63f d8fd ccbf
000000b0: d857 f23e 39ef 5dbf 68ef 77bd c15f c73e
000000c0: 78a0 3d3f fb04 273f a75f 0440 d059 123d
000000d0: 1513 4ec0 a137 81bf cf96 85bc 0ac0 3e3e
000000e0: 1367 4e3f 2f30 6cbe 41c7 82bf b07f 01c0
000000f0: be4b a33f 6c82 a63e 00d2 81be 2b05 ee3f
00000100: 0776 b7be 3c7c 43be 8a3c de3e 261d e13f
00000110: 4058 a3bf d0a0 8bbf be1c 833f 22c8 5fc0
00000120: 9671 96bf 34f8 343f d9a1 10bf 40fe c33f
00000130: ecbc 833f 2c2f acbe 1448 df3f e460 6cbf
00000140: 8d5d a6bf 380b e33e 85ac a33f 12cb 25bf
00000150: 94fc 5840 268b 3bc0 4021 9abd a44d bebf
00000160: 31d6 7fbf 2570 e7be e75d 7a3f d6d3 30bf
00000170: c802 b5bf e16a 813e 3ffb 2c3e ef93 a4be
00000180: 74cb e5bf db07 c93d 1c74 f53f 3f42 b1bf
00000190: 0877 5c3c 345b c3bf 41a8 573f 0709 b5bf
000001a0: f7ff c73f 7c34 fe3d be49 843f ca93 0640
000001b0: ca73 10bf 2614 48be 32a0 053f 27ab a7bf
000001c0: 09c7 cc3e f0c7 1bbf 086c aebe cf3b 4340
000001d0: 6c5f b73e c5e6 a23f 6486 5ebf 2249 2b3c
000001e0: 9508 8fbf 9ed8 713e 0dd3 a43f bc60 52be
000001f0: d54e bf3f cad4 723f 00ad 953f 210f c43e
00000200: d2a8 eebf 0645 17bf b6e9 c53e 2a92 893f
00000210: 1316 0340 6da3 cb3f 5755 5f3f 1e23 fe3f
00000220: bba2 0f40 058e 6ebf 5f0f b13f 4337 e0bf
00000230: abf3 e3be 8a1d 733d 4d3f 29bf 2a53 ed3e
00000240: e4f0 d63f 4da6 a8bf 5946 aebd 01fc 3340
00000250: 87f8 203f 14bb 7740 3b54 45bf 53d2 a8bf
00000260: 30e0 cd3f 5ed1 a03f 04cb 15c0 8467 6a3f
00000270: e28f 523f b2d8 3cbf c3cc 2ebf 0052 193f
00000280: dbc0 453d 5a72 08c0 0fb9 e23f 432c d93f
00000290: 7758 7f3f 23d8 363d d573 a23f 7b72 f73e
000002a0: df3b 8140 2bd3 b53f 1fa2 f83e ad59 68c0
000002b0: e650 5b3f 663c 223f 94ae 3c3f 0d70 9dbf
000002c0: e298 abbf 732e b93d 6958 bebf 8075 00bf
000002d0: dba4 e5be 8ccc 01be 016b 143c 970c 513f
000002e0: 6eb5 84bf fc0c c2be 776d f93f bfb4 973f
000002f0: 3e13 943e bb03 443f 0b55 6f3f 7f30 34bf
00000300: 6529 dabf 330b a3bf 3bcb 0040 2a53 db3e
00000310: 8093 023f efb3 a83f 3dda bebd 16e7 823f
00000320: b394 aa3f 12f9 b03e d318 8fbf 0eaf d33f
00000330: 59ea f9bd af32 b13e 607e 8bbf ee4f 91bf
00000340: 535f e43f 9f0e 9a3e 74f9 403f 66e5 e13f
00000350: b6d3 4e3f e58e cfbe 47f9 7c3f c65f 673f
00000360: a8f2 fbbd 02b5 8a3f 6c46 95bf c2e3 9a3f
00000370: cf7b 40bf 7f32 843f e941 253e 85f9 fcbe
00000380: 6f7c 1f40 8178 b63f 59dd 9a3f d685 4c3f
00000390: 5f02 323f 84e4 89bd 2785 a33e cacf 8a3f
000003a0: 1203 e23f 3e00 813e e7eb 0b40 76d2 34be
000003b0: 8b14 983e 5c91 523e e6fe f7be ae5c ce3f
000003c0: b3e3 42bf 6c76 f53e b291 0740 3762 c2be
000003d0: e764 a33d 034d b03e 39fb 863f 6830 febd
000003e0: bdf8 5cbe 16fe abbf d9cb e53e 39a3 92be
000003f0: a44e 2c3f 67dd 61be f494 213f bf16 9bbf

representation.radial_transform.weights.2 f4 [6, 12, 16]
-0.5650154 -0.65129775 0.8772979 -0.14873053 1.0531281 -1.4233896 -1.2581537 2.0773187
-0.20473404 -1.2785096 2.0899866 -2.4679093 0.4004696 -0.18231009 0.94550717 -0.094399996
0.14921558 1.2074128 0.105007306 0.5644373 2.4317446 2.408372 0.38238072 1.4284724
2.1018705 1.4907678 1.9288619 0.048120037 0.0059227175 0.24524134 0.8102588 0.8249044
-0.30950063 0.1785066 1.2131875 -0.17714179 0.727942 -0.73571527 0.5607695 -0.2795001
-0.5245187 1.5143905 0.18322726 2.2686071 1.5674636 0.22535594 -0.14476472 0.57240385
0.14174032 0.23990299 0.359029 -1.4526066 0.7688 -1.1324549 -0.034337964 -1.4495213
1.846762 2.765416 1.335812 0.76500994 0.11409288 0.47779295 0.8224794 0.91361374
0.05621617 0.564044 0.294895 0.22221228 1.3530785 2.0378444 -0.46768618 1.3876384
2.7753115 0.48380554 0.77535105 -0.12190642 1.4029466 1.1675004 0.79477704 -0.01594779
0.39700142 1.2750983 0.1381094 0.77053434 2.0885193 -1.593532 0.036402892 -0.85284656
1.381138 -0.22552387 3.0666983 0.8054549 0.49635845 -0.47142288 -0.1812884 -0.79563695
0.51207083 -0.11146486 0.689955 0.46156168 1.3435667 2.3300316 1.669154 0.10425751
-2.2915683 -1.0793908 -0.72847706 1.0565159 -0.15539914 -0.5198226 1.1127955 -0.3859399
0.6818081 0.7279326 1.4221953 0.6525438 1.9627663 -0.30618382 -0.28963056 2.7297459
-0.036981378 2.5942523 0.88935554 -1.8711755 0.5763325 1.0954863 0.7145073 0.4966009
-0.45715472 0.29773533 0.7202575 1.2510682 2.0108993 -1.8296342 0.5918243 -0.26629627
1.6508235 -1.8766638 1.2126442 -0.46705204 -0.1738815 1.0745614 -0.0017917937 0.09809655
-0.06107798 -0.36843577 0.010832617 1.0173824 -1.1404899 -0.1494599 0.25799885 2.005719
-0.78742737 2.8697505 -0.060256835 -0.20712264 1.1276456 -0.24274495 -0.03360516 0.14437008
1.4230391 0.11221623 0.12360397 0.08046129 2.2370467 1.8018869 0.5963789 -1.8281589
0.849608 2.1203938 -0.7211747 3.182071 1.1955806 -0.2697369 0.06967669 0.739951
-0.35707363 0.9491292 -0.15895544 -0.2353269 0.7319068 -1.7769352 0.31858626 -0.59552157
-2.9781852 0.5475043 -1.8001133 1.2414659 0.6536968 0.5002596 0.61334133 0.025890749
0.30852157 0.8189573 0.0683881 0.7489268 1.4807069 -0.36955673 -0.72089237 0.7215274
-0.54344755 0.5932513 0.50440943 -0.09892661 0.48463368 0.5105663 -0.21150509 0.9727291
-0.034738246 0.67495114 0.1455562 0.6632929 -0.109940104 0.98718035 0.24535398 0.59034437
2.0890694 1.2474589 1.0586154 -1.4411333 1.0295091 1.4618008 0.3941326 -0.5888753
-0.24777585 0.6455237 0.09252116 0.911155 -0.38990575 -0.4069113 1.4097639 -0.034686252
0.5313125 0.9500657 -0.26822236 1.6369331 -0.26877952 0.21981385 -0.58198225 0.85294116
-0.61109877 0.04422804 0.284091 -0.93520623 -0.03027472 0.5935253 0.44389328 1.0667379
0.84163964 1.3864468 2.8660614 -0.18956137 -0.18998034 0.8060488 1.3999673 0.15248436
00000000: d9a4 10bf 73bb 26bf 9896 603f d14c 18be
00000010: e7cc 863f a131 b6bf 2e0b a1bf caf2 0440
00000020: cda5 51be 34a6 a3bf 57c2 0540 3af2 1dc0
00000030: 5a0a cd3e 7faf 3abe c20c 723f c954 c1bd
00000040: f8cb 183e 818c 9a3f 120e d73d f77e 103f
00000050: b4a1 1b40 c422 1a40 68c7 c33e 2fd8 b63f
00000060: 0c85 0640 7bd1 be3f f2e4 f63f 8419 453d
00000070: 5b13 c23b 8c20 7b3e 1f6d 4f3f ef2c 533f
00000080: de76 9ebe 6fca 363e ba49 9b3f a864 35be
00000090: 685a 3a3f d657 3cbf 978e 0f3f a31a 8fbe
000000a0: dc46 06bf 8cd7 c13f ed9f 3b3e dc30 1140
000000b0: a6a2 c83f b5c3 663e 343d 14be 0f89 123f
000000c0: 6024 113e 21a9 753e a6d2 b73e 03ef b9bf
000000d0: 14d0 443f 48f4 90bf f7a5 0cbd ea89 b9bf
000000e0: b262 ec3f 93fc 3040 e3fb aa3f b1d7 433f
000000f0: 87a9 e93d 47a1 f43e 038e 523f 97e2 693f
00000100: ed42 663d 3065 103f 7afc 963e 9e8b 633e
00000110: ad31 ad3f 0b6c 0240 9074 efbe 239e b13f
00000120: b49e 3140 5cb5 f73e 687d 463f 13aa f9bd
00000130: c193 b33f a770 953f 8276 4b3f f1a4 82bc
00000140: c543 cb3e 6c36 a33f 8d6c 0d3e bd41 453f
00000150: 4daa 0540 dbf8 cbbf 331b 153d 2754 5abf
00000160: 21c9 b03f bbef 66be c944 4440 4b32 4e3f
00000170: b222 fe3e 575e f1be aba3 39be ddae 4bbf
00000180: 1317 033f b047 e4bd e4a0 303f d051 ec3e
00000190: fef9 ab3f 3d1f 1540 d7a6 d53f f684 d53d
000001a0: 0ea9 12c0 7a29 8abf 797d 3abf ea3b 873f
000001b0: f420 1fbe 1813 05bf 1570 8e3f ea99 c5be
000001c0: fa8a 2e3f ca59 3a3f 7f0a b63f 1c0d 273f
000001d0: ed3b fb3f 20c4 9cbe 754a 94be 28b4 2e40
000001e0: c979 17bd 3b08 2640 ceac 633f ae82 efbf
000001f0: 878a 133f e538 8c3f f3e9 363f 7942 fe3e
00000200: 2f10 eabe c470 983e cc62 383f 0123 a03f
00000210: 93b2 0040 7431 eabf cc81 173f fc57 88be
00000220: 2f4e d33f 8536 f0bf ed37 9b3f 7221 efbe
00000230: fe0d 32be 3a8b 893f 9fda eaba d8e6 c83d
00000240: e72c 7abd 9da3 bcbe 4a7b 313c 9639 823f
00000250: 93fb 91bf 040c 19be 6d18 843e b35d 0040
00000260: d794 49bf fea9 3740 dfcf 76bd f517 54be
00000270: b156 903f 2292 78be 90a5 09bd c0d5 133e
00000280: 2526 b63f 9fd1 e53d 1424 fd3d e4c8 a43d
00000290: c62b 0f40 3ba4 e63f 4aac 183f 1c01 eabf
000002a0: e97f 593f 88b4 0740 e89e 38bf 0da7 4b40
000002b0: c908 993f f41a 8abe a7b2 8e3d 6e6d 3d3f
000002c0: 5bd2 b6be 22fa 723f 37c5 22be 89f9 70be
000002d0: 3e5e 3b3f 9d72 e3bf bd1d a33e 1a74 18bf
000002e0: 969a 3ec0 3e29 0c3f 1d6a e6bf 5be8 9e3f
000002f0: ac58 273f 0311 003f f003 1d3f d618 d43c
00000300: 8af6 9d3e 30a7 513f 0f0f 8c3d abb9 3f3f
00000310: ce87 bd3f 8a36 bdbe 678c 38bf 05b6 383f
00000320: 611f 0bbf 51df 173f fa20 013f 099a cabd
00000330: e821 f83e 79b4 023f ca94 58be c604 793f
00000340: b149 0ebd 99c9 2c3f af0c 153e 90cd 293f
00000350: 4728 e1bd dab7 7c3f 133e 7b3e cf20 173f
00000360: 50b3 0540 bcac 9f3f b680 873f 0e77 b8bf
00000370: f4c6 833f 4a1c bb3f c0cb c93e 88c0 16bf
00000380: f4b8 7dbe 0b41 253f bc7b bd3d 7441 693f
00000390: baa1 c7be ae56 d0be 2573 b43f 2c13 0ebd
000003a0: 1904 083f 8137 733f 7154 89be 0687 d13f
000003b0: 789d 89be e216 613e cafc 14bf 5a5a 5a3f
000003c0: f870 1cbf 7628 353d 6074 913e ad69 6fbf
000003d0: b102 f8bc 46f1 173f fb45 e33e de8a 883f
000003e0: b275 573f 1777 b13f 8d6d 3740 601c 42be
000003f0: 358a 42be 3759 4e3f 2132 b33f dc24 1c3e

output_modules.0.les.atomwise.outnet.0.linear.weight f4 [32, 576]
0.057806622 0.2046522 1.063827 0.09675644 0.58307034 0.13674973 -1.0791456 0.28959942
-0.22363839 0.25379536 0.9416056 -0.8241887 0.36801118 -0.19583592 0.0676409 0.38378343
-0.028082684 1.2523541 -2.9936018 -3.1549518 -0.03166063 0.26816028 -1.909737 -1.6247238
-0.09690653 -0.17222197 0.5608213 0.5722466 -0.10241031 0.22195566 0.92377746 1.7177081
-2.3012068 -0.040615045 -0.996124 0.38305527 -0.80829024 -1.9030395 -0.80864364 -2.030283
-0.058493216 -1.1428938 -0.37347427 2.274727 -2.2830544 0.3872873 -0.14370708 1.0891844
-0.34541252 0.45502105 -0.08696059 0.05991323 0.24343342 -0.699575 1.099171 0.52379125
-0.1200939 0.31168866 0.63634276 -0.04355006 0.52804875 0.33759248 0.5349123 -0.19154716
-1.0906342 0.0034351386 0.15148304 -0.8157127 1.0936818 -1.0522445 -0.31975925 0.4743331
-0.15329921 2.0700142 0.51457316 -0.5629469 0.59973127 1.6383089 4.1070776 -0.15485129
0.9290238 -0.095284395 -0.99871755 -1.0661597 -0.4947095 -0.24879737 -0.33204305 1.1752725
-0.37188524 -0.115025885 -0.080274075 -0.55605245 -0.16276065 -0.49827358 -0.5973165 1.8569149
0.59079194 -0.3559342 -0.946601 -0.3527006 0.82110023 -0.08152814 0.009076505 -0.21118362
0.07605458 1.1470063 -0.6502065 -0.119120166 0.5585951 -0.10010565 0.12010712 -0.15324338
-0.3664402 0.5526714 -1.1630435 -1.7503088 -0.061016507 1.0174307 0.52685285 -1.3998967
1.2159284 -0.33652538 1.283703 -0.024584988 0.17538987 0.47566614 -0.9744443 -0.058585398
-2.337382 0.38826904 0.7517083 -0.6700267 -0.30810136 -1.2826147 -0.2326725 -2.6643314
-0.36133552 0.15572 -0.3209407 0.28700227 0.49915236 0.16130768 -0.64278764 -0.36478788
0.46200308 0.888846 0.19916157 -0.7038286 -1.0850451 -2.2414958 -0.447585 0.36849484
-0.80964637 2.2960386 -0.6454482 -0.036826123 -0.37114984 0.43361628 -0.015058549 -0.2924415
0.49352401 -0.10822768 2.0759368 -0.4620296 -1.489003 -0.58398604 -2.2092624 -0.12061834
-0.56633496 -0.105258524 -3.2607932 -0.004198811 -0.51867163 -0.9306096 -2.0222216 0.14855056
-2.0622807 3.3431315 -1.1519742 1.198551 1.4682556 1.5692867 0.34860966 -1.6144544
-0.2598939 -1.9210196 -0.33415055 0.3449238 0.17391947 1.0971512 0.16790903 -0.19675475
0.360291 0.03260004 0.45899007 0.73160547 -0.0065867747 -0.5548685 -0.19797537 -0.73390704
-0.33208224 0.51313204 -0.432621 0.30221882 -0.3226111 0.030367536 1.2503129 0.26470658
0.31250507 -0.0073257824 -2.1752088 0.26522678 -1.9753965 0.090207845 -1.2835376 -1.9086677
-0.5795926 0.28359267 0.7275451 -0.52990913 -0.36014926 0.386382 -0.04663704 -0.6372342
0.74752104 0.9618811 0.7850417 -0.48105463 -0.5765992 -0.4204355 0.8360375 1.1406627
-1.1547618 0.20047657 0.24371164 0.52789617 -1.7484993 0.6255124 -0.24328943 -0.46650493
-0.31736532 0.010699152 -0.044789944 0.5063255 -0.6800502 0.31710288 0.56060123 -0.77410537
0.8225847 -0.8087836 0.98746175 0.8989367 -0.19670323 0.28688708 -0.56777066 -0.60462564
00000000: a3c6 6c3d 5990 513e 7c2b 883f 3e28 c63d
00000010: 1944 153f 1f08 0c3e 7121 8abf 6046 943e
00000020: 7601 65be 77f1 813e 110d 713f 08fe 52bf
00000030: f66b bc3e 3689 48be 5087 8a3d 437f c43e
00000040: a80d e6bc 244d a03f 2c97 3fc0 bbea 49c0
00000050: 94ae 01bd 4e4c 893e 4372 f4bf f3f6 cfbf
00000060: ee76 c6bd f55a 30be fc91 0f3f c17e 123f
00000070: 7fbc d1bd 5848 633e ae7c 6c3f dcdd db3f
00000080: f946 13c0 f65b 26bd fc01 7fbf d21f c43e
00000090: 1cec 4ebf cc96 f3bf 4503 4fbf 28f0 01c0
000000a0: 9596 6fbd 584a 92bf 0538 bfbe 2195 1140
000000b0: 901d 12c0 854a c63e f327 13be 656a 8b3f
000000c0: e9d9 b0be 85f8 e83e 6518 b2bd 9367 753d
000000d0: 9c46 793e 5917 33bf a3b1 8c3f 2f17 063f
000000e0: caf3 f5bd a895 9f3e 5ce7 223f 8c61 32bd
000000f0: 342e 073f ecd8 ac3e 03f0 083f f024 44be
00000100: e799 8bbf 1020 613b 5f1e 1b3e 8cd2 50bf
00000110: c4fd 8b3f f3af 86bf 7cb7 a3be cadb f23e
00000120: 78fa 1cbe 1d7b 0440 11bb 033f 4a1d 10bf
00000130: fd87 193f 1bb4 d13f 2e6d 8340 5691 1ebe
00000140: 81d4 6d3f 7724 c3bd f4ab 7fbf ec77 88bf
00000150: 904a fdbe bdc4 7ebe 8c01 aabe 546f 963f
00000160: be67 bebe b192 ebbd bc66 a4bd 7459 0ebf
00000170: baaa 26be b71d ffbe bce9 18bf 63af ed3f
00000180: 243e 173f 023d b6be 7154 72bf 2c95 b4be
00000190: a033 523f 3af8 a6bd 9fb5 143c 8540 58be
000001a0: 81c2 9b3d 1ad1 923f ef73 26bf 46f5 f3bd
000001b0: 1700 0f3f 3104 cdbd b9fa f53d d5eb 1cbe
000001c0: 0d9e bbbe df7b 0d3f 9cde 94bf 1e0a e0bf
000001d0: 72ec 79bd 2b3b 823f d4df 063f d12f b3bf
000001e0: 8ba3 9b3f 0e4d acbe 6150 a43f 7566 c9bc
000001f0: 6799 333e 838a f33e 2f75 79bf 3ef7 6fbd
00000200: ab97 15c0 33cb c63e f56f 403f df86 2bbf
00000210: 76bf 9dbe b82c a4bf b341 6ebe 6884 2ac0
00000220: f800 b9be 1075 1f3e 5752 a4be f6f1 923e
00000230: e690 ff3e d72d 253e bb8d 24bf 7ac5 babe
00000240: ab8b ec3e 698b 633f 03f1 4b3e 1c2e 34bf
00000250: c2e2 8abf ab74 0fc0 dc29 e5be 5bab bc3e
00000260: fc44 4fbf 4cf2 1240 183c 25bf fdd6 16bd
00000270: 5a07 bebe f402 de3e 22b8 76bc e4ba 95be
00000280: 2eaf fc3e 79a6 ddbd 26dc 0440 258f ecbe
00000290: a697 bebf 1c80 15bf 8e64 0dc0 c006 f7bd
000002a0: 54fb 10bf c891 d7bd d6b0 50c0 2e96 89bb
000002b0: aac7 04bf 6e3c 6ebf 146c 01c0 a31d 183e
000002c0: 68fc 03c0 def5 5540 e473 93bf 1f6a 993f
000002d0: cdef bb3f 63de c83f f77c b23e 71a6 cebf
000002e0: d010 85be f8e3 f5bf c815 abbe da99 b03e
000002f0: f217 323e 736f 8c3f 58f0 2b3e 147a 49be
00000300: 1078 b83e 9f87 053d bf00 eb3e 7f4a 3b3f
00000310: dfd5 d7bb dd0b 0ebf 0eba 4abe 55e1 3bbf
00000320: af06 aabe 9f5c 033f 8080 ddbe 6dbc 9a3e
00000330: 482d a5be 57c5 f83c 410a a03f 9f87 873e
00000340: aa00 a03e 1e0d f0bb 9f36 0bc0 cecb 873e
00000350: cbd9 fcbf e4be b83d f64a a4bf 394f f4bf
00000360: 2e60 14bf 0f33 913e 6540 3a3f 20a8 07bf
00000370: 7c65 b8be ddd3 c53e 7b06 3fbd c821 23bf
00000380: 8a5d 3f3f d73d 763f 7ef8 483f cb4c f6be
00000390: 019c 13bf 5243 d7be 8e06 563f 3c01 923f
000003a0: 3ccf 93bf bb49 4d3e 8b8f 793e 3424 073f
000003b0: d3ce dfbf 9521 203f dd20 79be bcd9 eebe
000003c0: b57d a2be 7f4b 2f3c a975 37bd 8c9e 013f
000003d0: c517 2ebf 4f5b a23e 9083 0f3f c52b 46bf
000003e0: e994 523f 710c 4fbf 4bca 7c3f b720 663f
000003f0: 926c 49be dde2 923e 6b59 11bf bfc8 1abf

output_modules.0.les.atomwise.outnet.0.linear.bias f4 [32]
-0.177307 0.04420036 0.035848334 -0.066796005 0.11699193 -0.62223834 -0.7244279 -0.444837
-0.040624823 -1.1890051 0.08722537 0.22528873 -1.3687407 -0.030608525 -0.14744113 -0.07299365
-0.20761898 0.0065534487 0.09986602 -0.25987932 -0.011916972 0.16969374 0.014208124 -1.2699298
-0.67405105 -1.0194961 0.052056983 -1.1317426 -0.83655304 -0.5753012 -1.1666757 -1.0001199
00000000: f78f 35be 700b 353d b4d5 123d 58cc 88bd
00000010: 7799 ef3d 034b 1fbf 1b74 39bf adc1 e3be
00000020: 3766 26bd 5231 98bf 37a3 b23d 17b2 663e
00000030: e532 afbf bbbe fabc cffa 16be b27d 95bd
00000040: 129a 54be 50be d63b 8e86 cc3d e70e 85be
00000050: 673f 43bc 32c4 2d3e 31c9 683c 0f8d a2bf
00000060: 9c8e 2cbf d97e 82bf b439 553d f1dc 90bf
00000070: 5728 56bf f046 13bf a155 95bf ee03 80bf

output_modules.0.les.atomwise.outnet.1.linear.weight f4 [16, 32]
-0.7793983 0.11786631 0.20794314 -0.5433002 0.8280458 -0.8431553 -0.4871339 -0.673314
0.74179465 -0.9418499 1.0325569 1.355896 -1.691179 -0.7638353 -1.0072564 0.7365109
0.43333462 -0.01974437 -0.18325506 0.06593909 -0.51136816 -0.82558125 -0.41362485 1.5350932
1.0445021 1.163677 -0.9131057 0.8462691 1.1822065 1.3362688 1.0325543 -0.8898099
-0.045195572 -0.45145687 0.055089362 -0.090979464 0.054591298 0.032488726 -0.2961578 -0.14453274
-0.14551431 -0.3817335 -0.023421582 0.13846944 0.124773994 -0.09913147 0.15344219 0.079170294
0.23009102 0.02728137 0.016721075 -0.8292578 -0.024846157 0.27763572 -0.055590358 -0.57586426
0.03140636 -0.2983583 -0.012368314 -0.028063232 -0.03772644 -0.03674277 -0.26072013 0.36363196
-0.17894815 0.03577445 -0.064490385 -0.012379524 0.07495732 0.112769105 0.021993594 -0.08559588
-0.07408354 -0.3516184 -0.12305835 -0.2762437 0.18471934 -0.07899952 0.04946205 -0.0076198033
0.26532486 0.0121051045 0.1579117 -0.72290426 0.06330215 -0.01728282 -0.08716337 -0.70541716
-0.07886963 -0.06501061 -0.100643694 0.10005903 -0.11467557 -0.11266671 -0.26312158 0.30433378
0.9497097 0.037182424 -0.47036564 0.24747144 -0.113705374 -0.5117986 -0.53353316 -0.19889323
-0.1335135 -0.59724915 0.16416834 0.438367 -0.9723531 0.27159044 -0.2526345 0.038032502
-0.13640794 -0.6062966 -0.3116759 -1.1025342 0.15616797 -0.121629424 -0.6220609 0.030376581
0.63475865 0.21862166 0.136076 0.6707181 0.56119066 0.4958934 0.62098354 -0.30844867
0.83465296 0.0074561425 -0.38875028 -0.064349905 0.106040515 -0.96860385 -0.84091324 -0.16544837
-0.26086828 -0.89127195 0.2828511 0.4019734 -0.6637899 -0.11157383 -0.36342484 0.12020352
-0.047797535 -0.58208746 -0.657666 -1.2274675 0.10779369 -0.66433 -0.44016916 0.5499514
0.8025788 0.20993905 -0.43190622 0.58807975 0.74458814 0.5145375 0.7374151 -0.53243375
-0.9603102 0.26078963 0.6444235 0.032555666 0.1443882 -0.6490769 -0.80946445 -0.3955947
0.23171753 -0.75716066 0.12869202 0.4863449 -1.5475972 -0.06360674 -0.08124206 0.25254375
0.12745807 -0.2641164 -0.2847831 0.07606947 -0.24767727 -0.38509643 -0.45824108 0.93347245
0.88162124 1.2038765 -0.13161641 1.0313181 0.5318457 0.6278529 1.0779043 -0.28225467
-0.22390674 -0.527522 -0.15513179 -0.03912449 0.06667438 -0.20293798 -0.19988099 0.081160545
0.06709723 -0.42190522 -0.0065806652 -0.03163642 0.35177252 -0.17587486 0.11286591 -0.048179198
0.39797628 -0.1167912 0.15233117 -0.69241804 0.052522372 0.13812391 -0.22961578 -1.0980686
0.018100915 -0.06144988 0.0546192 -0.16383113 -0.11470938 0.11803091 -0.33131805 0.36099386
-0.03537138 -0.013529261 -0.005455071 0.0241649 -0.02515584 -0.0058726245 -0.17436102 0.24911001
0.031268056 -0.3650693 0.0797072 -0.25226623 0.45362616 -0.11556531 0.04272869 -0.08270829
0.19888583 0.037912905 0.02515753 -0.6068348 0.01244758 -0.08277648 -0.07264845 -1.0968319
-0.13516909 -0.13098274 -0.039541975 -0.118032806 -0.28581432 -0.21420784 -0.358435 0.40329856
00000000: a686 47bf e463 f13d 0cef 543e b915 0bbf
00000010: cffa 533f 07d9 57bf 9d69 f9be 4e5e 2cbf
00000020: 41e6 3d3f 131d 71bf d32a 843f 008e ad3f
00000030: 8e78 d8bf b68a 43bf c7ed 80bf fa8b 3c3f
00000040: 09de dd3e f2be a1bc 37a7 3bbe 130b 873d
00000050: 06e9 02bf 4b59 53bf a3c6 d3be ef7d c43f
00000060: 3fb2 853f 5ef3 943f 4cc1 69bf 17a5 583f
00000070: 8b52 973f db0a ab3f bd2a 843f 95ca 63bf
00000080: fe1e 39bd 5b25 e7be 62a5 613d 7153 babd
00000090: 209b 5f3d e612 053d ffa1 97be 6400 14be
000000a0: b401 15be 9372 c3be 9ede bfbc efca 0d3e
000000b0: 8289 ff3d 7105 cbbd f31f 1d3e 0924 a23d
000000c0: fb9c 6b3e 2e7d df3c a3fa 883c 3d4a 54bf
000000d0: 2b8a cbbc 4526 8e3e b7b2 63bd d76b 13bf
000000e0: f5a3 003d 6bc2 98be 78a4 4abc dde4 e5bc
000000f0: 0a87 1abd 967f 16bd 1c7d 85be f82d ba3e
00000100: 2f3e 37be 3b88 123d 8913 84bd 7dd3 4abc
00000110: 3983 993d 7df3 e63d e92b b43c e54c afbd
00000120: 1cb9 97bd 5407 b4be 0406 fcbd d06f 8dbe
00000130: 1127 3d3e 80ca a1bd b898 4a3d 8baf f9bb
00000140: a9d8 873e 7d54 463c 9bb3 213e 4110 39bf
00000150: 8fa4 813d b394 8dbc b582 b2bd 3896 34bf
00000160: 6786 a1bd 4824 85bd 481e cebd c0eb cc3d
00000170: 06db eabd cebd e6bd dfb7 86be a3d1 9b3e
00000180: 2d20 733f 994c 183d c4d3 f0be 2769 7d3e
00000190: 5dde e8bd 3c05 03bf a195 08bf abaa 4bbe
000001a0: c3b7 08be 52e5 18bf bf1b 283e a471 e03e
000001b0: 22ec 78bf e70d 8b3e 4f59 81be f8c7 1b3d
000001c0: 86ae 0bbe 4136 1bbf fc93 9fbe d71f 8dbf
000001d0: 7fea 1f3e d918 f9bd 623f 1fbf 4fd8 f83c
000001e0: 8b7f 223f 5bde 5f3e 8257 0b3e 2eb4 2b3f
000001f0: 31aa 0f3f bde5 fd3e c7f8 1e3f fcec 9dbe
00000200: d1ab 553f a852 f43b 470a c7be e2c9 83bd
00000210: c52b d93d 6cf6 77bf 1746 57bf 4c6b 29be
00000220: 8790 85be 662a 64bf dcd1 903e 75cf cd3e
00000230: 23ee 29bf d280 e4bd d212 babe 432d f63d
00000240: 59c7 43bd af03 15bf cd5c 28bf a81d 9dbf
00000250: f0c2 dc3d 8811 2abf da5d e1be 9dc9 0c3f
00000260: ce75 4d3f 43fa 563e d022 ddbe 658c 163f
00000270: 549d 3e3f bbb8 033f 3cc7 3c3f 944d 08bf
00000280: e4d6 75bf 3886 853e f0f8 243f 1759 053d
00000290: 80da 133e e729 26bf 1039 4fbf 638b cabe
000002a0: 5c47 6d3e 48d5 41bf d7c7 033e 3302 f93e
000002b0: aa17 c6bf 4044 82bd 3d62 a6bd 6a4d 813e
000002c0: 5e84 023e 443a 87be 17cf 91be 4fca 9b3d
000002d0: 1c9f 7dbe 5c2b c5be 939e eabe 0df8 6e3f
000002e0: eeb1 613f a018 9a3f 74c6 06be 3b02 843f
000002f0: 0a27 083f f8ba 203f c5f8 893f af83 90be
00000300: cf47 65be af0b 07bf deda 1ebe 0041 20bd
00000310: 948c 883d f9ce 4fbe 9aad 4cbe 8037 a63d
00000320: 466a 893d f603 d8be 9fa2 d7bb 3195 01bd
00000330: 871b b43e 8a18 34be 3e26 e73d 8d57 45bd
00000340: 8cc3 cb3e 3a30 efbd b4fc 1b3e 4f42 31bf
00000350: b321 573d 5b70 0d3e 6620 6bbe 838d 8cbf
00000360: 5f48 943c dfb2 7bbd 62b8 5f3d 59c3 27be
00000370: c0ec eabd 31ba f13d 85a2 a9be 30d4 b83e
00000380: 95e1 10bd d5a9 5dbc 74c0 b2bb 78f5 c53c
00000390: 9f13 cebc 256f c0bb b28b 32be b216 7f3e
000003a0: ef12 003d 5dea babe 873d a33d 0a29 81be
000003b0: b041 e83e 81ad ecbd 4704 2f3d f762 a9bd
000003c0: baa8 4b3e 904a 1b3d 2a17 ce3c 8759 1bbf
000003d0: eff0 4b3c b786 a9bd b6c8 94bd fd64 8cbf
000003e0: c469 0abe 5720 06be c4f6 21bd 2fbb f1bd
000003f0: 4156 92be 4d59 5bbe cb84 b7be 267d ce3e

output_modules.0.les.atomwise.outnet.1.linear.bias f4 [16]
0.038340576 -0.13039818 -0.14430678 -0.1597642 -0.10205383 -0.115017116 -0.1545631 -0.11343448
-0.06514304 -0.18481913 -0.1277928 -0.17466536 -0.13377225 -0.21069774 -0.25799182 -0.0813192
00000000: 020b 1d3d 1a87 05be 28c5 13be 3a99 23be
00000010: 9901 d1bd 188e ebbd ca45 1ebe 5650 e8bd
00000020: b769 85bd 3a41 3dbe 1edc 02be 7adb 32be
00000030: 98fb 08be 26c1 57be 8117 84be ae8a a6bd

output_modules.0.les.atomwise.outnet.2.linear.weight f4 [1, 16]
0.44330543 0.01439153 -0.0042680623 0.19572161 0.3955356 0.1549255 -0.028907118 -0.010863067
0.16645281 0.017942294 0.18980671 -0.067432635 -0.061280716 0.20510805 -0.27096364 -0.07148527
00000000: eef8 e23e 74ca 6b3c 1adb 8bbb 3f6b 483e
00000010: a483 ca3e caa4 1e3e 9fce ecbc 01fb 31bc
00000020: 9b72 2a3e b8fb 923c b15c 423e 1f1a 8abd
00000030: 7d01 7bbd d807 523e bfbb 8abe df66 92bd

output_modules.0.les.atomwise.linear_nn.linear.weight f4 [1, 576]
-0.0016831984 0.14139625 0.02464548 0.37686276 0.5909187 0.1842562 0.15206449 -0.20011348
0.056468382 0.19718704 -0.48003048 0.30133668 -0.5649616 -0.12296958 -0.1512764 0.05865775
0.45791203 -0.11678292 0.20589218 -0.22420393 -0.017693365 -0.44781542 -0.38922706 0.4412098
-0.296469 -0.2728614 -0.2213487 -0.23792747 -0.14678636 -0.16353948 -0.3761749 0.5998064
-0.14490268 0.27412072 -0.18151553 -0.07228836 -0.23935096 -0.21209681 -0.13880359 -0.26572105
0.45541614 -0.26279792 0.09961272 -0.2688097 0.07727437 -0.07650734 -0.14179152 0.1278548
-0.3903611 -0.014868784 -0.0039567803 0.013627325 -0.09279691 0.057350647 -0.24693215 -0.3353467
0.1327534 0.14708245 0.20783532 -0.009538011 -0.5964703 0.03537167 -0.074092895 0.29998544
-0.53139275 0.12287786 -0.14616735 -0.3357209 0.020992907 -0.25312537 0.20058379 -0.70774996
0.21712527 0.6656704 -0.20335005 -0.53394866 0.25215197 -0.11889013 -0.071724616 0.3674658
0.30879343 0.08967541 0.13072191 0.61711735 0.2328704 0.1390649 -0.09954102 -0.087330505
0.22579794 0.13980721 0.2108823 0.20665008 0.06137336 0.08475998 -0.29568803 0.4080962
-0.0149471825 -0.25785595 0.2674338 0.18710607 0.32052568 0.23398946 0.025752785 0.048824433
0.11274338 -0.19474764 -0.0005853713 0.06821276 -0.56419533 0.04274105 -0.015522481 0.07926147
0.4079379 0.64526397 0.09934228 -0.33080745 0.35617223 0.420696 0.026030416 0.2908095
0.14987212 -0.29937565 -0.013241319 -0.37344235 0.015227389 -0.0031270497 -0.40143052 -0.31276724
-0.032301303 -0.3989556 -0.3703393 -0.09351725 -0.31989935 -0.031880584 -0.18492672 0.12846072
0.37839076 -0.45632577 0.075471826 -0.38725623 0.30382732 0.13141298 -0.18915577 -0.14108035
-0.024011936 0.09754883 0.021096343 0.10403443 -0.33113742 0.1561782 0.37281463 -0.212118
0.23206908 -0.16181476 -0.39742965 0.022980368 0.26414803 -0.018497549 -0.010632857 0.24926041
0.38386044 -0.15183857 -0.6553499 0.27060297 0.4807687 0.53803426 -0.08518362 0.58212376
0.24107231 -0.4467861 0.49708617 0.19262794 0.2838027 0.6523736 -0.41511086 -0.49488795
-0.325725 0.088669725 -0.1433652 0.06592338 -0.43728465 0.2946302 0.2300016 -0.36520237
0.6771175 0.5065813 -0.10582193 -0.33322063 0.7200787 -0.24386175 -0.16649345 -0.16929625
-0.079740845 -0.116835445 -0.040201314 0.10092703 0.079267316 0.06634206 -0.00074381457 0.31899914
0.11208089 0.016593412 -0.30988187 0.4259142 -0.13053723 0.04978386 -0.32961467 -0.20572224
-0.23502545 -0.4995464 -0.054620165 0.16400446 -0.15823126 -0.16817373 -0.025253722 -0.59618396
0.057901427 -0.2789204 -0.11115742 -0.4962119 0.16825649 0.4606873 0.18703185 0.25897518
0.0472059 -0.032236 -0.06278902 -0.26997203 0.56431144 -0.029121203 0.064789526 0.09854616
-0.24875695 0.19445685 0.15691389 0.2613383 -0.21617657 0.27637032 -0.02992374 0.29488635
-0.008766527 -0.052874856 0.0046337754 -0.005339324 -0.5179128 -0.005044162 0.0010943753 0.42410964
-0.23295382 0.101187155 -0.08782482 0.08139111 0.041481886 0.022130618 0.042296994 0.09666511
00000000: c49e dcba 2eca 103e 51e5 c93c 28f4 c03e
00000010: 7346 173f a8ad 3c3e cbb6 1b3e 8cea 4cbe
00000020: 644b 673d 66eb 493e 8ec6 f5be cd48 9a3e
00000030: 53a1 10bf 7ad7 fbbd 33e8 1abe 1c43 703d
00000040: 7273 ea3e e22b efbd 66d5 523e b795 65be
00000050: adf1 90bc 1048 e5be c548 c7be 40e6 e13e
00000060: c9ca 97be 7db4 8bbe 3ca9 62be 42a3 73be
00000070: 2a4f 16be e576 27be ff99 c0be ea8c 193f
00000080: 5e61 14be 8d59 8c3e 35df 39be eb0b 94bd
00000090: 6b18 75be e82f 59be 8722 0ebe 970c 88be
000000a0: 4e2c e93e 738d 86be c101 cc3d 6da1 89be
000000b0: 0642 9e3d e1af 9cbd cc31 11be 5eec 023e
000000c0: 69dd c7be 339c 73bc e1a7 81bb 2545 5f3c
000000d0: 4e0c bebd 83e8 6a3d c8db 7cbe 90b2 abbe
000000e0: 82f0 073e c89c 163e c8d2 543e 5145 1cbc
000000f0: 47b2 18bf e2e1 103d 04be 97bd b197 993e
00000100: 5b09 08bf 63a7 fb3d e5ac 15be 9ce3 abbe
00000110: 51f9 ab3c a699 81be d665 4d3e 1a2f 35bf
00000120: 1656 5e3e 6069 2a3f ff3a 50be dcb0 08bf
00000130: 101a 813e ab7c f3bd 5be4 92bd 7a24 bc3e
00000140: 2c1a 9e3e bea7 b73d f7db 053e 67fb 1d3f
00000150: 9475 6e3e 0767 0e3e 2adc cbbd 56da b2bd
00000160: 9337 673e 9f29 0f3e 88f1 573e 149c 533e
00000170: a262 7b3d a496 ad3d 6c64 97be fcf1 d03e
00000180: 07e5 74bc b205 84be 15ed 883e bc98 3f3e
00000190: f11b a43e ef9a 6f3e 81f7 d23c 21fc 473d
000001a0: 00e6 e63d ed6b 47be 9a73 19ba 22b3 8b3d
000001b0: 1b6f 10bf 3d11 2f3d 0152 7ebc d653 a23d
000001c0: 3ddd d03e 0530 253f f773 cb3d 985f a9be
000001d0: 355c b63e 7765 d73e bd3d d53c fce4 943e
000001e0: 1478 193e c447 99be 1ef2 58bc d633 bfbe
000001f0: 4c7c 793c 30ef 4cbb 4d88 cdbe 0723 a0be
00000200: 5f4e 04bd e943 ccbe 1d9d bdbe f985 bfbd
00000210: d9c9 a3be 3795 02bd 6e5d 3dbe 358b 033e
00000220: 6fbc c13e 88a3 e9be f990 9a3d 7346 c6be
00000230: 418f 9b3e 2091 063e 0db2 41be 5e77 10be
00000240: aeb4 c4bc aec7 c73d 3dd2 ac3c 0110 d53d
00000250: d88a a9be 2eed 1f3e 8fe1 be3e 7635 59be
00000260: 84a3 6d3e c5b2 25be e67b cbbe 5341 bc3c
00000270: 693e 873e 2c88 97bc 6f35 2ebc 1f3e 7f3e
00000280: 5b89 c43e 927b 1bbe 03c5 27bf 798c 8a3e
00000290: 5127 f63e 9dbc 093f c074 aebd 1006 153f
000002a0: a9db 763e 26c1 e4be 1482 fe3e 4240 453e
000002b0: 964e 913e f501 273f 6989 d4be f461 fdbe
000002c0: 6dc5 a6be 7998 b53d 54ce 12be d602 873d
000002d0: c6e3 dfbe c5d9 963e 8a85 6b3e cefb babe
000002e0: 9357 2d3f 50af 013f 2bb9 d8bd e59b aabe
000002f0: 1457 383f e5b6 79be 427d 2abe ff5b 2dbe
00000300: 2b4f a3bd 6c47 efbd 22aa 24bd d5b2 ce3d
00000310: e756 a23d 59de 873d 8dfc 42ba db53 a33e
00000320: aa8a e53d e8ee 873c d6a8 9ebe 6d11 da3e
00000330: 8dab 05be 29ea 4b3d 41c3 a8be daa8 52be
00000340: 83aa 70be 8cc4 ffbe 65b9 5fbd c9f0 273e
00000350: 6007 22be bc35 2cbe e5e0 cebc 839f 18bf
00000360: 0c2a 6d3d a8ce 8ebe 80a6 e3bd 7c0f febe
00000370: 6e4b 2c3e 35df eb3e 4785 3f3e 6598 843e
00000380: f95a 413d e509 04bd 8897 80bd c639 8abe
00000390: b776 103f 978f eebc 5fb0 843d 92d2 c93d
000003a0: 24ba 7ebe b21f 473e 09ae 203e 22ce 853e
000003b0: 645d 5dbe 6980 8d3e a222 f5bc 58fb 963e
000003c0: 7ba1 0fbc 4e93 58bd edd6 973b 7ff5 aebb
000003d0: ef95 04bf 7f49 a5bb 2471 8f3a e624 d93e
000003e0: 728b 6ebe 363b cf3d 80dd b3bd 62b0 a63d
000003f0: e9e8 293d 454b b53c 9d3f 2d3d 5bf8 c53d

output_modules.1.outnet.0.linear.weight f4 [32, 576]
0.00634283 -0.25141734 0.4790853 -0.18985209 -0.21612765 -0.13694778 0.024859423 -0.25052172
0.08276061 -0.34325105 0.97794265 -0.79720503 -0.38305616 0.30158433 0.17933989 0.09394641
-0.9850126 -1.7720106 0.21547303 -0.8139803 -0.15213445 -0.04531325 -0.75186366 -0.68763644
-0.9378202 -0.8806196 0.8330692 -1.0577503 -1.179755 -0.040967133 -0.7391631 1.1646289
-0.47687083 -0.7406424 -0.79633033 -0.14593978 -0.75023687 0.100987904 -0.9161129 2.0048356
0.0037415887 -0.59409493 -1.3069437 0.34200364 -0.25136486 -0.14176534 1.0421197 -2.212614
-0.44316486 -0.05186793 0.0006871406 0.035263766 0.70874774 0.27594128 0.49880496 -0.24103917
0.23377267 -0.14901279 0.091626585 -0.0152473 -0.10223414 -0.05131844 0.4560526 0.13851656
0.34531847 0.06354821 0.74816436 -0.734898 0.32693654 0.8204476 -0.7271372 -0.20558596
0.19166183 0.19854441 0.7229289 -0.7602902 0.1061354 -1.3465321 0.077172406 -0.35465372
0.005127358 -0.41138384 -0.49053967 -0.90836203 -0.26575586 0.27224228 -0.22936043 0.8780337
-1.7741725 0.0010373603 -0.58761865 -0.887989 -0.90231496 0.5029897 -0.083465025 0.32799774
0.21124199 0.29513574 -0.3377681 -0.57715005 -0.061943952 0.07920869 -0.028623097 0.0035766617
0.1589691 0.005269982 -0.22687763 -0.74644 -0.43852615 0.057896167 0.13757965 0.08990196
-0.6269529 0.27084878 -1.2840106 0.40825516 -0.548472 0.5941447 -0.07417993 -0.52569354
-1.8783177 -0.6729063 0.8852905 0.41304052 -0.3661581 0.18359451 -0.56044394 -0.14700808
0.24047734 -0.5397157 0.5770066 -1.2371259 0.5387674 -0.052463327 0.2625564 -0.81871164
-0.6752885 0.716061 -0.78675365 0.6423253 -0.23402086 -0.81834346 0.28469527 0.22235316
0.005925328 -0.08506109 -0.012259328 0.043746106 0.036873665 0.2555059 -0.5463583 -0.2259273
0.4465357 0.09276592 0.9775358 -0.028895468 0.2765038 0.20879647 0.02997173 -0.40228695
-0.1390898 -0.5067547 2.3646898 0.40766248 0.18070546 -0.018550321 -1.0645249 0.31567296
0.32011208 0.8214332 -0.5636793 -2.0605168 -0.6637247 0.83432543 1.5839019 0.47690204
0.5715869 -0.15346257 -0.69626945 0.38392013 0.5199044 0.9424838 -0.16230108 0.3872606
-0.09195632 0.2811726 -0.3183227 1.0321872 0.25315058 -0.32981956 -0.18018219 -0.18190408
-0.010447906 0.09104708 -0.009731749 -0.013447422 0.014396056 -0.105373465 0.000111451045 -0.22232898
0.779232 -0.6751528 0.1372745 -0.6356457 -0.44633335 -0.8206819 0.11531277 -0.9021216
-0.24242039 0.6974336 -1.4319438 0.049033217 0.179241 0.2573281 -1.6994056 0.11924833
-0.46411353 0.8729633 0.9836469 0.47520548 -0.84684247 0.12106297 -0.3341226 -0.16016223
0.32329684 0.30326527 1.6741635 -2.056297 -0.8188472 -0.47167784 -0.2011041 0.67910534
-0.70773697 -1.0940943 -0.7137578 -0.86826766 -0.42741352 -0.67360306 -2.011263 -1.5235404
-0.011967689 -0.10734945 -0.014142104 0.25239235 0.16547185 -0.29827654 0.03341261 -0.2678559
-0.12253707 -0.27568623 0.15498689 -0.6626471 -0.2680858 -0.02926805 -0.039446753 0.12044888
00000000: 84d7 cf3b c6b9 80be ab4a f53e 9668 42be
00000010: 9150 5dbe 0a3c 0cbe fda5 cb3c 6244 80be
00000020: 657e a93d 9abe afbe 735a 7a3f a115 4cbf
00000030: f01f c4be 4369 9a3e e0a4 373e fa66 c03d
00000040: c929 7cbf 3ed1 e2bf f6a4 5c3e 0361 50bf
00000050: 22c9 1bbe 639a 39bd 237a 40bf f108 30bf
00000060: fc14 70bf 4970 61bf 0644 553f 5d64 87bf
00000070: 3602 97bf 27cd 27bd cb39 3dbf 8f12 953f
00000080: 6a28 f4be be9a 3dbf 4edc 4bbf 3d71 15be
00000090: 860f 40bf bfd2 ce3d 6086 6abf 3a4f 0040
000000a0: 7135 753b 9b16 18bf ee49 a7bf 1a1b af3e
000000b0: e5b2 80be ef2a 11be 2e64 853f 789b 0dc0
000000c0: 81e6 e2be 7773 54bd 3a21 343a bd70 103d
000000d0: 7e70 353f 2d48 8d3e 5d63 ff3e f9d2 76be
000000e0: 1a62 6f3e cf96 18be b8a6 bb3d d0cf 79bc
000000f0: 2260 d1bd 4933 52bd ba7f e93e 49d7 0d3e
00000100: 95cd b03e 9025 823d b387 3f3f 4622 3cbf
00000110: 3a64 a73e db08 523f aa25 3abf 2085 52be
00000120: 0043 443e 3a4f 4b3e de11 393f 61a2 42bf
00000130: 845d d93d 2a5b acbf 910c 9e3d 2c95 b5be
00000140: 6503 a83b e7a0 d2be 0428 fbbe 6a8a 68bf
00000150: 2711 88be 5763 8b3e 76dd 6abe d1c6 603f
00000160: 1618 e3bf 09f8 873a 2d6e 16bf 3f53 63bf
00000170: 1dfe 66bf efc3 003f b6ef aabd 52ef a73e
00000180: d24f 583e 081c 973e f1ef acbe 1bc0 13bf
00000190: f1b8 7dbd 2a38 a23d fc7a eabc 6d66 6a3b
000001a0: ccc8 223e d0af ac3b 9c52 68be b116 3fbf
000001b0: 8086 e0be 8824 6d3d aee1 0c3e 851e b83d
000001c0: fc7f 20bf b1ac 8a3e 765a a4bf d206 d13e
000001d0: a968 0cbf de19 183f a6eb 97bd da93 06bf
000001e0: b76c f0bf 9643 2cbf 66a2 623f 0c7a d33e
000001f0: 1379 bbbe 3300 3c3e 4179 0fbf 4989 16be
00000200: b13f 763e cf2a 0abf b4b6 133f 245a 9ebf
00000210: a9ec 093f c9e3 56bd cb6d 863e 1697 51bf
00000220: b5df 2cbf c64f 373f b068 49bf 6e6f 243f
00000230: 2aa3 6fbe f57e 51bf 94c3 913e 8cb0 633e
00000240: 4129 c23b 8234 aebd 59db 48bc 1e2f 333d
00000250: d708 173d abd1 823e 23de 0bbf 7c59 67be
00000260: 54a0 e43e 0ffc bd3d c93f 7a3f 30b6 ecbc
00000270: e891 8d3e bece 553e 4687 f53c 8ef8 cdbe
00000280: 8e6d 0ebe adba 01bf 1457 1740 23b9 d03e
00000290: da0a 393e d8f6 97bc 5a42 88bf e39f a13e
000002a0: bbe5 a33e 7249 523f 494d 10bf 82df 03c0
000002b0: dde9 29bf 5a96 553f 4cbd ca3f 812c f43e
000002c0: 8553 123f 4b25 1dbe b73e 32bf 2e91 c43e
000002d0: 7418 053f 9e46 713f 4132 26be 0547 c63e
000002e0: 9853 bcbd dbf5 8f3e 31fb a2be b61e 843f
000002f0: f49c 813e 1cde a8be ae81 38be 1045 3abe
00000300: b22d 2bbc e476 ba3d ea71 1fbc 9352 5cbc
00000310: 6fdd 6b3c 0bce d7bd d3ba e938 35aa 63be
00000320: c07b 473f d0d6 2cbf b091 0c3e adb9 22bf
00000330: ce85 e4be 3618 52bf 1a29 ec3d 71f1 66bf
00000340: 0d3d 78be 028b 323f ef49 b7bf 0ed7 483d
00000350: f48a 373e 82c0 833e 1f86 d9bf 7838 f43d
00000360: 4aa0 edbe 867a 5f3f 49d0 7b3f 224e f33e
00000370: abca 58bf ddef f73d 1e12 abbe 9101 24be
00000380: 2a87 a53e 9645 9b3e fd4a d63f 5f9a 03c0
00000390: f89f 51bf c27f f1be 3cee 4dbe d9d9 2d3f
000003a0: 402e 35bf 480b 8cbf d5b8 36bf ca46 5ebf
000003b0: f2d5 dabe 4071 2cbf 88b8 00c0 5f03 c3bf
000003c0: 2014 44bc 07da dbbd 49b4 67bc 9239 813e
000003d0: 7471 293e b4b7 98be a9db 083d 6924 89be
000003e0: b7f4 fabd bf26 8dbe e2b4 1e3e 3ea3 29bf
000003f0: 8b42 89be 8dc3 efbc eb92 21bd e7ad f63d

output_modules.1.outnet.0.linear.bias f4 [32]
0.12568636 -0.83358175 -0.7100437 -0.3769092 -0.83025604 -0.6896816 0.20528789 -1.0754329
-0.27085596 -1.7084135 -0.56546736 -0.09479262 -0.05444359 -1.3698384 -1.0296233 -0.5412784
-1.7454914 0.09275712 -0.7259615 -0.7936914 -0.81974274 -0.6318561 -0.48145586 -0.78795594
-0.18815242 -0.93373626 -0.8165839 -1.6132617 -1.3308705 -0.94255626 -0.2535697 -0.5578101
00000000: edb3 003e 9d65 55bf 6dc5 35bf 3efa c0be
00000010: a98b 54bf f98e 30bf fd36 523e c9a7 89bf
00000020: a2ad 8abe 4bad dabf 78c2 10bf a222 c2bd
00000030: 3e00 5fbd dd56 afbf b2ca 83bf 3991 0abf
00000040: 436c dfbf 72f7 bd3d 9dd8 39bf 5c2f 4bbf
00000050: a9da 51bf 52c1 21bf 6281 f6be 7bb7 49bf
00000060: 07ab 40be 5709 6fbf a40b 51bf 5c7f cebf
00000070: f759 aabf 5e4b 71bf e3d3 81be a5cc 0ebf
