MLIPs/CACE-LES/water/cace-r-5.5-nl-1-nu-2/best_model.pth (torch, 41698 bytes, 12 tensors)

embedding_weights f4 [2, 2]
0	0x3e85fbed	0.26168767
1	0x3d6c5a49	0.05770329
2	0xbf021d7b	-0.50826234
3	0x3f31840b	0.69342107

embedding_weights f4 [2, 2]
0	0x3ec8c2be	0.39211076
1	0xbbabdc51	-0.0052447696
2	0xbe114505	-0.14186485
3	0x3f79e2c0	0.9761162

bessel_weights f4 [6]
0	0x3eb851c3	0.3599988
1	0x3f98652b	1.1905874
2	0x40002156	2.0020347
3	0x4034b627	2.8236177
4	0x406a4f39	3.6610854
5	0x4090775d	4.5145707

0 f4 [6, 12, 4]
0	0x40829a28	4.081318
1	0x3ba01ede	0.004886492
2	0x3b4f79e1	0.003165834
3	0x3e47a7f3	0.19497661
4	0x3e70a307	0.2349969
5	0xbc0ee6e9	-0.008722045
6	0x3dc24d67	0.094874196
7	0x3eb34c8d	0.3501934
8	0x3fac2332	1.3448241
9	0x3a80c7c1	0.0009825156
10	0xbbf712cb	-0.007540082
11	0x3df008ca	0.117204264
12	0x40a93ac3	5.288423
13	0x3e4f5c62	0.20250085
14	0x3f19ca1c	0.6007402
15	0x3c45ff8e	0.012084855
16	0x3fff51ff	1.9946898
17	0x3ff1e097	1.8896664
18	0xbb835572	-0.0040079886
19	0x3e81ed2e	0.25376266
20	0x3fdfc2ce	1.7481325
21	0x3f8d4d77	1.1039265
22	0x3d2f28e9	0.042763624
23	0x3e36807b	0.17822449
24	0xc013a103	-2.3067024
25	0xbcaa0e5e	-0.020758804
26	0xbd097262	-0.03355635
27	0x3dce456b	0.10071834
28	0xbf4a7792	-0.790887
29	0xbe22af38	-0.15887153
30	0x3c98756a	0.018610675
31	0x3f57b240	0.8425636
32	0x3f1426c7	0.5787167
33	0x3fccd079	1.6001121
34	0x3eb692ae	0.35658783
35	0x3ddbeb91	0.1073829
36	0x404f378d	3.2377656
37	0x3ff05ea3	1.8778881
38	0x3e053d69	0.13011707
39	0x3ec04834	0.37555087
40	0xbe6b2a01	-0.22965242
41	0x3fcab236	1.5835636
42	0xbb34eecb	-0.0027608152
43	0x3e14a35a	0.14515439
44	0xbdca1a94	-0.098683506
45	0x3f0ce45f	0.55035967
46	0xbc734149	-0.014847108
47	0x3e5ba932	0.21451262
48	0xbe352967	-0.17691575
49	0x3b8a17d2	0.0042142654
50	0xbb837669	-0.0040119183
51	0x3f069a4a	0.52579176
52	0xbe26a035	-0.16272052
53	0x3b2a4d93	0.002598618
54	0xbf6aa429	-0.9165674
55	0x3f82122a	1.0161793
56	0x400dabf7	2.213621
57	0x3b1e7109	0.002417626
58	0x3c91d0eb	0.017799815
59	0x3eac4d14	0.33652556
60	0x3fc45df3	1.5341171
61	0xbca903a6	-0.020631623
62	0x3db6b6c6	0.0892158
63	0x3d112d00	0.035443306
64	0x401665c7	2.349962
65	0xbf197acc	-0.59953
66	0x3c448f95	0.011997123
67	0x3f3a0037	0.7265658
68	0x4022f7ba	2.54637
69	0x3d3d1096	0.046158396
70	0xbdd97d18	-0.10619563
71	0x3f093e04	0.53610253
72	0xbf17e768	-0.5933747
73	0x3b0be424	0.00213457
74	0x3e50ab92	0.20377949
75	0x3e8e8640	0.278368
76	0x3dbe6a2d	0.09297595
77	0xbdffa772	-0.124831095
78	0xbd83fddf	-0.064449064
79	0x3f0f156c	0.5589206
80	0xbec629a0	-0.38703632
81	0x3f8e63dd	1.1124226
82	0xbf6c26f7	-0.92246956
83	0x3e980a57	0.2969539
84	0x3fc61a04	1.5476689
85	0xbc059783	-0.008153799
86	0x3f9195ec	1.1373878
87	0x3f8ce4cc	1.1007323
88	0x3e049910	0.12949014
89	0x3f9e88c3	1.2385486
90	0xbc9d0350	-0.019166619
91	0x3fd12294	1.6338677
92	0xbc691dc9	-0.014228293
93	0x403003a5	2.7502224
94	0x3d096362	0.033542044
95	0x3f6587c4	0.89660287
96	0xbe221603	-0.1582871
97	0xbbeeff67	-0.00729363
98	0xbae8b0e0	-0.0017752908
99	0x3ea726c3	0.3264676
100	0x3d6d6b48	0.05796364
101	0xb75b61f1	-1.3076221e-05
102	0xbdaca0ed	-0.08429132
103	0x3f16f7ea	0.58972037
104	0x3faac17a	1.3340294
105	0xbbb74cd9	-0.0055938778
106	0x3b94b1a6	0.004537779
107	0x3e657530	0.22407985
108	0xbf87414d	-1.0566803
109	0xbd0ffb0c	-0.035151526
110	0xbf80127b	-1.000564
111	0x3d10e27c	0.035372242
112	0x3fcb653a	1.5890267
113	0xbda1d8ea	-0.07902701
114	0x3ac11461	0.0014730805
115	0x3eec4396	0.46145314
116	0x3fe8f68d	1.8200241
117	0xbeba77a2	-0.36419398
118	0x3b84a920	0.0040484816
119	0x3eb114ad	0.34586087
120	0x400d233f	2.2052763
121	0x3b8c095b	0.004273576
122	0x3d1b8701	0.037970547
123	0x3e384c84	0.17997938
124	0xbea511f0	-0.32240248
125	0xbe625cf1	-0.22105767
126	0x3b33dac0	0.0027443618
127	0xbfa452b8	-1.2837744
128	0x3c05637a	0.008141393
129	0x3f9a8c76	1.2074115
130	0xbf1ce06f	-0.6127996
131	0x3e5ea83c	0.21743864
132	0xbf4d87e0	-0.80285454
133	0xbf1fbb78	-0.6239543
134	0x3fa0d135	1.2563845
135	0x3f165976	0.58730257
136	0xbd2cf70c	-0.04222779
137	0x3e7ac33f	0.24488543
138	0xbb060124	-0.0020447457
139	0x402b0bad	2.6725876
140	0x3d218d3d	0.039441336
141	0x3f9a6a07	1.2063607
142	0xbca48b44	-0.020085938
143	0x3f54a10b	0.8305823
144	0xbddbdeb1	-0.107358344
145	0xbaacdeb0	-0.0013188925
146	0xbc00c8d6	-0.007860383
147	0xbd204876	-0.039131604
148	0x3a3d03ad	0.00072103256
149	0xbbbbe2b4	-0.005733812
150	0x3d2a02bc	0.041506514
151	0xbcc43f2c	-0.023955904
152	0x3f32de8c	0.6987083
153	0xbac9c4a3	-0.0015393685
154	0x3c190f6f	0.009342059
155	0xbccace39	-0.024756538
156	0xbea58958	-0.32331347
157	0x3b9b519a	0.0047399523
158	0xbcda553f	-0.026651977
159	0xbb2ef199	-0.0026694296
160	0x3f5943d6	0.84869134
161	0x3dc31f06	0.095274016
162	0x3c056447	0.008141584
163	0xbd273e43	-0.04083086
164	0x3f47e08f	0.78077024
165	0xbd05dcfa	-0.032681443
166	0xbd3a929c	-0.045549974
167	0xbbc42441	-0.005985767
168	0x403fd806	2.99756
169	0x3b0f0b68	0.0021826867
170	0x3dff32f1	0.12460888
171	0xbc43972b	-0.011937897
172	0x3e2ecb56	0.17069754
173	0x3ea8708d	0.3289837
174	0xbcb786d2	-0.022403155
175	0xbf3790f1	-0.7170554
176	0x3e5f038f	0.21778701
177	0x3e1f5155	0.1555837
178	0x3eb81982	0.3595696
179	0xbcdd4a6d	-0.027013028
180	0xbc5b562b	-0.013387243
181	0xbd599040	-0.053116083
182	0x3f4397ee	0.764037
183	0xbbcfaddd	-0.006337865
184	0xbc3004d3	-0.010743338
185	0x3f7e8267	0.9941773
186	0xbca3ffed	-0.020019496
187	0x3f4cec36	0.8004793
188	0xbdb461e5	-0.088077344
189	0x3f7953ec	0.9739368
190	0xbbe6ee9d	-0.007047488
191	0x3ec60b7b	0.38680634
192	0x3dc89419	0.097938724
193	0x3bb4c9f6	0.0055172397
194	0x3b927a17	0.0044701206
195	0xbdf6b122	-0.12045504
196	0xbd04eaee	-0.03245061
197	0x3c1d7984	0.009611491
198	0x3d2623fc	0.04056166
199	0xbe9a31ba	-0.30116063
200	0x3ec5b876	0.38617295
201	0xb9f66da9	-0.0004700248
202	0xbbd069e9	-0.0063602817
203	0xbdc9231b	-0.09821149
204	0x3f079115	0.5295575
205	0x3d847558	0.06467694
206	0x3f0174bd	0.50568753
207	0xbc02c02d	-0.007980389
208	0x3e2f9cbe	0.17149636
209	0xbdae3e7f	-0.08508014
210	0xbbd4d848	-0.0064955093
211	0xbe4f1fec	-0.20227021
212	0x3e68327f	0.22675513
213	0x3df1b248	0.118015826
214	0xbc61df61	-0.013786168
215	0xbe204a4a	-0.15653339
216	0x3ff7d85b	1.9362901
217	0x3b9890a8	0.0046559162
218	0xbe5605d2	-0.20900658
219	0xbd8cfea9	-0.0688451
220	0xbdb0ac81	-0.086266525
221	0x3ef75cb1	0.48312905
222	0x3c74db21	0.0149448225
223	0x3f44758e	0.76741874
224	0xbe21a91a	-0.15787163
225	0x3ecacdfd	0.39610282
226	0xbdfc3bad	-0.1231607
227	0xbd62d3e7	-0.055377867
228	0xbd1d658e	-0.03842693
229	0x3ec08d1f	0.37607667
230	0x3f4583a7	0.7715401
231	0xbeb26198	-0.34840083
232	0x3d148a2c	0.036264583
233	0x3ed2cf6e	0.4117388
234	0x3d088699	0.033331487
235	0xbe66b5f3	-0.22530346
236	0x3d4da1cb	0.050203126
237	0x3c9f8093	0.019470489
238	0x3d2a2af2	0.041544862
239	0xbd37891b	-0.04480849
240	0x3e2a7c53	0.16648988
241	0x3a046191	0.0005049939
242	0x3b41dce9	0.0029581136
243	0xbd70ea55	-0.058817226
244	0x3bf4b177	0.0074674445
245	0xba5841f9	-0.0008249577
246	0x3d309f64	0.043120757
247	0xbe0c9bfa	-0.13731375
248	0x3e2d4cbc	0.16923803
249	0x3a2e579a	0.0006650627
250	0xbc056196	-0.008140942
251	0xbcb87387	-0.022516025
252	0x3e776896	0.2416099
253	0x3d26c256	0.040712677
254	0x3e2b1d42	0.1671038
255	0xbd08e36b	-0.033420008

1 f4 [6, 12, 4]
0	0x403f4bda	2.9890046
1	0x3f1f6d3b	0.6227605
2	0x3fdaf7c1	1.7106858
3	0x3f5f0582	0.8711778
4	0x40190279	2.390776
5	0xbf5de7f1	-0.8668204
6	0xbeca6219	-0.39527968
7	0xbf0f76c3	-0.5604059
8	0x3efee8bf	0.49786946
9	0xbe4590f1	-0.19293572
10	0x3f049051	0.5178271
11	0xbf2cec49	-0.6754804
12	0x40c5b78b	6.178655
13	0x400d33ca	2.206286
14	0xbfafc5b8	-1.3732214
15	0x3fe6afd4	1.8022408
16	0xc0d7cef7	-6.7440143
17	0xbfbf168a	-1.4928753
18	0xbe96f5e9	-0.2948449
19	0x3f43aebf	0.76438516
20	0x3ef84c4d	0.48495713
21	0x40251220	2.5792313
22	0xbdc10c83	-0.094262145
23	0xbf312a3b	-0.69205064
24	0x4074d375	3.8254063
25	0xc0164141	-2.3477328
26	0x40097be8	2.1481876
27	0x3f94658e	1.1593492
28	0x3f87c3e4	1.0606656
29	0x3e8be2be	0.27321428
30	0x3e8d74f9	0.27628306
31	0xbee2a787	-0.44268438
32	0xc01c9ce3	-2.4470756
33	0xbe84afb7	-0.2591531
34	0xbfbbc40e	-1.4669206
35	0x3f9acfb6	1.2094638
36	0xbf4a032b	-0.78911084
37	0xc024197b	-2.5640552
38	0x3ece31cd	0.4027237
39	0x3dfa8e2b	0.12234148
40	0x408bc48f	4.367744
41	0x3e9c2578	0.30497336
42	0xbecfa3e6	-0.40554732
43	0xbf80cca2	-1.0062449
44	0xbeb71503	-0.35758218
45	0x3e861958	0.2619121
46	0x3f4174af	0.7556867
47	0x3ec31f34	0.38109744
48	0x3f79eb2a	0.97624457
49	0x3f9a6053	1.2060646
50	0x3fe426e4	1.7824368
51	0x400a92c9	2.165209
52	0xbf92a533	-1.1456665
53	0x3f1591e1	0.5842572
54	0xbdac3311	-0.08408178
55	0xbfbb406e	-1.4629037
56	0x3cb204b9	0.021730768
57	0x3fa925e7	1.3214692
58	0x3f215968	0.6302705
59	0x3f0171f6	0.50564516
60	0x3f535bcc	0.82561946
61	0x3f5ed99e	0.8705081
62	0xbd6d38c1	-0.057915453
63	0x4043c777	3.0590494
64	0x3e869270	0.26283598
65	0xbe2b3834	-0.16720659
66	0xbf0fc97d	-0.5616682
67	0xbeda26df	-0.4260778
68	0x3fa5b3b5	1.2945467
69	0x3fbf65bb	1.4952921
70	0x3c79e288	0.015251763
71	0xbfa3113e	-1.2739637
72	0x3faa76f0	1.3317547
73	0x3d5c4ee8	0.05378619
74	0xbd783267	-0.060594942
75	0x3fc5242d	1.5401665
76	0x400c2d72	2.1902738
77	0x3f866e0a	1.0502331
78	0x3eda979c	0.42693794
79	0xbf7c3a71	-0.98526675
80	0x3efed6f9	0.49773386
81	0x3f8af42f	1.0855769
82	0xbfeea945	-1.8645407
83	0x405247d5	3.2856343
84	0x3f8f1e0f	1.1181048
85	0xbfeeca22	-1.8655436
86	0xbeefdf98	-0.46850276
87	0x3fadd44a	1.358041
88	0x4082387b	4.0693946
89	0x3fa643e2	1.2989466
90	0xbd90d780	-0.07072353
91	0xbf30121b	-0.68777627
92	0xc008e92c	-2.1392317
93	0xbe4491e4	-0.19196278
94	0x3ef38f09	0.47570065
95	0x3f8fa388	1.1221781
96	0x3e96b315	0.29433504
97	0x3fb4459d	1.4083744
98	0xbb3e6e08	-0.0029057283
99	0x40279c06	2.618898
100	0x3f6a0f1f	0.9142932
101	0x3f9cfbd3	1.2264351
102	0x3f3d4ef7	0.73948616
103	0xbf3485ed	-0.70516855
104	0xbe4172d4	-0.1889146
105	0x3e4fac35	0.20280536
106	0x3e49b4e5	0.19697912
107	0x4027007b	2.6094043
108	0xbfe7abb7	-1.8099278
109	0xbebc3997	-0.36762688
110	0x3f04a4d6	0.5181402
111	0x3feca3c1	1.8487474
112	0xbece3d6b	-0.40281233
113	0x3f210ed0	0.6291323
114	0x3f6bd63e	0.9212378
115	0x3d98d1ef	0.07461917
116	0x3ee51f00	0.44750214
117	0xbf546381	-0.8296433
118	0x3f573bdd	0.8407572
119	0x3ecefd1c	0.40427482
120	0xbc1efc4d	-0.009703708
121	0x3f4e7ff8	0.80664015
122	0xbefe1801	-0.4962769
123	0x3cff79a7	0.031185938
124	0xbe92485b	-0.28570828
125	0x3f45f5dd	0.7732828
126	0x3e9eeb23	0.3103877
127	0x3f87ad7f	1.0599822
128	0x403a142e	2.9074817
129	0x3f53f14a	0.8279005
130	0x3e9deb2e	0.3084349
131	0x3fab7614	1.339541
132	0x3f6458b6	0.8919786
133	0xbf12bbb4	-0.5731766
134	0x3f3196d0	0.69370747
135	0x4005c564	2.0901728
136	0x3f4c997a	0.79921687
137	0xbcdd9cf0	-0.027052373
138	0x3f86cb4d	1.0530792
139	0x3ef2e19a	0.47437745
140	0x3faab62b	1.3336843
141	0x3e57b8f1	0.21066643
142	0x3d964871	0.07338036
143	0x3ee287db	0.44244274
144	0x3f6dd28f	0.9289941
145	0x3f4fef03	0.8122408
146	0xbe22f480	-0.15913582
147	0x3f913438	1.1344061
148	0x3c9445c7	0.018099679
149	0x3f80ea6c	1.007154
150	0x3fbb68db	1.4641374
151	0x400b9c50	2.1814156
152	0x3f7f79a5	0.9979499
153	0x3d858468	0.06519395
154	0x3e9ade00	0.30247498
155	0x4006f2d3	2.1085708
156	0xbff677f7	-1.925536
157	0x3eacf53f	0.33780858
158	0x3e6dd3a1	0.23225261
159	0x3f631f7d	0.8871992
160	0xbefa9300	-0.48940277
161	0x3f7a4c6b	0.97772855
162	0x4000c98f	2.0123022
163	0x3f31fbac	0.69524646
164	0x3e847d74	0.25876963
165	0xbf057d40	-0.5214424
166	0xbdebcff3	-0.115142725
167	0x401febbf	2.4987638
168	0x3efb7e34	0.49119723
169	0xbeaf2780	-0.34209824
170	0x3d94fde4	0.07274988
171	0x3eed7c41	0.4638386
172	0xbeeb4759	-0.4595287
173	0x3eb7b441	0.3587971
174	0x3efeb245	0.49745384
175	0x3fd79547	1.6842431
176	0x4008096c	2.125575
177	0x3f486f9a	0.7829529
178	0x3f7a9271	0.978797
179	0xbf8828dd	-1.063747
180	0xbe966aeb	-0.29378447
181	0x3da4a5d7	0.08039444
182	0x3e632b32	0.22184446
183	0x3fcae706	1.5851753
184	0xbeca5ae0	-0.39522457
185	0xbf60a7b0	-0.8775587
186	0x4001790d	2.0230134
187	0x3f1bb0e0	0.60816765
188	0x3feeee0b	1.8666395
189	0xbe192aee	-0.14957783
190	0x3f563d6f	0.8368749
191	0x3f5c278b	0.8599784
192	0xbe9e5a78	-0.30928397
193	0xbd1b8e67	-0.037977602
194	0x3f093c58	0.536077
195	0xbe0fe657	-0.14052711
196	0x3e130f6a	0.14361349
197	0x3f02fd8e	0.51168144
198	0x3f855a74	1.0418229
199	0x40438bb9	3.055403
200	0x3fae8e43	1.3637165
201	0xbd102408	-0.035190612
202	0xbf1188d2	-0.56849396
203	0x3f0b8719	0.5450302
204	0xbf82bc8f	-1.0213794
205	0x3e976b41	0.29574016
206	0x3f283f02	0.6572114
207	0x3f5fcf66	0.8742584
208	0x3ef16615	0.47148195
209	0x3f8f07aa	1.1174214
210	0x3fb38834	1.4025941
211	0x3f3af2a4	0.7302649
212	0xbdefd570	-0.11710632
213	0x3ecbebd0	0.39828348
214	0xbdea2e60	-0.114346266
215	0x3fd33464	1.6500363
216	0x3f86ff93	1.0546745
217	0xbec84d87	-0.3912165
218	0x3ecebbef	0.40377757
219	0x3fbcfcf9	1.4764701
220	0x3e52a852	0.20572022
221	0x3e1c0da5	0.1523958
222	0x3f697347	0.91191524
223	0xbdd93903	-0.10606577
224	0x3f52c3e4	0.82330155
225	0x3f7a758c	0.9783561
226	0xbe88d87a	-0.2672766
227	0xbee5f6df	-0.4491491
228	0xbca3d79e	-0.020000275
229	0x3d4c4049	0.049865995
230	0x3e8ea614	0.27861083
231	0xbe1c2b12	-0.15250805
232	0xbe02281f	-0.12710617
233	0xbe8cfab3	-0.27535018
234	0x3fd7a22e	1.6846368
235	0x3f87107b	1.0551904
236	0x3e99cc88	0.30038857
237	0x3ec761d1	0.38941815
238	0x3fc2c537	1.5216435
239	0x4001c032	2.0273557
240	0xbecf95f7	-0.40544102
241	0xbdf03a13	-0.11729827
242	0x3eac05f0	0.3359828
243	0xbc97f93b	-0.01855146
244	0xbeb4a6ce	-0.35283512
245	0x3df2ec4f	0.118614785
246	0x3e6deb85	0.23234375
247	0x3fb1eb8e	1.390001
248	0x3f040bb9	0.5158039
249	0xbc9d76fb	-0.019221773
250	0x3da8c878	0.082413614
251	0xbde1e786	-0.11030488
252	0x3e35cbbd	0.17753501
253	0x3d3745cc	0.044744298
254	0x3f11b5a7	0.56917804
255	0x3ee62973	0.44953498

2 f4 [6, 12, 4]
0	0xbfded94d	-1.7410065
1	0xbfa0e277	-1.2569112
2	0x3f0744a2	0.528391
3	0x3f95bfef	1.1699198
4	0x3f7a6957	0.97816986
5	0x3ecf23c1	0.40456966
6	0xbe958479	-0.2920263
7	0x3f62d3e4	0.8860457
8	0xbecde522	-0.40213877
9	0x3f13dcfa	0.5775906
10	0x3f8efc4e	1.1170747
11	0x3f711f32	0.94188225
12	0x409e5e06	4.9489775
13	0x3ffe5e3d	1.9872509
14	0xbedd0b51	-0.43172696
15	0x3f1622c2	0.58646786
16	0x407d4ad7	3.9576929
17	0x40099522	2.1497273
18	0x3ef11a9e	0.4709062
19	0x3f6fb216	0.9363111
20	0xbf6c0a18	-0.922029
21	0x3f13c3d4	0.57720685
22	0x3da1c421	0.07898737
23	0x3f7b5116	0.981706
24	0xbfd93be0	-1.6971397
25	0x3e8ef392	0.27920204
26	0x3e9ac215	0.30226198
27	0x3eeda3e4	0.464141
28	0x3fc50cd4	1.539454
29	0x3db18d34	0.086695105
30	0x3fb6923d	1.4263378
31	0x3f1f190b	0.6214759
32	0x4001a5c5	2.0257428
33	0x3f4f1c15	0.80902225
34	0x3e925cd2	0.2858644
35	0x3b85fc8d	0.0040889443
36	0x4060885e	3.5083232
37	0xbe79a984	-0.24381071
38	0xbf1b22c3	-0.6059992
39	0x3f8894b6	1.0670383
40	0x4057a713	3.3695724
41	0x3fa8035c	1.3126025
42	0xbc3e838b	-0.011628042
43	0x3f8530b4	1.0405488
44	0xbeac4d93	-0.33652934
45	0x3fc29830	1.5202694
46	0x3eb73e86	0.3578989
47	0xbeb95500	-0.36197662
48	0xbe63ec81	-0.22258188
49	0xbf8a820c	-1.0820937
50	0x3f796bee	0.9743031
51	0x4043daed	3.0602372
52	0xbf0f0583	-0.55867785
53	0x3fa43374	1.2828202
54	0x3ecc21dd	0.39869586
55	0x3ff26520	1.8937111
56	0xbf38a50a	-0.7212683
57	0x3f95a8fd	1.1692196
58	0x3fbb7f10	1.4648151
59	0x40449b9d	3.071998
60	0x3f3d949d	0.7405489
61	0xbf9d32e3	-1.2281154
62	0xbe819c5a	-0.253146
63	0x3fa763a7	1.3077286
64	0x3f5a031f	0.8516101
65	0x401e7fc4	2.4765482
66	0x3f2d6d06	0.6774448
67	0x400e7595	2.2259266
68	0x3f9dce8f	1.2328662
69	0x3f2edc1e	0.6830462
70	0xbf867436	-1.0504215
71	0x3ec65c84	0.3874246
72	0x400791d9	2.1182768
73	0x3e5ceda6	0.2157503
74	0x3fc9b53f	1.5758437
75	0xbeb3befc	-0.35106647
76	0x3fe841ec	1.8145118
77	0xbf0312af	-0.51200384
78	0x3db068b8	0.086137235
79	0x3fa7de4e	1.3114717
80	0x40333882	2.800324
81	0x40064ed7	2.098562
82	0x3e5c8fe6	0.21539268
83	0x3fbd850d	1.4806229
84	0xbeee311b	-0.4652184
85	0x3f0be5ce	0.5464753
86	0xbf87b500	-1.0602112
87	0x3f705a94	0.9388821
88	0x3ebdeb27	0.3709347
89	0x3e2f8da7	0.1714388
90	0x3dafb4e3	0.08579423
91	0x3f6d3d29	0.9267145
92	0x3f93332e	1.1499994
93	0x3f000a92	0.5001613
94	0x3a845910	0.0010097343
95	0xbef04404	-0.46926892
96	0x3fc38281	1.5274202
97	0x3f036307	0.5132298
98	0x3f5a0f84	0.85179925
99	0x4008df19	2.1386168
100	0x3e68dd47	0.2274066
101	0xbefdb5f4	-0.49552882
102	0x3f9caaa9	1.2239581
103	0xbd8c7d96	-0.06859891
104	0x3fd08cfb	1.6293024
105	0x3f1d91d4	0.6155064
106	0xbd26cce5	-0.040722746
107	0x405779fd	3.3668206
108	0x3eb2e255	0.34938303
109	0x3e79e8f9	0.24405278
110	0x3f90e592	1.1320059
111	0x3f4a80de	0.79102886
112	0x3f45f512	0.7732707
113	0x3fc722b4	1.5557466
114	0x3f4c6296	0.7983793
115	0x3ea888a6	0.32916754
116	0x3e9b26cd	0.3030304
117	0x3df2187c	0.11821076
118	0x3f2d560c	0.6770942
119	0xc01d3745	-2.4564984
120	0xbe7d174d	-0.2471592
121	0x3e27bed2	0.16381386
122	0x3fa1d73e	1.2643812
123	0xbfb91200	-1.4458618
124	0x3df00d78	0.11721319
125	0x3f8249dd	1.0178791
126	0xbfb3a46e	-1.4034555
127	0x3f45ecef	0.77314657
128	0xbf5aa331	-0.8540526
129	0x3fc3c0fc	1.5293269
130	0x3f5369e2	0.8258344
131	0x4018e472	2.3889432
132	0xbe327b8f	-0.17429946
133	0x3fba255a	1.4542649
134	0x3eacf7e0	0.33782864
135	0xbeac78ca	-0.33685905
136	0x3ec66bbc	0.3875407
137	0xbf174364	-0.59087205
138	0x3ed0cbe1	0.40780547
139	0xbdc1dbae	-0.09465729
140	0x3e8cbb40	0.2748661
141	0xbf5e43f7	-0.86822456
142	0x3f68d944	0.9095652
143	0x3f2c8bc7	0.67400783
144	0xbe8056a2	-0.25066096
145	0x3f9152d6	1.1353405
146	0x3f0ef555	0.55843097
147	0xbd6bd4e0	-0.05757606
148	0x3f258120	0.64650154
149	0xbf80061c	-1.0001864
150	0x400dfd63	2.2185905
151	0xbf722fbf	-0.94604105
152	0x3f485702	0.78257763
153	0x3f080c4d	0.5314377
154	0xbee34ddf	-0.44395348
155	0x3e653e80	0.22387123
156	0x3f18e8d9	0.597303
157	0x3ee06d99	0.43833616
158	0x3fc2bbd9	1.5213577
159	0xbd537ae0	-0.051630855
160	0xbe55244a	-0.20814624
161	0x3ee8dc9b	0.4548081
162	0x3e1820a2	0.14856198
163	0xc025edad	-2.5926316
164	0xbef82d4d	-0.48472062
165	0x3f6a9c16	0.9164442
166	0x3c7b41d1	0.015335516
167	0xbfb70cb8	-1.4300756
168	0xbf6ecd52	-0.93282044
169	0x3eaf949b	0.34293064
170	0xbc2e7bd6	-0.010649642
171	0xbf561ff3	-0.836425
172	0xbe59caea	-0.21268812
173	0x3f828c40	1.0199051
174	0xbded4d4d	-0.115870096
175	0x3f9f1191	1.2427236
176	0xbf4e5c2b	-0.8060939
177	0x3f9f4eaf	1.2445887
178	0x3fb50698	1.4142637
179	0x3ffa1e94	1.9540582
180	0xbf2938d4	-0.6610234
181	0x3fc4154b	1.5318998
182	0x3fa6b87f	1.3025054
183	0x3da72bbc	0.081626385
184	0x3faee4fa	1.3663628
185	0x3ee09e7f	0.43870923
186	0x3e9a1363	0.30092916
187	0x3f60a638	0.8775363
188	0x3f289157	0.6584677
189	0xbd9a7c77	-0.07543271
190	0x3fba31b3	1.4546417
191	0xbd30032c	-0.042971775
192	0xbec883f0	-0.3916316
193	0x3f9065da	1.1281083
194	0xbef0ccb3	-0.47031173
195	0xbf1b9416	-0.60772836
196	0xbd99ad66	-0.07503776
197	0xbd852799	-0.06501693
198	0x3fe67ca8	1.8006792
199	0xbeb3ce95	-0.35118547
200	0xbe9d15ee	-0.30680794
201	0x3e8a3263	0.26991567
202	0x3f4945a3	0.7862188
203	0xbfa8791a	-1.3161957
204	0xbe82ddd2	-0.2555986
205	0xbd4d5480	-0.050129414
206	0x3f6119bc	0.8792989
207	0x3cb069eb	0.02153488
208	0x3e252f12	0.16131237
209	0xba933ec1	-0.0011233912
210	0xbe49c4e8	-0.1970402
211	0xbffd2489	-1.9776775
212	0xbe6b2128	-0.22961867
213	0x3fb830a7	1.4389848
214	0xbd8eb276	-0.069676325
215	0x3fab1c72	1.3368056
216	0x3e990a43	0.29890642
217	0xbeeaeb9e	-0.45882887
218	0xbf0be916	-0.54652536
219	0x3f2691ab	0.6506602
220	0xbd8c33bf	-0.06845807
221	0x3ca1b005	0.019737253
222	0x3f68dbd7	0.9096045
223	0x40052e32	2.0809445
224	0x3e88d104	0.26721966
225	0x3f4eaf28	0.8073602
226	0x3fd621a9	1.6729022
227	0x3ea0214b	0.312754
228	0x3eb0b778	0.34514976
229	0x3f808379	1.0040122
230	0x3e9a58a3	0.3014575
231	0x3ef6812a	0.4814542
232	0x3e574226	0.21021327
233	0xbd3d9c3a	-0.046291567
234	0x3f40fa17	0.75381607
235	0x3f2e8460	0.6817074
236	0x3f9a78b7	1.2068089
237	0x3f2d3606	0.6766056
238	0x3f4ff310	0.8123026
239	0x3b83c3dd	0.0040211515
240	0xbdc59334	-0.096472174
241	0x3edb3e68	0.4282105
242	0xbeba1a8d	-0.36348382
243	0xbe0b52f2	-0.1360586
244	0x3ecce48a	0.4001811
245	0x3ef0c5d5	0.47025934
246	0x3f25c135	0.64747936
247	0x3d1d97c6	0.03847482
248	0xbef898e7	-0.48554155
249	0x3e643f8c	0.22289866
250	0x3f13102e	0.57446563
251	0xbf1ba870	-0.6080389
252	0x3e5a1f01	0.2130089
253	0xbeb99649	-0.3624747
254	0x3e5ee562	0.2176719
255	0x3f1f3bda	0.622007

weight f4 [32, 144]
0	0x3f64df8a	0.89403594
1	0xbd22d57f	-0.039754387
2	0xbe9b6638	-0.30351424
3	0x3ea8096d	0.3281969
4	0xbfa208b3	-1.2658905
5	0xbc72b8dd	-0.014814583
6	0x3e4665d8	0.19374788
7	0xc0314055	-2.7695515
8	0xbf408f22	-0.75218403
9	0xbf254d2b	-0.64570874
10	0xbfe595ef	-1.7936381
11	0xc0067447	-2.100847
12	0x3ed221f1	0.4104152
13	0x3e197c01	0.1498871
14	0x3d540a5d	0.051767696
15	0x3d323f51	0.043517414
16	0xbf7054b4	-0.93879247
17	0xbf9f2f17	-1.2436246
18	0xbf4801f1	-0.7812796
19	0xbebcdb43	-0.36886033
20	0xbebea065	-0.37231746
21	0xbe814d35	-0.25254217
22	0xbe153335	-0.14570315
23	0xbfc1bbe2	-1.5135462
24	0x3fa4f439	1.2887031
25	0x3e57f25e	0.2108855
26	0x3e122e92	0.14275578
27	0x3bd99ba5	0.0066408687
28	0x3e1a0ad7	0.15043198
29	0xbfb8ac54	-1.442759
30	0xbe02d0ae	-0.12774917
31	0xc0265fb8	-2.5995922
32	0xbfb0e689	-1.3820354
33	0x3f26a482	0.6509477
34	0xbef8b82e	-0.48578018
35	0xbfa7f473	-1.3121475
36	0xbe1a517d	-0.15070148
37	0x3ec6d1ee	0.3883204
38	0xbf511eb1	-0.81687456
39	0xbca71070	-0.02039358
40	0xbf84c792	-1.0373404
41	0x3f09bc6b	0.5380313
42	0x3f085604	0.5325625
43	0xc05ff0c0	-3.4990692
44	0xbf8f6314	-1.1202111
45	0x3f3e2870	0.7428045
46	0xbd1216b5	-0.035666186
47	0xbf09d5b6	-0.5384172
48	0x3f92e08e	1.1474779
49	0xc08c1b1d	-4.3783097
50	0x3c93e0e9	0.018051581
51	0x3da3d0e4	0.07998827
52	0x3d212330	0.039340198
53	0xbfa58536	-1.2931278
54	0x3f37f58f	0.7185907
55	0x3f9bd481	1.2174226
56	0xbf66c6ac	-0.901469
57	0x3f0811e2	0.53152287
58	0xbfce1a0f	-1.6101702
59	0xc0b9a605	-5.801516
60	0x3fa3735d	1.2769581
61	0x3f3142db	0.6924264
62	0x3eb46a05	0.35237136
63	0xbf2ba6d8	-0.6705146
64	0xbf7f17f7	-0.9964594
65	0xbd1f07fe	-0.03882598
66	0xbf60bd19	-0.8778854
67	0x3f6896e2	0.9085523
68	0xbfc2e739	-1.5226814
69	0xbffa6034	-1.9560609
70	0xbd99eb19	-0.075155444
71	0xc06b3b41	-3.6754916
72	0x4029ebd3	2.6550186
73	0xbe31c83c	-0.1736154
74	0xbf044093	-0.5166103
75	0x3d805754	0.062666565
76	0x3fe8e921	1.8196145
77	0xbea8ee83	-0.3299447
78	0xbf8466a8	-1.0343828
79	0x3f0e364d	0.55551606
80	0xbf82a2e1	-1.0205957
81	0xbfc9ba9e	-1.5760076
82	0xbfbb87bb	-1.4650797
83	0xbfc8c4cc	-1.5685058
84	0xbf2f0606	-0.68368566
85	0x3f09cdb9	0.5382953
86	0xbdb491a7	-0.088168435
87	0x3fe1df84	1.7646337
88	0x3fa1bc4d	1.263559
89	0xbf96ddcb	-1.1786436
90	0x3fbc50ba	1.4712136
91	0xbe892962	-0.26789385
92	0xbfa2c195	-1.2715327
93	0xbf7a5f38	-0.9780154
94	0xbf853128	-1.0405626
95	0xbf96c2b5	-1.177817
96	0xbd988201	-0.07446671
97	0xbf0d5232	-0.55203545
98	0xbf502ebe	-0.8132132
99	0xbeea23f7	-0.45730564
100	0xbffd8e01	-1.9808961
101	0xbfff13d0	-1.9927921
102	0xbf8c64ee	-1.0968301
103	0xc05235a1	-3.2845232
104	0xbf4a9212	-0.79129136
105	0x3f4f6019	0.8100601
106	0x3f2d3c4f	0.6767015
107	0xbf8a3043	-1.0795978
108	0xbe711082	-0.23541453
109	0x3f293c9f	0.66108125
110	0xbfa81bb6	-1.3133457
111	0xbdb419a4	-0.08793953
112	0x3e66d92e	0.22543785
113	0xc028ddb1	-2.638531
114	0x3dc4cde2	0.096095815
115	0xbfc136ac	-1.509481
116	0xbe323f44	-0.17406946
117	0xbf8ef2e3	-1.1167873
118	0xbefc6e56	-0.4930293
119	0xbe7fa356	-0.24964651
120	0xbe89d177	-0.26917621
121	0xbfd266d6	-1.6437633
122	0xbdfead21	-0.124353655
123	0xbf62d7b5	-0.8861039
124	0xbd115584	-0.035481945
125	0xbd4cbc3e	-0.04998421
126	0x3e8991e6	0.26869124
127	0xbfa373fa	-1.2769768
128	0xbf57658c	-0.84139323
129	0xbdd39b44	-0.10332349
130	0x3ef62a44	0.4807912
131	0xbf9bcb39	-1.2171394
132	0xbd4c1907	-0.049828555
133	0xbec25a6d	-0.37959614
134	0xbc80c9c5	-0.015721211
135	0xbf4b36f9	-0.79380757
136	0xbfd011fc	-1.6255488
137	0xc01b75d5	-2.429067
138	0xbf2c1c55	-0.6723073
139	0xc0b9a962	-5.8019266
140	0x3f9045c8	1.1271296
141	0x3f014578	0.50496626
142	0xbfe61c30	-1.7977352
143	0xbf988c3e	-1.1917799
144	0x3e79dd86	0.2440091
145	0x3e2e7bd8	0.1703943
146	0x3d6e12f0	0.05812353
147	0xbf3a6963	-0.7281706
148	0xbf2c7ed0	-0.67381
149	0x3f10ec23	0.56610316
150	0x3f74aeea	0.955794
151	0xbdbbdb16	-0.09172647
152	0xbf6ed815	-0.93298465
153	0xbf264a98	-0.6495757
154	0xbf69ab5f	-0.91277117
155	0xbe14aeda	-0.14519826
156	0xbd61f39a	-0.055163957
157	0x3ea83be7	0.32858202
158	0xbe160567	-0.14650498
159	0xbf99d3f8	-1.2017813
160	0xbf204979	-0.6261211
161	0xbec22c20	-0.3792429
162	0xc00af1e8	-2.1710148
163	0xbe8f401e	-0.27978605
164	0xbf0ec183	-0.55764025
165	0xbf64f923	-0.8944265
166	0xbf8783b5	-1.0587069
167	0x3f292537	0.6607241
168	0x3f665e9f	0.8998813
169	0xbe982851	-0.2971826
170	0x3d17f592	0.03709943
171	0xbf5d0f96	-0.8635191
172	0xbe1fa5bf	-0.15590571
173	0x3f4e5297	0.8059477
174	0xbee170e8	-0.44031453
175	0xbfbabc79	-1.4588767
176	0xbf8580a0	-1.0429878
177	0x3ebcbe21	0.36863807
178	0x3e5c827f	0.21534155
179	0xbff04f48	-1.8774195
180	0xbdfbeaf4	-0.12300673
181	0x3f2ce1c1	0.67531973
182	0xbf810d2f	-1.0082148
183	0xbd4422dc	-0.047884807
184	0xbfa50097	-1.2890805
185	0xbf819f3f	-1.0126723
186	0xbf7c19e0	-0.9847698
187	0xbf660ff8	-0.89868116
188	0x3eb07eb6	0.34471673
189	0x3f09f389	0.5388723
190	0xbe891766	-0.26775664
191	0xbf8c1c99	-1.0946227
192	0x3f6acec5	0.91721755
193	0x404ab6c1	3.1674044
194	0x3cbcb0bd	0.023033494
195	0xbf963c87	-1.1737221
196	0xbe7c01cc	-0.2461006
197	0xbfccf9a2	-1.6013682
198	0xbf8f0c2d	-1.1175591
199	0x3f3d9c70	0.7406683
200	0xbe368ab2	-0.17826346
201	0x3f6090e4	0.87721086
202	0xbf3266f3	-0.6968834
203	0xc007f292	-2.1241803
204	0x3f75fd7c	0.9608991
205	0xbeb46f4f	-0.35241172
206	0xbd1e1179	-0.038590882
207	0xbf3265d4	-0.6968663
208	0xbf0eab98	-0.5573058
209	0x3f54cb23	0.8312246
210	0x3d2e9abd	0.04262804
211	0x3e3b55c3	0.18294434
212	0xbf32fc74	-0.6991646
213	0xc025d3d0	-2.591053
214	0x3e960869	0.2930329
215	0xc083ec0d	-4.122565
216	0x3f41d496	0.75715005
217	0x3efcbc9a	0.49362642
218	0x3f0fb3ef	0.5613393
219	0xbf0e1eec	-0.55515933
220	0x40171389	2.3605673
221	0x3ffa16e5	1.9538237
222	0x3e136863	0.14395289
223	0xbfac91df	-1.3482016
224	0xbfa4aeb2	-1.2865813
225	0xbee2c200	-0.44288635
226	0xbf236f77	-0.63841957
227	0xbef7d896	-0.4840743
228	0xbeb05214	-0.3443762
229	0x3f4585b5	0.77157146
230	0xbdd8236e	-0.10553633
231	0x3ebe7df6	0.37205476
232	0x3fb629e4	1.4231534
233	0x3e5e3ec8	0.21703637
234	0xbf8ed429	-1.1158496
235	0xc08c8784	-4.3915424
236	0xbf09136c	-0.5354526
237	0xbee6e0e5	-0.45093456
238	0xbf6199d3	-0.8812534
239	0xbfa63111	-1.2983724
240	0xbeeefdc8	-0.46677995
241	0xbf1e9269	-0.61942154
242	0xbedb970b	-0.42888674
243	0xbf6077ff	-0.876831
244	0xc009cf6d	-2.1532853
245	0xbf0dc131	-0.5537291
246	0xbea1392a	-0.31488925
247	0x3f878774	1.0588212
248	0xbe9a2e2d	-0.30113354
249	0x3f00a4f1	0.5025168
250	0xbf6f65ea	-0.93514884
251	0x3e9321c7	0.28736708
252	0x3f2ec54c	0.682698
253	0x400d07f4	2.2036104
254	0xbf2a0605	-0.66415435
255	0xbfaaa2d6	-1.3330944

bias f4 [32]
0	0xbf1d374f	-0.6141252
1	0xbed37243	-0.41298112
2	0x3f4999e6	0.78750455
3	0xbebd5fe4	-0.3698722
4	0xbf5da07f	-0.8657302
5	0xbdd7c8ed	-0.105363704
6	0xc00b75ea	-2.179072
7	0xbf5b1c96	-0.85590494
8	0xbe9632df	-0.29335687
9	0xbf954972	-1.1663039
10	0xbf3450d7	-0.7043585
11	0xbe473013	-0.19451933
12	0xbc0c4ba4	-0.008562956
13	0xbf6ab9d9	-0.9168983
14	0xbf2c61bb	-0.67336625
15	0xbf7ca523	-0.9868948
16	0xbf692bc5	-0.9108241
17	0xbe08de1e	-0.13365981
18	0xbee16d17	-0.4402854
19	0xbfafce46	-1.3734825
20	0xbfc95312	-1.5728476
21	0xbe85c9ab	-0.26130423
22	0xbfb4c17d	-1.4121548
23	0xbf13a39e	-0.57671535
24	0x3ced174c	0.028941773
25	0xbf530d99	-0.82442623
26	0xbf819452	-1.0123389
27	0xbf92258b	-1.1417707
28	0xbf3b72c5	-0.73222
29	0x3e5f1726	0.21786174
30	0x3e3dcbc3	0.1853476
31	0xbf9313bf	-1.1490401

weight f4 [16, 32]
0	0x3d140760	0.036139846
1	0x3d830963	0.06398275
2	0xbc67d6af	-0.014150306
3	0x3cad6fc1	0.021171452
4	0xbceefdb8	-0.029173717
5	0xbc33ac5d	-0.010966388
6	0xbcfe79b3	-0.03106389
7	0x3c58ae91	0.013225214
8	0xbbb7a0fa	-0.0056039067
9	0x3d47a338	0.048739642
10	0xbd2de4a1	-0.042454366
11	0x3cff61f2	0.031174634
12	0xbcc42ae8	-0.02394624
13	0x3d7d9561	0.061910037
14	0xbcd4e80f	-0.02598956
15	0xbda6a7ec	-0.08137497
16	0x3b12c7ea	0.002239699
17	0x3e96e0a0	0.2946825
18	0xbe1475cd	-0.14498062
19	0x3b221b78	0.002473561
20	0xbb03bad2	-0.0020100367
21	0xbd047606	-0.03233912
22	0xbd1965d1	-0.037450615
23	0x3d2b0d2f	0.04176062
24	0x3a11454b	0.00055416365
25	0x3d96ca79	0.07362837
26	0xbdfb0004	-0.12255862
27	0x3c0fc079	0.008773916
28	0x3d1cd428	0.038288265
29	0x3c365a90	0.01112999
30	0xbc52edcb	-0.012874077
31	0x3c5b4a42	0.013384404
32	0xbf3d53fe	-0.73956287
33	0xbed43fec	-0.4145502
34	0x3d7f5ec8	0.06234625
35	0x3df6b65f	0.12046503
36	0x3f3621df	0.71145433
37	0xbf12852c	-0.57234454
38	0x3f2afb4d	0.66789705
39	0xbed63afd	-0.4184188
40	0xbe8afa9e	-0.2714433
41	0xbf1a8c51	-0.60370356
42	0xbedf0369	-0.4355729
43	0xbe1d2cc8	-0.15349114
44	0xbf3c73f5	-0.73614436
45	0x3f021b14	0.5082257
46	0xbe851d25	-0.25998798
47	0x3f7c7d6e	0.9862889
48	0xbda7f16d	-0.08200345
49	0x3f4cd4c2	0.8001214
50	0xbfc3e8c8	-1.5305414
51	0x3e04d6dd	0.12972589
52	0x3ec8b1cd	0.3919815
53	0xbdd20757	-0.10255306
54	0x3b7f4974	0.0038953694
55	0x3ee1a4f9	0.44071177
56	0x3edad833	0.42743072
57	0xbbd021b3	-0.0063516735
58	0xbf2f23df	-0.6841411
59	0x3f07a911	0.5299235
60	0x3f171e81	0.5903092
61	0x3edbda08	0.42939782
62	0x3f595701	0.8489838
63	0xbe1df500	-0.15425491
64	0xbd399d24	-0.045315877
65	0xbd2af281	-0.041735176
66	0xbd1b9f40	-0.03799367
67	0x3ceb08bc	0.028690688
68	0x3ca4007e	0.020019766
69	0xbaf5f941	-0.00187663
70	0x3c35d1ce	0.011097385
71	0xbd0cbac0	-0.034357786
72	0xbc59457b	-0.013261194
73	0x3d7c7780	0.0616374
74	0xbd1139d9	-0.03545556
75	0xbb2313ad	-0.0024883554
76	0xbc2f5f4d	-0.010703874
77	0xbdaa5b48	-0.08318192
78	0xba5b2e7a	-0.00083611126
79	0xbd116a12	-0.035501547
80	0x3ccfc572	0.025362704
81	0x3d7a44e5	0.06110086
82	0x3bbe2b6b	0.0058035157
83	0xbcc3dc22	-0.023908678
84	0x3c475447	0.012166089
85	0x3c58c03d	0.013229427
86	0x3d4e9cd2	0.050442524
87	0xbc92a301	-0.017899992
88	0xbbaf1ca5	-0.005343991
89	0x3e2260fd	0.1585731
90	0x3d73973f	0.05947041
91	0x3d580001	0.05273438
92	0x3ceb24b5	0.028704027
93	0x3d590145	0.052979726
94	0x3cb0ffdd	0.02160638
95	0x3c889922	0.016674582
96	0xbf0f3744	-0.55943704
97	0xbed0a8f8	-0.40753913
98	0xbe750378	-0.23927104
99	0x3ec39f1d	0.3820733
100	0x3f3b66e9	0.73203903
101	0xbd81ff90	-0.06347573
102	0xbf66a270	-0.9009161
103	0xbf45944e	-0.7717942
104	0xbf826191	-1.0186025
105	0xbc14fb7f	-0.0090931645
106	0xbe6ab5da	-0.22920933
107	0x3e17266f	0.14760755
108	0xbf0ba039	-0.54541355
109	0x3f0d8627	0.55282825
110	0xbe388be5	-0.18022116
111	0x3f067d3d	0.5253485
112	0xbea70099	-0.32617643
113	0xbf63b9b2	-0.88955224
114	0xbe50624d	-0.20349999
115	0x3ea2367a	0.31682187
116	0x3e7efec1	0.24901868
117	0x3f50ffd0	0.8164034
118	0x3e5ce0e8	0.2157017
119	0x3f3f3931	0.7469664
120	0xbe1fc61f	-0.15602921
121	0xbd873c84	-0.06603339
122	0x3a83e63b	0.0010063121
123	0x3eaf6ef2	0.34264332
124	0xbf828f7c	-1.0200038
125	0xbeb5e98c	-0.35529745
126	0xbea14e26	-0.31504935
127	0x3dfb65a0	0.12275243
128	0xbd7d9421	-0.061908845
129	0xbe03e100	-0.128788
130	0xbc0e44bc	-0.00868338
131	0xbc022c89	-0.007945188
132	0x3a81724d	0.0009875983
133	0xbc580f95	-0.013187309
134	0xbc41c779	-0.011827343
135	0x3ca6efd2	0.020378027
136	0xbc65583d	-0.013998088
137	0x3e323b79	0.174055
138	0x3d1097eb	0.03530113
139	0xbb9a0ab7	-0.0047009843
140	0xbd12481e	-0.035713308
141	0xbc943ac3	-0.018094426
142	0xbcef82f5	-0.02923725
143	0x3ba2baf3	0.0049661337
144	0x3b8aa2db	0.0042308397
145	0x3e33ff09	0.17577757
146	0xbb204236	-0.0024453527
147	0x3cc5b5f6	0.024134617
148	0xbc1ade9a	-0.009452486
149	0xbc459f77	-0.012061945
150	0x3d4e7a64	0.05040969
151	0x3c95a51f	0.018267212
152	0x3ca78dc1	0.020453336
153	0xbbce0275	-0.006286914
154	0x3d9b4792	0.0758201
155	0x3c858e98	0.016303346
156	0xbd4fbcc1	-0.05071712
157	0xbbcb5678	-0.0062053762
158	0xbc0594b7	-0.008153132
159	0xbc87406a	-0.016510207
160	0x3eaeb82f	0.34124896
161	0x3f7f5782	0.997429
162	0x3f0f2a07	0.55923504
163	0xbef5aa7d	-0.47981635
164	0x3f94f2b9	1.1636573
165	0x3f97c676	1.185744
166	0x3e47f4b4	0.1952694
167	0xbf40441a	-0.75103915
168	0x3f1e4dfd	0.6183775
169	0x3f49b9d8	0.787992
170	0x3f3135a9	0.69222504
171	0x3e88411a	0.2661217
172	0x3e735a09	0.23764814
173	0x3f64f2e7	0.8943314
174	0x3ecb625d	0.39723483
175	0xbf31740f	-0.69317716
176	0x3ef55a93	0.47920665
177	0xbe67c443	-0.22633462
178	0x3f648c6b	0.8927676
179	0xbf423619	-0.75863796
180	0xbf72aabc	-0.9479177
181	0xbeb88c29	-0.36044434
182	0xbea2112b	-0.31653723
183	0x3e2cdf8f	0.16882156
184	0xbe44adc5	-0.19206913
185	0x3f851386	1.0396583
186	0x3f672e89	0.9030538
187	0x4013a2d3	2.306813
188	0x3f5b1057	0.8557181
189	0xbd9e661e	-0.07734321
190	0xbf39de4a	-0.7260481
191	0x3e5401b6	0.20703778
192	0xbf14a6f5	-0.58067256
193	0xbec7a1e2	-0.38990694
194	0xbea11ae3	-0.31465825
195	0x3f3e635e	0.7437037
196	0x3e2abe10	0.16674066
197	0x3e7ae86d	0.24502726
198	0x3ed63ac9	0.41841725
199	0xbe9e3b8d	-0.3090481
200	0xbeb11ec3	-0.34593782
201	0xbe8c38f1	-0.27387193
202	0xbe97ea6b	-0.29671034
203	0x3ea2b970	0.31782103
204	0x3e6f578f	0.23373245
205	0x3f86b3b2	1.0523589
206	0x3da1752c	0.07883677
207	0x3ef39baa	0.475797
208	0xbe33e273	-0.17566852
209	0x3f297c76	0.6620554
210	0xbf8cda3e	-1.1004102
211	0xbb2620a9	-0.0025349057
212	0x3eb04d3f	0.34433934
213	0xbf0a5276	-0.54032075
214	0xbc60a11d	-0.013710287
215	0xbef14de1	-0.4712973
216	0xbf8d16c9	-1.1022578
217	0x3f921033	1.1411194
218	0xbea62f24	-0.3245784
219	0x3d03d92b	0.03218953
220	0x3ed05988	0.40693307
221	0xbd2cbbfc	-0.042171463
222	0x3ea7f92d	0.32807294
223	0xbed8fed2	-0.42381912
224	0xbdb8d5c6	-0.09025149
225	0x3d5a662c	0.053320095
226	0x3b07a3ac	0.0020696921
227	0x3d11ac27	0.035564568
228	0xbca69031	-0.020332428
229	0x3d4ef707	0.050528552
230	0x3d435e21	0.04769719
231	0xbc3c0666	-0.011476135
232	0xbc5d2e6a	-0.0134998355
233	0xbe3c06ca	-0.18361965
234	0x3e162203	0.14661412
235	0xbd589a43	-0.05288149
236	0x3da930c7	0.08261257
237	0xbdc737c0	-0.0972743
238	0x3de8095d	0.11329911
239	0xbe4f7709	-0.20260252
240	0x3d80b3e4	0.062843114
241	0xbe328990	-0.17435288
242	0x3d2e50c7	0.042557504
243	0x3db8d2f3	0.0902461
244	0x3c18b650	0.00932081
245	0x3cc96cd6	0.02458803
246	0x3c84135a	0.016122509
247	0xbd3ed9c8	-0.04659441
248	0xbc89ea69	-0.016835408
249	0x3daea1c4	0.08526948
250	0x3e4343d0	0.19068837
251	0x3c411e4e	0.01178701
252	0xbd61f729	-0.05516735
253	0x3d3f3ea9	0.046690617
254	0x3d0f6570	0.035008848
255	0x3bf4f038	0.0074749254

bias f4 [16]
0	0xbca54151	-0.020172747
1	0xbec24c8e	-0.37949032
2	0x3c972bdd	0.018453533
3	0xbed26f9e	-0.41100782
4	0xbcc197cc	-0.023631953
5	0x3e3f67c1	0.18691923
6	0xbe25f5e6	-0.16207084
7	0x3d5f978d	0.05458789
8	0xbb44e32d	-0.0030042634
9	0xbbebedb5	-0.0071999677
10	0xbcb0ca3e	-0.021580812
11	0xbecf2924	-0.40461075
12	0xbee399e1	-0.44453338
13	0x3c1ef9c1	0.009703101
14	0x3d083014	0.033248976
15	0x3d4d9302	0.050189026

weight f4 [1, 16]
0	0xb743bb35	-1.1666493e-05
1	0x3e823e93	0.25438365
2	0xb96da771	-0.00022664458
3	0x3e2edf07	0.17077266
4	0xb828087c	-4.0062223e-05
5	0xbe704c0b	-0.23466508
6	0x3dcd08fc	0.10011479
7	0x389412e1	7.0607064e-05
8	0x3885d049	6.38073e-05
9	0xb995dcc0	-0.00028583966
10	0xb8d3d89a	-0.00010101609
11	0x3e138fcf	0.14410327
12	0x3e96ec18	0.29477
13	0x3868eab7	5.5531706e-05
14	0x38a102aa	7.6775745e-05
15	0x39936aff	0.00028117743

weight f4 [1, 144]
0	0xbcaa2728	-0.020770624
1	0x3b8fce93	0.0043886392
2	0xbac68357	-0.0015145343
3	0x3c0cb081	0.008587004
4	0x3e0f09bf	0.13968562
5	0x3e45159a	0.19246522
6	0x3dd72749	0.1050554
7	0x3eab7e88	0.33494973
8	0xbe84ae18	-0.25914073
9	0x3e9f9972	0.31171757
10	0xbcbce965	-0.02306051
11	0x3e8c8ac3	0.27449617
12	0x3ba799ef	0.005114786
13	0x3c04408f	0.008072033
14	0x3c85ec79	0.01634811
15	0xb9b61f9c	-0.00034737296
16	0x3df2242b	0.11823305
17	0x3e226852	0.15860108
18	0x3edb1a7f	0.42793652
19	0xbd3e5093	-0.04646356
20	0xbd51a45f	-0.051182147
21	0x3db40d32	0.08791579
22	0x3f3b6f00	0.7321625
23	0xbe0265bf	-0.12734126
24	0x3e50106c	0.20318764
25	0x3aedab52	0.0018132722
26	0x3aa447fe	0.0012533662
27	0xbc29d857	-0.010366521
28	0x3f0fe0f1	0.5620261
29	0x3dfd99dc	0.12382862
30	0xbdd1ea09	-0.10249717
31	0x3e2480c1	0.1606474
32	0x3e119a5b	0.14219038
33	0x3e485114	0.19562179
34	0xbe5a4da1	-0.21318676
35	0x3ed9b81a	0.4252327
36	0xbdbb0139	-0.091310926
37	0x3c34dcb6	0.01103895
38	0x3b00ac16	0.0019633821
39	0xbb53afc0	-0.00323008
40	0xbe186610	-0.14882684
41	0xbdcb3100	-0.099214554
42	0x3dece10a	0.1156636
43	0x3e787f84	0.24267393
44	0x3d8b4633	0.06800499
45	0xbd9cadbe	-0.07650326
46	0x3f3effa8	0.7460885
47	0x3ccdfc1d	0.025144631
48	0x3ec81a50	0.39082575
49	0x3aea7644	0.0017888029
50	0x3a49ef9b	0.00077032455
51	0x3c0eae92	0.008708613
52	0x3dc0eb8b	0.09419926
53	0xbd44eea4	-0.048079148
54	0x3f8b5075	1.0883929
55	0xbe73b299	-0.23798598
56	0x3b98d272	0.004663759
57	0x3f15c71b	0.58506936
58	0xbcfd9a2b	-0.030957302
59	0x3c0e94fd	0.008702514
60	0x3ec8f06c	0.39245927
61	0x3ca3d5c7	0.019999398
62	0xbaaf038a	-0.0013352495
63	0xbc2a6d7c	-0.01040208
64	0x3e62a9b6	0.22135052
65	0xbe5942da	-0.21216908
66	0x3dafea53	0.08589616
67	0xbdaa9286	-0.083287284
68	0x3ab97a3e	0.0014150811
69	0x3daa0d3c	0.083033055
70	0xbe7d2a44	-0.24723154
71	0x3ca80d89	0.020514267
72	0x3d941817	0.07231157
73	0x3b848460	0.0040441006
74	0x3c227764	0.00991616
75	0xbc5e9f6f	-0.013587817
76	0x3e2bfcb1	0.16795613
77	0xbdc30fa1	-0.09524465
78	0x3e3d4306	0.18482599
79	0xbd5111eb	-0.05104248
80	0x3dbf1ed6	0.09332053
81	0x3c9c918e	0.019112375
82	0xbeb910a9	-0.36145523
83	0x3dd249a2	0.102679506
84	0x3dac6035	0.084167875
85	0xbda1056f	-0.078623645
86	0xbad93f6f	-0.0016574691
87	0x3e6a1547	0.22859679
88	0xbd34825e	-0.04406964
89	0x3e62c9f5	0.22147353
90	0x3e3be358	0.18348444
91	0xbcbb6c53	-0.022878801
92	0x3d24b38f	0.040210303
93	0xbcc89371	-0.024484368
94	0x3edcbd17	0.43113014
95	0x3e9b5b74	0.3034321
96	0x3dc6b10a	0.09701736
97	0xbebe2380	-0.3713646
98	0x3d407a33	0.04699154
99	0xbab25bcd	-0.0013607681
100	0xbe5e5090	-0.2171042
101	0x3e8f9b8b	0.28048357
102	0xbe002412	-0.1251376
103	0xbe7f896d	-0.24954768
104	0x3dce99a1	0.10087896
105	0x3ea74282	0.3266793
106	0x3ed33c92	0.4125715
107	0x3e89827b	0.2685736
108	0xbda68398	-0.08130568
109	0xbdb1b008	-0.086761534
110	0xbdcbce7c	-0.09951493
111	0xbc070876	-0.008241763
112	0xbd105a06	-0.035242103
113	0x3eb02cbc	0.3440913
114	0xbde81096	-0.113312885
115	0x3d62ab4f	0.055339154
116	0x3e36dba9	0.17857231
117	0x3e236c75	0.15959342
118	0x3cd0f7ef	0.025508849
119	0xbd596d7e	-0.053082936
120	0xbb797d15	-0.003806894
121	0xbea8446c	-0.32864702
122	0xba593180	-0.0008285269
123	0xbe0df8a0	-0.13864374
124	0x3e0de808	0.13858044
125	0xbdb52325	-0.08844594
126	0x3f6b7a67	0.91983646
127	0x3b66e4b1	0.0035231526
128	0x3e7976f3	0.24361782
129	0x3c77de1f	0.015128641
130	0x3e43ead6	0.19132552
131	0xbe531600	-0.20613861
132	0x3a5dc83a	0.0008460317
133	0xbe6dd17e	-0.23224446
134	0xbaf65b92	-0.0018795601
135	0xbc94f5d7	-0.018183632
136	0xbd1b3100	-0.037888527
137	0xbd8381b0	-0.0642122
138	0x3e81e481	0.25369647
139	0x3ec81e83	0.3908578
140	0x3e118032	0.14209059
141	0xbe7a1ad0	-0.2442429
142	0x3e91c7f1	0.28472856
143	0xbc619773	-0.013769018
