MLIPs/CACE-LES/water/cace-r-5.5-nl-1-nu-2/checkpoint.pt (torch, 95010 bytes, 36 tensors)

representation.node_embedding_sender.embedding_weights f4 [2, 2]
0.26175454 0.057702575 -0.5082638 0.6934121
00000000: b104 863e 8959 6c3d 941d 02bf 7583 313f

representation.node_embedding_receiver.embedding_weights f4 [2, 2]
0.39212212 -0.005429745 -0.14189969 0.9761352
00000000: 3bc4 c83e 01ec b1bb 274e 11be ffe3 793f

representation.radial_basis.bessel_weights f4 [6]
0.36016977 1.1904953 2.001989 2.8236082 3.6612341 4.5143914
00000000: 2c68 b83e 2662 983f 9620 0040 ffb5 3440
00000010: a951 6a40 e575 9040

representation.radial_transform.weights.0 f4 [6, 12, 4]
4.0812945 0.0047840877 0.0026149563 0.19502544 0.23494002 -0.008760024 0.094838984 0.3502832
1.344798 0.00025491518 -0.0073267664 0.11733496 5.288424 0.20267418 0.60095125 0.012156135
1.9946675 1.8896966 -0.003593823 0.25381675 1.7481078 1.1038622 0.04277612 0.17838562
-2.306748 -0.020243276 -0.033536058 0.10096574 -0.7910477 -0.1590116 0.01853293 0.84257275
0.5784934 1.600114 0.3565555 0.107575305 3.2378163 1.877894 0.13015452 0.37567377
-0.22955532 1.5835619 -0.003458342 0.14518836 -0.09848631 0.5503895 -0.015166673 0.21487513
-0.17686322 0.0040931622 -0.0039934814 0.5257524 -0.1628633 0.0026366918 -0.91639024 1.016105
2.213666 0.0014992008 0.017999021 0.3364021 1.5340967 -0.020327251 0.08919527 0.03539842
2.3500087 -0.5995545 0.01207756 0.72652346 2.5464137 0.046135582 -0.10626432 0.53595877
-0.5933366 0.0028540497 0.20395264 0.2781088 0.092797644 -0.1248991 -0.06458222 0.5589248
-0.3868769 1.1124072 -0.92232984 0.29675734 1.5476485 -0.008046921 1.1373638 1.1006328
0.12980306 1.2385334 -0.019201867 1.6338593 -0.013919999 2.7502556 0.0335898 0.89623713
-0.1582845 -0.007379921 -0.0021829528 0.32643193 0.057773273 -9.516223e-05 -0.08438957 0.5896993
1.3340123 -0.006471926 0.004807128 0.22406372 -1.0566496 -0.035019983 -1.0003196 0.035336226
1.5890068 -0.07912561 0.0017965918 0.4614177 1.8200024 -0.36433247 0.0039890874 0.3458826
2.2053297 0.0048085703 0.038067743 0.18002765 -0.32245693 -0.2214283 0.0026045803 -1.2838538
0.008290954 1.2074453 -0.61291087 0.21749778 -0.80275667 -0.62389624 1.2564257 0.5872926
-0.041725222 0.24493597 -0.0024767623 2.6726675 0.039780416 1.2063991 -0.020301923 0.83098435
-0.10746558 -0.0014115481 -0.0081598535 -0.03898492 0.000360859 -0.005592672 0.041895643 -0.023776766
0.6988413 -0.0009819398 0.009405692 -0.02452539 -0.32354778 0.004851553 -0.02685712 -0.0025445607
0.8488345 0.09532951 0.008366607 -0.040683582 0.7809231 -0.032319974 -0.045361437 -0.0057286164
2.997586 0.0017257337 0.12468963 -0.011610067 0.17072828 0.32958326 -0.022533158 -0.7169437
0.21758701 0.15549284 0.36000282 -0.02672477 -0.013750589 -0.053155467 0.76385933 -0.006128049
-0.010465403 0.99411505 -0.020582763 0.8004159 -0.08834672 0.9738491 -0.007468208 0.3869548
0.09822074 0.005587026 0.004932844 -0.12061137 -0.031957828 0.0097407745 0.040453788 -0.30135047
0.38587955 -0.0001905838 -0.0065780454 -0.0984667 0.52981997 0.06455356 0.5059423 -0.008018785
0.1712063 -0.08537361 -0.006886723 -0.20242935 0.22646248 0.11736095 -0.013998712 -0.15681759
1.9359807 0.0048968173 -0.20936657 -0.06921349 -0.08603663 0.48300844 0.015001643 0.7673154
-0.15767251 0.39608043 -0.12355354 -0.055697285 -0.038164873 0.37612537 0.7715758 -0.34862873
0.03566185 0.411713 0.03415865 -0.22523436 0.050375532 0.019447977 0.04216646 -0.04509823
0.16641082 0.0006175712 0.0030710876 -0.05861406 0.006669901 -0.0010681327 0.043178704 -0.13709065
0.16943213 0.00064390246 -0.008225517 -0.022219293 0.24138713 0.040524267 0.1664384 -0.03366297
00000000: f799 8240 d6c3 9c3b b05f 2b3b c0b4 473e
00000010: 1e94 703e 3486 0fbc f13a c23d 5258 b33e
00000020: 5722 ac3f 23a6 8539 5f15 f0bb 504d f03d
00000030: c53a a940 d289 4f3e f1d7 193f 872a 473c
00000040: 4451 ff3f 94e1 f13f 5886 6bbb 45f4 813e
00000050: ffc1 df3f 5b4b 8d3f 0336 2f3d b8aa 363e
00000060: c2a1 13c0 3ad5 a5bc 1b5d 09bd 20c7 ce3d
00000070: 1a82 4abf f0d3 22be 5fd2 973c d9b2 573f
00000080: 2518 143f 89d0 cc3f 718e b63e 7150 dc3d
00000090: 6238 4f40 d55e f03f 3a47 053e 5058 c03e
000000a0: 8d10 6bbe 28b2 ca3f 5aa5 62bb 42ac 143e
000000b0: 31b3 c9bd 54e6 0c3f a37d 78bc 3a08 5c3e
000000c0: a21b 35be ef1f 863b c0db 82bb b697 063f
000000d0: a3c5 26be 59cc 2c3b 8d98 6abf bb0f 823f
000000e0: b4ac 0d40 d580 c43a af72 933c e53c ac3e
000000f0: 485d c43f 5685 a6bc 02ac b63d effd 103d
00000100: 8b66 1640 677c 19bf f5e0 453c 71fd 393f
00000110: 71f8 2240 aaf8 3c3d 1ca1 d9bd 9834 093f
00000120: e8e4 17bf 020b 3b3b f6d8 503e 4764 8e3e
00000130: b10c be3d 19cb ffbd af43 84bd b215 0f3f
00000140: bb14 c6be 5c63 8e3f cf1d 6cbf 94f0 973e
00000150: 5919 c63f 3cd7 03bc 2395 913f 89e1 8c3f
00000160: 18eb 043e 4388 9e3f 3c4d 9dbc 4d22 d13f
00000170: b510 64bc 3004 3040 7595 093d cc6f 653f
00000180: 5515 22be 44d3 f1bb df0f 0fbb 1622 a73e
00000190: aba3 6c3d d591 c7b8 70d4 acbd 89f6 163f
000001a0: eac0 aa3f 7312 d4bb 1d85 9d3b f670 653e
000001b0: 4b40 87bf 1d71 0fbd 790a 80bf b8bc 103d
000001c0: 9364 cb3f 9c0c a2bd 9e7b eb3a f13e ec3e
000001d0: d7f5 e83f c989 babe e4b6 823b 8617 b13e
000001e0: 1f24 0d40 3691 9d3b ecec 1b3d 2b59 383e
000001f0: 1319 a5be 1abe 62be 9bb1 2a3b 5255 a4bf
00000200: c8d6 073c 918d 9a3f bae7 1cbf bdb7 5e3e
00000210: 7681 4dbf aab7 1fbf 8fd2 a03f cf58 163f
00000220: 11e8 2abd 7fd0 7a3e 2d51 22bb fc0c 2b40
00000230: caf0 223d 496b 9a3f 3850 a6bc 64bb 543f
00000240: ea16 dcbd b203 b9ba e8b0 05bc a7ae 1fbd
00000250: ad31 bd39 bc42 b7bb c49a 2b3d 7ec7 c2bc
00000260: 43e7 323f 6fb4 80ba 551a 1a3c 78e9 c8bc
00000270: 0ea8 a5be c7f9 9e3b 7703 dcbc a5c2 26bb
00000280: 384d 593f 1e3c c33d 1814 093c d4a3 26bd
00000290: 94ea 473f f361 04bd eacc 39bd 1eb7 bbbb
000002a0: 73d8 3f40 0432 e23a 475d ff3d 2738 3ebc
000002b0: 65d3 2e3e 23bf a83e 7597 b8bc 9f89 37bf
000002c0: 21cf 5e3e 8439 1f3e 4a52 b83e e8ed dabc
000002d0: 274a 61bc 8cb9 59bd 498c 433f cdcd c8bb
000002e0: 1577 2bbc 537e 7e3f 2f9d a8bc 0ee8 4c3f
000002f0: 20ef b4bd 2d4e 793f dfb7 f4bb f11e c63e
00000300: f527 c93d 5f13 b73b b2a3 a13b 1803 f7bd
00000310: 36e6 02bd c597 1f3c dfb2 253d 9c4a 9abe
00000320: 0192 c53e 73d7 47b9 a58c d7bb e9a8 c9bd
00000330: 48a2 073f a834 843d 6f85 013f 3961 03bc
00000340: b450 2f3e 5cd8 aebd 05aa e1bb a449 4fbe
00000350: c8e5 673e f05a f03d db5a 65bc ca94 20be
00000360: 37ce f73f 7b75 a03b 3164 56be cdbf 8dbd
00000370: f933 b0bd e24c f73e 74c9 753c c86e 443f
00000380: e774 21be 0ecb ca3e a309 fdbd d622 64bd
00000390: c552 1cbd 8193 c03e fe85 453f 777f b2be
000003a0: 2912 123d 0ccc d23e f1e9 0b3d d6a3 66be
000003b0: 9356 4e3d 5d51 9f3c bdb6 2c3d ecb8 38bd
000003c0: 9967 2a3e 80e4 213a 4d44 493b 4c15 70bd
000003d0: 2f8f da3b 9600 8cba 27dc 303d 7e61 0cbe
000003e0: 9e7f 2d3e 90cb 283a 52c4 06bc 3c05 b6bc
000003f0: 302e 773e c6fc 253d d46e 2a3e 2fe2 09bd

representation.radial_transform.weights.1 f4 [6, 12, 4]
2.989013 0.62270665 1.7107574 0.87172556 2.3906627 -0.8666457 -0.39540017 -0.56036055
0.4979089 -0.19324882 0.5177776 -0.6756236 6.178672 2.2062123 -1.3729767 1.8029785
-6.7440066 -1.4927737 -0.29506466 0.7643105 0.48494136 2.579304 -0.09420872 -0.6916855
3.8255687 -2.347724 2.1482344 1.159528 1.060031 0.27315092 0.2757922 -0.4421228
-2.4470594 -0.25924507 -1.4666022 1.2097874 -0.78927857 -2.563974 0.40240845 0.122517236
4.3677397 0.30501264 -0.4058902 -1.0059752 -0.3578616 0.26232702 0.7558703 0.3808584
0.9761814 1.2061367 1.7823582 2.1652112 -1.1457924 0.5845791 -0.08409111 -1.462997
0.021876361 1.3213685 0.6302718 0.5057894 0.82571477 0.8702053 -0.058010586 3.058879
0.26304677 -0.16684906 -0.56161153 -0.4263438 1.2945563 1.4952061 0.015265884 -1.2746309
1.3316818 0.053823203 -0.06052246 1.539882 2.1896865 1.0502944 0.42708737 -0.9858569
0.49773264 1.085696 -1.8647275 3.2854648 1.1180744 -1.8655771 -0.46880054 1.3577874
4.069376 1.2988182 -0.07066701 -0.68826866 -2.1393569 -0.19219165 0.4760075 1.1222522
0.29432747 1.4084513 -0.0029886456 2.618765 0.91414016 1.2264677 0.7395231 -0.7050472
-0.18892738 0.20273876 0.19700679 2.609305 -1.8099569 -0.36775818 0.51822203 1.8490559
-0.40263408 0.6290854 0.9212853 0.07510452 0.4475039 -0.8293763 0.8407769 0.40483186
-0.009561792 0.80653155 -0.49624196 0.03143676 -0.2865182 0.77335876 0.31018555 1.0602517
2.9075305 0.8279775 0.30835834 1.3396018 0.8918216 -0.5731964 0.6935222 2.0903008
0.7992198 -0.026966374 1.053163 0.47472227 1.3336341 0.21056414 0.07319128 0.44260195
0.9290283 0.812315 -0.15839303 1.1350493 0.018126855 1.0078497 1.4640507 2.1814704
0.9980741 0.065037005 0.30238146 2.1086915 -1.9255338 0.33737886 0.23212652 0.8874165
-0.48930493 0.97827536 2.012256 0.6946441 0.25876695 -0.52148736 -0.11503554 2.4984837
0.49125382 -0.3418726 0.07278517 0.4634352 -0.45942393 0.35881472 0.4972388 1.6841133
2.1255753 0.78294504 0.9788225 -1.0637888 -0.29385954 0.080454685 0.22159798 1.5847434
-0.3952411 -0.8776568 2.0229928 0.6077885 1.8666523 -0.14960329 0.8373429 0.85958064
-0.3092888 -0.037941378 0.5357148 -0.14132214 0.14348413 0.5109951 1.0419174 3.0551848
1.3637786 -0.03491903 -0.568391 0.5446345 -1.0213635 0.29591048 0.6572818 0.87389934
0.47140315 1.1174334 1.4027438 0.7307071 -0.11703926 0.39814323 -0.114468776 1.6505181
1.054702 -0.39133862 0.40369168 1.4767855 0.2060336 0.1525108 0.9120995 -0.1057806
0.8233261 0.9786682 -0.2673518 -0.44907895 -0.019768974 0.04963462 0.27915412 -0.15188321
-0.12706773 -0.27527046 1.6847544 1.0557405 0.30040458 0.38950032 1.5211401 2.0276268
-0.4054443 -0.11750794 0.33613002 -0.017714666 -0.35261294 0.11854086 0.23229465 1.390413
0.51566267 -0.019235898 0.08233246 -0.10982378 0.17754994 0.045043163 0.5690927 0.44956428
00000000: fd4b 3f40 b469 1f3f 19fa da3f 6829 5f3f
00000010: 9e00 1940 7edc 5dbf e471 cabe ca73 0fbf
00000020: eaed fe3e 05e3 45be 138d 043f abf5 2cbf
00000030: aeb7 c540 9532 0d40 b3bd afbf 00c8 e63f
00000040: e7ce d7c0 3513 bfbf b712 97be daa9 433f
00000050: 3c4a f83e 5113 2540 80f0 c0bd 4d12 31bf
00000060: 1ed6 7440 1c41 16c0 ac7c 0940 6a6b 943f
00000070: 19af 873f 70da 8b3e a334 8d3e eb5d e2be
00000080: 9f9c 1cc0 c5bb 84be 9fb9 bbbf 50da 9a3f
00000090: 290e 4abf 2618 24c0 7b08 ce3e 51ea fa3d
000000a0: 86c4 8b40 9e2a 9c3e d7d0 cfbe ccc3 80bf
000000b0: a339 b7be ba4f 863e b780 413f dfff c23e
000000c0: 06e7 793f b062 9a3f 5024 e43f d292 0a40
000000d0: 53a9 92bf faa6 153f f637 acbd 7c43 bbbf
000000e0: 0e36 b33c 9a22 a93f 7e59 213f 6a7b 013f
000000f0: 0b62 533f c6c5 5e3f 829c 6dbd acc4 4340
00000100: 11ae 863e 7bda 2abe c6c5 0fbf bc49 dabe
00000110: 05b4 a53f ea62 bf3f c21d 7a3c 1b27 a3bf
00000120: 8d74 aa3f b875 5c3d 66e6 77bd da1a c53f
00000130: d323 0c40 0c70 863f 32ab da3e 1e61 7cbf
00000140: d0d6 fe3e 16f8 8a3f 64af eebf 0e45 5240
00000150: 101d 8f3f 3bcb eebf a006 f0be facb ad3f
00000160: 5438 8240 ad3f a63f deb9 90bd 6032 30bf
00000170: 39eb 08c0 e3cd 44be 41b7 f33e f6a5 8f3f
00000180: 17b2 963e 2248 b43f 27dd 43bb d999 2740
00000190: 1705 6a3f e5fc 9c3f 6351 3d3f f97d 34bf
000001a0: 2e76 41be c09a 4f3e 26bc 493e dafe 2640
000001b0: abac e7bf cd4a bcbe 33aa 043f ddad ec3f
000001c0: 0e26 cebe be0b 213f 5ad9 6b3f 66d0 993d
000001d0: 3b1f e53e 0152 54bf 283d 573f 1f46 cf3e
000001e0: 10a9 1cbc da78 4e3f 6d13 febe d5c3 003d
000001f0: 83b2 92be d7fa 453f a4d0 9e3e 54b6 873f
00000200: fb14 3a40 55f6 533f 25e1 9d3e 1278 ab3f
00000210: 6c4e 643f 00bd 12bf ac8a 313f 7dc7 0540
00000220: ab99 4c3f 96e8 dcbc 0cce 863f cc0e f33e
00000230: 86b4 aa3f 209e 573e 4fe5 953d b99c e23e
00000240: ccd4 6d3f e0f3 4f3f c831 22be 4c49 913f
00000250: c57e 943c 3801 813f 0366 bb3f 369d 0b40
00000260: c981 7f3f 1f32 853d bed1 9a3e cdf4 0640
00000270: e477 f6bf ecbc ac3e 93b2 6d3e ba2d 633f
00000280: 2d86 fabe 4170 7a3f cdc8 0040 32d4 313f
00000290: 1a7d 843e 3280 05bf c197 ebbd 28e7 1f40
000002a0: 9f85 fb3e ed09 afbe 6410 953d 6147 ed3e
000002b0: 9d39 ebbe 90b6 b73e 1696 fe3e 0691 d73f
000002c0: 6d09 0840 166f 483f 1d94 7a3f 3b2a 88bf
000002d0: c274 96be 6dc5 a43d 95ea 623e dfd8 ca3f
000002e0: 0b5d cabe 1eae 60bf b778 0140 0798 1b3f
000002f0: 76ee ee3f 9b31 19be 1b5c 563f 7a0d 5c3f
00000300: 1a5b 9ebe 6b68 1bbd 9b24 093f c0b6 10be
00000310: 81ed 123e 93d0 023f 8d5d 853f 2688 4340
00000320: 4c90 ae3f 4207 0fbd 1382 11bf 2b6d 0b3f
00000330: 0abc 82bf 9481 973e 9f43 283f deb7 5f3f
00000340: c15b f13e 0f08 8f3f 1c8d b33f 9f0f 3b3f
00000350: 48b2 efbd 6ed9 cb3e 9b6e eabd 2d44 d33f
00000360: 7a00 873f 895d c8be adb0 ce3e 4f07 bd3f
00000370: 79fa 523e cb2b 1c3e 5a7f 693f 80a3 d8bd
00000380: 80c5 523f 008a 7a3f 56e2 88be aded e5be
00000390: 8bf2 a1bc ac4d 4b3d 4aed 8e3e 4687 1bbe
000003a0: 0b1e 02be 40f0 8cbe 08a6 d73f 8122 873f
000003b0: a1ce 993e 966c c73e b8b4 c23f a3c4 0140
000003c0: 6596 cfbe 01a8 f0bd 3c19 ac3e 591e 91bc
000003d0: af89 b4be 8dc5 f23d a6de 6d3e 0ef9 b13f
000003e0: 7802 043f 9a94 9dbc ec9d a83d 4aeb e0bd
000003f0: a7cf 353e 2e7f 383d 0fb0 113f 4a2d e63e

representation.radial_transform.weights.2 f4 [6, 12, 4]
-1.7409947 -1.2569765 0.5284241 1.1697707 0.9783184 0.40458602 -0.2919329 0.8861671
-0.4022209 0.5776677 1.1172098 0.94179106 4.9489555 1.9869219 -0.43164164 0.5863394
3.95773 2.1497507 0.47093937 0.93660223 -0.9220923 0.5769547 0.07898033 0.98181546
-1.6971971 0.27920341 0.30229515 0.46379665 1.5393506 0.08643033 1.4263436 0.62142515
2.0255353 0.8091095 0.28585994 0.003792649 3.5082414 -0.2437118 -0.6058711 1.0670179
3.3695178 1.312414 -0.01158832 1.0405123 -0.336483 1.5206523 0.35792026 -0.3616824
-0.22252004 -1.082124 0.97432494 3.0603917 -0.5584604 1.2829112 0.39875254 1.8935723
-0.72132885 1.1692463 1.4648485 3.0720541 0.74052715 -1.2283196 -0.25305274 1.3078179
0.851532 2.476523 0.67744255 2.2257154 1.2329129 0.68254745 -1.0503708 0.38734353
2.118275 0.2158421 1.5757934 -0.3506544 1.8143758 -0.51224977 0.086060666 1.3115065
2.8001173 2.0985327 0.21543755 1.4808215 -0.46514225 0.54642725 -1.0601305 0.93886214
0.37091467 0.17107391 0.08573753 0.92671096 1.1501064 0.49978217 0.0010428479 -0.46966296
1.5274262 0.51324445 0.85184175 2.1385796 0.22758858 -0.49544203 1.2239267 -0.068429984
1.6292439 0.6154532 -0.040661506 3.3668036 0.34932563 0.24331433 1.1320026 0.79094625
0.7732813 1.5557531 0.7984334 0.32870045 0.30318844 0.11755382 0.6773455 -2.456495
-0.24721713 0.16408342 1.2643753 -1.445812 0.11721786 1.0175575 -1.4034867 0.77332413
-0.85438454 1.5293077 0.82571036 2.388893 -0.17425172 1.4541861 0.33795702 -0.33674508
0.38749853 -0.5910155 0.4077699 -0.094395004 0.27491996 -0.8683911 0.9095027 0.67429906
-0.25041848 1.1353496 0.55842805 -0.05787589 0.64642555 -1.0001831 2.2185147 -0.945933
0.7826101 0.5314165 -0.44405672 0.22351286 0.5972629 0.43896508 1.5212548 -0.051690754
-0.20799589 0.45476425 0.14849205 -2.5922742 -0.48451477 0.91686994 0.015140596 -1.4300647
-0.9328495 0.34326744 -0.010728799 -0.83680034 -0.2125225 1.0196143 -0.11512234 1.24258
-0.80565035 1.2445673 1.4145508 1.9537597 -0.6610765 1.5317669 1.3019252 0.08160982
1.3662416 0.43854406 0.30091706 0.87745917 0.6582733 -0.075708896 1.4547092 -0.04307608
-0.3918143 1.1280198 -0.47044554 -0.60729223 -0.07522843 -0.064453 1.8008947 -0.3514317
-0.30657238 0.27016705 0.7865608 -1.3159345 -0.25533915 -0.05013231 0.87937605 0.021541614
0.16130053 -0.000907661 -0.19711177 -1.9781088 -0.23036174 1.4387667 -0.069254175 1.3368266
0.29885828 -0.4592338 -0.5465057 0.651114 -0.06857804 0.020099526 0.9092741 2.0810244
0.2666227 0.8076099 1.6728832 0.3134621 0.34484896 1.0043749 0.301268 0.48147416
0.21034163 -0.04562794 0.7537487 0.6817874 1.2068951 0.67685 0.8122708 0.0040974445
-0.09630222 0.42822817 -0.3634695 -0.13712409 0.4002045 0.4695714 0.64746284 0.03887708
-0.48559633 0.22288069 0.5743652 -0.608488 0.21292186 -0.36299488 0.21770881 0.6220348
00000000: ead8 debf 9be4 a0bf cd46 073f 0cbb 953f
00000010: 1373 7a3f e625 cf3e 3b78 95be d9db 623f
00000020: e6ef cdbe 08e2 133f bb00 8f3f 3819 713f
00000030: d85d 9e40 7553 fe3f 2200 ddbe 571a 163f
00000040: 734b 7d40 8495 0940 f71e f13e 2ac5 6f3f
00000050: 3e0e 6cbf 4eb3 133f 70c0 a13d 4258 7b3f
00000060: c13d d9bf c0f3 8e3e 6ec6 9a3e c176 ed3e
00000070: 7109 c53f 6302 b13d 6d92 b63f b815 1f3f
00000080: 5fa2 0140 cd21 4f3f 3c5c 923e 178e 783b
00000090: 0787 6040 968f 79be 5e1a 1bbf 0b94 883f
000000a0: 2ea6 5740 2ffd a73f f0dc 3dbc 822f 853f
000000b0: 8047 acbe bca4 c23f 5341 b73e 6f2e b9be
000000c0: 4bdc 63be 0a83 8abf 5c6d 793f 75dd 4340
000000d0: 43f7 0ebf 6f36 a43f 4b29 cc3e 9460 f23f
000000e0: 02a9 38bf dda9 953f 2880 bb3f 899c 4440
000000f0: 3093 3d3f 9439 9dbf 2190 81be 9466 a73f
00000100: 00fe 593f 5a7f 1e40 e06c 2d3f 1f72 0e40
00000110: 17d0 9d3f 6ebb 2e3f 8d72 86bf e451 c63e
00000120: d191 0740 b605 5d3e 99b3 c93f f988 b3be
00000130: 773d e83f cd22 03bf 9340 b03d 72df a73f
00000140: 1f35 3340 5c4e 0640 a99b 5c3e 8f8b bd3f
00000150: 2027 eebe a8e2 0b3f 5bb2 87bf 4559 703f
00000160: 87e8 bd3e 002e 2f3e 2897 af3d ee3c 6d3f
00000170: b036 933f 73e3 ff3e 2bb0 883a aa77 f0be
00000180: b482 c33f fd63 033f 4d12 5a3f 7dde 0840
00000190: fb0c 693e 94aa fdbe a1a9 9c3f 0525 8cbd
000001a0: 108b d03f 578e 1d3f ae8c 26bd b679 5740
000001b0: cfda b23e 6427 793e 76e5 903f 747b 4a3f
000001c0: c3f5 453f eb22 c73f 2266 4c3f 6d4b a83e
000001d0: 843b 9b3e 0fc0 f03d 8466 2d3f 3737 1dc0
000001e0: 7d26 7dbe 7c05 283e 0dd7 a13f 5e10 b9bf
000001f0: eb0f f03d 533f 823f 74a5 b3bf 92f8 453f
00000200: f2b8 5abf 5bc0 c33f c161 533f 9fe3 1840
00000210: 0b6f 32be c522 ba3f b408 ad3e da69 acbe
00000220: 3566 c63e cb4c 17bf 37c7 d03e 2b52 c1bd
00000230: 4fc2 8c3e e14e 5ebf 2bd5 683f dd9e 2c3f
00000240: da36 80be 2353 913f 24f5 0e3f 450f 6dbd
00000250: 257c 253f 0006 80bf 25fc 0d40 aa28 72bf
00000260: 2359 483f e90a 083f 675b e3be 8ee0 643e
00000270: 39e6 183f 08c0 e03e 7ab8 c23f afb9 53bd
00000280: e0fc 54be dcd6 e83e 4d0e 183e d2e7 25c0
00000290: 5212 f8be fdb7 6a3f 4310 783c 5c0c b7bf
000002a0: 3acf 6ebf c0c0 af3e d8c7 2fbc 8c38 56bf
000002b0: 809f 59be b982 823f 43c5 ebbd dd0c 9f3f
000002c0: 1a3f 4ebf fb4d 9f3f 0010 b53f cc14 fa3f
000002d0: 4f3c 29bf f010 c43f 7ca5 a63f 0d23 a73d
000002e0: 01e1 ae3f d988 e03e cd11 9a3e 2aa1 603f
000002f0: 9984 283f 440d 9bbd e933 ba3f 8b70 30bd
00000300: e29b c8be f462 903f 3dde f0be 8177 1bbf
00000310: 5d11 9abd efff 83bd b883 e63f dbee b3be
00000320: 0ef7 9cbe 5653 8a3e 0c5c 493f 8b70 a8bf
00000330: d0bb 82be 8957 4dbd ca1e 613f 0a78 b03c
00000340: f72b 253e 19f0 6dba abd7 49be ab32 fdbf
00000350: f3e3 6bbe 8229 b83f 22d5 8dbd 221d ab3f
00000360: f403 993e b120 ebbe cce7 0bbf 68af 263f
00000370: a572 8cbd c3a7 a43c 30c6 683f 812f 0540
00000380: c582 883e 86bf 4e3f 0921 d63f 1b7e a03e
00000390: 0b90 b03e 5b8f 803f cd3f 9a3e c883 f63e
000003a0: cc63 573e 5de4 3abd adf5 403f 9e89 2e3f
000003b0: 8a7b 9a3f 0b46 2d3f fbf0 4f3f db43 863b
000003c0: 193a c5bd b940 db3e ad18 babe 426a 0cbe
000003d0: 9be7 cc3e aa6b f03e 20c0 253f 933d 1f3d
000003e0: 15a0 f8be d63a 643e 9909 133f dfc5 1bbf
000003f0: 3008 5a3e 77da b9be 0fef 5e3e ac3d 1f3f

output_modules.0.outnet.0.linear.weight f4 [32, 144]
0.8940448 -0.03962478 -0.30362308 0.32812193 -1.265905 -0.014854306 0.19373319 -2.7695606
-0.75228304 -0.64573944 -1.7936486 -2.100777 0.41047862 0.14977495 0.051826485 0.04355283
-0.93889964 -1.2435858 -0.78131485 -0.3690363 -0.37250388 -0.25260252 -0.14563468 -1.5134002
1.2887235 0.21101086 0.14284 0.0068295095 0.15050974 -1.442822 -0.12772153 -2.5996585
-1.3820528 0.6509024 -0.48589808 -1.3120874 -0.15072306 0.3882866 -0.8167465 -0.020620234
-1.0374094 0.537905 0.5327163 -3.4990978 -1.120256 0.7428514 -0.035790604 -0.53844184
1.1474932 -4.378343 0.018152477 0.08007985 0.039358757 -1.2931964 0.7185719 1.2174212
-0.90150744 0.53147256 -1.6101826 -5.8015227 1.2769823 0.6927591 0.35224414 -0.6703048
-0.9965199 -0.038708016 -0.87790924 0.9083483 -1.5227187 -1.9561821 -0.0751311 -3.675499
2.6550305 -0.17367937 -0.5166379 0.06261513 1.8196893 -0.32978266 -1.0344616 0.5553839
-1.0205612 -1.5761727 -1.4650954 -1.5683885 -0.6836958 0.5383781 -0.088293426 1.7645011
1.263412 -1.1786853 1.4711472 -0.26760128 -1.2715186 -0.97816396 -1.0405514 -1.1776835
-0.07462254 -0.5521047 -0.81312484 -0.45736295 -1.9809189 -1.9927182 -1.0969611 -3.284611
-0.7912483 0.8100064 0.67684335 -1.0795832 -0.23537421 0.6612561 -1.3133694 -0.087882124
0.22544958 -2.638603 0.09607085 -1.50952 -0.17416935 -1.116853 -0.4931518 -0.24975802
-0.2693302 -1.6437639 -0.12432552 -0.8860203 -0.035553455 -0.050095856 0.2688244 -1.2770071
-0.8414063 -0.103298664 0.480838 -1.2171909 -0.0500336 -0.3796444 -0.015631849 -0.7938285
-1.6256058 -2.4292445 -0.67237884 -5.8018956 1.1272594 0.5047095 -1.7977234 -1.191679
0.24397935 0.17056677 0.0578783 -0.728317 -0.673814 0.56611264 0.9558036 -0.09167353
-0.93303823 -0.6495868 -0.912742 -0.14510114 -0.055102386 0.32859057 -0.14652155 -1.2017707
-0.62618583 -0.37919083 -2.1709998 -0.2799323 -0.5577183 -0.8944654 -1.0585907 0.6608371
0.89988184 -0.29708585 0.03735277 -0.863587 -0.1558125 0.80594957 -0.44024947 -1.458956
-1.0429317 0.36865026 0.2152674 -1.877366 -0.12309104 0.6754465 -1.0080714 -0.04802109
-1.2891272 -1.012625 -0.9846436 -0.8986594 0.34469885 0.5390061 -0.26781985 -1.0946598
0.9172047 3.1673207 0.023268107 -1.1737355 -0.24603863 -1.6013781 -1.1175529 0.7407703
-0.17825463 0.87720996 -0.6968613 -2.1241744 0.96090776 -0.35201097 -0.038654238 -0.69681025
-0.55732983 0.8313967 0.042655744 0.1829411 -0.69924355 -2.5910716 0.2930923 -4.1225715
0.75706977 0.4936243 0.56155807 -0.555309 2.3605585 1.9539307 0.14395766 -1.3482604
-1.2864904 -0.44295812 -0.63839656 -0.4838309 -0.34429598 0.77163553 -0.10572308 0.37197766
1.4230553 0.21700454 -1.1158558 -4.391531 -0.5354209 -0.4510376 -0.8812078 -1.2982712
-0.46692142 -0.61944824 -0.42874935 -0.87699634 -2.153326 -0.55363244 -0.3150494 1.0587772
-0.3010272 0.50251853 -0.934996 0.28745472 0.68272483 2.2037709 -0.66415167 -1.3330758
00000000: 1fe0 643f 984d 22bd 7c74 9bbe 99ff a73e
00000010: 2d09 a2bf 7a5f 73bc fe61 463e 7b40 31c0
00000020: 9f95 40bf 2e4f 25bf 4796 e5bf 2173 06c0
00000030: 412a d23e 9b5e 193e 0248 543d 7464 323d
00000040: ba5b 70bf d22d 9fbf 4004 48bf 53f2 bcbe
00000050: d4b8 bebe 1e55 81be 4221 15be 19b7 c1bf
00000060: e4f4 a43f 3b13 583e a644 123e 14ca df3b
00000070: 3a1f 1a3e 64ae b8bf 6fc9 02be ce60 26c0
00000080: 1be7 b0bf 8aa1 263f a2c7 f8be 7bf2 a7bf
00000090: 2557 1abe 80cd c63e 4c16 51bf c4eb a8bc
000000a0: d5c9 84bf 24b4 093f 1860 083f 38f1 5fc0
000000b0: 8c64 8fbf 822b 3e3f 2b99 12bd 53d7 09bf
000000c0: 0fe1 923f 631b 8cc0 81b4 943c e800 a43d
000000d0: a636 213d 7687 a5bf 54f4 373f 75d4 9b3f
000000e0: 31c9 66bf 960e 083f 771a cebf 13a6 b9c0
000000f0: 2874 a33f a958 313f 5859 b43e 1899 2bbf
00000100: ee1b 7fbf 4c8c 1ebd a9be 60bf 8489 683f
00000110: 72e8 c2bf 2d64 fabf 56de 99bd 603b 6bc0
00000120: 05ec 2940 01d9 31be 6242 04bf 5c3c 803d
00000130: 94eb e83f 46d9 a8be 3d69 84bf a42d 0e3f
00000140: c0a1 82bf 07c0 c9bf 3f88 bbbf f4c0 c8bf
00000150: b006 2fbf 26d3 093f 2fd3 b4bd 2cdb e13f
00000160: 7cb7 a13f 29df 96bf 8d4e bc3f 0903 89be
00000170: 1fc1 a2bf f468 7abf ca30 85bf 55be 96bf
00000180: b4d3 98bd bc56 0dbf f328 50bf 7a2b eabe
00000190: c08e fdbf 6411 ffbf 3969 8cbf 1137 52c0
000001a0: 408f 4abf 945c 4f3f 9b45 2d3f c82f 8abf
000001b0: f005 71be 1448 293f 7d1c a8bf 8bfb b3bd
000001c0: 41dc 663e dfde 28c0 cbc0 c43d f437 c1bf
000001d0: 7359 32be 0af5 8ebf 657e fcbe 91c0 7fbe
000001e0: a6e5 89be db66 d2bf 619e febd 3ad2 62bf
000001f0: 80a0 11bd 5031 4dbd 5aa3 893e f874 a3bf
00000200: 6766 57bf 408e d3bd 6630 f63e e9cc 9bbf
00000210: 08f0 4cbd c060 c2be 5d0e 80bc 5838 4bbf
00000220: da13 d0bf be78 1bc0 0521 2cbf 21a9 b9c0
00000230: 094a 903f a434 013f cd1b e6bf f088 98bf
00000240: b9d5 793e 0ea9 2e3e cc11 6d3d fc72 3abf
00000250: 137f 2cbf c2ec 103f 8baf 743f 55bf bbbd
00000260: 98db 6ebf 524b 26bf 76a9 69bf 6595 14be
00000270: 0ab3 61bd 063d a83e bf09 16be 9fd3 99bf
00000280: b74d 20bf 4d25 c2be a9f1 0ac0 4953 8fbe
00000290: a0c6 0ebf affb 64bf e67f 87bf 9f2c 293f
000002a0: a85e 663f a31b 98be 38ff 183d 0a14 5dbf
000002b0: 508d 1fbe b652 4e3f 6168 e1be 12bf babf
000002c0: c97e 85bf babf bc3e 0f6f 5c3e 874d f0bf
000002d0: 2817 fcbd 10ea 2c3f 7c08 81bf c3b1 44bd
000002e0: 1f02 a5bf b29d 81bf 9a11 7cbf 8b0e 66bf
000002f0: 5e7c b03e 4efc 093f af1f 89be d01d 8cbf
00000300: edcd 6a3f 62b5 4a40 c29c be3c f73c 96bf
00000310: 8df1 7bbe f5f9 ccbf f90b 8fbf 1fa3 3d3f
00000320: 6288 36be d590 603f 8165 32bf 79f2 07c0
00000330: 0dfe 753f c83a b4be e853 1ebd 2862 32bf
00000340: 2bad 0ebf 6ad6 543f cab7 2e3d e954 3b3e
00000350: a001 33bf 1ed4 25c0 3210 963e 1bec 83c0
00000360: 53cf 413f 53bc fc3e 45c2 0f3f bb28 0ebf
00000370: 6413 1740 671a fa3f a369 133e cc93 acbf
00000380: b8ab a4bf 68cb e2be f56d 23bf afb8 f7be
00000390: 9047 b0be e889 453f 5885 d8bd db73 be3e
000003a0: ad26 b63f 7036 5e3e 5dd4 8ebf 6c87 8cc0
000003b0: 5811 09bf 66ee e6be d696 61bf c02d a6bf
000003c0: 5310 efbe 2994 1ebf 0985 dbbe d582 60bf
000003d0: 18d0 09c0 dbba 0dbf 284e a1be 0386 873f
000003e0: 3d20 9abe 0ea5 003f e65b 6fbf 442d 933e
000003f0: 0ec7 2e3f 950a 0d40 d805 2abf 3aa2 aabf

output_modules.0.outnet.0.linear.bias f4 [32]
-0.61418676 -0.41298333 0.78747576 -0.36946198 -0.8657201 -0.10533859 -2.1790524 -0.85589314
-0.29336 -1.1663139 -0.70439494 -0.19452584 -0.008553217 -0.9168387 -0.6733346 -0.9869656
-0.9107766 -0.13371849 -0.44032595 -1.373584 -1.5726088 -0.26124904 -1.4121644 -0.57680607
0.028993445 -0.8244231 -1.0123285 -1.1417017 -0.73222184 0.21789798 0.18534085 -1.1490532
00000000: 583b 1dbf 8d72 d3be 0398 493f 1f2a bdbe
00000010: d59f 5dbf c2bb d7bd 9875 0bc0 d01b 5bbf
00000020: 4833 96be c649 95bf 3a53 34bf c831 47be
00000030: cb22 0cbc f1b5 6abf a85f 2cbf c7a9 7cbf
00000040: a828 69bf 80ed 08be 6772 e1be 9ad1 afbf
00000050: 3f4b c9bf 6fc2 85be cec1 b4bf 90a9 13bf
00000060: a983 ed3c 640d 53bf fb93 81bf 4823 92bf
00000070: e472 3bbf a620 5f3e fec9 3d3e 2d14 93bf

output_modules.0.outnet.1.linear.weight f4 [16, 32]
0.036162067 0.06400613 -0.014086894 0.02119919 -0.029120246 -0.010934766 -0.031094745 0.013202327
-0.0055596177 0.04879128 -0.04241794 0.031185627 -0.023925368 0.061941534 -0.025970114 -0.08135624
0.0022754013 0.29469073 -0.14496724 0.0025024733 -0.0020040637 -0.032346267 -0.037426148 0.04179913
0.00056208833 0.07365159 -0.12253293 0.008788034 0.03830855 0.011144945 -0.012865345 0.013467568
-0.7395052 -0.41451386 0.062401347 0.12051039 0.7115143 -0.57228994 0.66788167 -0.41845438
-0.2714009 -0.60366845 -0.43549493 -0.15347932 -0.7361069 0.5082497 -0.2599704 0.98632705
-0.0820013 0.80017656 -1.5305102 0.12975581 0.39199528 -0.10254951 0.003926364 0.44075006
0.42742923 -0.006320787 -0.68412995 0.52994245 0.59032834 0.42941418 0.84900624 -0.1541642
-0.04538482 -0.041756857 -0.038056478 0.02865664 0.01995815 -0.0019223628 0.011128973 -0.03432328
-0.013308966 0.06160839 -0.035516333 -0.002488025 -0.010742252 -0.08320019 -0.0008529185 -0.03552234
0.025371533 0.061039813 0.005761979 -0.023951005 0.012213122 0.013232589 0.050406907 -0.01797486
-0.0053431476 0.15855846 0.05946269 0.05271387 0.028695706 0.05296736 0.021596294 0.016571661
-0.559387 -0.4075146 -0.2392197 0.38209456 0.73210543 -0.063420765 -0.90084165 -0.7718261
-1.0185748 -0.009082118 -0.22918086 0.1476253 -0.5453578 0.55284256 -0.18019575 0.5253724
-0.32618478 -0.8895591 -0.20346406 0.3168323 0.24898265 0.8164067 0.2156948 0.7469906
-0.15608586 -0.06602855 0.0010380888 0.3426497 -1.0200527 -0.35528103 -0.31503582 0.12278444
-0.061889827 -0.12878199 -0.008655808 -0.007936089 0.0010184273 -0.013172065 -0.011840398 0.020355318
-0.013983306 0.17406489 0.035314076 -0.004697176 -0.035691902 -0.01808894 -0.029228626 0.004973516
0.0042152777 0.17578907 -0.0024499143 0.024152031 -0.009485284 -0.012060548 0.050420716 0.018307153
0.020436158 -0.0062814355 0.0758315 0.016315117 -0.050700206 -0.0061968174 -0.008158799 -0.016468005
0.341257 0.9974726 0.55920523 -0.47977155 1.1636912 1.1858017 0.1953745 -0.7510056
0.61837316 0.7879984 0.6922394 0.26618227 0.23766704 0.8943921 0.39728048 -0.6931192
0.47921768 -0.22637725 0.8928099 -0.75866365 -0.94763815 -0.3603664 -0.31655675 0.16862182
-0.1921894 1.0397387 0.90308315 2.3067741 0.85569406 -0.07729435 -0.7259657 0.20692746
-0.58060855 -0.38987386 -0.31464285 0.743774 0.16678542 0.2451187 0.41839427 -0.30910245
-0.3459214 -0.27383175 -0.29660866 0.31778005 0.2337434 1.0523666 0.07884723 0.47587496
-0.17568116 0.66211987 -1.1003592 -0.0024975403 0.3443716 -0.54030126 -0.013674633 -0.47128704
-1.1022799 1.1411387 -0.3246193 0.032208987 0.4069398 -0.04215447 0.32814568 -0.42370304
-0.0902074 0.05334083 0.0021286933 0.03559368 -0.020280978 0.050563987 0.04766867 -0.011516259
-0.013457423 -0.18358415 0.14666441 -0.052883536 0.08263516 -0.09725182 0.11331023 -0.2025853
0.06285893 -0.17431709 0.042588882 0.09028003 0.009315118 0.02457454 0.016151065 -0.046527743
-0.016817793 0.08528432 0.19069679 0.011797002 -0.055164896 0.04669827 0.035018858 0.0075637246
00000000: ad1e 143d a515 833d b7cc 66bc eca9 ad3c
00000010: 958d eebc bc27 33bc 68ba febc 934e 583c
00000020: 742d b6bb 5dd9 473d 6fbe 2dbd 0079 ff3c
00000030: 22ff c3bc 68b6 7d3d 47bf d4bc 1a9e a6bd
00000040: e61e 153b b4e1 963e 4b72 14be 8900 243b
00000050: 9c56 03bb 857d 04bd 294c 19bd 9135 2b3d
00000060: 1c59 133a a5d6 963d 8bf2 fabd b0fb 0f3c
00000070: 6de9 1c3d 4a99 363c 2bc9 52bc 13a7 5c3c
00000080: 3650 3dbf 293b d4be 8e98 7f3d 27ce f63d
00000090: cd25 363f 9881 12bf 4bfa 2a3f a73f d6be
000000a0: 0ff5 8abe 048a 1abf 31f9 debe af29 1dbe
000000b0: 8071 3cbf a71c 023f d71a 85be ee7f 7c3f
000000c0: 4cf0 a7bd 5fd8 4c3f c2e7 c3bf b5de 043e
000000d0: 9bb3 c83e 7a05 d2bd baa8 803b fea9 e13e
000000e0: 01d8 da3e 9b1e cfbb 2423 2fbf 4faa 073f
000000f0: c21f 173f 2ddc db3e 7958 593f 38dd 1dbe
00000100: 6fe5 39bd 3d09 2bbd 1ce1 1bbd 54c1 ea3c
00000110: 467f a33c cbf7 fbba 4c56 363c 9196 0cbd
00000120: d90d 5abc 1459 7c3d 9379 11bd 220e 23bb
00000130: 4500 30bc dc64 aabd 6496 5fba e07f 11bd
00000140: f6d7 cf3c e204 7a3d fcce bc3b e634 c4bc
00000150: 8c19 483c 80cd 583c 7977 4e3d 0340 93bc
00000160: 9215 afbb 265d 223e 268f 733d 80ea 573d
00000170: 4213 eb3c 4df4 583d b6ea b03c 4bc1 873c
00000180: fd33 0fbf c1a5 d0be 02f6 74be e6a1 c33e
00000190: 436b 3b3f bfe2 81bd 8f9d 66bf 6596 45bf
000001a0: a960 82bf 2acd 14bc 63ae 6abe 162b 173e
000001b0: 929c 0bbf 1787 0d3f 3c85 38be ce7e 063f
000001c0: b101 a7be 25ba 63bf e258 50be d837 a23e
000001d0: 4ff5 7e3e 0800 513f 19df 5c3e c73a 3f3f
000001e0: f9d4 1fbe fa39 87bd 7b10 883a c86f af3e
000001f0: 1691 82bf 65e7 b5be 604c a1be 6976 fb3d
00000200: 3080 7dbd 6ddf 03be 17d1 0dbc 5f06 02bc
00000210: c07c 853a a5cf 57bc 3bfe 41bc 32c0 a63c
00000220: 3c1a 65bc 113e 323e 7ea5 103d c5ea 99bb
00000230: ac31 12bd 422f 94bc df70 efbc e0f8 a23b
00000240: 5020 8a3b 0d02 343e be8e 20bb 7bda c53c
00000250: 2a68 1bbc 9b99 45bc f485 4e3d e2f8 953c
00000260: bb69 a73c 80d4 cdbb 8c4d 9b3d 48a7 853c
00000270: 05ab 4fbd ac0e cbbb 7cac 05bc e9e7 86bc
00000280: 3db9 ae3e 5d5a 7f3f 1328 0f3f 9ea4 f5be
00000290: d5f3 943f 5ac8 973f 4110 483e e741 40bf
000002a0: b44d 1e3f 43ba 493f 9a36 313f 0b49 883e
000002b0: fd5e 733e e1f6 643f 5968 cb3e 4370 31bf
000002c0: 055c f53e 70cf 67be 318f 643f c837 42bf
000002d0: 6a98 72bf f281 b8be ba13 a2be 33ab 2c3e
000002e0: 4ccd 44be 2816 853f 7530 673f 30a2 1340
000002f0: c40e 5b3f 804c 9ebd e3d8 39bf cbe4 533e
00000300: c3a2 14bf 8c9d c7be de18 a1be f967 3e3f
00000310: ccc9 2a3e 6600 7b3e c637 d63e ad42 9ebe
00000320: 9c1c b1be ad33 8cbe 17dd 97be 11b4 a23e
00000330: 6e5a 6f3e f3b3 863f a87a a13d e2a5 f33e
00000340: c3e5 33be b080 293f 92d8 8cbf c6ad 23bb
00000350: 7951 b03e 2f51 0abf 910b 60bc 894c f1be
00000360: 8217 8dbf d510 923f 8034 a6be 92ed 033d
00000370: 6a5a d03e 2aaa 2cbd b602 a83e 9bef d8be
00000380: a8be b8bd ea7b 5a3d 8c81 0b3b aeca 113d
00000390: 4b24 a6bc 2f1c 4f3d 3940 433d b1ae 3cbc
000003a0: 867c 5cbc 7cfd 3bbe 322f 163e 689c 58bd
000003b0: 9f3c a93d f62b c7bd 320f e83d 8572 4fbe
000003c0: 2fbc 803d 2e80 32be ae71 2e3d bde4 b83d
000003d0: 709e 183c 8c50 c93c 3d4f 843c e093 3ebd
000003e0: 78c5 89bc 8ca9 ae3d 0546 433e 3648 413c
000003f0: 96f4 61bd af46 3f3d ef6f 0f3d 1fd9 f73b

output_modules.0.outnet.1.linear.bias f4 [16]
-0.020186435 -0.37950668 0.018468808 -0.41102234 -0.023637194 0.18687153 -0.16209137 0.054577183
-0.002989541 -0.007187394 -0.02158155 -0.40462437 -0.44455257 0.009694487 0.03326635 0.05017765
00000000: 065e a5bc b34e c2be e64b 973c 8571 d2be
00000010: caa2 c1bc 405b 3f3e 48fb 25be 538c 5f3d
00000020: 2dec 43bb 3b84 ebbb cacb b0bc ed2a cfbe
00000030: 659c e3be a0d5 1e3c 4c42 083d 1487 4d3d

output_modules.0.outnet.2.linear.weight f4 [1, 16]
0.00020914455 0.2543929 -0.00068882195 0.17077626 3.06507e-05 -0.23461755 0.10020092 8.1461556e-05
-0.00015783816 -0.00050462293 4.3847056e-05 0.14413533 0.29471844 0.00037568813 -0.0001746361 0.0005641995
00000000: d04d 5b39 c93f 823e 0f92 34ba f9df 2e3e
00000010: f08e 0038 953f 70be 2436 cd3d 57d6 aa38
00000020: 5c81 25b9 ac48 04ba 6be8 3738 3698 133e
00000030: 56e5 963e 02f8 c439 851e 37b9 cae6 133a

output_modules.0.linear_nn.linear.weight f4 [1, 144]
-0.020807179 0.0045049046 -0.0017022793 0.00841894 0.13966845 0.19247541 0.10498548 0.33501464
-0.25920033 0.31173474 -0.023057569 0.2745934 0.0051750555 0.00807962 0.016312482 -0.00035273307
0.11816073 0.15866858 0.42797962 -0.046574883 -0.051314924 0.08787827 0.7321953 -0.12718494
0.20320575 0.0018632341 0.0014026294 -0.01042145 0.56213224 0.12384002 -0.102464736 0.16058607
0.1421708 0.19563034 -0.21323678 0.4252606 -0.0914185 0.011059686 0.0021782918 -0.0034129324
-0.14889944 -0.09913433 0.11573019 0.24267644 0.067950666 -0.07633358 0.74595547 0.025144454
0.39083144 0.0016500634 0.00093815394 0.008649038 0.09424216 -0.048065778 1.0884228 -0.23784347
0.0046612527 0.5850759 -0.030969314 0.008815098 0.3924819 0.020129588 -0.0013132425 -0.010307164
0.22130802 -0.21194875 0.085902646 -0.0833339 0.0013585427 0.08305518 -0.24716783 0.020489877
0.072270475 0.0040770755 0.010234734 -0.013754808 0.16799557 -0.09507225 0.18482786 -0.051038958
0.093426965 0.018972505 -0.3614482 0.102920845 0.084257655 -0.07858487 -0.0017510096 0.22850488
-0.04422742 0.22144589 0.18340695 -0.02249175 0.04024495 -0.024600452 0.43115684 0.30360073
0.097017124 -0.37138328 0.047120176 -0.0015359496 -0.21712863 0.28060997 -0.12530866 -0.24961065
0.100984775 0.32668522 0.4126294 0.26865438 -0.081237085 -0.0866129 -0.099541016 -0.008202655
-0.03520756 0.34406745 -0.113281764 0.055333458 0.17852426 0.15954922 0.025434965 -0.05308716
-0.003978279 -0.32863465 -0.0012036288 -0.13865997 0.13853583 -0.08858506 0.9199267 0.0035544548
0.24361251 0.015095193 0.19134691 -0.20610626 0.00056507665 -0.23224972 -0.0020353307 -0.01824339
-0.037932433 -0.0644316 0.25365692 0.3911607 0.14228536 -0.24448691 0.28473458 -0.013580102
00000000: d173 aabc e19d 933b 041f dfba 98ef 093c
00000010: 3f05 0f3e 4618 453e a102 d73d 0a87 ab3e
00000020: e8b5 84be b29b 9f3e 3ae3 bcbc 8297 8c3e
00000030: 8393 a93b 6260 043c c1a1 853c 08ef b8b9
00000040: 41fe f13d 047a 223e 2520 db3e 4ec5 3ebd
00000050: 992f 52bd 86f9 b33d 2771 3b3f c53c 02be
00000060: 2b15 503e c337 f43a 6fd8 b73a bbbe 2abc
00000070: e6e7 0f3f d69f fd3d 08d9 d1bd ad70 243e
00000080: 3995 113e 5253 483e be5a 5abe c2bb d93e
00000090: 9f39 bbbd af33 353c acc1 0e3b 81ab 5fbb
000000a0: 1879 18be f106 cbbd f303 ed3d 2c80 783e
000000b0: b829 8b3d c854 9cbd f0f6 3e3f befb cd3c
000000c0: 0f1b c83e f146 d83a 72ee 753a b2b4 0d3c
000000d0: 0902 c13d 9fe0 44bd 7051 8b3f 3d8d 73be
000000e0: 6cbd 983b 89c7 153f 5cb3 fdbc 336d 103c
000000f0: 63f3 c83e cee6 a43c 1b21 acba 61df 28bc
00000100: 929e 623e 1809 59be baed af3d f7aa aabd
00000110: 2111 b23a d618 aa3d 9019 7dbe 63da a73c
00000120: 8b02 943d fd98 853b 96af 273c d95b 61bc
00000130: 0807 2c3e 3db5 c2bd 8443 3d3e 3a0e 51bd
00000140: a356 bf3d 3a6c 9b3c bd0f b9be 2ac8 d23d
00000150: 478f ac3d 1bf1 a0bd 2282 e5ba 2ffd 693e
00000160: d027 35bd b6c2 623e 08cf 3b3e 9e40 b8bc
00000170: e4d7 243d e386 c9bc 97c0 dc3e 8e71 9b3e
00000180: eab0 c63d f325 bebe 1601 413d eb51 c9ba
00000190: f856 5ebe 1cac 8f3e ea50 00be ef99 7fbe
000001a0: 1bd1 ce3d 4943 a73e 2944 d33e 118d 893e
000001b0: a15f a6bd 1b62 b1bd 29dc cbbd 6e64 06bc
000001c0: cd35 10bd 9c29 b03e 4500 e8bd 56a5 623d
000001d0: 10cf 363e df60 233e fd5c d03c ec71 59bd
000001e0: 395c 82bb cd42 a8be 15c3 9dba e1fc 0dbe
000001f0: 56dc 0d3e 156c b5bd 5180 6b3f dbf1 683b
00000200: 8f75 793e d451 773c 72f0 433e 850d 53be
00000210: a721 143a dfd2 6dbe 2f63 05bb 2973 95bc
00000220: 0a5f 1bbd b7f4 83bd 52df 813e 3746 c83e
00000230: 41b3 113e c75a 7abe bbc8 913e 137f 5ebc

exp_avg f4 [2, 2]
-0.04985677 -0.022310836 -0.025620608 0.0024505751
00000000: 9d36 4cbd 37c5 b6bc 4fe2 d1bc d499 203b

exp_avg_sq f4 [2, 2]
22.293661 4.9445868 11.402016 0.11188807
00000000: 6b59 b241 0e3a 9e40 a86e 3641 9325 e53d

exp_avg f4 [2, 2]
0.025716202 0.0045561586 -0.008431252 -0.011137563
00000000: c9aa d23c d44b 953b 3c23 0abc 537a 36bc

exp_avg_sq f4 [2, 2]
22.7293 0.0418031 2.3577406 2.4369173
00000000: 9bd5 b541 ba39 2b3d 39e5 1640 74f6 1b40

exp_avg f4 [6]
-0.008133143 0.0018378026 0.029481411 -0.028797334 -0.003975092 0.0019138267
00000000: e040 05bc 6ce2 f03a 0083 f13c 63e8 ebbc
00000010: 7d41 82bb 5ed9 fa3a

exp_avg_sq f4 [6]
0.22897606 0.063806996 1.7068051 0.8169427 0.18362562 0.0066326545
00000000: b378 6a3e 3ead 823d 9778 da3f 2823 513f
00000010: 5b08 3c3e bd56 d93b

exp_avg f4 [6, 12, 4]
9.736839e-06 2.8793656e-07 -1.2322145e-05 -8.1704704e-05 -1.518699e-06 -9.811698e-07 0.00022466476 9.5848394e-05
6.982284e-05 2.130875e-06 2.2911086e-05 -5.879614e-05 -1.0792518e-05 5.8598444e-06 -0.00046696427 9.758494e-07
0.00011241854 8.112692e-06 1.6832008e-05 -0.00010265885 0.0001250839 4.6082103e-05 -8.6168366e-05 -8.2235754e-05
1.1487346e-05 -4.7575795e-06 0.00015860017 -2.2633818e-05 2.0022382e-05 1.2088637e-05 -4.4017554e-05 -0.0010186674
1.3615506e-05 0.00053635327 0.00013733709 -8.270296e-05 2.8978482e-06 9.419921e-05 0.00013216697 0.00019716492
3.593741e-06 0.00045895146 -5.5817513e-06 0.0010528589 6.014142e-06 0.00037918036 2.3812705e-05 0.00026389846
7.9831574e-05 2.9126975e-06 -3.5369231e-07 7.116502e-05 -5.444199e-06 -1.6391396e-06 2.4181687e-05 -1.5596228e-05
-0.000116818475 7.712905e-06 -1.7614739e-06 4.177209e-05 4.632314e-05 1.353922e-05 -0.000101879916 7.937242e-08
-0.00021199972 4.5673933e-05 2.8108502e-07 9.40833e-05 -0.00014997742 0.00011331682 1.3847722e-05 5.5930363e-05
-0.00010217111 -1.4762543e-05 3.0100615e-05 1.7748147e-05 6.3094136e-05 5.334905e-06 4.061789e-06 0.0007087021
-3.0912535e-05 0.00030614078 -2.3078608e-05 5.332906e-05 -4.497916e-06 -0.00015320633 -0.0001503788 -7.83979e-05
6.3929724e-06 0.00016903039 -2.632893e-06 -0.0006709817 1.1399729e-05 0.0002386401 -1.5158258e-05 -0.0001505249
6.2759336e-06 1.4872656e-07 -3.2453356e-06 -4.9903625e-05 -1.0999237e-05 -5.803257e-06 -4.4173918e-05 -1.492582e-05
0.00214152 5.3254644e-06 7.141158e-06 -2.2833634e-05 -0.0007285431 5.378621e-06 -0.00026444238 -9.0699626e-07
0.0033864547 0.00013474164 6.4430783e-06 -6.644968e-05 0.0034817713 0.0001457109 -3.4334305e-05 -2.5920266e-05
0.00047457905 -1.424948e-05 6.7638815e-05 -9.531894e-06 -6.901337e-05 0.00012758902 -1.4899515e-05 -0.00040771358
5.4326418e-05 0.0014992673 -0.00011273209 -2.6614807e-05 -2.2531776e-05 0.00017180633 0.00028831945 2.2279166e-05
9.17188e-06 0.0013153732 1.0578249e-06 0.00032933216 -5.293714e-06 0.0010530477 8.931326e-06 6.972372e-05
0.00019709086 1.7154917e-06 -1.1436261e-07 -7.922949e-06 6.016947e-06 4.279064e-06 0.00019099044 1.6307496e-06
-0.0027129513 -2.0187997e-06 -8.8575916e-07 -1.2294173e-05 0.0009824198 -6.7027836e-06 0.0002372727 -2.7991697e-07
-0.004409113 -9.229373e-05 -2.38461e-06 -1.6178987e-05 -0.0045044282 -0.00012733146 4.655003e-06 -2.50575e-05
-0.00063396496 7.982871e-06 -7.856917e-05 -7.2320477e-06 9.6775184e-05 -2.4571378e-05 2.5751679e-06 -0.00020180241
-7.4062664e-06 -0.002739664 0.00025685097 -1.3866689e-05 0.00014759648 -0.00042363015 -0.0003521056 3.6357148e-06
-2.5663378e-06 -0.0022573248 2.2753188e-06 0.00030438244 1.7746888e-05 -0.0018698244 5.929577e-06 3.770749e-05
-0.00010232824 -1.1313984e-06 2.401064e-06 6.291959e-05 -9.127336e-06 -9.978642e-07 -0.00017477154 7.892187e-05
0.0012254159 1.0380264e-06 -2.632032e-06 3.8159073e-05 -0.0005001108 1.6050943e-05 -5.52924e-06 1.8059626e-06
0.0021174704 -9.5992174e-05 -1.8823533e-06 0.00010382937 0.0022432257 7.007294e-05 7.472676e-06 6.6408495e-05
0.00014219304 -2.043444e-06 4.9021367e-07 2.0387592e-05 8.861585e-05 -2.5406116e-05 4.3533437e-06 0.0006200499
-0.00010655577 0.0023091787 -0.00023185703 3.685682e-05 -0.00026322194 0.0005879812 0.00020027865 6.5357184e-05
-8.269816e-07 0.0018841904 -2.3783566e-07 -0.0007296703 -3.533705e-05 0.0015146321 -6.343078e-06 -5.8764366e-05
-0.00015974276 -1.1261972e-06 1.7399558e-06 -6.926032e-05 1.0244117e-05 4.8687357e-06 -0.00013044038 -0.00014857492
0.0018619082 -2.8367333e-06 -3.486392e-06 -4.1220905e-05 -0.000573976 -1.4925003e-05 2.2022232e-05 -4.1945755e-06
00000000: 685b 2337 b395 9a34 36bb 4eb7 e158 abb8
00000010: 1ad6 cbb5 bdb0 83b5 fd93 6b39 3702 c938
00000020: da6d 9238 2700 0f36 2f31 c037 e09b 76b8
00000030: 8311 35b7 ae9f c436 e2d2 f4b9 eef9 8235
00000040: 3ec2 eb38 bf1b 0837 7632 8d37 8d4a d7b8
00000050: f428 0339 4848 4138 4ab5 b4b8 fc75 acb8
00000060: c6b9 4037 4ca3 9fb6 e94d 2639 c1dd bdb7
00000070: bdf5 a737 4dd0 4a37 7d9f 38b8 ce84 85ba
00000080: 276e 6437 0f9a 0c3a 2502 1039 d070 adb8
00000090: a778 4236 d18c c538 4d96 0a39 0ebe 4e39
000000a0: 002c 7136 6c9f f039 e14a bbb6 1500 8a3a
000000b0: 16cd c936 bacc c639 65c1 c737 da5b 8a39
000000c0: 406b a738 c377 4336 1ae3 bdb4 6e3e 9538
000000d0: 50ad b6b6 6800 dcb5 c7d9 ca37 a5d4 82b7
000000e0: 71fc f4b8 ad66 0137 c86b ecb5 7134 2f38
000000f0: 184b 4238 8226 6337 5da8 d5b8 7373 aa33
00000100: 3e4c 5eb9 0392 3f38 08e8 9634 964e c538
00000110: 4243 1db9 81a4 ed38 8353 6837 c596 6a38
00000120: b244 d6b8 a4ac 77b7 9480 fc37 dbe1 9437
00000130: 6851 8438 7c02 b336 804a 8836 31c8 393a
00000140: 15a8 01b8 8581 a039 ef98 c1b7 a4ad 5f38
00000150: ceec 96b6 03a6 20b9 00af 1db9 8d69 a4b8
00000160: 3783 d636 c03d 3139 c2b0 30b6 d2e4 2fba
00000170: 7741 3f37 773b 7a39 3950 7eb7 38d6 1db9
00000180: dc95 d236 a5b1 1f34 71ca 59b6 9c4f 51b8
00000190: 5d89 38b7 99b9 c2b6 6247 39b8 e969 7ab7
000001a0: be58 0c3b 64b1 b236 159e ef36 db8a bfb7
000001b0: b3fb 3eba 017a b436 dba4 8ab9 4f78 73b5
000001c0: 48ef 5d3b 6f49 0d39 9f31 d836 e65a 8bb8
000001d0: 6e2e 643b f9c9 1839 2e02 10b8 596f d9b7
000001e0: ecd0 f839 0d11 6fb7 50d9 8d38 2ceb 1fb7
000001f0: 45bb 90b8 6bc9 0539 eef8 79b7 64c2 d5b9
00000200: 8cdc 6338 1083 c43a 946a ecb8 dd42 dfb7
00000210: 9f02 bdb7 e926 3439 9529 9739 25e4 ba37
00000220: ede0 1937 9a68 ac3a 96fa 8d35 37aa ac39
00000230: a8a0 b1b6 6b06 8a3a c1d7 1537 a338 9238
00000240: 2daa 4e39 d93f e635 8297 f5b3 cfec 04b7
00000250: 2ee5 c936 e194 8f36 9b44 4839 21e0 da35
00000260: c5cb 31bb b77a 07b6 e8c4 6db5 1243 4eb7
00000270: 8ac4 803a 79e8 e0b6 68cc 7839 7f47 96b4
00000280: 527a 90bb d28d c1b8 4a07 20b6 1cb8 87b7
00000290: e299 93bb 4784 05b9 2c32 9c36 9232 d2b7
000002a0: ab30 26ba 2bee 0537 80c5 a4b8 d1aa f2b6
000002b0: c8f3 ca38 a21e ceb7 0cd1 2c36 ec9a 53b9
000002c0: 5883 f8b6 ef8b 33bb f4a9 8639 faa4 68b7
000002d0: 21c4 1a39 ad1a deb9 d09a b8b9 1bfd 7336
000002e0: 5939 2cb6 a0ef 13bb aeb1 1836 8595 9f39
000002f0: 27df 9437 e514 f5ba aef6 c636 1c28 1e38
00000300: 0e99 d6b8 8eda 97b5 f721 2136 b3f3 8338
00000310: 9c21 19b7 5aee 85b5 e142 37b9 db82 a538
00000320: 229e a03a 5152 8b35 f7a1 30b6 fe0c 2038
00000330: de19 03ba 23a5 8637 cf87 b9b6 6764 f235
00000340: 42c5 0a3b 684f c9b8 2ba5 fcb5 f8be d938
00000350: 1503 133b 20f4 9238 ccbd fa36 ca44 8b38
00000360: a719 1539 1a22 09b6 3a97 0335 0506 ab37
00000370: 46d7 b938 381f d5b7 f012 9236 d88a 223a
00000380: b276 dfb8 9755 173b a61e 73b9 b696 1a38
00000390: 0d01 8ab9 c022 1a3a e401 5239 5f10 8938
000003a0: befd 5db5 f0f6 f63a c55f 7fb4 5847 3fba
000003b0: de36 14b8 9f86 c63a a0d6 d4b6 c279 76b8
000003c0: 9f80 27b9 d727 97b5 6d88 e935 da3f 91b8
000003d0: 26de 2b37 1f5e a336 d3c6 08b9 c7ca 1bb9
000003e0: 460b f43a b55e 3eb6 c2f7 69b6 9ce4 2cb8
000003f0: e176 16ba 6666 7ab7 62bc b837 21bf 8cb6

exp_avg_sq f4 [6, 12, 4]
3.5681112e-06 1.7187772e-09 3.1543625e-08 0.00068961125 1.0426995e-08 6.113005e-09 0.0007057749 0.0014705885
0.0002012566 2.019075e-09 1.6160926e-07 6.717839e-05 8.678757e-06 2.2593989e-07 0.00024162415 1.657044e-07
0.000546887 2.823821e-06 5.8371675e-08 0.0015659882 0.00056478445 1.7969777e-06 1.17534555e-05 0.00015930887
4.018354e-06 7.897815e-09 3.6258094e-05 1.0956908e-05 4.3109608e-07 9.7392485e-06 9.0297556e-07 0.032059878
8.387571e-08 0.0047907955 0.00027941877 5.25863e-05 2.582096e-06 7.307822e-05 0.0067783627 0.0009799993
7.944533e-09 0.0030987335 2.7023057e-07 0.04424538 5.6299965e-09 0.0023026576 1.2106881e-06 0.00013983599
2.1565133e-05 1.248325e-08 1.4500475e-09 0.0001827964 4.2573056e-08 4.762879e-08 8.598465e-06 0.00036464757
0.0037032557 1.3723536e-08 1.9213586e-09 1.5575839e-05 0.00023996472 1.5106514e-06 2.1700613e-05 4.125801e-08
0.009870108 2.4356852e-05 1.6669355e-09 0.00040885716 0.010194157 1.3620345e-05 4.612371e-08 3.7850765e-05
0.00010383768 5.402088e-08 3.1211627e-07 2.0838265e-06 7.0603573e-06 8.3748935e-05 1.2065759e-08 0.008516184
2.5510649e-06 0.04069061 8.628002e-06 1.2416941e-05 2.2817443e-05 0.0005402373 5.8772992e-05 0.00022864969
5.373693e-08 0.0260612 1.7771772e-08 0.012804325 1.8438301e-07 0.01973476 2.6690502e-08 3.6450732e-05
2.9524468e-05 1.4605169e-08 5.807879e-09 3.2106887e-05 2.6257916e-07 5.544077e-08 0.00012006141 5.602123e-05
0.013568145 1.4750507e-08 2.7800157e-08 2.1725732e-06 0.001325319 1.8243721e-06 3.636904e-05 1.02432285e-08
0.03552836 2.1124011e-05 1.1239567e-08 6.869106e-05 0.036749166 8.372562e-06 2.2735483e-06 5.2247287e-06
0.0005729019 7.891064e-08 9.485448e-06 2.0788033e-07 4.925088e-05 8.4884305e-05 1.280745e-07 0.0014804776
2.693926e-05 0.03698982 0.00011393203 1.7665832e-06 1.87809e-05 0.00067360885 0.0011676307 3.115092e-05
1.3032515e-07 0.024719197 8.848278e-08 0.0026498318 9.955321e-07 0.017395683 2.3680386e-07 6.8450036e-06
2.3239827e-05 1.10203375e-08 2.2136504e-09 5.7124795e-05 1.3282256e-07 2.0739494e-08 2.047335e-05 0.00013274618
0.0012193739 5.7071694e-09 9.147538e-09 6.478766e-06 0.00012532427 6.1728264e-07 1.9663941e-05 1.20780514e-08
0.0031529057 8.844441e-06 1.0223477e-08 0.00013479502 0.0030738548 3.6283957e-06 3.476043e-07 1.4737942e-05
8.659646e-05 3.1936256e-08 1.4821907e-06 1.2258229e-06 1.7609456e-05 3.5933695e-05 3.9269178e-08 0.0028223763
1.0384672e-05 0.019149512 1.957151e-05 4.606128e-06 1.494234e-05 0.0003515236 0.0002108016 9.4426105e-05
5.158925e-08 0.012844641 1.9887995e-08 0.003445055 8.095746e-08 0.008969186 6.3141236e-08 1.751543e-05
2.076798e-05 5.13498e-09 3.3649477e-09 7.88831e-05 3.7293427e-07 8.451954e-09 2.4398634e-05 0.00017652495
0.003011645 5.550658e-09 5.1694897e-09 8.336928e-06 0.00045249995 2.7167806e-07 1.4178062e-05 1.4608357e-08
0.007883742 4.611512e-06 6.2100964e-09 0.00018289765 0.008289998 2.654442e-06 3.4238874e-07 2.006859e-05
0.00010961973 1.045039e-08 1.0036775e-06 1.4107867e-06 1.9879295e-05 3.973262e-05 3.2486554e-08 0.003634783
2.4405681e-05 0.0060694115 1.3210928e-05 6.6296093e-06 2.6214278e-05 0.00011309438 0.00023139095 0.000121931684
9.533966e-08 0.0038037922 2.2432186e-08 0.004743066 6.9234926e-07 0.0029217957 5.4591613e-08 1.7497843e-05
2.9157736e-05 7.531865e-09 2.5554496e-09 2.1942173e-05 1.478048e-07 3.1502136e-08 4.254452e-05 4.597813e-05
0.008632859 1.5979563e-08 2.796269e-08 2.0355317e-06 0.000615917 1.1937859e-06 6.697996e-06 5.484497e-09
00000000: af73 6f36 193a ec30 957a 0733 07c7 343a
00000010: 6922 3332 900a d231 c003 393a c3c0 c03a
00000020: 6808 5339 f1bf 0a31 d186 2d34 20e2 8c38
00000030: fa9a 1137 e299 7234 7d5c 7d39 7bec 3134
00000040: f75c 0f3a e080 3d36 56b4 7a33 d841 cd3a
00000050: 0b0e 143a af2f f135 b530 4537 260c 2739
00000060: 66d5 8636 f5ae 0732 d513 1838 90d3 3737
00000070: 6571 e734 c165 2337 0264 7235 3851 033d
00000080: 291f b433 1bfc 9c3b f47e 9239 1c90 5c38
00000090: 1248 2d36 9241 9938 071d de3b 5273 803a
000000a0: 6d7c 0832 1f14 4b3b 3514 9134 a53a 353d
000000b0: f971 c131 2fe8 163b ed7e a235 f0a0 1239
000000c0: c5e6 b437 ea75 5632 034b c730 09ad 3f39
000000d0: 92d9 3633 6990 4c33 2042 1037 2b2e bf39
000000e0: 52b2 723b c0c4 6b32 e608 0431 dca8 8237
000000f0: 0a9f 7b39 96c1 ca35 b609 b637 a933 3133
00000100: 3cb6 213c f151 cc37 141a e530 e15b d639
00000110: 6505 273c f082 6437 8e19 4633 f3c1 1e38
00000120: 6ec3 d938 9604 6833 ef90 a734 ded7 0b36
00000130: 02e8 ec36 5ea2 af38 c549 4f32 7787 0b3c
00000140: f632 2b36 32ab 263d fdc0 1037 5b52 5037
00000150: 1668 bf37 b69e 0d3a 0583 7638 afc1 6f39
00000160: 61cc 6633 4c7e d53c 8aa8 9832 3bc9 513c
00000170: d1fa 4534 cbaa a13c 0945 e532 ade2 1838
00000180: 50ab f737 36ea 7a32 a58e c731 82aa 0638
00000190: 9bf8 8c34 c51d 6e33 7bc9 fb38 56f8 6a38
000001a0: ed4c 5e3c 6a69 7d32 31cd ee32 86cc 1136
000001b0: 54b6 ad3a f3dc f435 f68a 1838 32fa 2f32
000001c0: 3086 113d 7833 b137 2318 4132 3b0e 9038
000001d0: 4b86 163d e177 0c37 4393 1836 1450 af36
000001e0: cc2e 163a 9575 a933 b023 1f37 b635 5f34
000001f0: bb92 4e38 ea03 b238 da84 0934 960c c23a
00000200: 9ffb e137 a382 173d cbee ee38 561b ed35
00000210: ad8b 9d37 2095 303a 2f0b 993a 0ca8 0238
00000220: 81ef 0b34 ea7f ca3c ec03 be33 cda8 2d3b
00000230: 399e 8535 6481 8e3c 2644 7e34 22ae e536
00000240: 26f3 c237 f553 3d32 f31e 1831 4899 6f38
00000250: fd9d 0e34 a126 b232 2fbe ab37 c831 0b39
00000260: 66d3 9f3a cb18 c431 4c27 1d32 2d64 d936
00000270: 7a69 0339 57b3 2535 fef3 a437 d57f 4f32
00000280: fba0 4e3b 9662 1437 54a3 2f32 c357 0d39
00000290: ba72 493b 5d7f 7336 5f9e ba34 fb42 7737
000002a0: 1f9b b538 492a 0933 afef c635 f486 a435
000002b0: 05b8 9337 83b7 1638 eba8 2833 9ef7 383b
000002c0: d439 2e37 70df 9c3c 7f2d a437 578e 9a36
000002d0: ddb0 7a37 b34c b839 a00a 5d39 a106 c638
000002e0: fb92 5d33 5472 523c 2ad6 aa32 6fc6 613b
000002f0: d6da ad33 7ef3 123c 4398 8733 19ee 9237
00000300: e636 ae37 c36f b031 c93c 6731 0b6e a538
00000310: b237 c834 1634 1132 abab cc37 8e19 3939
00000320: 055f 453b 1bb8 be31 509f b131 d5de 0b37
00000330: 843d ed39 26db 9134 50de 6d37 3cf8 7a32
00000340: d02a 013c 96bc 9a36 9660 d531 37c8 3f39
00000350: c6d2 073c f722 3236 8dd1 b734 f858 a837
00000360: a5e3 e538 4d89 3332 19b6 8635 435a bd35
00000370: 76c2 a637 93a6 2638 5887 0b33 8a35 6e3b
00000380: cdba cc37 eae1 c63b 81a4 5d37 e973 de36
00000390: bce6 db37 152d ed38 89a1 7239 93b5 ff38
000003a0: 88bd cc33 0b49 793b e6b0 c032 b96b 9b3b
000003b0: e1d9 3935 997b 3f3b 1d78 6a33 55c8 9237
000003c0: c397 f437 7e65 0132 f29b 2f31 7510 b837
000003d0: 46b4 1e34 f74c 0733 d571 3238 a4d8 4038
000003e0: d670 0d3c 6e43 8932 9b32 f032 2b9a 0836
000003f0: 7d75 213a 2c3a a035 59bf e036 2572 bc31
