MLIPs/CACE-LES/dipep/caceles-r-4-nl-2-nu-2/best_model.pth (torch, 460194 bytes, 21 tensors)

embedding_weights f4 [4, 4]
00000000: 0a26 973e 0cf7 233e 009e afbd dee9 633e
00000010: 4937 a8be c524 9cbe 05ae 9ebe 0d14 1b3f
00000020: d74e f43c 0053 04bf 754f fc3e 30cf 263f
00000030: a910 023e eeb1 d93e 7ab2 1c3f 743b 3f3f
0.2952121 0.1601221 -0.08575058 0.22257182 -0.3285468 -0.30496803 -0.3099214 0.6057747
0.02982275 -0.5168915 0.4927937 0.65159893 0.12701668 0.42518562 0.61209834 0.74700093

embedding_weights f4 [4, 4]
00000000: ed15 b73e 55d1 fdbb f202 783c cb38 e23d
00000010: 453b 0abc 09e5 703d 8874 b9be 54cd 983e
00000020: ea89 ddbb 6faf c7be a039 8c3e ec9f 883e
00000030: ea5e 7abd a24b bf3e 16b3 143e 234c b63e
0.35758916 -0.0077459016 0.015137421 0.11045989 -0.0084369825 0.058812175 -0.3622172 0.29844153
-0.0067608254 -0.39001033 0.27387714 0.2668451 -0.061125673 0.3736239 0.14521441 0.35604963

bessel_weights f4 [6]
00000000: 45b1 0e3f 3d24 c73f 3659 1440 e174 4b40
00000010: 4f9a 8440 0592 a340
0.5573924 1.5557934 2.317945 3.1790087 4.1438365 5.1115746

0 f4 [6, 12, 16]
00000000: 9e6f da3f a8ef f7be 6fa6 893d d22e 03be
00000010: e2dc 04be 6b2c 73bf f843 0b3f 5292 b93e
00000020: a9a2 a03f eab8 a13f 2d62 edbd 7443 be3f
00000030: 2c28 1bbd d7e6 1dbc 36be 00bc b639 d73e
00000040: fba8 8d3f 92fe 0d3f 39f2 41bb f840 1b3e
00000050: e10f 68be c585 583f fce7 be3c 73fa ac3e
00000060: cada 3cbf e88a cbbd 6b51 883e 6c08 483d
00000070: ae9b 4c3d 97a8 9cbd d45d 38be 9836 0f3f
00000080: 8ceb 7a3e d078 2fbf 5a5d 0c3d b640 863c
00000090: cc91 2b3f 8137 aa3e f66c b0bd 6fe4 c83f
000000a0: 0f5d 253f 3de3 e0bd 260a 4f3f 7fdf 85bb
000000b0: fc6c 083e 6a7d ad3e d47e 633f b74f a0b9
000000c0: f87e 823b 8fcf 933d ecde 5c3f 9a44 513f
000000d0: 8bf9 b83f ad0d 9839 268d 82be 339b 24bd
000000e0: 8294 8fbf 0dd2 80bf 2da9 c1bf e2a6 ac3e
000000f0: 8dbd 913e a97e 9b3d c2dd 03bc afc8 a93e
00000100: 0a6a f13f 2d89 c03f 9d56 6a3e bdc9 9f3f
00000110: 485c 85be 26b1 513e 6206 b03d a278 71bb
00000120: 7aaf 2e3f 38f2 ff3d 6ce5 9c3e 169e a43e
00000130: e886 8fbd 0b67 9a3c 1681 89bc 52e8 e23d
00000140: fd6b 76bd de73 483f 31ec 253f cfdc 78be
00000150: 08db cf3f 73bd 0c3f c49f 823e ca72 d63d
00000160: dede 0a40 d4dc ec3e e9d1 af3e 4cbd 223d
00000170: 3eca 7b3f 08f7 433f 901a 693c 7628 c23e
00000180: da1e 36be 412e 1840 a1ab 61bc 7639 1dbe
00000190: d884 db3e e325 443b af1d fa3e 50fa ae3e
000001a0: 14fd 643f aa6e 453f 63b6 5a3e e59b 763c
000001b0: 78c3 6bbb ab5c 093f 3bec 903c a309 163f
000001c0: 75c2 233e 328e 163f cb92 b33f b406 c13d
000001d0: c4a1 d53e 3819 e03e 481c ad3f cfd8 42be
000001e0: 2cd6 21bf f0e2 e63e 47df 063e f924 1e3f
000001f0: 2ec1 8b3d 40fa 983e 9ac6 f3bd 5abd 813d
00000200: f6ca 5e3f 709a 3abd 2efb c13b cca7 51bd
00000210: 5ed3 72be f5b1 843f 68c3 b43e ead5 59be
00000220: b8bc e53f efdb a4bf 19bd 683f c0ae 993e
00000230: be16 e2bd 434f b5bb 078b b53e 9ff8 c13e
00000240: 5961 523f 9820 ce3d eb2f 283f 038f 3abe
00000250: 87fc 73be 44dd b0be 4561 0940 cdb0 ad3b
00000260: 87fe ca3e ff04 7e3f fb55 b13f fd9c b2bf
00000270: 152b c53e fc69 18bb cf0d a1be 7ad4 87bd
00000280: 57af 6e3d c726 a03e e965 aabf ef13 4a3e
00000290: 9206 be3d 524e 593e 33f2 89bd 2711 123f
000002a0: 23f8 103d c08a 66be 265b 163f 443d a03d
000002b0: d283 253f 9eca 543e f4fa 54bd f191 bc3e
000002c0: 23a3 a13d 556e 15bf 1fb8 ee3c 68a1 12bd
000002d0: 2a54 8b3f 0b5c 91be 2d13 083f a8ff 9a3e
000002e0: 399b 283f 8f50 2d3f fdeb 16bd 67e9 ee3d
000002f0: f9d3 35be c916 c53d 4115 f53e 93f4 133f
00000300: 7f0e ce3f 7063 5a3e fabd 2dbe 1b2a 553d
00000310: 6d7d 793e 2349 513f 39fc d23f 6e29 c9be
00000320: 0928 3b3e d155 cebe 0954 043f 21b2 47bf
00000330: 5bf9 923e 20be 0a3f aad5 6e3c 1e4d f03e
00000340: 6160 423f f12f 93be 31c1 a83e 4289 89be
00000350: da55 0e3f 9fc1 34bd ccc2 9d3e 2673 df3e
00000360: c7ae a73d d9a1 e93e 81bd 383e 83ce 093f
00000370: c634 c2bf 9c18 823f 4247 923f 1f4c f7bd
00000380: da10 08be 3fa8 003f 8262 24be a16b 45be
00000390: 376f 03bc 22dd dd3d 0849 353f 1eb1 8d3f
000003a0: c246 613f ac13 313f 36e1 0f3f b9a4 3dbd
000003b0: 2828 90be 9ffe 16bf 3c02 b5be 914d d13e
000003c0: fe34 753e 4c1c 993f 2a93 743e 1b58 fc3e
000003d0: 754c 203f 338f 2abd e4b5 703f 2d2f 703d
000003e0: e13f 96bf c906 553f cef1 a73e db82 683e
000003f0: 1ab3 8dbc 9c95 1fbe 0211 c33c 53ce 0a3f
1.7065313 -0.4842503 0.06721198 -0.1281083 -0.12974885 -0.9498965 0.5440059 0.36244446
1.254964 1.2634556 -0.11590991 1.4864335 -0.037880108 -0.009637556 -0.00785785 0.42036217
1.1067194 0.5546657 -0.002959384 0.15161502 -0.22662307 0.84579116 0.023303978 0.33784828
-0.73771346 -0.09938604 0.26624617 0.048836157 0.049953155 -0.076493435 -0.18004543 0.5594268
0.24503917 -0.6854372 0.034268714 0.016388278 0.67019343 0.3324547 -0.08614533 1.5694712
0.6459512 -0.10980842 0.8087486 -0.0040854807 0.13322824 0.33884746 0.888654 -0.0003057697
0.003982421 0.07217323 0.8627765 0.817453 1.4451154 0.00029001888 -0.25498313 -0.040187072
-1.1217196 -1.0064102 -1.5129753 0.3372107 0.28464928 0.07592518 -0.008048477 0.33160922
1.8860486 1.5041863 0.22884603 1.2483441 -0.26046968 0.20477733 0.085949674 -0.0036845584
0.68236506 0.124973714 0.30643785 0.3215186 -0.07008153 0.018847963 -0.016785186 0.11079468
-0.06016158 0.783018 0.64813524 -0.24302982 1.6238718 0.54976577 0.25512516 0.10471113
2.1698527 0.46262228 0.34339836 0.03973131 0.9835547 0.76548815 0.014227524 0.37921494
-0.17785206 2.377823 -0.01377383 -0.15353951 0.4287479 0.0029929809 0.48850772 0.34175348
0.89448667 0.77121985 0.21358638 0.015051817 -0.0035974663 0.53657025 0.017690768 0.58608454
0.15992148 0.5881072 1.4029173 0.09425107 0.4172498 0.4376924 1.3524256 -0.19028018
-0.63217425 0.45095015 0.13171111 0.61775166 0.068239555 0.29878426 -0.119031146 0.06334944
0.87028444 -0.04555744 0.0059198355 -0.051185414 -0.23713443 1.0366808 0.35305333 -0.21273008
1.7948217 -1.2879618 0.9091354 0.30016136 -0.11039494 -0.0055331304 0.35457632 0.37884995
0.8217979 0.100648105 0.65698117 -0.18218617 -0.238268 -0.34543812 2.1465619 0.0053006173
0.39647314 0.99226373 1.3854364 -1.3954159 0.3850943 -0.002325653 -0.31455848 -0.066323236
0.058272686 0.31279585 -1.331235 0.19734167 0.09278597 0.21221283 -0.06735649 0.5705742
0.03539289 -0.22513866 0.5873283 0.078241855 0.64654267 0.20780417 -0.05199714 0.36830094
0.07892444 -0.5837148 0.02914053 -0.03579846 1.088506 -0.28390536 0.5315426 0.30273175
0.6586185 0.6770105 -0.03684615 0.11665612 -0.17756642 0.096234865 0.47867778 0.57795066
1.6098174 0.21326995 -0.16967002 0.052042108 0.24364252 0.8175222 1.6483222 -0.3928942
0.18276991 -0.40299848 0.5169073 -0.7800618 0.28705868 0.5419636 0.014577309 0.46933836
0.7592831 -0.28747514 0.32959893 -0.26862532 0.5559975 -0.044129964 0.3081268 0.4364254
0.08187633 0.45631292 0.1804104 0.53830737 -1.5172355 1.016376 1.1427996 -0.12075066
-0.13287678 0.50256723 -0.16053203 -0.19279338 -0.008022121 0.10833193 0.7081456 1.1069677
0.8799859 0.6917064 0.5620302 -0.04629967 -0.28155637 -0.5898227 -0.35353267 0.4087949
0.23945996 1.196176 0.23884264 0.4928597 0.62616664 -0.04164047 0.94027543 0.05863874
-1.1738244 0.8321348 0.3280167 0.22706167 -0.017297316 -0.15584415 0.02381182 0.54221076

1 f4 [6, 12, 16]
00000000: 0a43 38bf 232a bcbf f5c7 b23e e26a 3cbf
00000010: 8e42 273e 5e5d 0d3f 97a1 3a40 f091 813f
00000020: 7a52 a33f ac6f d23f c22d a7bf 0a9f 3ebf
00000030: 5dc5 3c3e 65b6 8b3f 978a fd3f ddf9 b9be
00000040: 295b ad3e 1dae c9bf 939f 2440 13f9 e33f
00000050: 1031 2ac0 f602 873e b739 f7bd b6a5 cebd
00000060: 499c f5bd fcd7 b2bd f78b 233c b1c8 9bbf
00000070: c0ec 853e e903 edbe 9780 9cbf 0fcb 94bf
00000080: eb74 aabf 70cf 55c0 8533 d93e 8594 083f
00000090: 8447 7cbf 6f4c e63f 6b73 a93f 551f 903f
000000a0: 688b 40bf 5898 bb3e dc81 ee3e 1d09 063f
000000b0: 548d b33f b3c4 e93e e477 c1bf e5ea 933f
000000c0: 878b 3f40 5574 ac3f 6f85 aa3e 1bf2 b6be
000000d0: 4bbc 67bf f8ed 2a3e fb7f 07c0 84e6 c43f
000000e0: 3eb5 5c40 ea2b 09c0 d23c 30bf 01f9 bbbf
000000f0: cf8e 4b3f 3ab3 43be 81ab 63bf 7dd5 b7be
00000100: 75c5 1640 e37b 9f3e c3c6 15bf 80d9 b2bf
00000110: e4d8 d43d 2a9c bc3f b07c 323f 46aa e03f
00000120: af50 0e40 999c a6be 9d11 76bd 83ac b93f
00000130: 16e3 fabd 834c 743f 6b9b 1b40 57ca 753f
00000140: c5ce 50be e07b 10bf 8447 003f 80da a13f
00000150: acfd 8bbd 0400 3040 7c26 0740 7db3 f8bd
00000160: dc36 373f d754 a9bf 8b8a 24be 318e 12c0
00000170: 65d7 8bbd 82a2 893f ddc6 35be 4736 00bf
00000180: 6c25 2640 6626 d73f d5f8 2f40 280c 0840
00000190: d6fc 863f a0ab bebe fe1e 853f 2bf8 333d
000001a0: a009 8c3f 7007 2cc0 812d 10bf f39e a53f
000001b0: 6055 00bf 5651 4d3f 3b83 833f cb4c 2bbf
000001c0: 31c1 8e3e e8f3 593f 2738 f7bf 3e98 8f3f
000001d0: 3c0f afbf 2a86 fa3f bdc4 4cbf 3964 303f
000001e0: 5bf5 90bf 921e 643f 357e e3bf 9b2e 833f
000001f0: 65d7 3c3e 86ab d93e 3137 2540 1fa7 4e3f
00000200: 7d48 8abd d08b 0f3f 48a8 283f cd85 603e
00000210: 0f72 0e40 2e19 af3f 1710 f23e 0a6a 0740
00000220: 9431 2240 ace6 bbbf de8d d43f e7cf 06bf
00000230: 2612 a53e 45d8 cc3e 7476 21be 55ea 14bf
00000240: 19ef 5a3f be31 b8be be00 273f 06f0 0940
00000250: 10b4 1740 8410 7d3f 3c65 4e3f 9de3 bfbf
00000260: 3d62 28bf 5e6a 363e 3a81 113f f20a 703e
00000270: cf31 38bf ae1e e33f 6970 0d3f 7f0b e13f
00000280: bacf b03e da1e b4bf 9d3f d43e cc88 b2bf
00000290: 6cb5 553d ad46 2fbf c192 943d c0ce 383f
000002a0: 401d 14be 7b69 2140 170e 4b3f 9d43 9cbe
000002b0: 9f0c 19bf 5492 cf3f 287a e1be 1d46 e53e
000002c0: 0e77 88bf cec4 433e 6e55 4f3c 04cf ab3f
000002d0: b83c a53e f668 153f f41d 6e3f 3cc5 a2bf
000002e0: 5a2e 463f ef50 653f 9c2a f53f 1004 fc3e
000002f0: b01b 933f b675 513f 7f63 483e b2f1 203f
00000300: 843e 8c3e 885e cb3e 778c f33e 7dc0 a7be
00000310: fa19 d8bd c5b9 e43f 22c3 fd3e 5458 723f
00000320: e8ef 76bf 3814 833e 7ce5 45bf db26 ee3f
00000330: a9bb 4a3f 6bb3 a43e 0d6f 3f40 edb8 173e
00000340: 389e 8c3f a0a1 a93f cad9 5cbe 5cf5 3c3f
00000350: 8aee a73f d020 ac3d a363 ce3f 023a 483f
00000360: fbfa afbf ba18 2a40 ab89 b53e afcc 1540
00000370: 0587 64bf 5eba febd d02b a3bf 046d bb3d
00000380: ba64 f83e 2529 133f 531b 283f 5895 473e
00000390: 9c00 a73f a25a 393d 1e94 973f 0e2a b23e
000003a0: b940 28bf ddae ac3f 9b5b 9ebe b021 973f
000003b0: f50f bebf 13df 8fbe 24c3 62be a600 793f
000003c0: cc02 023f c133 613f 5d50 04be 2a9a a3bf
000003d0: 3a57 aa3f 42b2 993f b270 6f3f 435a c3bf
000003e0: cb98 a1be 1c9e b5be ec58 663f 200c d83f
000003f0: 82fd 903f 0633 eb3f e843 9fbf 69a0 843f
-0.71977293 -1.4700359 0.3491818 -0.7360059 0.16333982 0.5522059 2.9161127 1.0122662
1.2759545 1.644033 -1.3060839 -0.74461424 0.18434663 1.0915037 1.9807919 -0.36323443
0.33858612 -1.575626 2.5722396 1.7810386 -2.6592445 0.26369447 -0.12071555 -0.100902006
-0.119927 -0.08732602 0.009982101 -1.2170621 0.26157188 -0.46292046 -1.2226743 -1.1624469
-1.331693 -3.340786 0.4242212 0.5335162 -0.98546624 1.7992076 1.3238348 1.1259562
-0.7521272 0.36639667 0.4658345 0.52357656 1.4027505 0.45657882 -1.5114713 1.1556059
2.992891 1.3473002 0.33304927 -0.35731587 -0.9052169 0.1669234 -2.1171863 1.5382848
3.4485621 -2.1433053 -0.68842804 -1.4685365 0.79514784 -0.19111338 -0.8893357 -0.35905066
2.3558018 0.31149206 -0.5850641 -1.3972626 0.10392931 1.4735157 0.6972151 1.7551963
2.2236745 -0.3254135 -0.06007539 1.4505771 -0.122503445 0.9542925 2.431361 0.9601187
-0.20391376 -0.5643902 0.50109124 1.2644806 -0.068354934 2.750001 2.111724 -0.1214361
0.71568084 -1.3229016 -0.16068475 -2.2899287 -0.068281926 1.0752718 -0.17751642 -0.5008282
2.596034 1.6808593 2.7495625 2.125742 1.054591 -0.37240314 1.0400083 0.043937843
1.0940437 -2.687954 -0.56319433 1.2939132 -0.5013027 0.80202234 1.0274423 -0.6691405
0.27881768 0.85137796 -1.9314011 1.1218336 -1.3676524 1.9572194 -0.799877 0.6890293
-1.1324877 0.89109147 -1.777289 1.0248598 0.18441541 0.42513674 2.5814936 0.80723757
-0.06752107 0.5607271 0.65881777 0.21926041 2.2257116 1.3679559 0.472779 2.115847
2.534276 -1.467977 1.6605794 -0.52660984 0.3224041 0.4000875 -0.15767843 -0.5817006
0.85521084 -0.3597545 0.6523551 2.1552749 2.3703651 0.98853326 0.8062322 -1.4991337
-0.657749 0.17814013 0.5683781 0.23441675 -0.71951 1.7743738 0.5524965 1.7581633
0.34533483 -1.4071915 0.41454783 -1.3947997 0.05217497 -0.6846722 0.072545536 0.72190475
-0.14464283 2.522063 0.79318374 -0.30520335 -0.59784883 1.6216531 -0.4403851 0.44780055
-1.0661333 0.19118044 0.012654645 1.3422551 0.32272887 0.5836328 0.93014455 -1.2716441
0.77414477 0.8957662 1.9153628 0.4922185 1.1492825 0.8182024 0.19569205 0.628688
0.27391446 0.3972056 0.47568104 -0.32764044 -0.1055183 1.7869192 0.49562937 0.9466603
-0.9645982 0.25601363 -0.7730329 1.8605608 0.79192597 0.32168135 2.991153 0.14816637
1.0985785 1.3252449 -0.21567455 0.7381189 1.3119671 0.08404696 1.6124157 0.7821351
-1.3748468 2.6577592 0.35456595 2.340618 -0.89268523 -0.124378905 -1.2747746 0.091516525
0.48514348 0.57484657 0.65666693 0.19490564 1.3047061 0.04525245 1.1842077 0.3479771
-0.6572376 1.3490864 -0.30929264 1.1807156 -1.484862 -0.2809988 -0.22144753 0.97266614
0.5078552 0.87969595 -0.12921281 -1.2781422 1.330787 1.2007525 0.93531334 -1.5261921
-0.31561884 -0.3547219 0.89979434 1.68787 1.1327364 1.8374946 -1.2442598 1.0361453

2 f4 [6, 12, 16]
00000000: da49 7cbf bfa1 cd3e 2d87 f0bf ff8e f83f
00000010: c139 dc3c 9f71 4f3f 0fc8 313f 8505 4f3f
00000020: ac1f 1a3f 6f1f 0840 4b74 61be 5cbd d0bf
00000030: 08cb 993f 1bed 2a3f 9f2a b9be 7e33 a53d
00000040: f7c6 9abf 3109 f6bf 0465 163f 8a8a 743e
00000050: 308f fdbf 5ce0 1a3e 01ca 10bf 56bd cc3e
00000060: 3c3f 2240 be7a 76bf d340 443f 7c7e 3d3e
00000070: bd6d c5be 347b 1b3e 6ce5 413f 8aa1 373f
00000080: 2420 883e ab49 ed3e 5c46 1a3c 63ea fabe
00000090: 56d0 b63f 0cd0 e13d 37f5 743f a271 723e
000000a0: bf72 ec3e e10a 743f ee20 8bbd 3ea6 ed3d
000000b0: ae30 853f ce76 273f 732d c9bd 38a4 bd3f
000000c0: bd99 d43e 91d4 b0be c9e9 043f 2453 7e3e
000000d0: 9e04 c13e e1ca c03e 8aa3 4dbf 76a9 c1be
000000e0: 8201 16c0 4057 09bf be3c e63f 105c b8be
000000f0: 232e eabd 0acb 1e3f fe01 f83d 0e65 5d3f
00000100: df0d 143f 9f66 843e bcef 1c3f 4e87 4cbf
00000110: 2037 0740 8b5e b83f 83e7 e2bd 4161 8d3f
00000120: 54ae a63e 7631 11bf ddb7 0640 bb5c 063e
00000130: 1c7a 173f f3e3 c63e 6f2e ce3e a5d2 213f
00000140: 35f9 2dbf 1b9e 3e3f 2f5d cd3f a13a 1340
00000150: 9910 37bf 71d1 9e3f 0637 89be c0af cebf
00000160: 9b2e 563f dc70 0cbf a8bf be3f 879d 10bf
00000170: c8a3 563f 0a04 033e 8088 553f 9ba7 ab3f
00000180: c222 1840 8d1a 68bf b2a1 df3e 7766 e23e
00000190: 5f20 eb3d 0d40 c13f 3b2b b8bf a456 0b3f
000001a0: bd2d eabe b620 07c0 7ced e13f a8df 8a3f
000001b0: d0b2 463e ccc4 b13d 6fb7 d53d 9452 df3e
000001c0: aede 79be 21d8 da3d 9a95 d63d e249 803d
000001d0: 80e8 adbd c764 9dbf a430 163f a052 febe
000001e0: 1350 7a3f bef1 a2bf 9f4b 0fbe 9230 d63f
000001f0: 5d7b bd3b fe05 f23e 1ecb 813f ee2e 773e
00000200: 1aa5 8f3d 41ad e13f 0508 ff3f aa32 a1be
00000210: bc0c 583f e414 5fbf ecbd a7be 495f c0be
00000220: fc49 553e e6a7 2c40 1c62 af3f 666d 8ebc
00000230: ea5c 15bf 9715 293f 2e78 643f 3d9c 893d
00000240: c261 94be 3f69 f4be 1ad1 ac3f 8961 683f
00000250: 9707 bebe b60c a2be 7882 ea3f be7e 66be
00000260: 9c4e 7fbe 7a5e 5e3e 1fdc 3140 8530 db3f
00000270: dfa5 c1bc 082a 163f 5af1 243f 4e03 413f
00000280: f94a 343e 1347 b83f ecf1 1cbf 05b1 e63f
00000290: 4d87 2ebc 86b6 c33f 92d1 813f 2f29 14c0
000002a0: a2cf 943f c0a1 14be 5d81 4040 bc02 853e
000002b0: 82c2 f73e 99dc 7a3e 4546 ac3e 6c3c c43f
000002c0: 438c 323f 698b 2abf 45e5 233f 7b55 303f
000002d0: 08cb 62bf b22b 8ebe 91e3 1b3f 78e6 36bf
000002e0: 7a87 f8bf 73a2 b3bf 9cfb b33e b172 ec3f
000002f0: 50bb 10bd ae53 893f 0026 933e 030f dc3e
00000300: fb71 e1be 1326 963f baa6 c3bf 45a6 963f
00000310: 5419 393d 6090 c33f 4165 8ebe e7f2 433f
00000320: e8d1 cebf a5d0 5a3e 8057 f1be beaa 1140
00000330: b5fe bfbf 74cf 6f3f f576 f23f eb42 ba3f
00000340: 368c f83e 1d25 1e3f de4c 60be 70a2 cfbe
00000350: 3ec2 a73f f215 0b3f d800 c13f e380 943e
00000360: d0fa 16bf 2331 8a3f 25ac 85be 2ab2 e73e
00000370: f717 bc3f daed 65bd 5e46 5440 f648 ec3e
00000380: 8eb2 edbe 327c 73bf 5f04 2a3f 0304 0d3e
00000390: f0e3 9e3f a24f 873f bce7 953f d949 5cbf
000003a0: c1b4 76bf 310b c63e 59ab 8ebe 00b9 d0be
000003b0: 1fa4 0dbf 6f82 bcbf f615 2d3e c3a3 aabe
000003c0: bcac e9be fbee 343e 4a2d a43e e95d 1e40
000003d0: 6fcc 773e 6891 d9bf 800e cb3e 499a 593f
000003e0: cfa5 8dbf 527a f43e 9bcb 473f 05ee a23f
000003f0: fc39 0a3f 0d4c 0640 4b95 743f 4c75 d8be
-0.9855019 0.40162465 -1.8791252 1.9418639 0.026883008 0.8103275 0.6944589 0.808678
0.6020458 2.1269186 -0.22017018 -1.6307788 1.2015085 0.66768044 -0.3616533 0.08066462
-1.2091969 -1.9221555 0.5874789 0.23880973 -1.9809322 0.15124649 -0.56558233 0.39988202
2.5351095 -0.9628104 0.76661414 0.18505281 -0.38560286 0.15183717 0.75740695 0.71730864
0.2658702 0.46345267 0.009416189 -0.49006948 1.4282329 0.1102601 0.9568667 0.2367616
0.46181294 0.953291 -0.0679339 0.11603974 1.0405481 0.65415657 -0.09823122 1.481574
0.41523543 -0.34537175 0.5191923 0.24836403 0.37698835 0.37654784 -0.80327666 -0.378246
-2.343842 -0.5364876 1.7987287 -0.36007738 -0.11434581 0.62028563 0.12109755 0.8648232
0.57833666 0.25859544 0.61303306 -0.7989396 2.1127396 1.4403852 -0.110793136 1.1045305
0.32554877 -0.56716096 2.1049721 0.13121311 0.591707 0.38845786 0.402698 0.63212043
-0.67958385 0.7446 1.6044062 2.3004534 -0.715097 1.2407666 -0.26799792 -1.6147385
0.83664864 -0.5485971 1.4902239 -0.5649037 0.8384366 0.1279451 0.8341141 1.3410524
2.3771214 -0.90665513 0.4367805 0.442188 0.11480784 1.5097672 -1.4388193 0.5442908
-0.4573802 -2.1113715 1.76506 1.0849504 0.19404149 0.08680114 0.10435378 0.4361769
-0.24401352 0.106857546 0.10477753 0.06264092 -0.084916115 -1.229638 0.5866797 -0.49672413
0.97778434 -1.2730024 -0.13993691 1.6733572 0.0057825283 0.47270197 1.0140111 0.24138996
0.070139125 1.7630998 1.9924322 -0.31483966 0.8439443 -0.8714125 -0.32762086 -0.37572697
0.20829004 2.6977477 1.3701816 -0.01738615 -0.583449 0.6604857 0.8924588 0.06719253
-0.28980833 -0.47736546 1.3501313 0.90773827 -0.37115166 -0.31650323 1.8321066 -0.22509286
-0.24932331 0.21715727 2.7790601 1.7124182 -0.023638664 0.58657885 0.64430773 0.7539567
0.17606725 1.439669 -0.61306643 1.8022772 -0.010652375 1.5290077 1.0142081 -2.3150136
1.1625865 -0.14514828 3.0078957 0.2597865 0.48390585 0.24498214 0.3364736 1.5330939
0.6974527 -0.66618973 0.6402171 0.6888043 -0.8859105 -0.27767712 0.60894114 -0.7144542
-1.9416344 -1.403395 0.351529 1.8472501 -0.035334885 1.0728662 0.2873993 0.42980203
-0.44032273 1.1730369 -1.5285256 1.1769491 0.04519017 1.5278435 -0.27811626 0.76542515
-1.6157808 0.21368654 -0.4713707 2.2760463 -1.4999605 0.93675923 1.8942553 1.4551672
0.48544472 0.6177538 -0.21904323 -0.40553617 1.3106153 0.5433036 1.5078382 0.29004583
-0.5897646 1.0796245 -0.26107898 0.45253116 1.4694813 -0.056135036 3.3167949 0.46149415
-0.4642529 -0.9511138 0.6641292 0.13771062 1.2413311 1.0571177 1.1711345 -0.8605018
-0.9636956 0.38680413 -0.27865103 -0.40766144 -0.55328554 -1.4727305 0.16902909 -0.33328065
-0.45639598 0.17669289 0.32065803 2.4744818 0.24199079 -1.69975 0.396595 0.85001045
-1.1066226 0.47749573 0.7804505 1.2728888 0.5399473 2.0983918 0.95540303 -0.4227699

l_matrix f4 [3, 10]
00000000: 0000 803f 0000 0000 0000 0000 0000 0000
00000010: 0000 0000 0000 0000 0000 0000 0000 0000
00000020: 0000 0000 0000 0000 0000 0000 0000 803f
00000030: 0000 803f 0000 803f 0000 0000 0000 0000
00000040: 0000 0000 0000 0000 0000 0000 0000 0000
00000050: 0000 0000 0000 0000 0000 0000 0000 0000
00000060: 0000 803f 0000 803f 0000 803f 0000 803f
00000070: 0000 803f 0000 803f
1.0 0.0 0.0 0.0 0.0 0.0 0.0 0.0
0.0 0.0 0.0 1.0 1.0 1.0 0.0 0.0
0.0 0.0 0.0 0.0 0.0 0.0 0.0 0.0
1.0 1.0 1.0 1.0 1.0 1.0

weight f4 [48, 576]
00000000: 108e 4b3e eff0 603f 766d 0d3e 053a c33e
00000010: 4b07 053e 8799 e8bf e2a1 003e fe35 a8be
00000020: 0ca4 87be c518 713e be9a d3bc f711 05bf
00000030: 27e0 743e 1193 62bf 1228 1dbc 1a93 44bf
00000040: 5f56 523f c266 413f d741 e63d 2c15 373e
00000050: d277 353f 2c7e ad40 9ae3 9cbe e574 cf3c
00000060: dfdc 9c3e 4ade 5d3f 2ea3 8fbf e575 c43e
00000070: f0f7 e3bf 07cc 06bd 7302 7e3e 7113 a6be
00000080: 7eff 663e a712 19bf f6ff 323f 465e f53e
00000090: a93c 453f 743a b63e da18 91bd b313 173e
000000a0: 6e49 fdbc 6304 86bf 7a58 52be 6afe 553a
000000b0: 8932 4d3f 8d0b 3e3f b5ce d43f 50b9 8a3f
000000c0: 387b 2d3f 49db 013f c17a a33c 03df 993e
000000d0: 9eba 163d 58a0 6c3f 652b 48be 91d0 ecbe
000000e0: 3282 28bb d7fa 8d3f f68a a0be 5363 4c3f
000000f0: 6bae 813f dff5 8fbf 4649 523f f9d9 0ebe
00000100: 9658 09bf 7ccf 8f3e a2f7 b1bf b4e0 30bf
00000110: 9e5f 4cbf aa38 70be 2241 dd3f 2c49 1e3e
00000120: e704 3f3f d303 bdbf fae3 6bbe 977d 083f
00000130: d9ca 363f b36e f0be e9e8 853e 5694 a2bf
00000140: 465f 61bd b91d 74bf 1644 06bc aecb 993d
00000150: b3fb 27bf 035d 433f bbe0 853e 402a 41c0
00000160: 964e bebf 9ed7 a8bf 3b1b 383f d609 00bf
00000170: e8b8 f33e 6ab2 35bf e821 f23e 35f0 863f
00000180: e90b 2ebe 7540 84be f14b cf3b be7a 0fbd
00000190: a14a 193e 4be2 193f 1afe 5e3e 379f a0be
000001a0: 77a7 9b3e ff6d 23be ef18 61bf f274 c13a
000001b0: 2024 22be 8f7f 813f 190e fabe 1e18 1fbf
000001c0: ec55 50bf 5622 0940 19d1 b43f de31 b7bd
000001d0: 2398 943f 09d6 16c0 bcfc 833d f01c 9cbf
000001e0: 5760 c6bf 744e e6be 29e1 533e 3348 19bf
000001f0: 1d11 3e3d 1bc6 97be 568e 7f3f d16b 40be
00000200: 846c 243f 7aad 8b40 a666 1bbe 06c8 7dbe
00000210: f01f 4bbf cafa b93e 6186 ddbe 2b57 2a3d
00000220: ce8b db3f 047e 1b3e 5843 fcbe 28e1 a5be
00000230: 89ef 97be 1dc0 55bf c9ee 81be c63b a53f
00000240: 0e6e 5a3e a242 84bf 5e88 873f de19 f8be
00000250: fe08 9e3e 0159 9dbe 3069 bc3e 6964 1f3d
00000260: f255 4cbd 0acf 21bd f356 d13d a8a8 f5be
00000270: d36e b7be e282 143e b22d 4e3c 2e17 bc3e
00000280: 9df1 b6be 7c4e 3240 1459 aabd ca31 44bf
00000290: e4b3 dabe 3465 773f eec4 d8be b572 10bf
000002a0: bd9b 3fbf 63f5 dbbe be99 8a3e 848b 3040
000002b0: 59fd c93e 0de3 1c40 6c19 a63e dc1b 7cbf
000002c0: dfe6 36be 8552 2840 4e98 893d 42d0 d23f
000002d0: a3bd 91bf 4c7d c9be ec28 1b3e 0e2a c8bf
000002e0: 3eee e8bf f497 83bf 8cc8 843f 6815 48bf
000002f0: 7339 a03e 734e 10bf 7f3b 70bf f365 ae3f
00000300: 1b7f a13f 687c 07bf b200 1c3e 37b6 093f
00000310: d206 bebe 31a0 1d3e b343 d2be 9200 abba
00000320: 5d7b f4be 8e2a a93d 7003 77be d5a6 3f3f
00000330: 25de 743e b460 80be 7032 d93e 36b7 c23e
00000340: b744 13be 567e 143f a869 4a3e 5c3f 1940
00000350: 3cc4 36bf 5339 2bbf cc01 89bf c00e c8bf
00000360: 3715 f0be 8434 af3f 9754 47be 46cd 0b3f
00000370: 771d 013f 022f 1a40 2afd c4bd b770 b23f
00000380: 6666 cb3f 4fcd 343e 5cd1 623f 7a73 963c
00000390: e284 01bf 240d a9be 3dc8 b3bd 3e60 fd3e
000003a0: b1ea 9abf 4ca5 653e f141 8fbb f1d7 a93f
000003b0: 9c34 df3e 45f5 f7be d1c5 87bf c1b7 f3bd
000003c0: b162 f1be 615f e83e e4e1 c9be d424 15bf
000003d0: 8f50 363f 86df 57bf c2a4 a1be a6ed 54be
000003e0: 3202 6ebe 85f5 933f c106 62be 1072 853f
000003f0: f620 3ebf 0cbc d1bd cced 253c 1e7e 04be
0.19878411 0.87867635 0.13811287 0.38130203 0.12991063 -1.8171853 0.12561753 -0.32853693
-0.26492345 0.23544605 -0.025830623 -0.5198054 0.23913632 -0.88505656 -0.009592073 -0.7678696
0.8216304 0.7554742 0.11243027 0.1787917 0.70885956 5.421652 -0.30642396 0.025324294
0.3063726 0.8666731 -1.1221673 0.38371196 -1.781004 -0.03290942 0.24805622 -0.32436708
0.225584 -0.59794086 0.69921815 0.47923487 0.77045685 0.3559147 -0.07084818 0.14753608
-0.030918803 -1.0470089 -0.20541564 0.0008163216 0.80155236 0.74236375 1.6625582 1.0837803
0.6776614 0.5072523 0.019955995 0.30052957 0.036799066 0.92432165 -0.19547804 -0.46252874
-0.0025712368 1.1092175 -0.3135602 0.79839057 1.0131353 -1.1246909 0.82143056 -0.13950337
-0.53650796 0.28087986 -1.3903697 -0.6909287 -0.798334 -0.23459116 1.7285502 0.154576
0.74616855 -1.4766792 -0.23036185 0.53316635 0.7140327 -0.46959457 0.2615426 -1.2701519
-0.0550225 -0.95357853 -0.008194944 0.07509552 -0.6561844 0.763138 0.26148018 -3.0182037
-1.4867733 -1.3190801 0.7191655 -0.5001501 0.4760201 -0.70975363 0.47291493 1.0542055
-0.16996731 -0.25830427 0.0063261916 -0.035029165 0.14969875 0.6011092 0.2177662 -0.3137147
0.30401203 -0.15959929 -0.8792867 0.0014759584 -0.15834093 1.0117053 -0.4883888 -0.62146175
-0.81381106 2.1427207 1.4126312 -0.08945058 1.1608928 -2.3568137 0.0644469 -1.2196331
-1.549815 -0.4498173 0.2069136 -0.5987579 0.04640304 -0.2964333 0.9982656 -0.18791129
0.6422808 4.3649263 -0.15175876 -0.24783334 -0.7934561 0.3632415 -0.43266585 0.041587036
1.715204 0.1518479 -0.4927013 -0.32398343 -0.29674938 -0.83496267 -0.2537749 1.2908866
0.21331045 -1.0332835 1.0588491 -0.48457235 0.30866235 -0.30731967 0.36799002 0.038914118
-0.04988665 -0.03950409 0.10221662 -0.47980237 -0.3582674 0.14503053 0.012584137 0.36736435
-0.3573121 2.7860403 -0.083177716 -0.7663847 -0.4271537 0.966388 -0.42337745 -0.5642503
-0.7484701 -0.42960653 0.2707042 2.7585154 0.394511 2.451358 0.3244127 -0.9848001
-0.17861508 2.6300366 0.06718503 1.6469805 -1.1385998 -0.39353406 0.15152329 -1.5637834
-1.8197706 -1.0280747 1.0373702 -0.78157663 0.3129383 -0.56369704 -0.93840784 1.3624862
1.2616915 -0.52924204 0.1523464 0.5379366 -0.37114578 0.1539314 -0.41067275 -0.0013046435
-0.4775037 0.0826007 -0.24122405 0.7486394 0.23912866 -0.2507378 0.42421293 0.38030404
-0.14381681 0.58005273 0.19766867 2.3944921 -0.7139318 -0.66884345 -1.0703673 -1.5629501
-0.46891186 1.3687901 -0.19465862 0.546101 0.50435585 2.4091191 -0.096186 1.3940648
1.5890625 0.17656444 0.8860071 0.01836561 -0.5059339 -0.33017838 -0.08778427 0.4948749
-1.2102872 0.22426337 -0.0043718745 1.3269025 0.43594825 -0.48429313 -1.0607244 -0.11900283
-0.47145608 0.45385268 -0.39430153 -0.5825932 0.7121667 -0.84325445 -0.31571013 -0.2079378
-0.23243025 1.1559302 -0.22072889 1.0425434 -0.74269044 -0.10240945 0.010127496 -0.12938735

bias f4 [48]
00000000: 9dd5 aabd 5de6 973e d42c 823e c2aa 8bbe
00000010: de69 52bd 5c8c 6d3e 165d a0bd cf91 29be
00000020: 2929 03be 402b fc3d 84bd a3bd 3985 05be
00000030: d5d3 353d ffe8 86be 02b0 233d 43a4 7d3e
00000040: 3801 8bbe 786a 70bd 81fc 06be 09cd bbbe
00000050: 1b88 483f f003 12bf 5a2f 973e 4255 41bf
00000060: 049f 1b3e a484 64be 10b9 49be 9b05 0f3f
00000070: c736 40bf d4ac 01bb d3de ce3f ab7b 1f3f
00000080: d73f 873e 5170 0cbe 806a e53e 3dff 2d3f
00000090: ebe0 27be 40c2 333e d708 28bf ff68 f1bd
000000a0: d3c9 103f fc80 4b3e dd9c aebe 870a f8bd
000000b0: f4c9 14bf 6489 533f aab5 863f c99f ba3e
-0.08341525 0.2966794 0.25424826 -0.27278715 -0.051370494 0.23198074 -0.07830255 -0.16559528
-0.1280867 0.12312937 -0.079951316 -0.13039102 0.044391472 -0.26349637 0.039962776 0.24769692
-0.27149367 -0.058695287 -0.1318226 -0.36679867 0.7833268 -0.5703726 0.29528314 -0.7552072
0.15197378 -0.22316223 -0.19699502 0.5586793 -0.75083584 -0.0019786851 1.616175 0.6229808
0.26415893 -0.1371472 0.44807816 0.6796759 -0.16394393 0.17554569 -0.6563849 -0.117876045
0.5655796 0.19873422 -0.34104052 -0.12111383 -0.58120656 0.82631516 1.052419 0.3645003

weight f4 [32, 1152]
00000000: 4e64 9a3c 65b9 b13e 4e15 02bd 6c84 e33e
00000010: 6ced 79bf 1aaa b1bd 61d2 fdbe c2e6 08c0
00000020: 0890 8ebe 5af8 0d3f 486b 28be 0e93 9cbe
00000030: 40ed 10bf c851 a8be a030 673e 1ab6 b4be
00000040: 9f8b 1f3f 811b 33be fd97 b6bd 324d 153f
00000050: 6270 29be ea53 5fbf d052 243f 29b9 2340
00000060: 5524 ac3e 70cd 88bf a823 283f 63f0 303f
00000070: 131f 9e3d cd4e a23e 1b3b ab3e e56d 66bf
00000080: 48e2 433f 0c75 42bf 884c 02c0 0f50 7d3f
00000090: 7f82 d0be bc1d f3be a7af 85be 5624 9fbe
000000a0: c6e5 993f 2a12 203d 95e5 0bbf ccc4 663e
000000b0: 5b58 9cbf 95bd 66bf 8d54 7dbf 0873 63bf
000000c0: afb1 81bf bf4b 573f 8a84 0fbf 3afb 01bf
000000d0: b00e 88bf f47a 91be 2a05 64bf 1e55 0fc0
000000e0: 27df 51be 3276 6b3f 007f 08bf 7ad6 01be
000000f0: e2e2 70bf 2ad7 2bbf 56be e8be 5e32 703d
00000100: 4a59 50be 218e cfbe 8e0e 83be ba3f 48be
00000110: dd7b 15bf 907c 72be 8b03 7cbf 818d b9bc
00000120: e16f 793e 9b0f 5d3f 54c3 4cbf a4cb ddbf
00000130: d40a 20bf c1f8 17be 6b45 fabe 7d5e 0ebf
00000140: 0365 123f 4cce bdbf 2e9f 2abf 05da 1240
00000150: fcfd 58bf e527 ac3e d7ff 4bbf 4df9 63be
00000160: 4eb4 2fbe bf3a e5bf 1847 6fbe 1900 a5bd
00000170: 722e 94bf 9a8f 5ebf bde1 5abf eeeb 84bf
00000180: 02fb 84bc 8a3c 9dbf 459d 5fbe db2f fe3e
00000190: 5539 b13f b248 753f 6e87 ec3d 6f23 b6be
000001a0: a720 cbbe bd94 a2be 49c9 323e 5261 3c3e
000001b0: 8651 0abf 7b17 303f 1743 12bf 50e2 e83f
000001c0: cd40 dcbe ce81 0d3f 823a ffbe 0282 aa3e
000001d0: 22c2 f63e 1063 5f3f b1d2 5fbf e37d 473f
000001e0: 21d3 0ebf 3fee 56bf a7a3 cd3e a73d ed3e
000001f0: 40c4 553f 7306 cfbf a2c7 91be 7da2 5fbf
00000200: 95ef d0be 0190 6cbf 2558 cabf 4c4a 953f
00000210: b128 19bf 67a5 a3be 4a4c 15bf 7d11 0abf
00000220: 8090 9c3e b3d8 583f f766 92be 4fb9 813e
00000230: 32f9 e8be dd21 983d 633a 02bf dc45 803f
00000240: 685d 02bf bc44 0840 355a 55bf 6791 84bf
00000250: 8c7e 94be b411 27bf 09de e6be 3029 5abf
00000260: 35a4 ab3e 6719 bf3e 9f12 19bf 863b 67bf
00000270: 9cb7 48bf 2b2b 59bf c272 d2be 7343 64be
00000280: f56b 0f3f 65f8 14bf e571 53bf 85e0 96bf
00000290: f819 58bf 94f7 adbf 1cb5 933e c922 10c0
000002a0: 28be d0bf 8765 aabe 0fda 21bf a75d a4bf
000002b0: 4854 98bf 3a77 97bf a845 ecbe 5086 f6be
000002c0: 56cf 40be dfae 723f fba7 b1be 2539 8b40
000002d0: bcdc acbf e5c0 5f3f 5481 90bf e7b4 dbbe
000002e0: 01d2 6e3e cefc 82bf 49fa a63d b9d5 a7be
000002f0: 2724 0abf ca29 3fbf c0c2 a73d 8364 d73d
00000300: 9979 713e db36 abbe a9ec bf3f c8d6 033f
00000310: 0074 afbf 2b79 9bbf e724 8dbd eecb 983d
00000320: 0f3f 0d3f 44bc aabf a95d 5c3e cca9 c73e
00000330: 8900 2ebf 6956 553f 0a20 b63e 1405 243f
00000340: 040c 3ebf ad14 d7be b710 f7bc 7686 06bf
00000350: 3920 593f a159 de3f fa8a 58be e4e0 1cbf
00000360: 0697 bb3e 2d21 ec3f 16ba a0be 324a d6be
00000370: e996 dbbe 2a06 34bc b006 113f 219b e2be
00000380: 81d4 8e3f 61c8 d0bf e7a4 46bf 4442 61bf
00000390: edd5 09bf 8524 81be 5442 dcbe dcde c3bc
000003a0: 8f17 2fbc 62a3 1740 302c afbe da8a f2be
000003b0: edc3 4bbf 359c 36bf 7d9c 17bf 8122 1bbf
000003c0: 9506 8a3f f717 193f 7283 22bf 7d07 4dbf
000003d0: eaa8 65bf a4c1 82bf 737b a1bf e797 13c0
000003e0: 0066 a6bf aedd c7be d634 33bf 060b 683f
000003f0: e191 45bf fe49 0bbf a919 89be 71a8 6cbf
0.018846657 0.34711757 -0.0317586 0.44436967 -0.976279 -0.086750224 -0.4957457 -2.1390843
-0.27844262 0.5545708 -0.16447175 -0.30580944 -0.56612015 -0.32874894 0.22577143 -0.35295182
0.6232242 -0.1749096 -0.08915708 0.58320916 -0.16546777 -0.8723742 0.6418886 2.5581763
0.3362147 -1.0687695 0.6567941 0.691168 0.07720771 0.31700745 0.3344353 -0.90011436
0.7651715 -0.7595985 -2.035921 0.98950285 -0.4072456 -0.47483623 -0.26110575 -0.3108241
1.2023246 0.039079823 -0.5464719 0.2253601 -1.2214464 -0.9013303 -0.9895714 -0.888474
-1.013235 0.84099954 -0.56061614 -0.50773966 -1.0629482 -0.28414118 -0.8907038 -2.2395701
-0.20495282 0.91977227 -0.53318787 -0.12679473 -0.94096196 -0.6712519 -0.45457715 0.058641784
-0.20346561 -0.40538123 -0.25597042 -0.1955556 -0.58392125 -0.2368033 -0.98442906 -0.022650482
0.24359085 0.8635194 -0.7998555 -1.7327771 -0.6251652 -0.14840986 -0.48881087 -0.5561293
0.5718538 -1.4828582 -0.6664914 2.2945569 -0.8476255 0.33624187 -0.79687256 -0.2226307
-0.17158625 -1.7908553 -0.23366964 -0.08056659 -1.1576674 -0.8693787 -0.855007 -1.03845
-0.016232971 -1.22841 -0.21837337 0.49645886 1.3845621 0.9581405 0.11549269 -0.3557391
-0.3967335 -0.31754103 0.17459597 0.183965 -0.54030645 0.6878583 -0.5713362 1.8194065
-0.4301819 0.5527619 -0.49849325 0.33302313 0.48194987 0.8726053 -0.87430865 0.7792646
-0.5579091 -0.83957285 0.4016392 0.463361 0.8350258 -1.6173843 -0.2847262 -0.8735731
-0.40807787 -0.9240723 -1.580815 1.1663299 -0.59827715 -0.3196213 -0.5831953 -0.53932935
0.30578995 0.84705657 -0.2859418 0.25336692 -0.4550262 0.07428334 -0.5087034 1.0021319
-0.50923777 2.1291952 -0.8334077 -1.0356873 -0.29002798 -0.6526139 -0.45091274 -0.852191
0.33523718 0.37324068 -0.5979404 -0.903252 -0.78405166 -0.84831494 -0.41103178 -0.22291355
0.56024104 -0.5819152 -0.82595664 -1.1787268 -0.84414625 -1.359118 0.28849113 -2.252123
-1.6308031 -0.33280584 -0.63223356 -1.284108 -1.1900721 -1.183326 -0.46146894 -0.48149347
-0.18829092 0.9479808 -0.3469847 4.3507257 -1.3504863 0.8740371 -1.1289468 -0.42911455
0.23322298 -1.02334 0.08153207 -0.32780245 -0.53961414 -0.7467314 0.081914425 0.10517218
0.23581542 -0.3344029 1.4994098 0.51499605 -1.3707275 -1.2146353 -0.06891804 0.074607715
0.55174345 -1.3338704 0.21520104 0.38996732 -0.67969567 0.83334976 0.3557132 0.6407025
-0.74237084 -0.42007962 -0.030159337 -0.5254892 0.8481479 1.7371103 -0.21146765 -0.61280656
0.3663866 1.8447624 -0.31391972 -0.41853482 -0.42888573 -0.010987798 0.5665083 -0.4425898
1.1158601 -1.6311151 -0.7759537 -0.8799174 -0.5384205 -0.25223175 -0.43019354 -0.023909979
-0.010686769 2.369347 -0.342134 -0.4737156 -0.79595834 -0.71332103 -0.5922316 -0.60599524
1.0783259 0.5980219 -0.6348182 -0.8008955 -0.8971087 -1.0215344 -1.2615799 -2.3061464
-1.2999878 -0.39036316 -0.70002496 0.9064182 -0.7717572 -0.5440978 -0.2677739 -0.9244452

bias f4 [32]
00000000: d13f 18bb 2117 d6bf 4be7 7dbf 7a4e 0bbe
00000010: 43e3 98bf 524a 453d 6efa 8abf 4a98 abbf
00000020: 6fc7 c3bf 8e53 6cbe b4a5 88bf 7bae b5bf
00000030: 4c40 dfbd 3e24 b1bf 3a72 97bf 0c1c 5dbf
00000040: 8a1e 9cbf c25d bdbf 02d6 e1bf 8055 54bf
00000050: a6d4 86bf 8a16 eb3e acef b1bf 0a37 8abf
00000060: 0bbb 6ebf 62cd 01c0 01a2 9ebf 2cbd 8fbf
00000070: 293d a5bf f9f8 a6bf a7cd a7bf 9ec6 46be
-0.0023231397 -1.6725808 -0.9918105 -0.13604155 -1.1944355 0.04816658 -1.0857675 -1.340585
-1.5295237 -0.23078749 -1.0675569 -1.4193872 -0.109009355 -1.3839185 -1.1831734 -0.8637092
-1.219682 -1.4794238 -1.7643435 -0.8294296 -1.0533645 0.45915633 -1.3901267 -1.0798047
-0.93254155 -2.0281606 -1.239319 -1.1229606 -1.290929 -1.304473 -1.3109635 -0.19411704

weight f4 [16, 32]
00000000: d98a 453c 55a3 83be ef83 eebd 5dfa 193b
00000010: ed97 81be 2fc2 68bc 2b6b 41be 67cc 48bd
00000020: 9c17 05be b27b 793c 7765 67bd b1fc abbd
00000030: 3000 9abc fde6 92bd 7656 6a3d 4977 92bd
00000040: 3f9c 8fbe a8d4 be3b 4f24 48bc 25df 123c
00000050: 6576 df3c 876b 31bc df24 fdbe e580 ccbc
00000060: a9e3 36bd 5299 b23e 312e ee3c 842b 58bd
00000070: 4203 2f3e 89aa 823d 92b7 953e 95bc ffbb
00000080: 511a 78be 522b 24bf bd1e 88bf 5873 03be
00000090: 1609 06bf 63f4 09bf b0a6 94be 05b6 3dbf
000000a0: 0722 383f 658c 19be 2b19 673f 1633 853f
000000b0: d0d3 a0be a231 5f3f a0fd ce3e 2154 50bf
000000c0: e065 82bf 4eb8 16bf 28ec 193f 0cd7 87bf
000000d0: fd1a aabf d828 053f 5642 80bf 202d 503f
000000e0: ef47 ae3f 3230 9e3d 90cb 27bf 3628 08bf
000000f0: ab8e 413f ae99 3dbe ab67 243f e924 dbbe
00000100: 8476 873c 6b74 68bc 8669 1bbe 7b5d e13b
00000110: f0b4 5d3e e8c6 f4ba 5ede 7bbd f84b 0fbe
00000120: d6cb 3bbe 28aa 683c 8fd1 7fbd a9da 68bd
00000130: 2697 89bc f837 d83d 3f2c dabd f8ed cbbd
00000140: 926a 46bd 2d2e 693b adc0 5d3d e768 6e3d
00000150: 787e 69bd b5d3 06bc 1682 55be fac8 0bbe
00000160: 94e1 df3c 5df0 4f3e d71b f93d 57d4 09be
00000170: 54e6 eb3d bd0e 60be 4bbb 9d3e 6722 f2bc
00000180: 14f8 b9bb 5f16 803c 663f 59bd 7e5e 48bc
00000190: a0c1 a5bd 3926 25bc 6b70 c4bc 985f 243e
000001a0: d2b2 2ebd 1270 6e3c b930 17bd ac9f 1b3d
000001b0: 93ee 123b b214 5dbd c002 c33d 283e 453d
000001c0: 9302 b0bd ab99 8d3d cae7 173e 591e 793c
000001d0: 98b6 3abc 7a20 0cbb 85e4 1f3e 13e8 b73c
000001e0: 0f82 79bc 7854 acbd cfd3 b8bd 8d88 c2bc
000001f0: 150b 163d 7a84 f5bc 26fc 35bc 90a7 393c
00000200: 4238 0a3b fa26 abbd 5fbb e2bd d8b4 cebb
00000210: f0ac f13d 472f aeba d282 3bbe ac56 41bc
00000220: 1a17 823b b97d 44bb a90c 48bb e20f 58bd
00000230: c8c2 833b 14b3 693d dd60 4b3e 914a 123e
00000240: 1c62 2fbe bc5c af3d 1ecb 32bc 8beb f9b9
00000250: 41e9 d3bc d1b2 9abb 661f 5fbe 694d 98bd
00000260: bd7c 003d 02b9 71be d50f 05be 2937 92bd
00000270: cdd0 023d af45 1ebd 29f7 e3bd e485 b63c
00000280: 30ab fd3c 5142 35be 6849 1b3b 0ec4 3c3b
00000290: 57e2 8aba a4c0 bfbb 802d 75bd 0b79 b03c
000002a0: a725 eabd 74b3 d43c d5e7 6d3c 95df ffbc
000002b0: f805 d7bc 25d7 0ebd 9dcf 5fbd f58d 8f3d
000002c0: 153d f8bd 043b 7f3d c7f5 4e3d e9f1 0b3b
000002d0: a217 763c eddc 03bc d864 75be 20f2 8ebc
000002e0: 3c52 323d 636d a73d 747d 1ebd e9a6 37be
000002f0: ee08 53bd 9985 7a3d cc58 6f3e c2af 0fbd
00000300: 2d25 9e3b 748c 7d3e eaf3 3cbe f9ef 27bb
00000310: 771e 3fbe 9c8b e03b 3c95 513e 5b4e dd3c
00000320: 2db7 b9bd 3cc8 db3b e0fd af3c 0b11 313e
00000330: 3558 213c b83e dc3a f181 94bc 5206 b1bd
00000340: 4d02 703e c6e1 df3d 6bb2 c9bc 9181 973d
00000350: 69a8 92bd a129 58bb d879 963e f596 463c
00000360: 4bb4 663d a684 f4ba 0f86 0c3e 16ee 17be
00000370: 0f4c 0f3d f78f b13d f724 d9bd 0a78 e4ba
00000380: d617 4d3c 6821 9cbd ee22 163e af87 203c
00000390: 55d1 f13d a0f3 98bc da24 37bd b81d 273e
000003a0: d662 5bbd 8330 623c b735 91bd c387 01bd
000003b0: 0c94 e8bc 81e5 debb d6e5 063e 350a 913d
000003c0: 91f7 60be 275c d53e 71c0 413e 9ec0 36bd
000003d0: 1500 513c 225e 0e3c bd3b aa3e 542f 023e
000003e0: ed35 bebd 5474 173d 5b39 21bc 35ab fb3d
000003f0: f844 333e 58a0 7dbe c891 10be 786e a3bc
0.01205703 -0.2571055 -0.11646258 0.0023495175 -0.25311223 -0.014206453 -0.18888538 -0.04902306
-0.12997288 0.015227245 -0.05649325 -0.083978064 -0.018798918 -0.07172964 0.05721136 -0.07151658
-0.28048894 0.0058236904 -0.012215688 0.008964335 0.027278135 -0.010828859 -0.49442193 -0.024963805
-0.044650707 0.348826 0.02907476 -0.052775875 0.17091087 0.06380183 0.29241616 -0.007804463
-0.24228789 -0.641286 -1.063438 -0.12836969 -0.52357614 -0.5388853 -0.29033422 -0.74105865
0.7192692 -0.14994963 0.9027278 1.0406215 -0.314116 0.8718511 0.40427876 -0.8137837
-1.018734 -0.58874977 0.6012597 -1.0612502 -1.3289486 0.5201545 -1.0020244 0.81318855
1.3615702 0.07724036 -0.65544987 -0.5318636 0.7560832 -0.18515655 0.64220685 -0.42801598
0.016536005 -0.014187912 -0.15176973 0.006877599 0.21651053 -0.0018675001 -0.061491363 -0.13993824
-0.18339476 0.014200725 -0.06245571 -0.056849156 -0.016795706 0.1055755 -0.106529705 -0.09957498
-0.048441477 0.0035580501 0.054138828 0.05820551 -0.057005376 -0.008229186 -0.20850405 -0.13650885
0.027329244 0.20306535 0.12163513 -0.13459907 0.11518541 -0.21880622 0.30806956 -0.02955742
-0.005675325 0.015635667 -0.053038977 -0.01222956 -0.08093572 -0.010079914 -0.023979386 0.16052091
-0.042651005 0.014553087 -0.0369117 0.03799407 0.0022420033 -0.053974815 0.09522009 0.04815498
-0.08594241 0.069140755 0.14834514 0.015204989 -0.011396073 -0.0021381662 0.15614517 0.022449529
-0.015228762 -0.08414549 -0.09024774 -0.023746753 0.036631662 -0.029970396 -0.01110748 0.011331454
0.0021090661 -0.083570436 -0.110708944 -0.0063081793 0.11800563 -0.0013289236 -0.18311623 -0.011800449
0.003970039 -0.0029982163 -0.0030525124 -0.052749522 0.0040210225 0.057055548 0.19861169 0.14286257
-0.1712727 0.085626096 -0.010912685 -0.00047668474 -0.02586806 -0.0047210236 -0.21789321 -0.0743664
0.03136896 -0.23605731 -0.1299432 -0.07139427 0.03193741 -0.038640674 -0.111311264 0.02228064
0.030965418 -0.17701079 0.0023694877 0.002880338 -0.0010596019 -0.005851822 -0.059857845 0.021542093
-0.11432963 0.025964476 0.014520605 -0.031234542 -0.026247963 -0.034873147 -0.054641355 0.07009498
-0.121210255 0.06231214 0.05052736 0.0021353906 0.015020283 -0.008048278 -0.2396425 -0.017449439
0.043535456 0.08175161 -0.03869386 -0.17934765 -0.051522188 0.061162565 0.23373717 -0.035079725
0.004826209 0.2476061 -0.18452421 -0.0025625213 -0.18663965 0.0068525802 0.20467085 0.027014902
-0.09068141 0.0067072194 0.021483362 0.17291658 0.00984769 0.001680336 -0.018128367 -0.08643784
0.23438378 0.10931735 -0.02462121 0.0739776 -0.07161028 -0.0032983797 0.29389834 0.012120952
0.056324285 -0.0018655255 0.13723014 -0.14836916 0.034984645 0.08670037 -0.106027536 -0.0017430794
0.01251789 -0.07623559 0.14661762 0.0097979745 0.11807505 -0.018670857 -0.04471288 0.1631993
-0.053561054 0.013805511 -0.070903234 -0.031623613 -0.028390907 -0.0068022613 0.13173613 0.07082025
-0.21969439 0.4167187 0.18921067 -0.044617288 0.012756367 0.008689435 0.33248702 0.12713367
-0.09287629 0.036976174 -0.009840335 0.122885145 0.17506778 -0.24768198 -0.14118111 -0.019950137

bias f4 [16]
00000000: bf8a b2bb aed0 82bc c9ef 6dbb 5215 89ba
00000010: 0c1e 31bb 8fb5 11bb ae7a 9d3b 3e65 c0ba
00000020: cd59 caba ab2a b1ba 4320 91ba 9c2e 283b
00000030: d05d 1f3d a48f 30be f174 08b8 169b 29bb
-0.0054486687 -0.015968647 -0.0036306253 -0.0010458624 -0.0027025966 -0.0022233461 0.0048058843 -0.001467861
-0.001543814 -0.0013516744 -0.0011072237 0.0025662547 0.038907826 -0.17242295 -3.2533837e-05 -0.0025879792

weight f4 [1, 16]
00000000: ddf3 f53c 9364 ad3e 6495 9f3c 5641 b03b
00000010: b940 a53b 5387 983c 2a0f f7bb e6cf 323c
00000020: 1e8f 1e3d 8cb1 ea3b ac21 1b3c 4887 80bb
00000030: f500 d93e d246 03bf 0978 6d3d 4430 613a
0.03002351 0.33865795 0.019480415 0.0053788824 0.005043116 0.018619215 -0.0075396495 0.010913825
0.038710706 0.0071622785 0.009468477 -0.003922377 0.42383543 -0.5127994 0.057975803 0.0008590261

weight f4 [1, 1152]
00000000: 6fbf 233e 4726 c5bd 78a9 33be 2123 44be
00000010: d3fc 91bd 2210 063d 879a 133d 66f0 98be
00000020: cd9d 61bd 2a07 833d a2db ee3e 4c32 8abd
00000030: 75b1 1bbf 2549 e83e 1d45 32be 1785 dfbe
00000040: f1c2 e53e 7768 3b3f 55b6 b73d e5b1 b4be
00000050: 8c39 f2bd 975d 87be 748f 013e 71e4 82be
00000060: 52f3 1c3d 4634 68bd 4c79 dabd e10e 82be
00000070: 259e 80bc 73b0 12bd a1d3 753c 5ddc e43c
00000080: 0530 413d 8f7b d5be c106 3a3f 8c5a 163f
00000090: 9136 01bf 6593 22be 7269 453d 2db7 81bc
000000a0: 65a4 e6be 1dd7 583f 8868 1ebf 568b 22bf
000000b0: 5b6f 2abf adfd 8c3e 80b1 9fbe 9fa0 62bf
000000c0: 56d5 efbe 1c41 5dbf 4a97 9dbe 03a9 953f
000000d0: b78b 0fbe c045 35bf 6894 cf3e 75d9 5e3d
000000e0: 1e0b 86be 5907 873e 17ac 673e fda3 16bf
000000f0: a427 2d3c 145e 41be 62f1 903e 6346 c73c
00000100: 45c3 dabd dfb2 9c3d f538 b53e 2620 a63e
00000110: 8d54 25bd e7c4 1bbf 9638 e2bd a74a 3f3e
00000120: d523 8ebd 3a0a 553d 7ac8 203f cc57 923d
00000130: e4af 87bd eb4b 3e3f 6c6e f7be 8fad 8b3d
00000140: 8dbf 8abe 67d4 7abf 7abd 5c3f fd83 6bbf
00000150: 9d35 a63d b358 af3d 957c a73d 71f4 30be
00000160: 8f95 86bd 7013 cf3e 5d8d 4dbd d042 97be
00000170: dd72 ddbb 5a5a 3abe 270a b33a 60e7 acbf
00000180: 5688 e23c e7af 993e d46f 963e 4bca 553e
00000190: eb19 a9ba d449 34be 85bb 03bd 151d a8be
000001a0: 8e12 513e b291 1ebe f748 1ebe 7db9 b5be
000001b0: 1705 e33d f833 27bf b431 503e 5d47 79bd
000001c0: caa4 cebc f053 83bf 1b04 133e 9a6e 403e
000001d0: 49d7 4ebc 6d7e 4dbd aa6c 8a3d d017 8fbd
000001e0: 4234 213d 4ae0 2d3d fbc5 d9bc 9e3a abbf
000001f0: 355a 85be 07fd 1e3f 8b51 423d 1176 77be
00000200: 7e2b 3dbe 2e64 f8be 5711 393f 1ad9 c63e
00000210: ff11 8bbc 221a bd3f 0d08 b63e c03b a1be
00000220: 24dc 83be d3aa 4abe 11bc b53e db0c 643d
00000230: 50f1 833f 1c97 03be bc8b c7bd 8c62 edbe
00000240: 84d1 273e 17db 22bf f5f6 95bb f89b 12be
00000250: 31dd 7abd a60c 9e3e efe0 d23d 4f1e 173f
00000260: b259 ddbc 6429 983d 3e56 863e a1ba bbbf
00000270: 546f 90bd d33a 423f 197f b03e e510 553d
00000280: 47e8 a13d c977 a8be a35b b73e 54c5 433f
00000290: 0b80 9a3d 54a2 fb3e 3065 cabe bfee 8e3d
000002a0: ae24 2a3e 8362 bb3c d017 153e 8c28 943c
000002b0: 33d9 c73e 3d24 2a3f a0bc 813e 3c4c 21bf
000002c0: 9014 bebb 2606 2d3f 6332 983d 6f5c 8e3e
000002d0: 5dc6 5fbe 0e37 47bf 2fcb adbe 4851 a8be
000002e0: 17c3 36bd 833c fcbd 8d16 24be fc12 66bd
000002f0: fb92 e7bd eef5 86bd eacf 1d3e b0f0 a4be
00000300: 010c d5bd 9c88 7c3c 8876 273d 7313 b43e
00000310: d92b 19bd 89ad 973e 321a b03c 1161 9dbd
00000320: 85b7 25be 3663 343e 9022 50bd 293e b7be
00000330: 075d e7bd bcd2 173f 8ec7 df3e 0c06 44bd
00000340: 95e1 5b3e 22ef 35be 928c 63bc 5107 b7bd
00000350: 63c8 babd 8a29 043a 367d a83c 0a5b c3bd
00000360: 2d66 c23c 378a 823d 620c ecba db34 d43f
00000370: 4c82 fcbd 69b9 89bd 4cb7 2ebc ec09 0c3d
00000380: e21a 00bf b4d2 503d 97b8 48bd 73c6 4bbe
00000390: 0b25 7b3e c8be c2be f5e6 9b3e 3306 6f3e
000003a0: 31d3 40bd 2462 43bf fcdd 5c3e dde2 5cbf
000003b0: 5762 d3be a331 533f 37d9 583d 53d0 c83f
000003c0: c26d 683d 8a39 193f 9355 c2bd 23f3 d63e
000003d0: 1372 bdbe 5dae c1bd 0462 543f 7ebe 04be
000003e0: 8789 6dbe 8649 933d 2021 8f3d 2ac5 32be
000003f0: 40d4 39bd ea32 4b3e 9a2d 423e 1d4c 1fbe
0.15990995 -0.096264414 -0.17545116 -0.19154026 -0.071283005 0.03273023 0.03603604 -0.2987091
-0.05508213 0.06397851 0.46651942 -0.067478746 -0.6081765 0.45368305 -0.17409177 -0.43656227
0.4487529 0.73206276 0.08970324 -0.35291973 -0.118273824 -0.2643859 0.1265238 -0.25564912
0.038317986 -0.056690477 -0.10667667 -0.25401977 -0.01570041 -0.035812806 0.01500407 0.027937109
0.047164936 -0.4169583 0.72666556 0.58731914 -0.50473887 -0.15876539 0.048196264 -0.015834415
-0.45047298 0.84703237 -0.6187825 -0.6349386 -0.66576165 0.2753729 -0.3119011 -0.8852634
-0.4684245 -0.86427474 -0.30779487 1.1692203 -0.1401814 -0.70809555 0.40542912 0.054406602
-0.26180357 0.26372793 0.22624241 -0.58843976 0.010568533 -0.18883544 0.2830916 0.024325555
-0.10681776 0.076513045 0.35395017 0.32446402 -0.040363837 -0.60847324 -0.11045949 0.18680821
-0.06940428 0.052011706 0.628059 0.07145652 -0.06625345 0.7433459 -0.48326433 0.06820213
-0.27099267 -0.9798035 0.8622662 -0.91998273 0.08115695 0.0856184 0.08178059 -0.17280747
-0.06571495 0.40444517 -0.050183643 -0.2954316 -0.0067580775 -0.18198529 0.0013659642 -1.350811
0.0276529 0.30017015 0.29382193 0.2087795 -0.0012901401 -0.17606288 -0.032161254 -0.32834688
0.20417234 -0.15485266 -0.15457521 -0.3549308 0.11084955 -0.65313673 0.2033146 -0.060859073
-0.025225062 -1.0259991 0.14357035 0.18792191 -0.01262457 -0.050169397 0.06759007 -0.06986964
0.039356478 0.042450227 -0.026583662 -1.3377264 -0.26045385 0.6210484 0.047441047 -0.24166133
-0.18473622 -0.4851393 0.72292084 0.3883751 -0.016976355 1.47736 0.35553017 -0.31490898
-0.2575389 -0.19791727 0.35495046 0.055676322 1.0308018 -0.12850612 -0.09743449 -0.46364248
0.16388518 -0.63615555 -0.0045765587 -0.1431731 -0.0612461 0.30869025 0.10296809 0.5903062
-0.02702031 0.0742977 0.26237673 -1.466633 -0.07052484 0.7587101 0.34471968 0.052018065
0.079056315 -0.3290389 0.358121 0.76472974 0.075439535 0.49147284 -0.39530325 0.06979131
0.16615555 0.022874122 0.14559865 0.01808574 0.39032897 0.66461545 0.25339222 -0.6300695
-0.005800791 0.67587507 0.074314855 0.27804896 -0.21853013 -0.7781838 -0.3394408 -0.32874513
-0.044619646 -0.12316229 -0.16024227 -0.05617045 -0.11307331 -0.06589876 0.15411344 -0.3221488
-0.1040268 0.01541343 0.040884525 0.3517109 -0.037395332 0.29624584 0.021496866 -0.076845296
-0.16183288 0.17615971 -0.05081421 -0.35789612 -0.112970404 0.5930593 0.43706936 -0.04785733
0.21472771 -0.17767003 -0.013888495 -0.08936942 -0.09120252 0.000504159 0.020567518 -0.09538849
0.023730362 0.06374019 -0.0018009061 1.657863 -0.1232954 -0.06724817 -0.010663819 0.03418915
-0.5004102 0.050982192 -0.049004164 -0.19899921 0.2452585 -0.3803618 0.30449644 0.23342209
-0.047076408 -0.76321626 0.21569055 -0.86283666 -0.41285965 0.82497615 0.052941527 1.5688576
0.0567453 0.5985342 -0.09488978 0.41982374 -0.37001094 -0.09457085 0.8296206 -0.12963292
-0.23196994 0.07191758 0.0698874 -0.17458025 -0.045368433 0.19843641 0.18962708 -0.15556379
