MLIPs/CACE-LES/water/cace-r-4.5-nl-1-nu-3/best_model.pth (torch, 65186 bytes, 13 tensors)

embedding_weights f4 [2, 2]
0.27811602 0.13671078 -0.7120966 0.5790614
00000000: 3965 8e3e e9fd 0b3e f64b 36bf 5e3d 143f

embedding_weights f4 [2, 2]
0.28911355 0.009327161 -0.022405747 0.65705764
00000000: b106 943e f3d0 183c 428c b7bc ee34 283f

bessel_weights f4 [6]
0.3089056 1.2693558 1.9242834 2.7363498 3.7013566 4.702068
00000000: e028 9e3e 407a a23f eb4e f63f 5b20 2f40
00000010: 07e3 6c40 5777 9640

0 f4 [6, 12, 4]
0.3994888 0.042007063 -0.18757132 0.0010985096 1.2950728 0.013527013 -0.0024273961 0.007938386
0.16599946 1.4077859 0.0001927445 0.0029258982 0.41456 -0.08305915 0.003833607 0.1979843
1.7783387 3.6395986 -0.07643285 0.00090140157 1.0216811 0.35806018 0.0010103447 -0.0040168613
0.8105836 -1.0168065 -0.0011685045 -0.065988906 -0.16282654 0.06734278 0.003921413 0.47418538
1.1648508 -0.28940755 0.16292901 -0.07402434 0.74010086 -0.08295138 0.2973827 0.82416415
1.5290699 3.9908044 0.0008842286 -0.17821872 -3.5335019 0.0045880256 0.49703816 0.4377112
-0.20845425 -0.014004562 0.45999762 0.007565574 0.5389609 -0.0007269957 0.007437437 -0.012040517
-0.09983583 -0.09819655 -0.0039607543 -0.0024236115 1.567795 0.028884878 -0.009739463 -0.72317237
0.8379245 0.40614268 0.19865416 -0.0017394356 1.4338543 1.3581579 -0.0068193683 0.0073952563
1.3238616 0.72819304 -0.00068459153 0.12385199 0.005341653 -0.022151612 -0.016681897 0.5189962
-0.6958277 0.08636182 -0.004158979 -0.040255886 1.2689091 0.09055287 0.26106542 1.701586
1.6091728 0.8557826 -0.006063902 1.1826584 -0.023505371 0.00083316886 -1.0768665 0.046479415
0.087841436 0.0039188038 -0.2621861 0.031230725 -0.13670169 -0.0029627588 -0.0032286916 0.039226912
-0.77519554 0.040286146 0.0046698344 -0.008234598 1.2360651 -0.013917369 0.0047558267 -0.21664898
-0.8284922 0.39786008 -0.12478463 -0.019985685 0.895709 -0.50353414 0.005437334 -0.009475349
1.341924 0.8210834 0.0038192433 -0.064499125 -0.64368093 0.010391983 0.012501963 0.14481439
0.14037685 -0.04879687 -0.51282185 0.017606862 0.69660413 -0.048828434 0.42056096 0.45007756
1.074356 -0.39965641 0.0054923967 3.1071365 0.53711283 -0.0006047984 0.20304586 -0.1851938
-0.111890525 -0.000916222 0.15066876 -0.009635581 -0.5897686 -0.0017953942 0.0051430585 -0.017008675
-0.28746736 0.07353852 -0.004144213 0.0007578024 1.2609451 -0.010413655 -0.0032003548 -0.18175404
-0.039429195 -0.542363 0.06190476 0.0027046404 0.85976034 0.17058626 -0.0052152434 0.00659939
0.48281944 -0.3529748 -0.0037107205 0.08706867 0.16148397 0.0019349252 -0.009722592 -0.28656745
-0.13544355 -0.026499605 0.1802704 0.027954247 0.9585595 -0.03457431 -0.4184147 -0.29207763
0.9698915 -0.4505077 -0.00998533 1.3665061 0.3527792 -0.0015189921 -0.11447877 -0.2230061
0.07849569 -0.0074752662 -0.08812534 -0.007100198 0.09673529 0.0077661886 -0.006419729 -0.000942096
0.3967703 -0.1452681 0.004595315 0.0036866656 0.29990643 0.026873218 0.00010505241 0.436101
0.09081382 0.16839541 -0.014131587 0.0065412223 0.6011304 -0.022614093 0.0038736798 -0.0011773609
0.042541515 -0.83989614 0.004250812 -0.10071905 0.41642937 -0.011625255 0.0055013415 0.30961108
0.05873947 0.093238674 0.16064681 -0.07830113 0.43576595 0.07636294 0.63832074 0.54486746
0.67670304 0.057763617 0.011780236 -0.14943725 0.18752107 0.0040893876 0.14195928 0.5120188
-0.027695 -0.012346358 -0.0023481313 0.021756362 0.27225623 -0.0017163401 0.006625359 0.016709069
0.5216998 -0.026230386 -0.0074900165 0.0012774081 0.21181849 0.022711208 -0.0011679105 0.23149052
00000000: cc89 cc3e 990f 2c3d b212 40be defb 8f3a
00000010: f2c4 a53f 68a0 5d3c f314 1fbb 0110 023c
00000020: c3fb 293e 5432 b43f 751b 4a39 6dc0 3f3b
00000030: 3541 d43e ea1a aabd 413d 7b3b 65bc 4a3e
00000040: 9aa0 e33f 2fef 6840 d388 9cbd 094c 6c3a
00000050: 72c6 823f aa53 b73e 8b6d 843a e09f 83bb
00000060: 6882 4f3f b726 82bf 8128 99ba 3125 87bd
00000070: 00bc 26be 03eb 893d 327f 803b 6dc8 f23e
00000080: d519 953f 3a2d 94be ddd6 263e 139a 97bd
00000090: 4077 3d3f 6ae2 a9bd 8c42 983e 6cfc 523f
000000a0: 90b8 c33f 5769 7f40 94cb 673a f87e 36be
000000b0: e524 62c0 2657 963b c97b fe3e af1b e03e
000000c0: 0875 55be 6473 65bc cf84 eb3e a2e8 f73b
000000d0: 57f9 093f db93 3eba beb5 f33b 9745 45bc
000000e0: ba76 ccbd 461b c9bd 37c9 81bb 74d5 1ebb
000000f0: 82ad c83f fb9f ec3c 4592 1fbc d321 39bf
00000100: 3882 563f eff1 cf3e ff6b 4b3e c6fd e3ba
00000110: 8a88 b73f 1ed8 ad3f 0275 dfbb e853 f23b
00000120: 4c74 a93f dc6a 3a3f 2976 33ba 1da6 fd3d
00000130: 0809 af3b 4c77 b5bc 79a8 88bc efdc 043f
00000140: c421 32bf 77de b03d 0b48 88bb 5be3 24bd
00000150: 9d6b a23f c873 b93d 5eaa 853e 92cd d93f
00000160: 60f9 cd3f 9214 5b3f b2b3 c6bb 5a61 973f
00000170: 568e c0bc 0469 5a3a c3d6 89bf 3361 3e3d
00000180: 36e6 b33d 4f69 803b 423d 86be 94d7 ff3c
00000190: 87fb 0bbe d82a 42bb 7598 53bb 66ac 203d
000001a0: 3773 46bf 1603 253d 6905 993b 68ea 06bc
000001b0: 6237 9e3f ad05 64bc c4d6 9b3b 3bd9 5dbe
000001c0: 1118 54bf 51b4 cb3e 168f ffbd 05b9 a3bc
000001d0: 2f4d 653f 9de7 00bf aa2b b23b 7f3e 1bbc
000001e0: 2ac4 ab3f 8632 523f 454c 7a3b 1e18 84bd
000001f0: 46c8 24bf 2343 2a3c 09d5 4c3c 394a 143e
00000200: f3be 0f3e 3adf 47bd 4b48 03bf 443c 903c
00000210: a654 323f 5300 48bd c453 d73e 9170 e63e
00000220: 7f84 893f c49f ccbe 90f9 b33b 53db 4640
00000230: 3a80 093f 558b 1eba 41eb 4f3e 72a3 3dbe
00000240: dc26 e5bd 9e2e 70ba e948 1a3e 8ede 1dbc
00000250: 13fb 16bf 6f53 ebba 1a87 a83b c755 8bbc
00000260: ec2e 93be 5d9b 963d 2ecc 87bb 42a7 463a
00000270: a666 a13f 099e 2abc 0bbd 51bb bb1d 3abe
00000280: 8280 21bd 4dd8 0abf d88f 7d3d 5640 313b
00000290: 4119 5c3f 2aae 2e3e a2e4 aabb b23f d83b
000002a0: 1c34 f73e 1db9 b4be 8f2f 73bb 0f51 b23d
000002b0: 0e5c 253e 519d fd3a 824b 1fbc f8b8 92be
000002c0: b7b1 0abe b315 d9bc ce98 383e 4e00 e53c
000002d0: 2864 753f cb9d 0dbd 743a d6be 338b 95be
000002e0: cf4a 783f f2a8 e6be 8299 23bc ace9 ae3f
000002f0: 7a9f b43e eb18 c7ba d873 eabd b65b 64be
00000300: 59c2 a03d 14f3 f4bb 0f7b b4bd c7a8 e8bb
00000310: 271d c63d 837b fe3b 975c d2bb fef6 76ba
00000320: 7a25 cb3e 29c1 14be 4c94 963b fc9b 713b
00000330: 568d 993e 3925 dc3c 954f dc38 a148 df3e
00000340: 99fc b93d d96f 2c3e 2c88 67bc c057 d63b
00000350: afe3 193f 3141 b9bc 90dd 7d3b ad51 9aba
00000360: 0340 2e3d 6f03 57bf 654a 8b3b ca45 cebd
00000370: 3b36 d53e db77 3ebc 9944 b43b 5885 9e3e
00000380: cc98 703d ebf3 be3d 9980 243e 585c a0bd
00000390: b71c df3e 2c64 9c3d fd68 233f 6f7c 0b3f
000003a0: 693c 2d3f 8b99 6c3d e401 413c 1406 19be
000003b0: 8605 403e 4500 863b c65d 113e aa13 033f
000003c0: a0e0 e2bc 6148 4abc 1be3 19bb 663a b23c
000003d0: 2b65 8b3e d1f6 e0ba 8a19 d93b 75e1 883c
000003e0: 1e8e 053f 1be1 d6bc d06e f5bb b46e a73a
000003f0: f2e6 583e db0c ba3c 9314 99ba da0b 6d3e

1 f4 [6, 12, 4]
3.8317935 -2.1793618 -2.1693459 -0.7924734 -1.4987603 -0.24120341 -1.5688221 0.8620866
5.2757287 -2.2162068 2.7767963 -1.4450035 -4.3397946 1.594431 1.335447 2.7091508
1.629532 -0.31178847 1.0069642 0.86931264 0.15829387 2.8644958 -0.3716028 0.09778567
-5.0803566 -0.014713432 1.9719335 2.3489783 3.6713753 0.8729229 2.6660116 0.7716522
4.8527994 3.4764314 -1.176644 0.38134062 -3.684792 2.1861126 -0.5053312 -1.2526696
2.3230448 2.1176727 -0.2145324 1.1186666 4.0477467 -1.9936302 -3.47099 1.5614341
2.5733051 -1.3780944 1.0012155 0.33109447 1.1289601 -0.16198237 -0.42612758 0.2786427
0.006693478 1.5784185 1.5576845 -0.7932411 -1.3520194 1.0415804 2.0615451 1.0217184
-0.4542337 -0.087402634 0.47588882 1.9044636 1.8621178 0.8965231 -0.3188173 0.46069443
0.0019355641 -1.0127002 -0.23878968 2.4919393 1.0776637 0.3885736 2.1558034 1.2676269
1.8266317 1.8103654 -0.43337193 0.56025505 -1.4746623 -0.8065432 -1.9888914 -2.3344405
1.371061 0.7553006 0.28258094 1.4603468 1.3935628 -0.014398636 0.7164021 2.0035815
0.24146679 0.04383237 0.39590824 1.089116 0.7531441 0.006774933 0.35971317 -1.3456367
-0.2160283 -0.17207646 -1.1560416 1.4666137 0.9297325 0.46580687 -0.64598 -0.1262894
0.26239383 0.755027 0.3577987 0.32279652 -0.3648508 0.18065275 0.9433204 -0.11865272
0.4225677 -0.7452011 -0.26580608 0.07670581 -1.1404179 -0.58479506 -0.058757443 -0.54615784
-0.17314826 0.4517675 0.6654274 0.7921025 0.86472744 -1.2430753 1.5123209 -1.1539512
0.41888273 -1.4950577 0.5717187 1.7913536 -0.98557764 1.2565532 -0.364554 1.0899118
-0.5316246 0.19583248 -0.682664 0.028776618 0.24726464 1.0329673 -0.7792125 -0.7561838
0.13919838 -0.061364934 -0.31259623 1.1935313 1.5824794 1.2258986 -0.7316723 -0.6715586
0.8698845 0.88442206 0.97745687 1.5143197 0.12252447 -0.055437442 0.9113293 1.4452536
0.019320652 -0.40922114 0.48439616 -0.7456444 -1.2995178 0.9906728 -1.1944939 -1.7965926
-0.088438846 0.05601547 2.89986 1.1632693 0.71718985 -0.4510427 -0.7589907 -0.2139771
0.70872766 -0.26119646 1.5406133 0.006816893 0.18202913 1.7031767 0.6957527 0.47145954
-0.80076295 0.63823014 0.17144167 -0.018001942 -0.4951296 0.7795654 0.7527378 1.5430218
0.4093712 -0.03287057 0.39099175 0.7047535 0.82631767 0.974922 0.72524583 -0.18194878
1.1005689 1.0885462 1.5819674 1.2881182 -0.48394212 0.5841075 1.3193321 1.6021842
-0.08192689 0.5711419 0.519089 1.0979217 -0.049094774 0.42943755 0.7166318 0.63960385
0.012731778 -0.15140282 2.2652164 2.398096 0.23608017 -0.2117264 0.597458 0.8266681
1.7527581 0.15698422 1.3438377 0.08014183 1.0049746 0.33275506 0.19520468 0.13514663
-0.24475327 0.63254654 0.34290352 0.07531809 0.014484627 -0.22972265 -0.6438141 1.2349287
0.26324722 0.20616211 0.339903 0.40925163 -0.06955819 0.35702983 0.44288355 0.43295866
00000000: 1b3c 7540 aa7a 0bc0 90d6 0ac0 89df 4abf
00000010: 61d7 bfbf 07fe 76be 2acf c8bf b5b1 5c3f
00000020: c5d2 a840 55d6 0dc0 08b7 3140 e0f5 b8bf
00000030: 99df 8ac0 5116 cc3f edef aa3f ba62 2d40
00000040: 8194 d03f bda2 9fbe 34e4 803f 468b 5e3f
00000050: ca17 223e e653 3740 b942 bebe da43 c83d
00000060: 4892 a2c0 9b10 71bc 5168 fc3f a955 1640
00000070: d0f7 6a40 e077 5f3f ef9f 2a40 008b 453f
00000080: 224a 9b40 da7d 5e40 459c 96bf 143f c33e
00000090: a2d3 6bc0 45e9 0b40 635d 01bf 7a57 a0bf
000000a0: c4ac 1440 f387 0740 62ae 5bbe 7830 8f3f
000000b0: 2487 8140 462f ffbf b324 5ec0 13dd c73f
000000c0: 08b1 2440 6665 b0bf d427 803f 3785 a93e
000000d0: c481 903f b5de 25be 652d dabe 42aa 8e3e
000000e0: f754 db3b 9e09 ca3f 3562 c73f d911 4bbf
000000f0: f90e adbf 8252 853f 5bf0 0340 abc7 823f
00000100: 5291 e8be 2700 b3bd b3a7 f33e 77c5 f33f
00000110: e059 ee3f 8a82 653f 053c a3be 24e0 eb3e
00000120: c1b2 fd3a 29a0 81bf 4885 74be ef7b 1f40
00000130: e2f0 893f 1ef3 c63e aff8 0940 9941 a23f
00000140: 11cf e93f 0eba e73f ede2 ddbe e06c 0f3f
00000150: bcc1 bcbf 9d79 4ebf fe93 febf 7967 15c0
00000160: ed7e af3f 615b 413f 73ae 903e a5ec ba3f
00000170: 4460 b23f 42e8 6bbc 2166 373f ae3a 0040
00000180: 1243 773e 9289 333d 7cb4 ca3e 2768 8b3f
00000190: 0dce 403f 4200 de3b 532c b83e d33d acbf
000001a0: 8636 5dbe d034 30be 2cf9 93bf ffb9 bb3f
000001b0: f302 6e3f 3d7e ee3e f25e 25bf 0252 01be
000001c0: 7c58 863e 7349 413f 6431 b73e 9645 a53e
000001d0: b9cd babe 09fd 383e 727d 713f 3200 f3bd
000001e0: cb5a d83e 80c5 3ebf bc17 88be f017 9d3d
000001f0: 37f9 91bf 21b5 15bf a5ab 70bd 00d1 0bbf
00000200: c74d 31be 124e e73e 7359 2a3f 3bc7 4a3f
00000210: c75e 5d3f 171d 9fbf bb93 c13f acb4 93bf
00000220: cc77 d63e 0d5e bfbf 285c 123f 134b e53f
00000230: d14e 7cbf bcd6 a03f d2a6 babe 3b82 8b3f
00000240: 8d18 08bf 4f88 483e 11c3 2ebf f1bc eb3c
00000250: f132 7d3e 4638 843f 787a 47bf 4395 41bf
00000260: 058a 0e3e cc59 7bbd 9d0c a0be a2c5 983f
00000270: af8e ca3f 3fea 9c3f e04e 3bbf 44eb 2bbf
00000280: c0b0 5e3f 7c69 623f 9d3a 7a3f 3ad5 c13f
00000290: 1cee fa3d 5f12 63bd e14c 693f 12fe b83f
000002a0: 5846 9e3c 6f85 d1be c602 f83e 8de2 3ebf
000002b0: 9956 a6bf bc9c 7d3f 2de5 98bf bff6 e5bf
000002c0: 6d1f b5bd 7a70 653d 4e97 3940 02e6 943f
000002d0: c199 373f 12ef e6be 374d 42bf d01c 5bbe
000002e0: 2d6f 353f 8bbb 85be d132 c53f 3e60 df3b
000002f0: d865 3a3e b201 da3f d91c 323f 2563 f13e
00000300: cdfe 4cbf 0d63 233f 688e 2f3e cf78 93bc
00000310: a081 fdbe 9991 473f 6db3 403f bd81 c53f
00000320: 1a99 d13e 4aa3 06bd 1230 c83e ba6a 343f
00000330: 8e89 533f 7d94 793f b6a9 393f c850 3abe
00000340: 71df 8c3f 7b55 8b3f e87d ca3f 0fe1 a43f
00000350: 43c7 f7be 1288 153f e0df a83f 5f14 cd3f
00000360: 49c9 a7bd 5b36 123f 04e3 043f b388 8c3f
00000370: 9a17 49bd 3ddf db3e 2f75 373f 14bd 233f
00000380: f398 503c 5709 1bbe 4ef9 1040 687a 1940
00000390: 00bf 713e cece 58be 02f3 183f 85a0 533f
000003a0: 615a e03f 79c0 203e e002 ac3f 6621 a43d
000003b0: 02a3 803f df5e aa3e bce3 473e e163 0a3e
000003c0: 9aa0 7abe 92ee 213f 0d91 af3e 5f40 9a3d
000003d0: ee50 6d3c 6a3c 6bbe 00d1 24bf 2512 9e3f
000003e0: 57c8 863e 291c 533e c407 ae3e 6e89 d13e
000003f0: 8674 8ebd 9dcc b63e a2c1 e23e c2ac dd3e

2 f4 [6, 12, 4]
0.2791591 3.3282933 0.4034584 -1.2073157 4.697514 2.3238673 -0.21470065 1.6764852
2.000847 0.41163954 1.4548584 0.87218654 1.248016 0.28153506 1.9828022 -0.16957119
-0.03767514 2.7434082 -0.39158252 1.2500467 -3.9985027 2.6734111 -0.13463514 1.1179734
-1.3933066 2.5711014 -0.06057297 1.7338089 -0.6509602 -0.8836154 -0.32867458 0.22777975
3.426753 -1.9530988 -0.1264275 -0.0802664 2.0903978 0.914837 1.1674045 1.4180344
-1.6890644 3.185341 1.6533083 1.2428122 -0.08097437 0.55595 0.54322815 0.45018294
-0.3612313 1.1796035 1.410348 -1.6104985 -0.16931783 0.08081071 0.74639934 2.6484265
2.1615906 1.1303613 1.3777984 1.0356646 -0.6774358 0.28279492 0.3594388 0.59465295
-1.3232042 2.2113304 0.10360933 1.8884802 -1.254958 2.1712759 -0.3493803 0.24248755
0.021895753 0.20611677 0.56501204 2.537884 1.1632777 0.14922032 2.0190094 1.0720191
0.67846954 0.6057032 0.19994329 -1.7796801 1.474142 0.9847926 0.7846166 -0.13296819
1.4849869 -1.140868 -0.20195436 1.3166469 0.09913173 0.7401693 -1.0074829 1.9029491
0.5779395 0.25092003 0.932563 1.8255582 -0.08276326 -0.24223134 0.9167041 2.7302248
1.1214669 -0.07163566 -0.007851415 1.1456934 -0.48598844 0.9253303 -1.1008576 0.811514
1.1034361 0.58403087 -0.34730345 1.5283885 0.8433186 1.0278085 1.4413056 1.0021814
0.9881765 -0.86435026 0.8831488 0.67309415 0.1960261 0.8642866 -0.1371044 2.3265038
-1.0679458 1.5916713 1.0078583 0.15323292 -1.8457168 0.84475 0.051160205 -0.99793893
-0.21175408 0.7913757 0.6463824 1.053413 0.9550015 0.9885314 -0.09016989 1.8837713
1.7915775 -0.12460084 0.01661151 0.06367069 -0.5192758 -0.9543647 1.6132768 -2.6814446
0.17549355 0.3073614 -0.66630465 0.29423806 0.96942306 1.9816147 -0.75713056 -0.34343293
0.6951407 0.110065065 1.453737 -1.2194595 -0.035211645 0.69271845 -0.31542486 -1.1226166
1.5573578 -0.5271098 1.7665008 0.09860973 1.1195145 1.7023786 -0.616595 0.7766083
-0.3609701 0.54630613 2.5316346 1.352866 0.9502153 1.0809289 0.20577838 0.18700874
-0.9631271 0.095496096 -0.8699624 1.5369067 0.4003084 1.0426534 -0.07004279 1.77428
1.6132774 -0.100787625 -0.6175602 -0.0637878 0.22416918 -0.54920113 2.0319452 -3.071164
0.089420184 -0.6697929 0.31910118 -0.9803598 1.53853 1.9312727 0.6427924 0.7344081
-0.15656178 -0.39291295 -0.791086 -0.042315528 0.01957314 0.15412879 -0.21793438 0.7032779
1.7259216 0.791577 1.7461007 0.43042308 1.5466683 1.4677441 0.21554302 -0.11545595
1.5492197 -0.4701163 1.6743435 1.515059 0.1438072 0.76486486 1.0434728 1.1276078
0.19960645 0.168026 0.7061133 0.92220324 1.0608119 0.04410376 0.86616254 0.38844356
0.39669323 0.009398056 0.2721495 -0.134505 0.7319847 0.2697415 0.6838409 -0.42284968
-0.0040389723 -0.11367418 -0.6062373 -0.17080657 0.819786 0.6514359 0.51354516 0.5211172
00000000: f1ed 8e3e c202 5540 1992 ce3e 5289 9abf
00000010: 0952 9640 3eba 1440 7dda 5bbe 1197 d63f
00000020: e10d 0040 6bc2 d23e cd38 ba3f 9e47 5f3f
00000030: fdbe 9f3f 5d25 903e 76cc fd3f 12a4 2dbe
00000040: 3f51 1abd 0094 2f40 817d c8be 8801 a03f
00000050: 78e7 7fc0 2b19 2b40 cbdd 09be c119 8f3f
00000060: df57 b2bf ed8c 2440 5d1b 78bd 73ed dd3f
00000070: 54a5 26bf 9e34 62bf 0948 a8be 183f 693e
00000080: ec4f 5b40 24ff f9bf 3676 01be b662 a4bd
00000090: 14c9 0540 c232 6a3f 836d 953f 2782 b53f
000000a0: 4333 d8bf a0dc 4b40 9b9f d33f 7814 9f3f
000000b0: e4d5 a5bd bd52 0e3f 0011 0b3f 617e e63e
000000c0: 4ff3 b8be 3ffd 963f 4986 b43f d124 cebf
000000d0: a761 2dbe 1680 a53d 0714 3f3f d27f 2940
000000e0: 8057 0a40 aeaf 903f b35b b03f a890 843f
000000f0: 6f6c 2dbf 7fca 903e 5d08 b83e 2d3b 183f
00000100: c15e a9bf 7086 0d40 2131 d43d b8b9 f13f
00000110: 77a2 a0bf 2ff6 0a40 fae1 b2be a84e 783e
00000120: b95e b33c 4610 533e a1a4 103f b16c 2240
00000130: 49e6 943f 36cd 183e 7337 0140 ec37 893f
00000140: 2eb0 2d3f 5d0f 1b3f efbd 4c3e 8fcc e3bf
00000150: afb0 bc3f 5e1b 7c3f a2dc 483f d028 08be
00000160: 0d14 be3f f607 92bf 20cd 4ebe e387 a83f
00000170: 9405 cb3d bc7b 3d3f 33f5 80bf d693 f33f
00000180: d8f3 133f 9778 803e 73bc 6e3f e4ab e93f
00000190: c97f a9bd 7e0b 78be 1fad 6a3f 01bc 2e40
000001a0: 3a8c 8f3f b8b5 92bd 39a3 00bc 15a6 923f
000001b0: 7ad3 f8be 72e2 6c3f e7e8 8cbf 62bf 4f3f
000001c0: 653d 8d3f 0c83 153f c2d1 b1be 3ca2 c33f
000001d0: bae3 573f 3b8f 833f b47c b83f 7b47 803f
000001e0: 23f9 7c3f 0f46 5dbf 0a16 623f e64f 2c3f
000001f0: 11bb 483e e341 5d3f 1965 0cbe 70e5 1440
00000200: 73b2 88bf e3bb cb3f 8001 813f 17e9 1c3e
00000210: 7340 ecbf 8941 583f 5d8d 513d ed78 7fbf
00000220: 10d6 58be 9997 4a3f 5179 253f 3dd6 863f
00000230: fa7a 743f 6510 7d3f feaa b8bd 6b1f f13f
00000240: 6952 e53f ba2e ffbd dd14 883c c765 823d
00000250: 42ef 04bf 3f51 74bf db7f ce3f ca9c 2bc0
00000260: 95b4 333e 795e 9d3e f192 2abf 5fa6 963e
00000270: 1c2c 783f 8da5 fd3f 4fd3 41bf 71d6 afbe
00000280: bef4 313f cb69 e13d 0e14 ba3f 4017 9cbf
00000290: 163a 10bd ff55 313f 5e7f a1be e7b1 8fbf
000002a0: 8057 c73f abf0 06bf b31c e23f e6f3 c93d
000002b0: 404c 8f3f 8be7 d93f 2bd9 1dbf cdcf 463f
000002c0: 13d1 b8be b8da 0b3f 4d06 2240 b72a ad3f
000002d0: 4f41 733f e15b 8a3f 91b7 523e 387f 3f3e
000002e0: 7f8f 76bf 7593 c33d dbb5 5ebf 5cb9 c43f
000002f0: 39f5 cc3e ab75 853f 9872 8fbd 9b1b e33f
00000300: e07f ce3f be69 cebd 6d18 1ebf 2ea3 82bd
00000310: 9b8c 653e 7298 0cbf 640b 0240 f38d 44c0
00000320: ee21 b73d 8c77 2bbf 3b61 a33e dcf8 7abf
00000330: 8dee c43f f233 f73f 0b8e 243f 2b02 3c3f
00000340: bb51 20be e32b c9be 9d84 4abf 0c53 2dbd
00000350: da57 a03c f0d3 1d3e 312a 5fbe 050a 343f
00000360: 00eb dc3f caa4 4a3f 3a80 df3f 6a60 dc3e
00000370: 3af9 c53f 0adf bb3f 4fb7 5c3e 2b74 ecbd
00000380: d54c c63f 15b3 f0be e350 d63f 74ed c13f
00000390: 3242 133e 2fce 433f 8490 853f 7455 903f
000003a0: a265 4c3e 020f 2c3e d7c3 343f 8315 6c3f
000003b0: afc8 873f 25a6 343d d4bc 5d3f 13e2 c63e
000003c0: 601b cb3e 4efa 193c 2e57 8b3e aebb 09be
000003d0: 5963 3b3f 8f1b 8a3e 3210 2f3f c17f d8be
000003e0: 5b59 84bb 02ce e8bd 5e32 1bbf ebe7 2ebe
000003f0: 7fdd 513f 81c4 263f b277 033f f067 053f

3 f4 [6, 12, 4]
2.3992984 -0.00042047567 0.043313086 1.1177285 1.2315301 1.0424231 -2.114018 -0.85742563
-0.2501204 0.53334713 0.57379997 -1.8340886 1.8140175 1.5767808 -1.6271592 -0.27267945
-1.854548 -2.2914162 -0.2859893 -0.3276074 2.9266782 0.62112266 1.5309081 -0.23659101
-0.8849665 1.336979 -1.7255274 -1.0463285 6.494941 0.38129324 1.5146309 0.53471357
-0.2586348 3.6523147 0.98475754 0.6299471 -4.1292768 0.599812 1.7434765 1.6987637
2.1242795 -1.0841143 -0.5171713 0.8737461 1.9670287 -1.0888582 1.9591129 -0.13314776
1.8270713 1.3093637 0.78311896 0.9830279 -0.06541104 1.0128706 -1.2590356 -1.0593681
0.033673752 -0.94254047 -1.2995038 -1.1735684 -1.1081216 -0.08684766 0.9130037 0.36438954
1.8741162 -0.67050177 0.55300915 -1.0469015 -1.7990742 0.48087364 0.1483717 0.7754789
0.96415913 1.1715759 2.112333 -1.3384161 -0.5074792 0.99372864 0.8570861 1.3322241
-1.6704991 1.7906919 0.05612158 1.0304997 0.2525298 1.928906 0.9100631 1.0676479
-0.582183 -0.15930846 -0.065404356 1.5524607 1.045987 0.2966437 1.4753754 0.71380734
0.71407735 1.033097 1.881187 -1.1446353 -0.8640739 0.73107374 1.4485493 -0.5170845
0.24010319 0.8634258 1.5295205 0.9737021 -0.5908863 0.29349804 0.7314239 1.1058507
0.25748646 0.484918 0.27442968 -0.50136375 1.7470646 -1.1365124 1.2311468 0.27003422
0.52093464 -0.6584752 -0.80922127 -0.17254582 0.07387095 -0.030354073 1.1644533 1.7151349
0.6104746 0.56849706 0.17584047 1.8228314 0.62955475 1.11672 -0.7506812 0.8470619
-0.15854722 0.017850257 0.80446035 -1.4696054 -0.6561691 -0.3772516 -0.12761733 2.0324101
-0.26172346 -0.260384 2.864248 0.017305799 1.3065886 0.43200156 0.41034445 0.95335066
1.1297102 -0.17811467 -1.196074 1.6417449 -0.16655284 0.9630565 0.3314733 0.45126566
0.21501097 1.0914935 1.3336061 1.8219999 -0.10440842 0.7686866 -0.3661007 1.4791313
0.74691623 -0.25408524 0.057041645 1.6288567 -0.6689718 0.11760241 -0.74574345 0.85310435
0.9772686 -0.077550426 1.3294579 0.22565539 -0.7181228 0.6361074 0.41902745 0.021816155
1.193947 1.4701755 1.3918265 -0.32860103 1.0233313 0.4509267 -0.2615607 0.096365094
-0.59550196 -0.9833576 2.1646042 0.13553931 0.92674696 0.088887684 -0.24513254 -1.1682285
1.3592066 0.0393059 0.53568107 -0.2628268 0.8815548 1.5406889 -0.56900823 1.0832058
-0.16654725 0.988585 1.5634534 0.5598574 -0.33471552 -0.44952 -0.48077986 -1.0212034
1.2232051 0.16329825 -0.6389611 -0.17305855 0.4321535 0.6822629 -0.15695766 -0.75785273
-0.4458084 -0.10823537 0.30314627 -0.75972825 0.20756397 -0.09701198 -0.020107154 -0.9290576
0.9160782 0.9397216 0.9416318 -0.16350697 0.8083504 0.9965189 1.0850512 -0.79923177
-0.05588983 -0.36763954 0.62564117 0.21626309 0.39807284 0.010751264 -0.052704476 -0.85517937
0.3325939 0.70569986 -0.19292708 -0.006686223 1.0735973 0.5218294 0.19494274 0.24903496
00000000: 1b8e 1940 4a73 dcb9 1069 313d ba11 8f3f
00000010: c7a2 9d3f 1f6e 853f 124c 07c0 3f80 5bbf
00000020: c80f 80be 7089 083f 8ee4 123f 6ac3 eabf
00000030: ba31 e83f f4d3 c93f c146 d0bf a49c 8bbe
00000040: d461 edbf 90a6 12c0 316d 92be 28bc a7be
00000050: b24e 3b40 e501 1f3f ccf4 c33f ea44 72be
00000060: 2a8d 62bf 2122 ab3f 15de dcbf 18ee 85bf
00000070: 8fd6 cf40 de38 c33e 6ddf c13f fde2 083f
00000080: c86b 84be 86bf 6940 1219 7c3f 3744 213f
00000090: 0923 84c0 478d 193f 3d2a df3f 1771 d93f
000000a0: 32f4 0740 42c4 8abf 5765 04bf d3ad 5f3f
000000b0: 99c7 fb3f b55f 8bbf 36c4 fa3f e357 08be
000000c0: 79dd e93f 3b99 a73f 7c7a 483f b7a7 7b3f
000000d0: 39f6 85bd bea5 813f 1428 a1bf 6099 87bf
000000e0: 7ded 093d 554a 71bf 2456 a6bf 7d37 96bf
000000f0: eed6 8dbf 30dd b1bd 9cba 693f 4491 ba3e
00000100: 0ae3 ef3f 01a6 2bbf 0292 0d3f de00 86bf
00000110: 1048 e6bf 1235 f63e c0ee 173e c985 463f
00000120: 22d3 763f 33f6 953f 7730 0740 3851 abbf
00000130: 28ea 01bf 0065 7e3f ff69 5b3f 5286 aa3f
00000140: ead2 d5bf 6435 e53f bedf 653d 6ae7 833f
00000150: 964b 813e 64e6 f63f e5f9 683f b0a8 883f
00000160: f209 15bf c221 23be b8f2 85bd 08b7 c63f
00000170: e7e2 853f afe1 973e 1ad9 bc3f 14bc 363f
00000180: c6cd 363f 863c 843f bcca f03f 6983 92bf
00000190: f233 5dbf a627 3b3f 106a b93f a65f 04bf
000001a0: 9cdd 753e 7909 5d3f 54c7 c33f 8a44 793f
000001b0: 5344 17bf 6045 963e 993e 3b3f 848c 8d3f
000001c0: 44d5 833e 2c47 f83e 0c82 8c3e 6059 00bf
000001d0: d09f df3f 3d79 91bf 3896 9d3f ed41 8a3e
000001e0: f95b 053f d591 28bf 2029 4fbf daaf 30be
000001f0: a749 973d 1ba9 f8bc ce0c 953f 8a89 db3f
00000200: 1048 1c3f 0689 113f 860f 343e 8a52 e93f
00000210: 802a 213f aef0 8e3f a52c 40bf 0cd9 583f
00000220: 345a 22be b43a 923c 1df1 4d3f 081c bcbf
00000230: b3fa 27bf 1f27 c1be 1eae 02be 0213 0240
00000240: 9e00 86be 0d51 85be d74f 3740 e4c4 8d3c
00000250: 4c3e a73f 4f2f dd3e ab18 d23e ca0e 743f
00000260: 589a 903f b163 36be f418 99bf b224 d23f
00000270: d48c 2abe df8a 763f deb6 a93e 4b0c e73e
00000280: d62b 5c3e 0fb6 8b3f 9bb3 aa3f 4b37 e93f
00000290: 15d4 d5bd a5c8 443f 8d71 bbbe 2d54 bd3f
000002a0: e735 3f3f 7617 82be 80a4 693d 607e d03f
000002b0: bc41 2bbf 88d9 f03d 0be9 3ebf 0c65 5a3f
000002c0: 462e 7a3f c2d2 9ebd ad2b aa3f 3512 673e
000002d0: e5d6 37bf efd7 223f c48a d63e cbb7 b23c
000002e0: 41d3 983f b62e bc3f 5f27 b23f 653e a8be
000002f0: 85fc 823f dddf e63e 49eb 85be 105b c53d
00000300: d172 18bf 53bd 7bbf e088 0a40 d1ca 0a3e
00000310: 4a3f 6d3f bf0a b63d 0604 7bbe 8388 95bf
00000320: 7bfa ad3f 39ff 203d 6522 093f 3c91 86be
00000330: 93ad 613f 4b35 c53f 86aa 11bf 7da6 8a3f
00000340: 5d8b 2abe e813 7d3f 3e1f c83f d152 0f3f
00000350: d55f abbe 7c27 e6be c728 f6be cbb6 82bf
00000360: fc91 9c3f a837 273e f492 23bf 4336 31be
00000370: 3943 dd3e c8a8 2e3f 82b9 20be a302 42bf
00000380: 0041 e4be 81aa ddbd fd35 9b3e 8d7d 42bf
00000390: a68b 543e 38ae c6bd c2b7 a4bc b8d6 6dbf
000003a0: 1a84 6a3f 9891 703f c80e 713f 5f6e 27be
000003b0: 0df0 4e3f dd1b 7f3f f5e2 8a3f 749a 4cbf
000003c0: bcec 64bd 403b bcbe 052a 203f 1274 5d3e
000003d0: 34d0 cb3e 1226 303c a6e0 57bd 09ed 5abf
000003e0: bf49 aa3e bfa8 343f ad8e 45be 1b18 dbbb
000003f0: a36b 893f 9d96 053f 129f 473e 0503 7f3e

weight f4 [32, 288]
-0.06214392 0.020649618 -1.309317 -0.024111588 1.753597 0.10899685 -0.73711526 0.31560078
-0.39492017 0.075641714 -0.28584862 -3.3608377 -0.63020104 -0.13538301 -0.1069126 -0.005009634
0.2700807 0.31583485 -1.9249449 -2.911044 0.8099804 0.512799 -1.16945 5.2614875
-1.5461378 -0.012630215 0.0074898354 -0.06387304 0.59610397 0.45635852 0.26419547 0.7536213
-0.6596525 -0.17800121 -0.056473732 1.6375672 -0.89966136 -0.17965174 0.57766306 -0.9106565
0.6135091 0.70406616 3.9780295 1.195517 5.1706743 3.6369915 -2.9164329 -1.8799771
0.07291746 0.21082066 0.0070111826 0.014176621 -0.5644036 1.3585329 -0.93344676 -1.2801969
0.40188974 0.5187614 -0.21997938 -0.78409094 -0.61907893 -1.9013531 1.8529209 0.42745402
0.014854154 -0.59373105 0.46808016 0.43743056 2.2994175 -0.33113888 9.810546 -6.1005654
-0.094138116 -0.052759014 -0.00097757 -0.20180966 -0.95566344 -0.23149972 -0.4895522 -0.45158696
-1.0576409 0.4223532 -3.3799312 -1.6895311 -0.35191497 0.0131774545 -0.60895336 -2.1033812
-1.7266206 -1.728441 6.475747 -1.4385835 1.6934701 2.9482346 7.663247 -0.7264259
-1.1354934 -0.37952924 0.3734083 0.019860914 -3.3555365 0.40187666 0.45296225 -0.044024553
-3.0550492 -0.24771827 1.7138035 -1.27642 -0.7101585 1.42246 1.8203874 1.410204
-1.5598644 1.000677 -0.5851055 0.3866456 -2.7552745 0.41892177 -1.8032377 9.436364
-0.31183296 -1.1345826 0.0057706097 0.03834556 -0.9966098 -1.1113954 2.4053175 1.6199849
1.8832124 -0.08178066 0.56208235 0.73603547 -3.1057441 -0.4258589 1.2057676 -0.2275771
3.5295827 0.6519156 -0.5081929 -2.5941212 2.2470443 0.9242879 -1.8335203 1.4786866
-0.66875756 0.4139503 -8.720212e-05 -0.13298753 0.06464943 0.44259024 -0.7038344 -0.32921383
1.1995708 -0.8001564 0.25003466 0.64919925 -1.0039396 -0.9370388 -2.8405218 -0.56750953
1.1658357 3.9758918 -0.7730596 -0.3283111 -0.8015234 1.5807047 1.3414475 -2.668643
0.53301775 0.03093192 0.0060736295 -0.29685053 -0.8927008 1.1164483 -0.4402094 0.8754321
-2.078653 -0.5262778 -1.8336254 2.6985867 0.36995292 0.33632758 -0.4489445 -0.010661377
0.88023037 4.5432734 4.371579 3.3619926 0.56674534 -2.695812 -1.7528993 3.9694977
-0.3437678 -0.15963182 -0.90191543 0.15566015 0.07043046 0.791238 -0.47249117 -0.74410874
-0.26136723 -0.00404236 0.05463875 -1.1883643 -2.0491946 0.18275106 2.7425232 0.23480228
4.0248456 -1.2900378 -1.0485666 10.173107 -4.6467295 -0.07412385 -0.5391957 1.6146593
-0.36588642 -0.32020524 2.2682977 -0.42933625 0.20022778 -0.38785177 -1.5600404 1.4513775
-0.8208033 0.54762375 -0.9622595 0.061614797 -1.174505 0.90868515 -1.4309292 -0.5429288
-3.4996588 -1.1134326 3.2046247 2.5655553 6.096857 0.6024107 2.728002 2.0513585
-0.47317427 -1.6805998 -0.0020644092 -0.55270714 0.24293163 -0.96129745 1.7439009 0.8880442
-0.34449533 0.16824883 1.9743013 -2.2198253 -0.28621095 -1.8408269 -0.22597753 0.20258516
00000000: a08a 7ebd 6329 a93c b397 a7bf aa85 c5bc
00000010: de75 e03f be39 df3d 96b3 3cbf 6d96 a13e
00000020: fa32 cabe 0bea 9a3d c05a 92be f717 57c0
00000030: db54 21bf d8a1 0abe fef4 dabd db27 a4bb
00000040: 0448 8a3e 1bb5 a13e 9864 f6bf 8b4e 3ac0
00000050: e05a 4f3f cc46 033f 8ab0 95bf 1b5e a840
00000060: d8e7 c5bf f6ee 4ebc 4b6d f53b decf 82bd
00000070: 459a 183f d3a7 e93e a144 873e 53ed 403f
00000080: fcde 28bf f345 36be 0051 67bd cd9b d13f
00000090: 3550 66bf a0f6 37be bae1 133f c920 69bf
000000a0: ef0e 1d3f ae3d 343f 0998 7e40 b306 993f
000000b0: 2a76 a540 78c4 6840 d6a6 3ac0 17a3 f0bf
000000c0: c055 953d 5fe1 573e 10be e53b 0f45 683c
000000d0: c17c 10bf 68e4 ad3f 5ef6 6ebf 7edd a3bf
000000e0: 7ec4 cd3e 8ccd 043f 4642 61be 2fba 48bf
000000f0: f57b 1ebf 8a5f f3bf 832c ed3f 41db da3e
00000100: d65e 733c c2fe 17bf 34a8 ef3e e6f6 df3e
00000110: a829 1340 098b a9be fff7 1c41 d537 c3c0
00000120: 7ccb c0bd d619 58bd ce21 80ba 31a7 4ebe
00000130: 5ca6 74bf 430e 6dbe 96a6 fabe 6836 e7be
00000140: c760 87bf ae3e d83e cb50 58c0 8e42 d8bf
00000150: 332e b4be 40e6 573c 5ee4 1bbf cc9d 06c0
00000160: e701 ddbf 8e3d ddbf 5239 cf40 8123 b8bf
00000170: a1c3 d83f e0af 3c40 5239 f540 0cf7 39bf
00000180: d957 91bf a851 c2be 5f2f bf3e 5bb3 a23c
00000190: 1cc1 56c0 c7c2 cd3e abea e73e 1753 34bd
000001a0: ed85 43c0 dca9 7dbe ea5d db3f bb61 a3bf
000001b0: f3cc 35bf 2b13 b63f 7402 e93f 9181 b43f
000001c0: a3a9 c7bf 2f16 803f 79c9 15bf 69f6 c53e
000001d0: 6b56 30c0 ea7c d63e 7ed0 e6bf 59fb 1641
000001e0: 92a8 9fbe 013a 91bf 6217 bd3b 3c10 1d3d
000001f0: d221 7fbf 3442 8ebf b9f0 1940 aa5b cf3f
00000200: 1b0d f13f 9e7c a7bd a1e4 0f3f d26c 3c3f
00000210: 83c4 46c0 2e0a dabe 9856 9a3f f909 69be
00000220: afe4 6140 f1e3 263f ee18 02bf 1506 26c0
00000230: 93cf 0f40 229e 6c3f cbb0 eabf 9a45 bd3f
00000240: b233 2bbf 4bf1 d33e 48e0 b6b8 e22d 08be
00000250: ec66 843d 309b e23e 7e2e 34bf b78e a8be
00000260: 898b 993f 0dd7 4cbf 8b04 803e ec31 263f
00000270: 1881 80bf c6e1 6fbf 1ccb 35c0 4e48 11bf
00000280: 1b3a 953f 0375 7e40 3ce7 45bf 6418 a8be
00000290: a330 4dbf 8854 ca3f 8db4 ab3f 0ccb 2ac0
000002a0: da73 083f f064 fd3c 4c05 c73b cbfc 97be
000002b0: 0a88 64bf c7e7 8e3f 2063 e1be 511c 603f
000002c0: a708 05c0 24ba 06bf 3db4 eabf a5b5 2c40
000002d0: 786a bd3e 2133 ac3e 0edc e5be 0ead 2ebc
000002e0: c756 613f 7f62 9140 fae3 8b40 e32a 5740
000002f0: 3916 113f 2f88 2cc0 015f e0bf 400c 7e40
00000300: 5502 b0be 8676 23be eee3 66bf 6065 1f3e
00000310: d83d 903d 938e 4a3f 5dea f1be e97d 3ebf
00000320: edd1 85be c675 84bb e2cc 5f3d 521c 98bf
00000330: 0126 03c0 1823 3b3e 8085 2f40 0270 703e
00000340: 89cb 8040 f51f a5bf 6e37 86bf 0cc5 2241
00000350: 02b2 94c0 3fce 97bd bb08 0abf 28ad ce3f
00000360: 7755 bbbe f1f1 a3be ca2b 1140 f6d1 dbbe
00000370: 8308 4d3e 8294 c6be 67af c7bf bdc6 b93f
00000380: 2a20 52bf 1231 0c3f a356 76bf cc5f 7c3d
00000390: 2e56 96bf 979f 683f b028 b7bf 62fd 0abf
000003a0: 69fa 5fc0 f684 8ebf 9218 4d40 0f32 2440
000003b0: 7419 c340 9637 1a3f 9697 2e40 7549 0340
000003c0: e643 f2be e51d d7bf 0a4b 07bb 377e 0dbf
000003d0: 12c3 783e 9717 76bf 2538 df3f dd56 633f
000003e0: b161 b0be 6c49 2c3e e8b5 fc3f 9e11 0ec0
000003f0: 3e8a 92be 37a0 ebbf a766 67be 7c72 4f3e

bias f4 [32]
-0.6213549 -0.20183678 -2.0904834 -0.16481955 0.40251067 -0.58846724 -1.4992628 -0.8047841
-0.50410825 -0.52375627 -0.34954843 0.09468002 -0.76628757 -0.7801851 0.4793527 -0.34859493
-1.1123412 -0.40267077 -1.1334672 -0.059819654 -0.49270064 -1.0904431 -0.05293945 -1.1164813
-0.014419008 0.7026663 -0.77238196 -0.879658 -0.34692115 -2.0048108 -0.22592977 -0.8526771
00000000: 1d11 1fbf 4dae 4ebe 7bca 05c0 75c6 28be
00000010: e115 ce3e caa5 16bf d8e7 bfbf 5506 4ebf
00000020: 3d0d 01bf e414 06bf 03f8 b2be 99e7 c13d
00000030: 6c2b 44bf 36ba 47bf b86d f53e 097b b2be
00000040: 3261 8ebf dd2a cebe 7415 91bf 7405 75bd
00000050: 4243 fcbe a493 8bbf 09d7 58bd dce8 8ebf
00000060: b43d 6cbc f0e1 333f d3ba 45bf 4431 61bf
00000070: a69f b1be d24e 00c0 225a 67be 0c49 5abf

weight f4 [16, 32]
-0.03840224 0.012334209 -0.047254838 -0.014086153 0.23816277 -0.13294084 0.8656235 0.2614163
-0.13320246 -0.19701406 0.04409048 0.007876956 -0.53955376 0.59679186 -0.11812333 -0.024953412
-0.06579507 -0.026161458 0.22285391 -0.09634173 0.08429969 -0.12781481 -0.04196945 1.2993469
0.014390309 -0.070704065 -0.005870206 0.10955703 0.095047385 -0.6395791 0.013887172 -0.55004156
-0.027495045 0.0086792465 -0.058900114 -0.07819606 0.1491596 0.020017957 0.8210021 0.13336913
-0.11083938 -0.23755236 0.030479707 -0.008372951 -0.6073825 0.7316674 -0.15116225 0.0026446506
0.152558 -0.029558947 -0.05071381 -0.22477277 -0.10131013 -0.08049712 -0.027576372 1.1978536
-0.0059411703 -0.06290951 -0.012405474 0.26377863 0.0956721 -0.6260297 -0.009668319 -0.403489
-1.047801 -0.84491545 0.40707034 0.78941196 -0.016552506 -0.28545436 -0.9454626 1.2129631
-0.52914697 -0.09708929 -0.4107414 1.2189823 0.024233751 0.4017866 0.4988522 0.55099934
0.654321 0.3984609 0.55018413 -0.34657955 0.32164764 0.016272938 1.2193428 -0.36715487
1.0040314 0.57364583 0.27024812 0.28490326 -0.4759518 0.5231302 -0.8378924 0.4632223
-0.010624916 0.004816625 0.009789136 0.006486204 0.026628325 -0.10384655 -0.11360952 -0.08120396
-0.09234333 0.10402196 0.024381252 0.015042133 0.1352868 0.046742454 -0.004646362 -0.0049159597
-0.030643923 -0.04177474 -0.029388955 -0.023234215 0.0910227 -0.018586192 -0.027749162 -0.009904653
-0.014685451 -0.0065711588 -0.002784932 0.13008627 -0.039262068 -0.010646706 -0.0040470394 -0.0013458728
0.77013457 -0.61164004 -0.2420877 0.36975506 -0.15233012 -0.47945377 0.04670214 -0.40301874
-0.48492226 -0.49633843 0.18330652 -0.14991578 -0.8161712 -0.37281933 -0.30633625 -0.35538548
-0.30010137 -0.7943206 -0.26748025 -0.23725748 -0.5598442 -0.60317683 0.034091506 -0.71447533
0.9874662 -0.30524194 0.4731808 -0.09755324 0.14871354 -0.66004574 0.11442503 -1.1442528
-0.002562724 -0.013995905 0.0154348295 -0.0066370443 0.045425534 -0.14246753 -0.07621087 0.021917576
0.069586344 0.080324 -0.030624587 0.024854416 -0.05071199 0.035049554 -0.0003629114 0.0013311045
0.09398024 0.038470805 0.05101441 -0.0001957361 0.07708108 -0.0029664335 -0.009081377 -0.040178202
0.01843773 -0.0023430507 -0.0112892045 -0.14893392 0.04557611 -0.011329912 -0.013990455 -0.010716468
-0.0025939741 -0.030379632 0.008605509 0.011421756 0.02671856 -0.06485274 -0.031796984 -0.07400003
-0.08860003 0.19320871 0.012092721 0.010662478 0.03025303 0.007256531 0.0012943726 -0.004734056
0.073701166 0.019621646 -0.0077603073 0.0052759363 -0.027287036 -0.012479141 -0.00054675504 0.00366422
0.04862638 -0.016239487 0.0065656723 0.10396491 0.032436576 -0.0020412738 -0.008201429 0.05087927
0.0035347948 -0.01557291 0.02375676 0.017054975 0.017355802 0.1469898 0.050819226 0.046914943
-0.09095761 -0.13326992 0.0842632 0.012824067 0.014765733 0.019446857 -0.012655411 0.00894796
-0.049662754 -0.03276876 -0.0016942007 -0.059575014 -0.012697776 -0.0069170017 -0.019512003 0.047406133
-0.008169858 -0.011850683 0.009861697 0.10287424 -0.10218786 -0.008781921 0.0050966754 0.09493244
00000000: ab4b 1dbd 6c15 4a3c 4a8e 41bd 9cc9 66bc
00000010: f1e0 733e a521 08be 8099 5d3f 5bd8 853e
00000020: 3a66 08be 0ebe 49be 3898 343d 590e 013c
00000030: 3220 0abf 5ac7 183f a5ea f1bd 196b ccbc
00000040: 91bf 86bd 8e50 d6bc d133 643e d04e c5bd
00000050: 51a5 ac3d e3e1 02be 28e8 2bbd 0051 a63f
00000060: 55c5 6b3c 4bcd 90bd db5a c0bb 705f e03d
00000070: 34a8 c23d 75bb 23bf 0587 633c 86cf 0cbf
00000080: 4a3d e1bc 6633 0e3c 3f41 71bd 4225 a0bd
00000090: 4bbd 183e b3fc a33c 322d 523f eb91 083e
000000a0: c2ff e2bd ed40 73be 94b0 f93c b42e 09bc
000000b0: 6b7d 1bbf 8e4e 3b3f 47ca 1abe e051 2d3b
000000c0: 2a38 1c3e 9b25 f2bc 49b9 4fbd d52a 66be
000000d0: af7b cfbd addb a4bd d8e7 e1bc 4453 993f
000000e0: 26ae c2bb b4d6 80bd 5440 4bbc fe0d 873e
000000f0: bcef c33d 7b43 20bf de67 1ebc 1c96 cebe
00000100: 581e 86bf 614c 58bf 866b d03e e716 4a3f
00000110: 1f99 87bc 1327 92be d609 72bf 6042 9b3f
00000120: 2d76 07bf c0d6 c6bd b24c d2be 9d07 9c3f
00000130: dc85 c63c f9b6 cd3e 8e69 ff3e 4b0e 0d3f
00000140: 9581 273f 1103 cc3e ded8 0c3f e072 b1be
00000150: 00af a43e d34e 853c 6d13 9c3f b9fb bbbe
00000160: 1a84 803f 74da 123f f65d 8a3e d7de 913e
00000170: f4af f3be dceb 053f 1e80 56bf 792b ed3e
00000180: 2114 2ebc c7d4 9d3b 9d62 203c 398a d43b
00000190: a523 da3c 80ad d4bd 1cac e8bd 434e a6bd
000001a0: 801e bdbd 7709 d53d 31bb c73c 4773 763c
000001b0: 9f88 0a3e 0475 3f3d 8240 98bb 0f16 a1bb
000001c0: f708 fbbc fd1b 2bbd 1bc1 f0bc ae55 bebc
000001d0: 1c6a ba3d 1242 98bc 3652 e3bc 2047 22bc
000001e0: 3f9b 70bc e052 d7bb 6883 36bb 5635 053e
000001f0: 43d1 20bd 866f 2ebc 079d 84bb ff67 b0ba
00000200: 8a27 453f 7194 1cbf d7e5 77be 8950 bd3e
00000210: 6dfc 1bbe f77a f5be be4a 3f3d 7958 cebe
00000220: bb47 f8be 1220 febe b4b4 3b3e 8683 19be
00000230: 99f0 50bf 2de2 bebe 1bd8 9cbe 16f5 b5be
00000240: e3a6 99be 9858 4bbf 2cf3 88be a0f3 72be
00000250: f351 0fbf cc69 1abf 89a3 0b3d dbe7 36bf
00000260: 96ca 7c3f ac48 9cbe c144 f23e fec9 c7bd
00000270: 5d48 183e c2f8 28bf ac57 ea3d e076 92bf
00000280: 60f3 27bb 154f 65bc 5ee2 7c3c 907b d9bb
00000290: 2010 3a3d 02e3 11be 7214 9cbd 7d8c b33c
000002a0: 4983 8e3d e980 a43d 6ae0 fabc 7d9b cb3c
000002b0: 60b7 4fbd 1f90 0f3d 2545 beb9 7578 ae3a
000002c0: b678 c03d 9093 1d3d 7cf4 503d 823e 4db9
000002d0: afdc 9d3d 7f68 42bb 0eca 14bc e691 24bd
000002e0: b90a 973c de8d 19bb 5bf6 38bc 2282 18be
000002f0: 04ae 3a3d 18a1 39bc 3938 65bc 2094 2fbc
00000300: aaff 29bb b5de f8bc 1ffe 0c3c 5122 3b3c
00000310: e2e0 da3c 83d1 84bd 8e3d 02bd 548d 97bd
00000320: ef73 b5bd 81d8 453e 8c20 463c adb1 2e3c
00000330: 34d5 f73c 32c8 ed3b f0a7 a93a 2420 9bbb
00000340: a3f0 963d 93bd a03c 2d4a febb c3e1 ac3b
00000350: 1089 dfbc 5075 4cbc 1c54 0fba 6923 703b
00000360: 742c 473d ac08 85bc da24 d73b 8eeb d43d
00000370: 37dc 043d e4c6 05bb 495f 06bc c866 503d
00000380: 04a8 673b 8525 7fbc 899d c23c e0b6 8b3c
00000390: c12d 8e3c 7e84 163e d227 503d e229 403d
000003a0: fc47 babd e977 08be 2f92 ac3d 091c 523c
000003b0: f9eb 713c 044f 9f3c a458 4fbc 779a 123c
000003c0: 2c6b 4bbd 8938 06bd f10f deba ee04 74bd
000003d0: 550a 50bc 04a8 e2bb a3d7 9fbc ef2c 423d
000003e0: deda 05bc 5e29 42bc f592 213c bbaf d23d
000003f0: de47 d1bd 0ce2 0fbc 0302 a73b f06b c23d

bias f4 [16]
-0.035491515 -0.08157759 -0.025853923 -0.011108506 -0.29683596 0.0020896343 0.005875402 -0.0068631764
-0.015076247 0.018209424 0.013373786 -0.27233082 0.006888976 -0.15289718 -0.030005537 0.025059598
00000000: 8d5f 11bd 2712 a7bd 9bcb d3bc 7300 36bc
00000010: e2fa 97be 3ff2 083b 7286 c03b 7fe4 e0bb
00000020: 5d02 77bc ee2b 953c b91d 5b3c f26e 8bbe
00000030: ebbc e13b 1491 1cbe 2cce f5bc c949 cd3c

weight f4 [1, 16]
-0.00014756982 -0.0013221467 0.26193947 0.00027340717 0.3263954 0.0020367245 0.00078325643 -0.0007725054
-0.0014704654 0.00079431623 0.001107712 0.2533045 -0.0018699351 0.08440566 0.00092560373 0.0011429783
00000000: f9bc 1ab9 e24b adba ee1c 863e 1758 8f39
00000010: 4c1d a73e 917a 053b 7353 4d3a f681 4aba
00000020: a2bc c0ba a939 503a a630 913a 21b1 813e
00000030: 9c18 f5ba e0dc ac3d 37a4 723a fdcf 953a

weight f4 [1, 288]
0.015687542 -0.002570895 -0.03007241 -0.0005311681 0.5580657 0.009026993 -0.014676421 0.21560603
0.1896292 0.09468432 -0.14547901 0.0118470155 0.4052842 -0.09094257 0.21571569 0.15111393
0.39420953 -0.28200597 0.20258701 0.6077299 0.7231145 -1.9027933 -0.039592236 -1.0345427
-0.014898363 5.7810495e-05 0.0016937152 -0.002080012 0.0827491 0.3641931 -0.08012982 0.31505513
0.24072185 0.021141315 0.58856577 0.082422145 0.25716838 -0.23329043 0.028066672 -0.117442936
0.058289938 -0.24270348 -0.18159208 -0.1381995 0.4046313 -1.4100511 -0.50084686 -0.59318334
-0.23116529 -0.016533872 -0.0012327178 0.001984706 0.4418897 0.07058483 0.016640216 0.407772
0.26235098 0.20927404 0.0152733065 0.071501285 0.34774935 0.008843032 -5.953212e-05 0.2148786
0.58567667 -0.25149468 0.4527639 -0.064291745 -0.015094529 -0.5492179 0.9645421 -1.8845761
0.21309091 0.0027796621 -0.0006834164 -0.013614926 -0.1610838 0.27911827 0.049616385 -0.22051924
0.13272868 0.43535313 0.19393097 -0.1293026 0.1918247 0.09079448 -0.12850147 -0.08921425
0.8374838 0.8684494 0.43117335 -0.6077585 1.4899912 0.5261967 1.8921449 -0.39463913
-0.038699396 -0.057643466 -0.014373248 0.001445971 0.31527603 -0.17115292 0.2568895 0.20041022
-0.11272168 0.45288095 0.048911747 0.016858852 0.03932577 0.27447343 0.69471586 0.2647111
1.0124788 0.9134492 -0.33746573 0.06450596 0.33159834 1.161215 0.012390146 1.6290662
0.08444291 -0.16770391 -0.0006625366 -0.0024499325 0.19302829 0.52560055 0.823425 0.28039753
0.12919362 0.48661318 -0.18816434 -0.3032525 0.021290453 0.01137426 -0.07901497 -0.11895443
0.33771434 -0.7747504 -0.26829988 0.84617794 -0.51584315 0.24825966 0.15877435 0.5557225
0.23011315 -0.035164356 -0.0014152093 0.023434745 -0.051093705 -0.002738076 0.16306683 0.08763218
0.37799838 -0.27849686 0.41449568 0.6345342 0.52347076 0.19590028 0.032097198 0.00024327583
0.0066430597 0.27122134 -0.21292391 -0.60096383 0.3266889 -0.59919727 0.072469026 -1.621236
-0.12675527 -0.0022945958 -0.0014187248 -0.01408382 -0.18534032 0.1657673 -0.09398136 -0.32319358
0.24382333 0.35549995 -0.0077319853 0.28566557 -0.071538284 -0.049585104 -0.40497845 -0.3244719
-0.5102211 -0.19095296 1.2489702 0.19445932 -0.18193376 0.66321343 -0.31517154 -0.6944239
-0.008602692 0.0050149714 0.044129018 0.01769459 0.37979844 -0.50294125 0.6503458 -0.08408881
0.1484792 -0.24461256 0.732535 -0.085578114 -0.26307943 -0.29151025 0.39389417 -0.3751928
0.20620771 0.55612606 -0.9007082 -0.25879014 0.8982684 1.0627949 0.38977787 1.830587
0.07343322 -0.005655276 -0.038906053 0.054573473 -0.017946428 -0.40619102 0.0041502863 -0.05888208
0.028895687 0.29390946 0.48850757 -0.04152604 -0.26990065 -0.3493529 -0.019147592 -0.27864116
-0.9492388 0.31356922 0.28423682 -0.28358835 -0.50200415 -0.83109456 0.12182733 -2.5197093
0.09404464 -0.2626328 -0.0023862715 -0.25282663 0.5549889 -0.3593602 0.84805334 0.07943762
-0.008961078 0.10190621 0.21345378 0.36516976 0.19571926 0.2363102 0.47312513 -0.04838025
00000000: 2983 803c 767c 28bb 6a5a f6bc 163e 0bba
00000010: 65dd 0e3f f4e5 133c 5f75 70bc d4c7 5c3e
00000020: 282e 423e dae9 c13d 73f8 14be fc19 423c
00000030: 6981 cf3e 1940 babd 93e4 5c3e 9cbd 1a3e
00000040: d5d5 c93e 1663 90be f872 4f3e 3094 1b3f
00000050: 081e 393f bb8e f3bf 782b 22bd e56b 84bf
00000060: 4318 74bc 8c79 7238 a7ff dd3a d050 08bb
00000070: 5c78 a93d 8577 ba3e 1a1b a4bd e84e a13e
00000080: ca7f 763e 8d30 ad3c 3fac 163f f1cc a83d
00000090: 93ab 833e b0e3 6ebe 14ec e53c ec85 f0bd
000000a0: 6ec1 6e3d 4387 78be 46f3 39be 2b84 0dbe
000000b0: d52b cf3e 8e7c b4bf 8037 00bf ddda 17bf
000000c0: 98b6 6cbe 0b72 87bc 2593 a1ba d711 023b
000000d0: 5e3f e23e c88e 903d 1051 883c 7ec7 d03e
000000e0: de52 863e ef4b 563e e43c 7a3c 446f 923d
000000f0: 340c b23e 5de2 103c 21b2 79b8 2309 5c3e
00000100: e8ee 153f e9c3 80be abd0 e73e 64ab 83bd
00000110: 0b4f 77bc 8b99 0cbf 3bec 763f ca39 f1bf
00000120: 8134 5a3e fe2a 363b 4c27 33ba 2311 5fbc
00000130: 27f3 24be 97e8 8e3e 8d3a 4b3d cccf 61be
00000140: 07ea 073e 9be6 de3e d795 463e e767 04be
00000150: b26d 443e 75f2 b93d e495 03be f6b5 b6bd
00000160: 5765 563f b352 5e3f c1c2 dc3e 1096 1bbf
00000170: 08b8 be3f d4b4 063f ce31 f23f 240e cabe
00000180: 4283 1ebd 8e1b 6cbd c67d 6bbc bc86 bd3a
00000190: dc6b a13e b642 2fbe 0587 833e 5638 4d3e
000001a0: a0da e6bd 03e0 e73e af57 483d 931b 8a3c
000001b0: 0f14 213d c887 8c3e e6d8 313f 3788 873e
000001c0: e898 813f cfd7 693f 4fc8 acbe b31b 843d
000001d0: 42c7 a93e b1a2 943f 0a00 4b3c 3e85 d03f
000001e0: 68f0 ac3d 93ba 2bbe 14ae 2dba 0c8f 20bb
000001f0: 35a9 453e c28d 063f fbcb 523f 4490 8f3e
00000200: 554b 043e 5d25 f93e 27ae 40be e943 9bbe
00000210: 5169 ae3c 1b5b 3a3c 9ad2 a1bd 619e f3bd
00000220: e5e8 ac3e 0b56 46bf 9a5e 89be 1e9f 583f
00000230: 4c0e 04bf c837 7e3e be95 223e d443 0e3f
00000240: c8a2 6b3e 8008 10bd 8b7e b9ba 39fa bf3c
00000250: a247 51bd 4b71 33bb fefa 263e 8078 b33d
00000260: 0189 c13e 2497 8ebe c738 d43e d570 223f
00000270: 2e02 063f 159a 483e 5a78 033d dc17 7f39
00000280: 06ae d93b 86dd 8a3e ba08 5abe c4d8 19bf
00000290: c443 a73e fe64 19bf a46a 943d a984 cfbf
000002a0: 22cc 01be ee60 16bb 81f4 b9ba d3bf 66bc
000002b0: dac9 3dbe e7be 293e 4d79 c0bd a179 a5be
000002c0: d3ac 793e 1704 b63e 985c fdbb c242 923e
000002d0: aa82 92bd c019 4bbd 5659 cfbe 2e21 a6be
000002e0: da9d 02bf 2c89 43be 41de 9f3f 5820 473e
000002f0: d84c 3abe 5bc8 293f 2a5e a1be c4c5 31bf
00000300: 4ef2 0cbc a154 a43b a1c0 343d 3ff4 903c
00000310: f174 c23e c2c0 00bf 107d 263f c136 acbd
00000320: ee0a 183e b77b 7abe 6a87 3b3f 9443 afbd
00000330: 59b2 86be d540 95be 7fac c93e 4519 c0be
00000340: 1d28 533e 475e 0e3f d094 66bf 2480 84be
00000350: ebf4 653f aa09 883f f790 c73e ad50 ea3f
00000360: 2864 963d e54f b9bb f45b 1fbd 6f88 5f3d
00000370: 6304 93bc 45f8 cfbe 20ff 873b 562e 71bd
00000380: a6b6 ec3c 4d7b 963e aa1d fa3e 3517 2abd
00000390: 6b30 8abe 62de b2be 69db 9cbc 0eaa 8ebe
000003a0: 5001 73bf 258c a03e 7d87 913e 7e32 91be
000003b0: 5883 00bf 9dc2 54bf 9b80 f93d eb42 21c0
000003c0: 7a9a c03d ce77 86be fe62 1cbb 7e72 81be
000003d0: c113 0e3f 0ffe b7be 061a 593f 31b0 a23d
000003e0: 7cd1 12bc 34b4 d03d a193 5a3e 88f7 ba3e
000003f0: a16a 483e 4dfb 713e 753d f23e 5e2a 46bd
