MLIPs/CACE-LES/water/cace-r-4.5-nl-1-nu-3/checkpoint.pt (torch, 156834 bytes, 39 tensors)

representation.node_embedding_sender.embedding_weights f4 [2, 2]
0	0x3e8e64dc	0.27811325
1	0x3e0bfd70	0.13670897
2	0xbf364bf6	-0.7120966
3	0x3f143d5e	0.5790614

representation.node_embedding_receiver.embedding_weights f4 [2, 2]
0	0x3e9406fb	0.28911576
1	0x3c18cbb0	0.009325907
2	0xbcb79027	-0.022407604
3	0x3f2834ee	0.65705764

representation.radial_basis.bessel_weights f4 [6]
0	0x3e9e2891	0.30890325
1	0x3fa27a40	1.2693558
2	0x3ff64eeb	1.9242834
3	0x402f205b	2.7363498
4	0x406ce307	3.7013566
5	0x40967757	4.702068

representation.radial_transform.weights.0 f4 [6, 12, 4]
0	0x3ecc89de	0.39948934
1	0x3d2c152d	0.042012382
2	0xbe401219	-0.18756904
3	0x3a8ff580	0.0010983199
4	0x3fa5c4f2	1.2950728
5	0x3c5daf8c	0.013530623
6	0xbb1f36a5	-0.0024294045
7	0x3c020bb0	0.007937357
8	0x3e29fb50	0.16599774
9	0x3fb43254	1.4077859
10	0x394c77ee	0.00019499633
11	0x3b3fb0d9	0.0029249697
12	0x3ed44187	0.41456243
13	0xbdaa1bdf	-0.08306097
14	0x3b7b5e0e	0.0038355622
15	0x3e4abcf8	0.19798648
16	0x3fe3a09a	1.7783387
17	0x4068ef2f	3.6395986
18	0xbd9c87de	-0.07643102
19	0x3a6bad0b	0.0008990324
20	0x3f82c672	1.0216811
21	0x3eb75432	0.35806423
22	0x3a84ae6a	0.001012278
23	0xbb839c92	-0.0040164674
24	0x3f4f8268	0.8105836
25	0xbf8226b7	-1.0168065
26	0xba98d944	-0.001166143
27	0xbd8726c2	-0.06599189
28	0xbe26bc7f	-0.16282843
29	0x3d89ed5d	0.067347266
30	0x3b808e68	0.003923226
31	0x3ef2c831	0.4741836
32	0x3f9519d5	1.1648508
33	0xbe942d71	-0.2894092
34	0x3e26d665	0.16292723
35	0xbd979996	-0.07402341
36	0x3f3d7747	0.7401013
37	0xbda9e398	-0.08295363
38	0x3e9842c6	0.29738444
39	0x3f52fc6c	0.82416415
40	0x3fc3b890	1.5290699
41	0x407f6957	3.9908044
42	0x3a685944	0.0008863399
43	0xbe367e77	-0.1782168
44	0xc06224e5	-3.5335019
45	0x3b967e23	0.0045926734
46	0x3efe7b92	0.49703652
47	0x3ee01bd3	0.43771228
48	0xbe557527	-0.20845471
49	0xbc656a5b	-0.014002408
50	0x3eeb850a	0.45999938
51	0x3bf7dc31	0.0075640907
52	0x3f09f959	0.538961
53	0xba3e1547	-0.00072510954
54	0x3bf3a4b7	0.007435407
55	0xbc4542ab	-0.012039821
56	0xbdcc77d7	-0.09983795
57	0xbdc91a76	-0.098195
58	0xbb81b580	-0.003958404
59	0xbb1eb227	-0.0024215074
60	0x3fc8ad82	1.567795
61	0x3cec9eff	0.028884409
62	0xbc1f8aa1	-0.009737642
63	0xbf3921e7	-0.72317356
64	0x3f568249	0.8379255
65	0x3ecff23a	0.40614492
66	0x3e4b6c82	0.19865611
67	0xbae3b6b8	-0.001737318
68	0x3fb7888a	1.4338543
69	0x3fadd81e	1.3581579
70	0xbbdf6438	-0.006817367
71	0x3bf26230	0.007396959
72	0x3fa9744c	1.3238616
73	0x3f3a6ade	0.72819316
74	0xba32e2f2	-0.00068239786
75	0x3dfda64c	0.12385234
76	0x3baef647	0.005339417
77	0xbcb573c9	-0.022149937
78	0xbc88a4ba	-0.01668011
79	0x3f04dcef	0.5189962
80	0xbf3221c4	-0.6958277
81	0x3db0de8b	0.08636197
82	0xbb885bd2	-0.0041613365
83	0xbd24e512	-0.04025752
84	0x3fa26b9d	1.2689091
85	0x3db973a3	0.09055259
86	0x3e85aa61	0.2610655
87	0x3fd9cd92	1.701586
88	0x3fcdf960	1.6091728
89	0x3f5b1492	0.8557826
90	0xbbc6a0fb	-0.006061671
91	0x3f97615a	1.1826584
92	0xbcc093eb	-0.023508033
93	0x3a5b125e	0.0008356924
94	0xbf89d6c3	-1.0768665
95	0x3d3e60f8	0.046479195
96	0x3db3e653	0.08784165
97	0x3b807bf1	0.003921025
98	0xbe863cef	-0.26218364
99	0x3cffd572	0.031229708
100	0xbe0bfa9d	-0.1366982
101	0xbb420bef	-0.0029609164
102	0xbb53be6a	-0.003230954
103	0x3d20a9d5	0.039224464
104	0xbf467337	-0.77519554
105	0x3d2504cc	0.040287778
106	0x3b991960	0.0046722144
107	0xbc06e895	-0.008234163
108	0x3f9e3762	1.2360651
109	0xbc64063a	-0.0139175
110	0x3b9bebca	0.004758333
111	0xbe5dd8ef	-0.21664785
112	0xbf5417fc	-0.828491
113	0x3ecbb491	0.397862
114	0xbdff8e88	-0.124783576
115	0xbca3b9a1	-0.019985976
116	0x3f654d2f	0.895709
117	0xbf00e79d	-0.50353414
118	0x3bb23d70	0.005439453
119	0xbc1b32f1	-0.009472595
120	0x3fabc42a	1.341924
121	0x3f523286	0.8210834
122	0x3b7a715f	0.0038214547
123	0xbd841903	-0.06450083
124	0xbf24c846	-0.64368093
125	0x3c2a49a3	0.010393533
126	0x3c4cdd70	0.012503967
127	0x3e144a03	0.14481358
128	0x3e0fbeb7	0.14037596
129	0xbd47ded7	-0.0487965
130	0xbf03484b	-0.51282185
131	0x3c903f9f	0.017608462
132	0x3f3254a6	0.69660413
133	0xbd480062	-0.04882849
134	0x3ed753f0	0.42056227
135	0x3ee67081	0.4500771
136	0x3f89847f	1.074356
137	0xbecc9f87	-0.3996546
138	0x3bb40b5f	0.0054945196
139	0x4046db53	3.1071365
140	0x3f09803a	0.53711283
141	0xba1de91e	-0.0006023812
142	0x3e4fea96	0.20304331
143	0xbe3da36d	-0.18519373
144	0xbde52651	-0.11188949
145	0xba706b74	-0.0009171285
146	0x3e1a495d	0.15067048
147	0xbc1ddf3b	-0.009635742
148	0xbf16fb11	-0.58976847
149	0xbaeb7e0c	-0.0017966642
150	0x3ba87cd9	0.005141836
151	0xbc8b57be	-0.017009612
152	0xbe932f23	-0.287469
153	0x3d969b7b	0.07353874
154	0xbb87c2b5	-0.004143084
155	0x3a466889	0.00075686775
156	0x3fa166a6	1.2609451
157	0xbc2aa1e9	-0.010414579
158	0xbb51a597	-0.0031989568
159	0xbe3a1d37	-0.18175207
160	0xbd217eb2	-0.039427467
161	0xbf0ad84d	-0.542363
162	0x3d7d901b	0.061905008
163	0x3b311b72	0.0027024415
164	0x3f5c1955	0.85976154
165	0x3e2eade3	0.1705852
166	0xbbaadc89	-0.005214278
167	0x3bd8374b	0.0065983883
168	0x3ef73453	0.48282108
169	0xbeb4b91d	-0.3529748
170	0xbb7315ea	-0.003709192
171	0x3db2500f	0.08706676
172	0x3e255baa	0.16148248
173	0x3afd8710	0.001934262
174	0xbc1f4633	-0.009721327
175	0xbe92b930	-0.28656912
176	0xbe0ab231	-0.13544537
177	0xbcd91be6	-0.02650256
178	0x3e389928	0.18027174
179	0x3ce501a9	0.027954893
180	0x3f75643b	0.95856065
181	0xbd0da07c	-0.034576878
182	0xbed63a10	-0.41841173
183	0xbe958b7d	-0.29207984
184	0x3f784ae3	0.9698927
185	0xbee6a8fc	-0.450508
186	0xbc2394bb	-0.009984191
187	0x3faee9ac	1.3665061
188	0x3eb49f33	0.3527771
189	0xbac755b4	-0.0015208037
190	0xbdea74a4	-0.11448029
191	0xbe645b99	-0.22300567
192	0x3da0c235	0.07849542
193	0xbbf4f389	-0.0074753207
194	0xbdb47c06	-0.08812718
195	0xbbe8a8b4	-0.007100189
196	0x3dc61b9d	0.096732356
197	0x3bfe7f45	0.0077666366
198	0xbbd25107	-0.0064183506
199	0xba76c18c	-0.0009412996
200	0x3ecb25c3	0.39677247
201	0xbe14c1de	-0.1452708
202	0x3b9688a0	0.0045939237
203	0x3b71adcd	0.0036877275
204	0x3e998d09	0.29990414
205	0x3cdc269d	0.026873881
206	0x38d8fa36	0.00010346288
207	0x3edf484d	0.4360985
208	0x3db9fb72	0.090811625
209	0x3e2c6f7f	0.16839407
210	0xbc678c20	-0.0141325295
211	0x3bd66bc1	0.006543607
212	0x3f19e3af	0.6011304
213	0xbcb94124	-0.02261407
214	0x3b7dca03	0.0038725145
215	0xba9a2a82	-0.0011761936
216	0x3d2e3d94	0.042539194
217	0xbf57036f	-0.83989614
218	0x3b8b3d1c	0.004249228
219	0xbdce44c3	-0.10071709
220	0x3ed53686	0.4164316
221	0xbc3e77fc	-0.011625286
222	0x3bb439dc	0.0055000614
223	0x3e9e858c	0.30961263
224	0x3d709aaf	0.058741268
225	0x3dbef594	0.09324184
226	0x3e2480e1	0.16064788
227	0xbda05c8b	-0.07830151
228	0x3edf1c65	0.4357635
229	0x3d9c6591	0.0763656
230	0x3f2368fa	0.63832057
231	0x3f0b7c6f	0.54486746
232	0x3f2d3c69	0.67670304
233	0x3d6c9952	0.057763405
234	0x3c40fcb5	0.011779
235	0xbe19068d	-0.14943905
236	0x3e400638	0.18752372
237	0x3b860829	0.0040903282
238	0x3e115e5e	0.14196154
239	0x3f0313aa	0.5120188
240	0xbce2e17e	-0.027695414
241	0xbc4a4f0e	-0.01234795
242	0xbb1a1322	-0.002350994
243	0x3cb23efc	0.021758549
244	0x3e8b64f2	0.27225453
245	0xbae128b8	-0.0017178273
246	0x3bd92d16	0.006627689
247	0x3c88e719	0.016711758
248	0x3f058e2c	0.5217006
249	0xbcd6e248	-0.026230946
250	0xbbf58482	-0.007492603
251	0x3aa7557a	0.0012766563
252	0x3e58e692	0.21181706
253	0x3cba0d73	0.022711491
254	0xba995142	-0.001169719
255	0x3e6d0b79	0.23148908

representation.radial_transform.weights.1 f4 [6, 12, 4]
0	0x40753c1b	3.8317935
1	0xc00b7aaa	-2.1793618
2	0xc00ad690	-2.1693459
3	0xbf4adf89	-0.7924734
4	0xbfbfd761	-1.4987603
5	0xbe76fe6c	-0.24120492
6	0xbfc8cf2a	-1.5688221
7	0x3f5cb1b5	0.8620866
8	0x40a8d2c5	5.2757287
9	0xc00dd655	-2.2162068
10	0x4031b708	2.7767963
11	0xbfb8f5e0	-1.4450035
12	0xc08adf99	-4.3397946
13	0x3fcc1651	1.594431
14	0x3faaefed	1.335447
15	0x402d62ba	2.7091508
16	0x3fd09481	1.629532
17	0xbe9fa299	-0.3117874
18	0x3f80e434	1.0069642
19	0x3f5e8b46	0.86931264
20	0x3e22172e	0.15829155
21	0x403753e6	2.8644958
22	0xbebe42a5	-0.3716022
23	0x3dc8435f	0.09778475
24	0xc0a29248	-5.0803566
25	0xbc7118ba	-0.014715368
26	0x3ffc6851	1.9719335
27	0x401655a9	2.3489783
28	0x406af7d0	3.6713753
29	0x3f5f77e1	0.87292296
30	0x402a9fef	2.6660116
31	0x3f458b00	0.7716522
32	0x409b4a22	4.8527994
33	0x405e7dda	3.4764314
34	0xbf969c45	-1.176644
35	0x3ec33f14	0.38134062
36	0xc06bd3a2	-3.684792
37	0x400be945	2.1861126
38	0xbf015d63	-0.5053312
39	0xbfa0577a	-1.2526696
40	0x4014acc4	2.3230448
41	0x400787f3	2.1176727
42	0xbe5baeef	-0.2145345
43	0x3f8f3078	1.1186666
44	0x40818724	4.0477467
45	0xbfff2f46	-1.9936302
46	0xc05e24b3	-3.47099
47	0x3fc7dd13	1.5614341
48	0x4024b108	2.5733051
49	0xbfb06566	-1.3780944
50	0x3f8027d4	1.0012155
51	0x3ea98533	0.33109435
52	0x3f9081c4	1.1289601
53	0xbe25df0f	-0.16198371
54	0xbeda2d66	-0.4261276
55	0x3e8eaa87	0.27864477
56	0x3bdb5783	0.006693782
57	0x3fca099e	1.5784185
58	0x3fc76235	1.5576845
59	0xbf4b11d9	-0.7932411
60	0xbfad0ef9	-1.3520194
61	0x3f855282	1.0415804
62	0x4003f05b	2.0615451
63	0x3f82c7ab	1.0217184
64	0xbee890fc	-0.45423114
65	0xbdb2ff06	-0.08740048
66	0x3ef3a7e5	0.4758903
67	0x3ff3c577	1.9044636
68	0x3fee59e0	1.8621178
69	0x3f65828a	0.8965231
70	0xbea33c18	-0.31881785
71	0x3eebe046	0.46069545
72	0x3afde563	0.0019370731
73	0xbf81a029	-1.0127002
74	0xbe7484b3	-0.23878746
75	0x401f7bef	2.4919393
76	0x3f89f0e2	1.0776637
77	0x3ec6f34c	0.38857496
78	0x4009f8af	2.1558034
79	0x3fa24199	1.2676269
80	0x3fe9cf11	1.8266317
81	0x3fe7ba0e	1.8103654
82	0xbedde2a8	-0.43336987
83	0x3f0f6ce0	0.56025505
84	0xbfbcc1bc	-1.4746623
85	0xbf4e79a1	-0.8065434
86	0xbffe93fe	-1.9888914
87	0xc0156779	-2.3344405
88	0x3faf7eed	1.371061
89	0x3f415b61	0.7553006
90	0x3e90ae2f	0.28257892
91	0x3fbaeca5	1.4603468
92	0x3fb26044	1.3935628
93	0xbc6bdeeb	-0.0143964095
94	0x3f376621	0.7164021
95	0x40003aae	2.0035815
96	0x3e77429b	0.24146502
97	0x3d338b9a	0.043834306
98	0x3ecab475	0.39590803
99	0x3f8b6827	1.089116
100	0x3f40ce1f	0.75314516
101	0x3bddf627	0.0067737284
102	0x3eb82c51	0.3597131
103	0xbfac3dd3	-1.3456367
104	0xbe5d358e	-0.2160246
105	0xbe303522	-0.17207769
106	0xbf93f92c	-1.1560416
107	0x3fbbb9ff	1.4666137
108	0x3f6e02f3	0.9297325
109	0x3eee7dee	0.46580452
110	0xbf255ef2	-0.64598
111	0xbe015247	-0.12629043
112	0x3e8658ae	0.26239532
113	0x3f414987	0.7550282
114	0x3eb731cc	0.3578018
115	0x3ea5454f	0.3227944
116	0xbebace09	-0.36485317
117	0x3e38fd13	0.1806529
118	0x3f717d72	0.9433204
119	0xbdf2ff48	-0.11865097
120	0x3ed85afb	0.42256913
121	0xbf3ec58e	-0.74520195
122	0xbe881771	-0.26580384
123	0x3d9d17b6	0.07670538
124	0xbf91f937	-1.1404179
125	0xbf15b521	-0.58479506
126	0xbd70a9ef	-0.05875581
127	0xbf0bd100	-0.54615784
128	0xbe314e40	-0.17315006
129	0x3ee74e60	0.45176983
130	0x3f2a5987	0.6654286
131	0x3f4ac73b	0.7921025
132	0x3f5d5ec7	0.86472744
133	0xbf9f1d17	-1.2430753
134	0x3fc193bb	1.5123209
135	0xbf93b4ac	-1.1539512
136	0x3ed677e8	0.41888356
137	0xbfbf5e0d	-1.4950577
138	0x3f125c28	0.5717187
139	0x3fe54b13	1.7913536
140	0xbf7c4ed1	-0.98557764
141	0x3fa0d6bc	1.2565532
142	0xbebaa6e5	-0.36455455
143	0x3f8b823b	1.0899118
144	0xbf08188d	-0.5316246
145	0x3e4888cd	0.19583435
146	0xbf2ec311	-0.682664
147	0x3cebbec2	0.028777484
148	0x3e7d3395	0.24726708
149	0x3f843846	1.0329673
150	0xbf477a78	-0.7792125
151	0xbf419543	-0.7561838
152	0x3e0e8a3d	0.13919921
153	0xbd7b5b73	-0.06136651
154	0xbea00c98	-0.31259608
155	0x3f98c5a2	1.1935313
156	0x3fca8eaf	1.5824794
157	0x3f9cea3f	1.2258986
158	0xbf3b4ee0	-0.7316723
159	0xbf2beb44	-0.6715586
160	0x3f5eb0c0	0.8698845
161	0x3f62697c	0.88442206
162	0x3f7a3a9d	0.97745687
163	0x3fc1d53a	1.5143197
164	0x3dfaed49	0.1225229
165	0xbd630ee4	-0.055434123
166	0x3f694ce1	0.9113293
167	0x3fb8fe12	1.4452536
168	0x3c9e4b06	0.019322883
169	0xbed185a6	-0.40922278
170	0x3ef802ce	0.4843964
171	0xbf3ee28d	-0.7456444
172	0xbfa65699	-1.2995178
173	0x3f7d9cbc	0.9906728
174	0xbf98e52d	-1.1944939
175	0xbfe5f6bf	-1.7965926
176	0xbdb52096	-0.08844106
177	0x3d657092	0.05601556
178	0x4039974e	2.89986
179	0x3f94e602	1.1632693
180	0x3f3799c1	0.71718985
181	0xbee6ef76	-0.4510457
182	0xbf424d37	-0.7589907
183	0xbe5b1db7	-0.21398054
184	0x3f356f2d	0.70872766
185	0xbe85bbb2	-0.26119763
186	0x3fc532d1	1.5406133
187	0x3bdf5e0e	0.006816632
188	0x3e3a659b	0.18202822
189	0x3fda01b2	1.7031767
190	0x3f321cd9	0.6957527
191	0x3ef16356	0.471461
192	0xbf4cfecd	-0.80076295
193	0x3f23630d	0.63823014
194	0x3e2f8ea2	0.17144254
195	0xbc9379ec	-0.018002473
196	0xbefd81f3	-0.49513206
197	0x3f479199	0.7795654
198	0x3f40b36d	0.7527378
199	0x3fc581bd	1.5430218
200	0x3ed1991a	0.4093712
201	0xbd06a0bf	-0.032868143
202	0x3ec8300a	0.3909915
203	0x3f346aba	0.7047535
204	0x3f53898e	0.82631767
205	0x3f79947d	0.974922
206	0x3f39a9b6	0.72524583
207	0xbe3a50a9	-0.18194832
208	0x3f8cdf71	1.1005689
209	0x3f8b557b	1.0885462
210	0x3fca7de8	1.5819674
211	0x3fa4e10f	1.2881182
212	0xbef7c6d1	-0.48393872
213	0x3f1587bd	0.58410245
214	0x3fa8dfe0	1.3193321
215	0x3fcd145f	1.6021842
216	0xbda7c967	-0.08192711
217	0x3f12365b	0.5711419
218	0x3f04e304	0.519089
219	0x3f8c88b3	1.0979217
220	0xbd49158d	-0.049092818
221	0x3edbdf3c	0.42943752
222	0x3f37752f	0.7166318
223	0x3f23bd14	0.63960385
224	0x3c50a2e8	0.012734152
225	0xbe1b0973	-0.15140323
226	0x4010f94e	2.2652164
227	0x40197a68	2.398096
228	0x3e71be54	0.2360776
229	0xbe58cdfd	-0.21172328
230	0x3f18f302	0.597458
231	0x3f53a085	0.8266681
232	0x3fe05a61	1.7527581
233	0x3e20c0f4	0.15698606
234	0x3fac02e0	1.3438377
235	0x3da421a2	0.080142274
236	0x3f80a302	1.0049746
237	0x3eaa5e8e	0.33275265
238	0x3e47e3f6	0.19520554
239	0x3e0a63ca	0.13514629
240	0xbe7aa002	-0.244751
241	0x3f21ee92	0.63254654
242	0x3eaf90e4	0.3429023
243	0x3d9a3fca	0.07531698
244	0x3c6d4786	0.014482385
245	0xbe6b3c37	-0.22972189
246	0xbf24d100	-0.6438141
247	0x3f9e1225	1.2349287
248	0x3e86c7ec	0.26324403
249	0x3e531c6e	0.20616314
250	0x3eae07bb	0.33990273
251	0x3ed189ac	0.40925348
252	0xbd8e75b3	-0.06956043
253	0x3eb6cce5	0.35703197
254	0x3ee2c1a3	0.44288358
255	0x3eddacf0	0.43296003

representation.radial_transform.weights.2 f4 [6, 12, 4]
0	0x3e8eee46	0.27916163
1	0x405502c2	3.3282933
2	0x3ece9262	0.40346056
3	0xbf9a8952	-1.2073157
4	0x40965209	4.697514
5	0x4014ba3e	2.3238673
6	0xbe5bda7d	-0.21470065
7	0x3fd69711	1.6764852
8	0x40000de1	2.000847
9	0x3ed2c208	0.4116366
10	0x3fba38cd	1.4548584
11	0x3f5f479e	0.87218654
12	0x3f9fbefd	1.248016
13	0x3e902512	0.28153282
14	0x3ffdcc76	1.9828022
15	0xbe2da48f	-0.16957305
16	0xbd1a52da	-0.03767667
17	0x402f9400	2.7434082
18	0xbec87d55	-0.3915812
19	0x3fa00188	1.2500467
20	0xc07fe778	-3.9985027
21	0x402b192b	2.6734111
22	0xbe09ddb7	-0.13463484
23	0x3f8f19c1	1.1179734
24	0xbfb257df	-1.3933066
25	0x40248ced	2.5711014
26	0xbd781cef	-0.06057447
27	0x3fdded73	1.7338089
28	0xbf26a554	-0.6509602
29	0xbf62349e	-0.8836154
30	0xbea84831	-0.32867578
31	0x3e693e4c	0.2277767
32	0x405b4fec	3.426753
33	0xbff9ff24	-1.9530988
34	0xbe01764f	-0.12642787
35	0xbda46227	-0.080265336
36	0x4005c914	2.0903978
37	0x3f6a32a7	0.9148354
38	0x3f956d83	1.1674045
39	0x3fb58227	1.4180344
40	0xbfd83343	-1.6890644
41	0x404bdca0	3.185341
42	0x3fd39f9b	1.6533083
43	0x3f9f1478	1.2428122
44	0xbda5d559	-0.080973335
45	0x3f0e52b9	0.55594975
46	0x3f0b1100	0.54322815
47	0x3ee67e0f	0.4501805
48	0xbeb8f2f8	-0.3612287
49	0x3f96fd3f	1.1796035
50	0x3fb48649	1.410348
51	0xbfce24d1	-1.6104985
52	0xbe2d61fc	-0.1693191
53	0x3da58187	0.08081346
54	0x3f3f1407	0.74639934
55	0x40297fd2	2.6484265
56	0x400a5780	2.1615906
57	0x3f90afae	1.1303613
58	0x3fb05bb3	1.3777984
59	0x3f8490a8	1.0356646
60	0xbf2d6c61	-0.677435
61	0x3e90ca3e	0.282793
62	0x3eb8084c	0.3594383
63	0x3f183b31	0.5946532
64	0xbfa95ec1	-1.3232042
65	0x400d8670	2.2113304
66	0x3dd430d9	0.103608795
67	0x3ff1b9b8	1.8884802
68	0xbfa0a277	-1.254958
69	0x400af62f	2.1712759
70	0xbeb2e1b5	-0.34937826
71	0x3e784e45	0.24248607
72	0x3cb36176	0.021897059
73	0x3e530fd4	0.20611507
74	0x3f10a4a1	0.56501204
75	0x40226cb1	2.537884
76	0x3f94e649	1.1632777
77	0x3e18cd90	0.14922166
78	0x40013773	2.0190094
79	0x3f8937ec	1.0720191
80	0x3f2db031	0.6784697
81	0x3f1b0f5d	0.6057032
82	0x3e4cbdbb	0.19994251
83	0xbfe3cc8f	-1.7796801
84	0x3fbcb0af	1.474142
85	0x3f7c1b5e	0.9847926
86	0x3f48dca2	0.7846166
87	0xbe082912	-0.13296917
88	0x3fbe140d	1.4849869
89	0xbf9207f6	-1.140868
90	0xbe4ecd65	-0.2019554
91	0x3fa887e3	1.3166469
92	0x3dcb0669	0.09913332
93	0x3f3d7bbc	0.7401693
94	0xbf80f533	-1.0074829
95	0x3ff393d6	1.9029491
96	0x3f13f3db	0.5779397
97	0x3e80784c	0.2509178
98	0x3f6ebc7a	0.9325634
99	0x3fe9abe4	1.8255582
100	0xbda9802c	-0.082764
101	0xbe780a8f	-0.24222778
102	0x3f6aad1f	0.9167041
103	0x402ebc01	2.7302248
104	0x3f8f8c3a	1.1214669
105	0xbd92b6fc	-0.07163808
106	0xbc00ae0a	-0.007853994
107	0x3f92a615	1.1456934
108	0xbef8d361	-0.4859877
109	0x3f6ce272	0.9253303
110	0xbf8ce8e7	-1.1008576
111	0x3f4fbf62	0.811514
112	0x3f8d3d65	1.1034361
113	0x3f15830c	0.58403087
114	0xbeb1d1c4	-0.3473035
115	0x3fc3a23c	1.5283885
116	0x3f57e3b5	0.8433183
117	0x3f838f3b	1.0278085
118	0x3fb87cb4	1.4413056
119	0x3f80477b	1.0021814
120	0x3f7cf923	0.9881765
121	0xbf5d460f	-0.86435026
122	0x3f621603	0.8831484
123	0x3f2c4fe6	0.67309415
124	0x3e48ba99	0.19602431
125	0x3f5d41e3	0.8642866
126	0xbe0c65b4	-0.13710672
127	0x4014e570	2.3265038
128	0xbf88b273	-1.0679458
129	0x3fcbbbe3	1.5916713
130	0x3f810180	1.0078583
131	0x3e1ce8cf	0.15323184
132	0xbfec4073	-1.8457168
133	0x3f584189	0.84475
134	0x3d518cfb	0.05115984
135	0xbf7f78ed	-0.99793893
136	0xbe58d6a2	-0.21175626
137	0x3f4a9799	0.7913757
138	0x3f257951	0.6463824
139	0x3f86d63d	1.053413
140	0x3f747b0f	0.9550027
141	0x3f7d1065	0.9885314
142	0xbdb8ac2b	-0.090172134
143	0x3ff11f6b	1.8837713
144	0x3fe55269	1.7915775
145	0xbdff2edf	-0.12460112
146	0x3c88173f	0.016612647
147	0x3d8265f7	0.063671045
148	0xbf04ef42	-0.5192758
149	0xbf745142	-0.9543649
150	0x3fce7fdb	1.6132768
151	0xc02b9cca	-2.6814446
152	0x3e33b45a	0.17549267
153	0x3e9d5e40	0.3073597
154	0xbf2a92f2	-0.6663047
155	0x3e96a644	0.29423726
156	0x3f782c27	0.9694237
157	0x3ffda58d	1.9816147
158	0xbf41d361	-0.75713164
159	0xbeafd6bc	-0.34343517
160	0x3f31f4be	0.6951407
161	0x3de16a29	0.110065766
162	0x3fba140e	1.453737
163	0xbf9c1740	-1.2194595
164	0xbd103b81	-0.035212997
165	0x3f3155ff	0.69271845
166	0xbea17f5d	-0.31542483
167	0xbf8fb1e7	-1.1226166
168	0x3fc75780	1.5573578
169	0xbf06f0ab	-0.5271098
170	0x3fe21cb3	1.7665008
171	0x3dc9f2fa	0.09860797
172	0x3f8f4c40	1.1195145
173	0x3fd9e78b	1.7023786
174	0xbf1dd92b	-0.616595
175	0x3f46cfcd	0.7766083
176	0xbeb8d0c1	-0.36096767
177	0x3f0bdab8	0.54630613
178	0x4022064d	2.5316346
179	0x3fad2ab7	1.352866
180	0x3f73414f	0.9502153
181	0x3f8a5be1	1.0809289
182	0x3e52b81d	0.20578046
183	0x3e3f7eb6	0.1870068
184	0xbf768f8f	-0.96312803
185	0x3dc393e1	0.0954969
186	0xbf5eb5c4	-0.869961
187	0x3fc4b95c	1.5369067
188	0x3eccf54a	0.4003089
189	0x3f8575ab	1.0426534
190	0xbd8f7344	-0.07004407
191	0x3fe31b9b	1.77428
192	0x3fce7fe0	1.6132774
193	0xbdce683c	-0.10078475
194	0xbf1e187f	-0.6175613
195	0xbd82a399	-0.0637886
196	0x3e658c89	0.22416891
197	0xbf0c9872	-0.54920113
198	0x40020b64	2.0319452
199	0xc0448df3	-3.071164
200	0x3db722c4	0.08942178
201	0xbf2b7785	-0.6697925
202	0x3ea36160	0.3191023
203	0xbf7af8dc	-0.9803598
204	0x3fc4ee8d	1.53853
205	0x3ff733f2	1.9312727
206	0x3f248e0b	0.6427924
207	0x3f3c022b	0.7344081
208	0xbe20520c	-0.15656298
209	0xbec92bd4	-0.3929125
210	0xbf4a849d	-0.791086
211	0xbd2d51d0	-0.04231435
212	0x3ca05a51	0.019574316
213	0x3e1dd472	0.15413073
214	0xbe5f2a8c	-0.21793574
215	0x3f340a05	0.7032779
216	0x3fdceb00	1.7259216
217	0x3f4aa4ca	0.791577
218	0x3fdf803a	1.7461007
219	0x3edc60ae	0.4304251
220	0x3fc5f93a	1.5466683
221	0x3fbbdf0a	1.4677441
222	0x3e5cb729	0.21554245
223	0xbdec72f1	-0.11545361
224	0x3fc64cd5	1.5492197
225	0xbef0b315	-0.4701163
226	0x3fd650e3	1.6743435
227	0x3fc1ed74	1.515059
228	0x3e134281	0.14380838
229	0x3f43ce2f	0.76486486
230	0x3f859084	1.0434728
231	0x3f905574	1.1276078
232	0x3e4c6623	0.19960837
233	0x3e2c0eef	0.16802572
234	0x3f34c3d7	0.7061133
235	0x3f6c1583	0.92220324
236	0x3f87c8af	1.0608119
237	0x3d34a61f	0.044103738
238	0x3f5dbceb	0.8661639
239	0x3ec6e262	0.3884459
240	0x3ecb1b09	0.39669064
241	0x3c1a0171	0.009399758
242	0x3e8b56d7	0.2721469
243	0xbe09bb30	-0.13450313
244	0x3f3b635b	0.7319848
245	0x3e8a1b8c	0.26974142
246	0x3f2f1032	0.6838409
247	0xbed87f60	-0.4228468
248	0xbb8448ee	-0.004037014
249	0xbde8ccd9	-0.113671966
250	0xbf1b325e	-0.6062373
251	0xbe2ee6eb	-0.17080276
252	0x3f51dd6b	0.8197848
253	0x3f26c481	0.6514359
254	0x3f0377b2	0.51354516
255	0x3f0567f0	0.5211172

representation.radial_transform.weights.3 f4 [6, 12, 4]
0	0x40198e1b	2.3992984
1	0xb9dd9a9c	-0.00042267598
2	0x3d3166e3	0.04331101
3	0x3f8f11ba	1.1177285
4	0x3f9da2c7	1.2315301
5	0x3f856e1f	1.0424231
6	0xc0074c12	-2.114018
7	0xbf5b803f	-0.85742563
8	0xbe800f70	-0.25011778
9	0x3f088970	0.53334713
10	0x3f12e48d	0.5737999
11	0xbfeac36a	-1.8340886
12	0x3fe831ba	1.8140175
13	0x3fc9d3f4	1.5767808
14	0xbfd046c1	-1.6271592
15	0xbe8b9c98	-0.2726791
16	0xbfed61d4	-1.854548
17	0xc012a690	-2.2914162
18	0xbe926d77	-0.2859914
19	0xbea7bc5e	-0.327609
20	0x403b4eb2	2.9266782
21	0x3f1f01f8	0.6211238
22	0x3fc3f4cc	1.5309081
23	0xbe724475	-0.23658927
24	0xbf628d2d	-0.8849667
25	0x3fab2221	1.336979
26	0xbfdcde15	-1.7255274
27	0xbf85ee18	-1.0463285
28	0x40cfd68f	6.494941
29	0x3ec338e2	0.38129336
30	0x3fc1df6d	1.5146309
31	0x3f08e2fd	0.53471357
32	0xbe846bcb	-0.2586349
33	0x4069bf86	3.6523147
34	0x3f7c1900	0.98475647
35	0x3f214437	0.6299471
36	0xc0842309	-4.1292768
37	0x3f198d5c	0.5998132
38	0x3fdf2a3d	1.7434765
39	0x3fd97117	1.6987637
40	0x4007f432	2.1242795
41	0xbf8ac442	-1.0841143
42	0xbf04653e	-0.51716983
43	0x3f5fadd3	0.8737461
44	0x3ffbc799	1.9670287
45	0xbf8b5fb5	-1.0888582
46	0x3ffac436	1.9591129
47	0xbe085840	-0.13314915
48	0x3fe9dd79	1.8270713
49	0x3fa7993b	1.3093637
50	0x3f487a7b	0.7831189
51	0x3f7ba7b7	0.9830279
52	0xbd85f508	-0.065408766
53	0x3f81a5be	1.0128706
54	0xbfa12814	-1.2590356
55	0xbf879960	-1.0593681
56	0x3d09f020	0.033676267
57	0xbf714a55	-0.94254047
58	0xbfa65624	-1.2995038
59	0xbf96377d	-1.1735684
60	0xbf8dd6ee	-1.1081216
61	0xbdb1dc4e	-0.08684598
62	0x3f69ba9c	0.9130037
63	0x3eba9198	0.36439204
64	0x3fefe30a	1.8741162
65	0xbf2ba601	-0.67050177
66	0x3f0d9202	0.55300915
67	0xbf8600de	-1.0469015
68	0xbfe64810	-1.7990742
69	0x3ef634d9	0.48087195
70	0x3e17ef22	0.14837316
71	0x3f4685cc	0.7754791
72	0x3f76d312	0.9641582
73	0x3f95f633	1.1715759
74	0x40073077	2.112333
75	0xbfab5138	-1.3384161
76	0xbf01ea28	-0.5074792
77	0x3f7e6500	0.99372864
78	0x3f5b6a10	0.85708714
79	0x3faa8652	1.3322241
80	0xbfd5d2ea	-1.6704991
81	0x3fe53564	1.7906919
82	0x3d65dd6c	0.056119367
83	0x3f83e76a	1.0304997
84	0x3e814b39	0.25252703
85	0x3ff6e664	1.928906
86	0x3f68f9eb	0.91006345
87	0x3f88a8b0	1.0676479
88	0xbf1509ef	-0.5821828
89	0xbe232151	-0.15930678
90	0xbd85f172	-0.06540193
91	0x3fc6b708	1.5524607
92	0x3f85e2e7	1.045987
93	0x3e97e1af	0.2966437
94	0x3fbcd91a	1.4753754
95	0x3f36bbfb	0.71380585
96	0x3f36cdc5	0.7140773
97	0x3f843c86	1.033097
98	0x3ff0cabc	1.881187
99	0xbf928369	-1.1446353
100	0xbf5d33ee	-0.86407363
101	0x3f3b27a6	0.73107374
102	0x3fb96a10	1.4485493
103	0xbf045fb9	-0.5170856
104	0x3e75de1e	0.24010512
105	0x3f5d0977	0.8634257
106	0x3fc3c754	1.5295205
107	0x3f794489	0.973702
108	0xbf174443	-0.59088534
109	0x3e964580	0.293499
110	0x3f3b3e99	0.7314239
111	0x3f8d8c84	1.1058507
112	0x3e83d506	0.2574846
113	0x3ef847a7	0.48492166
114	0x3e8c8221	0.2744303
115	0xbf005960	-0.50136375
116	0x3fdf9fd0	1.7470646
117	0xbf91793d	-1.1365124
118	0x3f9d9638	1.2311468
119	0x3e8a423a	0.27003652
120	0x3f055bec	0.52093387
121	0xbf2891d5	-0.6584752
122	0xbf4f2920	-0.80922127
123	0xbe30b00b	-0.17254655
124	0x3d974876	0.07386868
125	0xbcf8a689	-0.030352848
126	0x3f950cce	1.1644533
127	0x3fdb898a	1.7151349
128	0x3f1c4810	0.6104746
129	0x3f118906	0.56849706
130	0x3e340f23	0.17583899
131	0x3fe9528a	1.8228314
132	0x3f212a80	0.62955475
133	0x3f8ef0ae	1.11672
134	0xbf402ca5	-0.7506812
135	0x3f58d90c	0.8470619
136	0xbe225a5d	-0.15854783
137	0x3c923ed0	0.017852217
138	0x3f4df120	0.8044605
139	0xbfbc1c08	-1.4696054
140	0xbf27fab3	-0.6561691
141	0xbec1271f	-0.3772516
142	0xbe02ada2	-0.12761548
143	0x40021302	2.0324101
144	0xbe8600ea	-0.26172572
145	0xbe855135	-0.2603852
146	0x40374fd7	2.864248
147	0x3c8dc017	0.01730351
148	0x3fa73e4c	1.3065886
149	0x3edd2f76	0.43200272
150	0x3ed218ab	0.41034445
151	0x3f740eca	0.95335066
152	0x3f909a58	1.1297102
153	0xbe3663dd	-0.17811532
154	0xbf9918f4	-1.196074
155	0x3fd224b2	1.6417449
156	0xbe2a8c44	-0.1665507
157	0x3f768adf	0.9630565
158	0x3ea9b6f7	0.33147404
159	0x3ee70c4b	0.45126566
160	0x3e5c2b11	0.21500804
161	0x3f8bb60f	1.0914935
162	0x3faab39b	1.3336061
163	0x3fe9374b	1.8219999
164	0xbdd5d450	-0.10440886
165	0x3f44c8a5	0.7686866
166	0xbebb7167	-0.36609957
167	0x3fbd542d	1.4791313
168	0x3f3f35e9	0.74691635
169	0xbe821753	-0.2540842
170	0x3d69a4ca	0.05704192
171	0x3fd07e60	1.6288567
172	0xbf2b41bc	-0.6689718
173	0x3df0dabb	0.117604695
174	0xbf3ee90b	-0.74574345
175	0x3f5a650c	0.85310435
176	0x3f7a2e46	0.9772686
177	0xbd9ed2aa	-0.07755025
178	0x3faa2bad	1.3294579
179	0x3e6712b8	0.22565734
180	0xbf37d6e5	-0.7181228
181	0x3f22d801	0.63610846
182	0x3ed68ac9	0.4190276
183	0x3cb2bbee	0.021818127
184	0x3f98d341	1.193947
185	0x3fbc2eb6	1.4701755
186	0x3fb2275f	1.3918265
187	0xbea83e9f	-0.32860276
188	0x3f82fc85	1.0233313
189	0x3ee6dff3	0.45092735
190	0xbe85eb3b	-0.2615603
191	0x3dc55a93	0.09636416
192	0xbf1872d1	-0.59550196
193	0xbf7bbd53	-0.9833576
194	0x400a88e0	2.1646042
195	0x3e0acb87	0.13554202
196	0x3f6d3f4a	0.92674696
197	0x3db60a23	0.08888652
198	0xbe7b03ff	-0.24513243
199	0xbf958883	-1.1682285
200	0x3fadfa7b	1.3592066
201	0x3d21003a	0.039306857
202	0x3f092265	0.53568107
203	0xbe869181	-0.26282886
204	0x3f61ad93	0.8815548
205	0x3fc5354b	1.5406889
206	0xbf11aa86	-0.56900823
207	0x3f8aa67d	1.0832058
208	0xbe2a8aca	-0.16654506
209	0x3f7d13e8	0.988585
210	0x3fc81f3e	1.5634534
211	0x3f0f52d1	0.5598574
212	0xbeab5fbc	-0.33471477
213	0xbee62798	-0.44952083
214	0xbef628fd	-0.48078147
215	0xbf82b6cb	-1.0212034
216	0x3f9c91fc	1.2232051
217	0x3e27377c	0.1632976
218	0xbf2392f4	-0.6389611
219	0xbe313673	-0.17305927
220	0x3edd435a	0.43215448
221	0x3f2ea8c8	0.6822629
222	0xbe20ba09	-0.15695967
223	0xbf4202a3	-0.75785273
224	0xbee4410c	-0.44580877
225	0xbdddaad1	-0.10823596
226	0x3e9b3633	0.30314788
227	0xbf427d8d	-0.75972825
228	0x3e548c73	0.20756702
229	0xbdc6aed3	-0.09701314
230	0xbca4bbba	-0.020109046
231	0xbf6dd6b8	-0.9290576
232	0x3f6a8438	0.91608
233	0x3f70919c	0.9397218
234	0x3f710ec8	0.9416318
235	0xbe276d9d	-0.16350408
236	0x3f4ef00d	0.8083504
237	0x3f7f1bdd	0.9965189
238	0x3f8ae2f5	1.0850512
239	0xbf4c9a74	-0.79923177
240	0xbd64ea6d	-0.05588763
241	0xbebc3b0b	-0.36763796
242	0x3f202a05	0.62564117
243	0x3e5d736f	0.21626066
244	0x3ecbcfde	0.39807028
245	0x3c301c09	0.010748872
246	0xbd57e09c	-0.05270444
247	0xbf5aecfb	-0.85517853
248	0x3eaa49bf	0.3325939
249	0x3f34a8bf	0.70569986
250	0xbe458f17	-0.19292866
251	0xbbdb109d	-0.00668533
252	0x3f896ba3	1.0735973
253	0x3f05969d	0.5218294
254	0x3e479ea2	0.19494107
255	0x3e7f0279	0.24903287

output_modules.0.outnet.0.linear.weight f4 [32, 288]
0	0xbd7e8cad	-0.062145878
1	0x3ca92f98	0.020652577
2	0xbfa797b3	-1.309317
3	0xbcc585de	-0.024111684
4	0x3fe075de	1.753597
5	0x3ddf3ad1	0.1089989
6	0xbf3cb394	-0.73711514
7	0x3ea19686	0.31560153
8	0xbeca32c5	-0.3949186
9	0x3d9aeb41	0.07564402
10	0xbe925a51	-0.2858453
11	0xc05717f7	-3.3608377
12	0xbf2154cd	-0.6302002
13	0xbe0aa16c	-0.1353814
14	0xbddaf391	-0.10690988
15	0xbba41aad	-0.005008063
16	0x3e8a482e	0.27008194
17	0x3ea1b56c	0.31583726
18	0xbff66498	-1.9249449
19	0xc03a4e8b	-2.911044
20	0x3f4f5ae0	0.8099804
21	0x3f0346bd	0.51279813
22	0xbf95b08a	-1.16945
23	0x40a85e1b	5.2614875
24	0xbfc5e7d8	-1.5461378
25	0xbc4ef174	-0.012630809
26	0x3bf57f96	0.007492016
27	0xbd82ce83	-0.06387045
28	0x3f189a55	0.5961049
29	0x3ee9a7cd	0.45635834
30	0x3e8744b1	0.26419595
31	0x3f40ed53	0.7536213
32	0xbf28defc	-0.6596525
33	0xbe3645b9	-0.17800035
34	0xbd674d7a	-0.05647037
35	0x3fd19bcd	1.6375672
36	0xbf665030	-0.89966106
37	0xbe37f631	-0.17965008
38	0x3f13e1ba	0.57766306
39	0xbf6920c9	-0.9106565
40	0x3f1d0ee7	0.61350864
41	0x3f343dae	0.70406616
42	0x407e9809	3.9780295
43	0x3f9906b3	1.195517
44	0x40a5762a	5.1706743
45	0x4068c478	3.6369915
46	0xc03aa6d6	-2.9164329
47	0xbff0a317	-1.8799771
48	0x3d955791	0.072920926
49	0x3e57e2a8	0.21082556
50	0x3be5acd6	0.007009129
51	0x3c684055	0.014175494
52	0xbf107cc1	-0.5644036
53	0x3fade468	1.3585329
54	0xbf6ef65e	-0.93344676
55	0xbfa3dd7e	-1.2801969
56	0x3ecdc4eb	0.401893
57	0x3f04cd9c	0.51876235
58	0xbe614169	-0.21997608
59	0xbf48ba2c	-0.78409076
60	0xbf1e7bf5	-0.61907893
61	0xbff35f8a	-1.9013531
62	0x3fed2c83	1.8529209
63	0x3edadb6b	0.42745528
64	0x3c73569e	0.014852194
65	0xbf17fec1	-0.593731
66	0x3eefa869	0.46808174
67	0x3edff70e	0.43743175
68	0x401329a8	2.2994175
69	0xbea98b42	-0.33114058
70	0x411cf7ff	9.810546
71	0xc0c337d5	-6.1005654
72	0xbdc0cd67	-0.094141774
73	0xbd581dd0	-0.052762806
74	0xba7f54ec	-0.00097401324
75	0xbe4ea7a2	-0.20181134
76	0xbf74a65c	-0.95566344
77	0xbe6d0dd4	-0.23149806
78	0xbefaa630	-0.48954916
79	0xbee73610	-0.45158434
80	0xbf8760c7	-1.0576409
81	0x3ed83ed3	0.4223543
82	0xc05850cb	-3.3799312
83	0xbfd8428e	-1.6895311
84	0xbeb42dc6	-0.35191172
85	0x3c57ec4d	0.013178897
86	0xbf1be454	-0.60895276
87	0xc0069dcc	-2.1033812
88	0xbfdd01e7	-1.7266206
89	0xbfdd3d8e	-1.728441
90	0x40cf3952	6.475747
91	0xbfb82381	-1.4385835
92	0x3fd8c3a1	1.6934701
93	0x403cafe0	2.9482346
94	0x40f53952	7.663247
95	0xbf39f70c	-0.7264259
96	0xbf9157d9	-1.1354934
97	0xbec2515e	-0.37952703
98	0x3ebf2f19	0.3734062
99	0x3ca2ad78	0.019858107
100	0xc056c11c	-3.3555365
101	0x3ecdc303	0.40187845
102	0x3ee7eac8	0.4529631
103	0xbd3451a3	-0.044023167
104	0xc04385ed	-3.0550492
105	0xbe7da96c	-0.2477166
106	0x3fdb5dea	1.7138035
107	0xbfa361bb	-1.27642
108	0xbf35cce8	-0.7101579
109	0x3fb6132b	1.42246
110	0x3fe90274	1.8203874
111	0x3fb48191	1.410204
112	0xbfc7a9a3	-1.5598644
113	0x3f80162f	1.000677
114	0xbf15c979	-0.5851055
115	0x3ec5f697	0.38664696
116	0xc030566b	-2.7552745
117	0x3ed67d59	0.41892508
118	0xbfe6d07e	-1.8032377
119	0x4116fb59	9.436364
120	0xbe9fa8f1	-0.3118358
121	0xbf913a01	-1.1345826
122	0x3bbd0107	0.0057679447
123	0x3d1d13a3	0.038348805
124	0xbf7f21c3	-0.9966089
125	0xbf8e4234	-1.1113954
126	0x4019f0b9	2.4053175
127	0x3fcf5baa	1.6199849
128	0x3ff10d1b	1.8832124
129	0xbda77b9f	-0.08177876
130	0x3f0fe4b8	0.5620837
131	0x3f3c6ce3	0.7360365
132	0xc046c483	-3.1057441
133	0xbeda0a08	-0.42585778
134	0x3f9a5698	1.2057676
135	0xbe690986	-0.22757539
136	0x4061e4af	3.5295827
137	0x3f26e3f9	0.6519161
138	0xbf0218ee	-0.5081929
139	0xc0260615	-2.5941212
140	0x400fcf93	2.2470443
141	0x3f6c9e11	0.9242869
142	0xbfeab0cb	-1.8335203
143	0x3fbd459a	1.4786866
144	0xbf2b33b2	-0.66875756
145	0x3ed3f187	0.41395208
146	0xb8bd8741	-9.037415e-05
147	0xbe082ecc	-0.13299102
148	0x3d8467d4	0.06465116
149	0x3ee29b7a	0.44259244
150	0xbf342e77	-0.703834
151	0xbea88e8d	-0.32921258
152	0x3f998b89	1.1995708
153	0xbf4cd70d	-0.8001564
154	0x3e8004da	0.250037
155	0x3f2631ee	0.64919937
156	0xbf808118	-1.0039396
157	0xbf6fe1c2	-0.93703854
158	0xc035cb1c	-2.8405218
159	0xbf114846	-0.56750906
160	0x3f953a1b	1.1658357
161	0x407e7503	3.9758918
162	0xbf45e73a	-0.7730595
163	0xbea8181e	-0.328309
164	0xbf4d30a3	-0.8015234
165	0x3fca5488	1.5807047
166	0x3fabb48d	1.3414475
167	0xc02acb0c	-2.668643
168	0x3f0873e4	0.53301835
169	0x3cfd6b3e	0.030934926
170	0x3bc6f6f1	0.006071918
171	0xbe97fc7c	-0.29684818
172	0xbf64880a	-0.8927008
173	0x3f8ee7c7	1.1164483
174	0xbee162df	-0.44020745
175	0x3f601c51	0.8754321
176	0xc00508a7	-2.078653
177	0xbf06ba24	-0.5262778
178	0xbfeab43d	-1.8336254
179	0x402cb5a5	2.6985867
180	0x3ebd6aa7	0.36995432
181	0x3eac3332	0.3363281
182	0xbee5dbb7	-0.44894192
183	0xbc2ea56a	-0.010659555
184	0x3f6156c7	0.88023037
185	0x4091627f	4.5432734
186	0x408be3fa	4.371579
187	0x40572ae3	3.3619926
188	0x3f111639	0.56674534
189	0xc02c882f	-2.695812
190	0xbfe05f01	-1.7528993
191	0x407e0c40	3.9694977
192	0xbeb0029c	-0.3437699
193	0xbe2377a6	-0.15963611
194	0xbf66e3ee	-0.90191543
195	0x3e1f65a4	0.15566117
196	0x3d903ee4	0.070432454
197	0x3f4a8ea2	0.7912389
198	0xbef1ea16	-0.47248906
199	0xbf3e7de8	-0.7441087
200	0xbe85d19b	-0.2613648
201	0xbb846b44	-0.0040411074
202	0x3d5fce6a	0.05464021
203	0xbf981c52	-1.1883643
204	0xc0032601	-2.0491946
205	0x3e3b238d	0.1827528
206	0x402f8580	2.7425232
207	0x3e70706e	0.23480389
208	0x4080cb89	4.0248456
209	0xbfa51ff5	-1.2900378
210	0xbf86376e	-1.0485666
211	0x4122c50c	10.173107
212	0xc094b202	-4.6467295
213	0xbd97cd5b	-0.07412215
214	0xbf0a08bb	-0.5391957
215	0x3fcead28	1.6146593
216	0xbebb55d8	-0.3658893
217	0xbea3f276	-0.3202092
218	0x40112bca	2.2682977
219	0xbedbd1e5	-0.42933574
220	0x3e4d091b	0.20023005
221	0xbec6944d	-0.3878502
222	0xbfc7af67	-1.5600404
223	0x3fb9c6bd	1.4513775
224	0xbf52202a	-0.8208033
225	0x3f0c3118	0.5476241
226	0xbf7656a3	-0.9622595
227	0x3d7c6011	0.061615054
228	0xbf96562e	-1.174505
229	0x3f689f9e	0.90868556
230	0xbfb728b0	-1.4309292
231	0xbf0afd60	-0.5429287
232	0xc05ffa69	-3.4996588
233	0xbf8e84f6	-1.1134326
234	0x404d1892	3.2046247
235	0x4024320f	2.5655553
236	0x40c31974	6.096857
237	0x3f1a378e	0.6024102
238	0x402e9796	2.728002
239	0x40034975	2.0513585
240	0xbef24447	-0.47317716
241	0xbfd71de5	-1.6805998
242	0xbb0781ef	-0.0020676812
243	0xbf0d7e22	-0.5527059
244	0x3e78c395	0.24293359
245	0xbf761797	-0.96129745
246	0x3fdf3825	1.7439009
247	0x3f6356e2	0.8880445
248	0xbeb0616e	-0.34449333
249	0x3e2c49b9	0.16824998
250	0x3ffcb5e8	1.9743013
251	0xc00e119e	-2.2198253
252	0xbe928a0a	-0.2862094
253	0xbfeba037	-1.8408269
254	0xbe6765de	-0.22597453
255	0x3e4f72e2	0.20258668

output_modules.0.outnet.0.linear.bias f4 [32]
0	0xbf1f110a	-0.62135375
1	0xbe4eaecf	-0.20183872
2	0xc005ca7b	-2.0904834
3	0xbe28c719	-0.164822
4	0x3ece158e	0.4025082
5	0xbf16a5d5	-0.5884679
6	0xbfbfe7d8	-1.4992628
7	0xbf4e0655	-0.8047841
8	0xbf010d46	-0.5041088
9	0xbf0614ef	-0.5237569
10	0xbeb2f7b7	-0.34954616
11	0x3dc1e8a6	0.09468202
12	0xbf442b72	-0.7662879
13	0xbf47ba3c	-0.78018546
14	0x3ef56d65	0.47935024
15	0xbeb27ace	-0.34859318
16	0xbf8e6132	-1.1123412
17	0xbece2b32	-0.4026733
18	0xbf911574	-1.1334672
19	0xbd750351	-0.059817616
20	0xbefc4396	-0.49270314
21	0xbf8b93a4	-1.0904431
22	0xbd58d43f	-0.05293679
23	0xbf8ee8dc	-1.1164813
24	0xbc6c35eb	-0.014417152
25	0x3f33e1f0	0.7026663
26	0xbf45bad3	-0.77238196
27	0xbf61314c	-0.87965846
28	0xbeb19fb6	-0.34692162
29	0xc0004ed2	-2.0048108
30	0xbe6759ba	-0.22592822
31	0xbf5a491b	-0.852678

output_modules.0.outnet.1.linear.weight f4 [16, 32]
0	0xbd1d4b9c	-0.038402185
1	0x3c4a0c3b	0.0123320175
2	0xbd4190a1	-0.04725707
3	0xbc66d2d1	-0.0140883485
4	0x3e73e162	0.23816445
5	0xbe08221a	-0.13294259
6	0x3f5d9980	0.8656235
7	0x3e85d807	0.26141378
8	0xbe0866af	-0.1332042
9	0xbe49be86	-0.19701585
10	0x3d349ab8	0.044092864
11	0x3c0111d3	0.007877785
12	0xbf0a2040	-0.5395546
13	0x3f18c753	0.59679145
14	0xbdf1ebbb	-0.1181254
15	0xbccc7023	-0.024955815
16	0xbd86c0c0	-0.06579733
17	0xbcd6551b	-0.026163628
18	0x3e643339	0.22285165
19	0xbdc54ff8	-0.096343935
20	0x3daca42f	0.08429753
21	0xbe02e272	-0.12781695
22	0xbd2bea48	-0.041971475
23	0x3fa65100	1.2993469
24	0x3c6bbc09	0.014388093
25	0xbd90ce6c	-0.07070622
26	0xbbc0510f	-0.005869038
27	0x3de05e3d	0.109554745
28	0x3dc2a94c	0.09504947
29	0xbf23bb75	-0.6395791
30	0x3c637d6a	0.0138848815
31	0xbf0ccf98	-0.5500426
32	0xbce13d91	-0.027495177
33	0x3c0e2a69	0.008677104
34	0xbd714389	-0.058902297
35	0xbda0265b	-0.07819816
36	0x3e18bdba	0.14916125
37	0x3ca3f875	0.020015934
38	0x3f522d32	0.8210021
39	0x3e089176	0.13336739
40	0xbde300d7	-0.110841446
41	0xbe734161	-0.23755409
42	0x3cf9b572	0.030482028
43	0xbc092b8e	-0.008372201
44	0xbf1b7d74	-0.607383
45	0x3f3b4e8b	0.7316672
46	0xbe1acacf	-0.15116428
47	0x3b2d2a99	0.0026423095
48	0x3e1c37a4	0.152556
49	0xbcf22a1d	-0.029561097
50	0xbd4fbbba	-0.05071614
51	0xbe662b60	-0.22477484
52	0xbdcf7cca	-0.101312235
53	0xbda4dcda	-0.080499366
54	0xbce1ec1a	-0.027578402
55	0x3f995344	1.1978536
56	0xbbc2c05d	-0.0059433416
57	0xbd80d7d0	-0.06291163
58	0xbc4b3b99	-0.012404346
59	0x3e870da9	0.2637761
60	0x3dc3f0cc	0.09567413
61	0xbf20437b	-0.6260297
62	0xbc1e7140	-0.009670556
63	0xbece9671	-0.40349153
64	0xbf861e58	-1.047801
65	0xbf584c61	-0.84491545
66	0x3ed06be1	0.40707305
67	0x3f4a16e7	0.78941196
68	0xbc87a10a	-0.016556282
69	0xbe9226c1	-0.28545192
70	0xbf7209c8	-0.94546175
71	0x3f9b4260	1.2129631
72	0xbf077627	-0.5291466
73	0xbdc6d5b9	-0.09708733
74	0xbed24c63	-0.41073903
75	0x3f9c079d	1.2189823
76	0x3cc68ad3	0.024236118
77	0x3ecdb746	0.4017889
78	0x3eff69e1	0.49885467
79	0x3f0d0e4b	0.55099934
80	0x3f278195	0.654321
81	0x3ecc0361	0.39846328
82	0x3f0cd8de	0.55018413
83	0xbeb1728f	-0.34657714
84	0x3ea4af52	0.3216501
85	0x3c854dbb	0.016272416
86	0x3f9c136d	1.2193428
87	0xbebbfb67	-0.36715242
88	0x3f80841a	1.0040314
89	0x3f12da74	0.57364583
90	0x3e8a5e3c	0.2702502
91	0x3e91df29	0.2849057
92	0xbef3afa6	-0.47594947
93	0x3f05ebdc	0.5231302
94	0xbf56801e	-0.8378924
95	0x3eed2bb0	0.46322393
96	0xbc2e091e	-0.010622291
97	0x3b9de6fc	0.0048187952
98	0x3c206c1d	0.009791401
99	0x3bd49bfe	0.0064883223
100	0x3cda1dfb	0.026625624
101	0xbdd4ac86	-0.10384469
102	0xbde8ab1f	-0.11360764
103	0xbda64d8a	-0.08120258
104	0xbdbd1d86	-0.09234147
105	0x3dd50a80	0.10402393
106	0x3cc7ba3d	0.024380798
107	0x3c76801b	0.015045191
108	0x3e0a892c	0.1352889
109	0x3d3f76c1	0.046744112
110	0xbb982ee4	-0.0046442617
111	0xbba10327	-0.004913706
112	0xbcfb0415	-0.030641595
113	0xbd2b195e	-0.04177224
114	0xbcf0bbb4	-0.029386379
115	0xbcbe5120	-0.023232043
116	0x3dba6b32	0.09102477
117	0xbc983b8f	-0.018583087
118	0xbce34d45	-0.027746806
119	0xbc223f06	-0.009902721
120	0xbc709224	-0.01468328
121	0xbbd74111	-0.006569036
122	0xbb367b2c	-0.0027844412
123	0x3e0535db	0.13008825
124	0xbd20d2c3	-0.039263498
125	0xbc2e7a19	-0.010649228
126	0xbb848a6a	-0.0040448206
127	0xbab01b55	-0.001343588
128	0x3f45278a	0.77013457
129	0xbf1c9471	-0.61164004
130	0xbe77e550	-0.2420857
131	0x3ebd50db	0.3697575
132	0xbe1bfcdd	-0.15233178
133	0xbef57aa4	-0.4794513
134	0x3d3f4cd1	0.046704117
135	0xbece5827	-0.4030163
136	0xbef84767	-0.48491976
137	0xbefe1fbe	-0.49633592
138	0x3e3bb425	0.18330438
139	0xbe198373	-0.1499155
140	0xbf50f093	-0.8161709
141	0xbebee1d9	-0.37281683
142	0xbe9cd7cd	-0.30633393
143	0xbeb5f4c7	-0.35538313
144	0xbe99a68e	-0.30009884
145	0xbf4b588d	-0.7943199
146	0xbe88f2d6	-0.2674777
147	0xbe72f316	-0.23725542
148	0xbf0f51e9	-0.5598436
149	0xbf1a69cc	-0.60317683
150	0x3d0ba5c7	0.034093644
151	0xbf36e7d2	-0.7144748
152	0x3f7cca96	0.9874662
153	0xbe9c4859	-0.30523947
154	0x3ef2449c	0.4731797
155	0xbdc7c8d6	-0.09755103
156	0x3e1847e4	0.14871174
157	0xbf28f8c2	-0.66004574
158	0x3dea58cf	0.1144272
159	0xbf9276e0	-1.1442528
160	0xbb27c756	-0.0025600991
161	0xbc6545f1	-0.013993726
162	0x3c7cebe4	0.0154371
163	0xbbd969c4	-0.0066349227
164	0x3d3a0d45	0.04542281
165	0xbe11e296	-0.14246592
166	0xbd9c1374	-0.07620898
167	0x3cb38f68	0.021918967
168	0x3d8e8442	0.0695882
169	0x3da481f2	0.080325976
170	0xbcfae15e	-0.030625042
171	0x3ccba1ed	0.024857486
172	0xbd4fb509	-0.050709758
173	0x3d0f91de	0.03505122
174	0xb9bd2a96	-0.00036080618
175	0x3aaec424	0.0013333601
176	0x3dc079ea	0.09398253
177	0x3d1d962f	0.038473304
178	0x3d50f72f	0.051016983
179	0xb94af7e0	-0.00019356562
180	0x3d9dddc4	0.07708314
181	0xbb423420	-0.002963312
182	0xbc14c02e	-0.009079022
183	0xbd248fde	-0.040176265
184	0x3c970f47	0.018439902
185	0xbb196a36	-0.0023409254
186	0xbc38f44a	-0.011288712
187	0xbe18819d	-0.14893194
188	0x3d3aac85	0.045574684
189	0xbc39abb2	-0.011332439
190	0xbc652eeb	-0.013988237
191	0xbc2f8a83	-0.010714176
192	0xbb29d388	-0.0025913436
193	0xbcf8da23	-0.030377453
194	0x3c0d07af	0.008607789
195	0x3c3b2b47	0.011423892
196	0x3cdadb2f	0.026715843
197	0xbd84d088	-0.06485087
198	0xbd023b95	-0.031795103
199	0xbd978c9b	-0.07399865
200	0xbdb572f5	-0.08859817
201	0x3e45d8ef	0.19321035
202	0x3c461ecc	0.0120923035
203	0x3c2ebe89	0.010665544
204	0x3cf7d9fd	0.030255312
205	0x3bedd634	0.007258201
206	0x3aa9eecb	0.0012964843
207	0xbb9b0d2a	-0.004731794
208	0x3d96f1d8	0.07370347
209	0x3ca0c2e8	0.019624189
210	0xbbfe3481	-0.007757724
211	0x3bacf40a	0.005278115
212	0xbcdf84a8	-0.027284935
213	0xbc4c6825	-0.012476002
214	0xba0eb54e	-0.00054438866
215	0x3b7043f5	0.00366616
216	0x3d472eb6	0.04862853
217	0xbc850433	-0.016237354
218	0x3bd72917	0.0065661776
219	0x3dd4ecab	0.10396703
220	0x3d04dab8	0.03243515
221	0xbb05f144	-0.0020437995
222	0xbc0655f8	-0.0081992075
223	0x3d506929	0.05088154
224	0x3b677b84	0.0035321424
225	0xbc7f2ea4	-0.015575085
226	0x3cc298c3	0.023754483
227	0x3c8bb26d	0.017052853
228	0x3c8e3366	0.017358493
229	0x3e168412	0.14698818
230	0x3d5025dd	0.05081736
231	0x3d402866	0.046913527
232	0xbdba48f6	-0.090959474
233	0xbe08785a	-0.1332716
234	0x3dac9270	0.08426368
235	0x3c520f2a	0.012820998
236	0x3c71e296	0.014763495
237	0x3c9f4b82	0.019445185
238	0xbc4f6174	-0.012657512
239	0x3c1290fb	0.008945699
240	0xbd4b6d96	-0.049665056
241	0xbd063b28	-0.03277126
242	0xbade6668	-0.0016967775
243	0xbd740733	-0.05957718
244	0xbc50130d	-0.012699855
245	0xbbe2c1c1	-0.00692007
246	0xbc9fdc93	-0.019514358
247	0x3d422ae5	0.04740419
248	0xbc05e3f9	-0.008172029
249	0xbc423251	-0.011852817
250	0x3c2190e8	0.0098612085
251	0x3dd2ae9d	0.10287211
252	0xbdd1471c	-0.10218641
253	0xbc0fd768	-0.008779384
254	0x3ba6ef66	0.0050944565
255	0x3dc26ac1	0.09493018

output_modules.0.outnet.1.linear.bias f4 [16]
0	0xbd115d3f	-0.035489317
1	0xbda7110d	-0.08157549
2	0xbcd3d031	-0.02585611
3	0xbc36096b	-0.011110644
4	0xbe97fb35	-0.29683843
5	0x3b08ce56	0.002087494
6	0x3bc0746a	0.0058732526
7	0xbbe0d287	-0.0068610343
8	0xbc76f960	-0.015074104
9	0x3c952776	0.018207293
10	0x3c5b14ba	0.013371641
11	0xbe8b6f45	-0.2723333
12	0x3be1cee2	0.0068911174
13	0xbe1c919e	-0.15289924
14	0xbcf5d2a5	-0.03000767
15	0x3ccd4549	0.025057452

output_modules.0.outnet.2.linear.weight f4 [1, 16]
0	0xb91d317e	-0.00014991124
1	0xbaad8a1b	-0.0013240011
2	0x3e861d3e	0.26194185
3	0x398f0700	0.000272803
4	0x3ea71cfd	0.32639304
5	0x3b05b116	0.002039974
6	0x3a4e489c	0.0007869096
7	0xba4b1bdc	-0.0007747987
8	0xbac1423f	-0.0014744474
9	0x3a5081b5	0.0007953898
10	0x3a912a2e	0.0011075193
11	0x3e81b129	0.25330475
12	0xbaf55643	-0.0018717725
13	0x3dacdd4f	0.08440649
14	0x3a7359df	0.0009283106
15	0x3a95f16a	0.0011439745

output_modules.0.linear_nn.linear.weight f4 [1, 288]
0	0x3c808479	0.015688168
1	0xbb28a8e2	-0.0025735428
2	0xbcf65944	-0.030071862
3	0xba0afe72	-0.00053021975
4	0x3f0edd52	0.5580646
5	0x3c13dcb3	0.009024787
6	0xbc707cda	-0.014678204
7	0x3e5cc782	0.21560481
8	0x3e422db5	0.18962748
9	0x3dc1e885	0.09468178
10	0xbe14f8f6	-0.14548096
11	0x3c42141f	0.011845618
12	0x3ecf8115	0.4052817
13	0xbdba4122	-0.09094454
14	0x3e5ce424	0.21571404
15	0x3e1abd1f	0.15111206
16	0x3ec9d59a	0.39420778
17	0xbe90636b	-0.2820085
18	0x3e4f7225	0.20258386
19	0x3f1b9430	0.6077299
20	0x3f391e06	0.7231144
21	0xbff38ebb	-1.9027933
22	0xbd222ce0	-0.039593577
23	0xbf846be5	-1.0345427
24	0xbc741122	-0.014896663
25	0x386f88f3	5.7109584e-05
26	0x3ade3982	0.0016954395
27	0xbb08596a	-0.0020805248
28	0x3da97747	0.082747035
29	0x3eba7786	0.36419314
30	0xbda41b94	-0.080130726
31	0x3ea14e9f	0.31505296
32	0x3e767f55	0.24072011
33	0x3cad2e6f	0.021140305
34	0x3f16ac3f	0.58856577
35	0x3da8cbc1	0.08241988
36	0x3e83ab4f	0.25716636
37	0xbe6ee42e	-0.23329231
38	0x3ce5e7dd	0.028064663
39	0xbdf086e9	-0.11744482
40	0x3d6ec2d4	0.05829127
41	0xbe788754	-0.24270374
42	0xbe39f2ce	-0.18159029
43	0xbe0d84c6	-0.1382018
44	0x3ecf2bcb	0.404631
45	0xbfb47c8e	-1.4100511
46	0xbf003780	-0.50084686
47	0xbf17dadd	-0.59318334
48	0xbe6cb71a	-0.23116723
49	0xbc877797	-0.016536517
50	0xbaa1e39b	-0.0012351157
51	0x3b020594	0.001983975
52	0x3ee23f46	0.441889
53	0x3d908df5	0.07058326
54	0x3c884c99	0.016638087
55	0x3ed0c744	0.40777028
56	0x3e865290	0.26234865
57	0x3e564b69	0.20927204
58	0x3c7a346e	0.015271289
59	0x3d926e34	0.07149926
60	0x3eb20bff	0.34774777
61	0x3c10dcf0	0.008841738
62	0xb8811cfa	-6.156597e-05
63	0x3e5c08c8	0.21487725
64	0x3f15eee8	0.58567667
65	0xbe80c426	-0.2514965
66	0x3ee7d068	0.4527619
67	0xbd83abe8	-0.06429273
68	0xbc774fbc	-0.015094694
69	0xbf0c997a	-0.54921687
70	0x3f76ec3b	0.9645421
71	0xbff139ca	-1.8845761
72	0x3e5a350b	0.21309297
73	0x3b3641d3	0.002781023
74	0xba33c7ef	-0.00068581005
75	0xbc5f0be6	-0.013613677
76	0xbe24f39b	-0.16108553
77	0x3e8ee84a	0.27911597
78	0x3d4b37d5	0.049613792
79	0xbe61d028	-0.22052062
80	0x3e07e979	0.13272657
81	0x3edee664	0.4353515
82	0x3e46954e	0.19392893
83	0xbe046837	-0.1293038
84	0x3e446d28	0.19182265
85	0x3db9f192	0.09079279
86	0xbe039668	-0.12850344
87	0xbdb6b6eb	-0.089216076
88	0x3f566557	0.8374838
89	0x3f5e52b3	0.8684494
90	0x3edcc283	0.4311715
91	0xbf1b960d	-0.60775834
92	0x3fbeb808	1.4899912
93	0x3f06b4d4	0.5261967
94	0x3ff231ce	1.8921449
95	0xbeca0e5c	-0.3946408
96	0xbd1e82c1	-0.038698915
97	0xbd6c1e78	-0.057646245
98	0xbc6b7a35	-0.014372398
99	0x3abda0b2	0.0014467447
100	0x3ea16bba	0.315275
101	0xbe2f4341	-0.17115499
102	0x3e8386b4	0.25688708
103	0x3e4d37f3	0.20040874
104	0xbde6dbf2	-0.1127242
105	0x3ee7dfaf	0.45287845
106	0x3d4855c7	0.04890993
107	0x3c8a1a09	0.016858118
108	0x3d211218	0.039323896
109	0x3e8c8781	0.2744713
110	0x3f31d8e6	0.69471586
111	0x3e8787f5	0.26470914
112	0x3f8198e8	1.0124788
113	0x3f69d7bc	0.9134481
114	0xbeacc823	-0.33746442
115	0x3d841aab	0.06450399
116	0x3ea9c75a	0.33159906
117	0x3f94a2b1	1.161215
118	0x3c4b05f9	0.012391561
119	0x3fd0853e	1.6290662
120	0x3dacf17a	0.084444955
121	0xbe2bbb0f	-0.16770576
122	0xba2e1f2c	-0.0006642218
123	0xbb20abf9	-0.0024516566
124	0x3e45a8a0	0.19302607
125	0x3f068dc1	0.5256005
126	0x3f52cbfb	0.823425
127	0x3e8f8ffd	0.28039542
128	0x3e044ad6	0.12919173
129	0x3ef9250a	0.4866107
130	0xbe40ae6d	-0.18816538
131	0xbe9b4442	-0.30325514
132	0x3cae651e	0.02128845
133	0x3c3a52d1	0.011372284
134	0xbda1d345	-0.079016246
135	0xbdf39f88	-0.118956625
136	0x3eace890	0.3377118
137	0xbf465612	-0.7747508
138	0xbe895dc7	-0.2682936
139	0x3f589f1e	0.84617794
140	0xbf040e4c	-0.51584315
141	0x3e7e3882	0.24826244
142	0x3e229574	0.15877324
143	0x3f0e43d4	0.5557225
144	0x3e6ba351	0.23011519
145	0xbd100a85	-0.035166282
146	0xbab9c1a7	-0.0014172093
147	0x3cbffc35	0.023435691
148	0xbd5149ed	-0.05109589
149	0xbb33940a	-0.002740147
150	0x3e26fa7f	0.16306494
151	0x3db377f7	0.08763116
152	0x3ec188c4	0.37799656
153	0xbe8e9762	-0.2784987
154	0x3ed43881	0.4144936
155	0x3f2270d5	0.6345342
156	0x3f06021e	0.5234698
157	0x3e489996	0.19589838
158	0x3d037689	0.032095466
159	0x397edb8b	0.00024305114
160	0x3bd9a826	0.0066423593
161	0x3e8addc4	0.2712232
162	0xbe5a095f	-0.21292637
163	0xbf19d8c4	-0.60096383
164	0x3ea74378	0.32668662
165	0xbf1964fe	-0.59919727
166	0x3d946be7	0.07247143
167	0xbfcf84a9	-1.621236
168	0xbe01cca4	-0.1267572
169	0xbb1692c1	-0.0022975656
170	0xbaba34ff	-0.0014206468
171	0xbc66c889	-0.014085897
172	0xbe3dca59	-0.18534221
173	0x3e29beb3	0.16576652
174	0xbdc07a79	-0.0939836
175	0xbea579e3	-0.32319555
176	0x3e79ac9b	0.2438225
177	0x3eb603dd	0.35549822
178	0xbbfd6c2c	-0.0077338424
179	0x3e92426c	0.285663
180	0xbd9283e5	-0.07154063
181	0xbd4b1bc6	-0.049587034
182	0xbecf59ab	-0.404981
183	0xbea62182	-0.3244744
184	0xbf029dda	-0.5102211
185	0xbe43897e	-0.19095418
186	0x3f9fde41	1.2489702
187	0x3e471f76	0.19445595
188	0xbe3a4cbc	-0.18193334
189	0x3f29c85b	0.66321343
190	0xbea15e0c	-0.31517065
191	0xbf31c5c4	-0.6944239
192	0xbc0cf8cc	-0.00860424
193	0x3ba46461	0.005016849
194	0x3d34c2f2	0.044131227
195	0x3c90f64f	0.017695574
196	0x3ec274a6	0.3797962
197	0xbf00c0cd	-0.5029419
198	0x3f267d02	0.65034497
199	0xbdac37fd	-0.084091164
200	0x3e180a6b	0.14847724
201	0xbe7a7c32	-0.24461439
202	0x3f3b875b	0.7325341
203	0xbdaf442c	-0.08557925
204	0xbe86b26f	-0.2630801
205	0xbe95412a	-0.2915128
206	0x3ec9ac3f	0.39389226
207	0xbec01998	-0.37519526
208	0x3e532791	0.20620562
209	0x3f0e5e44	0.5561259
210	0xbf6694d7	-0.9007086
211	0xbe848018	-0.25878978
212	0x3f65f4eb	0.8982684
213	0x3f8809aa	1.0627949
214	0x3ec79134	0.3897797
215	0x3fea50ad	1.830587
216	0x3d96653b	0.07343527
217	0xbbb94dd0	-0.005655028
218	0xbd1f5bb3	-0.03890581
219	0x3d5f87d9	0.054572914
220	0xbc9308a0	-0.017948449
221	0xbecff892	-0.40619332
222	0x3b87e9b1	0.0041477312
223	0xbd71304f	-0.05888396
224	0x3cecb330	0.028894037
225	0x3e967afa	0.293907
226	0x3efa1d87	0.48850653
227	0xbd2a184c	-0.041527078
228	0xbe8a30bb	-0.26990303
229	0xbeb2deb3	-0.3493553
230	0xbc9cdf6e	-0.019149508
231	0xbe8eaa5a	-0.27864343
232	0xbf730150	-0.9492388
233	0x3ea08bdc	0.31356704
234	0x3e91872e	0.28423446
235	0xbe9132c6	-0.2835905
236	0xbf008358	-0.50200415
237	0xbf54c29d	-0.83109456
238	0x3df9806e	0.12182699
239	0xc02142eb	-2.5197093
240	0x3dc09b89	0.09404666
241	0xbe867824	-0.26263535
242	0xbb1c7921	-0.002387591
243	0xbe8172e4	-0.25282967
244	0x3f0e13c1	0.5549889
245	0xbeb7fe57	-0.35936233
246	0x3f591a06	0.84805334
247	0x3da2af57	0.079436
248	0xbc12d7d6	-0.008962592
249	0x3dd0b3bf	0.10190534
250	0x3e5a9312	0.21345165
251	0x3ebaf737	0.36516735
252	0x3e486a5a	0.1957182
253	0x3e71facd	0.23630829
254	0x3ef23d4a	0.47312385
255	0xbd462c9c	-0.048382387

exp_avg f4 [2, 2]
0	0x3e3c6b64	0.18400341
1	0x3c1bb94e	0.009504629
2	0x3d1ca8dc	0.038246974
3	0xbc600a9e	-0.013674406

exp_avg_sq f4 [2, 2]
0	0x40b5ce69	5.6814466
1	0x3e92d006	0.28674334
2	0x3f03bcba	0.5145985
3	0x3de3d94e	0.11125432

exp_avg f4 [2, 2]
0	0xbdae3ef0	-0.08508098
1	0x3cfa6aeb	0.03056856
2	0x3e1880e2	0.14892915
3	0x3d8c2aae	0.06844078

exp_avg_sq f4 [2, 2]
0	0x40285bb7	2.6305978
1	0x3eef91b3	0.46790847
2	0x405924c8	3.39287
3	0x3fb8a784	1.4426122

exp_avg f4 [6]
0	0x3dbba495	0.09162251
1	0x3bdd4129	0.0067521525
2	0xbdef9ff0	-0.117004275
3	0x3db7be14	0.089718014
4	0xba4cc7ef	-0.0007811775
5	0xbc0393bc	-0.008030828

exp_avg_sq f4 [6]
0	0x4036fdf3	2.8592498
1	0x3dd3d48e	0.10343276
2	0x401cd39e	2.450416
3	0x3fb1e399	1.3897582
4	0x3d5c25f0	0.053747118
5	0x3c8893d9	0.016672062
