MLIPs/CACE-LES/Au-MgO-Al/caceles-r-5.5-nl-1-nu-2/best_model.pth (torch, 195170 bytes, 18 tensors)

embedding_weights f4 [4, 4]
000000 ae 0b f3 3e 41 7b a8 3c 3f 5a 3a be f6 56 9f 3e
       0.47469848 0.020566585 -0.18198489 0.31121033
000010 41 62 f4 be 9f 0d 93 bc 5b 96 3a be 45 6d 9f 3e
       -0.47731212 -0.017950831 -0.18221419 0.31138054
000020 37 2d 15 bf 67 b8 0c 3d 7a 9e 83 3f 85 da f7 3e
       -0.5827212 0.034355547 1.0282738 0.48408905
000030 fc 20 53 3e b3 d5 83 3f f0 31 a1 3e 60 60 7f bd
       0.20618051 1.0299591 0.31483412 -0.06234777

embedding_weights f4 [4, 4]
000000 6c 3a 8d bb 48 91 0f 3e 31 32 10 3b 59 7d 14 3e
       -0.004309943 0.14020264 0.0022002573 0.14500941
000010 eb 2e 20 3b 3d 5e 93 bd ad d8 2c be 44 b3 21 3e
       0.0024442028 -0.07195709 -0.1687953 0.1579104
000020 c7 95 8b ba d4 f4 46 be ec 92 59 3e 36 18 b7 3d
       -0.0010649496 -0.19429332 0.21247452 0.08940165
000030 c0 15 ae 3e fa 72 06 bc 10 8d 70 bc 5f e9 a3 3c
       0.3400097 -0.0082061235 -0.014682069 0.020008741

bessel_weights f4 [6]
000000 43 78 84 3e 1b a2 81 3f 57 ea d5 3f da 01 0a 40
       0.25873002 1.0127596 1.671214 2.156363
000010 1b 3d 45 40 51 3c 60 40
       3.0818546 3.5036814

0 f4 [6, 12, 16]
000000 37 c0 22 bf fa 53 ee bc 17 d9 2c 3d f7 d7 f0 bb
       -0.63574547 -0.029092778 0.04219922 -0.0073499638
000010 83 50 f0 3e aa 79 c3 3f b8 20 4b 3d 86 48 9c ba
       0.46936426 1.5271504 0.04959175 -0.0011923469
000020 52 6a 69 be cb 33 bc 3f ed 82 a9 3c 29 1c 8d bb
       -0.22794464 1.4703306 0.020692313 -0.0043063355
000030 02 70 de 38 1c ab e4 bc 6d a6 24 3d 43 6d af 3e
       0.00010606648 -0.027913623 0.04019778 0.34263048
000040 54 72 cc bd 39 de 01 3f 95 aa 4d bd 3c ce 88 bb
       -0.09982744 0.5072971 -0.050211508 -0.0041749757
000050 3e 9d 81 be a0 d7 06 bd 60 6f b2 3f 7a 3f cc bf
       -0.2531528 -0.03292048 1.3940239 -1.5956872
000060 e8 cc 6e 3c e1 6c cc 3b 23 ae e3 bc 44 c0 cb 3b
       0.014575221 0.0062385653 -0.027792996 0.006217988
000070 c0 82 3e bc 19 c3 05 3e dc cf 85 3d e2 e9 50 3b
       -0.011627853 0.13062705 0.06533787 0.0031877686
000080 03 f4 00 c0 c7 7e 9d bd 16 0b 85 3c f6 d1 c2 3d
       -2.0148933 -0.076901965 0.016240638 0.09512703
000090 7a e2 71 3f be 76 42 bd 41 d7 ab 3f 2e f2 2e bf
       0.944862 -0.047476523 1.3425065 -0.68338287
0000a0 76 19 e1 ba 39 76 15 bc 82 91 ed 3a cf 8e b7 3c
       -0.0017173726 -0.009122425 0.001812503 0.022406964
0000b0 bb ac a5 3b 68 74 55 3e d6 4f 01 bd c3 01 32 3d
       0.0050559915 0.20845187 -0.031570278 0.04345871
0000c0 41 bb ee 3c 42 5c 36 bd af 10 9a 3d a3 08 26 bd
       0.029142024 -0.044521578 0.075227134 -0.04053558
0000d0 21 96 35 bf 1e a3 27 bc 1e 1d 21 3f 6d 1b 0f bb
       -0.70932204 -0.010231761 0.62935054 -0.0021836415
0000e0 93 ae 77 ba e7 5c c6 bb dd ad 6c 3d 1e c9 6c bb
       -0.0009448316 -0.0060535553 0.057782996 -0.0036130617
0000f0 79 03 17 38 fc 93 98 3f 31 be c0 bc d3 fc 23 3c
       3.600444e-05 1.1920161 -0.02352819 0.010009008
000100 22 55 4a 3d 42 f6 50 c0 b8 1a 11 3d 1f 29 62 3c
       0.049397595 -3.2650304 0.03542587 0.013803749
000110 00 96 de 3f 13 02 1d be 14 d2 fb 3d c0 b2 b4 3b
       1.7389526 -0.15332823 0.122959286 0.0055144727
000120 06 ad 9c 3b 65 58 9b 3c 5c 0d 9c 3d ba e9 19 bc
       0.004781368 0.018963048 0.076197356 -0.009394104
000130 13 1a 4b bc 8a c9 0a 3e 10 2d 67 3d 06 57 59 bc
       -0.012396353 0.13553444 0.05643946 -0.013265377
000140 8f 25 fc 3a 76 40 9a 3d 6f a9 0b 3d ee e1 a9 3f
       0.0019237268 0.07531826 0.03409713 1.3272073
000150 2c 3a 21 bf ed 6a 9c be ec 4a 9a 3f 9a 54 57 3a
       -0.6297939 -0.30550328 1.2054114 0.0008214206
000160 15 07 f3 3b 33 f7 2a bc d6 44 b1 3d be 9e 06 3c
       0.0074166157 -0.010434913 0.086557075 0.008216558
000170 5c 54 78 bb f5 75 1a 3f e3 67 6a bd 44 1a 93 3d
       -0.003789208 0.6033624 -0.05722798 0.07182744
000180 f9 45 1b bc 5a 88 60 3b ea c1 f5 3c e4 8f 8d 3e
       -0.009477132 0.003426096 0.029999692 0.27648842
000190 dd c1 53 3d 80 86 84 bd 3b 0b 9f bf f2 41 40 bb
       0.051698554 -0.06470966 -1.2425302 -0.0029336181
0001a0 39 7d 8d bc 38 4b a8 3b 7a 5c ea 3c 9b f0 8f 3b
       -0.017271625 0.00513592 0.02860855 0.004392696
0001b0 87 b6 3f ba 0d 0e d8 bc f1 48 8d bd 83 79 1d 3f
       -0.00073132705 -0.026373887 -0.06898678 0.6151354
0001c0 da 87 95 c0 c0 1c ba 40 06 5a 90 40 f3 ca a9 be
       -4.6728334 5.8160095 4.510989 -0.3316265
0001d0 06 6a 66 3f 3c a1 dc 3f 99 2c bd 3f df c3 b7 3f
       0.9000553 1.7236705 1.4779235 1.435665
0001e0 d4 88 08 bd 76 24 d6 3e 81 78 6c 3d e3 c1 93 bc
       -0.033333614 0.41824692 0.05773211 -0.018036788
0001f0 ee c5 e5 be be 19 f5 bc 73 b8 21 bd 79 4d 9d 3e
       -0.4487757 -0.029919501 -0.039482545 0.3072317
000200 ed 80 a2 3d 65 65 db 3d 14 d2 9e bd c7 26 b3 3e
       0.07934747 0.10712699 -0.07754913 0.34990522
000210 83 55 80 be 3b 92 b1 3f b3 cf b5 3e 29 45 19 3c
       -0.2506524 1.3872751 0.35510024 0.009354868
000220 47 59 fe ba 16 23 83 bb 2d 1f 4d 3d c2 46 fc 3e
       -0.0019405269 -0.0040019853 0.05007856 0.49272734
000230 4c 47 d0 3a 6d bc d7 3f 06 04 03 3f b4 36 58 3d
       0.0015890389 1.6854378 0.51178014 0.052786544
000240 e5 e5 d5 bc 66 36 cd 3d b7 6a 80 40 bf 06 75 3d
       -0.026110599 0.10020141 4.0130267 0.059820887
000250 ea 47 1f be 05 22 8f bf df 16 00 c0 0f ab 46 bc
       -0.15554777 -1.1182257 -2.001396 -0.0121257445
000260 19 97 dc 3c c0 fc 0c bb d4 c4 89 3c 23 2f 7a bb
       0.026927518 -0.0021512955 0.016817488 -0.0038175068
000270 34 75 10 ba 59 05 f4 ba c7 15 a4 bc f4 d8 e7 bc
       -0.00055106287 -0.0018617316 -0.020029915 -0.028301693
000280 4a 14 67 bd 3b 0f 9b 40 29 9a 69 bd 08 ff 56 3e
       -0.056415834 4.845609 -0.057031784 0.20995724
000290 33 9d 2a 3f b7 83 78 3e af f1 1d 3e 7f 9b 91 3e
       0.66646117 0.24268995 0.15424226 0.28438947
0002a0 c1 f0 af bb 86 a5 97 3f a1 99 76 3e 73 f8 44 3b
       -0.0053692763 1.1847389 0.24082042 0.0030055314
0002b0 04 34 b1 3b 33 e8 ac 3e c3 d7 7c 3d fc 2a ec 3b
       0.005407812 0.33770904 0.061729204 0.0072072726
0002c0 c9 b6 29 41 d7 3e 71 3d 5f 4f af 3d fc d2 01 ba
       10.607125 0.05889782 0.08560061 -0.00049523986
0002d0 1e 28 58 bd ad 27 8a bd 5b 83 9f bd 5f 2c 76 3f
       -0.052772634 -0.06745849 -0.07788726 0.96161455
0002e0 1c 84 4b bd 4d 95 56 3d 6d be 00 3e e9 b7 4b 3c
       -0.049686536 0.052388478 0.12572642 0.012433984
0002f0 b5 f6 28 3c b6 e9 07 bd 9e eb d9 bc 62 1b 74 3e
       0.010312726 -0.03318187 -0.026601609 0.2383857
000300 aa d0 18 bd 2e cc e3 3c 5c 32 c4 3d 58 ca e4 bc
       -0.037308373 0.027807321 0.09579918 -0.027928516
000310 2e 3a 95 3e 7a 29 d5 bf f9 3f 51 3f 73 e0 31 bb
       0.2914595 -1.6653283 0.8173824 -0.0027141839
000320 2a c3 db 3e 3e d5 1e c0 31 34 8d bd 60 94 0d 3d
       0.42922336 -2.4817653 -0.0689472 0.03456533
000330 0e ad 69 3c ac 18 e7 bd 2d 7a 11 3a 12 f4 04 3f
       0.014262451 -0.11284003 0.00055495166 0.5193492
000340 90 d4 e5 3d 2d 6d a8 3f c3 7d a3 3d 2d 97 27 3d
       0.11222184 1.3158318 0.079829715 0.040915657
000350 49 39 b6 3e 57 1c 09 3d 76 67 86 3d 64 ea 9f 40
       0.3559058 0.033474293 0.06562702 4.997362
000360 4f 33 7e bd 7f fb 4b bc 9f 6d f9 3c ca 53 8b 3c
       -0.06206065 -0.012450098 0.03044778 0.017007727
000370 a8 ed 6c 3d 1f 8c a3 3e 7b c3 da bc ec c3 de 3d
       0.057843834 0.3194284 -0.02670454 0.10877213
000380 23 47 13 c0 35 5e 67 3d 8f 73 62 3d 87 5b 16 40
       -2.3012168 0.056486327 0.055285987 2.3493364
000390 e2 97 6e 3f 39 5d 1e 3d 0d 28 7f 3e 49 20 71 40
       0.93200505 0.038663123 0.24917622 3.7675955
0003a0 b7 d6 11 3c 00 aa fa bc d4 a4 03 3e 3a 99 25 3d
       0.00890129 -0.03059864 0.12855846 0.04042933
0003b0 65 be 53 bd eb 72 05 3f 54 aa bb 3d dc db a3 ba
       -0.051695246 0.52128476 0.09163347 -0.0012501436
0003c0 d3 ec 19 3d e9 c5 81 3e 5f e8 4b 3e 9d 8d 54 be
       0.03757937 0.25346306 0.19912861 -0.20757146
0003d0 2a e5 31 c0 cf c6 d5 bc e5 b9 25 40 3e 1b a6 3b
       -2.779612 -0.026095776 2.589471 0.0050691655
0003e0 5e 99 be 3b 4c 68 ef 3c 7e 92 e2 3c 44 64 1a bd
       0.0058166226 0.029224537 0.027657744 -0.037693277
0003f0 34 4a 89 3c e1 60 40 c0 2b 07 a6 3c 83 94 4c bd
       0.016759016 -3.005913 0.02026709 -0.04994632

1 f4 [6, 12, 16]
000000 43 23 1c 41 a9 79 84 41 65 b8 4d 41 e3 18 04 40
       9.758609 16.559404 12.857518 2.064019
000010 24 90 63 3f a5 0d a7 3f 13 42 fc bf d2 25 9d 40
       0.88891816 1.3051039 -1.9707664 4.9108667
000020 11 74 47 3e 43 07 2d be 13 b9 e6 40 09 dd 51 40
       0.1947787 -0.16897301 7.210092 3.279116
000030 1a c0 4c 3f 22 bc 07 3e 3d b1 fb 3f 88 c3 21 40
       0.79980624 0.1325536 1.9663464 2.5275593
000040 72 15 1c c1 28 89 f6 c0 91 3c 76 c0 56 5f 35 c0
       -9.755236 -7.7042427 -3.8474467 -2.8339438
000050 7e e8 0e bd 09 f6 1d 3f 6e 87 87 3f 3e ee a2 c0
       -0.03488969 0.61703545 1.0588205 -5.0915823
000060 de bc ba bb fd 93 8a c0 68 03 dd bf 9f 82 30 bd
       -0.0056987843 -4.330565 -1.7266665 -0.04309332
000070 8d 48 31 3f 0e 8c 84 3f 6d ee 37 3d 97 bf 5c bf
       0.6925133 1.0355241 0.044905115 -0.8622984
000080 1f 58 85 3e 17 3a 44 41 46 46 b8 3b 69 3e 24 41
       0.26043794 12.264182 0.0056236116 10.265237
000090 65 19 61 bd f6 92 67 bc f2 eb 66 c0 66 a8 b2 40
       -0.05495586 -0.014134159 -3.608151 5.5830564
0000a0 97 94 90 c0 82 bb 47 3f 0d a8 1c 40 fd 50 a5 3d
       -4.5181384 0.7802049 2.447757 0.08072088
0000b0 4d 70 47 40 c7 1c 61 40 a5 8b 8e 3e 0b 44 29 40
       3.1162293 3.5173814 0.27840915 2.644778
0000c0 36 21 3a bf 22 e7 a6 40 7e ce a6 40 c2 f3 c5 c0
       -0.72706926 5.2157145 5.2127066 -6.1860056
0000d0 fe 99 c6 bf 68 8e 20 41 6e 87 dd 3f cc 34 0b 41
       -1.5515745 10.034767 1.7306955 8.70039
0000e0 3e 99 e0 bf 45 19 ab c0 56 41 b7 c0 7f ff 2e 40
       -1.7546766 -5.3468347 -5.7267256 2.7343442
0000f0 b7 18 2e bc b3 41 0c c0 36 f6 cf 3f c1 1a fc bf
       -0.01062601 -2.19151 1.6247013 -1.9695665
000100 bc f5 0a 41 98 e2 11 41 1b e7 2f c1 9e 0c 0d 41
       8.684994 9.117821 -10.993922 8.81558
000110 ce 1f bc 3f 43 c6 54 c0 83 7b 12 c0 3a ea 2d bb
       1.4697206 -3.324601 -2.2887886 -0.0026537315
000120 b2 82 32 c0 9e fd 4b c0 ce d3 4d c0 4c 5e a0 40
       -2.789227 -3.1873546 -3.2160525 5.011511
000130 66 a0 55 3e 34 25 5c 40 4b 62 33 bf 33 06 97 40
       0.20861968 3.4397707 -0.7007186 4.7195067
000140 8e 0a 83 c1 bd 9f 57 41 82 90 45 3f a3 ad 8c bf
       -16.380154 13.476499 0.77173626 -1.099049
000150 62 9b 22 3f 53 3d bb bd 8b 34 bf 40 aa 8d 9c 40
       0.63518345 -0.09142556 5.975164 4.892293
000160 fb 04 cb bf e4 b0 6f bd 22 df d6 40 18 b2 bb ba
       -1.5860895 -0.058518305 6.714738 -0.0014320044
000170 6c 0f 44 40 24 69 d6 3f 2a d4 81 40 87 ec 5d 40
       3.0634413 1.6750836 4.057149 3.4675615
000180 ba e5 3d 41 58 70 e5 40 17 b1 23 41 75 60 37 41
       11.868586 7.169964 10.230735 11.461049
000190 98 fe 9a 3c 7c d1 d1 40 ae 73 f7 3e 89 ab ef 40
       0.018920228 6.556822 0.48330444 7.4896894
0001a0 8b 58 57 be d3 e7 98 c0 bb 65 db 3f f9 dd 60 bf
       -0.2102987 -4.778299 1.7140421 -0.87838703
0001b0 e7 36 33 be 3b 11 fc 3f 3e b0 72 bf f4 10 1c 40
       -0.17501412 1.9692758 -0.94800174 2.4385347
0001c0 d8 fa 12 41 2b d6 24 41 22 65 db 3f 2b f8 2d 40
       9.186241 10.302287 1.7140238 2.718272
0001d0 c6 3c 34 3f a9 85 10 41 12 7c 8c 40 77 9f 02 41
       0.7040523 9.032632 4.3901453 8.163932
0001e0 60 27 7a bf ee 39 40 40 07 8b 0e c0 bc 9e 08 c0
       -0.9771633 3.0035357 -2.2272356 -2.1346884
0001f0 56 d3 02 40 74 b9 80 3f cc 74 9a 40 8a d7 51 c0
       2.044149 1.0056596 4.8267574 -3.2787805
000200 c9 f2 ad 40 25 ad 82 3f 45 09 f7 bf 61 1f 70 40
       5.435887 1.020909 -1.9299704 3.7519152
000210 e9 d0 94 3e f8 d4 1b 41 e0 f3 36 c0 79 aa 21 3f
       0.29065636 9.739494 -2.858635 0.63150746
000220 b6 9b 94 3d 6f 8b a3 c0 9d 60 16 3e 96 ed 4c c0
       0.07256262 -5.1107707 0.14685293 -3.202001
000230 d3 f0 57 40 e7 a3 af 3e 74 ab af 3f 21 1a 9c c0
       3.3740737 0.34304735 1.3724198 -4.8781896
000240 2e 21 96 bf 3c f4 9a 40 aa 6f 36 41 30 c9 6d c1
       -1.1728876 4.842314 11.402262 -14.861618
000250 ca 5e 27 bf f8 ef 13 41 a7 82 40 40 e2 b6 9b bf
       -0.6537901 9.246086 3.0079744 -1.2165186
000260 ca 66 4c 40 69 47 3d ba 86 c1 f1 bd 2f 1b a7 3c
       3.1937737 -0.0007220419 -0.1180449 0.020398704
000270 9a e4 b9 be 3f 5d 85 bf c8 d1 ea bf 3b 25 78 40
       -0.36307222 -1.0419081 -1.834527 3.8772724
000280 42 0a 09 bd a3 bd 90 c0 ec 9e f4 40 8b 5d 61 41
       -0.03345705 -4.523149 7.6443996 14.085338
000290 50 a5 96 bf bf 30 b8 40 d1 ed 3a 40 fe 00 9e 40
       -1.1769199 5.7559505 2.9207652 4.937621
0002a0 5c e1 79 c0 d9 7d 00 3f c1 4e 41 40 30 2d 8c 40
       -3.9043798 0.5019203 3.0204318 4.380516
0002b0 66 b7 7c bf 44 e6 7d c0 5a 30 39 40 a5 29 88 bf
       -0.98717344 -3.9671793 2.8935761 -1.0637709
0002c0 2a ca 1b 40 3b 37 3e 41 f9 12 9c 41 f3 9f 21 41
       2.434214 11.888484 19.509264 10.10155
0002d0 97 ab c7 be 86 39 98 40 f9 b9 a8 c0 4d e5 56 3b
       -0.389981 4.757022 -5.2727017 0.0032790483
0002e0 54 2c 0f c0 b5 20 84 c0 88 16 8e c0 1e 26 63 c0
       -2.2370806 -4.1289926 -4.4402504 -3.5492015
0002f0 d8 31 0f bd de d4 47 c0 b1 0e 5c 40 d2 45 a1 40
       -0.034959644 -3.1223674 3.4383967 5.039773
000300 d4 bf 02 c1 c7 16 ce 40 1a a1 21 40 fc cc ab be
       -8.171833 6.4402804 2.5254579 -0.33554828
000310 63 ac d4 3e 46 4f 0f 40 ae a5 1c bf bf 96 c8 bf
       0.4153777 2.2392135 -0.6119031 -1.5671004
000320 19 bb b4 bd 15 9b 4d 3f b4 f9 a6 3e ae b8 e7 3f
       -0.088247485 0.8031476 0.32612383 1.8103235
000330 ea 7b f8 c0 c0 ae 80 3d 52 ef 9c 40 14 a7 06 40
       -7.765126 0.06283331 4.904214 2.1039476
000340 e5 80 e9 3f 27 a9 39 c0 3c 9e 0c bf 8f 42 f6 c0
       1.824246 -2.9009492 -0.54928946 -7.695625
000350 cf dd 03 3f e6 f9 ef bf ca a4 b8 3f fe 2d 17 41
       0.5151033 -1.8748138 1.442529 9.448729
000360 10 e0 78 3d ea 49 a6 40 46 53 2b 41 b6 2d 9f bd
       0.060760558 5.1965227 10.70783 -0.077723905
000370 da 2b 9f 3f 38 0d b3 c0 fb f0 53 3f eb a1 aa bf
       1.2435257 -5.5953636 0.8278958 -1.3330663
000380 ef 00 c7 be d9 4b c3 c0 6a 24 94 3e 44 4a 45 40
       -0.388679 -6.1030087 0.28934032 3.0826578
000390 ee c2 ad 3f 0c 08 7f 3f 26 4b 70 40 c5 8c f5 3f
       1.3575113 0.99621654 3.7545867 1.9183584
0003a0 f8 21 d4 40 47 aa 58 40 3b a5 3c 3f 43 56 88 bc
       6.6291466 3.385393 0.7368962 -0.016642695
0003b0 9f 1b 9c c0 f4 68 ef c0 93 05 b5 3f f7 22 8b 3f
       -4.8783717 -7.4815617 1.4142326 1.0870045
0003c0 f9 7c 07 41 e7 9a 8e 40 0d 9a cd 40 f5 d8 33 40
       8.468011 4.456409 6.425055 2.810117
0003d0 8d 0b e3 3e e2 9e 69 c0 d8 e6 01 c1 d4 a2 8d c0
       0.4434475 -3.6503224 -8.118858 -4.4261265
0003e0 16 8a 8d 40 9e bf 0a 41 f2 22 9e 40 9b 05 e9 3f
       4.423106 8.671782 4.941766 1.8204836
0003f0 38 13 16 3d 31 f2 fa 3f b9 ee 87 c0 5f 79 2d 41
       0.036639422 1.9605161 -4.247891 10.842132

2 f4 [6, 12, 16]
000000 9b 1f 45 c0 ee 8e 3f 3f 7e dd 3d 41 86 4e 64 3f
       -3.080054 0.7482747 11.866575 0.8918232
000010 a7 f2 66 3e b3 49 a1 bf ac a6 a4 40 d5 fc b9 40
       0.22553502 -1.2600616 5.1453457 5.8121133
000020 af 0b 9c 40 56 cb 0d c0 40 ec 45 3d 99 de 46 3d
       4.876426 -2.2155356 0.04832101 0.04855213
000030 3a ab 03 40 27 0a 40 3f b3 89 98 3d a5 92 99 3d
       2.0573258 0.7501549 0.07448139 0.07498673
000040 4d 43 84 40 9f 5e d6 3f 17 09 f5 bf d9 81 26 c1
       4.1332154 1.6747626 -1.9143399 -10.406701
000050 a0 12 48 3f 93 98 04 c0 7b 45 8b c0 65 c1 a6 3f
       0.7815342 -2.0718124 -4.3522315 1.3027769
000060 56 d9 42 3d 00 36 0e 40 50 21 3a 3f 23 46 11 bf
       0.04757055 2.222046 0.7270708 -0.56747645
000070 78 ce a5 3f 06 b9 db 3c 50 c4 cc 3d 7c f1 f5 3d
       1.2953634 0.026821624 0.09998381 0.1200895
000080 b3 9b 54 41 63 77 d6 3d ce 0d 9e c1 ab f4 48 c1
       13.2880125 0.1047199 -19.75674 -12.559733
000090 b0 fd 91 3e a2 80 98 c0 df b5 84 c0 9b 84 a7 40
       0.2851386 -4.7657022 -4.147201 5.234937
0000a0 3a e0 d7 3c f4 e4 8a 3d f7 b8 65 3d dd 66 c7 bb
       0.026352037 0.067819506 0.0560846 -0.0060852603
0000b0 06 1f 17 be 48 82 61 bf dd ca db 3f 61 f9 a7 3f
       -0.14757928 -0.8808942 1.7171284 1.3122979
0000c0 48 f6 31 c1 33 d6 d8 40 67 8f 1a 3f c3 47 8c 3d
       -11.122627 6.7761474 0.60375065 0.06849625
0000d0 e7 38 9b 3f d7 73 56 c0 cc 2e b4 bf 8f 5c 4e 3f
       1.212674 -3.3508203 -1.4076781 0.80609983
0000e0 08 9f 85 3d 27 63 9d 3d 68 43 f8 be 29 9e bc 3c
       0.065244734 0.076849274 -0.48488927 0.023024635
0000f0 30 12 12 40 f5 6a 6c bf cc 2c 19 3d ae ca 29 40
       2.28236 -0.92350703 0.037396237 2.6529956
000100 8a d8 1f c0 39 d6 67 3e 04 cd e4 40 d4 cc 31 c1
       -2.4975915 0.22640313 7.1500263 -11.112507
000110 07 56 70 40 2c 46 a5 3f b1 19 a4 c0 16 d4 0a bf
       3.7552507 1.291204 -5.128136 -0.5422987
000120 10 83 9f 3e 07 18 ee 3a e8 49 75 bc 16 0a 4e bf
       0.3115468 0.001816512 -0.014971234 -0.8048414
000130 bb af 4f 40 97 67 a4 be 50 60 2d 3e f3 15 40 40
       3.2451007 -0.32110283 0.16931272 3.0013397
000140 05 10 59 c0 9b 5d 53 3e 58 bd 1f c1 ba ce 41 41
       -3.3916028 0.20641176 -9.9837265 12.11297
000150 29 8c 1e 3f ba 63 18 41 f2 ac a0 c0 46 54 3d 40
       0.6193262 9.524347 -5.0211115 2.9582686
000160 e5 13 69 40 a1 99 97 3f 3c 83 03 3f 10 39 3e 3d
       3.6418393 1.1843759 0.5137212 0.046441138
000170 f5 01 d1 3f 1f ac 45 3e 29 75 12 3f 19 bd 16 c0
       1.6328722 0.1930394 0.5721002 -2.3552916
000180 4a 5d be 3f 69 dc b5 c0 16 08 dd 3e 0a 46 ed 3e
       1.487222 -5.6831555 0.43170232 0.46342498
000190 47 11 2d 3f 3a a3 96 3e e9 3b bf c0 26 90 0f 40
       0.6760449 0.29421407 -5.9760633 2.2431731
0001a0 5b e1 5f 40 45 b1 30 3a 9a a2 1e bd 94 44 36 40
       3.4981296 0.00067402824 -0.038729288 2.8479357
0001b0 fd 38 5e 40 ce 86 3b 3d 4c d9 89 3e d3 ae ab 3d
       3.4722283 0.045782857 0.26923597 0.083829544
0001c0 36 77 4f c1 48 b4 b9 40 95 0e c9 bd 65 25 8c bc
       -12.966604 5.803257 -0.098172344 -0.017107675
0001d0 73 15 4f 3f 66 37 fe 3f d4 92 95 c0 49 96 d9 3c
       0.80892104 1.9860656 -4.6741734 0.02656092
0001e0 7b 56 99 40 12 67 3e 3f 7f ff c1 bf a4 ba 36 3e
       4.7918067 0.7437602 -1.5156096 0.17844635
0001f0 12 02 89 3e 65 ec 17 3e a1 bf f6 3f 85 25 b3 3d
       0.26759392 0.14836271 1.927723 0.08747391
000200 21 74 a5 3f 17 97 11 bb 7c 83 4f 3f 91 d4 36 41
       1.2926065 -0.00222153 0.81060004 11.426896
000210 90 59 54 3f a1 1a 84 bf b2 31 9b c0 5b a7 7d be
       0.8294916 -1.0320626 -4.8498163 -0.24770872
000220 0f 0f 81 3f 50 d4 b4 3f c7 88 a1 3c f3 ff 96 3c
       1.008272 1.4127293 0.01971854 0.018432593
000230 55 16 8f 3f 6c 10 87 3d b1 2a b7 3c 87 fb 98 3f
       1.117869 0.06594929 0.022359224 1.195176
000240 f7 d3 84 c1 1a db 7e 3f d5 85 d4 c0 ce 16 e5 40
       -16.603498 0.9955307 -6.641337 7.159034
000250 ca 36 b5 bf 97 94 33 c0 a6 0e ce 40 17 a8 96 bf
       -1.4157345 -2.8059442 6.439288 -1.1770047
000260 b2 a9 9e bc 0a 97 7c bf ec 5a 8d 40 a7 ad 1e 3c
       -0.019368026 -0.9866797 4.417349 0.009684957
000270 45 07 8c bd 7e 96 e4 3f e9 80 02 3e ec a2 03 c0
       -0.06837324 1.7858427 0.12744488 -2.056819
000280 33 a9 0b 41 6d 43 42 41 c7 4e 19 c1 25 fd e5 bd
       8.728808 12.141461 -9.581733 -0.11229924
000290 2c 4b 36 3f 8e 9e 54 c0 5a 01 e7 40 05 09 82 c0
       0.71208453 -3.3221774 7.218915 -4.063601
0002a0 59 2d 30 be d7 8b d2 3e 8c f2 4a bf 7f e3 2c 3f
       -0.17204799 0.41122314 -0.7927635 0.6753463
0002b0 37 60 98 3f f4 96 2c 3d fa 87 81 be 09 3b 6a 3e
       1.1904362 0.042136148 -0.25299054 0.22874083
0002c0 f8 b9 05 41 e7 e6 c5 40 2b f8 9e bf dd 09 f6 3d
       8.357903 6.1844363 -1.2419485 0.120136
0002d0 74 1c 15 3f 9a e7 28 c0 70 54 ed bf 18 72 b1 40
       0.5824654 -2.6391358 -1.8541393 5.5451775
0002e0 a9 09 9e bd dc 51 31 40 ba 1e 4b 3d fd 26 9d bf
       -0.07716686 2.7706213 0.04958985 -1.2277523
0002f0 3d 73 3c 40 d7 5e de 3d a8 6e 6e 3d 6b 26 65 bf
       2.9445336 0.10857933 0.058211 -0.89511746
000300 5b 1c b0 40 67 34 e8 3e 54 1c ab bf d8 6a b4 c0
       5.5034614 0.4535248 -1.336802 -5.6380424
000310 46 a2 b0 3e fc 10 46 40 14 3d b3 c0 85 90 92 c0
       0.34498805 3.0947866 -5.601206 -4.5801415
000320 79 4d ba 40 00 54 b2 bc 99 4c c3 3e d7 70 28 3e
       5.821957 -0.02176857 0.38144377 0.16449295
000330 6d 77 c2 40 9a 79 f5 be d4 cb d9 3d 8d 34 32 3e
       6.0770783 -0.47944337 0.1063458 0.17402859
000340 74 f1 17 c0 35 6b 3e bf 3e 3f 43 3f c1 24 7a bf
       -2.3741121 -0.74382335 0.76268375 -0.9771233
000350 58 5e 2b 3f 99 17 b9 40 d8 d4 e4 40 47 8c 02 bf
       0.6694083 5.7841306 7.150982 -0.50995296
000360 26 06 77 3e 41 17 b4 bf b4 60 c4 3f 7f 19 81 c0
       0.24123439 -1.4069597 1.5342011 -4.0343623
000370 00 01 24 c0 4e 5a b3 3c 79 b3 d6 3e 91 7c 12 3f
       -2.562561 0.021893647 0.41933802 0.57221323
000380 5a 21 58 c0 8a 19 3f 3e 29 30 fe 3f c4 d1 a2 40
       -3.3770356 0.18662086 1.9858447 5.088106
000390 8e b0 8e bd 32 fd b1 40 be a9 c9 40 7d 99 6b bf
       -0.06967269 5.5621576 6.3019705 -0.9203108
0003a0 11 51 92 3d 13 e7 19 3e f2 6d cc 3e 13 dc 7b 3c
       0.071443684 0.15029554 0.39927632 0.015372294
0003b0 d2 b2 2b 40 9b c4 ea 3e a6 19 2b c0 c5 f6 5b c0
       2.6827893 0.45853123 -2.6734405 -3.4369366
0003c0 a1 5f 3b 40 6a cc 36 c0 65 e9 bc 3e 42 ac 0f 3e
       2.9277117 -2.8562264 0.36896816 0.14030555
0003d0 b8 b1 1f 3e 8a d2 d7 40 87 0a b7 3f 9e 9e 44 40
       0.15595138 6.7444506 1.4300088 3.0721812
0003e0 ef 9e cc 3e 70 74 24 3e 52 d1 bb 40 4b f7 88 3d
       0.39965007 0.16060042 5.869302 0.066877924
0003f0 dc 4e ba c0 b6 1b a3 40 4a 72 9a 3d c9 f4 32 c0
       -5.8221264 5.0971327 0.0754133 -2.7961905

weight f4 [32, 576]
000000 54 b9 e6 3f 78 a6 41 3c 2d ad 24 be 92 17 c5 bd
       1.8025308 0.011819474 -0.16081686 -0.09623636
000010 e7 2f 9f bd 78 d4 c0 3e eb e9 78 3f 11 e8 b2 3d
       -0.077728085 0.376621 0.9723193 0.087356694
000020 94 84 a3 bf fd 89 93 40 5d 78 90 bd 74 da d1 3c
       -1.2774835 4.6105943 -0.070542075 0.025616862
000030 72 4a 13 3e c2 ce 80 3c f9 58 e5 3c 81 cf a4 bc
       0.14383867 0.01572359 0.027996527 -0.020118477
000040 6a 30 29 40 d5 c0 fb bf f1 24 27 c1 fd e2 76 c0
       2.64358 -1.9668223 -10.446519 -3.8576043
000050 f1 9c 93 3c cc 84 4c 40 7f ee 7c bf 15 7d ee be
       0.018019171 3.1956053 -0.98801416 -0.46579805
000060 cd ec 27 3f ad 78 4e 3f be a4 e2 bf 89 11 22 c0
       0.65595704 0.80652887 -1.7706525 -2.5323203
000070 9d 2f 63 c0 0b f5 bf be e6 8f 66 3f bc 87 be 40
       -3.549781 -0.3749164 0.9006332 5.954069
000080 37 67 85 40 66 66 f2 3e eb 89 b2 40 1d f6 c8 c0
       4.1688495 0.4734375 5.5793357 -6.280043
000090 f1 08 8a be 5b 0e 36 41 fc 91 36 c0 e0 a2 4a c0
       -0.26959947 11.378505 -2.8526602 -3.166191
0000a0 2a c4 8a c0 c9 af fa 3f 21 50 65 bf 3f 75 0a 3d
       -4.336446 1.9584895 -0.8957539 0.03380322
0000b0 7c dd 52 be d3 fd 81 3e f9 61 9d 3e 8c 03 a9 be
       -0.20592302 0.25388965 0.3073881 -0.3301052
0000c0 d9 db b9 3c 29 5f 97 be 88 f9 ac 3d 83 90 a1 bc
       0.02268784 -0.2956479 0.08446032 -0.019722229
0000d0 b1 4d 3f be 1f 80 f9 3c 52 3b e8 bf 78 ea ec bf
       -0.1868198 0.0304566 -1.8143103 -1.8509054
0000e0 2c dc 74 3c 45 52 79 3c 5b 9a 6d bd da 3b aa 3c
       0.014945071 0.0152173685 -0.058008533 0.020780493
0000f0 28 5f bf 3d 3d d5 15 be f4 6d ed bd ed 3c 27 bd
       0.093443215 -0.14632125 -0.115932375 -0.040829588
000100 8c 95 81 c0 a4 41 d0 bf da 1b 14 c1 e6 49 84 c0
       -4.049505 -1.6270032 -9.2568 -4.134021
000110 95 d1 d4 3d 23 dd 95 bf ce 71 56 c0 ad 60 2e 40
       0.10391537 -1.170811 -3.350696 2.7246506
000120 9a 09 a1 be f9 ae 26 3e 8b 22 30 41 44 1c bd 3d
       -0.31452638 0.16277684 11.008433 0.09233907
000130 c6 24 4e c0 67 bd 40 41 f4 01 54 bf 32 98 d5 40
       -3.2209945 12.046241 -0.8281548 6.6748285
000140 35 5e 50 3f da be f4 be ac 27 a9 3f 96 17 9e bf
       0.8139375 -0.47801858 1.3215232 -1.2350948
000150 53 60 f2 be 49 0d ac bf 73 e8 e5 bf 22 f2 a2 c0
       -0.47339115 -1.3441554 -1.7961563 -5.092057
000160 8c cd 07 3e 27 a2 d9 c0 f0 95 b3 c0 59 c9 c2 3e
       0.13262004 -6.801044 -5.612053 0.3804424
000170 cb 9c 56 40 0b 05 39 3d 3e a6 8b 3f ba f3 cc be
       3.35332 0.045170825 1.0910108 -0.400297
000180 75 c4 d1 bd ec 52 84 bd 6b 34 67 bc 0d 73 37 bf
       -0.10242549 -0.064611286 -0.0141116185 -0.7165993
000190 c3 c8 a7 be 05 35 be 3d 71 bc bf bf 9a 03 26 c0
       -0.32770357 0.092874564 -1.4979383 -2.5939698
0001a0 d5 9b 50 3d 6d 56 1e bd 50 0b d6 b9 c3 de 39 3d
       0.050929863 -0.03865664 -0.0004082569 0.045378458
0001b0 81 a2 bd bd ae 25 fc bd 99 3d 57 bd 5d 52 46 bd
       -0.09259511 -0.12311874 -0.05254898 -0.04841839
0001c0 6a 82 51 bf b1 b1 3a 41 db 32 53 3f e3 38 f6 3e
       -0.8183962 11.668382 0.82499474 0.48090276
0001d0 7c 16 cf 3d 39 22 8c bf 39 71 4c c0 ef 91 a7 3f
       0.101117104 -1.0947944 -3.1944106 1.309141
0001e0 9e 63 3e be c7 ab ae bf 58 20 46 c0 5b 2e 87 be
       -0.18592688 -1.3646172 -3.095724 -0.26402554
0001f0 79 c9 52 c0 02 3e dd 3f f6 ac f8 be 88 a7 f9 40
       -3.293547 1.7284548 -0.4856946 7.8017006
000200 e0 e1 21 c0 29 f6 d7 3e 88 c8 71 c0 db d7 53 40
       -2.5294113 0.42179993 -3.7778645 3.3100498
000210 22 8d 15 bf d5 da b7 c0 d6 83 9e c0 5e 5e 7b c0
       -0.58418477 -5.745463 -4.9535933 -3.9276347
000220 1c cd 8d be 98 95 20 3e 01 59 1f 3e c8 ed 1f 3d
       -0.2769555 0.15682065 0.15561296 0.039045125
000230 dd ef 21 c0 2f 0f 25 3f 99 fa 09 bf e1 31 eb 3f
       -2.530265 0.64476293 -0.53898007 1.8374597
000240 dd 35 fa bd f0 d9 60 be ba fe 6d be 4a f3 ac bd
       -0.12217305 -0.21958137 -0.23241702 -0.08444841
000250 69 7d 25 3f b1 7b 02 bd 55 41 0a 3f e2 cb 71 3d
       0.64644486 -0.031856243 0.5400594 0.05903233
000260 e7 d5 87 bd ee 0c 01 3d a2 1e c3 3c d5 41 17 3c
       -0.066325955 0.03150647 0.023818318 0.009232004
000270 32 fe bf bc 74 39 c2 be a9 97 48 3e 10 73 28 3d
       -0.02343664 -0.37934458 0.19589104 0.041125357
000280 93 32 2a 40 93 f6 2f c1 a1 4e 94 c0 b4 ef 72 bf
       2.6593368 -10.997699 -4.6345983 -0.9489701
000290 be b4 a7 bf 2a a4 02 c0 2f 88 b8 3f 89 a2 36 c0
       -1.3102033 -2.0412698 1.441656 -2.8536704
0002a0 a7 b4 e6 bf 74 f4 23 41 63 de ae 40 c3 3d c9 3f
       -1.8023881 10.247181 5.464647 1.5721973
0002b0 10 64 cc bd 6a 67 68 bf 0a ee 6f c0 f5 d5 2d c0
       -0.09980023 -0.907828 -3.7489038 -2.716184
0002c0 aa 0b 5b c0 ec 18 9b 40 10 b0 96 3e a6 aa 14 3f
       -3.422587 4.846792 0.294312 0.5807289
0002d0 f8 7f d0 bd af 15 d8 40 d9 76 10 41 5a 02 0b 40
       -0.10180658 6.752647 9.029016 2.1720185
0002e0 ed 96 73 be 02 9f c4 3e a2 25 ae 40 d6 b1 a8 3d
       -0.23788042 0.38402563 5.442094 0.082370445
0002f0 11 30 d3 c0 98 3e 8c 41 d0 31 2e bf cf f7 86 40
       -6.5996175 17.530563 -0.6804476 4.21775
000300 ba 80 d8 bd 6a 61 86 bf 38 ca 2a be 41 9b 51 3b
       -0.10571428 -1.0498478 -0.16678703 0.0031983408
000310 fa 21 a4 be aa 1d dc bf e5 db 48 3f d8 a8 05 3d
       -0.32057172 -1.7196553 0.7846053 0.032631725
000320 b3 85 18 3e 10 6e 76 bd 84 9e d4 bd 8e 16 86 bc
       0.14894752 -0.060163558 -0.10381797 -0.016368177
000330 b5 2b 00 c0 9d dd 4c be 5a 02 29 bd 55 3c 53 bd
       -2.0026677 -0.20006414 -0.04126201 -0.05157121
000340 ae d2 ba bf e5 1b 5e c0 1d 74 0a c0 72 dd 18 bf
       -1.4595544 -3.4704525 -2.163337 -0.597129
000350 57 48 4e bf 24 92 a4 40 33 a6 be c0 52 1c 09 c0
       -0.8057913 5.1428394 -5.957788 -2.1423535
000360 e0 5c 1e 3f 72 b3 cf c0 72 f9 00 c0 31 0d a5 c0
       0.61860466 -6.490655 -2.015225 -5.1578603
000370 9b 2b f9 be 97 62 9c 40 09 bc c2 c0 f4 77 10 41
       -0.4866608 4.887035 -6.0854535 9.029285
000380 7a 48 79 c0 ca d6 9a be 02 d2 34 c0 ec 50 88 40
       -3.8950486 -0.30241996 -2.8253179 4.259878
000390 c2 ba a1 3f 7e 57 b6 3e 59 a5 6d 40 7c 36 07 bf
       1.2635119 0.35613626 3.713217 -0.5281751
0003a0 54 4b d6 3f da e5 f4 3e 35 a9 56 41 3b 0e 17 c0
       1.6741738 0.47831613 13.41631 -2.3602436
0003b0 1c 25 e1 bf 7c c1 19 c0 4d 69 51 3f da 6b c0 40
       -1.758945 -2.4024343 0.818013 6.0131655
0003c0 38 9a 14 3c 4a 3c 1b be 0f 2a 00 be 3a 3c cd be
       0.009069972 -0.15159717 -0.12516044 -0.40085012
0003d0 f6 5f 6f be e6 12 75 c0 f6 55 1c 3f 0e 20 39 3d
       -0.2337645 -3.8292785 0.61068666 0.045196585
0003e0 49 0a fe 3d 6e b1 40 bd d3 ed 0c bc ed 97 43 3c
       0.124043055 -0.04704421 -0.008601624 0.011938077
0003f0 3a e8 99 3d 6e 3d 96 bf 4f 40 16 3e 92 b7 77 3d
       0.07514997 -1.1737497 0.1467297 0.0604778

bias f4 [32]
000000 cd 86 a8 be 41 36 81 be 9e 79 57 be b8 8f 50 be
       -0.32915345 -0.25236705 -0.21042487 -0.20367324
000010 5d 92 de bd e0 f2 50 c0 f2 71 df bf f7 ee e3 bd
       -0.1086776 -3.264824 -1.7456648 -0.11129563
000020 53 51 1d be 79 e6 a0 3d bb d8 86 bd d9 02 52 bf
       -0.15363054 0.07856459 -0.06584307 -0.82035595
000030 98 96 14 c0 64 14 4f be ad 76 9b bf bc 1b 9b be
       -2.3216915 -0.20222622 -1.2145592 -0.30294597
000040 68 e8 c8 be 29 3e b2 3e 31 8e df be a4 95 0f be
       -0.39239812 0.3481305 -0.4366317 -0.14021927
000050 25 25 9f bf a6 48 a0 be d0 82 e3 be ce 53 09 c0
       -1.2433211 -0.31305426 -0.4443574 -2.14574
000060 09 c6 b3 bf bc 86 8c c0 9f b9 13 bf 07 2f 6d bf
       -1.404481 -4.391447 -0.5770511 -0.92649883
000070 23 e0 6f bf 87 f4 24 be 6d df 64 be d6 a5 d7 bd
       -0.9370138 -0.16108905 -0.22350855 -0.105296776

weight f4 [16, 32]
000000 ca 7a 04 3c 66 a0 b5 bf 39 6e ff 3f 66 07 67 bf
       0.008085916 -1.4189575 1.9955512 -0.90245664
000010 7f 83 c2 3d 76 80 26 c0 cf d1 ae 3f a9 79 95 be
       0.09497737 -2.6015906 1.3657779 -0.29194382
000020 c8 7b e0 bf 8d e6 01 c0 ce 97 5b bd 11 c3 59 3f
       -1.7537775 -2.0296967 -0.05361157 0.8506327
000030 2d 0c 7e 3f a9 2a 13 bf b6 a8 bc bf d4 e0 2e 3f
       0.9923733 -0.5748697 -1.4738986 0.6831181
000040 8a 76 07 bf 4e 47 22 bf 6a 54 c5 3f dd eb 19 3e
       -0.5291525 -0.6339005 1.5416386 0.15031381
000050 e0 bc cb bf c1 83 9e bf bc 92 a3 3d 2a 29 1f be
       -1.5917015 -1.2383958 0.07986972 -0.15543047
000060 4f e7 53 bf 46 a5 5d 40 5c b2 8e bf 89 20 09 3f
       -0.82774824 3.4632125 -1.1148181 0.5356527
000070 d3 f6 fd 3f fe 5f 94 3f 5b 03 a1 bf 1a 0e 00 bf
       1.984095 1.1591794 -1.2579149 -0.5002152
000080 d6 04 1d be 6d cf 89 bd 70 e5 9a 3c 91 62 cc be
       -0.15333876 -0.067290165 0.018908232 -0.3991895
000090 b8 e3 42 3e 72 27 b8 3f ce 48 0f 3f dc cb cb 3d
       0.1903218 1.4387038 0.55970466 0.099509925
0000a0 50 75 0a be 75 9f 89 bd 80 48 20 bd 05 ab 0b be
       -0.13521314 -0.06719867 -0.03913164 -0.13639458
0000b0 68 22 15 40 b1 b9 d3 3c 76 b4 9b 3e a7 97 19 3c
       2.330225 0.02584538 0.30411118 0.009374536
0000c0 f2 39 0b 3e 6b 0b 30 be 2e 21 a9 bd b7 de e5 bd
       0.13596323 -0.17191856 -0.08258282 -0.1122412
0000d0 a3 49 bf bd e8 6f 92 bf b8 17 0f bd ec 25 4d bf
       -0.09340217 -1.1440401 -0.03493473 -0.8013599
0000e0 91 7c bc 3e d6 03 7b 40 31 1d 57 3e 7e 4c 95 bd
       0.36813787 3.9221091 0.2100723 -0.0728998
0000f0 61 c9 3d 3d 61 5b cd bb ba af 05 3e 6e b8 90 be
       0.046334628 -0.0062669967 0.13055316 -0.2826571
000100 f9 95 df bd f3 8f 67 bd 91 40 25 bd 31 c3 a4 be
       -0.10917277 -0.056533765 -0.04034478 -0.3218017
000110 91 27 02 3b 38 fc df 3f 56 c7 d8 3e 52 aa ca 3d
       0.001986001 1.7498846 0.4233958 0.09895767
000120 f7 b7 31 bd 54 27 7d bd 69 76 11 be 39 1b 1d be
       -0.043388333 -0.061805084 -0.14205326 -0.15342416
000130 e9 6d 45 40 25 32 37 bc e7 c3 68 3e c8 64 51 bd
       3.0848334 -0.011181389 0.22730981 -0.051121503
000140 a7 ed bb 3d da 4d fc bd 73 37 f8 bd 9c 31 65 be
       0.09176188 -0.123195365 -0.12119951 -0.22382206
000150 12 af 30 be 57 46 a8 bf 86 9e a1 bd b3 60 21 bf
       -0.17254284 -1.3146466 -0.07891564 -0.63038176
000160 b5 e6 17 3f 86 eb 5e 40 b8 8a 58 3e 36 2f 90 bd
       0.59336406 3.4831252 0.21146667 -0.07040255
000170 24 35 17 3e d4 5b 67 3c e7 64 57 3e 4a d1 a2 be
       0.14766365 0.014121015 0.21034585 -0.318003
000180 cc 22 0a be 7c 0b 82 bd 0f f7 56 bc fc e8 bd be
       -0.13489836 -0.06349847 -0.013120427 -0.37091815
000190 49 42 57 3d 6d 63 b7 3f 44 ba 0a 3f fe c5 b9 3d
       0.05255345 1.4327217 0.5419047 0.09070967
0001a0 7b 52 c8 bd 13 f0 c2 bd 5e 39 46 be 57 13 1b be
       -0.09781357 -0.09518447 -0.19357821 -0.15144096
0001b0 fd e6 18 40 bf c5 55 bb 7c a7 a4 3e b9 d7 04 bd
       2.3890984 -0.0032619087 0.3215903 -0.03243229
0001c0 96 1b 0e 3e a3 02 36 be 66 2d 11 be 9a bd 2d bd
       0.1387771 -0.17774443 -0.14177474 -0.042417146
0001d0 6e 54 fe bd 5f c2 97 bf f6 ba 3b bd 91 1d 43 bf
       -0.124184474 -1.1856192 -0.045832597 -0.7621699
0001e0 fa 1e 00 3f 79 cd 77 40 fa 8e 5c 3e 26 b9 5a bd
       0.50047266 3.871916 0.21538916 -0.053399228
0001f0 4e 8a 62 3d 85 77 59 bb 81 6a 0a 3e dd 46 9b be
       0.05530768 -0.0033182811 0.1351719 -0.30327502
000200 dd 9e ee bd 34 44 58 bd f3 99 2f bc 2c 2f 9d be
       -0.116513945 -0.05279942 -0.010717857 -0.30700052
000210 06 b8 86 bd 73 7a da 3f 5d f4 95 3e f2 f2 f4 3d
       -0.065780684 1.7068619 0.29287997 0.11960401
000220 ee 97 a9 bc ae 9d 04 bd 69 fb 03 be 34 78 30 be
       -0.020702329 -0.032376938 -0.12888874 -0.17233354
000230 f7 7c 50 40 94 8b 56 3b 2e 93 32 3e 55 ac d5 bc
       3.2576272 0.0032737004 0.17438957 -0.02608315
000240 78 92 93 3d cd fa f3 bd 0c d8 64 bd 26 b9 69 be
       0.07205671 -0.11913071 -0.0558701 -0.22824535
000250 f9 e9 11 be b3 32 ae bf 8e 9f cb bd e2 e9 1e bf
       -0.1424941 -1.3609222 -0.09942542 -0.62075627
000260 dd 11 0c 3f e7 a6 64 40 2f 41 5c 3e 3c fc bd bd
       0.5471476 3.572687 0.2150924 -0.092766255
000270 6e 01 2a 3e 42 dd ce 3c 59 cc 69 3e 33 bf a8 be
       0.16602108 0.025251988 0.22831859 -0.32958373
000280 4c 60 e5 bf 4d 83 56 bd d7 3e 3b 3f 56 08 cc 3f
       -1.7920012 -0.052371312 0.7314276 1.5940044
000290 c2 49 c6 be d6 2b f0 40 c4 77 85 bf 24 71 8c bf
       -0.38728148 7.505351 -1.0427175 -1.0972028
0002a0 81 fe 2e 3f 68 07 ab be c9 4c 87 be b3 3e 7e 3f
       0.6835709 -0.33404088 -0.2642577 0.9931442
0002b0 3d a8 d8 bf 47 df 2f bf 2a 22 de 3e e5 e8 f9 bd
       -1.6926342 -0.6870007 0.4338544 -0.12202624
0002c0 1e bd 89 3f 8c c8 51 be e0 1f f2 bf 2a 2a 75 3c
       1.0760839 -0.20486659 -1.8915977 0.014963666
0002d0 b2 4b be 3f cb 4b 8a bf ea f8 48 c0 3b c8 40 bf
       1.486685 -1.080438 -3.1401925 -0.7530553
0002e0 a7 ef d0 3f 15 3a 39 bf e4 b5 8c bf 76 ae c0 be
       1.6323136 -0.7235425 -1.0993009 -0.37633103
0002f0 4b 1c 3c 3e d0 ca 67 bf 49 7e af bf 21 0c 68 3e
       0.18370168 -0.9054384 -1.3710414 0.22660877
000300 e5 0e 11 be af 76 8f bd 57 01 24 bd 59 0e b0 be
       -0.14165838 -0.07005059 -0.04004034 -0.34385946
000310 38 84 15 3e d9 f9 c4 3f c1 58 fe 3e 41 2a ce 3d
       0.14601219 1.5388747 0.4967709 0.10066653
000320 cb 18 c4 bd d6 ed 8b bd 95 79 96 3a d6 99 06 be
       -0.095750414 -0.06832473 0.0011480326 -0.13144621
000330 f4 b5 26 40 8c 95 f1 3b c4 50 98 3e 47 02 09 3b
       2.6048555 0.0073725637 0.2974912 0.0020905898
000340 b0 75 ee 3d 12 71 29 be ce e2 18 be 7d 07 52 bd
       0.11643541 -0.16547039 -0.14930269 -0.051276673
000350 c3 b9 1f be 6a 1d 94 bf 29 24 7b bd 2b 77 42 bf
       -0.15598206 -1.1571476 -0.061313782 -0.75963086
000360 00 c0 d4 3e 75 f9 71 40 22 da 56 3e 34 27 70 bd
       0.41552734 3.7808506 0.20981649 -0.058631137
000370 cc a9 92 3d 38 9d c3 3b 91 05 0a 3e 8b 10 8e be
       0.071612924 0.0059696697 0.13478686 -0.27746996
000380 6e 00 8a bd 3e 67 51 bd 95 35 f3 bc 4f 4c a8 be
       -0.06738363 -0.05112385 -0.029688636 -0.3287072
000390 5b 76 37 3e fa e8 de 3f 13 0c e3 3e 8a 4f 39 3c
       0.17916243 1.7414849 0.4434515 0.0113104675
0003a0 b8 af 6e bd 33 53 33 bd 4a 4a 49 be 76 31 1b be
       -0.058273047 -0.043780517 -0.19657245 -0.15155587
0003b0 4a a4 39 40 ff 14 e2 bc b2 27 81 3e 05 ac b0 bd
       2.9006524 -0.027597902 0.25225598 -0.0862656
0003c0 6a 6b a4 3d 0e 64 f4 bd 55 81 73 be c2 6a d9 bd
       0.080283 -0.119331464 -0.23779805 -0.106160656
0003d0 c4 72 38 be aa 5e 9e bf 5b 6c 89 bd bb bb 28 bf
       -0.1801253 -1.2372639 -0.0671012 -0.65911454
0003e0 c0 d9 d2 3e c7 87 69 40 44 22 51 3e 6a f6 44 bc
       0.41181755 3.6489122 0.20423228 -0.01202164
0003f0 cd cd 4b 3e 20 cd 6b bc 2f 16 51 3e de 22 a4 be
       0.19902726 -0.014392167 0.20418619 -0.32057852

bias f4 [16]
000000 da 81 d8 be a3 22 cc 3d 9e 47 fd 3d 2b d9 bc 3d
       -0.4228657 0.09967544 0.123671755 0.09221109
000010 2a bf 0b 3e 82 ce c8 bf e9 7c c1 3d 55 8b c7 3d
       0.13647142 -1.5688021 0.09447653 0.09743372
000020 90 ed ce 3d a7 03 d0 3d d1 a9 00 3e 83 5a 2a bf
       0.10103905 0.10156947 0.1256478 -0.6654436
000030 80 8a de 3d 60 82 fc 3d 3f bd c1 3d e8 df 1c 3e
       0.108662605 0.123295546 0.09459924 0.15319788

weight f4 [1, 16]
000000 b4 e5 97 be 2f de c8 bb 13 ff bc ba b2 11 73 bb
       -0.29667437 -0.006130002 -0.001441928 -0.0037089405
000010 3a c7 f8 ba ad 75 0a 3f 56 b8 9c bb 47 f6 93 39
       -0.0018980273 0.5408581 -0.0047827167 0.00028221516
000020 2a 3e 0e bb 75 b5 17 b9 61 c6 2b b9 0d 00 e0 be
       -0.0021704533 -0.0001446808 -0.00016381733 -0.4375004
000030 f8 b3 6e bc 37 10 d8 b9 85 22 02 38 35 77 a9 bb
       -0.014569275 -0.00041210811 3.1026564e-05 -0.0051716813

weight f4 [1, 576]
000000 57 0d fa 3d 8a d4 3b bc d7 1d 4c ba a4 57 3d bb
       0.122095756 -0.0114642475 -0.0007786429 -0.002889135
000010 27 d9 61 bb 4f 92 2c be d7 3e 13 3e 62 b3 5b bb
       -0.0034461708 -0.16852687 0.1437944 -0.0033523669
000020 1d b2 fb bd 95 84 0f c0 2b 73 06 3b 4c a6 bb 3a
       -0.12289832 -2.2424672 0.0020515423 0.0014316528
000030 5b 97 3f 3b d1 38 c3 ba e9 42 1b bb 68 29 f1 bc
       0.0029234502 -0.0014894252 -0.0023691005 -0.02943869
000040 a3 1b 94 3f e3 32 30 3d 32 a4 1a 3f d3 9b c5 bd
       1.1570934 0.04301728 0.6040679 -0.09648862
000050 d8 88 8e bb f1 fd 60 3f cb 5e 8c c0 f7 33 dc bd
       -0.004349809 0.87887484 -4.3865714 -0.10752099
000060 04 8c 8d 3d 6f d7 32 3e 02 49 c8 bf ba 48 4c c0
       0.069114715 0.17464994 -1.564728 -3.1919389
000070 03 69 1a 40 f5 c2 d4 bc 31 ef 11 c0 5c 81 31 c0
       2.4126594 -0.025971869 -2.280224 -2.7735205
000080 73 f1 c4 3f 42 eb 09 3c 6b 51 00 bf d7 4f fe 3e
       1.5386184 0.008417906 -0.50124234 0.49670288
000090 4b ea 5f b9 e8 52 bf bf ce 9e 50 3f 5f b7 97 be
       -0.00021354218 -1.4947176 0.81492317 -0.2963209
0000a0 77 06 dc 3e 5b 1c 0a bd 0b a4 b6 bc 85 4a e1 bb
       0.42973682 -0.033718448 -0.022295019 -0.0068753385
0000b0 b9 6f c7 3e f4 b2 ac bf 4e 00 c3 3d 58 21 4d 3e
       0.38952425 -1.3492112 0.095215425 0.20032251
0000c0 a8 45 6a 3c a7 a2 ea bc e1 2f 4c b9 ea 99 fb bb
       0.014298834 -0.028642012 -0.00019472792 -0.00767826
0000d0 60 63 53 bd 38 e6 74 ba 37 83 96 be 17 1b bf 3e
       -0.051608443 -0.00093421666 -0.29396984 0.37325355
0000e0 93 70 8b 3c 03 96 9d ba 68 b6 d9 bb 05 4a 5e 3a
       0.017021453 -0.0012022856 -0.006644059 0.00084796577
0000f0 9b 92 10 bc c9 4a 55 bc 19 79 ed bb 34 59 28 3c
       -0.008824016 -0.013018318 -0.007247102 0.010275174
000100 63 17 ab bf 0d ad e6 3e 99 a5 a5 3f 76 e5 47 3f
       -1.3366512 0.45053902 1.2941161 0.78084505
000110 02 2d 35 3d 71 57 0b 40 8c 9c 29 c0 db 60 16 c0
       0.044232376 2.177212 -2.6501799 -2.3496616
000120 90 ef e9 3d 56 8a 90 bf 54 2a 8e 40 ca ba bf bb
       0.11422646 -1.1292217 4.442667 -0.0058511244
000130 8b 72 05 bf 3f eb a7 bf 0d 77 db bd 8c 3c ce bf
       -0.52127904 -1.3118666 -0.107160665 -1.6112227
000140 21 34 fd 3e dc f1 ac 3c ea 0e a0 3e 88 a2 80 3e
       0.49453834 0.021111421 0.3126138 0.25124002
000150 75 1c 51 be 4f 7f 40 bf 04 2b 2e 3f 0f a1 b5 bf
       -0.20421012 -0.7519426 0.68034387 -1.4189776
000160 2f 1f d5 3d 57 18 4b be b6 30 04 be 0c d4 77 3f
       0.104063384 -0.19833504 -0.12909207 0.9680793
000170 35 56 05 c0 e5 01 c2 3c 96 2e a6 3d 3a 62 7d bd
       -2.0833867 0.023682544 0.08114354 -0.061861254
000180 b6 86 e4 bd 5e 38 8e 3b 62 25 e9 3b 98 8b b6 bc
       -0.111585066 0.0043402156 0.007115052 -0.02228336
000190 2a 24 22 3d 31 e4 6e 3c e1 aa 1a be c2 58 04 3f
       0.03958527 0.014580772 -0.15104248 0.51697934
0001a0 b8 e1 0a bc 75 f6 8c bb da a0 08 bb f3 32 c3 ba
       -0.008476667 -0.004301841 -0.0020847828 -0.0014892503
0001b0 15 d2 3d bc 09 be e3 bc b2 d3 03 bb a8 89 48 ba
       -0.011585732 -0.027800577 -0.0020115194 -0.0007649907
0001c0 5a 2b e5 bb a0 2c cb 3e 47 e9 e7 bd 53 fc 9e bc
       -0.0069936933 0.39682484 -0.11323791 -0.019407427
0001d0 25 f3 24 be b0 e3 9c bd 1b eb 3c bf 92 7f 02 c0
       -0.16108377 -0.076606154 -0.7379624 -2.0390363
0001e0 35 d4 04 c0 00 ee f4 3f 82 41 56 3f e9 82 0e bc
       -2.075452 1.9135132 0.83693707 -0.008698204
0001f0 82 c4 85 c0 2e aa e4 bf 74 c9 98 bf f6 a0 10 c0
       -4.180238 -1.7864435 -1.1936479 -2.2598243
000200 38 de c5 bc 97 1b 8c 3b dd 40 35 3f 38 50 d6 bd
       -0.024153814 0.00427575 0.708021 -0.10464519
000210 ba 37 46 bd b3 24 fd be 52 10 29 3f a9 a4 df be
       -0.04839299 -0.49442062 0.6604053 -0.43680313
000220 ea 45 c5 bd 52 bd b2 3b a2 a4 89 bd ca b9 1d 3d
       -0.09632476 0.0054546976 -0.06720854 0.03850726
000230 ed f6 8a bf 82 3b 6b be 5c f5 57 3d 0e c2 26 bf
       -1.0856606 -0.22971919 0.052724227 -0.65139854
000240 6f b2 e5 3b ea 66 0f 3c 78 9a 5a 3b bc 9c 5f 3c
       0.0070097963 0.008752564 0.003335623 0.013648208
000250 89 08 c6 3e 4e 33 eb 3a 20 35 1a 3f 1f 63 e2 bb
       0.38678387 0.0017944367 0.6023731 -0.006908789
000260 d3 64 21 3c 45 45 01 3b 3a d9 32 3b 1f 33 ac 39
       0.0098506985 0.0019725126 0.0027290122 0.00032844485
000270 5a e2 47 bc e1 44 b2 bf 78 d0 11 3c e7 b8 ea bb
       -0.0121999625 -1.392727 0.0088998005 -0.0071631554
000280 75 70 11 40 c5 ac aa bf d1 cb c7 3e ee 5e 5c 3f
       2.2724888 -1.3333975 0.39022687 0.8608235
000290 5c a2 72 bf 8d 22 e7 be 36 7a 7b bf 3a 68 66 c0
       -0.9477899 -0.45143548 -0.98233354 -3.6001115
0002a0 9e 42 9f 3f e4 4c 9f c0 b5 40 2a 40 72 f7 52 bf
       1.2442205 -4.978136 2.6601994 -0.8240882
0002b0 71 93 90 3c 34 5f fc bf af bd 4b 3f 4a 10 65 3f
       0.01764843 -1.9716554 0.7958631 0.8947798
0002c0 09 c0 98 be 39 6e 45 bf 63 73 2f 3c 9e 12 3d bd
       -0.2983401 -0.7712131 0.010708663 -0.046160333
0002d0 a4 5f 83 be f8 31 3e bf e3 fe b3 3f 81 7c 38 3f
       -0.25658906 -0.74294996 1.406216 0.7206498
0002e0 09 57 14 3d 89 e0 d3 bc 90 21 94 3f d7 e0 f9 3b
       0.036215816 -0.025863903 1.1572742 0.00762568
0002f0 9c 52 07 3f 4f 58 b2 be 06 ec 09 3d fe 95 2c 3f
       0.52860427 -0.34833 0.033672355 0.6741637
000300 89 24 cc 3b af 41 b5 bd a6 ad 97 ba eb 38 62 bc
       0.0062299413 -0.08850419 -0.0011572137 -0.013807516
000310 fa 28 04 3e 7c 80 a1 3e 3b c2 1d 3d c0 2d 06 3a
       0.12906256 0.31543338 0.03851531 0.00051185116
000320 09 cd dc 3b 72 1c 54 bb 99 ec 92 3b 48 06 63 3a
       0.0067383093 -0.0032365588 0.004483771 0.0008660299
000330 38 53 48 bf 95 2b 7c bc 53 0e af bb 56 25 23 bb
       -0.7825198 -0.01539125 -0.0053422838 -0.002489408
000340 5d 76 86 be e5 c4 0a 3f 3a c3 6c bf c9 93 3e 3f
       -0.2626218 0.5420669 -0.9248539 0.7444425
000350 2c 0c 14 3e de 0f 51 bf 13 04 1f bf 15 ca ef bc
       0.14457768 -0.81664836 -0.6211559 -0.029271165
000360 21 3f ae 3f 9d a0 18 c0 db 33 92 bf a3 77 e8 bf
       1.3613015 -2.384803 -1.1422075 -1.816151
000370 10 81 b8 bd c7 48 81 3d c6 c9 0f c0 ce 7d 1c 3f
       -0.09008992 0.06312709 -2.2466903 0.6112946
000380 7f 1a f9 bf 42 4b 10 bd 1b 6c 63 3e 02 3c f6 3d
       -1.9461211 -0.03522802 0.22209208 0.12023164
000390 6e f1 95 be 0e 7b ae be ae 80 c8 3e 52 d3 58 3f
       -0.2928576 -0.34078258 0.39160675 0.8469745
0003a0 e3 29 20 3e 6e 25 5d bc 65 a2 09 40 07 35 b3 3c
       0.15640979 -0.013497693 2.1505368 0.021875871
0003b0 5a 6d 38 40 7c a7 21 bf 8d 98 51 3e 50 f2 6d be
       2.8816743 -0.63146186 0.2046835 -0.23236966
0003c0 be f4 72 3b 9e bd d2 bb 36 7c 95 3b 5d bc 2d 3f
       0.0037072147 -0.0064312955 0.0045619262 0.67865545
0003d0 e2 fc 4d bd 6f 29 4e 3f 2c ed 29 3d 11 5d 0b bb
       -0.050289996 0.8053197 0.04148595 -0.0021265189
0003e0 6c 62 bb ba ea 72 0a 3b e8 13 8f 3b a7 4b 0a 39
       -0.00142963 0.0021125623 0.0043663867 0.00013188888
0003f0 c6 fe f8 3b b9 a4 e8 3e e3 40 99 3c 5c 34 19 3b
       0.0075987307 0.45438173 0.018707698 0.0023377156
