MLIPs/CACE-LES/Au-MgO-Al/caceles-r-5.5-nl-1-nu-2/checkpoint.pt (torch, 543778 bytes, 54 tensors)

representation.node_embedding_sender.embedding_weights f4 [4, 4]
0	0x3ef30b9f	0.47469804
1	0x3ca898cb	0.02058067
2	0xbe3a5b10	-0.181988
3	0x3e9f5629	0.31120422
4	0xbef461b4	-0.47730792
5	0xbc929872	-0.017894957
6	0xbe3a95aa	-0.18221155
7	0x3e9f6b09	0.3113635
8	0xbf152cb4	-0.58271337
9	0x3d0cb49c	0.03435193
10	0x3f839e48	1.0282679
11	0x3ef7d9ef	0.48408458
12	0x3e531a89	0.20615591
13	0x3f83d699	1.0299865
14	0x3ea1324c	0.31483686
15	0xbd7f2a99	-0.062296484

representation.node_embedding_receiver.embedding_weights f4 [4, 4]
0	0xbb8c42b0	-0.0042804107
1	0x3e0f934d	0.14021035
2	0x3b10617d	0.0022030764
3	0x3e147ecb	0.14501493
4	0x3b202d03	0.0024440892
5	0xbd935c84	-0.0719538
6	0xbe2cd6db	-0.16878836
7	0x3e21b1e0	0.1579051
8	0xba95b240	-0.001142092
9	0xbe46f4aa	-0.1942927
10	0x3e59a116	0.21252856
11	0x3db71a42	0.08940555
12	0x3eae15d3	0.34001026
13	0xbc0628bc	-0.008188423
14	0xbc6f84a3	-0.014619025
15	0x3ca42cfd	0.020040983

representation.radial_basis.bessel_weights f4 [6]
0	0x3e8478f0	0.25873518
1	0x3f81a197	1.0127438
2	0x3fd5ea02	1.6712039
3	0x400a01f7	2.15637
4	0x40453d15	3.0818532
5	0x40603c42	3.5036778

representation.radial_transform.weights.0 f4 [6, 12, 16]
0	0xbf22bc44	-0.6356852
1	0xbceee745	-0.029163012
2	0x3d2d1e09	0.042264972
3	0xbbf0920b	-0.0073416284
4	0x3ef03c39	0.46920946
5	0x3fc3795b	1.527141
6	0x3d4b1c31	0.049587432
7	0xba9041a9	-0.0011005896
8	0xbe69537c	-0.22785753
9	0x3fbc33d0	1.4703312
10	0x3ca8ba38	0.020596609
11	0xbb8d06a7	-0.0043037715
12	0x3945cfb7	0.00018864764
13	0xbce45071	-0.027870389
14	0x3d248e33	0.040174674
15	0x3eaf6c78	0.34262443
16	0xbdcce4ae	-0.10004555
17	0x3f01dcef	0.5072774
18	0xbd4d8290	-0.050173342
19	0xbb892b36	-0.0041860593
20	0xbe81c950	-0.25348902
21	0xbd06d007	-0.032913234
22	0x3fb26e87	1.393998
23	0xbfcc4060	-1.5957146
24	0x3c6eec12	0.014582651
25	0x3bccc4ef	0.0062490623
26	0xbce36547	-0.027758254
27	0x3bc9cb2a	0.0061582522
28	0xbc3e9774	-0.011632789
29	0x3e05b02f	0.1305549
30	0x3d85d097	0.06533926
31	0x3b51610a	0.003194871
32	0xc000f3e2	-2.0148854
33	0xbd9d6868	-0.076859295
34	0x3c861d0d	0.016371274
35	0x3dc2c938	0.09511036
36	0x3f71d839	0.94470555
37	0xbd434fb2	-0.047683425
38	0x3fabd684	1.342484
39	0xbf2ef2be	-0.68339145
40	0xbae2473f	-0.0017263665
41	0xbc155159	-0.009113633
42	0x3af6682b	0.0018799355
43	0x3cb765e1	0.022387447
44	0x3ba32537	0.0049788016
45	0x3e556ac8	0.20841515
46	0xbd00ab55	-0.031413395
47	0x3d31f8ff	0.04345035
48	0x3cef59df	0.029217659
49	0xbd364a14	-0.04450424
50	0x3d9a1bba	0.0752482
51	0xbd26265d	-0.04056393
52	0xbf359492	-0.70929825
53	0xbc269459	-0.010167205
54	0x3f211a17	0.62930435
55	0xbb07789c	-0.0020671254
56	0xba65ee8a	-0.0008771202
57	0xbbc607f0	-0.0060434267
58	0x3d6cb61e	0.057790868
59	0xbb696387	-0.0035612301
60	0x390e90a6	0.00013596061
61	0x3f989386	1.192002
62	0xbcc0bf33	-0.02352867
63	0x3c23f7f6	0.010007849
64	0x3d4a8018	0.049438566
65	0xc050f622	-3.2650228
66	0x3d11390a	0.035454787
67	0x3c63396d	0.013868672
68	0x3fde9440	1.7388992
69	0xbe1d315f	-0.15350865
70	0x3dfbc582	0.12293531
71	0x3bb52527	0.0055281105
72	0x3b9d63ee	0.0048031723
73	0x3c9af645	0.018916259
74	0x3d9c109c	0.076203555
75	0xbc1833d8	-0.009289704
76	0xbc4ad70e	-0.012380375
77	0x3e0ab80e	0.13546774
78	0x3d6726c1	0.056433443
79	0xbc591682	-0.013249995
80	0x3ae79775	0.0017669039
81	0x3d9a4ec8	0.075345576
82	0x3d0c3038	0.034225672
83	0x3fa9e179	1.3271934
84	0xbf213d9a	-0.6298462
85	0xbe9c6eb2	-0.30553204
86	0x3f9a4a20	1.2053871
87	0x3a5ebf97	0.0008497177
88	0x3bf3a6e0	0.0074356645
89	0xbc2b3c55	-0.010451396
90	0x3db143fe	0.086555466
91	0x3c061ba0	0.008185297
92	0xbb7dc04e	-0.003871936
93	0x3f1a749a	0.6033417
94	0xbd6a5bae	-0.05721634
95	0x3d932599	0.071849056
96	0xbc17125e	-0.009220688
97	0x3b6185c9	0.0034412018
98	0x3cf5fcc9	0.030027764
99	0x3e8d87a7	0.27642557
100	0x3d53cc1c	0.051708326
101	0xbd845bb2	-0.06462802
102	0xbf9f0ae1	-1.2425195
103	0xbb43960a	-0.002984407
104	0xbc8cf09f	-0.01720458
105	0x3ba8b467	0.0051484588
106	0x3cea6a9d	0.02861529
107	0x3b8e2b37	0.0043386477
108	0xba503dcc	-0.0007943779
109	0xbcd710fb	-0.026253214
110	0xbd8d4c7d	-0.068993546
111	0x3f1d7a81	0.6151505
112	0xc09587da	-4.6728334
113	0x40ba1cc0	5.8160095
114	0x40905a06	4.510989
115	0xbea9cbd5	-0.33163324
116	0x3f665fce	0.89989936
117	0x3fdca0bc	1.7236552
118	0x3fbd2af3	1.4778732
119	0x3fb7c24a	1.4356167
120	0xbd08eceb	-0.033429068
121	0x3ed62ba2	0.41830164
122	0x3d6c8cf6	0.05775162
123	0xbc93730a	-0.01799919
124	0xbee5c18f	-0.44874236
125	0xbcf52664	-0.029925533
126	0xbd214fb3	-0.039382648
127	0x3e9d4dde	0.3072347
128	0x3da2f43f	0.079567425
129	0x3ddb73fe	0.10715483
130	0xbd9f1275	-0.07767192
131	0x3eb328fa	0.349922
132	0xbe804123	-0.25049695
133	0x3fb1912f	1.3872432
134	0x3eb5d221	0.35511878
135	0x3c18ada9	0.009318748
136	0xbaf97778	-0.0019032797
137	0xbb81dc09	-0.003962998
138	0x3d4d21ad	0.050080944
139	0x3efc4960	0.4927473
140	0x3adc3a4b	0.0016802041
141	0x3fd7bc2c	1.68543
142	0x3f03022a	0.5117518
143	0x3d58252f	0.052769836
144	0xbcd5e10d	-0.02610829
145	0x3dcd55c3	0.100261234
146	0x40806ab7	4.0130267
147	0x3d752691	0.059851233
148	0xbe1f848c	-0.15577906
149	0xbf8f2232	-1.118231
150	0xc00016cd	-2.0013916
151	0xbc473c54	-0.012160379
152	0x3cdd34a9	0.02700265
153	0xbb0ebae3	-0.0021778874
154	0x3c897c9b	0.01678305
155	0xbb78e8d5	-0.0037980576
156	0xb99e176b	-0.00030153556
157	0xbb023a30	-0.0019871108
158	0xbca3ba62	-0.019986335
159	0xbce7f04f	-0.02831283
160	0xbd67972c	-0.056540653
161	0x409b0f3b	4.845609
162	0xbd6997ca	-0.057029523
163	0x3e570592	0.20998219
164	0x3f2a9503	0.66633624
165	0x3e7848ee	0.2424657
166	0x3e1de47d	0.15419193
167	0x3e9193fa	0.2843321
168	0xbbacb7c4	-0.00527093
169	0x3f97a59f	1.1847419
170	0x3e769bd9	0.24082889
171	0x3b45006e	0.003006007
172	0x3bb75fee	0.0055961525
173	0x3eace3ed	0.33767644
174	0x3d7c9b2e	0.06167143
175	0x3beda273	0.0072520315
176	0x4129b6c9	10.607125
177	0x3d714d64	0.058911696
178	0x3daf5aa7	0.085622124
179	0xb9fae247	-0.00047852306
180	0xbd58c680	-0.05292368
181	0xbd8a495e	-0.06752275
182	0xbd9fac6e	-0.0779656
183	0x3f762e51	0.96164423
184	0xbd4b7f33	-0.049681854
185	0x3d565b8b	0.052333396
186	0x3e00b10c	0.12567538
187	0x3c4a29ac	0.012339037
188	0x3c290f10	0.010318533
189	0xbd07a0ae	-0.03311222
190	0xbcd99ecc	-0.026564978
191	0x3e741d04	0.23839194
192	0xbd18dd87	-0.03732064
193	0x3ce4fb0d	0.027951742
194	0x3dc43db9	0.09582085
195	0xbce46630	-0.027880758
196	0x3e953d04	0.29148114
197	0xbfd529f6	-1.665343
198	0x3f513f05	0.81736785
199	0xbb337d96	-0.0027388087
200	0x3edbbb05	0.42916122
201	0xc01ed561	-2.4817736
202	0xbd8d6dc8	-0.06905705
203	0x3d0d9c45	0.03457286
204	0x3c69bfbe	0.014266906
205	0xbde710f8	-0.112825334
206	0x3a089b4a	0.0005211128
207	0x3f04f405	0.51934844
208	0x3de5ce58	0.112209976
209	0x3fa86d4c	1.3158355
210	0x3da39534	0.079874426
211	0x3d277b4d	0.040889073
212	0x3eb62c8e	0.35580868
213	0x3d096b01	0.033549313
214	0x3d86666d	0.06562505
215	0x409fea64	4.997362
216	0xbd7f3ac0	-0.062311888
217	0xbc4bb8c7	-0.012434191
218	0x3cfa3cd3	0.030546581
219	0x3c8aeec9	0.016959565
220	0x3d6d044d	0.05786543
221	0x3ea3812b	0.31934485
222	0xbcdaf5de	-0.026728567
223	0x3ddecef3	0.10879316
224	0xc013473e	-2.3012233
225	0x3d679d46	0.056546472
226	0x3d62b05d	0.055343974
227	0x40165b75	2.349332
228	0x3f6e8f83	0.9318773
229	0x3d1e34dd	0.038624633
230	0x3e7f27c4	0.24917513
231	0x40712046	3.7675948
232	0x3c161495	0.009160181
233	0xbcfa9a63	-0.030591195
234	0x3e03b4ad	0.12861891
235	0x3d2520f5	0.040314633
236	0xbd5409fa	-0.051767327
237	0x3f0571b5	0.5212663
238	0x3dbbec4c	0.091759294
239	0xbaac9cff	-0.0013169347
240	0x3d1a121d	0.03761493
241	0x3e81caef	0.2535014
242	0x3e4bea60	0.19913626
243	0xbe549ca2	-0.20762876
244	0xc031e549	-2.7796195
245	0xbcd5d0a7	-0.02610047
246	0x4025ba08	2.5894794
247	0x3ba384d6	0.0049902005
248	0x3bb8d8b5	0.005641068
249	0x3cf03e5b	0.029326608
250	0x3ce27ab1	0.027646394
251	0xbd1a15c4	-0.037618414
252	0x3c890824	0.016727515
253	0xc04060cc	-3.005908
254	0x3ca61fcf	0.02027884
255	0xbd4c9b7b	-0.049952965

representation.radial_transform.weights.1 f4 [6, 12, 16]
0	0x411c2343	9.758609
1	0x418479a9	16.559404
2	0x414db865	12.857518
3	0x400418d1	2.0640147
4	0x3f639136	0.8889345
5	0x3fa70e07	1.3051156
6	0xbffc40b2	-1.9707243
7	0x409d25d2	4.9108667
8	0x3e479853	0.19491701
9	0xbe2d06e6	-0.16897163
10	0x40e6b913	7.210092
11	0x4051dd06	3.2791152
12	0x3f4cbe28	0.79977655
13	0x3e07c38f	0.13258193
14	0x3ffbb151	1.9663488
15	0x4021c392	2.5275617
16	0xc11c1572	-9.755236
17	0xc0f68928	-7.7042427
18	0xc0763c95	-3.8474476
19	0xc0355f9c	-2.8339605
20	0xbd10d1d1	-0.035356347
21	0x3f1df3f8	0.6170039
22	0x3f87880f	1.0588397
23	0xc0a2ee3e	-5.0915823
24	0xbbc2eff6	-0.0059490157
25	0xc08a93fd	-4.330565
26	0xbfdd02ca	-1.7266476
27	0xbd3035dc	-0.043020114
28	0x3f314c92	0.6925746
29	0x3f848cce	1.035547
30	0x3d37c34a	0.044863977
31	0xbf5cc150	-0.8623247
32	0x3e854bf0	0.26034498
33	0x41443a17	12.264182
34	0x3bb0b0af	0.005392156
35	0x41243e69	10.265237
36	0xbd61277b	-0.054969292
37	0xbc66247a	-0.014046783
38	0xc066ebf1	-3.6081507
39	0x40b2a866	5.5830564
40	0xc0909497	-4.5181384
41	0x3f47bdb7	0.78023857
42	0x401ca817	2.4477594
43	0x3da53e34	0.08068505
44	0x40477067	3.1162355
45	0x40611ce5	3.5173886
46	0x3e8e8edc	0.27843368
47	0x4029440f	2.644779
48	0xbf3a25f1	-0.72714144
49	0x40a6e722	5.2157145
50	0x40a6ce7e	5.2127066
51	0xc0c5f3c2	-6.1860056
52	0xbfc699e3	-1.5515712
53	0x41208e68	10.034767
54	0x3fdd8771	1.7306958
55	0x410b34cc	8.70039
56	0xbfe093e6	-1.7545135
57	0xc0ab1945	-5.3468347
58	0xc0b74156	-5.7267256
59	0x402eff84	2.7343454
60	0xbc2d1c57	-0.010565839
61	0xc00c41a8	-2.1915073
62	0x3fcff744	1.6247334
63	0xbffc1bd5	-1.9695994
64	0x410af5bc	8.684994
65	0x4111e298	9.117821
66	0xc12fe71b	-10.993922
67	0x410d0c9e	8.81558
68	0x3fbc1f08	1.469697
69	0xc054c660	-3.3246078
70	0xc0127b81	-2.288788
71	0xbb1dcfb3	-0.0024080097
72	0xc03282a6	-2.7892241
73	0xc04bfd98	-3.1873531
74	0xc04dd3e8	-3.2160587
75	0x40a05e4c	5.011511
76	0x3e55f895	0.20895608
77	0x405c25ab	3.439799
78	0xbf336276	-0.70072114
79	0x40970633	4.7195067
80	0xc1830a8e	-16.380154
81	0x41579fbd	13.476499
82	0x3f459f5c	0.7719629
83	0xbf8caeed	-1.0990883
84	0x3f22982b	0.6351344
85	0xbdbb176e	-0.09135328
86	0x40bf348b	5.975164
87	0x409c8daa	4.892293
88	0xbfcb03d4	-1.5860543
89	0xbd6ff687	-0.058584716
90	0x40d6df22	6.714738
91	0xbac6d5a3	-0.001516987
92	0x40440f20	3.0634232
93	0x3fd66885	1.6750647
94	0x4081d42a	4.057149
95	0x405dec62	3.4675527
96	0x413de5ba	11.868586
97	0x40e57058	7.169964
98	0x4123b117	10.230735
99	0x41376075	11.461049
100	0x3c9bce7c	0.019019358
101	0x40d1d17c	6.556822
102	0x3ef76ec6	0.483267
103	0x40efab89	7.4896894
104	0xbe579ee5	-0.21056707
105	0xc098e7d3	-4.778299
106	0x3fdb64ed	1.7140175
107	0xbf60db9e	-0.8783511
108	0xbe335f21	-0.17516758
109	0x3ffc1137	1.9692754
110	0xbf72aa5a	-0.94791186
111	0x401c113f	2.4385526
112	0x4112fad8	9.186241
113	0x4124d62b	10.302287
114	0x3fdb64ce	1.7140138
115	0x402df839	2.7182753
116	0x3f343f92	0.704095
117	0x411085a9	9.032632
118	0x408c7c12	4.3901453
119	0x41029f77	8.163932
120	0xbf7a2f75	-0.97728664
121	0x404039c5	3.003526
122	0xc00e8afe	-2.2272334
123	0xc0089ebf	-2.134689
124	0x4002d395	2.044164
125	0x3f80b86f	1.0056285
126	0x409a74cc	4.8267574
127	0xc051d79a	-3.2787843
128	0x40adf2c9	5.435887
129	0x3f82a7ea	1.0207493
130	0xbff70a3a	-1.9299996
131	0x40701f6f	3.7519186
132	0x3e94be0a	0.29051238
133	0x411bd4f8	9.739494
134	0xc036f3b1	-2.8586237
135	0x3f21b284	0.6316302
136	0x3d94f65a	0.0727355
137	0xc0a38b6f	-5.1107707
138	0x3e166f65	0.14690931
139	0xc04ced6b	-3.2019908
140	0x4057f0a3	3.3740623
141	0x3eafa1c8	0.34303117
142	0x3fafab98	1.3724241
143	0xc09c1a21	-4.8781896
144	0xbf96204f	-1.172861
145	0x409af43c	4.842314
146	0x41366faa	11.402262
147	0xc16dc930	-14.861618
148	0xbf276eac	-0.65403247
149	0x4113eff8	9.246086
150	0x404082d5	3.0079854
151	0xbf9bb520	-1.216465
152	0x404c672d	3.1937973
153	0xba3dc71e	-0.00072394486
154	0xbdf1b698	-0.11802405
155	0x3ca67e6b	0.020323953
156	0xbeb9e98c	-0.36310995
157	0xbf855c70	-1.0418835
158	0xbfead113	-1.8345054
159	0x4078253c	3.8772726
160	0xbd08a618	-0.033361524
161	0xc090bda3	-4.523149
162	0x40f49eec	7.6443996
163	0x41615d8b	14.085338
164	0xbf96a5b1	-1.1769315
165	0x40b830bf	5.7559505
166	0x403aede0	2.9207687
167	0x409e00fe	4.937621
168	0xc079e0ec	-3.9043531
169	0x3f007cca	0.50190413
170	0x40414e9d	3.0204232
171	0x408c2d30	4.380516
172	0xbf7cb931	-0.9872008
173	0xc07de64e	-3.9671817
174	0x4039304d	2.893573
175	0xbf8829e8	-1.0637789
176	0x401bc9be	2.4341884
177	0x413e373b	11.888484
178	0x419c12f9	19.509264
179	0x41219ff3	10.10155
180	0xbec797c4	-0.38982975
181	0x40983986	4.757022
182	0xc0a8b9f9	-5.2727017
183	0x3b63ee30	0.0034779422
184	0xc00f2c7c	-2.23709
185	0xc08420b5	-4.1289926
186	0xc08e1688	-4.4402504
187	0xc0632628	-3.5492039
188	0xbd0f46d6	-0.034979664
189	0xc047d4d8	-3.122366
190	0x405c0e93	3.4383895
191	0x40a145d2	5.039773
192	0xc102bfd4	-8.171833
193	0x40ce16c7	6.4402804
194	0x4021a140	2.525467
195	0xbeabc4b9	-0.33548525
196	0x3ed4ae56	0.41539258
197	0x400f4f85	2.2392285
198	0xbf1ca878	-0.6119456
199	0xbfc8962b	-1.5670828
200	0xbdb47211	-0.08810819
201	0x3f4d9c96	0.80317056
202	0x3ea6f9e4	0.32612526
203	0x3fe7b833	1.8103088
204	0xc0f87bea	-7.765126
205	0x3d80d129	0.06289894
206	0x409cef52	4.904214
207	0x4006a75b	2.1039646
208	0x3fe9808e	1.8242357
209	0xc039a916	-2.9009452
210	0xbf0c9ab0	-0.54923534
211	0xc0f6428f	-7.695625
212	0x3f03c8d0	0.5147829
213	0xbfeff902	-1.8747866
214	0x3fb8a60c	1.4425673
215	0x41172dfe	9.448729
216	0x3d7905b7	0.060796466
217	0x40a649ea	5.1965227
218	0x412b5346	10.70783
219	0xbd9f4479	-0.07776732
220	0x3f9f2b1b	1.243503
221	0xc0b30d38	-5.5953636
222	0x3f53ef1f	0.82786745
223	0xbfaaa3b9	-1.3331214
224	0xbec6fadd	-0.38863268
225	0xc0c34bd9	-6.1030087
226	0x3e941a99	0.28926542
227	0x40454a38	3.082655
228	0x3fadc058	1.3574324
229	0x3f7f0aa2	0.996256
230	0x40704b05	3.7545788
231	0x3ff58db7	1.9183873
232	0x40d421f8	6.6291466
233	0x4058aa4e	3.3853946
234	0x3f3ca444	0.7368815
235	0xbc8897ae	-0.016673889
236	0xc09c1b9f	-4.8783717
237	0xc0ef68f4	-7.4815617
238	0x3fb50667	1.4142579
239	0x3f8b23c9	1.0870296
240	0x41077cf9	8.468011
241	0x408e9ae7	4.456409
242	0x40cd9a0d	6.425055
243	0x4033d8ca	2.8101068
244	0x3ee312c1	0.44350246
245	0xc0699ed4	-3.650319
246	0xc101e6d8	-8.118858
247	0xc08da2d4	-4.4261265
248	0x408d8a16	4.423106
249	0x410abf9e	8.671782
250	0x409e22f2	4.941766
251	0x3fe904ea	1.8204625
252	0x3d15a102	0.036530502
253	0x3ffaf1b1	1.9605008
254	0xc087eeb9	-4.247891
255	0x412d795f	10.842132

representation.radial_transform.weights.2 f4 [6, 12, 16]
0	0xc0451f9b	-3.080054
1	0x3f3f8ec8	0.7482724
2	0x413ddd7e	11.866575
3	0x3f644f83	0.89183825
4	0x3e66e58f	0.22548507
5	0xbfa14b73	-1.260115
6	0x40a4a6ac	5.1453457
7	0x40b9fcd5	5.8121133
8	0x409c0baf	4.876426
9	0xc00dcb36	-2.215528
10	0x3d460e0c	0.04835324
11	0x3d46d3e2	0.04854191
12	0x4003ab3e	2.0573268
13	0x3f400af8	0.75016737
14	0x3d98792e	0.07444988
15	0x3d998fbb	0.074981175
16	0x4084434d	4.1332154
17	0x3fd65eb2	1.6747649
18	0xbff5089c	-1.9143252
19	0xc12681d9	-10.406701
20	0x3f481c91	0.7816859
21	0xc0049880	-2.0718079
22	0xc08b457b	-4.3522315
23	0x3fa6c249	1.3028041
24	0x3d4214f5	0.047383267
25	0x400e3622	2.222054
26	0x3f3a2061	0.72705656
27	0xbf1145bf	-0.5674705
28	0x3fa5cd47	1.2953271
29	0x3cdb9f97	0.026809497
30	0x3dccc434	0.0999836
31	0x3df5f2bd	0.12009189
32	0x41549bb3	13.2880125
33	0x3dd61bd6	0.10454528
34	0xc19e0dce	-19.75674
35	0xc148f4ab	-12.559733
36	0x3e91ede8	0.2850182
37	0xc09880a2	-4.7657022
38	0xc084b5df	-4.147201
39	0x40a7849b	5.234937
40	0x3cd7e4dd	0.026354248
41	0x3d8aeac7	0.067830615
42	0x3d65c389	0.05609468
43	0xbbc8964f	-0.006121434
44	0xbe172611	-0.14760615
45	0xbf617ffd	-0.8808592
46	0x3fdbcb23	1.7171367
47	0x3fa7f9d0	1.3123112
48	0xc131f648	-11.122627
49	0x40d8d633	6.7761474
50	0x3f1a8c2c	0.60370135
51	0x3d8c599e	0.068530306
52	0x3f9b3700	1.212616
53	0xc05673bc	-3.3508139
54	0xbfb42f2d	-1.4076897
55	0x3f4e5fd6	0.80614984
56	0x3d859c1a	0.06523915
57	0x3d9d3b8d	0.07677374
58	0xbef8452e	-0.4849028
59	0x3cbc0279	0.022950398
60	0x40121201	2.2823489
61	0xbf6c6b87	-0.92351574
62	0x3d191aea	0.037379183
63	0x4029ca98	2.6529903
64	0xc01fd879	-2.4975874
65	0x3e67d37e	0.22639272
66	0x40e4cd04	7.1500263
67	0xc131ccd4	-11.112507
68	0x4070563d	3.7552636
69	0x3fa5466c	1.2912116
70	0xc0a419b1	-5.128136
71	0xbf0ad079	-0.54224354
72	0x3e9f8d05	0.31162277
73	0x3ae77852	0.001765976
74	0xbc761245	-0.015019004
75	0xbf4e0b4d	-0.80485994
76	0x404fafa2	3.2450948
77	0xbea46779	-0.32110193
78	0x3e2d5f3b	0.16930859
79	0x404015ff	3.0013425
80	0xc0591021	-3.3916094
81	0x3e53532f	0.20637201
82	0xc11fbd58	-9.9837265
83	0x4141ceba	12.11297
84	0x3f1e7f89	0.61913353
85	0x411863ba	9.524347
86	0xc0a0acf2	-5.0211115
87	0x403d5428	2.9582615
88	0x40691436	3.6418586
89	0x3f979a26	1.1843917
90	0x3f03847b	0.51374024
91	0x3d3e19b6	0.04641124
92	0x3fd100e9	1.6328403
93	0x3e45ae97	0.19304882
94	0x3f127679	0.57212025
95	0xc016bd2a	-2.3552957
96	0x3fbe5da3	1.4872326
97	0xc0b5dc69	-5.6831555
98	0x3edd11e5	0.43177715
99	0x3eed488b	0.46344408
100	0x3f2d1690	0.6761255
101	0x3e96a678	0.2942388
102	0xc0bf3be9	-5.9760633
103	0x400f9014	2.2431688
104	0x405fe166	3.4981322
105	0x3a2e943d	0.00066596625
106	0xbd1eaaf8	-0.038737267
107	0x40364471	2.8479273
108	0x405e38cb	3.4722164
109	0x3d3b842b	0.045780342
110	0x3e89d7cf	0.2692246
111	0x3dabb0b5	0.083833136
112	0xc14f7736	-12.966604
113	0x40b9b448	5.803257
114	0xbdc91f98	-0.09820479
115	0xbc89cd79	-0.01682161
116	0x3f4f1f4f	0.8090715
117	0x3ffe3857	1.9860944
118	0xc09592d4	-4.6741734
119	0x3cdb8cc4	0.02680052
120	0x4099567b	4.7918067
121	0x3f3e6700	0.74375916
122	0xbfc1fffa	-1.5156243
123	0x3e36c6c9	0.17849268
124	0x3e89003d	0.26757994
125	0x3e17ef24	0.14837319
126	0x3ff6c11b	1.9277681
127	0x3db32495	0.08747212
128	0x3fa574fb	1.2926325
129	0xbb161da0	-0.0022905841
130	0x3f4f79f7	0.8104548
131	0x4136d491	11.426896
132	0x3f546423	0.82965297
133	0xbf841a33	-1.0320495
134	0xc09b31b2	-4.8498163
135	0xbe7d8f15	-0.24761613
136	0x3f811060	1.0083122
137	0x3fb4d3a4	1.4127088
138	0x3ca195b5	0.019724706
139	0x3c965ec3	0.018355733
140	0x3f8f14fe	1.1178281
141	0x3d871465	0.06595687
142	0x3cb6a292	0.022294316
143	0x3f98fc4e	1.1951997
144	0xc184d3f7	-16.603498
145	0x3f7edb59	0.9955345
146	0xc0d485d5	-6.641337
147	0x40e516ce	7.159034
148	0xbfb53708	-1.4157419
149	0xc0339496	-2.805944
150	0x40ce0ea6	6.439288
151	0xbf96a884	-1.1770177
152	0xbc9fecb6	-0.019522052
153	0xbf7c95ee	-0.98666275
154	0x408d5aec	4.417349
155	0x3c1f1c4f	0.009711339
156	0xbd8bf81e	-0.06834434
157	0x3fe4962c	1.7858329
158	0x3e027d4c	0.1274311
159	0xc003a2d1	-2.0568125
160	0x410ba933	8.728808
161	0x4142436d	12.141461
162	0xc1194ec7	-9.581733
163	0xbde5fc09	-0.112297125
164	0x3f364fb9	0.712154
165	0xc0549e98	-3.3221798
166	0x40e7015a	7.218915
167	0xc0820905	-4.063601
168	0xbe305f2a	-0.17223802
169	0x3ed28b4e	0.41121906
170	0xbf4af397	-0.7927794
171	0x3f2ce1e6	0.67532194
172	0x3f985d73	1.1903518
173	0x3d2c9de9	0.042142782
174	0xbe818857	-0.25299332
175	0x3e6a3b8a	0.22874275
176	0x4105b9f8	8.357903
177	0x40c5e6e7	6.1844363
178	0xbf9ef7bc	-1.2419353
179	0x3df680f0	0.120363116
180	0x3f1526b4	0.5826218
181	0xc028e766	-2.6391234
182	0xbfed54cd	-1.8541504
183	0x40b17218	5.5451775
184	0xbd9df142	-0.07712032
185	0x403151c9	2.7706168
186	0x3d4b3885	0.049614448
187	0xbf9d2609	-1.2277232
188	0x403c731f	2.9445264
189	0x3dde5bc5	0.108573474
190	0x3d6e5c0f	0.058193263
191	0xbf6526c3	-0.8951227
192	0x40b01c5b	5.5034614
193	0x3ee83611	0.4535375
194	0xbfab1b13	-1.3367637
195	0xc0b46ad8	-5.6380424
196	0x3eb0a107	0.34497854
197	0x404610ea	3.0947824
198	0xc0b33d14	-5.601206
199	0xc0929085	-4.5801415
200	0x40ba4d79	5.821957
201	0xbcb263ef	-0.021776168
202	0x3ec351d5	0.3814837
203	0x3e286d51	0.16447951
204	0x40c2776d	6.0770783
205	0xbef57849	-0.47943333
206	0x3dd9c2bb	0.10632845
207	0x3e3239f9	0.17404927
208	0xc017f157	-2.3741052
209	0xbf3e6923	-0.74379176
210	0x3f433dde	0.76266277
211	0xbf7a238e	-0.977105
212	0x3f2b6074	0.6694405
213	0x40b91799	5.7841306
214	0x40e4d4d8	7.150982
215	0xbf02938c	-0.5100639
216	0x3e770ced	0.24126025
217	0xbfb4165e	-1.4069326
218	0x3fc460cb	1.5342039
219	0xc081197f	-4.0343623
220	0xc0240100	-2.562561
221	0x3cb328ac	0.02186998
222	0x3ed6b413	0.4193426
223	0x3f127b4e	0.572194
224	0xc0582152	-3.3770337
225	0x3e3f3cf8	0.18675601
226	0x3ffe2fc1	1.9858323
227	0x40a2d1c4	5.088106
228	0xbd8f3114	-0.06991783
229	0x40b1fd32	5.5621576
230	0x40c9a9be	6.3019705
231	0xbf6b9d58	-0.9203696
232	0x3d92e35d	0.07172272
233	0x3e19e6b6	0.15029415
234	0x3ecc6fcd	0.39929047
235	0x3c7c1138	0.015384965
236	0x402bb2f8	2.6827984
237	0x3eeacbba	0.45858556
238	0xc02b19a3	-2.6734397
239	0xc05bf690	-3.436924
240	0x403b5fbf	2.9277189
241	0xc036cc8a	-2.856234
242	0x3ebcedcf	0.36900184
243	0x3e0fb5a5	0.14034136
244	0x3e1f8105	0.15576561
245	0x40d7d28a	6.7444506
246	0x3fb7094d	1.4299713
247	0x40449e96	3.0721793
248	0x3ecca13a	0.39966756
249	0x3e245fe0	0.16052198
250	0x40bbd152	5.869302
251	0x3d88e215	0.06683747
252	0xc0ba4edc	-5.8221264
253	0x40a31bb6	5.0971327
254	0x3d9a664a	0.07539041
255	0xc032f4e1	-2.7961962

output_modules.0.les.atomwise.outnet.0.linear.weight f4 [32, 576]
0	0x3fe6b867	1.8025025
1	0x3c3f00ea	0.011657933
2	0xbe24b69e	-0.16085288
3	0xbdc521bc	-0.09625575
4	0xbd9f6cdf	-0.077844374
5	0x3ec0dbee	0.37667793
6	0x3f78e645	0.97226363
7	0x3db2f0e5	0.08737353
8	0xbfa38489	-1.2774822
9	0x409389fd	4.6105943
10	0xbd907d2c	-0.07055125
11	0x3cd1cccf	0.025610356
12	0x3e1359f2	0.1438978
13	0x3c808030	0.015686125
14	0x3ce4fd31	0.027952762
15	0xbca45b04	-0.02006293
16	0x402930aa	2.6435952
17	0xbffbc0c9	-1.9668208
18	0xc12724f1	-10.446519
19	0xc076e2da	-3.857596
20	0x3c948e5d	0.01813429
21	0x404c84f7	3.1956155
22	0xbf7cedb1	-0.9880019
23	0xbeee6bb1	-0.46566537
24	0x3f27e847	0.655888
25	0x3f4e7adb	0.8065621
26	0xbfe2a425	-1.7706343
27	0xc022117e	-2.5323176
28	0xc0632f69	-3.5497687
29	0xbebfe937	-0.37482616
30	0x3f66902e	0.9006375
31	0x40be87bc	5.954069
32	0x40856737	4.1688495
33	0x3ef26b0e	0.473473
34	0x40b289eb	5.5793357
35	0xc0c8f61d	-6.280043
36	0xbe89ffe8	-0.26953053
37	0x41360e5b	11.378505
38	0xc03691b7	-2.8526437
39	0xc04aa26f	-3.1661642
40	0xc08ac42a	-4.336446
41	0x3ffaafd7	1.9584912
42	0xbf6552ab	-0.89579266
43	0x3d0ac57c	0.033879742
44	0xbe52f7eb	-0.20602386
45	0x3e8209dc	0.25398147
46	0x3e9d6285	0.30739227
47	0xbea906ef	-0.33013102
48	0x3cb924f8	0.022600636
49	0xbe977885	-0.29584137
50	0x3dacf3ab	0.084449135
51	0xbca1e5a5	-0.019762823
52	0xbe3f45a8	-0.18678916
53	0x3cf996fc	0.030467503
54	0xbfe83ab4	-1.8142915
55	0xbfecea59	-1.8509017
56	0x3c7547a0	0.01497069
57	0x3c795ea4	0.015220318
58	0xbd6d9118	-0.0579997
59	0x3caa3a65	0.020779798
60	0x3dbf4883	0.093400024
61	0xbe15d965	-0.1463371
62	0xbded6b3f	-0.11592721
63	0xbd274b99	-0.04084358
64	0xc081958c	-4.049505
65	0xbfd04181	-1.626999
66	0xc1141bda	-9.2568
67	0xc08449e6	-4.134021
68	0x3dd4b8cd	0.103868105
69	0xbf95dd05	-1.1708075
70	0xc05671ce	-3.350696
71	0x402e60d4	2.72466
72	0xbea106af	-0.31450412
73	0x3e26b4a1	0.16279842
74	0x4130228b	11.008433
75	0x3dbd258a	0.09235676
76	0xc04e2509	-3.2210104
77	0x4140bd67	12.046241
78	0xbf5402cc	-0.8281677
79	0x40d59832	6.6748285
80	0x3f5060c2	0.8139764
81	0xbef4bd70	-0.4780078
82	0x3fa927ee	1.321531
83	0xbf9e163d	-1.2350537
84	0xbef26a14	-0.47346556
85	0xbfac0cd5	-1.3441416
86	0xbfe5e889	-1.7961589
87	0xc0a2f222	-5.092057
88	0x3e07b635	0.132531
89	0xc0d9a227	-6.801044
90	0xc0b395f0	-5.612053
91	0x3ec2cc9d	0.38046733
92	0x40569d1c	3.3533392
93	0x3d3906f8	0.04517266
94	0x3f8ba6b4	1.0910249
95	0xbeccee6a	-0.40025645
96	0xbdd1aa30	-0.10237539
97	0xbd845c83	-0.06462958
98	0xbc67cec5	-0.014148419
99	0xbf3777bb	-0.7166707
100	0xbea7c012	-0.32763726
101	0x3dbe21ff	0.09283828
102	0xbfbfbbfa	-1.4979241
103	0xc02603c1	-2.5939791
104	0x3d512f7c	0.051070675
105	0xbd1e4d38	-0.03864786
106	0xb9d0f68c	-0.00039856543
107	0x3d39c7a6	0.045356415
108	0xbdbdbf15	-0.09264962
109	0xbdfc20fe	-0.1231098
110	0xbd573fcf	-0.052551087
111	0xbd4629d3	-0.04837973
112	0xbf517e77	-0.81833595
113	0x413ab1b1	11.668382
114	0x3f5333f8	0.82501173
115	0x3ef63828	0.4808972
116	0x3dcf32ba	0.10117097
117	0xbf8c1ed6	-1.094691
118	0xc04c713b	-3.194411
119	0x3fa796af	1.309286
120	0xbe3e57df	-0.18588208
121	0xbfaeaab8	-1.3645849
122	0xc0462054	-3.0957232
123	0xbe872654	-0.2639643
124	0xc052c921	-3.293526
125	0x3fdd3e80	1.7284698
126	0xbef8ae9a	-0.4857071
127	0x40f9a788	7.8017006
128	0xc021e198	-2.5293941
129	0x3ed7fa10	0.4218297
130	0xc071c83f	-3.777847
131	0x4053d7ea	3.3100533
132	0xbf158827	-0.58410877
133	0xc0b7dad5	-5.745463
134	0xc09e83d6	-4.9535933
135	0xc07b5de2	-3.9276052
136	0xbe8dcad5	-0.2769381
137	0x3e209e31	0.15685345
138	0x3e1f551c	0.1555981
139	0x3d201466	0.039081953
140	0xc021efee	-2.5302691
141	0x3f251757	0.6448874
142	0xbf09fb22	-0.53898823
143	0x3feb33b4	1.8375154
144	0xbdfa508b	-0.122223936
145	0xbe611cec	-0.21983689
146	0xbe6e09f9	-0.23245992
147	0xbdad0a66	-0.08449249
148	0x3f2582d3	0.64652747
149	0xbd024f66	-0.031814
150	0x3f0a3b7b	0.5399701
151	0x3d71efb0	0.059066474
152	0xbd880f6d	-0.06643567
153	0x3d011d5c	0.03152214
154	0x3cc30f77	0.023811085
155	0x3c162498	0.009163998
156	0xbcbfd538	-0.0234171
157	0xbec23c82	-0.3793679
158	0x3e4896e4	0.1958881
159	0x3d2888cd	0.04114609
160	0x402a3273	2.6593292
161	0xc12ff693	-10.997699
162	0xc0944ea1	-4.6345983
163	0xbf72f130	-0.9489927
164	0xbfa7b2da	-1.3101456
165	0xc002a3b4	-2.0412416
166	0x3fb8888c	1.4416671
167	0xc036a23f	-2.8536527
168	0xbfe6b6f7	-1.8024586
169	0x4123f474	10.247181
170	0x40aede63	5.464647
171	0x3fc93df9	1.5722038
172	0xbdcc5eb3	-0.09979
173	0xbf68643b	-0.9077794
174	0xc06fedd2	-3.7488904
175	0xc02dd5d9	-2.7161772
176	0xc05b0b5d	-3.4225686
177	0x409b18ec	4.846792
178	0x3e96b34a	0.29433662
179	0x3f14ab9a	0.58074343
180	0xbdd04a76	-0.10170452
181	0x40d815af	6.752647
182	0x411076d9	9.029016
183	0x400b026d	2.172023
184	0xbe738f2d	-0.23785086
185	0x3ec4a21d	0.38404933
186	0x40ae25a2	5.442094
187	0x3da8cad0	0.082418084
188	0xc0d33011	-6.5996175
189	0x418c3e98	17.530563
190	0xbf2e31d0	-0.6804476
191	0x4086f7cf	4.21775
192	0xbdd860d1	-0.10565341
193	0xbf866328	-1.049901
194	0xbe2ad2df	-0.16682003
195	0x3b507483	0.0031807728
196	0xbea41ea0	-0.32054615
197	0xbfdc1dc2	-1.7196581
198	0x3f48ddb9	0.7846332
199	0x3d05ccdb	0.03266607
200	0x3e187547	0.14888488
201	0xbd769ecf	-0.060210045
202	0xbdd4a3f0	-0.10382831
203	0xbc858256	-0.0162975
204	0xc0002c1a	-2.0026917
205	0xbe4ce1fa	-0.20008078
206	0xbd28fe94	-0.04125841
207	0xbd53060f	-0.05151945
208	0xbfbad26a	-1.4595463
209	0xc05e1b86	-3.47043
210	0xc00a73b8	-2.163313
211	0xbf18dcff	-0.59712213
212	0xbf4e4d5d	-0.80586797
213	0x40a49224	5.1428394
214	0xc0bea633	-5.957788
215	0xc0091c52	-2.1423535
216	0x3f1e5fb0	0.6186476
217	0xc0cfb372	-6.490655
218	0xc000f8f7	-2.0151956
219	0xc0a50d31	-5.1578603
220	0xbef91aef	-0.4865336
221	0x409c6297	4.887035
222	0xc0c2bc09	-6.0854535
223	0x411077f4	9.029285
224	0xc079487d	-3.8950493
225	0xbe9ac690	-0.30229616
226	0xc034d1bd	-2.8253014
227	0x408850ec	4.259878
228	0x3fa1be41	1.2636186
229	0x3eb6797d	0.35639563
230	0x406da612	3.7132611
231	0xbf0735b8	-0.52816343
232	0x3fd64c87	1.6742104
233	0x3ef4e5da	0.47831613
234	0x4156a935	13.41631
235	0xc0170e21	-2.3602374
236	0xbfe124c6	-1.7589347
237	0xc019c14d	-2.4024231
238	0x3f516aee	0.81803787
239	0x40c06bda	6.0131655
240	0x3c160c08	0.009158142
241	0xbe1b9384	-0.15192991
242	0xbe0034f4	-0.125202
243	0xbecd3c76	-0.4008519
244	0xbe6f44ee	-0.23366138
245	0xc07512b8	-3.8292675
246	0x3f1c4fc1	0.61059195
247	0x3d395708	0.045249015
248	0x3dfe38d9	0.124131866
249	0xbd40b24c	-0.047045037
250	0xbc0d1528	-0.008611001
251	0x3c41b9b4	0.01182406
252	0x3d99d935	0.07512132
253	0xbf963d38	-1.1737432
254	0x3e163f0a	0.14672485
255	0x3d778e59	0.060438488

output_modules.0.les.atomwise.outnet.0.linear.bias f4 [32]
0	0xbea8821e	-0.32911772
1	0xbe81367e	-0.25236887
2	0xbe577261	-0.21039726
3	0xbe509587	-0.2036954
4	0xbdde9813	-0.108688496
5	0xc050f2d2	-3.2648206
6	0xbfdf72b2	-1.7456877
7	0xbde3f075	-0.11129848
8	0xbe1d4a95	-0.15360482
9	0x3da0ead4	0.0785729
10	0xbd86e3df	-0.06586432
11	0xbf51fe93	-0.82029074
12	0xc01496b1	-2.3216975
13	0xbe4f1770	-0.20223784
14	0xbf9b7605	-1.2145392
15	0xbe9b1d7e	-0.30295938
16	0xbec8e4e7	-0.3923714
17	0x3eb24517	0.34818336
18	0xbedf8e8d	-0.43663445
19	0xbe0f9552	-0.14021805
20	0xbf9f24d4	-1.2433114
21	0xbea0477f	-0.31304547
22	0xbee37eff	-0.44432828
23	0xc00953c4	-2.1457376
24	0xbfb3c5ba	-1.4044716
25	0xc08c86bc	-4.391447
26	0xbf13b87e	-0.5770339
27	0xbf6d2ee8	-0.926497
28	0xbf6fe0a2	-0.9370214
29	0xbe24f139	-0.16107644
30	0xbe64dfd3	-0.22351007
31	0xbdd79f54	-0.10528436

output_modules.0.les.atomwise.outnet.1.linear.weight f4 [16, 32]
0	0x3c050630	0.008119151
1	0xbfb5a13b	-1.4189829
2	0x3fff6d9f	1.9955329
3	0xbf6707b2	-0.9024612
4	0x3dc2b161	0.095064886
5	0xc02680a1	-2.601601
6	0x3faed137	1.3657597
7	0xbe957b45	-0.2919561
8	0xbfe07caf	-1.753805
9	0xc001e6ab	-2.0297039
10	0xbd5bcc89	-0.053661857
11	0x3f59c242	0.8506204
12	0x3f7e0ae4	0.9923537
13	0xbf132cb5	-0.5749009
14	0xbfbca9fd	-1.4739376
15	0x3f2ee1fe	0.68313587
16	0xbf0777f5	-0.52917415
17	0xbf224789	-0.63390404
18	0x3fc5539b	1.5416139
19	0x3e19da38	0.1502465
20	0xbfcbbdd1	-1.5917302
21	0xbf9e846a	-1.238416
22	0x3da39866	0.07988052
23	0xbe1f3712	-0.15548351
24	0xbf53e83b	-0.8277623
25	0x405da53f	3.4632108
26	0xbf8eb3b2	-1.1148589
27	0x3f0920b8	0.5356555
28	0x3ffdf62a	1.9840748
29	0x3f945fad	1.1591698
30	0xbfa103f5	-1.2579333
31	0xbf000ca8	-0.5001931
32	0xbe1d074c	-0.15334815
33	0xbd89d1ef	-0.06729495
34	0x3c9af0a7	0.01891358
35	0xbecc6249	-0.39918736
36	0x3e42dd4f	0.19029735
37	0x3fb826c5	1.4386832
38	0x3f0f481a	0.55969393
39	0x3dcbcd07	0.09951215
40	0xbe0a7477	-0.1352099
41	0xbd89a780	-0.06721401
42	0xbd208984	-0.039193645
43	0xbe0bab0b	-0.13639466
44	0x40152236	2.330213
45	0x3cd3ac65	0.02583904
46	0x3e9bb4aa	0.30411273
47	0x3c1a0e32	0.0094027985
48	0x3e0b3058	0.1359266
49	0xbe3001cf	-0.1718819
50	0xbda91dd7	-0.082576446
51	0xbde614c0	-0.112344265
52	0xbdbf46a6	-0.09339647
53	0xbf927076	-1.144057
54	0xbd0f0fe2	-0.034927256
55	0xbf4d2752	-0.80138123
56	0x3ebc7d6e	0.36814445
57	0x407b03d1	3.922108
58	0x3e572001	0.21008302
59	0xbd954934	-0.07289353
60	0x3d3dca9a	0.046335794
61	0xbbcd3405	-0.0062623047
62	0x3e05b069	0.13055576
63	0xbe90b99a	-0.28266603
64	0xbddf9b07	-0.10918241
65	0xbd67958a	-0.056539096
66	0xbd253b1a	-0.040339567
67	0xbea4c2f2	-0.3217998
68	0x3b007999	0.0019603728
69	0x3fdffb67	1.7498597
70	0x3ed8c701	0.42339328
71	0x3dcaaa13	0.0989572
72	0xbd31b2a5	-0.04338326
73	0xbd7d3972	-0.061822362
74	0xbe118812	-0.14212063
75	0xbe1d1b4c	-0.15342444
76	0x40456dbe	3.0848231
77	0xbc37514d	-0.011188817
78	0x3e68c404	0.22731024
79	0xbd514b0c	-0.05109696
80	0x3dbbdba0	0.091727495
81	0xbdfc3681	-0.12315083
82	0xbdf83472	-0.12119378
83	0xbe654b70	-0.22392058
84	0xbe30ae28	-0.17253935
85	0xbfa846e7	-1.3146638
86	0xbda19aa1	-0.07890821
87	0xbf216233	-0.63040465
88	0x3f17e6c1	0.5933648
89	0x405eeb7b	3.4831226
90	0x3e588dc7	0.21147834
91	0xbd902bde	-0.07039617
92	0x3e173554	0.14766437
93	0x3c67717d	0.014126179
94	0x3e5765b9	0.21034898
95	0xbea2d2a2	-0.31801325
96	0xbe0a2583	-0.13490872
97	0xbd820e07	-0.06350332
98	0xbc56e0c6	-0.013115114
99	0xbebde8bd	-0.37091628
100	0x3d57277f	0.0525279
101	0x3fb762b2	1.4326994
102	0x3f0ab995	0.54189426
103	0x3db9c6b9	0.090711065
104	0xbdc84fc1	-0.09780837
105	0xbdc2f87e	-0.095200524
106	0xbe464a29	-0.19364227
107	0xbe1b1360	-0.1514411
108	0x4018e6cc	2.3890867
109	0xbb563532	-0.0032685515
110	0x3ea4a7b2	0.3215919
111	0xbd04bb3e	-0.03240513
112	0x3e0e11ec	0.13874024
113	0xbe35f8b7	-0.17770658
114	0xbe112c6d	-0.14177103
115	0xbd2e2a3c	-0.042520747
116	0xbdfe5163	-0.12417867
117	0xbf97c2e8	-1.1856356
118	0xbd3bb344	-0.045825258
119	0xbf431ef9	-0.76219136
120	0x3f001f08	0.5004735
121	0x4077cd73	3.8719146
122	0x3e5c9216	0.21540102
123	0xbd5ab2f3	-0.053393316
124	0x3d628ba9	0.05530897
125	0xbb59286d	-0.0033135668
126	0x3e0a6b33	0.13517456
127	0xbe9b483c	-0.30328548
128	0xbdeea3f0	-0.11652362
129	0xbd5849fe	-0.05280494
130	0xbc2f8287	-0.0107122725
131	0xbe9d2eee	-0.30699867
132	0xbd86c5cd	-0.06580696
133	0x3fda79a1	1.7068368
134	0x3e95f41c	0.29287803
135	0x3df4f27f	0.11960315
136	0xbca98c9d	-0.020696932
137	0xbd04afca	-0.032394208
138	0xbe040de8	-0.1289593
139	0xbe30783d	-0.17233367
140	0x40507cd5	3.2576191
141	0x3b5613c3	0.0032665587
142	0x3e3292fe	0.17438886
143	0xbcd57a06	-0.026059162
144	0x3d93807f	0.07202243
145	0xbdf3e42e	-0.11908756
146	0xbd64d293	-0.05586488
147	0xbe69d392	-0.22834614
148	0xbe11e8ed	-0.1424901
149	0xbfae3341	-1.3609391
150	0xbdcb9b81	-0.099417694
151	0xbf1eeb71	-0.62078005
152	0x3f0c11ef	0.54714864
153	0x4064a6d8	3.5726833
154	0x3e5c4462	0.21510461
155	0xbdbdf8dd	-0.092759825
156	0x3e2a0159	0.16602077
157	0x3ccee846	0.025257241
158	0x3e69cd2b	0.22832172
159	0xbea8c098	-0.32959437
160	0xbfe55f95	-1.7919794
161	0xbd56b07f	-0.052414414
162	0x3f3b3f9a	0.73143923
163	0x3fcc08df	1.5940207
164	0xbec64517	-0.38724586
165	0x40f02bd6	7.505351
166	0xbf85778a	-1.0427105
167	0xbf8c70b5	-1.0971895
168	0x3f2efd69	0.68355423
169	0xbeab09f4	-0.3340603
170	0xbe875249	-0.26429966
171	0x3f7e4060	0.9931698
172	0xbfd8a7b1	-1.6926175
173	0xbf2fdecb	-0.6869933
174	0x3ede1e4e	0.43382496
175	0xbdf9f8b4	-0.122056395
176	0x3f89bdcf	1.076105
177	0xbe51e431	-0.20497204
178	0xbff21f7b	-1.8915857
179	0x3c72c441	0.014817298
180	0x3fbe4bc6	1.4866874
181	0xbf8a4b6b	-1.0804266
182	0xc048f886	-3.1401687
183	0xbf40c6ef	-0.7530355
184	0x3fd0efe7	1.6323212
185	0xbf393cf5	-0.7235864
186	0xbf8cb5f9	-1.0993034
187	0xbec0b0c4	-0.3763486
188	0x3e3c1a36	0.18369374
189	0xbf67ca2a	-0.9054285
190	0xbfaf7d98	-1.3710203
191	0x3e680a44	0.22660166
192	0xbe111166	-0.14166793
193	0xbd8f791a	-0.0700552
194	0xbd23fbd2	-0.040035076
195	0xbeb00e0a	-0.3438571
196	0x3e157dbd	0.14598747
197	0x3fc4f934	1.5388551
198	0x3efe5849	0.4967673
199	0x3dce2b4d	0.10066853
200	0xbdc41604	-0.09574512
201	0xbd8bf60e	-0.068340406
202	0x3a8e71fb	0.0010867709
203	0xbe0699da	-0.13144627
204	0x4026b5c6	2.6048446
205	0x3bf16013	0.0073661893
206	0x3e985107	0.2974932
207	0x3b0ad374	0.0021183165
208	0x3dee6454	0.1164023
209	0xbe296722	-0.16543248
210	0xbe18e1ca	-0.14929882
211	0xbd526d66	-0.05137386
212	0xbe1fb8d4	-0.1559785
213	0xbf941dfa	-1.1571648
214	0xbd7b1c1e	-0.06130611
215	0xbf42789c	-0.75965285
216	0x3ed4c0fb	0.41553482
217	0x4071f970	3.7808495
218	0x3e56dd02	0.20982745
219	0xbd7020be	-0.058624975
220	0x3d92aa27	0.0716136
221	0x3bc3c718	0.0059746616
222	0x3e0a064d	0.13478966
223	0xbe8e11d1	-0.27747968
224	0xbd89f8f6	-0.06736939
225	0xbd51635f	-0.05112016
226	0xbcf34462	-0.029695693
227	0xbea84cc1	-0.3287106
228	0x3e377dea	0.17919126
229	0x3fdee988	1.7415018
230	0x3ee30bf6	0.44345063
231	0x3c393eaf	0.011306449
232	0xbd6eb5a2	-0.058278687
233	0xbd334956	-0.04377111
234	0xbe4938f6	-0.19650635
235	0xbe1b31e7	-0.15155755
236	0x4039a47a	2.9006639
237	0xbce210e5	-0.027595947
238	0x3e812761	0.25225356
239	0xbdb0babb	-0.08629366
240	0x3da4794d	0.08030949
241	0xbdf47f86	-0.11938386
242	0xbe7382b3	-0.23780327
243	0xbdd93b6d	-0.10607038
244	0xbe3873f2	-0.1801298
245	0xbf9e5e28	-1.2372484
246	0xbd897058	-0.06710881
247	0xbf28ba8d	-0.65909654
248	0x3ed2d87c	0.4118079
249	0x406987d2	3.6489148
250	0x3e511ed4	0.20421916
251	0xbc451533	-0.01202898
252	0x3e4bcdf3	0.19902782
253	0xbc6be99e	-0.01439896
254	0x3e51154f	0.20418285
255	0xbea42295	-0.32057634

output_modules.0.les.atomwise.outnet.1.linear.bias f4 [16]
0	0xbed88127	-0.42286035
1	0x3dcc2103	0.09967234
2	0x3dfd45f1	0.12366856
3	0x3dbcd799	0.092208095
4	0x3e0bbeb7	0.1364697
5	0xbfc8cf05	-1.5688177
6	0x3dc17b2f	0.094473235
7	0x3dc78dcd	0.09743843
8	0x3dceebdb	0.101035796
9	0x3dd0035f	0.10156893
10	0x3e00aa13	0.12564878
11	0xbf2a597b	-0.66542786
12	0x3dde88dc	0.108659476
13	0x3dfc812b	0.12329324
14	0x3dc1c516	0.09461419
15	0x3e1cdf65	0.15319593

output_modules.0.les.atomwise.outnet.2.linear.weight f4 [1, 16]
0	0xbe97e6f4	-0.2966839
1	0xbbc8b630	-0.006125234
2	0xbabc7ed8	-0.0014381064
3	0xbb72d184	-0.003705115
4	0xbaf87fbd	-0.0018958967
5	0x3f0a770a	0.5408789
6	0xbb9c8b6f	-0.004777364
7	0x39994405	0.00029233113
8	0xbb0defa3	-0.0021657727
9	0xb90f89aa	-0.00013688827
10	0xb924f1c9	-0.00015730331
11	0xbee0022b	-0.43751654
12	0xbc6ea177	-0.014564863
13	0xb9d619ed	-0.00040836577
14	0x382a3927	4.0584386e-05
15	0xbba9691e	-0.0051700016

output_modules.0.les.atomwise.linear_nn.linear.weight f4 [1, 576]
0	0x3dfa2058	0.122132
1	0xbc3ce039	-0.011528068
2	0xba4cc5e8	-0.0007811473
3	0xbb3da52d	-0.0028937564
4	0xbb5f9364	-0.0034114951
5	0xbe2c9616	-0.16854128
6	0x3e133125	0.14374216
7	0xbb5e09c2	-0.0033880328
8	0xbdfbb4c8	-0.12290341
9	0xc00f84a4	-2.2424707
10	0x3b05e4a7	0.0020430477
11	0x3abcffcf	0.0014419499
12	0x3b3f00b2	0.0029144702
13	0xbabffad9	-0.0014646902
14	0xbb1ef9fa	-0.0024257884
15	0xbcf07a6f	-0.029355256
16	0x3f941a71	1.1570569
17	0x3d3044a5	0.043034215
18	0x3f1aa3f5	0.6040643
19	0xbdc595b0	-0.09647691
20	0xbb8f2f14	-0.004369626
21	0x3f60f9f7	0.87881416
22	0xc08c5ecb	-4.3865714
23	0xbddc2fb2	-0.10751285
24	0x3d8d4807	0.06898504
25	0x3e32da96	0.17466196
26	0xbfc84934	-1.564734
27	0xc04c48cb	-3.191943
28	0x401a6908	2.4126606
29	0xbcd4c6cc	-0.0259737
30	0xc011ef56	-2.280233
31	0xc0318189	-2.7735312
32	0x3fc4efad	1.5385643
33	0x3c0a1f1f	0.008430271
34	0xbf005286	-0.5012592
35	0x3efe4fdd	0.49670306
36	0xb98a4607	-0.00026373586
37	0xbfbf5443	-1.494759
38	0x3f509ec3	0.8149225
39	0xbe97b523	-0.29630384
40	0x3edc104d	0.42981187
41	0xbd0a18f1	-0.033715192
42	0xbcb6c915	-0.02231268
43	0xbbe13712	-0.00687302
44	0x3ec76342	0.38942915
45	0xbfacb391	-1.3492299
46	0x3dc31424	0.09525326
47	0x3e4d2259	0.20032634
48	0x3c69dc1c	0.01427367
49	0xbcea7400	-0.028619766
50	0xb953e4b7	-0.00020207731
51	0xbbfb9952	-0.0076781893
52	0xbd538fda	-0.05165086
53	0xba73737d	-0.00092869235
54	0xbe968235	-0.29396215
55	0x3ebf1c28	0.3732617
56	0x3c8be41f	0.01707655
57	0xba9db204	-0.0012031202
58	0xbbd9824a	-0.006637846
59	0x3a5ceae6	0.00084273366
60	0xbc109ba7	-0.008826173
61	0xbc55a187	-0.013038999
62	0xbbed7c86	-0.0072475104
63	0x3c27d83f	0.010244428
64	0xbfab1839	-1.3366767
65	0x3ee6b021	0.4505625
66	0x3fa5a59d	1.2941166
67	0x3f47e5bf	0.7808494
68	0x3d34936d	0.04408591
69	0x400b576b	2.1772106
70	0xc0299cb9	-2.6501906
71	0xc01660fb	-2.3496692
72	0x3de9c7ff	0.11415099
73	0xbf908aa0	-1.1292305
74	0x408e2a54	4.442667
75	0xbbbfc62b	-0.005852481
76	0xbf058691	-0.5215846
77	0xbfa7eb4d	-1.3118683
78	0xbddb652c	-0.107126564
79	0xbfce3ce7	-1.6112336
80	0x3efd2fe7	0.4945061
81	0x3cacf6ad	0.021113718
82	0x3ea00eaf	0.31261203
83	0x3e80a299	0.25124052
84	0xbe514079	-0.2043475
85	0xbf4080c1	-0.7519646
86	0x3f2e2baf	0.68035406
87	0xbfb5a17d	-1.4189907
88	0x3dd4adeb	0.10384735
89	0xbe4b18ad	-0.19833632
90	0xbe0431b6	-0.12909588
91	0x3f77d2d8	0.968061
92	0xc0055634	-2.0833864
93	0x3cc20f03	0.023688799
94	0x3da630b3	0.081147574
95	0xbd7d67ab	-0.061866444
96	0xbde46c7b	-0.111535035
97	0x3b8e64ee	0.004345528
98	0x3be9115b	0.0071126646
99	0xbcb62cb6	-0.022238117
100	0x3d224f5c	0.039626464
101	0x3c6ebc71	0.014571295
102	0xbe1aabcc	-0.15104598
103	0x3f045a16	0.5169996
104	0xbc0b0eb4	-0.008487392
105	0xbb8cc88c	-0.004296368
106	0xbb084067	-0.002079034
107	0xbac1ae57	-0.0014776689
108	0xbc3deb5b	-0.011591758
109	0xbce3db00	-0.027814388
110	0xbb0205e2	-0.0019839932
111	0xba421b1b	-0.0007404552
112	0xbbe4ca00	-0.006982088
113	0x3ecb2a00	0.3968048
114	0xbde7d77e	-0.11320399
115	0xbc9ee8c4	-0.0193981
116	0xbe250688	-0.16115773
117	0xbd9d2e87	-0.0767489
118	0xbf3ce96e	-0.73793685
119	0xc0028002	-2.039063
120	0xc004d439	-2.075453
121	0x3ff4edfd	1.9135128
122	0x3f5640fe	0.8369292
123	0xbc0ea767	-0.008706904
124	0xc085c482	-4.180238
125	0xbfe4aaab	-1.7864584
126	0xbf98c969	-1.1936466
127	0xc010a122	-2.2598348
128	0xbcc64c3c	-0.024206273
129	0x3b8c5297	0.0042823064
130	0x3f353ef2	0.7079917
131	0xbdd64e1a	-0.104641154
132	0xbd465cc9	-0.04842833
133	0xbefd252f	-0.4944243
134	0x3f290eeb	0.6603839
135	0xbedfa329	-0.4367917
136	0xbdc559a3	-0.096362375
137	0x3bb2afc8	0.0054530837
138	0xbd89a138	-0.06720203
139	0x3d1dc2f0	0.038515985
140	0xbf8af953	-1.0857338
141	0xbe6b43e8	-0.22975123
142	0x3d57fb38	0.052729815
143	0xbf26c5ae	-0.65145385
144	0x3be4d0b1	0.0069828858
145	0x3c0f30b2	0.008739637
146	0x3b5a7415	0.003333335
147	0x3c5ea780	0.01358974
148	0x3ec60b81	0.38680652
149	0x3aec5f6a	0.0018033807
150	0x3f1a3542	0.60237515
151	0xbbe3a7e4	-0.0069475044
152	0x3c21c028	0.009872474
153	0x3b016e0f	0.0019749438
154	0x3b32e524	0.0027297223
155	0x39a97e42	0.0003232826
156	0xbc4837d0	-0.012220338
157	0xbfb244c5	-1.3927237
158	0x3c11b55c	0.008893337
159	0xbbe9bfff	-0.0071334834
160	0x4011705a	2.2724824
161	0xbfaaad2f	-1.3334101
162	0x3ec7c929	0.3902066
163	0x3f5c5e97	0.8608183
164	0xbf729ad8	-0.9476752
165	0xbee72507	-0.45145437
166	0xbf7b7951	-0.9823199
167	0xc06668b6	-3.600141
168	0x3f9f4126	1.2441757
169	0xc09f4ce4	-4.978136
170	0x402a4098	2.6601925
171	0xbf52f89a	-0.82410586
172	0x3c9053f8	0.017618164
173	0xbffc5fb6	-1.9716709
174	0x3f4bbe8b	0.7958762
175	0x3f650fd7	0.89477295
176	0xbe98c4c3	-0.29837617
177	0xbf45703a	-0.7712437
178	0x3c2f8d74	0.010714877
179	0xbd3d4033	-0.046203803
180	0xbe836342	-0.25661665
181	0xbf3e36f7	-0.7430262
182	0x3fb3fd3b	1.4061655
183	0x3f387da2	0.720667
184	0x3d141bc1	0.03615928
185	0xbcd3dbb2	-0.025861595
186	0x3f9421b2	1.1572783
187	0x3bfa0fe1	0.0076312874
188	0x3f075013	0.5285656
189	0xbeb2589b	-0.34833226
190	0x3d0a0277	0.033693757
191	0x3f2c94cc	0.67414546
192	0x3bcbeeaf	0.0062235217
193	0xbdb537a3	-0.088485025
194	0xba985bd2	-0.0011624044
195	0xbc622fb3	-0.013805318
196	0x3e0434c2	0.1291075
197	0x3ea17f3a	0.3154238
198	0x3d1d7293	0.038439345
199	0x3a0320e1	0.0005002153
200	0x3bdd058b	0.0067450455
201	0xbb546fe6	-0.003241533
202	0x3b92aa15	0.0044758418
203	0x3a623082	0.0008628444
204	0xbf485410	-0.7825327
205	0xbc7c441a	-0.015397096
206	0xbbaf30a8	-0.0053463764
207	0xbb24c4a6	-0.0025141626
208	0xbe8678f3	-0.26264152
209	0x3f0ac315	0.5420392
210	0xbf6cc49b	-0.92487496
211	0x3f3e91eb	0.74441403
212	0x3e140143	0.14453606
213	0xbf51151e	-0.8167285
214	0xbf1f03b0	-0.62115
215	0xbcef70f6	-0.029228669
216	0x3fae3edf	1.3612937
217	0xc018a0ae	-2.384807
218	0xbf92343e	-1.1422193
219	0xbfe877d9	-1.8161575
220	0xbdb864b6	-0.09003584
221	0x3d8157e1	0.0631559
222	0xc00fc9e4	-2.2466974
223	0x3f1c7df9	0.6112972
224	0xbff91ca5	-1.9461867
225	0xbd1072d2	-0.03526575
226	0x3e63561f	0.22200821
227	0x3df63e32	0.120235816
228	0xbe95cb24	-0.29256546
229	0xbeae9dfc	-0.34104908
230	0x3ec87b93	0.3915678
231	0x3f58d533	0.84700316
232	0x3e20235f	0.15638493
233	0xbc5d313e	-0.01350051
234	0x4009a24f	2.1505315
235	0x3cb3408f	0.02188137
236	0x40386d4d	2.8816712
237	0xbf21aa02	-0.63150036
238	0x3e519c3e	0.20469758
239	0xbe6df784	-0.23238951
240	0x3b74f2bb	0.0037376124
241	0xbbd405bf	-0.0064704116
242	0x3b956933	0.00455966
243	0x3f2dbb75	0.6786416
244	0xbd4e09f0	-0.050302446
245	0x3f4e2789	0.80529076
246	0x3d29fd52	0.04150135
247	0xbb0b72d0	-0.002127815
248	0xbab57b33	-0.001384592
249	0x3b0a7da1	0.002113201
250	0x3b8ed640	0.0043590367
251	0x390243bc	0.00012422999
252	0x3bf97003	0.00761223
253	0x3ee8a423	0.45437726
254	0x3c993429	0.01870163
255	0x3b1a1fb0	0.0023517422

output_modules.1.outnet.0.linear.weight f4 [32, 576]
0	0xbf2a0aeb	-0.6642291
1	0xbd6a7b85	-0.057246704
2	0xbdeabc3d	-0.11461685
3	0x3d6b646e	0.057468824
4	0x404dfefd	3.2186882
5	0x3e80228e	0.25026363
6	0xbf1d8f0f	-0.61546415
7	0x3f340997	0.7032713
8	0xbece99bc	-0.40351665
9	0x3ee73097	0.4515426
10	0x3d9252ec	0.07144722
11	0x3c52e168	0.012871124
12	0xbf4bf6dc	-0.7967355
13	0xbe8c10b5	-0.27356496
14	0x3e3e3b7c	0.18577379
15	0xbecfcc79	-0.40585688
16	0xc0922bc1	-4.567841
17	0xbf3f291a	-0.7467209
18	0x3f491248	0.7854352
19	0xbf191f0c	-0.59813
20	0xc05304ca	-3.2971673
21	0x3f18d8f6	0.59706056
22	0xbf85f747	-1.0466088
23	0xbf253a6c	-0.6454227
24	0xbed217d4	-0.41033804
25	0x3fbe40a5	1.4863478
26	0x3f3a7b65	0.72844535
27	0x3ea109e3	0.31452855
28	0xbe08b025	-0.13348444
29	0x3f93546a	1.1510136
30	0xbc8066b5	-0.015673975
31	0x3f505b9a	0.8138977
32	0xc05837fb	-3.3784168
33	0xbf162903	-0.5865633
34	0x3efce673	0.4939457
35	0x3e8bfc7d	0.2734107
36	0xbf84846b	-1.0352911
37	0xbe395aa5	-0.18100984
38	0x3f3ccc8c	0.73749614
39	0xbf2a3993	-0.664941
40	0x3f2be5b4	0.67147374
41	0xbe7696e6	-0.24081
42	0x3bc8f4c7	0.0061326954
43	0x3f1c74f2	0.61115944
44	0x3f8941ec	1.0723243
45	0x3d48454b	0.048894208
46	0x3f67242a	0.90289557
47	0xbea097cc	-0.31365812
48	0xbf4cb92b	-0.79970044
49	0xbe587cb8	-0.21141326
50	0x3e0bdce1	0.13658477
51	0xbe0d31a3	-0.13788466
52	0x3fe29762	1.7702448
53	0xbf0f2628	-0.55917597
54	0x3f494a84	0.78629327
55	0xbf81649a	-1.0108826
56	0xbf28621e	-0.65774715
57	0xbd91a6f5	-0.07111923
58	0x3bc6a17e	0.006061732
59	0x3e114321	0.14185764
60	0x3f54b527	0.83088917
61	0x3e4b6dc8	0.19866097
62	0xbd3e106a	-0.046402372
63	0xbd8c4b96	-0.068503544
64	0xbe11204f	-0.14172481
65	0xbf4b1845	-0.7933391
66	0x3fae0eeb	1.3598303
67	0x3e802649	0.2502921
68	0x3fc60e2a	1.5473073
69	0xbf1094cc	-0.56477046
70	0x3eaf0355	0.3418223
71	0x3eb80532	0.35941464
72	0xc086e734	-4.215723
73	0xbfa1559e	-1.2604253
74	0xbe32fd61	-0.17479469
75	0xbdfedd9a	-0.12444611
76	0xc0a3706e	-5.1074743
77	0xbf582074	-0.8442452
78	0xbd20d53f	-0.039265867
79	0xbe0f25d0	-0.13979268
80	0x4000f418	2.0148983
81	0xbe94f776	-0.29095048
82	0xbdc778fb	-0.09739872
83	0xbce3ab9a	-0.027791787
84	0xc00b9d41	-2.181473
85	0xbff7ca23	-1.9358562
86	0x3fb70790	1.4299183
87	0xbf9e37fa	-1.2360833
88	0x3ef34f36	0.4752137
89	0xba7edb8e	-0.0009722047
90	0x3e9c78a7	0.305608
91	0x3eddb465	0.43301693
92	0xc083d925	-4.120257
93	0x3f41c842	0.75696194
94	0x3f3e60b2	0.74366295
95	0x3eeb888c	0.46002614
96	0xbe812927	-0.2522671
97	0x3da8c7bd	0.08241222
98	0x3e13c22a	0.14429536
99	0xbe99156f	-0.29899165
100	0x4009e6f1	2.1547205
101	0xbed995ff	-0.4249725
102	0x3e395fc7	0.18102942
103	0x3e51fafc	0.20505899
104	0xbf87de79	-1.0614768
105	0x3e34724a	0.17621723
106	0xbd046045	-0.032318372
107	0x3e2518fb	0.1612281
108	0x3c1f3f42	0.009719672
109	0xbd6dddd9	-0.0580729
110	0x3de7565c	0.112957686
111	0xba1bee64	-0.0005948304
112	0xc0909595	-4.5182595
113	0xbddd3bc9	-0.10802419
114	0x3ee080db	0.4384831
115	0x3e9664d1	0.29373792
116	0xbf8c59d8	-1.0964918
117	0x3f54152e	0.8284482
118	0xbf79d915	-0.97596866
119	0x3cb871c7	0.02251519
120	0xc14df291	-12.87172
121	0x3f03fb3b	0.5155522
122	0x3d4d2024	0.05007948
123	0xbeddb305	-0.43300644
124	0xc08abb1a	-4.3353395
125	0xbdc345fc	-0.09534833
126	0x3faf04f8	1.3673391
127	0x3f56e91c	0.83949447
128	0xbfd341d9	-1.650447
129	0xbe45ca32	-0.19315413
130	0xbf09ef88	-0.5388112
131	0xbe33b624	-0.1754995
132	0xc01eeb31	-2.483105
133	0x3fc0c45e	1.5059927
134	0xbedf9774	-0.43670237
135	0xbf309510	-0.6897745
136	0x3f0fb820	0.5614033
137	0xbe40b121	-0.1881757
138	0x3eead410	0.45864916
139	0x3cebdb55	0.02879111
140	0xc008b802	-2.136231
141	0x3f31adfa	0.6940609
142	0xbdcf0b6e	-0.10109602
143	0x3f962908	1.1731272
144	0x3deeb7ef	0.11656176
145	0xbe2ec7a1	-0.1706834
146	0x3d66a85d	0.056312907
147	0x3e50f721	0.20406772
148	0xbdf720a6	-0.12066774
149	0xbe6a1824	-0.22860771
150	0x3f8634dc	1.0484881
151	0xbe869da8	-0.26292157
152	0x3f836f1e	1.0268285
153	0xbded92e2	-0.11600281
154	0x3ecf23f8	0.4045713
155	0xbe6f54ca	-0.23372188
156	0xbf5c0249	-0.85940987
157	0xbeaef436	-0.34170693
158	0xbdb19d32	-0.08672561
159	0xbd561922	-0.052270062
160	0xc07cbf7b	-3.949187
161	0x3f09e453	0.5386402
162	0xbe586d13	-0.21135359
163	0xbe3e2b4b	-0.18571202
164	0xbffa9e4a	-1.9579556
165	0xbd546214	-0.051851347
166	0xbde589c3	-0.112079166
167	0xbece9f28	-0.40355802
168	0xbfaea37b	-1.364364
169	0xbedec3db	-0.435088
170	0xbe2b936c	-0.16755456
171	0xbe97cd1e	-0.2964868
172	0x3d85e702	0.06538202
173	0xbebb41c5	-0.36573616
174	0xbe9d9757	-0.30779526
175	0x3e1fb4e7	0.15596353
176	0xc01c6cf7	-2.4441507
177	0xbd8e9148	-0.06961304
178	0xbf73064e	-0.94931495
179	0xbf9415b6	-1.1569126
180	0xbfb1975a	-1.3874314
181	0x3fdc5ff8	1.7216787
182	0xbe7e7a82	-0.2485142
183	0xbfd8a2b0	-1.6924648
184	0xbff9d0f8	-1.9516897
185	0xbd97a469	-0.074044056
186	0xbe87e83f	-0.26544377
187	0x3ebaf929	0.3651822
188	0x3e1e5283	0.15461163
189	0xbc8415db	-0.016123703
190	0xbf58b35c	-0.8464868
191	0x3b0bb1c6	0.0021315678
192	0x3ea716a7	0.3263447
193	0x3e3e9ea4	0.18615204
194	0x3ccecc75	0.025243977
195	0x3e7c0f83	0.24615292
196	0x3f3afa85	0.7303851
197	0x3f22f2fd	0.6365202
198	0xbf55c149	-0.83498055
199	0xbeee9e7c	-0.4660529
200	0xbc01229b	-0.007881786
201	0xbde077b5	-0.10960332
202	0x3e6e621b	0.23279612
203	0xbd9e2c7c	-0.077233285
204	0x3fe70c4d	1.8050629
205	0x3eb41118	0.35169291
206	0x3d039d97	0.03213271
207	0xbd60792f	-0.05480307
208	0x3e7f0403	0.24903874
209	0x3f149f00	0.58055115
210	0xbe212850	-0.15738034
211	0x3cd60495	0.026125232
212	0x3fac4dc7	1.3461236
213	0x3ea1e77b	0.31621918
214	0x3f267c9b	0.6503388
215	0x3ee47812	0.44622856
216	0xc02e7aef	-2.7262533
217	0x3f0083cb	0.502011
218	0x3f0d7bad	0.5526684
219	0xbe15c2ea	-0.14625135
220	0xbff4c757	-1.9123334
221	0x3b0ce35d	0.0021497824
222	0xbebe1b3d	-0.37130156
223	0x3e1677cd	0.14694138
224	0xc114c4db	-9.29806
225	0xbea93bdc	-0.33053482
226	0x3f15831d	0.5840319
227	0x3c209d37	0.009803108
228	0xc0a10f0b	-5.0330863
229	0xbd31a0d1	-0.043366257
230	0x3f75004f	0.95703596
231	0x3f8680a4	1.0508008
232	0xc0aeb0ec	-5.459097
233	0xbffe2dcf	-1.985773
234	0x3e909f11	0.28246358
235	0x3ea560f2	0.32300526
236	0x40124059	2.2851775
237	0xbf5c1084	-0.859627
238	0x3f9b491f	1.213169
239	0xbfa87ca6	-1.316304
240	0x3e7d0402	0.2470856
241	0x3cc0300c	0.02346041
242	0xbcf3d85b	-0.029766252
243	0xbd9da7d1	-0.07698024
244	0x3fde5575	1.736983
245	0x3f464200	0.7744446
246	0xbe247adb	-0.1606249
247	0x3e5b0ac5	0.21390827
248	0xbfab0b8f	-1.3362902
249	0x3e93ad75	0.28843275
250	0xbe87e970	-0.26545286
251	0xbcfd58b3	-0.030926084
252	0xbed2e2f8	-0.41188788
253	0x3ea10224	0.31446946
254	0xbe3c27e6	-0.18374595
255	0x3ca2b2e5	0.019860694

output_modules.1.outnet.0.linear.bias f4 [32]
0	0xbd9ec356	-0.07752101
1	0xc04c7dad	-3.1951706
2	0xbea3c3db	-0.31985363
3	0xc0571569	-3.3606818
4	0xbf4805b2	-0.7813369
5	0xc079d61b	-3.903693
6	0xbe3b2d0c	-0.18278903
7	0xc0484416	-3.1291556
8	0xbf6b933e	-0.9202155
9	0xbf383097	-0.7194914
10	0xc08790b5	-4.2364144
11	0xc07e4212	-3.9727826
12	0x3dd69d05	0.10479168
13	0xbf673e45	-0.9032939
14	0xbd4deaf1	-0.050272886
15	0xbe4d626c	-0.20057076
16	0xbd424376	-0.047427617
17	0xbf8e6305	-1.1123968
18	0xc05ed3f7	-3.4816873
19	0xc08cd9d2	-4.4015894
20	0xc0950780	-4.6571655
21	0xbf800833	-1.0002502
22	0xc00b6548	-2.1780567
23	0xbdfbac26	-0.12288694
24	0xbf52da58	-0.82364416
25	0xbf6f6d28	-0.93525934
26	0xc0165cc7	-2.3494127
27	0xc05f8aab	-3.4928386
28	0x3bdca3d3	0.0067333966
29	0xbef4cebc	-0.47813976
30	0xbdadcf6e	-0.0848683
31	0xc08a3f38	-4.320217
