MLIPs/NequIP-LES/Au-MgO-Al/nequip-r-4-nl-2-l-1/best.ckpt (torch, 996790 bytes, 83 tensors)

model.sole_model.model.func.edge_norm._rmax_recip f8 []
000000 00 00 00 00 00 00 d0 3f
       0.25

model.sole_model.model.func.bessel_encode.bessel_weights f8 [1, 8]
000000 3d b7 fe 67 28 85 e5 3f d7 2b df 67 d5 52 04 40
       0.6725046187545797 2.5404461016637288
000010 93 67 9d a4 cb 95 08 40 fc 8a a6 fb df 5b 11 40
       3.0731423244987552 4.339721614875767
000020 be a0 9e 99 95 05 15 40 d1 f7 5f e3 5f 60 1c 40
       5.2554534915036 7.0941157843899
000030 61 5d de f6 4c 6b 20 40 20 4d 1b 8b 40 fd 21 40
       8.209571566242348 8.994633051951098

model.sole_model.model.func.type_embed.embed_module.weight f4 [4, 32]
000000 e2 e0 bf 3f 49 62 a4 3b bc 5f 0d c0 0c f3 34 40
       1.4990504 0.0050165993 -2.2089682 2.8273344
000010 54 6d 18 3b ac b2 46 40 ea fa f7 bf 82 ac 43 3a
       0.0023258524 3.1046553 -1.9373448 0.00074643653
000020 07 90 33 3e 1b 14 6a bb 9a 69 04 c0 37 f3 16 c0
       0.17535411 -0.003571755 -2.0689454 -2.3585947
000030 52 d5 4b 3c 8f bd a3 3f 12 b9 63 40 d7 d2 b5 3b
       0.012440996 1.2792224 3.5581708 0.0055488157
000040 06 d3 ef bf ac be ac bf 67 ec 1d bc eb 3d 87 bf
       -1.8736274 -1.3495688 -0.009638882 -1.0565771
000050 45 fa 13 39 a7 a9 37 40 ce 46 26 3c 36 74 52 3e
       0.00014112245 2.8697298 0.010148717 0.20552143
000060 f9 94 00 3c 3e c5 40 3b e9 28 87 3d 65 b0 a0 3b
       0.007848018 0.002941444 0.065996 0.0049038404
000070 54 8a 62 be ac 3f f2 3b 0b 3d 0d 3b 21 7c db bf
       -0.2212308 0.007392844 0.0021551277 -1.7147256
000080 58 c5 89 be 43 87 f3 3b c9 50 ae 3c 27 99 88 3d
       -0.26908374 0.007431896 0.021278756 0.066698365
000090 59 61 8e ba 0a 67 96 3d 7f aa c1 3e 02 cc 95 ba
       -0.0010862752 0.07343872 0.3782539 -0.0011428597
0000a0 91 19 24 40 fd 7d 6c bc 76 a7 4b 3a 23 19 21 bc
       2.5640604 -0.014434335 0.0007768789 -0.009832653
0000b0 00 39 85 3b 7a 8d 6b 3b 3d 54 e1 3c d0 d4 85 bb
       0.004065633 0.003594248 0.027505988 -0.004084207
0000c0 28 44 0b 38 85 d5 a3 bc 30 e9 26 3c 64 10 b7 bf
       3.3203658e-05 -0.019999275 0.010187432 -1.4301877
0000d0 29 e6 23 3b 6d de 3a 3f d3 b7 1d 3b 1b 69 c6 3d
       0.0025009012 0.72995645 0.0024065867 0.09688016
0000e0 3f 45 71 bc 97 98 eb ba fb 77 7f 3b bd 66 f2 3b
       -0.014725982 -0.0017974552 0.0038981426 0.0073975013
0000f0 e5 72 e9 bf 60 88 0d 3c 91 03 8f ba 33 26 a5 3a
       -1.8238188 0.008638471 -0.0010911097 0.0012599885
000100 47 89 3a c0 91 7d f9 bf c5 2a c3 c0 c9 8d 88 40
       -2.9146287 -1.9491445 -6.098971 4.2673078
000110 24 92 0a c0 ed 60 a3 40 17 1d b5 c0 5e 75 9e 40
       -2.1651697 5.1055818 -5.659801 4.951827
000120 3e e1 dd c0 1a a4 a6 c0 f4 2e a3 c0 b8 eb 4a c0
       -6.9337454 -5.207532 -5.0994816 -3.1706371
000130 7e c7 b2 3b 72 85 8e 40 1b 75 d7 c0 70 8d 0a bb
       0.00545591 4.4537897 -6.733045 -0.0021141432
000140 de 24 b3 c0 ad 08 a4 c0 59 b3 93 40 d1 e4 be 40
       -5.5982504 -5.126059 4.615643 5.9654317
000150 0d 5b a7 40 2e 72 27 c0 a8 d9 1d c0 59 6b 1b 3e
       5.2298646 -2.616344 -2.4664097 0.15177669
000160 ad 38 86 c0 7f e9 43 c0 67 1a 81 40 ed cf d3 40
       -4.1944184 -3.0611265 4.034473 6.6191316
000170 9b 36 96 40 88 a3 e4 bf fd 3e cb 3c 20 79 6a 40
       4.6941657 -1.7862406 0.024810309 3.663643
000180 d8 86 67 3e d8 c5 4e bc b8 45 37 3d d8 93 b7 bf
       0.22610033 -0.012620412 0.044744223 -1.4341993
000190 f3 10 9e bc e2 07 0d c0 e7 f0 84 bf f5 d1 e2 b8
       -0.019295191 -2.2036061 -1.0386018 -0.00010815627
0001a0 2b 40 e6 bc 80 1c 1a bb 9d 64 4e 3b bd a3 80 be
       -0.02810677 -0.0023515522 0.0031493076 -0.25124922
0001b0 7d 05 50 3d 75 cd 82 bd 84 a7 13 3f ce 34 43 bc
       0.050786484 -0.06386844 0.57677484 -0.011914445
0001c0 23 9d e6 bc cb f4 7f bc a1 14 ab 39 8f 23 25 bf
       -0.0281511 -0.015622328 0.0003263103 -0.64507383
0001d0 ec e0 8b 3b 73 e0 f1 3e 6c ef de bc 4c 22 59 c0
       0.004268756 0.47241554 -0.027213775 -3.3927183
0001e0 1f de ae 3b 89 06 e7 bc 6f e4 03 bc 6b 6b 09 3d
       0.0053365375 -0.028201358 -0.008050068 0.033549707
0001f0 02 e8 dd bd d6 21 c1 bc 42 75 a2 3c dd 24 ee bd
       -0.108352676 -0.023575705 0.019831304 -0.11628125

model.sole_model.model.func.layer0_convnet.equivariant_nonlin.mul.output_mask f4 [96]
000000 00 00 80 3f 00 00 80 3f 00 00 80 3f 00 00 80 3f
       1.0 1.0 1.0 1.0
000010 00 00 80 3f 00 00 80 3f 00 00 80 3f 00 00 80 3f
       1.0 1.0 1.0 1.0
000020 00 00 80 3f 00 00 80 3f 00 00 80 3f 00 00 80 3f
       1.0 1.0 1.0 1.0
000030 00 00 80 3f 00 00 80 3f 00 00 80 3f 00 00 80 3f
       1.0 1.0 1.0 1.0
000040 00 00 80 3f 00 00 80 3f 00 00 80 3f 00 00 80 3f
       1.0 1.0 1.0 1.0
000050 00 00 80 3f 00 00 80 3f 00 00 80 3f 00 00 80 3f
       1.0 1.0 1.0 1.0
000060 00 00 80 3f 00 00 80 3f 00 00 80 3f 00 00 80 3f
       1.0 1.0 1.0 1.0
000070 00 00 80 3f 00 00 80 3f 00 00 80 3f 00 00 80 3f
       1.0 1.0 1.0 1.0
000080 00 00 80 3f 00 00 80 3f 00 00 80 3f 00 00 80 3f
       1.0 1.0 1.0 1.0
000090 00 00 80 3f 00 00 80 3f 00 00 80 3f 00 00 80 3f
       1.0 1.0 1.0 1.0
0000a0 00 00 80 3f 00 00 80 3f 00 00 80 3f 00 00 80 3f
       1.0 1.0 1.0 1.0
0000b0 00 00 80 3f 00 00 80 3f 00 00 80 3f 00 00 80 3f
       1.0 1.0 1.0 1.0
0000c0 00 00 80 3f 00 00 80 3f 00 00 80 3f 00 00 80 3f
       1.0 1.0 1.0 1.0
0000d0 00 00 80 3f 00 00 80 3f 00 00 80 3f 00 00 80 3f
       1.0 1.0 1.0 1.0
0000e0 00 00 80 3f 00 00 80 3f 00 00 80 3f 00 00 80 3f
       1.0 1.0 1.0 1.0
0000f0 00 00 80 3f 00 00 80 3f 00 00 80 3f 00 00 80 3f
       1.0 1.0 1.0 1.0
000100 00 00 80 3f 00 00 80 3f 00 00 80 3f 00 00 80 3f
       1.0 1.0 1.0 1.0
000110 00 00 80 3f 00 00 80 3f 00 00 80 3f 00 00 80 3f
       1.0 1.0 1.0 1.0
000120 00 00 80 3f 00 00 80 3f 00 00 80 3f 00 00 80 3f
       1.0 1.0 1.0 1.0
000130 00 00 80 3f 00 00 80 3f 00 00 80 3f 00 00 80 3f
       1.0 1.0 1.0 1.0
000140 00 00 80 3f 00 00 80 3f 00 00 80 3f 00 00 80 3f
       1.0 1.0 1.0 1.0
000150 00 00 80 3f 00 00 80 3f 00 00 80 3f 00 00 80 3f
       1.0 1.0 1.0 1.0
000160 00 00 80 3f 00 00 80 3f 00 00 80 3f 00 00 80 3f
       1.0 1.0 1.0 1.0
000170 00 00 80 3f 00 00 80 3f 00 00 80 3f 00 00 80 3f
       1.0 1.0 1.0 1.0

model.sole_model.model.func.layer0_convnet.conv.linear_1.weight f4 [1024]
000000 06 a8 74 bf 2c ba a8 3d 16 f4 70 bf f7 f9 83 3f
       -0.95568883 0.082386345 -0.94122446 1.0310658
000010 16 53 69 3c 35 e2 c7 bf 2f ac b3 bf e6 d4 42 c0
       0.014241001 -1.5615908 -1.4036921 -3.0442443
000020 42 20 c9 3e 49 13 22 bf e2 04 6f bf 85 a1 d3 3e
       0.39282423 -0.63310677 -0.93366826 0.41334167
000030 99 9d 38 3d 34 55 59 3f 11 57 10 bf 54 72 50 3f
       0.04507217 0.84895635 -0.5638285 0.8142445
000040 92 06 a0 bf f9 b1 31 be e3 2c c3 be 5d c3 a0 bf
       -1.2502005 -0.17353047 -0.38120183 -1.255962
000050 59 76 94 3e 43 1f c6 bf 39 6e 2b bf 2b 6d 84 3e
       0.28996542 -1.547829 -0.6696506 0.2586454
000060 88 a3 cb be 97 f3 db bf 8b 3a 31 be ef 73 ec bd
       -0.39773202 -1.7183713 -0.17307489 -0.1154555
000070 3f b3 9d 3f 35 07 55 bf ee 07 8b 3f 49 c0 54 c0
       1.2320327 -0.8321412 1.0861795 -3.3242362
000080 c6 9f 8e be 6a 9a 4a 3e 2a 2c 78 3e 9c e0 85 3e
       -0.27856272 0.19785467 0.24235597 0.26147926
000090 90 1e d1 ba b3 79 1d be 69 85 de bf 29 ee 8d be
       -0.0015954543 -0.15378456 -1.7384464 -0.27720764
0000a0 e8 be 92 3e 53 7d c8 3f 48 cc 3b be 25 bf f5 3e
       0.28661275 1.5663246 -0.18339646 0.47997394
0000b0 f9 79 51 3e e3 2e 90 3e b5 d8 1a 3c 17 e5 38 3d
       0.20456685 0.28160772 0.009451081 0.045140352
0000c0 a5 7c 95 bd 88 e9 cc 3c 48 f9 f2 3c c4 16 91 be
       -0.07299165 0.0250137 0.029659882 -0.2833768
0000d0 86 e5 61 bf 29 05 a2 be c0 95 23 3d 2e 0c 6d 3e
       -0.8824085 -0.31644562 0.039937735 0.23149177
0000e0 f1 30 e0 bf 42 90 ad 3e b0 3f 01 3f fd 1d d3 bc
       -1.7514936 0.33899122 0.50487804 -0.025771135
0000f0 f4 26 9a 3c 15 11 f2 3c 39 cc 07 3e be 6d af 3e
       0.018817402 0.029549161 0.13261499 0.34263414
000100 98 5f 89 3f 1d c1 d3 be 19 93 af 3e 7d 4e bb 3e
       1.0732298 -0.4135827 0.34291914 0.3658332
000110 0f 06 fc be 0a 5e a7 bf 09 7a f9 bf 2d 56 1b bf
       -0.49223372 -1.3075573 -1.9490367 -0.6067837
000120 0a f6 bf 3f 52 3d f4 be a1 6b 32 3f bf ef 3f 3f
       1.499696 -0.47703034 0.6969548 0.749752
000130 1b 0d 09 3f 39 36 24 3f 66 01 2c 3f 9a ba 14 be
       0.5353562 0.6414524 0.67189634 -0.14524308
000140 e8 57 a2 bf 2f 2d ce bf 03 1f d4 bf 2e 8f 4a 3f
       -1.2683077 -1.6107539 -1.6571964 0.79124725
000150 18 22 09 3f 28 c6 a7 bf 78 57 93 3e ab f6 18 3f
       0.5356765 -1.3107347 0.2877767 0.59751385
000160 2a bb 70 bf 3a 0b d2 bf 86 e6 08 c0 e5 ae 84 3e
       -0.9403559 -1.6409676 -2.13907 0.25914684
000170 47 47 20 40 c6 b8 5b bf a1 63 cc 3d 8f d4 ed bf
       2.5043504 -0.85828817 0.0997994 -1.8580493
000180 93 30 31 bf 06 09 2f bf 8e 31 c5 3e a1 8f 0b 3e
       -0.69214743 -0.68373144 0.3851437 0.13629009
000190 5a 95 c5 3f fb 74 0d 3f c9 21 dd 3e c2 b9 1e 3d
       1.5436203 0.55256623 0.4318984 0.03875137
0001a0 c3 9e 81 bf 7e 65 81 bf 08 96 d5 3f fe 7c d8 be
       -1.0126575 -1.0109098 1.6686411 -0.4228286
0001b0 bd 7d 70 3f 73 ba cd bf a8 f2 ec bd 48 28 2f bf
       0.9394186 -1.6072525 -0.115697205 -0.6842084
0001c0 58 fa 06 3c e6 45 25 c0 8a 42 34 3f 9e 17 91 bf
       0.008238398 -2.5823913 0.7041403 -1.1335332
0001d0 7a 06 0e bf 5f 1c fc 3f dd 46 18 3f 45 f8 5d be
       -0.5547863 1.9696158 0.5948313 -0.21676739
0001e0 9b 43 16 3f 2d d5 12 bf c4 29 ad 3f 9c bf 7c 3f
       0.5869691 -0.5735653 1.3528371 0.9872987
0001f0 a1 70 f4 bf eb 97 c0 bf f0 ad 09 3f 2c 04 f4 3f
       -1.9096872 -1.5046362 0.5378103 1.9063773
000200 58 01 1d bf 10 71 a4 be b9 ea 29 3e ff 52 3a 3e
       -0.61330175 -0.3211751 0.16593446 0.18195723
000210 14 3c 52 bd 5f a8 d1 be 4c 26 13 3f 8f fc 83 be
       -0.051326826 -0.4094877 0.5748031 -0.25778624
000220 14 c7 79 bf f8 6a ca 3d 7e 3e dc bd db ae b7 3e
       -0.97569394 0.09883684 -0.10754107 0.35875592
000230 3a 75 86 bf 50 9f 9d 3d 84 16 f3 3d 1b e0 75 bd
       -1.0504525 0.07696402 0.11869529 -0.060028177
000240 a3 d6 6a bd 62 bd 3f 3d 89 6a 54 3d 9c 3a 72 3e
       -0.0573336 0.04681147 0.051859412 0.2365517
000250 26 51 5e 3f 35 c8 ec 3e 44 ab db 3c 50 0a 94 3d
       0.8684257 0.46246496 0.026815064 0.072285295
000260 2b eb 19 3f b6 e3 35 bf 9d 14 94 3e e3 ba 56 3f
       0.6012446 -0.71050584 0.28921977 0.83878917
000270 6d 07 49 be b5 8b fd 3e f9 d0 48 3e 10 6d e5 3e
       -0.19631739 0.4952065 0.19610967 0.4480977
000280 6d 08 81 3d 75 91 10 be bd f3 00 bf c1 10 00 bd
       0.06300435 -0.14117987 -0.50371915 -0.031265978
000290 4a 34 db 3f 30 b4 5c bf 00 99 a1 bf 58 2e ad be
       1.7125332 -0.86212444 -1.2624817 -0.3382442
0002a0 3c 48 dd 3f e9 7f ee 3c 33 46 72 3f 90 e3 0b 3f
       1.7287669 0.029113727 0.94638366 0.5464411
0002b0 13 26 be 3e 4b 1e 0b 40 50 f2 64 3f 98 42 23 3f
       0.37138423 2.173724 0.8943224 0.6377349
0002c0 6c 55 e4 3f c2 f7 0d c0 3e f1 a9 3e 11 9b bd 3e
       1.7838569 -2.218247 0.33191866 0.3703237
0002d0 a0 f8 88 bf 17 dc 1f 3f 06 e4 e0 bc da a9 c1 be
       -1.0700874 0.62445205 -0.02745248 -0.378249
0002e0 f5 d2 6a 3f 78 2c 0a 3f 06 d7 79 bf d5 69 f1 be
       0.91728145 0.53974104 -0.97593725 -0.47151056
0002f0 05 1c da 3d 39 f8 12 c0 70 5e 28 3f 10 2c 24 be
       0.106498756 -2.2964003 0.657691 -0.16032434
000300 48 27 a3 bf bb a5 17 40 db a2 14 3f 15 d3 b7 3f
       -1.2746363 2.3694904 0.58061 1.4361292
000310 89 7c 25 40 3d 99 bf 3d fc 70 98 3f 88 9d 06 bf
       2.585726 0.093554 1.190948 -0.52584124
000320 ee 57 85 bf 8f 77 a8 3f dc 14 0d 40 17 18 fd 3e
       -1.0417459 1.3161486 2.2043982 0.49432442
000330 86 b9 0f 3f d1 12 cc be 79 6e c8 3f 88 d4 9f 3f
       0.5614246 -0.39858106 1.5658714 1.2486734
000340 1c 08 1a c0 a9 4c 36 c0 71 31 64 c0 a5 17 de bd
       -2.406745 -2.848429 -3.5655177 -0.108443536
000350 84 d8 4d 3f fe bf 08 3e 2e 13 b9 bd 31 e4 c6 3e
       0.804085 0.13354489 -0.09036861 0.3884597
000360 8d 95 38 bf d4 18 40 bd f9 04 8f 3f dc a4 85 bd
       -0.72103196 -0.046898678 1.1173393 -0.06525585
000370 6b 95 13 3f 50 dc 8d 3f 04 1f d3 3f b1 79 ad 3f
       0.5764987 1.1082859 1.649384 1.3552762
000380 bd ee ff 3c e4 44 c7 3e d4 a9 4c 3f 51 8d af bf
       0.031241769 0.38919747 0.7994664 -1.3715001
000390 56 1e 17 3d bd 62 65 3f e1 0c 6b be a7 ca 9f 3f
       0.036894165 0.8960379 -0.22954132 1.248372
0003a0 39 53 ac bf 31 b8 1a 3f 95 33 47 3f 5e f8 00 c0
       -1.3462898 0.60437304 0.7781308 -2.0151591
0003b0 ce 5f 59 be b1 4e 8c bf 15 ff 1f 3f 9d 0e 24 bd
       -0.21227953 -1.0961515 0.624986 -0.040053
0003c0 19 24 db 3e 50 79 24 3e 33 1c 16 bd 32 75 bf bd
       0.42800978 0.16061902 -0.036647987 -0.09348525
0003d0 2e eb ec 3e c5 1f a9 bf 2b 59 98 3e 20 50 12 bd
       0.46273178 -1.321282 0.2975553 -0.035720944
0003e0 60 d4 64 bf 6c e3 f6 3e f5 8f 95 3e f8 3c a7 3f
       -0.8938656 0.48220384 0.29211393 1.3065481
0003f0 22 df 0f bf 0a be 1f 40 b6 8d 32 3e 13 d4 99 bd
       -0.5619985 2.495974 0.17436871 -0.07511153

model.sole_model.model.func.layer0_convnet.conv.linear_1.output_mask f4 [32]
000000 00 00 80 3f 00 00 80 3f 00 00 80 3f 00 00 80 3f
       1.0 1.0 1.0 1.0
000010 00 00 80 3f 00 00 80 3f 00 00 80 3f 00 00 80 3f
       1.0 1.0 1.0 1.0
000020 00 00 80 3f 00 00 80 3f 00 00 80 3f 00 00 80 3f
       1.0 1.0 1.0 1.0
000030 00 00 80 3f 00 00 80 3f 00 00 80 3f 00 00 80 3f
       1.0 1.0 1.0 1.0
000040 00 00 80 3f 00 00 80 3f 00 00 80 3f 00 00 80 3f
       1.0 1.0 1.0 1.0
000050 00 00 80 3f 00 00 80 3f 00 00 80 3f 00 00 80 3f
       1.0 1.0 1.0 1.0
000060 00 00 80 3f 00 00 80 3f 00 00 80 3f 00 00 80 3f
       1.0 1.0 1.0 1.0
000070 00 00 80 3f 00 00 80 3f 00 00 80 3f 00 00 80 3f
       1.0 1.0 1.0 1.0

model.sole_model.model.func.layer0_convnet.conv.edge_mlp.mlp.0.weight f4 [8, 64]
000000 5e ca d7 bf 66 6c 4d 3f 74 14 eb be 89 69 98 be
       -1.6858633 0.8024353 -0.45914042 -0.29768017
000010 0b 24 aa 3f e2 c6 a6 be 8d 9b 53 bd c4 68 18 c0
       1.329225 -0.3257361 -0.051662017 -2.3813944
000020 8b 7a b1 be 81 0f 2b 3f 5a 30 cd 3f 60 f6 8d be
       -0.34663805 0.6682053 1.6030381 -0.27727032
000030 2c dc 01 40 18 99 79 bf 25 7b 0c 40 ab 0f 9e be
       2.0290632 -0.9749923 2.1950161 -0.3087133
000040 fb 64 a1 bf 64 52 07 c0 46 60 95 3e 9b d9 d6 3d
       -1.2608942 -2.1144037 0.29175013 0.10490724
000050 b1 84 c4 bf 86 d2 ff be de 98 06 c0 00 b6 03 be
       -1.5352994 -0.49965304 -2.1030803 -0.12862396
000060 b3 37 ba 3f aa 03 16 c0 4a ed de be f7 d9 23 bd
       1.4548248 -2.3439736 -0.43540412 -0.04000279
000070 96 be f8 bf d8 78 1b 3f 32 14 b9 3c c7 2a 33 c0
       -1.9433162 0.6073127 0.022592638 -2.799486
000080 70 5c 1e 3e 6f ab 5b bf 86 17 49 40 61 8b 84 3f
       0.1546495 -0.8580846 3.1420608 1.0355035
000090 59 fd 13 3e 49 59 cc bf f3 67 ca 3f 11 78 14 bf
       0.14452113 -1.5964748 1.5812973 -0.57995707
0000a0 30 b9 3c 3f 49 ae 78 3e 93 37 e5 3e 7b a7 72 c0
       0.73720074 0.24285235 0.44768962 -3.7914722
0000b0 96 4f 56 bf fc b3 ab be 4d 0e 77 40 7b 50 f0 3f
       -0.8371519 -0.33535755 3.8602479 1.8774561
0000c0 b7 16 17 3d 0f 2e c5 c0 4c 9e d8 bf 51 7b 5c c0
       0.036886897 -6.1618724 -1.6923308 -3.4450266
0000d0 41 c1 c0 bf 54 3c dd 3e 57 1a 1b 40 c0 eb ff bd
       -1.5058976 0.4321009 2.4234827 -0.124961376
0000e0 14 e2 83 3f cf d5 02 3f ac ba ef bf 0b a8 f4 3e
       1.0303369 0.51107496 -1.8728843 0.47784457
0000f0 15 df 0f 3f a5 2b be 3f e2 7f c7 be a9 91 8c bf
       0.5619977 1.4857069 -0.38964754 -1.0981952
000100 8c 85 5d c0 df 28 d5 3f 26 4a 13 bf 61 53 03 bf
       -3.461276 1.6653098 -0.57535017 -0.512991
000110 e1 8a 2f 40 51 69 3a bf f3 6c 13 be c5 ed 8d c0
       2.7428515 -0.7281695 -0.1439703 -4.4352746
000120 21 3c 8c bc 8e 0e b4 3f 96 1b 54 40 e2 a0 1d bf
       -0.017118515 1.4066942 3.3141837 -0.6157361
000130 fd a2 81 40 73 b5 03 c0 1c 52 48 40 21 87 27 bf
       4.051146 -2.0579498 3.1300116 -0.65440565
000140 fd 97 26 c0 df 8f 86 c0 18 db 3a 3f 41 27 8b 3e
       -2.6030266 -4.2050624 0.7299056 0.27178386
000150 31 da 4b c0 31 d5 12 3e 2b 0d 86 c0 79 73 2a be
       -3.1851923 0.14339139 -4.1891074 -0.16645612
000160 dd f6 42 40 12 b3 28 40 bf 3c 6b bf 87 c6 f2 be
       3.0463173 2.6359296 -0.91889566 -0.4741709
000170 6e 97 78 c0 bb 8e 99 3f 8f 1f bc be d4 1d bc 3d
       -3.8842425 1.1996683 -0.36742827 0.09185377
000180 42 c6 02 3e 15 44 e1 bf de ca be 40 8c ef 09 40
       0.12770942 -1.7598902 5.962264 2.1552458
000190 68 20 da 3e 69 92 4e c0 96 cf 5b bf 22 8e 6f bf
       0.4260285 -3.2276862 -0.85863626 -0.9357625
0001a0 35 d3 bf 3f 37 7e 35 3f 46 22 1f 3f 70 4b 77 c0
       1.498633 0.70895714 0.6216167 -3.8639793
0001b0 56 a6 eb bf 73 8c 38 bf b6 b1 8a c0 1b 62 58 c0
       -1.8410137 -0.7208931 -4.334193 -3.380988
0001c0 42 18 4e be c6 3d 34 c0 26 68 9b c0 b9 3d 86 c0
       -0.20126441 -2.8162704 -4.8564634 -4.1950345
0001d0 40 a7 50 c0 99 6b 69 3f 88 ff 94 40 3c 79 c4 be
       -3.2602081 0.91179806 4.656193 -0.38373744
0001e0 2b 29 11 40 92 b6 8c 3f 25 da 72 c0 cc 88 83 3f
       2.2681377 1.0993216 -3.7945645 1.0276122
0001f0 a6 bf 83 3f f2 f9 39 40 a9 e0 3d bf fe 88 6f c0
       1.0292861 2.9058805 -0.7417093 -3.7427363
000200 32 1e 70 3f df 1e de be 1a 49 a0 3d 77 5a 2f 3e
       0.93796074 -0.43382928 0.07826443 0.17124353
000210 f4 a6 3a bf e6 4c 33 3e 51 2d f1 3c 53 2e b5 3f
       -0.72911 0.17509803 0.029440554 1.4154762
000220 e2 e3 80 c0 05 03 b8 be 05 9d 52 bf f9 3d 46 3e
       -4.0278177 -0.35939804 -0.8227084 0.19359578
000230 8a 92 70 bf 5b e6 f0 3e 95 42 4e 3f 48 1c 4e 3e
       -0.939736 0.47050747 0.80570346 0.20127976
000240 ef 9a 29 3f 0b d4 85 3f 32 0b a4 be 5c 1e 8b bd
       0.66252035 1.0455335 -0.3203979 -0.067929
000250 18 9f 56 3f ff 69 31 3f 48 85 84 3f 30 ea 16 3e
       0.8383651 0.6930236 1.0353174 0.14737773
000260 ca af 47 bf 44 c1 c8 3f e0 b4 64 3e 33 56 82 bd
       -0.7800261 1.568398 0.22334623 -0.063640974
000270 0a 4e 6d 3f 30 b1 a0 be bc 31 cc bf 61 3a 20 3f
       0.92697203 -0.31385183 -1.5952678 0.6258908
000280 99 7a d6 bd 57 61 f7 3e 47 16 8c bf 97 57 11 bf
       -0.104726024 0.48316452 -1.0944299 -0.56774276
000290 47 2b cb bd f8 49 51 3f d1 64 06 3f fb 81 6c 3f
       -0.09920364 0.8175349 0.52497584 0.92385834
0002a0 5f 27 e6 be c5 7b b7 bd 8f 6a 58 be 5a 65 5d 3e
       -0.44951913 -0.08959154 -0.21134399 0.21620694
0002b0 1c 70 d8 3e f8 78 17 3e d5 20 11 c1 00 67 09 bf
       0.42273033 0.1479224 -9.070516 -0.5367279
0002c0 15 db 0b bd bb 69 0a c0 45 d2 c0 3e 98 2b b8 bf
       -0.03414448 -2.1627033 0.37660423 -1.4388304
0002d0 34 97 cc 3e b5 ec 8a be ca 43 90 bf 8f c0 85 3d
       0.3995911 -0.27133718 -1.1270688 0.06530868
0002e0 84 2a 0a bf 14 47 8b be 72 bf 78 3f 2f 1b 78 be
       -0.53971124 -0.27202666 0.9716712 -0.2422912
0002f0 92 de 86 bf 17 32 b1 bf 07 0c 57 3e 11 62 d2 3f
       -1.0536673 -1.3843411 0.21000682 1.6436177
000300 2e f2 c0 bf aa 58 4f 3f ac c5 1e 3e 2b 8b 2e be
       -1.5073907 0.80994666 0.15505093 -0.17045276
000310 2e 4b a0 3f 50 c7 c4 be 3f b5 7b bd da d8 bd bf
       1.2522943 -0.38433313 -0.061452147 -1.4831803
000320 39 4d aa c0 d5 3d 34 3f 37 47 c3 3f 5a 88 95 be
       -5.3219266 0.7040685 1.5256108 -0.2920559
000330 66 34 ee 3f 0a 83 78 bf d6 c1 09 40 d6 d0 a5 be
       1.8609741 -0.9707495 2.1524558 -0.32385892
000340 86 25 93 bf 4d 6a eb bf 12 a0 88 3d 4a 7a 45 3d
       -1.1495826 -1.8391815 0.06671156 0.048212327
000350 4f f6 ae bf 43 be 64 3d 36 8b ec bf 7f 6a c3 bd
       -1.3668917 0.05584551 -1.8479984 -0.09541797
000360 b9 e7 aa 3f b8 6f 41 40 f9 b1 db be c2 f9 12 be
       1.3351966 3.0224438 -0.4290922 -0.14353088
000370 be f2 e2 bf 2b a7 12 3f 35 70 10 c0 e4 4e ca be
       -1.7730329 0.5728633 -2.2568486 -0.39513314
000380 c6 e4 99 3d 95 a4 4a bf ba 2b 2b 40 81 ac 83 3f
       0.07514338 -0.7915738 2.6745439 1.0287019
000390 35 b7 23 3e 69 26 b9 bf 6f 41 cd bf 71 b0 fa 3e
       0.15987857 -1.4464847 -1.6035594 0.4896274
0003a0 e5 ed 1f 3f 23 1c 85 3e 2b fe cd 3e 07 a4 89 3e
       0.62472373 0.2599803 0.40232977 0.26882955
0003b0 46 1a 48 bf 10 a7 e5 be cc f8 7c 40 a7 19 1d 3f
       -0.7816509 -0.4485402 3.9526854 0.6136727
0003c0 c9 da 22 3c 5a 32 0c 40 f5 33 de bf 7a aa 23 c0
       0.009939858 2.1905732 -1.7359606 -2.55728
0003d0 07 2e 00 c0 df d3 f1 3e 51 97 01 40 ee d1 11 be
       -2.0028093 0.47231957 2.0248606 -0.14240238
0003e0 88 af 75 3f 75 d1 0d 3f ae fe d4 bf 1e 07 e4 3e
       0.95970964 0.5539773 -1.6640222 0.4453668
0003f0 a9 b5 f7 be 4a 51 d1 3e de 59 9e be 5f d3 9d 3f
       -0.48380783 0.4088233 -0.30927938 1.233013

model.sole_model.model.func.layer0_convnet.conv.edge_mlp.mlp.2.weight f4 [64, 64]
000000 d7 cc f7 3e 96 dc 2b 3e 5e 34 6b 3f cb f5 24 bf
       0.48398468 0.16783366 0.9187678 -0.6443755
000010 ab f4 11 3f f3 51 77 be da 43 10 3e 07 6b 6e bd
       0.5701396 -0.24152355 0.14088383 -0.058207538
000020 44 f3 7b be 0d 16 f8 be 38 8f 29 bf db cf 20 3f
       -0.24604517 -0.48454323 -0.6623416 0.6281716
000030 d5 e0 9c 3a ec db 2a bd 84 7c 71 bd 47 91 08 c0
       0.0011968861 -0.04171364 -0.058956638 -2.133867
000040 93 70 7e bd fb b3 f1 bd 9b 75 8a 3d 85 97 bf 3f
       -0.062119078 -0.11801907 0.06760713 1.4968115
000050 ee ba fd bd 10 a7 d0 3f 9f 4d 29 3e 2b 89 93 be
       -0.1238917 1.6300983 0.16533516 -0.28815588
000060 c5 4e b9 3d fb cb c9 3e f1 52 10 3e 8a 85 da 3e
       0.09048227 0.39413437 0.1409414 0.42680007
000070 03 4d bc bf 5d c8 03 be c5 0e e5 3d b2 06 00 bf
       -1.4711002 -0.12869401 0.11184458 -0.50010216
000080 32 fc 2e 3f 1a 69 42 3e 65 6c 87 3f 1c 04 7d be
       0.6835357 0.18985406 1.0579954 -0.24708599
000090 99 be 84 be 54 da 89 be 04 38 74 3f 81 af c7 3e
       -0.25926664 -0.26924384 0.95397973 0.39001086
0000a0 8d 94 45 bf 1d 31 37 be ea ea a8 bd b2 b7 1d be
       -0.77179796 -0.17889829 -0.08247931 -0.15402105
0000b0 b0 75 24 bf 22 59 2d 3f 79 eb 5c 3f 88 32 8a bd
       -0.64242077 0.6771413 0.862968 -0.06747919
0000c0 57 e8 18 3e f8 8d d1 bf cc f7 82 be a9 9f cf 3d
       0.1493238 -1.637145 -0.2557968 0.10137875
0000d0 cb 4b f8 3f 32 aa 4d be 34 5a 4b 3e bb 1e 35 bf
       1.939813 -0.20084456 0.19858629 -0.70750016
0000e0 8f f6 72 bd f7 e5 00 c0 63 c3 e3 3f 56 3a 43 be
       -0.059317168 -2.014036 1.7794002 -0.19065222
0000f0 2b 6a a6 3e 75 b5 25 be 1b d8 0c c0 09 2c 07 bf
       0.32502875 -0.16182502 -2.20069 -0.5280157
000100 85 5a 93 be 55 1d cb 3d ba 73 cc be e3 8f ae 3e
       -0.28779998 0.09917704 -0.39932042 0.34094152
000110 c3 8d fc 3c 7f da a3 be 31 57 a5 3d bc bd 30 3d
       0.030829316 -0.32002637 0.08073271 0.043149695
000120 e3 4a 15 be eb 73 64 3e de b3 34 be 33 12 91 bd
       -0.14579348 0.22309844 -0.17646739 -0.07083549
000130 d5 23 9e ba c6 a6 2c bf 1f 3c 0f 3e 4b 00 f5 3d
       -0.0012065122 -0.67441976 0.13987778 0.119629465
000140 6f 1a 1e be 0f 87 6e 3b 6c 34 1a 3f 18 79 e7 be
       -0.15439771 0.003639642 0.6023624 -0.45209575
000150 73 19 01 be 03 6d b2 bd d8 38 0d 3e 94 e6 12 3f
       -0.12607364 -0.087121986 0.13791215 0.57383084
000160 8d c1 03 3e 5e 97 df 3e b4 c1 ae 3e 2c 3c 3e be
       0.12866803 0.43670171 0.3413216 -0.18577641
000170 e8 09 5b 3d 98 46 36 3d 2d a8 ad bd 3d a3 93 3e
       0.053476244 0.044500917 -0.084793426 0.28835478
000180 d9 da 62 be a5 f5 1c 3e 7d 5f 41 be 26 bf 47 3e
       -0.22153796 0.15328081 -0.18884082 0.19506511
000190 9e 79 82 3e f2 21 9f be 91 16 41 bb 88 12 51 be
       0.25483412 -0.31080586 -0.0029462914 -0.20417225
0001a0 b8 d7 f7 be fb de bf bd d3 10 29 3c c4 48 ee 3e
       -0.48406768 -0.09368702 0.010318953 0.4653989
0001b0 42 09 b0 be 17 e1 93 3f 16 c0 aa bd 66 77 42 bd
       -0.34382063 1.1553067 -0.08337419 -0.04747715
0001c0 c1 74 3e 3b b7 88 de 3e e4 ab c8 be dd 45 03 3e
       0.002906129 0.4346368 -0.39193642 0.1281962
0001d0 5d 42 9b be 23 63 b2 3d 5f 2f 05 3f 43 6d e2 bd
       -0.3032407 0.08710315 0.5202541 -0.11055996
0001e0 4c dc 2d 3e 97 f9 ec 3e 32 03 e7 be 0f 50 57 3d
       0.16978568 0.46284172 -0.45119625 0.052566584
0001f0 e0 58 c0 3d 0b a5 88 3e ad 7e 88 3e e5 57 77 3e
       0.093919516 0.26688418 0.26659146 0.24154623
000200 46 46 03 40 0b d9 0c c0 19 22 80 3f b4 a0 c9 3d
       2.0511642 -2.2007473 1.0010406 0.09845105
000210 c0 16 fb 3f 36 a4 8a 3e 48 0f b3 3e a2 41 15 bf
       1.9616318 0.27078408 0.34972596 -0.5830327
000220 e1 ec 89 3e fd 75 30 3f e5 b3 64 3f cf ee 90 bf
       0.26938537 0.68930036 0.89337 -1.1322879
000230 4f 04 95 be 54 4b 14 40 b9 40 0c c0 d4 cc b0 bf
       -0.2910485 2.3170977 -2.1914504 -1.3812509
000240 c0 0e 2c 3f 82 bb ec 3e 70 af 8c 3f 77 1b 51 bf
       0.67210007 0.46236807 1.0991039 -0.81682533
000250 df 88 56 bf 51 c3 17 c0 06 cc 82 be af 61 dd 3e
       -0.838026 -2.3712962 -0.25546283 0.4323859
000260 95 07 50 3d 12 ca 11 3f 60 3c 6d 3f ed cf 85 40
       0.05078848 0.5694896 0.9267025 4.1816316
000270 89 ae c4 3e 69 50 78 bf 94 a2 c5 3e 9c a5 91 3e
       0.3841441 -0.96997696 0.386006 0.28446662
000280 8f e5 ad bd f2 74 83 3f b4 35 4a 3f 52 5a e5 3e
       -0.084910505 1.0270064 0.78988194 0.4479547
000290 9f 99 a1 3e d6 e3 93 bd 41 c7 25 bf 6e 8d 8c be
       0.31562516 -0.07221191 -0.6475716 -0.27451652
0002a0 b2 13 5d be e4 c6 26 3f 32 38 7f 3c 3e 44 49 3f
       -0.21589544 0.65147233 0.015577363 0.78619754
0002b0 4b ab 06 bf c6 ff 8a be 25 08 bc 3f a1 47 74 3f
       -0.5260512 -0.27148265 1.4689986 0.954218
0002c0 2d c4 31 bf 63 52 9a 3d 55 bd 68 bf 8d 65 60 bf
       -0.69439965 0.07535245 -0.909139 -0.87654954
0002d0 d8 d2 82 3f 6d af ec be bc 59 fb be 09 bc c3 3e
       1.0220594 -0.4622759 -0.490919 0.38229397
0002e0 fb 5a 8c 3f 53 ef 26 c0 23 1f fb 3e 9a ef bf bf
       1.0965265 -2.6083572 0.49047193 -1.4994996
0002f0 bd 18 ec 3e 28 3e 5c bf 41 bd b4 be 6e 1a 8d bc
       0.46112624 -0.8603234 -0.3530064 -0.017224517
000300 d5 04 78 bd 3b 2f 3a bc e0 9f ed be e8 08 a2 3e
       -0.060551483 -0.0113638 -0.46411037 0.3164742
000310 51 33 2d 3d b0 31 f1 3e 0b 84 71 3e 8c fe 24 bd
       0.042285267 0.4710822 0.23585527 -0.040281817
000320 48 e5 5a 3e 7e de 83 3d fa 93 a6 be 1a 0b a1 3c
       0.21376526 0.064389214 -0.32534772 0.019658614
000330 fc 85 af 3e 58 a0 57 3e 11 88 4c 3f 5a 77 c4 bd
       0.3428191 0.2105726 0.7989512 -0.09593077
000340 65 fe 8b bd 67 bb 83 bd 0a d1 9f be 02 09 a5 3c
       -0.06835631 -0.064322285 -0.31214172 0.020145897
000350 3a b8 31 be 97 5c a0 3c f2 0a 6f 3e 84 6a 08 bb
       -0.17355433 0.0195754 0.23344019 -0.0020815441
000360 b1 c2 95 bd a4 1e 69 be 58 53 92 bd 65 4e a0 bd
       -0.07312525 -0.22765595 -0.07144803 -0.078274526
000370 3c 8c f5 bb 7b bb 49 3e d9 f5 72 3e 3c b6 b0 3c
       -0.007493524 0.19700424 0.23726596 0.021571271
000380 34 a0 63 3e 56 f2 b6 bc 9f 88 b4 3d d6 30 09 be
       0.22229081 -0.022332352 0.08815121 -0.13397536
000390 3c ba 60 3e df ca 43 3d 1f 8f 5d be a8 ae 84 3e
       0.21946043 0.047800895 -0.21636628 0.25914502
0003a0 68 8e ba be a5 ba 0f be f4 b8 3d 3b 8f c9 26 be
       -0.36436772 -0.14036043 0.0028949352 -0.16287826
0003b0 99 f3 13 be 3f 31 25 3f 95 97 b3 3d e1 c7 0c 3e
       -0.14448394 0.6452827 0.08769146 0.13748123
0003c0 9f ea eb bd 29 3b 37 bd 47 2f f0 be 4b ef d7 be
       -0.1151936 -0.044734154 -0.4691107 -0.42174754
0003d0 23 f4 97 3c ca 37 2d bd 1c 17 f1 3d c0 46 13 3e
       0.01854903 -0.042289533 0.11771986 0.14382458
0003e0 b5 b9 61 3e 3d 47 cf bb 79 b5 91 3d 58 6e a1 bd
       0.22043498 -0.006325631 0.07114691 -0.078823745
0003f0 c5 30 ad 3e da 06 1d 3e 75 eb 23 bd a1 9e 21 3d
       0.3382627 0.15334645 -0.04001947 0.03945792

model.sole_model.model.func.layer0_convnet.conv.edge_mlp.mlp.4.weight f4 [64, 64]
000000 d5 6b ad bf 87 b9 cf 3e f4 8d 09 3f 37 ff b1 3e
       -1.3548533 0.40571234 0.5373223 0.34765026
000010 38 b5 16 c0 a9 e8 d4 3f c7 0d 20 3f 91 8f d6 3e
       -2.3548107 1.6633502 0.6252102 0.41906407
000020 55 0f 99 3e 60 56 bf be 71 73 0a 3f 2f e0 6a 3e
       0.2989451 -0.37370586 0.540824 0.22937082
000030 85 72 28 bf 88 09 85 be 7e d7 44 bf 58 86 e5 be
       -0.6579974 -0.25983834 -0.76891315 -0.4482906
000040 52 27 22 be ff 7a 1b be 6a 24 a7 3f ba 99 52 3f
       -0.15835312 -0.15183638 1.3057988 0.8226582
000050 37 4c a2 bd 30 c7 ad bf 88 27 3f 3f 52 b8 0b 3e
       -0.07924693 -1.3576412 0.74669695 0.13644531
000060 ff 63 a6 be 74 21 04 bd 90 3d db be a1 c1 c1 3f
       -0.32498166 -0.032258466 -0.42820406 1.5137216
000070 41 12 b5 bf 29 02 78 be 84 2e 66 3e 91 a7 5d 3e
       -1.4146196 -0.24219574 0.22478682 0.21645953
000080 5e 22 89 bf 99 e3 56 bf f9 be f0 3f 20 2b af 3f
       -1.0713613 -0.83941036 1.880828 1.3685036
000090 43 89 cc 3f dc 62 ef 3e fc 7d 08 3f 8a 31 cb 3e
       1.5979389 0.4675511 0.53317237 0.39686233
0000a0 91 55 ab be 78 76 dd bf 02 c1 84 bf af d6 87 be
       -0.3346372 -1.7301779 -1.0371401 -0.26530978
0000b0 6d 6c cc bf ed 27 89 be 52 d6 08 40 13 82 e9 3e
       -1.5970589 -0.26788273 2.138081 0.4560705
0000c0 88 e2 08 c0 52 0d d3 3f ea 16 d6 3f f6 88 00 3f
       -2.1388264 1.648844 1.6725743 0.50208986
0000d0 b9 72 77 3f b0 3c ac 3c 51 39 2b 40 95 ff b3 be
       0.9665943 0.021025032 2.6753733 -0.3515593
0000e0 23 82 62 3e 56 f7 f0 3f 4b 11 97 3f 45 09 5e 3f
       0.22119956 1.8825481 1.1802152 0.86732894
0000f0 eb 0a 3a 3f 3e 59 53 3e 19 3c 94 3f f7 04 2b bf
       0.7267291 0.20639512 1.158084 -0.6680445
000100 23 55 f6 3e c8 23 a2 3e 15 7f 6d 3e d5 b7 00 bd
       0.4811183 0.31667924 0.23193009 -0.031425316
000110 46 a5 b3 bd 8e 3f 5d 3d db 71 59 3f 29 43 88 3d
       -0.08771758 0.05401569 0.84939355 0.06653435
000120 15 06 25 be 5b 62 ad bd 15 5f cb 3c 5e 8c f6 bd
       -0.16115601 -0.084660254 0.024825612 -0.12038492
000130 07 6c b5 3e 32 3e df 3d e1 6e de 3c 02 05 1c bb
       0.3543398 0.10900535 0.02715248 -0.0023806696
000140 9c 57 4c 3d c9 3b 8b 3d f1 e2 a4 bc 3f 99 d7 3c
       0.04988824 0.067985125 -0.020127745 0.02631819
000150 f8 ec 35 3d a0 c8 81 bf 25 ec 14 bb ce 5f 4b be
       0.044415444 -1.0139351 -0.002272376 -0.19860765
000160 8d c0 3f be da e3 f5 3e 40 bd 0f bf 9e b1 84 bd
       -0.18725796 0.480254 -0.5614815 -0.0647919
000170 d6 f4 ce 3b 9b f1 65 bd bb 1e 6a 3d f2 ec 3c be
       0.006315808 -0.056138616 0.057158213 -0.18449762
000180 96 f9 69 3f fa 88 e3 bf 81 37 4e bf db 37 1b 40
       0.9139646 -1.7776177 -0.8055344 2.4252841
000190 f2 1d 75 bd 27 11 25 3d 4c 9b df 3f 02 d9 a5 3d
       -0.05984301 0.04029956 1.7469268 0.080980316
0001a0 59 8d 25 3f df 1b fc be 57 ff c4 bd 32 51 72 bd
       0.64668804 -0.49240014 -0.09619015 -0.059159465
0001b0 6b c8 bc 3f 25 79 4b bd 1d 02 77 bf 79 d3 2a 3e
       1.4748663 -0.04967608 -0.964876 0.16682233
0001c0 4a 8b 51 3d 19 3d ec 3d 1d 82 8b bb 0c ec d8 3f
       0.051158227 0.11535091 -0.004257454 1.6947036
0001d0 2a e3 c0 3e bf bc b8 3f 7f 2e 6f 3d 8c a1 53 3f
       0.37673312 1.4432601 0.05839395 0.82668376
0001e0 a2 18 e4 3f 41 0e d2 bf 62 a5 1a 3f cb c0 08 bf
       1.7820017 -1.64106 0.60408604 -0.5341918
0001f0 9e af b5 3b 11 8a 9f be 59 0d fc bd 1a e4 1a 3e
       0.005544617 -0.31160024 -0.12307233 0.15126076
000200 69 88 00 3f 33 f4 7d 3e d0 84 2f be b1 48 60 3c
       0.50208145 0.24800186 -0.17140508 0.013689206
000210 62 98 7a 3d b7 dc 8e bd b7 a2 0e 3f 5f 40 b6 3b
       0.06118048 -0.06975692 0.55717033 0.005561873
000220 8b e5 02 bf 8c a4 0c bd e9 59 be bd 00 bd 37 3e
       -0.51131505 -0.03433661 -0.09294493 0.17943192
000230 d6 14 2a be da b2 6f 3d 01 23 9f 3d 7b 30 fd 3a
       -0.16609511 0.058520176 0.07770348 0.0019316816
000240 2d 0a 56 3c 60 8c 1c 3e 2f 0c a1 bd 5d 7f 8b be
       0.0130639495 0.15287924 -0.07863652 -0.27245608
000250 84 d1 0d bf c0 8e 80 bf a6 15 d7 bd 96 a0 c8 3e
       -0.5539782 -1.0043564 -0.10502176 0.39185017
000260 32 e3 56 be 5e c9 d9 3e 57 b5 33 3e b4 11 fe 3e
       -0.20985106 0.42536443 0.17549644 0.4962288
000270 2c b6 a0 3d 3f f6 97 bb f2 f0 0a 3e e1 44 00 3e
       0.078472465 -0.004637509 0.13568476 0.12526275
000280 a4 dc 74 3f 18 77 05 40 42 a1 c5 bd 49 15 2c bf
       0.9564917 2.085394 -0.09649898 -0.6721998
000290 a3 87 77 bd 56 8c 8d bd 35 ab 2b c0 03 b7 cb bb
       -0.060432088 -0.069115326 -2.6823246 -0.006216885
0002a0 3f 9b 6a 3f ac 8b ae bf 48 c4 3d 3e fe e5 b1 be
       0.91643137 -1.3636374 0.18531907 -0.34745783
0002b0 43 ef 85 3f a6 8b 89 3e 4d dd 6a be 28 d4 82 be
       1.0463642 0.26864356 -0.22935982 -0.25552487
0002c0 93 68 b5 3d 90 7f 54 3e d3 ef d2 bc 86 5c 82 3f
       0.088578366 0.20751786 -0.025749123 1.0184486
0002d0 5c 60 a8 bf a9 11 b0 bf 66 15 6d bd 32 96 82 bf
       -1.3154407 -1.375539 -0.057881735 -1.0202086
0002e0 8f 4d 82 3f 2d ef 2a bf 6b f8 1a c0 99 9a 02 40
       1.0179919 -0.66771203 -2.4214122 2.040686
0002f0 1f ea 13 3c f2 08 cd 3c 55 dc 3f 3e ed 4e 10 3e
       0.009027987 0.02502868 0.18736394 0.14092608
000300 3b 53 c8 3e 34 b1 f6 bc 55 0b bd 3e 57 ba bc 3e
       0.39126 -0.030113794 0.36922708 0.36860916
000310 2f be b9 bd 2d 20 31 bd cf 3b 3a 3d 55 b6 d3 3b
       -0.09069478 -0.043243576 0.045467194 0.0064609447
000320 b6 a8 12 be 03 34 15 bf 23 99 93 3d 2c 08 cb 3c
       -0.1432217 -0.5828249 0.07206943 0.02478417
000330 cb 69 96 bd a3 87 a5 be fb 44 c6 bd 26 31 f8 bc
       -0.07344397 -0.32330045 -0.09681126 -0.030296873
000340 d1 27 03 bc e6 a4 e8 bd 97 46 46 3d 11 de 62 be
       -0.008005098 -0.11359577 0.048407163 -0.22155024
000350 9b c8 b1 be a2 c9 de be 18 39 bd 3d e2 8a 1b bf
       -0.34723362 -0.4351321 0.092394054 -0.60758793
000360 83 85 00 3e e6 d7 14 3f f2 8a 90 3e 30 ce 2a 3f
       0.1255093 0.58141935 0.28231007 0.6672087
000370 7d bd d5 bc 75 1a f5 3d fa 19 38 be 73 78 19 be
       -0.026091332 0.11967937 -0.1797866 -0.14987354
000380 e8 a8 2b be c0 8b 97 bf d6 86 99 bd 9d df e4 bf
       -0.16763651 -1.1839523 -0.07496421 -1.7880741
000390 f9 a2 37 3e 6d d2 ee bb f7 c0 a4 bf 6c 30 51 3d
       0.17933263 -0.0072882683 -1.2871388 0.05107157
0003a0 60 1b 37 bf 9d c6 a3 be 1e 99 1a be f0 fa e7 3e
       -0.71526146 -0.31987467 -0.15097472 0.45308638
0003b0 9a 15 3d bf 65 f2 58 be c0 1d 93 be ef 58 15 3d
       -0.73861086 -0.21186216 -0.28733635 0.036461767
0003c0 92 87 80 bd ac 7b 89 bd ff 44 bb 3c b8 5d 8b 3f
       -0.06275858 -0.06713042 0.022860048 1.0887976
0003d0 21 ba c2 3e 20 57 86 3f f4 ad 05 3e 5e 8a a4 3f
       0.3803263 1.0495338 0.13054639 1.2854726
0003e0 97 d9 28 bf 28 94 f6 be e0 3f 6a 40 e2 ae 7f be
       -0.65957016 -0.4815991 3.6601486 -0.24969056
0003f0 20 61 ca 3d 64 7a 35 bd d7 cf 30 be f6 6f f3 bd
       0.098818064 -0.044306174 -0.17266785 -0.11886589

model.sole_model.model.func.layer0_convnet.conv.tp.output_mask f4 [128]
000000 00 00 80 3f 00 00 80 3f 00 00 80 3f 00 00 80 3f
       1.0 1.0 1.0 1.0
000010 00 00 80 3f 00 00 80 3f 00 00 80 3f 00 00 80 3f
       1.0 1.0 1.0 1.0
000020 00 00 80 3f 00 00 80 3f 00 00 80 3f 00 00 80 3f
       1.0 1.0 1.0 1.0
000030 00 00 80 3f 00 00 80 3f 00 00 80 3f 00 00 80 3f
       1.0 1.0 1.0 1.0
000040 00 00 80 3f 00 00 80 3f 00 00 80 3f 00 00 80 3f
       1.0 1.0 1.0 1.0
000050 00 00 80 3f 00 00 80 3f 00 00 80 3f 00 00 80 3f
       1.0 1.0 1.0 1.0
000060 00 00 80 3f 00 00 80 3f 00 00 80 3f 00 00 80 3f
       1.0 1.0 1.0 1.0
000070 00 00 80 3f 00 00 80 3f 00 00 80 3f 00 00 80 3f
       1.0 1.0 1.0 1.0
000080 00 00 80 3f 00 00 80 3f 00 00 80 3f 00 00 80 3f
       1.0 1.0 1.0 1.0
000090 00 00 80 3f 00 00 80 3f 00 00 80 3f 00 00 80 3f
       1.0 1.0 1.0 1.0
0000a0 00 00 80 3f 00 00 80 3f 00 00 80 3f 00 00 80 3f
       1.0 1.0 1.0 1.0
0000b0 00 00 80 3f 00 00 80 3f 00 00 80 3f 00 00 80 3f
       1.0 1.0 1.0 1.0
0000c0 00 00 80 3f 00 00 80 3f 00 00 80 3f 00 00 80 3f
       1.0 1.0 1.0 1.0
0000d0 00 00 80 3f 00 00 80 3f 00 00 80 3f 00 00 80 3f
       1.0 1.0 1.0 1.0
0000e0 00 00 80 3f 00 00 80 3f 00 00 80 3f 00 00 80 3f
       1.0 1.0 1.0 1.0
0000f0 00 00 80 3f 00 00 80 3f 00 00 80 3f 00 00 80 3f
       1.0 1.0 1.0 1.0
000100 00 00 80 3f 00 00 80 3f 00 00 80 3f 00 00 80 3f
       1.0 1.0 1.0 1.0
000110 00 00 80 3f 00 00 80 3f 00 00 80 3f 00 00 80 3f
       1.0 1.0 1.0 1.0
000120 00 00 80 3f 00 00 80 3f 00 00 80 3f 00 00 80 3f
       1.0 1.0 1.0 1.0
000130 00 00 80 3f 00 00 80 3f 00 00 80 3f 00 00 80 3f
       1.0 1.0 1.0 1.0
000140 00 00 80 3f 00 00 80 3f 00 00 80 3f 00 00 80 3f
       1.0 1.0 1.0 1.0
000150 00 00 80 3f 00 00 80 3f 00 00 80 3f 00 00 80 3f
       1.0 1.0 1.0 1.0
000160 00 00 80 3f 00 00 80 3f 00 00 80 3f 00 00 80 3f
       1.0 1.0 1.0 1.0
000170 00 00 80 3f 00 00 80 3f 00 00 80 3f 00 00 80 3f
       1.0 1.0 1.0 1.0
000180 00 00 80 3f 00 00 80 3f 00 00 80 3f 00 00 80 3f
       1.0 1.0 1.0 1.0
000190 00 00 80 3f 00 00 80 3f 00 00 80 3f 00 00 80 3f
       1.0 1.0 1.0 1.0
0001a0 00 00 80 3f 00 00 80 3f 00 00 80 3f 00 00 80 3f
       1.0 1.0 1.0 1.0
0001b0 00 00 80 3f 00 00 80 3f 00 00 80 3f 00 00 80 3f
       1.0 1.0 1.0 1.0
0001c0 00 00 80 3f 00 00 80 3f 00 00 80 3f 00 00 80 3f
       1.0 1.0 1.0 1.0
0001d0 00 00 80 3f 00 00 80 3f 00 00 80 3f 00 00 80 3f
       1.0 1.0 1.0 1.0
0001e0 00 00 80 3f 00 00 80 3f 00 00 80 3f 00 00 80 3f
       1.0 1.0 1.0 1.0
0001f0 00 00 80 3f 00 00 80 3f 00 00 80 3f 00 00 80 3f
       1.0 1.0 1.0 1.0

model.sole_model.model.func.layer0_convnet.conv.linear_2.weight f4 [3072]
000000 13 bb f1 bc 87 27 a6 be ff 71 1f 3f 93 23 2f be
       -0.02950815 -0.32452032 0.6228332 -0.17103414
000010 19 e2 4e 3f f9 e4 81 be eb 75 5f 3e ea 69 dc be
       0.8081375 -0.25370005 0.21822326 -0.43049556
000020 c6 8b 02 3f fd df 40 3c 3c b2 b4 3d 2e 59 f1 3d
       0.5099453 0.011772153 0.08823058 0.11784588
000030 3b 64 87 bb a5 25 8c 3d e7 87 06 bf 46 3a e9 3c
       -0.0041318214 0.068431176 -0.5255112 0.02847017
000040 1c c3 9d be 50 f1 dc 3c bc 9e 09 3e a9 ea aa be
       -0.3081292 0.026970536 0.13439459 -0.33382156
000050 26 a4 35 3e 6e fe ba bd e5 84 d2 3c 1d a3 f0 3e
       0.17738399 -0.0913056 0.025698135 0.46999446
000060 d2 85 30 bc 25 12 68 bd 6e 7e 89 be dc 8d 5b 3d
       -0.010774093 -0.05665793 -0.2685427 0.053602085
000070 44 3c 95 3d 71 d6 87 be 95 8a 50 3e b2 35 51 3d
       0.072868854 -0.26530793 0.20365365 0.0510766
000080 d7 02 93 bf 53 17 91 bd a3 d2 8a 3e 7e 62 a4 3d
       -1.1485242 -0.07084527 0.27113828 0.080265984
000090 2d 87 1f bd 06 e1 28 bf 19 d8 71 3e 76 e2 09 c0
       -0.038947273 -0.6596836 0.23617591 -2.154447
0000a0 92 0f a4 3e 36 a2 89 be d3 2b 95 3d 4b 10 44 bf
       0.3204313 -0.2688157 0.072837494 -0.7658736
0000b0 14 b3 c2 3d a1 36 86 be 63 9a 18 bf e4 c0 2d be
       0.09506813 -0.26213554 -0.59610575 -0.16968113
0000c0 bb 72 f8 3e 63 35 17 bf f3 c3 22 3d 80 cf a3 be
       0.48525032 -0.59065837 0.039737653 -0.31994247
0000d0 68 9c 7f 3f a3 06 36 be 14 d9 79 be 04 b8 3f 3e
       0.9984803 -0.17775969 -0.24399215 0.1872254
0000e0 88 c6 c9 3e 2a 02 96 3f 0d 12 8e be 53 4a f9 3e
       0.3940928 1.171941 -0.27748147 0.48689517
0000f0 2d 45 f0 bd ac 74 d7 3e c3 ad 0b bf ce 56 0d be
       -0.11731944 0.420812 -0.54562014 -0.13802645
000100 af e2 29 3d 36 10 50 be b1 9d c7 3e 43 e9 a6 3e
       0.041475948 -0.20318684 0.38987496 0.3259984
000110 1e a6 ac 3e 9c 47 87 bd 89 f3 f8 3c a2 3e 90 bd
       0.33720487 -0.06605455 0.030389564 -0.07043196
000120 5b 4f 20 be 38 f5 35 be c7 41 34 3d 8f 40 63 3d
       -0.15655272 -0.17769325 0.044008043 0.05548149
000130 d7 fd d0 3c 3c 4a 59 3e c4 6c 45 3e 65 06 92 bd
       0.025511665 0.21219724 0.19279772 -0.07130126
000140 99 d5 d4 bd 5e f1 97 be ff 90 c5 3d 44 c0 c6 bb
       -0.10392303 -0.29676336 0.096467964 -0.0060654003
000150 2f b6 0c bf de ed 5d be 81 c2 a2 bd 73 cf 25 3e
       -0.5496549 -0.2167277 -0.07947255 0.16192417
000160 48 b1 7f 3e c0 6c da bd e7 0f ac 3e ed 2d 2e 3e
       0.24969971 -0.10665274 0.33605883 0.17009707
000170 60 5d 86 3e 93 5f 94 bc 48 4b 8e 3e f6 b0 53 3d
       0.26243114 -0.01811198 0.2779181 0.051682435
000180 cb 5c 16 3f df b7 dc 3d 0f b0 28 3f 60 ae 87 3f
       0.5873534 0.10777258 0.65893644 1.060009
000190 5f ba cb bf c1 97 9e be 69 48 47 bf 82 52 65 c0
       -1.5916251 -0.30975154 -0.77844864 -3.5831609
0001a0 a7 49 df 3d 79 29 c8 3e 16 b8 34 be 74 9f 29 bf
       0.1090272 0.3909414 -0.17648348 -0.6625893
0001b0 48 80 dc bf 31 f5 62 be 4c 8f 8d bf d2 61 91 be
       -1.7226648 -0.22163846 -1.1059356 -0.28394943
0001c0 3e d8 1f be 93 fa a2 3d 3f 85 29 be 74 64 6b 3f
       -0.15609834 0.079579495 -0.16554736 0.91950154
0001d0 ef b6 8a 3f 16 bd 52 3f 47 ae 3a 3f d7 2a e3 3e
       1.0837077 0.8231977 0.72922176 0.44368622
0001e0 89 d6 be 3e 74 0b 18 3c ff 97 66 be 8f 74 80 3f
       0.37273052 0.009280074 -0.2251892 1.0035571
0001f0 42 5d 6b bb ac 67 38 bf 9a 0f 0e bf 9c 32 37 3e
       -0.003591374 -0.7203319 -0.55492556 0.178904
000200 0a a7 26 3f 63 df 1a 3e 66 f6 d4 be 82 79 e2 bf
       0.6509863 0.15124278 -0.41594237 -1.7693331
000210 95 45 3f bf 52 6a e4 bd b5 ac 6f bf 33 02 f9 3d
       -0.7471555 -0.111530915 -0.93622905 0.121586226
000220 c2 e7 4f bf d9 d0 0a bf 2d 69 e9 be 96 cf 01 3d
       -0.8121301 -0.54224926 -0.45588055 0.03169211
000230 82 7e a4 3d 49 cd 33 3e 88 4e 23 c0 a1 3b 26 bf
       0.08031942 0.17558779 -2.5516682 -0.64934736
000240 83 4c 87 3f 01 dd a5 be f7 f2 13 bf e7 63 22 bf
       1.0570225 -0.32395175 -0.5779261 -0.6343369
000250 e4 53 80 bd 0f 35 55 3f 9a eb d2 bd cb 94 f8 3e
       -0.06266001 0.83284086 -0.10298844 0.4855102
000260 83 68 52 bf 36 66 20 3e 6d 2c a4 bf 10 2e 02 3f
       -0.8219072 0.1566399 -1.2826058 0.50851536
000270 64 b9 27 3f 3f a3 5a 3f 9f 2d 05 3f 9e 4c 33 be
       0.6551726 0.85405344 0.5202274 -0.17509696
000280 17 ba 1b 40 d4 c3 14 c0 0b 39 8f bf 30 97 bc bf
       2.433233 -2.3244524 -1.1189283 -1.4733639
000290 e1 4f 8e c0 3f 77 82 c0 16 97 b8 3f b6 11 29 3f
       -4.447251 -4.0770564 1.4421108 0.6604265
0002a0 9e be 9b 40 a3 c3 ad 40 e5 25 27 40 68 16 e7 c0
       4.8670187 5.4301314 2.611688 -7.221485
0002b0 e1 89 0f c1 ac 2e 75 3e 6b b6 ba 3f 7a 56 8e 3e
       -8.971162 0.23943585 1.458692 0.2780035
0002c0 ec 12 9a be 1c 02 aa c0 d2 80 16 c0 f5 a6 11 41
       -0.3009256 -5.3127575 -2.3516126 9.103261
0002d0 f1 00 5c c0 45 dc 4e 40 bd 24 5c c0 96 e7 0f bf
       -3.4375575 3.2321942 -3.4397423 -0.5621275
0002e0 f4 c2 66 c0 8c 3c 77 3f 6c 50 10 3f 4a 0e 3a bf
       -3.605649 0.9657676 0.56372714 -0.72678053
0002f0 08 2d aa 3f c3 6a 19 c0 4e d7 00 41 0a 7a 6e c0
       1.3294992 -2.3971412 8.052565 -3.7261987
000300 0e 06 a7 3e 58 e8 16 3d 48 77 d9 3e 36 fd e2 3e
       0.32621807 0.036842674 0.42473817 0.4433381
000310 4b 31 56 3e e6 f9 2c be 99 58 81 be 20 ad 14 be
       0.20917241 -0.16892204 -0.25262907 -0.14519167
000320 71 c2 ce be 2d b4 5d be bb f8 94 bd fb 71 e7 bd
       -0.40382722 -0.21650763 -0.07274004 -0.11301037
000330 d2 d6 c0 bd 6d a3 9b ba 7b 08 ea bd 66 24 10 bd
       -0.09415974 -0.0011874266 -0.11427399 -0.035190962
000340 d7 4b da bd c9 1c a7 be ec d2 a9 be 81 de 1f be
       -0.106589966 -0.3263915 -0.33168733 -0.15612222
000350 2c 43 21 bf 64 0f e5 3e fc 7d 2e bc c5 f6 86 3e
       -0.6299312 0.44738305 -0.010650154 0.26360145
000360 2d 8d 25 3e 0b a0 27 bd 3e bd 23 3f 50 53 2c 3e
       0.16167136 -0.040924113 0.63960636 0.16828656
000370 dd c1 8b bd 8d 51 b2 3e d5 9e c5 3e 16 66 50 bd
       -0.06824086 0.34827843 0.38597742 -0.050878607
000380 ce 05 d6 be d4 f6 c8 3d a0 81 81 3e 13 9f ad 3f
       -0.41801304 0.09812704 0.2529421 1.3564171
000390 f2 7d 8c bf 39 17 61 3d 5f b3 68 3e 40 e8 12 c0
       -1.0975935 0.054953787 0.22724675 -2.2954254
0003a0 55 51 21 3d 34 cb 21 bf c5 f6 1d 3d 93 18 30 bf
       0.039384205 -0.6320069 0.038565416 -0.687875
0003b0 c9 be 09 3e 56 fb 9d bd 96 a8 9c bf 41 3d c2 be
       0.13451685 -0.07713954 -1.2238948 -0.37937358
0003c0 99 c6 60 bf b5 9d b2 be c8 ee 64 3d 63 c5 c4 3c
       -0.87803036 -0.34885946 0.055891782 0.024019903
0003d0 3f 6f b1 3d 9f db 84 bf d1 2c de 3c 27 b5 13 3e
       0.08663797 -1.0379523 0.02712098 0.14424573
0003e0 65 77 f9 3e 4b 21 2d 3f 14 3e 15 bf 3e 26 80 bf
       0.48723903 0.67628926 -0.5829785 -1.001167
0003f0 fd b3 94 3f e7 5f 09 3e a7 79 d8 be 52 69 0e 3c
       1.1617428 0.1341549 -0.42280313 0.0086921025

model.sole_model.model.func.layer0_convnet.conv.linear_2.output_mask f4 [160]
000000 00 00 80 3f 00 00 80 3f 00 00 80 3f 00 00 80 3f
       1.0 1.0 1.0 1.0
000010 00 00 80 3f 00 00 80 3f 00 00 80 3f 00 00 80 3f
       1.0 1.0 1.0 1.0
000020 00 00 80 3f 00 00 80 3f 00 00 80 3f 00 00 80 3f
       1.0 1.0 1.0 1.0
000030 00 00 80 3f 00 00 80 3f 00 00 80 3f 00 00 80 3f
       1.0 1.0 1.0 1.0
000040 00 00 80 3f 00 00 80 3f 00 00 80 3f 00 00 80 3f
       1.0 1.0 1.0 1.0
000050 00 00 80 3f 00 00 80 3f 00 00 80 3f 00 00 80 3f
       1.0 1.0 1.0 1.0
000060 00 00 80 3f 00 00 80 3f 00 00 80 3f 00 00 80 3f
       1.0 1.0 1.0 1.0
000070 00 00 80 3f 00 00 80 3f 00 00 80 3f 00 00 80 3f
       1.0 1.0 1.0 1.0
000080 00 00 80 3f 00 00 80 3f 00 00 80 3f 00 00 80 3f
       1.0 1.0 1.0 1.0
000090 00 00 80 3f 00 00 80 3f 00 00 80 3f 00 00 80 3f
       1.0 1.0 1.0 1.0
0000a0 00 00 80 3f 00 00 80 3f 00 00 80 3f 00 00 80 3f
       1.0 1.0 1.0 1.0
0000b0 00 00 80 3f 00 00 80 3f 00 00 80 3f 00 00 80 3f
       1.0 1.0 1.0 1.0
0000c0 00 00 80 3f 00 00 80 3f 00 00 80 3f 00 00 80 3f
       1.0 1.0 1.0 1.0
0000d0 00 00 80 3f 00 00 80 3f 00 00 80 3f 00 00 80 3f
       1.0 1.0 1.0 1.0
0000e0 00 00 80 3f 00 00 80 3f 00 00 80 3f 00 00 80 3f
       1.0 1.0 1.0 1.0
0000f0 00 00 80 3f 00 00 80 3f 00 00 80 3f 00 00 80 3f
       1.0 1.0 1.0 1.0
000100 00 00 80 3f 00 00 80 3f 00 00 80 3f 00 00 80 3f
       1.0 1.0 1.0 1.0
000110 00 00 80 3f 00 00 80 3f 00 00 80 3f 00 00 80 3f
       1.0 1.0 1.0 1.0
000120 00 00 80 3f 00 00 80 3f 00 00 80 3f 00 00 80 3f
       1.0 1.0 1.0 1.0
000130 00 00 80 3f 00 00 80 3f 00 00 80 3f 00 00 80 3f
       1.0 1.0 1.0 1.0
000140 00 00 80 3f 00 00 80 3f 00 00 80 3f 00 00 80 3f
       1.0 1.0 1.0 1.0
000150 00 00 80 3f 00 00 80 3f 00 00 80 3f 00 00 80 3f
       1.0 1.0 1.0 1.0
000160 00 00 80 3f 00 00 80 3f 00 00 80 3f 00 00 80 3f
       1.0 1.0 1.0 1.0
000170 00 00 80 3f 00 00 80 3f 00 00 80 3f 00 00 80 3f
       1.0 1.0 1.0 1.0
000180 00 00 80 3f 00 00 80 3f 00 00 80 3f 00 00 80 3f
       1.0 1.0 1.0 1.0
000190 00 00 80 3f 00 00 80 3f 00 00 80 3f 00 00 80 3f
       1.0 1.0 1.0 1.0
0001a0 00 00 80 3f 00 00 80 3f 00 00 80 3f 00 00 80 3f
       1.0 1.0 1.0 1.0
0001b0 00 00 80 3f 00 00 80 3f 00 00 80 3f 00 00 80 3f
       1.0 1.0 1.0 1.0
0001c0 00 00 80 3f 00 00 80 3f 00 00 80 3f 00 00 80 3f
       1.0 1.0 1.0 1.0
0001d0 00 00 80 3f 00 00 80 3f 00 00 80 3f 00 00 80 3f
       1.0 1.0 1.0 1.0
0001e0 00 00 80 3f 00 00 80 3f 00 00 80 3f 00 00 80 3f
       1.0 1.0 1.0 1.0
0001f0 00 00 80 3f 00 00 80 3f 00 00 80 3f 00 00 80 3f
       1.0 1.0 1.0 1.0
000200 00 00 80 3f 00 00 80 3f 00 00 80 3f 00 00 80 3f
       1.0 1.0 1.0 1.0
000210 00 00 80 3f 00 00 80 3f 00 00 80 3f 00 00 80 3f
       1.0 1.0 1.0 1.0
000220 00 00 80 3f 00 00 80 3f 00 00 80 3f 00 00 80 3f
       1.0 1.0 1.0 1.0
000230 00 00 80 3f 00 00 80 3f 00 00 80 3f 00 00 80 3f
       1.0 1.0 1.0 1.0
000240 00 00 80 3f 00 00 80 3f 00 00 80 3f 00 00 80 3f
       1.0 1.0 1.0 1.0
000250 00 00 80 3f 00 00 80 3f 00 00 80 3f 00 00 80 3f
       1.0 1.0 1.0 1.0
000260 00 00 80 3f 00 00 80 3f 00 00 80 3f 00 00 80 3f
       1.0 1.0 1.0 1.0
000270 00 00 80 3f 00 00 80 3f 00 00 80 3f 00 00 80 3f
       1.0 1.0 1.0 1.0
