MLIPs/CACE-LES/Au-MgO-Al/caceles-r-5.5-nl-1-nu-3/best_model.pth (torch, 354722 bytes, 19 tensors)

embedding_weights f4 [4, 4]
00000000: 8c0e 253e 9acc c13e df2d b3bd 60ca 8b3e
00000010: 1144 a8bd fe1a bdbe 1735 e6bd eb4f 8f3e
00000020: aa6f 3c3d d58e 0ebf 9481 6e3f 2d77 823e
00000030: b608 5b3f a1ab 87be 17bb 0fbe 4a16 58be
0.1611883 0.3785141 -0.087489836 0.27302837 -0.08216108 -0.36934656 -0.11240595 0.2799066
0.04600493 -0.55686694 0.9316647 0.2548155 0.85560167 -0.2649813 -0.14036213 -0.21102253

embedding_weights f4 [4, 4]
00000000: 4499 1b3e 368a 313e 6c6e 2a3c 5b51 0eb9
00000010: c13f f23a efb5 073e ac3a 573b 5e6e 703e
00000020: 7bed 4f3c ffc0 9b3e e528 c5bc 4465 9abc
00000030: 7fb0 58bb 81f9 153d 6410 b53e 0d93 65bb
0.15195185 0.1733788 0.010402303 -0.00013572483 0.0018482135 0.13252996 0.0032841368 0.23479602
0.012690897 0.30420682 -0.024067352 -0.018847115 -0.0033064184 0.0366149 0.35364068 -0.0035030276

bessel_weights f4 [6]
00000000: 233e b83e 9aa4 853f 018e e43f be66 1140
00000010: 4285 4140 c61b 5a40
0.35984907 1.0440857 1.7855836 2.271896 3.0237584 3.4079452

0 f4 [6, 12, 16]
00000000: 1eeb 8bbc 5a4b 813a d02a a03d f9c2 2cbc
00000010: 9b5a 293d 153b fe3e e01d 8340 76a8 323c
00000020: c0a2 8cbc b8fb a8ba 9b77 473b 12f4 c83d
00000030: 3e9e 0a3b ea02 5bbe 4ba3 6d3b 2282 023b
00000040: 2770 13bb a54a 0ebe bcd0 3ebc 9758 eb3c
00000050: cf86 62bb 1ab9 293d c75f 6a3c f964 1b3c
00000060: 5894 1dbc ac82 033b ff9e 0bbc afbc be3c
00000070: df62 533c fc2d 743b 0ad0 123e c34f 08bc
00000080: 075a 16bc 8c49 76bb b670 21ba 93fc aeba
00000090: 6209 d8bb 2a8f 923e 6e40 033e 4043 263c
000000a0: 65d8 3dbc 399d be3a 5c8a a43b 1981 8dbc
000000b0: a595 d03d caad 4bbe f999 053a 92f3 0eba
000000c0: 9ee4 0f3a 2f71 523b c13d bf3e 5a8d 913f
000000d0: bce4 d83b 2eb3 bb3e 6ce7 e2bd 41b7 25bd
000000e0: a518 dcbb c7ec e8ba 4174 f53b c0a0 1ebb
000000f0: adf5 b83d 17a4 993f 3be6 7cbb 06a4 0e3c
00000100: 3ae8 c839 5185 40bb 444a 593c 06c8 7d3c
00000110: 48d3 9a40 5783 353d 5eac 8ebc 7d21 553d
00000120: 4c07 5a3f e17a e5ba 773f 193e d172 593d
00000130: fa05 12bc d146 453c 4425 d53b fdb6 7b3b
00000140: 33e0 29bc 3c23 583e 483f 44bd 9846 41bb
00000150: 04b6 e43b c7c1 d13c b176 bc40 1b10 84bd
00000160: 32ad 633b b5e5 823d 4adf a0bb 5ba4 bf3b
00000170: ef28 e4bb 17f3 463e dbd8 8dbb 3dbd c13b
00000180: 0435 80bb 0a38 133b f821 173d e20d efbb
00000190: b346 ecba ad3a 4840 808d ea3b f724 66bd
000001a0: c867 5ebc 4cfa dcbb 5433 173e 8efc df3c
000001b0: 9450 ea3b 55fd d7b9 e12b c33a d472 8d3c
000001c0: dd8a 8b3c 4e6f d3bb 31bc 0dbf 1582 c7bb
000001d0: 117e a13c a4f0 f33c 4590 ab3b ea87 0ebc
000001e0: 9289 823b e708 8ebb 67ba 04bc efa2 073d
000001f0: e6a5 babd d82f 07bc 58f5 e93d 3904 c83c
00000200: bad4 343c 27e3 17bb 42de a23a b7de 163e
00000210: 0ef8 9cbc 489f a93e 2eb1 0e41 062d 8dbb
00000220: ec65 1f3b dacc d6bb 21ee ac3b adc8 e13b
00000230: 03ca e3bb b9a4 a3ba 7edd a93c 56e7 db3c
00000240: 9e59 eeb9 228f 1abb 43a1 f43d 231e 633c
00000250: abe3 b2bc 22f9 9bbd e53a 12bc 0feb 2f3d
00000260: 4085 ffbb a9cf 813a f5ee 593f 0ed2 ddbb
00000270: e5bd b23a 75cf 9bbc 5058 2c3b 4b5f 083c
00000280: 59d5 703c b1b1 b53c 313b 9fbc a56c 36bb
00000290: f069 763c f556 50bd 1781 9bbc b779 603d
000002a0: 3eee 333d 53b8 25bc b8d1 b03b 65a9 753b
000002b0: bc99 bcbb 74e8 e4bb a6ba 74ba 54de 81bb
000002c0: a02d d2be b1a7 3ebf 7f83 1ebb 2712 733c
000002d0: 13d2 9bbc 9941 2bbc 79ca fe3b e774 e33b
000002e0: b7df 8f3b 52b2 c8bb d94f d43d 1123 a33c
000002f0: abbe 873c 531b e2bb 8569 d03b d43e 933c
00000300: 310f 10ba 2074 303b 5e7e 6e3e 45ea e43c
00000310: 44ae 6c3d 1a48 7ebf a704 ccbf c013 453d
00000320: 9c6b 3f3d d618 9e3c c3ca a03d 8f2b c13d
00000330: 9871 033e 5568 303f 1fbf 4d3f 6d85 a1bd
00000340: 93e0 af3c 0179 8640 c983 313e a664 ca3d
00000350: 5077 063d 08c8 9f3e 1d2b c9bc 307f 793e
00000360: e568 733d d7a7 f63b fc6c ce3c 056a a2bd
00000370: b645 113c 1529 e73c c931 6b40 f32a d83d
00000380: b6f7 333c e1b7 69bc e383 553d 4881 f1bc
00000390: 54e1 853e fc28 d63f 1595 7abe da7b 823d
000003a0: 0fc4 753d 2492 3fbd 353e f93c 84eb d63d
000003b0: b654 683e ef08 0740 5899 173c 82d2 b6bd
000003c0: 7dd5 0f3d c15a 4f3b b8dd a3bf f9bd 40bf
000003d0: c563 053d 13db 0840 c96e aa3f 4678 273d
000003e0: 0f67 793c 8d51 733c e8ec 423d b320 49bb
000003f0: 70b6 e33f 377e e1be 55ac 213c 37b7 b5bd
-0.017079886 0.0009864375 0.07820666 -0.010544532 0.041346174 0.4965445 4.097397 0.010904422
-0.017167449 -0.0012892401 0.003043628 0.09812178 0.0021151449 -0.2138783 0.003626066 0.001991399
-0.0022497268 -0.13895662 -0.011646446 0.028728766 -0.0034565215 0.041436292 0.014305062 0.009484523
-0.009617887 0.00200669 -0.008521794 0.02328333 0.012901991 0.0037258854 0.14337173 -0.008319798
-0.009176738 -0.0037580458 -0.0006158458 -0.001335042 -0.0065929154 0.2862485 0.12817547 0.01014787
-0.011587237 0.0014542706 0.0050213765 -0.017273473 0.101847924 -0.19890514 0.0005096491 -0.0005453165
0.00054890837 0.003211092 0.37351802 1.1371262 0.006619064 0.3666014 -0.110792965 -0.040457968
-0.006716805 -0.001777076 0.007490665 -0.0024204701 0.09031234 1.2003201 -0.0038589376 0.008706098
0.00038319995 -0.0029376338 0.013262335 0.015489584 4.838291 0.04431471 -0.017416175 0.05203389
0.85167384 -0.0017507934 0.14965616 0.053088013 -0.008912558 0.01204081 0.0065046865 0.003840863
-0.010368395 0.21107191 -0.047911912 -0.002949154 0.0069797058 0.025605096 5.8894887 -0.064483844
0.0034740684 0.063914694 -0.0049094306 0.00584845 -0.0069628875 0.19428669 -0.0043288297 0.0059124515
-0.00391257 0.0022463822 0.03689763 -0.007295356 -0.0018026441 3.1285813 0.0071579814 -0.056187596
-0.013574548 -0.006743705 0.14765674 0.027342107 0.007150719 -0.00041196743 0.0014890396 0.017266668
0.017033989 -0.0064524775 -0.5536528 -0.006088505 0.019713433 0.029777832 0.005235704 -0.008699397
0.003983685 -0.0043345573 -0.008101082 0.03311437 -0.09113674 -0.008251153 0.11423749 0.024416076
0.011037046 -0.0023176165 0.0012425857 0.14733396 -0.01916125 0.33129334 8.918257 -0.0043083457
0.0024322225 -0.006555182 0.0052774106 0.0068903775 -0.006951572 -0.0012485004 0.020735499 0.026843708
-0.00045461667 -0.002358385 0.11944821 0.013862166 -0.021837076 -0.07615878 -0.008925174 0.04294878
-0.007797867 0.0009903806 0.85130244 -0.0067694252 0.0013636915 -0.019019822 0.0026297756 0.008323501
0.014699304 0.022179456 -0.019437404 -0.0027835753 0.015039906 -0.05086418 -0.018982453 0.054803576
0.043928377 -0.010114747 0.005396094 0.0037485 -0.0057556313 -0.0069857184 -0.0009335674 -0.003963271
-0.41050434 -0.74474627 -0.0024187264 0.014835871 -0.01902107 -0.010452651 0.0077756015 0.006941426
0.0043906826 -0.006124773 0.10366792 0.019914182 0.01657041 -0.00690023 0.006360235 0.017974295
-0.0005495428 0.0026924685 0.23290393 0.02794374 0.05778338 -0.9932877 -1.593892 0.04811454
0.046733484 0.019298952 0.07851174 0.09432136 0.12836301 0.689092 0.8036975 -0.07886777
0.02146939 4.202271 0.17335428 0.098824784 0.03282863 0.312073 -0.02455669 0.24364924
0.059426207 0.0075273323 0.025198452 -0.07930378 0.008866718 0.028217832 3.6749136 0.10555067
0.010984352 -0.014265032 0.05212773 -0.029480591 0.26148474 1.6731257 -0.24470933 0.06371279
0.06000143 -0.04677023 0.03042517 0.1049414 0.22688565 2.1099203 0.009252869 -0.0892687
0.035115708 0.0031639787 -1.2802038 -0.75289875 0.03256585 2.1383712 1.3315059 0.040886186
0.015222325 0.014850986 0.047589213 -0.0030689656 1.779005 -0.44041607 0.009867747 -0.08872836

1 f4 [6, 12, 16]
00000000: 160a 9fbd fadf 883f fb39 2441 5374 ae40
00000010: df0d 2fc1 901f 6bc0 bc28 fbbf c140 5740
00000020: ee29 b53f c428 1a3e 566a afbf 9cd9 1bc0
00000030: 51cb 2c40 233a 26bf ee51 e0bd 94fa d43f
00000040: 6f7b f6c0 aae2 0141 6dfa e63d c84d 7140
00000050: 216c 55c1 d37b 13bf 1da8 f43f 3c6b bf40
00000060: 24fd 723d 435d 40c0 2825 613f 8d96 093e
00000070: 73c9 9bbf 640b e13d 5b18 11bf a80e c240
00000080: 3e7a 0740 84a8 bf38 7079 e2bf 669b fe40
00000090: 4d8f 59bf b1aa 653e bf1b 9140 b664 f63f
000000a0: 47a5 11be c200 04bf 16ee 743d 2847 be40
000000b0: 9762 6d3f fd3b e6be 856f 49bd c1ea 7dbb
000000c0: 6a59 16bf 932a ce40 6964 ae3e 7ba4 b2bd
000000d0: 65b0 9ebf 7f01 8fbc 44de 27c1 6f31 e43f
000000e0: 302a 56bf b06a b3be 6326 b7bd 7849 26be
000000f0: 2e18 273f a2ca 22bf 76ac 0640 ee54 8cbe
00000100: 2ce2 bcbf 5a49 63c0 a5cb a33e 63b7 8b40
00000110: fa60 05c0 cc84 ae40 bff2 4bc1 de0f 0041
00000120: 4ea9 2640 60f8 6cbb 50ec c0be 15bb 8340
00000130: 43b6 5840 85fc 933f 5fe0 8d3f 2b04 883f
00000140: cca6 683f 0ad6 97c0 6ece 5f40 6e5d 3cc0
00000150: 2e8e bcbe 7170 2841 cbee 21be 2b06 2b3e
00000160: 9188 07be d503 223e 0b13 5f3e 25ac 8ebf
00000170: 3520 3cbe 6930 efbf 2f68 fcbf 9b38 423f
00000180: 2970 76c0 325d 9c3b b35e 1f3e 73a5 0241
00000190: 7cb8 abc0 f90b e2c0 23fc ca40 7d25 043f
000001a0: a703 ebbd 3812 5fbe 4e49 993e 649d d33f
000001b0: 0d63 bf3f 3bb7 1ebf 2bbd 3840 d62d a8bf
000001c0: d0ff cbbf d697 d640 0480 663e c33c f1bf
000001d0: f70f be40 6dcf 53c0 b997 723d 428d 1641
000001e0: 771b b6be 29bc e040 7030 f83c 8bf2 6d40
000001f0: 02b6 bfbd 5491 98be e4c4 f83f 33d7 a5bf
00000200: 91c6 88c0 6303 ed3f e1cd d13d cfb8 6840
00000210: ba27 46bf 7061 9fc0 8c7d a140 1fd9 643f
00000220: f089 04c0 91f6 e73b e2c5 8e40 9386 ab3d
00000230: 9652 a0be 0750 cbbf 88d0 0fbf b843 c73f
00000240: df6a c940 f7bd 0abf cc8e 8c3f 551d 9fc0
00000250: 4794 e540 018b a2c0 407a 853e 8438 3b40
00000260: 74e2 b13c 4582 9440 2f16 bc3d 4c30 26be
00000270: 3b65 e63f e53c 11bf bf7a aa40 d3db a03f
00000280: c460 b140 3351 643f e2aa 9240 c437 373f
00000290: 7e6d 25be 6671 a6c0 19f6 14c1 acb6 1c41
000002a0: 48a1 96bf 6823 e43e 15fe 293f 31e9 03c0
000002b0: e6a5 99bf b04b 6840 055e 0140 661b d3be
000002c0: c246 fd40 e509 e4bb ad37 e13d 9c45 253f
000002d0: c98b 9abf 4a9f a340 342b 99bf fbda 3b41
000002e0: ef0a 7140 9e36 08be 9e03 cebf 1f0f 0540
000002f0: 9e77 be3d 96e4 dfbf d614 2abd 4c9e 26bf
00000300: 350c 053e 787c 33c0 846a 193f e6bb 53c0
00000310: 7f61 7ac0 54c6 ae3f 2ffe 3cc0 1835 9d40
00000320: 6b9a 3dc0 4533 163f 64c5 9d3f 66f6 a63f
00000330: 9c8b 2d3f d35a 4ec0 e41b ca3d d550 8dc0
00000340: aa49 5e40 dd5b 4fc0 daf2 423e 4ef7 74c0
00000350: f4a6 8d40 6ce9 04be c0c8 e7bf d878 1b40
00000360: c998 cb3f ecd0 bd40 a2fd 22c0 bffc 953d
00000370: 2b5b ef40 aded c6bf 37d8 ee3f 767f 333f
00000380: 5fe2 553f 3608 2dba 7d6c 2c40 2505 84c0
00000390: 80d6 293f b773 d43e 959f 64c0 b6d0 05c1
000003a0: 1515 b23f 27bb c03e 5981 003c 1d83 9ebe
000003b0: 4258 4d40 c27b 7040 752c da3d 8772 cb40
000003c0: 0b5a ad40 38ca 40c0 0e75 c03f 29cb 1141
000003d0: 9a45 0140 6c70 c23b 00fc a4bf ae11 94c0
000003e0: c2a2 c83f 1f42 55bf b27f 93c0 4c4f e0be
000003f0: 40e5 e13f 1734 5940 58b7 86c0 1e0d 6ec0
-0.077655956 1.0693352 10.264155 5.4516997 -10.9408865 -3.6738014 -1.9621806 3.3633273
1.4153421 0.15054613 -1.3704326 -2.4351568 2.6999094 -0.6493246 -0.10953127 1.663897
-7.7025676 8.117838 0.11278234 3.7703724 -13.338899 -0.57610816 1.9113804 5.98184
0.059323445 -3.0056922 0.8794732 0.13436337 -1.2170852 0.10988501 -0.5667779 6.064289
2.116836 9.138978e-05 -1.769331 7.9564695 -0.84984285 0.22428395 4.534637 1.9249485
-0.14223205 -0.51563656 0.05979737 5.946186 0.9272856 -0.44967642 -0.04917862 -0.003874466
-0.58730185 6.442697 0.34060982 -0.087227784 -1.2397581 -0.017456768 -10.491764 1.7827586
-0.83658123 -0.35042334 -0.089428686 -0.16238964 0.6527127 -0.63590443 2.1042762 -0.27408546
-1.4756522 -3.551352 0.31991306 4.366136 -2.084044 5.4537106 -12.746764 8.003874
2.6040835 -0.0036158785 -0.37680292 4.116587 3.3861244 1.1561438 1.1084098 1.0626272
0.9087951 -4.744878 3.4969745 -2.9432025 -0.36827224 10.5274515 -0.15813749 0.16701572
-0.1323569 0.15821774 0.21784608 -1.1146284 -0.18371661 -1.8686649 -1.9719294 0.75867623
-3.8505957 0.004771852 0.15563469 8.165393 -5.36627 -7.0639615 6.3432784 0.516197
-0.11475306 -0.21784294 0.2993874 1.6532407 1.4952103 -0.6199834 2.886546 -1.3138988
-1.5937443 6.7060347 0.22509772 -1.8846668 5.939449 -3.3095353 0.059226725 9.409487
-0.3556783 7.022969 0.030296534 3.7179286 -0.09360887 -0.29798377 1.9435086 -1.2956299
-4.274239 1.8516659 0.102443464 3.6362798 -0.7740437 -4.980644 5.0465755 0.893938
-2.070919 0.0070789536 4.4616556 0.08375277 -0.31313008 -1.5883797 -0.5617757 1.5567541
6.294296 -0.54196113 1.0981078 -4.9723306 7.1743503 -5.0794683 0.26069832 2.9253244
0.021714427 4.640902 0.09183919 -0.16229361 1.7999643 -0.5673354 5.3274837 1.2567085
5.543062 0.891864 4.5833597 0.71569467 -0.16155049 -5.2013426 -9.310082 9.794598
-1.1767969 0.44558263 0.66403323 -2.0611079 -1.2003753 3.6296196 2.0213635 -0.4123184
7.9148874 -0.0069591873 0.109969474 0.6455934 -1.2073909 5.1131945 -1.196631 11.740962
3.7662923 -0.13302085 -1.6094854 2.079048 0.09300159 -1.7491634 -0.041523777 -0.6508529
0.12992938 -2.804472 0.59928155 -3.3083434 -3.9122007 1.3654275 -2.9530141 4.912731
-2.96255 0.5867198 1.2325864 1.3043945 0.6779115 -3.2242935 0.09868601 -4.416117
3.473246 -3.239982 0.19037953 -3.8275943 4.42663 -0.12979668 -1.8108139 2.4292507
1.5906001 5.931753 -2.5467305 0.07323598 7.479879 -1.5541283 1.8659734 0.70116365
0.8354854 -0.000660065 2.6941216 -4.125628 0.66342926 0.41494533 -3.57224 -8.363455
1.3912684 0.37642786 0.007843339 -0.30959406 3.2085118 3.7575536 0.10653011 6.3577304
5.4172416 -3.0123425 1.5035722 9.1121 2.0198731 0.005933812 -1.2889404 -4.627158
1.567467 -0.8330402 -4.609338 -0.438105 1.7648087 3.3938043 -4.209881 -3.7195506

2 f4 [6, 12, 16]
00000000: d5ac 513c c5cd 08c0 f08b 3040 565f 04c0
00000010: 5d05 a640 2c61 e5c0 dbc0 b740 1665 a33f
00000020: 1348 1cbf 52e7 963d 9a97 3dbd 4655 2dbf
00000030: 9c05 e13f f7d1 603f bfdf 543a 273e aebd
00000040: 3c01 623f c89e 8f40 fb2e 733f 5c6d 6bbe
00000050: 828d b53f 289c 643e 80f9 a640 b703 9740
00000060: 5752 853e ee7a 073e 4b19 883f 8057 f53f
00000070: a4cf d5bf a8b4 2dbf 7b5e cb3f 789b a9bf
00000080: 6cfb dcbf c20c 3d3b f5f6 123e d3b5 923f
00000090: 1cc4 23be d74f 88be 09d0 dd40 cadf 9c40
000000a0: 80c2 ca3c 0d59 88bf 078e 21bd bb9d cbbf
000000b0: f359 a63e 1642 293f ab03 b7bc 7413 81be
000000c0: 54df 1a40 b9b4 a23f a8f4 b23d a6f5 6f40
000000d0: 48e4 693e 6a4f 4e3d 17b2 31c0 569e da40
000000e0: 9376 613f cbd9 06bf b6f7 803f 3eb6 1dbf
000000f0: c9b7 a93f c49a d03e 2001 ef3f 8c6d e7be
00000100: a277 943e fe5e 803f 10ec a33e 2133 9340
00000110: a11f 52bf f9a5 f340 b5c5 4cbf 117a bf40
00000120: a36c 1a40 dd16 bfbb 3e68 ac3f 5e9a 5f3f
00000130: cc3b 9dbe dfc5 5fbe 8aa1 24bd 28d2 893f
00000140: eb1b f0bd a870 05bf f222 223e 4ab4 ddbf
00000150: 721d 823e c898 39c1 b5d9 dfbe 876f 6fbf
00000160: a72d f93c a750 033e b0ef ed3f 7b7f a93f
00000170: 4421 9a3f a2a9 873f 5ff9 d23f 8cfa 843f
00000180: eb35 4340 a1e2 c23f 4c7f 2e3e c36b cd40
00000190: 96c3 ca3f af26 dd40 674f 6e40 1e05 7d3c
000001a0: 0544 f03d a5ec 163f 70c4 cc3d c0f0 3840
000001b0: dbf2 2fbf 82a2 003f d036 c13e 04fc 76bf
000001c0: 84c3 0440 f94f 0740 b49d 913f bce1 91bf
000001d0: 229e 0941 4cf1 3140 d1f7 a73c 84e7 1dc1
000001e0: 7a70 1940 eabc 1140 1057 1540 6d74 2dbf
000001f0: 5228 5d3f bcbb 07bf 8bd1 dc3f a0a5 c53f
00000200: 13f0 d0bf b4e2 7c3e b0e2 e53e 248d 7540
00000210: 7cde ffbb e497 9b3f 1890 e53f 7dbf de3e
00000220: be34 9f3e 14db fd3c 5206 1140 a4de a9be
00000230: 4c3b f03e d419 cebd 39d3 123d c8a9 533f
00000240: 68b5 ac3f 5196 7340 59dc 90bf baa4 d73f
00000250: 5f8f 4e3f 248f d340 6e85 3b40 f0bd dbc0
00000260: a9fb efbf 3dd8 73bf c0f5 0d3b 2c32 853e
00000270: 6876 a2bf e998 30bf 144d 0340 2e3f 5a3e
00000280: 4f19 a940 b49c d33f cf96 3ac0 62d0 0e3e
00000290: 228e a0bd 1abc f640 6c4c 6dc1 e215 87bc
000002a0: dd64 863d 7b20 963e 2aa0 ba3f fff2 943e
000002b0: 24e5 643f f9ba 1040 acc2 6240 8757 763d
000002c0: 8507 38c0 6f3b ab3a 774a 593f 7efe 13c0
000002d0: 779c 83c0 086f f440 b782 9940 e021 4141
000002e0: fd9e 05be 874c 1c40 3a0e 9dbf 5dfd 5d3c
000002f0: 38fa 9d3e 9d9b f83f 2a62 083d 7a63 0a3f
00000300: c8d5 ed3c 3d9c fd3f 86a3 d7bf dbdd 8240
00000310: 8885 c73f 5ba7 733e 24d4 dcbf 3c93 a93e
00000320: d8c3 993f b0b0 8a3e 453d 2f40 41da 3040
00000330: 0544 af3d 4b79 76c0 21de 743c 5478 f33f
00000340: 00bf 6cc0 9403 40c0 6994 9dbd e05b c3bd
00000350: a3e8 33bf 3202 533e 3e57 08c0 fc62 823f
00000360: 4370 853f d113 1dc0 3466 81bf 18df 88c0
00000370: 48ad f740 920c aa40 bf13 0fbf 2069 5240
00000380: f5c4 8b40 7019 7b3a 2cae d63e a39e 7cc0
00000390: 6026 983e 119f 863f be1a aa40 0be1 d5bf
000003a0: cae3 9c3c c47d a840 126f d0bc 6178 ba40
000003b0: 2c88 6e3f 28ff b2bf ac2d a43b 8b26 ce40
000003c0: 7fe9 a4bf b130 95c0 e362 cf3e 14bd 22c0
000003d0: 1530 803f b7ea c13e 5a2f eebf 0920 37c0
000003e0: 0649 01bf 7c09 1e40 d5d1 b63f e453 3fbe
000003f0: 92f1 a7c0 6f68 a83e 6373 503e 3faf 79c0
0.012797554 -2.1375592 2.758541 -2.0683188 5.1881547 -7.168112 5.742292 1.2765224
-0.61047477 0.073683396 -0.046287157 -0.6770824 1.7579837 0.8782038 0.0008120499 -0.08507948
0.88283134 4.4881325 0.9499356 -0.22990936 1.418381 0.22325194 5.2179565 4.7192035
0.26039383 0.13230488 1.0632719 1.9167328 -1.6703992 -0.67853785 1.5888208 -1.325057
-1.7264228 0.0028846716 0.14352019 1.1461738 -0.15992779 -0.26623413 6.931645 4.902318
0.024750948 -1.0652176 -0.03944209 -1.590751 0.324905 0.66116464 -0.022340616 -0.25210154
2.4198809 1.2711402 0.08738071 3.7493682 0.22840989 0.050368704 -2.7764947 6.831828
0.88071555 -0.52676076 1.0075595 -0.61606205 1.3259212 0.40743077 1.8672218 -0.45200765
0.28997523 1.0028989 0.3201604 4.5999913 -0.8207951 7.6140103 -0.79989177 5.9836507
2.4128807 -0.005831583 1.3469312 0.8734492 -0.30709684 -0.21852826 -0.04019312 1.076726
-0.11724075 -0.52125025 0.15833643 -1.7320645 0.2541309 -11.5998 -0.43720785 -0.9352955
0.030417277 0.12823735 1.8588772 1.3242029 1.2041402 1.0598643 1.6482352 1.0388961
3.050166 1.5225412 0.17040747 6.4194045 1.5840938 6.910972 3.7235963 0.015443115
0.11731724 0.5895484 0.09998405 2.8896942 -0.68729943 0.5024797 0.3773713 -0.96478295
2.0744333 2.1142561 1.1376252 -1.1397014 8.601107 2.7803526 0.02050391 -9.869022
2.39749 2.2771554 2.3334389 -0.67755777 0.8638965 -0.53020835 1.7251447 1.544117
-1.6323265 0.24695855 0.4489951 3.8367395 -0.0078085046 1.2155728 1.7934599 0.4350547
0.31094927 0.030988254 2.2660108 -0.33177674 0.4692024 -0.1006352 0.03584597 0.8268094
1.3492861 3.8060496 -1.1317245 1.6847146 0.80687517 6.611223 2.930019 -6.8669357
-1.8748676 -0.9525183 0.002166137 0.2601484 -1.2692385 -0.6898332 2.0515795 0.21313164
5.2843394 1.6532197 -2.9154546 0.13946679 -0.0783961 7.7104616 -14.831158 -0.016489927
0.06562207 0.29321656 1.4580128 0.2909164 0.8941214 2.261412 3.5431318 0.060142066
-2.875459 0.0013063977 0.8487925 -2.312408 -4.1128497 7.6385536 4.7972064 12.07077
-0.1304893 2.4421709 -1.2269967 0.013549176 0.30854964 1.942249 0.03329674 0.5405804
0.029032603 1.9813305 -1.6846778 4.089582 1.5587626 0.2379431 -1.725224 0.33120143
1.2012892 0.27087927 2.7381146 2.7633212 0.085578956 -3.8511531 0.014945538 1.9021096
-3.6991577 -3.0002184 -0.076943226 -0.09539008 -0.7027685 0.20606306 -2.1303248 1.0186458
1.0424885 -2.4543345 -1.0109315 -4.277233 7.7399025 5.3140345 -0.55889505 3.2876663
4.3677926 0.00095786806 0.41929758 -3.9471824 0.29716778 1.0517293 5.3157644 -1.6709303
0.019151587 5.2653522 -0.025443587 5.8271947 0.9317653 -1.3984118 0.0050103273 6.442205
-1.2883757 -4.662194 0.40505132 -2.5427904 1.0014673 0.37874386 -1.86082 -2.8613303
-0.5050205 2.4693289 1.4282786 -0.18684345 -5.2482386 0.32892177 0.20356517 -3.9013212

3 f4 [6, 12, 16]
00000000: cb5b 8a40 90fa 9940 e937 08c0 5b8b bf3f
00000010: 46ed bec0 c9aa c940 20eb b1c0 aae9 adbd
00000020: ee99 46be 75dc 363e 5747 65bf d197 9c3e
00000030: d5ae 3840 bcf9 da3f 2083 05c0 722f 7040
00000040: 33ec b440 fa05 5640 2e42 6b3e 16e1 19c0
00000050: aa2c 3241 5e1f 963d c021 0dc1 eced db40
00000060: 6f8f d6bc cb4e d9bf 07cb a6be d17c e33e
00000070: f2ae 1b40 f7f4 bbbf 6539 8ac0 c010 2d40
00000080: 28f3 8cc0 2e6b 4a3d 7ad2 34ba e4c1 cb40
00000090: c965 283f 3117 4d3e c1c8 01c0 d23b a0c0
000000a0: fcc6 cf3d 3bb6 d23f 2809 04bc 8241 6040
000000b0: dfa7 1140 6ae7 80bf d182 0f3a 794d 2d40
000000c0: 51aa c1be 5fe9 dc40 2317 6bbe 77bb a1c0
000000d0: 522c d2bd 0d2e 83b9 bd89 573f f94f 78c0
000000e0: ae5d 843e 36e8 813f a6d0 3540 6526 773f
000000f0: 853f b5bd b650 e4bd d3d4 0abc 40d6 1c40
00000100: e2ca 3840 3aa1 0840 63ab 2cc0 9e16 b6c0
00000110: 20f2 2f40 afa6 0bc1 5f62 01c1 dab2 09bf
00000120: 17ca be3f c1c5 873d 7b60 8340 58a9 1240
00000130: de8a 5940 845b eabe 1402 1a3f 873a f33f
00000140: 9830 f9bf 9511 a7c0 edac e4bd e978 4bc0
00000150: d78a fac0 cb16 55bf 8f0f d040 997f 1ac1
00000160: a5e2 a23d 21d6 853c 24a8 3240 488e 8940
00000170: 4dbe 1540 898f f0bf 7374 5540 15c5 1a3e
00000180: 0eab f13f abb6 73bc 6dd4 303e 9cc0 9c40
00000190: d46e 3dbe 2497 16c0 ff53 d740 ee90 2dc0
000001a0: 44a3 ed3d 08d5 803d c2a8 893e f527 82bd
000001b0: b7e3 d03f 3963 a9be aaaf bd3f 0c0e 07bf
000001c0: efef 0fbf 8e6e e6be 2ad7 8a3e 4378 92be
000001d0: d40c 68c0 13a6 4dc0 5a87 743d cefd 0241
000001e0: d201 7ac0 2496 403f 6400 c53a 6e31 6d40
000001f0: 8d36 1940 537b 943e d7d4 733f 97e7 943f
00000200: c844 1ec1 0d8a cf40 7664 413e fe64 563f
00000210: 0c52 1b3e 1801 ef3f c34d 2a40 ee8d c740
00000220: 33fa 0c40 766c 653b 775e b8be 2ef3 4240
00000230: d8b6 9c3f 49da a73f 8433 8b3d e6d4 223f
00000240: 4192 12c0 0e5e d4c0 a467 103e 07e5 a140
00000250: dc9b 1a3e 0eaa a1c0 0158 3640 7664 9e40
00000260: 4057 57bf 99ef edba 630c 6f3d 3a5f 80c0
00000270: 5050 4c40 50d1 5340 c15d b63f d27d 243f
00000280: 3038 ef40 1fe1 c240 7d13 ac3e 0ac2 05c1
00000290: 4315 0a41 364e a7c0 cc8a afc0 fd09 9d40
000002a0: b6db c93e 33d1 5a3c 4fe8 443f bd21 5ac0
000002b0: 48ef d43f de9c ccbc b621 8ebf 7d9f a2bf
000002c0: 4a6a 7040 eb80 05bb feca 803d f3f3 953e
000002d0: 61ed 9140 1c2a ae40 0bc0 a040 0608 d2c0
000002e0: 7748 4c3e 30f4 b23c 916f 293f 8e12 7940
000002f0: ec5f cebf 5964 fa3e a44c b43b 5329 c8be
00000300: 7358 a9c0 628f dbbf c571 56c0 0ced ffbf
00000310: 7240 d33f de59 96be cabd 8d3f 6e96 0bbe
00000320: a3b7 1740 2541 dd3e c011 b640 77e3 04bf
00000330: f04b afbf 42c5 8b3e 759f d9be cc25 3ec0
00000340: 9cf6 6d40 07f7 cebf 2b92 203f 244e df3f
00000350: d4ff 8dc0 f420 23bd 3098 8e3f a064 c93f
00000360: fbd2 9abe 2cff 7d40 c5cb b33e b54a 8f3f
00000370: 32ac 6040 84cd 533f 71a2 7d40 28b3 2bc0
00000380: eea9 553f 7a3f 183d f56c fd3e d316 ea3e
00000390: 6ab6 6a3e e8a1 213e 7a40 97bf 34fc de40
000003a0: 4a53 813e b341 d93f ed4d edbc b270 9cc0
000003b0: 2049 e3be 1dbd 41c0 f5ce 4c3b 996b 6dc0
000003c0: 3eff 503f ae7a 0dc0 ba7c a3bd 7818 06bf
000003d0: 6d54 e83f 14ca f23b 4d5d 8bbf 9742 0f40
000003e0: 79c4 663f 1151 5540 8e3f 0040 2eb6 6b40
000003f0: e6e0 80c0 8377 96be 6c06 30bf 3084 6e3f
4.323705 4.8118362 -2.1284125 1.4964403 -5.966464 6.302098 -5.559952 -0.084918335
-0.19394657 0.17857535 -0.8956198 0.30584577 2.885671 1.7107463 -2.0861282 3.7528958
5.653833 3.3441148 0.22974464 -2.4043632 11.135904 0.073302016 -8.82074 6.872793
-0.026191441 -1.6977171 -0.32576773 0.44431165 2.4325528 -1.4684132 -4.319506 2.7041473
-4.404682 0.04941862 -0.00068978185 6.3674183 0.6578031 0.20028378 -2.027878 -5.0073023
0.10145375 1.6461862 -0.008058824 3.5039983 2.275871 -1.0070622 0.000547451 2.7078536
-0.37825254 6.9034877 -0.22958045 -5.054134 -0.1026236 -0.00025020578 0.84194547 -3.8798811
0.25852722 1.014899 2.84086 0.9654296 -0.08850006 -0.11148207 -0.008473593 2.4505768
2.887383 2.1348405 -2.6979606 -5.690261 2.7491531 -8.728194 -8.086516 -0.5378853
1.4905423 0.066295154 4.1055274 2.291586 3.3991008 -0.45772946 0.6015942 1.9002236
-1.9467955 -5.2208962 -0.111657955 -3.1792548 -7.829448 -0.83237904 6.5018992 -9.656152
0.07953385 0.016337456 2.7915125 4.2986183 2.33974 -1.8793803 3.3352325 0.15114243
1.8880327 -0.014875094 0.17268534 4.898512 -0.18499309 -2.352975 6.7290034 -2.7119708
0.11603406 0.062906325 0.26886564 -0.063552774 1.6319493 -0.33083513 1.4819233 -0.5275581
-0.56225485 -0.45006222 0.27117282 -0.28607377 -3.625783 -3.2132614 0.059699394 8.186964
-3.906361 0.75229096 0.0015030024 3.706142 2.3939545 0.2900034 0.9524664 1.1633176
-9.891792 6.485602 0.18885979 0.8374785 0.15168017 1.8672209 2.6609962 6.2360754
2.202771 0.0035007275 -0.3600957 3.0460925 1.22433 1.311349 0.06796935 0.6360611
-2.2901766 -6.6364813 0.14102036 5.0592074 0.15098518 -5.0520086 2.8491213 4.9497633
-0.8411751 -0.0018153071 0.058361422 -4.0116243 3.192402 3.3096504 1.4247361 0.64254487
7.475609 6.0899806 0.33608618 -8.359873 8.630191 -5.228297 -5.485693 4.9074693
0.3942544 0.013355541 0.76916975 -3.4083092 1.6635523 -0.024977144 -1.1104038 -1.2704922
3.7564874 -0.002037103 0.06288718 0.2928768 4.560227 5.4426403 5.0234427 -6.5634794
0.19949518 0.021844953 0.6618586 3.8917575 -1.6123023 0.48904684 0.0055023003 -0.39094028
-5.292047 -1.7153132 -3.350694 -1.9994216 1.6504042 -0.29365438 1.1073544 -0.13631603
2.3705833 0.43213764 5.6896667 -0.51909584 -1.3695049 0.27298933 -0.4250447 -2.971057
3.7181768 -1.6169137 0.62723035 1.7445722 -4.437479 -0.03982635 1.1140194 1.5733833
-0.3023909 3.9686995 0.351164 1.1194674 3.51051 0.82735467 3.9630396 -2.6828098
0.8346242 0.03716991 0.4949719 0.45720538 0.22921148 0.15784419 -1.1816552 6.9682865
0.25258857 1.6973175 -0.028967822 -4.8887568 -0.44391727 -3.0271676 0.0031251286 -3.7096922
0.8163947 -2.2106128 -0.07982774 -0.52381086 1.8150765 0.0074093435 -1.0887848 2.2384393
0.90143543 3.333073 2.003879 3.6829944 -4.0274534 -0.29388055 -0.687598 0.9317045

weight f4 [32, 1152]
00000000: 8f48 b83c d2fb 35b9 d16d 313f 5967 15bd
00000010: f1a4 b7bd d061 b13f 872e cb3f f73b 0fbd
00000020: 08a4 a83b ae14 4e3d 5bfb 613e 458f 3b3e
00000030: 7031 73bc 9a15 af3e 0440 b93e fbc3 883d
00000040: 0f1b 9cbd 0308 3fbf 3d19 59c0 9c0f 5340
00000050: 3a5a a73f 65f3 123f 976e 1cbf 6e72 38c1
00000060: 5b7c 3d3d 68bc 2bbe 4319 debf ac10 833e
00000070: f0ff 05c0 3fcf 893f 72ba dc3d e7f3 3240
00000080: ed46 07bf 2d03 583f c6d2 47c0 cdb7 d9c0
00000090: 3d4c b9be 0372 fbbf e2a6 423f 5711 423f
000000a0: a22d f4bf fcea a4be c907 21c0 9e68 813e
000000b0: 3d23 23c0 df1e 3040 642e 8bbf 8fe1 55c0
000000c0: 5ace e640 d692 1e40 28f4 04c0 d6c0 c6c1
000000d0: 19bd a5bf daa8 a540 1aff 9a3d a355 43bf
000000e0: 5461 18bf 1891 ad3e d2cf 0040 c1e5 1340
000000f0: 424b 3040 c5bf c2be 72d1 a0bf 2010 82c0
00000100: 65a7 0abf 975d 4a41 9ca1 2fbf 354b 8240
00000110: c4a4 b8c0 970c 1ec0 0881 1a40 6d02 8bbf
00000120: c062 62c0 dca3 67bf 4d1e 8ac1 0fea 18c0
00000130: 18bf 3b41 9dcf 8e41 2d77 bec0 a57e 1841
00000140: b939 b13e 424a f340 4c73 ef3e b6fc 3fc0
00000150: 4ce1 82bf 22bf 3bc0 cd31 0541 9778 2d40
00000160: d23d ec3e 4f68 203f d232 3041 db71 5cc0
00000170: 419c 2341 5b53 1b3f 8578 abbf d297 4341
00000180: 155d 843d 3154 b13f a507 98be d758 bd3d
00000190: 0b63 9f3b 659f 90bd 965f 9c3d dc61 3d3e
000001a0: 9a78 97bc 6456 913a 2c1f 623e 106c 28bc
000001b0: 5c1d 9ebc 3b18 f93c c713 b63f 2d39 713c
000001c0: 2b10 d23e 0b20 803f a90c f3bf 2c04 1f3e
000001d0: 7b40 3dc0 0e2d ef3f 83ff cabc bfb7 9940
000001e0: 4158 913f e7ea 2cc0 3571 20c0 5a84 0e3f
000001f0: edec af3f 700c 743f 3807 a9bf 2e39 61bf
00000200: c254 efbd 9972 3940 82c5 e03e d2fc 1ac0
00000210: d842 5640 fd9a 42bd 3aac 813f a04f 003f
00000220: 3456 a13e 1e9e a140 84a0 61bf 6e47 23c0
00000230: b039 05bf 7068 8cbf 4e65 5fbf d67e b2c0
00000240: 12bc b9bf 183a 0ac0 0220 8ebf cdd2 6ebf
00000250: 7408 b540 d7c7 053f bd66 00bc 8850 05c0
00000260: 38b1 253e d34f 67c0 ac8d 7b3f 9030 9e3f
00000270: faaa 17c0 3115 cdbd abc1 77bf 7f39 26c0
00000280: 064c 1140 384a 6040 256d c1bf de20 8dc1
00000290: b846 7cc0 d126 a4bf c326 5a41 bdd3 7cc0
000002a0: 2f31 8d3f 4d5e b23f 2d45 1bc1 6974 a640
000002b0: e227 89bf a753 aac1 62f9 c9bf de57 ef40
000002c0: 2d25 edc0 9ee4 4540 6373 86bf 9403 2641
000002d0: 5f41 1c41 5122 4bbf 51bb e540 679d b33f
000002e0: 08bb 3240 cf07 75bf 0353 dfbf 3b26 d340
000002f0: e5cc 7640 e6a2 5d40 a3dc d43f af76 3f41
00000300: ba88 f0bd e211 023d 301b 783c 2ae0 9cbd
00000310: 7414 b7bd 7440 83bd f228 ed3e 6f08 383d
00000320: 7e8d 42bc 1896 3dbd 0415 253d 865a cb3d
00000330: a998 21be 250e 3e3f 0dba 3c3e 2895 703d
00000340: b044 88c0 a4f6 05bf 9644 c8c0 f0d9 b1be
00000350: f8dd 6cbd 2c95 6d3f 9a5f 42c0 80d1 a940
00000360: 0869 d8be d0a4 69be 0d0c 41bd 59ff 90c0
00000370: ffff 87bf 72b4 92c0 5899 42bf 2b5d 1841
00000380: ce52 6e40 b4df 84bd cd91 4ebf 8b96 7b40
00000390: 82da 4abf 31ec 91bf 7b3a 5340 44fd 10bf
000003a0: f661 fcbe 57a1 0740 a52c 9d3f 22c9 4340
000003b0: f84a 80bd b7bd ac3e a72d c03f 52a3 8d3d
000003c0: 732d 1340 1123 90bf be7f 3cbf 5e89 9bbf
000003d0: acba 963d 709c 2a3d b9aa c5bc ba8c cd3f
000003e0: 51ed a7be 5cb0 16c0 7bc3 3dbf c9e7 e1be
000003f0: aa7d 3c40 9203 46c0 9325 7bbe 66c8 6dc0
0.022495536 -0.00017355316 0.6930819 -0.036475513 -0.08967007 1.3857975 1.5873574 -0.034969296
0.005146507 0.05031269 0.22068541 0.18316372 -0.01484333 0.34196168 0.36181653 0.06678005
-0.076223485 -0.746216 -3.3921654 3.2978277 1.307441 0.5740264 -0.61106247 -11.527937
0.046261173 -0.1677109 -1.7351459 0.25598657 -2.0937462 1.0766371 0.10777749 2.7961366
-0.528426 0.84379846 -3.1222396 -6.8036866 -0.36190978 -1.9644169 0.7603589 0.7580771
-1.9076426 -0.3221053 -2.5161002 0.2527513 -2.5490258 2.7518842 -1.0873532 -3.341892
7.2126894 2.4777122 -2.077402 -24.844158 -1.2948333 5.176862 0.07568188 -0.76302546
-0.5952351 0.3389976 2.0126843 2.310898 2.7545934 -0.38036934 -1.2563918 -4.0644684
-0.54161674 12.647849 -0.6860597 4.0716805 -5.770113 -2.4695184 2.4141254 -1.0860115
-3.5372772 -0.90484405 -17.264795 -2.3892858 11.734154 17.851374 -5.952048 9.530919
0.3461435 7.6028147 0.46767652 -2.9997993 -1.0225005 -2.9335408 8.324658 2.7104852
0.46140915 0.6265916 11.012407 -3.4444492 10.225648 0.60674065 -1.3396155 12.2245655
0.064630665 1.3853818 -0.29693332 0.092454605 0.0048641018 -0.07061652 0.07635419 0.18494362
-0.018490124 0.0011088368 0.22082204 -0.01027967 -0.019301109 0.030407062 1.4224786 0.014723104
0.4102796 1.0009779 -1.8988239 0.15528935 -2.9570606 1.8685625 -0.02478004 4.80368
1.1355058 -2.7018373 -2.5069096 0.556707 1.3744179 0.9533148 -1.3205328 -0.87977874
-0.11686088 2.8976195 0.43900687 -2.421681 3.3478298 -0.04751109 1.0130684 0.501215
0.3151108 5.0505514 -0.8813555 -2.5512347 -0.5204115 -1.0969372 -0.87263954 -5.577983
-1.451052 -2.1597958 -1.1103518 -0.93290406 5.657282 0.52258056 -0.007836995 -2.0830402
0.16180885 -3.614247 0.9826305 1.235857 -2.3698106 -0.100138076 -0.9677989 -2.5972593
2.270265 3.50453 -1.5111433 -17.641048 -3.9418163 -1.2824346 13.634463 -3.9504235
1.1030635 1.3935028 -9.704389 5.20171 -1.0715296 -21.290846 -1.577923 7.479476
-7.410788 3.0920787 -1.0503963 10.375874 9.76596 -0.7934924 7.179116 1.403241
2.7926655 -0.9571504 -1.7447208 6.598417 3.8562558 3.4630675 1.6629833 11.9664755
-0.117448285 0.031755336 0.015143201 -0.076599434 -0.08939448 -0.06408778 0.463203 0.044929918
-0.011874555 -0.04628572 0.040303245 0.09929375 -0.15780891 0.7424033 0.18430348 0.058735996
-4.2583847 -0.5232947 -6.2583723 -0.34736586 -0.057828873 0.92805743 -3.037085 5.3068237
-0.42267632 -0.22816777 -0.047130633 -4.5311704 -1.0624999 -4.584527 -0.76015234 9.522746
3.723804 -0.064879805 -0.80691224 3.9310634 -0.79239666 -1.1400205 3.3004444 -0.5663645
-0.49293488 2.1192224 1.227925 3.0591512 -0.06264299 0.3373849 1.5013932 0.069159165
2.299649 -1.1260701 -0.7363242 -1.2151296 0.073598236 0.041653097 -0.024129258 1.6058571
-0.32798246 -2.3545141 -0.74126405 -0.4412215 2.94517 -3.093968 -0.24526052 -3.7153563

bias f4 [32]
00000000: 71ca 8bbe 28ad c9bc 275d 11bf 29c9 23bf
00000010: fcf6 a0bd 77a1 ad3d e280 3ebc bc59 bcbe
00000020: 80f2 22c0 4fe2 a5be 80b7 f6bc c648 333d
00000030: 0bf0 febe 59fb f1bd 9a0e 293e ef1c 98bd
00000040: 722e e0c0 93b0 1fbb e9c8 dcbd e8ec 26be
00000050: c815 97be b0a0 13be e1f8 e2be e0e2 90be
00000060: cd6c a73d 064c 07bf 05de 8fbe 2b2f cabd
00000070: 6dc0 213e 8b48 81be 9da5 c03b 316b 0ebd
-0.27302888 -0.0246187 -0.56782764 -0.6397882 -0.078596085 0.084780626 -0.011627408 -0.36787212
-2.546051 -0.32399222 -0.030116796 0.043770574 -0.49792513 -0.11815519 0.16509476 -0.07427394
-7.0056696 -0.002436672 -0.10780508 -0.1630131 -0.29508805 -0.14416766 -0.44330505 -0.28298092
0.08175049 -0.5285038 -0.28099075 -0.09872278 0.15796061 -0.25250658 0.0058791176 -0.034770194

weight f4 [16, 32]
00000000: 8cd7 c8bc 16bf 35bb 4531 9dbb 6dc6 c3bc
00000010: 2050 bf3a 55d2 8f3c 05e2 563d 6039 543a
00000020: 31cd 01bd 49db ed3b b08b 1f3e 218e a8bb
00000030: 79f2 d7ba 143d 2b3c 7578 853c d939 88bd
00000040: b607 b5be 68e2 43bc c2e7 4fbc 8179 f1bc
00000050: 40a6 a33d d212 733b 6487 16bc cde6 43bc
00000060: 0cb9 7c3b 9821 d63c f287 613b c830 063c
00000070: 007d cf3b 17f3 c5bc 6e3f 503d d255 09bd
00000080: 98df 5ebc 9d22 0fba cd33 a5bb 4cbf d3bc
00000090: 9605 133b 44fa 823c 6a92 a13d 235b 143b
000000a0: c645 4ebc afca 9f3c 833e eb3d bd3b 71b8
000000b0: bc3c 84bb 5ee1 893c 0e0e 7a3c 33c0 4dbd
000000c0: 386c 80be 9f5a 75bc 0614 15bd 7b19 30bd
000000d0: 2b36 f23b 2608 ab3b 2e4e ec3c e709 70ba
000000e0: db7d 5dbc dd68 84bb c174 5abb 1600 a6ba
000000f0: 0c6c 4d3c 7473 c5bb 04c9 223d 24b8 00bc
00000100: a832 503b 1fb9 59bd 8278 11bc 3c97 03bc
00000110: 8380 8e3b 95dc 953b 3602 a5bd 9f4d ad3b
00000120: 744a b73c 75e9 573c 8b5d 35bd 2242 3b3a
00000130: 660b f4bb 3256 b13c cc7d 0c3c 706a c9bb
00000140: efc8 80bd e0a5 60bc d4f3 d4bb d54c 69bd
00000150: 2c34 273c d76f 1cbc 0693 cabb 5767 5cbb
00000160: 75a0 93bc 5577 b9bc 4ceb ba3a 75c7 803d
00000170: 54dc 1dbb 0432 0fbb d880 603d 6136 6fbd
00000180: ed78 32be 818f 543d 2515 ecbf 5b69 753f
00000190: 38a7 d2be 3c8f 813e 960a a2bd c058 69be
000001a0: a6db b2bf a80a 443f d6d8 353d ccb4 af3f
000001b0: 28fd 96bf 7041 7d3e 2d8c 58bf ae94 b3bd
000001c0: 89c9 4440 7a09 aa3f 0844 a2bd b5fd e4bd
000001d0: cf35 49be 76ee 5b3e 127d 8abe a8d3 7cbf
000001e0: 9b84 8cbe c0bc 8f3f 660a 02bf b442 d73d
000001f0: b631 a8bf e9df ed3f 6b57 26bc afed 9bbe
00000200: cc6b 66bc 300d 62bd eec5 c9bb f261 dabc
00000210: 8783 c13c 2544 363c 4391 22bd 2ee5 af3b
00000220: 3b56 91bc d6a9 5eba 74f2 983d 524e 1e3a
00000230: 7e1a cf39 4c7a 44bc 25d4 9738 9585 2dbc
00000240: fc24 92be 16ca e2bb 9e07 13bd 7ee2 c8bb
00000250: e7a2 9c3c 0d57 1bbb 9a8a 143c a845 5b3b
00000260: 2d50 fcbb 25ae 8e3c c018 973b 6482 7d3d
00000270: a063 c7bb b453 a2bc 011a 86bb 31fd a0bd
00000280: 8d5e f43a 8236 8fbd 52f6 b2bc b7f6 c9bc
00000290: f33c f63b defc 973b 6635 b93d e1da 893c
000002a0: f8f9 6fbc 39c1 943c 1f7d 01bc 9ddb d2bc
000002b0: a105 09bb f062 023c f03f 113d 85f3 d3bc
000002c0: 7f1f 6ebd f3d7 a0bb 3e0d 70bc 08a9 9fbd
000002d0: 2b7a 0f3d edd7 4f3c ae55 f03b 30ef 8b3b
000002e0: cc66 49bc ec72 003d ca75 f2ba 2fde 943b
000002f0: 2d98 e43b 9f65 54bc 36f9 533c deaf c4ba
00000300: aec0 26bb ee07 1abd 3d5d 7fbc ab53 12bc
00000310: ff60 eaba 45ed ab3b 37af f1bc d54f a53b
00000320: d52a 0c3d 2a28 823c 729f 1dbc 3c2e 9abc
00000330: 40f8 10bc 74fc 21bb 0c58 933c 94c0 87bd
00000340: 29bf d7bd 1b0b 39bc 9c50 983b 83bb a6bd
00000350: 4ab1 b03c 3bab 2a3c 9025 61bc 26b2 82bc
00000360: 29eb 493b 7482 9bbb aab3 cb3a 55e4 80bd
00000370: a59d c339 8ed9 5cbc f95e 0f3e 871d 66bc
00000380: 09e7 d6bb 6096 e5bc 97b9 70bc 1b05 5abb
00000390: 35bb 553c a074 133c 57d9 863c 13a4 5f3c
000003a0: 0eb3 ed3a 0b86 a9bb 3450 5c3d f387 2fbc
000003b0: 483b a6bb da2f b5bc bef2 193c d905 183d
000003c0: 770b 21be 7cdd 6b3b a01d aa3b 399e aabd
000003d0: 2018 4a3d 0860 00b9 eccd 9dbc 3932 c5bb
000003e0: 7c21 623b 1248 9e3c 7535 803b 0c9e 823b
000003f0: 4abf 28bc 2a0c d1bc 2ee4 42bc 3b71 d2bc
-0.024516843 -0.0027732304 -0.004797133 -0.023898328 0.0014596023 0.017556349 0.052461643 0.0008095708
-0.031689826 0.007258807 0.1558063 -0.005143896 -0.0016475461 0.010451574 0.01629279 -0.066516586
-0.35357445 -0.011955835 -0.012689533 -0.029476883 0.07990694 0.0037090075 -0.009187553 -0.011956883
0.0038562445 0.026139066 0.0034413305 0.008190341 0.00633204 -0.024163766 0.05084174 -0.03352911
-0.013603114 -0.0005460175 -0.0050415755 -0.025848053 0.002243375 0.015988477 0.078892544 0.002263733
-0.0125898775 0.019505827 0.114865325 -5.7514513e-05 -0.0040355604 0.016831096 0.01526214 -0.050232124
-0.25082564 -0.014975219 -0.03639605 -0.04299305 0.007391711 0.005219477 0.028845873 -0.0009156749
-0.013518776 -0.004040821 -0.003333375 -0.001266482 0.012537967 -0.006025726 0.039742485 -0.007856403
0.0031768475 -0.05315506 -0.008878829 -0.008031663 0.004348816 0.0045734146 -0.08057062 0.005288794
0.02237437 0.013178219 -0.044278663 0.00071433384 -0.007447648 0.021647546 0.008574914 -0.0061467215
-0.06288325 -0.013711423 -0.006498793 -0.05695804 0.01020531 -0.009548149 -0.0061820773 -0.0033630931
-0.018020848 -0.02263991 0.0014260798 0.062880434 -0.0024087625 -0.002184988 0.054810375 -0.05840147
-0.17428942 0.05189467 -1.8443953 0.95863885 -0.41143203 0.25304592 -0.07912175 -0.22787762
-1.3973281 0.7657876 0.044396244 1.372705 -1.1796007 0.24731994 -0.8458889 -0.08768593
3.0748007 1.3284142 -0.07923132 -0.11181203 -0.19649433 0.21477684 -0.27048546 -0.9876046
-0.2744492 1.1229477 -0.50797117 0.105107695 -1.314017 1.8583957 -0.010152678 -0.30454776
-0.014063787 -0.055188358 -0.0061576283 -0.026658032 0.023622287 0.011124645 -0.039689314 0.0053678965
-0.017741313 -0.00084939355 0.07468119 0.00060388923 0.00039501855 -0.0119920485 7.239756e-05 -0.0105909305
-0.28543842 -0.006921063 -0.035895936 -0.0061305156 0.019120647 -0.002370301 0.009066248 0.0033458266
-0.0076999874 0.017417023 0.0046111047 0.06189193 -0.0060848743 -0.019815303 -0.0040924554 -0.078607924
0.0018643901 -0.069928184 -0.02184597 -0.024653776 0.00751459 0.0046382984 0.09043388 0.016828002
-0.014647 0.018158542 -0.007903366 -0.025739485 -0.0020907896 0.007958159 0.035461366 -0.025872955
-0.058135506 -0.0049085557 -0.014651595 -0.07795912 0.035028618 0.012685758 0.0073344326 0.0042704567
-0.012292575 0.031359598 -0.0018498239 0.004543088 0.0069761486 -0.0129636815 0.0129378345 -0.0015006026
-0.0025444436 -0.03760522 -0.015586195 -0.008931081 -0.001788169 0.0052467906 -0.029502494 0.005044917
0.034220535 0.015888292 -0.009620534 -0.018820874 -0.00884825 -0.0024717124 0.01798632 -0.06628528
-0.10534508 -0.011294152 0.0046482813 -0.08141234 0.021568913 0.010416801 -0.013741866 -0.015954088
0.0030810332 -0.004745776 0.0015541215 -0.06293551 0.00037310753 -0.013479603 0.14001073 -0.014045126
-0.0065583033 -0.028025806 -0.014692686 -0.0033267203 0.013045122 0.008999974 0.016461058 0.013649958
0.0018135027 -0.00517345 0.053787425 -0.010713565 -0.005072985 -0.022117544 0.009396253 0.03711495
-0.1572703 0.003599017 0.00519152 -0.0833096 0.049339414 -0.00012242806 -0.01926323 -0.00601795
0.0034504822 0.019321475 0.0039126226 0.003986126 -0.010299513 -0.025518496 -0.011895223 -0.025688758

bias f4 [16]
00000000: 3c94 4ebc 026e 0cbc 97bc cebb a423 943e
00000010: dc01 3dbc 7b18 b1bb 61ba f1bb 3bbd ecbb
00000020: dd1d 94bc 4374 83bc 7f12 05bf 10a2 a1ba
00000030: af75 46bc 5706 91bc dd5e 1fbc ad0f 883a
-0.012608584 -0.00857115 -0.0063091028 0.28933442 -0.011536088 -0.0054045296 -0.0073769544 -0.0072247065
-0.018080646 -0.016046649 -0.5198135 -0.0012331624 -0.012113019 -0.017703218 -0.009727207 0.0010380648

weight f4 [1, 16]
00000000: 751a 05bc 5a0c 96b8 e3a3 4dba 8d4f 9fbe
00000010: e8da c5ba 7445 9cba 9f06 7cbb c946 b3ba
00000020: abcb b337 3fb8 c0b8 9066 9f3e d37b 6cbb
00000030: bd6b b53b 3f85 bfba aeb3 ccb9 b3b9 90bb
-0.008123984 -7.154858e-05 -0.00078445504 -0.3111538 -0.0015095146 -0.0011922554 -0.0038456095 -0.0013677712
2.1433303e-05 -9.189592e-05 0.31132936 -0.0036084547 0.005536525 -0.0014611854 -0.00039043784 -0.0044166683

weight f4 [1, 1152]
00000000: 80c5 0fbc a353 0a3a 53d2 0ebc 9ec8 493c
00000010: 85d7 133b 5365 52bf 9583 12bf 85e1 8cba
00000020: 8233 98bb feab 13bb bc5a 42bb 99c0 0f3c
00000030: fb72 30ba a059 88be 57e9 8d3e 4add fcba
00000040: c047 84bc b9e0 58be 3329 b63e 18b0 5e3f
00000050: d77c 863f 8914 03be 953a 1040 7332 ebbe
00000060: a60e 2340 97aa 1d3d a295 933f d83f 43be
00000070: bc2a bfbd ebd9 de3d a13f c5be 6fc1 613d
00000080: 8863 70bd c40e 5c3f 10df adbe 5ee1 69bf
00000090: 8c77 443e 439f 23bf a4b4 16bf e693 3f3b
000000a0: 148d 653f 37ec ce3c dd6c 04bf 2533 ae3e
000000b0: 7189 03bf b142 73bf 7dd2 08bd c2ca 993e
000000c0: f654 5bbd 7044 393f 3db5 b2be df6c b93e
000000d0: 97ba 953d bc71 803e aba3 813d dd6d 013e
000000e0: a8ca a3be d442 603d 98bb 773f 1117 403e
000000f0: 8cf8 583f 821e aabe 7130 1bc0 efff ea3d
00000100: 7c5f fb3e 3973 7cc0 53f7 333f 507d 8dbe
00000110: 7a33 abbf ba98 2ec0 73ee 6f3f 1077 c03e
00000120: 9740 4a41 01ed e83e 5c39 e6c0 d46c 243f
00000130: 7588 0941 db7c cc40 bf96 0d3f 956e 1840
00000140: 477f debd 4a28 53bf d6cc a3be 2817 6fc0
00000150: cda1 fb3c 0f41 1840 c55c 8140 79ed a5bd
00000160: d7fc f5bc 281d 333e 8aa8 ac40 06f8 3dbf
00000170: 9d8a a940 6f01 20c1 a71b 9f3b 5ec1 0c41
00000180: ca44 97bb 27e7 2bbf df86 8a3c b0b6 92bb
00000190: 9d1c c63a 6a5c bb3c 7e14 423b 783e 8a3b
000001a0: 6675 26bc bfb9 b53a d9bd aebc aa08 9f3b
000001b0: 53ed c9bb 20e6 9abb 2545 de3e 89ad 123c
000001c0: f3b9 41bf 58a1 02c0 d823 903d 626d 533f
000001d0: 10e1 04bf ba68 51be 21b2 f7bd a410 de3c
000001e0: c61e 5b3d 176e 30bf 7464 b43f 4705 21bd
000001f0: 53d9 6bbf c54e 573e 34eb aa3f 2a49 44bd
00000200: 132d e4bc 9c63 7e3e 1131 bbbe 34db d63d
00000210: dfdc b9bc 543d a9bc dcda 74bf 62a7 3e3d
00000220: 6cee 863d 956c c03f 0701 d33f 48f8 4abf
00000230: a8dd 8abe e79f 2cbf 9e61 a93f aac4 58be
00000240: 9b5f 3ebf ee5d 0e3f f498 d1be a880 81bf
00000250: 4064 c53e 5c54 e63d df9d 74bf 64dc 653e
00000260: b1af 83bd 698b 73bd 7a73 02be 2390 1ebe
00000270: 5bf9 1abf 6a29 933e 1f2b 883f 3a97 3b3d
00000280: 27da 73bf 176c 9a3f cf74 a3bf 681c c7c0
00000290: 8520 d340 63ff 03bf 19ca ea3f 2e81 0fc0
000002a0: bfe3 7ebc 8485 ea3f 86f9 82c0 d5a8 513f
000002b0: 4c6f 36c0 4ebb a140 4f3d 2740 a3d6 b53f
000002c0: 1cd3 67c0 0a75 af3e 2185 8fbf 7a07 4740
000002d0: 2baa e3bf e7ef 913e dd04 5d40 ad09 7840
000002e0: b54d 133e 5426 043f 9699 b53f b251 683e
000002f0: 7c36 c140 623f a641 e04c eabf 8596 e2bf
00000300: 5e34 09bc 5f57 0cba e38b 36bc 50f4 b43b
00000310: 096b 95bc 85dd 453e a244 40bd 65de 1abb
00000320: c0f2 ceba 989d f43a c188 713c 57d3 ad3b
00000330: 9770 8dbc 0685 32bd 422c 3b3b f9b2 83bb
00000340: bdcf 6cbf b69b 6f3d e8df 9e3e 65c8 e23f
00000350: 9139 8cbd f0e0 883e 856a e53e d11f 943e
00000360: 1e99 8cbd 6eef b0bc 6850 be3d 274f 2ebf
00000370: 5b5c 96be f763 873f 113a cfbe b124 7ebe
00000380: 3346 4fbe f88f 9c3c 112e 97bd 1fb4 86be
00000390: 22de 94bb 6ca9 45bd efa5 2640 9f66 a03e
000003a0: dc98 b63d 41aa 5f3d 76db d4bc 2590 0ec0
000003b0: fcde 1f3c 5bfa c6be ad57 9cbc 9ed8 46bf
000003c0: 09e0 ec3e 13e5 333b 9269 81bd f1eb 873f
000003d0: 06af afbd c9ae d53b c434 f7be 78c8 4fbf
000003e0: f1b3 c93c 3caa 8e3f 3b06 8b3b e4d7 0fbf
000003f0: a24d d43e f335 d7bf 8f65 37bc 1f03 663e
-0.008775115 0.0005276745 -0.008717137 0.012315897 0.002255888 -0.8218586 -0.5723203 -0.0010748362
-0.004644812 -0.0022532935 -0.0029656133 0.008773946 -0.00067310006 -0.26630878 0.27717087 -0.0019292023
-0.016147494 -0.21179475 0.35578308 0.8698745 1.0506848 -0.12800802 2.2535756 -0.45936927
2.547769 0.038492765 1.1530039 -0.19067323 -0.09334323 0.10881408 -0.38525108 0.055116113
-0.05868867 0.8596003 -0.33959246 -0.9135951 0.19186229 -0.6391489 -0.58869386 0.0029232441
0.89668393 0.02525912 -0.5172861 0.34023395 -0.51381594 -0.9502364 -0.033403862 0.30037504
-0.053547822 0.7237005 -0.349039 0.36215875 0.0731098 0.25086772 0.06330045 0.12639566
-0.31990552 0.054751232 0.9677062 0.18758799 0.8475425 -0.332264 -2.4248316 0.11474597
0.49096286 -3.9445326 0.7029926 -0.27634668 -1.3375084 -2.7280717 0.9372322 0.37590837
12.640769 0.4549332 -7.194502 0.6422856 8.595815 6.390241 0.55308145 2.3817494
-0.1086412 -0.8248335 -0.31992215 -3.7357883 0.030716801 2.3789709 4.0425744 -0.08101935
-0.03002779 0.17491591 5.3955736 -0.7420658 5.2981706 -10.00035 0.0048555913 8.797209
-0.0046163546 -0.67149585 0.016910015 -0.0044773445 0.0015114729 0.022871215 0.0029614265 0.0042188726
-0.010159826 0.0013864561 -0.02133076 0.0048533278 -0.0061623245 -0.00472714 0.43412128 0.008952507
-0.7567436 -2.0410976 0.07038087 0.8258878 -0.5190592 -0.20450106 -0.12094522 0.027107544
0.053496145 -0.68917984 1.4093156 -0.039311673 -0.92128485 0.21026142 1.3353028 -0.047921337
-0.027853524 0.24842685 -0.36560872 0.104910284 -0.022688327 -0.020659126 -0.9564645 0.046546347
0.06588444 1.5033137 1.6484689 -0.792851 -0.27122235 -0.6743149 1.3232915 -0.21168771
-0.7436463 0.55612075 -0.40937006 -1.0117388 0.38553047 0.11246559 -0.9555339 0.22447354
-0.06429995 -0.059459124 -0.12739363 -0.15484671 -0.60536736 0.28742534 1.063816 0.045798518
-0.9525475 1.2064236 -1.2770022 -6.2222176 6.5977197 -0.51561564 1.8342925 -2.2422595
-0.015557229 1.8321996 -4.0929594 0.8189824 -2.850543 5.0541143 2.613117 1.4206127
-3.62226 0.3426898 -1.1212503 3.1098313 -1.7786306 0.28503343 3.4534218 3.8755906
0.14385112 0.51620984 1.4187496 0.22687414 6.037901 20.780949 -1.830471 -1.7702185
-0.008374302 -0.00053535955 -0.01114175 0.0055222884 -0.018239515 0.19322784 -0.046940453 -0.0023631093
-0.0015788898 0.0018662689 0.014742077 0.0053047347 -0.017265601 -0.043583892 0.0028560315 -0.004019138
-0.92504483 0.058498107 0.31030202 1.7717406 -0.068469174 0.26734114 0.4480783 0.28930524
-0.06865142 -0.021598544 0.0929268 -0.68089527 -0.29367337 1.0577382 -0.4047399 -0.24818684
-0.20241623 0.019111618 -0.07381833 -0.26309296 -0.004543082 -0.048257276 2.6038778 0.31328294
0.08915874 0.054605726 -0.025983553 -2.227548 0.009757753 -0.3886288 -0.019084776 -0.7767428
0.46264675 0.0027449771 -0.06318964 1.0618879 -0.08578305 0.00652108 -0.48282444 -0.81165266
0.024621936 1.1145701 0.004242686 -0.561888 0.4146548 -1.6813339 -0.011193647 0.22462128
