MLIPs/CACE-LES/water/caceles-r-4.5-nl-1-nu-3/best_model.pth (torch, 112738 bytes, 19 tensors)

embedding_weights f4 [2, 2]
0	0x3e745d18	0.23863637
1	0x3e102d16	0.14079699
2	0xbf1f5c79	-0.6225048
3	0x3f29e281	0.6636124

embedding_weights f4 [2, 2]
0	0x3e9fd270	0.3121524
1	0x3bb4fe4a	0.0055234777
2	0xbdf847b2	-0.1212305
3	0x3f2ae1eb	0.66750973

bessel_weights f4 [6]
0	0x3ebcf7c5	0.36907783
1	0x3fa0d34f	1.2564486
2	0x4004dd33	2.076001
3	0x403ad147	2.9190233
4	0x4074ce31	3.825085
5	0x4098c9a3	4.774614

0 f4 [6, 12, 4]
0	0x400788c8	2.1177235
1	0xbeeaea7a	-0.45882016
2	0xbc7c7e62	-0.015410991
3	0x3a1e3103	0.0006034525
4	0x3fb235d6	1.392268
5	0xbc64ec69	-0.01397238
6	0xbbfa1115	-0.007631431
7	0x3cf0e00f	0.029403714
8	0x3ff083cd	1.8790222
9	0x4057559c	3.3646002
10	0xbb88dda0	-0.0041768104
11	0x3e2912eb	0.16511123
12	0xc042b230	-3.0421257
13	0x3d3654ea	0.044514574
14	0x3c325a2c	0.010885756
15	0xbdfa48db	-0.12220927
16	0x3e5313c2	0.20613006
17	0x40121177	2.282316
18	0xbd85e192	-0.06537165
19	0x3f4fda96	0.8119291
20	0x3ccb1c59	0.02479379
21	0x3d2bd1d9	0.041948173
22	0x3d650663	0.055914294
23	0x3ca170b5	0.019707063
24	0xc003b7ef	-2.0581014
25	0xbdc3eb61	-0.09566379
26	0x3ec7a3a4	0.38992035
27	0x3d173e5f	0.036924716
28	0xbbab82bf	-0.005234092
29	0x3d032b4e	0.03202372
30	0xbebe3f5c	-0.37157714
31	0xbc158c7a	-0.0091277305
32	0x3f4caac1	0.7994805
33	0xbe1ce37f	-0.15321158
34	0xbb8cfa25	-0.0043022805
35	0x3e19535f	0.1497321
36	0xbfd7e0be	-1.6865461
37	0x400d60e1	2.209038
38	0x3b466c14	0.0030276822
39	0xbbbd40fe	-0.00577557
40	0x3eee93dc	0.46597183
41	0x3dd87550	0.105692506
42	0x3be4b490	0.0069795325
43	0xbeca0f54	-0.3946482
44	0x3ff50250	1.9141331
45	0x3dacf1ab	0.08444532
46	0x3b1e6e4f	0.0024174636
47	0x3f6094a0	0.87726784
48	0x3e4aa26d	0.19788523
49	0x3f0392ba	0.5139576
50	0x3cae5f2d	0.021285618
51	0x3cfbc590	0.030733854
52	0x3fe8388a	1.8142254
53	0xbc637ce1	-0.013884754
54	0x3cd28bcb	0.025701424
55	0x3e1f5617	0.15560184
56	0x3f9bb887	1.2165688
57	0x3e0533f1	0.13008095
58	0x3c953d71	0.018217774
59	0xbfa33ca0	-1.2752876
60	0x3d8f1006	0.06985478
61	0x3ba6aa27	0.0050862017
62	0xbd22330e	-0.03959947
63	0x3f871b3b	1.0555185
64	0x3bd29a25	0.006427067
65	0x3d8dd10d	0.06924639
66	0x3eb3981e	0.35076994
67	0x3fbb0b22	1.4612772
68	0x3c247cc9	0.010039517
69	0x3cec9c25	0.02888305
70	0xbeaf887c	-0.34283817
71	0x3bc1306e	0.005895666
72	0x3ed9e6e8	0.4255898
73	0xbc6572f1	-0.014004455
74	0x3e33e51a	0.17567864
75	0x3f92a1d7	1.145564
76	0x3f3655ce	0.7122468
77	0x3bde0e6c	0.0067766216
78	0x3f7a340a	0.97735655
79	0x3c117a2c	0.008879226
80	0x3fa1cf3d	1.2641369
81	0x3d895887	0.067063384
82	0x3bda474a	0.0066613303
83	0x3ed86c06	0.42269915
84	0xbf0165ea	-0.50546134
85	0x3f895af6	1.0730884
86	0xbc56d619	-0.013112568
87	0x3ceec642	0.029147271
88	0x3fd3c1a9	1.6543475
89	0x3b6e1b74	0.0036332281
90	0xbccf27df	-0.025287567
91	0x3ef5d1d2	0.48011643
92	0x3fe508b6	1.7893283
93	0x3ce9f4ee	0.028559174
94	0xba24b111	-0.00062824885
95	0x3eb0960d	0.3448948
96	0xbf17ecac	-0.5934551
97	0xbeacafd3	-0.33727893
98	0xbcb1f8b9	-0.021725046
99	0xbc491086	-0.012272006
100	0x3fbca0be	1.4736555
101	0x3cb61230	0.02222547
102	0xbd1e9d66	-0.038724326
103	0xbc92028b	-0.017823478
104	0xbf81c038	-1.0136786
105	0xbf26649e	-0.6499728
106	0xbca8b2ce	-0.020593073
107	0xbf55a59e	-0.83455837
108	0x3f459ed0	0.77195454
109	0xbc563df4	-0.013076294
110	0x3d28bbb2	0.041194625
111	0x3fbac451	1.4591161
112	0x3da1f9ba	0.0790896
113	0xbed1794e	-0.4091286
114	0x3eee5242	0.46547133
115	0xbdf3f014	-0.11911026
116	0xbcb62ab9	-0.022237169
117	0xbde3701f	-0.1110537
118	0x3e4b1cad	0.19835158
119	0xbc21bfba	-0.009872371
120	0x3ecb1803	0.39666757
121	0x3dbdb275	0.092625536
122	0xbef09c00	-0.4699402
123	0x3efae807	0.49005148
124	0xbeec8ec7	-0.4620268
125	0xbcfd7a72	-0.030942176
126	0xbe159b98	-0.14610136
127	0x3bc11b32	0.0058931345
128	0x3f8769fe	1.0579221
129	0xbe1ba075	-0.15197928
130	0xbcce663d	-0.025195235
131	0x3d8f4b0f	0.06996738
132	0x3eb1caf5	0.34725156
133	0x3de72a73	0.112873934
134	0x3bd2377d	0.006415306
135	0xbd22e1b1	-0.039766017
136	0x3fb5dc8b	1.4207929
137	0xbd19c714	-0.03754337
138	0x3cd99975	0.026562432
139	0x3f5918f7	0.8480372
140	0x3f5207c4	0.820431
141	0x3b559ca6	0.003259459
142	0x3bb39323	0.0054801865
143	0xbf6e5bde	-0.9310893
144	0x3cf27245	0.029595504
145	0xbd760b11	-0.060069147
146	0xbc063f54	-0.00819381
147	0x3cf19d47	0.029493941
148	0x3ec7462f	0.38920733
149	0x3c092098	0.008369587
150	0x3d2430a8	0.040085465
151	0x3d06e26e	0.032930784
152	0xbe56b263	-0.20966487
153	0xbdfc7cb8	-0.12328476
154	0x3c9ec720	0.01938206
155	0x3ce19d8a	0.02754094
156	0x3e1f3a1b	0.15549509
157	0x3b801df1	0.0039098193
158	0xbd6466be	-0.055762045
159	0xbddcf937	-0.107897215
160	0xbe13714a	-0.14398685
161	0x3e20d084	0.15704542
162	0xbe526e9c	-0.20550007
163	0xbeb57ada	-0.3544529
164	0x3d1835b5	0.037160594
165	0x3a415d3d	0.00073762593
166	0x3dfd0302	0.12354089
167	0xbc86727f	-0.016412018
168	0xbe024414	-0.12721282
169	0x3d02040d	0.031742144
170	0x3e4365fb	0.19081871
171	0xbd63a51a	-0.055577375
172	0x3e0f3592	0.13985279
173	0xbb198042	-0.0023422395
174	0x3d9ae38b	0.075629316
175	0x3b6c0b76	0.0036017573
176	0x3f249c31	0.6430083
177	0x3c950694	0.018191613
178	0xbb18e4bc	-0.0023329696
179	0xbdb69dd0	-0.08916819
180	0x3eabc441	0.33548167
181	0xbf46ae07	-0.77609295
182	0xbbef7653	-0.0073078065
183	0x3d256eb5	0.04038878
184	0x3f828120	1.0195656
185	0xbbd59159	-0.006517571
186	0xbce0aa58	-0.027424976
187	0x3df04e69	0.117337056
188	0x3d81506b	0.06314167
189	0x3c994a57	0.018712206
190	0x3c820b0d	0.01587441
191	0x3db3a465	0.0877159
192	0xbde288a2	-0.11061217
193	0x3ea6872c	0.32525003
194	0x3cb36c8a	0.021902341
195	0xbbea399f	-0.0071479823
196	0xbd9db164	-0.0769985
197	0xbc5e35cd	-0.013562632
198	0xbd257948	-0.040398866
199	0x3c1543d5	0.009110411
200	0x3e9cedbb	0.30650124
201	0x3f47b4a3	0.78010005
202	0xbc89e9d2	-0.016835127
203	0x3f36324f	0.71170515
204	0xbe554686	-0.20827684
205	0x3c7a75cb	0.015286873
206	0x3d2d1ae1	0.04226196
207	0x3e23578b	0.15951364
208	0x3e2cf9c9	0.1689216
209	0x3db4da94	0.08830753
210	0x3e690fb9	0.22759904
211	0x3f3c70ce	0.73609626
212	0xbd002e76	-0.03129431
213	0x3d705a0f	0.058679637
214	0xbdf32f5a	-0.11874266
215	0x3cc90302	0.024537567
216	0x3c9f7815	0.01946644
217	0xbb12d41d	-0.0022404261
218	0x3ebe4c18	0.3716743
219	0xbe647a82	-0.22312358
220	0x3d1628bb	0.036659937
221	0x3a82341c	0.0009933743
222	0xbdb99dd2	-0.09063305
223	0xbc9a45bf	-0.018832086
224	0xbdf9c567	-0.12195855
225	0x3de353d5	0.11099974
226	0x3c29f91c	0.010374334
227	0x3de09577	0.10966008
228	0x3e5e694d	0.21719857
229	0xbe5800a9	-0.21094002
230	0x3a0750a5	0.0005161858
231	0xbc8596ba	-0.016307224
232	0x3e64f991	0.22360827
233	0x3cd287c2	0.0256995
234	0x3cd0203f	0.025406001
235	0xbe20b258	-0.15693033
236	0x3ed9564c	0.42448652
237	0x3a3ccc90	0.0007202113
238	0xbcf7c8e1	-0.030247154
239	0x3f9b52bb	1.2134622
240	0x3ea44df8	0.32090735
241	0x3eb6246d	0.35574666
242	0xbd4de5f8	-0.050268143
243	0xbcc384d8	-0.023867056
244	0x3e97aeae	0.29625458
245	0xbbfb41f8	-0.007667776
246	0x3b9a9d11	0.004718431
247	0x3be56ec9	0.007001732
248	0x3e85ba63	0.26118764
249	0x3eb211ff	0.34779355
250	0x3b82506e	0.003976873
251	0x3ea90a64	0.3301574
252	0xbde2752d	-0.11057506
253	0x3a700588	0.00091560977
254	0xbc56f1e6	-0.0131191965
255	0x3e053424	0.13008171

1 f4 [6, 12, 4]
0	0x40199e86	2.4003005
1	0xbdf8eae9	-0.121541806
2	0x3db16685	0.08662132
3	0x3f79106b	0.97290677
4	0x406fc3e8	3.7463322
5	0x3f5ad0ec	0.8547504
6	0x3f9d47d1	1.2287542
7	0xbfb791b7	-1.4341344
8	0xbf831c99	-1.0243102
9	0xc048077c	-3.1254568
10	0x403d48d2	2.9575696
11	0xbda4b426	-0.08042173
12	0xc0130eee	-2.2977862
13	0x3fb44af3	1.4085373
14	0xbde0bc8f	-0.10973465
15	0x3f554ce7	0.8332047
16	0x3ffd5b44	1.9793477
17	0xbf0104b3	-0.50397795
18	0xc01c5d93	-2.4432113
19	0xbeb6f7ef	-0.35736033
20	0x3eee2544	0.46512806
21	0x4027e43a	2.6233048
22	0xbfc241c2	-1.5176318
23	0x3f4fba38	0.8114352
24	0xc0858fda	-4.17381
25	0x3eb68292	0.35646492
26	0xbfb1dccd	-1.3895508
27	0x3fe5bb24	1.7947736
28	0x3fc8f2ea	1.5699131
29	0xbf4e8e0e	-0.8068551
30	0x3fac445c	1.3458362
31	0x3f44c86c	0.7686832
32	0x40d85c3f	6.7612605
33	0xbf736702	-0.9507905
34	0xbf5a4afa	-0.85270655
35	0xbf995353	-1.1978554
36	0x408b6fc6	4.357394
37	0x401f6b14	2.4909105
38	0xbf62d1d3	-0.88601416
39	0x3e28a499	0.16469039
40	0x40107039	2.2568495
41	0xc0121104	-2.2822886
42	0x3de7e9e3	0.11323907
43	0x3fac6a45	1.3469931
44	0x404906b3	3.141034
45	0x3f98673e	1.1906507
46	0xbde6dc6c	-0.11272511
47	0xbdbae909	-0.09126479
48	0x4045016a	3.0782113
49	0x3ee50cff	0.44736478
50	0x3f4ab42c	0.7918117
51	0x3fe3602e	1.7763727
52	0x400589a7	2.0865266
53	0x3fe87736	1.816138
54	0x3f008c7e	0.50214374
55	0xbf27946a	-0.65460837
56	0xbff1df27	-1.8896226
57	0x3f6c8948	0.92396975
58	0x400e82bb	2.2267292
59	0x3f3eadc2	0.74483883
60	0xbf9c6396	-1.2217891
61	0x3f2744c9	0.6533933
62	0xbe5e9b96	-0.21739039
63	0x3f8ced70	1.100996
64	0x3fcfaa24	1.6223798
65	0xbf255d1e	-0.6459521
66	0xbe5c795f	-0.21530674
67	0x3f5033bc	0.8132894
68	0xc00dba37	-2.2144907
69	0x403ce525	2.9514859
70	0xbfbcee43	-1.4760212
71	0xbf83a4b9	-1.0284644
72	0xbe78f967	-0.2431389
73	0x3e4c5459	0.19954051
74	0xbfdef819	-1.7419463
75	0x401b783d	2.4292138
76	0x3febec62	1.8431513
77	0x3dec3a7e	0.11534594
78	0x3f96f8b7	1.1794652
79	0x3ff92196	1.9463375
80	0xbe83109a	-0.25598603
81	0x3f6162bb	0.88041276
82	0x3f63bc86	0.8895954
83	0x3ed6b26b	0.41932997
84	0x3fe361db	1.7764238
85	0x3fc426e7	1.5324372
86	0xbf624c9f	-0.88398165
87	0x3f3bab04	0.73307824
88	0x3f766c4b	0.9625899
89	0xbed85ec7	-0.4225981
90	0x3ee3ad3d	0.44468108
91	0x402ea6a4	2.728921
92	0x3dd584e2	0.10425736
93	0x3f841d21	1.032139
94	0x3f90e8fa	1.1321099
95	0x3f857771	1.0427076
96	0x3cbbddce	0.022932913
97	0x3f96d7c4	1.1784596
98	0x3f14d547	0.58137935
99	0x3fb59009	1.4184581
100	0xbe4c5c64	-0.19957119
101	0x3fcaa8a4	1.5832715
102	0x3ec13ecb	0.3774322
103	0x3f6e0dd8	0.92989874
104	0x3f21c27a	0.6318737
105	0x3f129dbb	0.5727193
106	0xbee5ab13	-0.44857082
107	0xbf754360	-0.9580593
108	0x3fdb4ba9	1.7132465
109	0xbd90a77b	-0.07063194
110	0x3f6d9323	0.9280264
111	0x3f570d8c	0.84005046
112	0xbf27d807	-0.65564007
113	0xbd638ddc	-0.05555521
114	0x3f500777	0.8126139
115	0x3ffd1bf2	1.9774153
116	0x3e9cd7e5	0.30633464
117	0x3eb55235	0.3541428
118	0x3f893c3a	1.0721505
119	0x3e8009e8	0.25007558
120	0x3f67878c	0.90441203
121	0x3f2916f1	0.6605063
122	0xbe7eb7f7	-0.24874865
123	0xbe6e4802	-0.23269656
124	0x3f32effe	0.6989745
125	0x3e846f67	0.25866243
126	0xbeedded1	-0.46459058
127	0xbd8c4c41	-0.06850482
128	0xbf5c1627	-0.859713
129	0x3ffacc6a	1.9593632
130	0x3ecc36c4	0.39885533
131	0x3f9d3fa7	1.228505
132	0xbd0aa0ef	-0.033844884
133	0x3ed0f6ed	0.4081339
134	0x3f55a595	0.83455783
135	0x3fc37358	1.5269575
136	0x3edc2ae7	0.43001482
137	0x3f21c6f4	0.63194203
138	0x3f540f30	0.82835674
139	0x3f94758b	1.1598371
140	0xbf075a4f	-0.52872175
141	0x3f20a8d3	0.62757605
142	0xbf376d53	-0.7165119
143	0x3fb15b85	1.3856055
144	0xbd9fe778	-0.07807821
145	0x3fcd0782	1.6017916
146	0xbf529041	-0.82251364
147	0x3ed6379e	0.41839308
148	0xbede9b75	-0.4347798
149	0x3e30ed77	0.17278086
150	0x3f135674	0.5755379
151	0x3f6181be	0.88088596
152	0x3f0d7128	0.5525079
153	0xbe71463a	-0.23561946
154	0xbeeab92a	-0.45844394
155	0xbf985fd6	-1.1904247
156	0x3f2f93dc	0.6858499
157	0x3f0e205e	0.5551814
158	0x3f63a190	0.889184
159	0x3fd29168	1.6450624
160	0xbc8e1351	-0.017343195
161	0xbc615f21	-0.013755591
162	0xbe5f876d	-0.21829005
163	0x3fbb4706	1.463105
164	0x3f925c2d	1.143438
165	0xbf05b080	-0.5222244
166	0x3e82662e	0.25468582
167	0x3eeaf6c6	0.45891398
168	0x3f6d1301	0.9260712
169	0x3f6b0ee0	0.9181957
170	0x3f5dc4c1	0.8662835
171	0xbd13cf39	-0.036086295
172	0xbf67be83	-0.9052507
173	0x3fad047c	1.3516994
174	0xbdd05d98	-0.101741016
175	0xbf4ae29f	-0.79252046
176	0xbe001e51	-0.12511565
177	0x3f9d8b5a	1.2308152
178	0xbdf2bf2a	-0.11852868
179	0xbdb67697	-0.08909338
180	0x3dea8a3f	0.114521496
181	0x3e9fc116	0.31202
182	0x40171557	2.3606775
183	0x3daa90de	0.083284125
184	0x3f29c2d2	0.663129
185	0x3ea1b1ce	0.31580967
186	0x3fe65920	1.7995949
187	0xbf6abcde	-0.9169444
188	0xbf8ae2a5	-1.0850416
189	0xbcc2d071	-0.023781033
190	0x3f93ca43	1.15461
191	0xbf0183ab	-0.50591534
192	0x3d37232b	0.044711273
193	0x3f614832	0.88000786
194	0x3f2f90bb	0.68580216
195	0x3ed95834	0.42450106
196	0x3e40d146	0.18829831
197	0xbf16f749	-0.5897108
198	0x3f4032eb	0.75077695
199	0x3f4a4d54	0.79024243
200	0x3f90d9ab	1.1316427
201	0xbe2c3db3	-0.16820411
202	0x3d6b31d9	0.057420585
203	0x3f843ffe	1.0332029
204	0xbe8be0d2	-0.27319962
205	0x3f89f869	1.0778934
206	0x3f63415d	0.8877161
207	0x3f949aea	1.1609776
208	0xbe91cce2	-0.28476626
209	0x3f8b77de	1.0895956
210	0x3ddf19f0	0.10893619
211	0xbe8849de	-0.26618856
212	0x3ea4d4d3	0.32193622
213	0xbf20138e	-0.6252984
214	0xbf12a223	-0.5727865
215	0x3e91e29e	0.28493208
216	0x3fa5c1dd	1.2949787
217	0x3fadfa6c	1.3592048
218	0x3d711a86	0.058863185
219	0x3fc3e683	1.5304722
220	0xbf860b75	-1.0472246
221	0x3f83aba3	1.0286754
222	0x3ead2343	0.33815965
223	0xbf1e73f7	-0.618957
224	0x3f12b6c5	0.57310134
225	0x3dc76ee2	0.09737946
226	0xbd30d6ff	-0.043173786
227	0xbef2344c	-0.47305524
228	0x3e56602e	0.20935127
229	0xbd986cc1	-0.07442618
230	0x3fce353e	1.6109998
231	0xbfd2be9b	-1.6464418
232	0x3fb3b98c	1.4041
233	0x3dc88738	0.09791416
234	0x3fc8e956	1.5696208
235	0x3d80a4b6	0.06281416
236	0x3eadc156	0.33936566
237	0xbd8937e4	-0.067001134
238	0x3f238cf2	0.6388694
239	0xbea4128c	-0.320454
240	0x3e91ead0	0.2849946
241	0xbdf09a8e	-0.11748229
242	0x3ee50939	0.447336
243	0x3ed807e4	0.4219352
244	0x3e5142c1	0.20435621
245	0xbed9b629	-0.4252179
246	0x3c4fb8fe	0.012678383
247	0x3f13e4f8	0.57771254
248	0x3f2e9793	0.68200034
249	0xbe0e4312	-0.13892773
250	0x3de2fbc9	0.110831805
251	0x3f4531f5	0.77029353
252	0xbeef77df	-0.46771142
253	0x3f2580d5	0.6464971
254	0x3ec3a66f	0.38212916
255	0x3e137ea8	0.14403784

2 f4 [6, 12, 4]
0	0xc016679b	-2.3500736
1	0x3f8329bd	1.0247113
2	0xbdf3fe53	-0.11913743
3	0x3f9806c6	1.1877067
4	0x406d39a9	3.7066443
5	0x401eff08	2.4843159
6	0x3d25d6e0	0.040488124
7	0x3f8273cd	1.019159
8	0xbfb78c2f	-1.4339656
9	0xc01aa53a	-2.4163346
10	0x40031c20	2.0485916
11	0x3f632dec	0.88741946
12	0x3f18d720	0.59703255
13	0x4035c29e	2.8400035
14	0x3efac057	0.4897487
15	0xbf346d4b	-0.7047927
16	0xc0074661	-2.1136706
17	0xbff1575d	-1.8854786
18	0x3e3c37b8	0.1838063
19	0x3f0fd879	0.56189686
20	0x4036b990	2.8550758
21	0x3fd817bf	1.6882247
22	0x3e6d9a68	0.23203433
23	0x3f243e66	0.6415771
24	0xbf7c85f7	-0.98641914
25	0x4002deed	2.0448563
26	0x3eed8508	0.46390557
27	0x3ea39cfe	0.31955713
28	0xbdc1908f	-0.094514005
29	0xbf6086b4	-0.8770554
30	0x3fbc2b95	1.47008
31	0x3f0832e9	0.5320268
32	0x40223616	2.5345511
33	0x3f6bba36	0.9208101
34	0x3ec37e02	0.38182074
35	0xbf7f5936	-0.997455
36	0x4007f3d7	2.1242578
37	0x4031ea37	2.7799203
38	0x3ddf355f	0.108988516
39	0x3f3f5c0f	0.74749845
40	0x4061d707	3.5287492
41	0x4027d5fb	2.6224353
42	0x3f13e94a	0.57777846
43	0x3f6d53fa	0.92706263
44	0xbf5723b2	-0.8403884
45	0xbf9d4e7b	-1.2289575
46	0x3e13df11	0.14440562
47	0x3d5fa354	0.05459912
48	0x401f8ae6	2.4928527
49	0x3f35dacf	0.71037
50	0x3fb76572	1.4327834
51	0x3ff91e01	1.9462281
52	0x3ce56b17	0.028005166
53	0x3edd8c99	0.4327133
54	0x3f8875ce	1.0660951
55	0x402680ea	2.6016183
56	0xbe9e60d0	-0.30933237
57	0xbfa49641	-1.2858354
58	0xbf95f830	-1.1716366
59	0x4003a5f0	2.057003
60	0xbfc86bae	-1.5657861
61	0xbfafa031	-1.3720762
62	0xbf18dbaa	-0.5971018
63	0xc0062e4a	-2.0965753
64	0xbf60d0d2	-0.87818635
65	0xbfa17f10	-1.2616901
66	0x3f86d4c6	1.0533683
67	0x3e6e6aee	0.23282978
68	0xbf028b6c	-0.5099399
69	0x3fe484b1	1.7852994
70	0x3d084711	0.0332709
71	0xbf91905a	-1.1372178
72	0xbd2b511f	-0.04182541
73	0x3ef3f3a8	0.47646832
74	0xbd1f49e2	-0.03888882
75	0x3fc30a25	1.5237471
76	0x3f61f5d4	0.8826573
77	0xbf0bc4f4	-0.545974
78	0x3ecc0763	0.39849386
79	0xbf6210f4	-0.8830712
80	0x3f2c928d	0.6741112
81	0x3eea8314	0.4580313
82	0xbf556039	-0.8334995
83	0xbf1a995e	-0.6039027
84	0x3ff0349d	1.8766056
85	0xbef185cc	-0.4717239
86	0x3f15c379	0.5850139
87	0xbf855606	-1.0416877
88	0x40186c9f	2.3816297
89	0x4028fc7e	2.640411
90	0xbe9c6646	-0.30546778
91	0x3f67deb5	0.905742
92	0x3f8763ed	1.057737
93	0x3f7e5362	0.9934598
94	0x3eb182f8	0.34670234
95	0x3f804068	1.0019655
96	0xbfc5f98b	-1.546678
97	0xbf256ebf	-0.6462211
98	0xbf31fb6e	-0.69524276
99	0xbceb3950	-0.028713852
100	0xbf8c6d2b	-1.0970815
101	0xbf48e7bf	-0.78478616
102	0xbfb267ef	-1.3937968
103	0x3f8f9a04	1.1218877
104	0x3f71ee21	0.9450398
105	0x3f7cc149	0.9873243
106	0xbd8694ee	-0.06571375
107	0x3f6c1f4b	0.9223525
108	0x3f8a18c2	1.0788805
109	0x3e238f5c	0.15972656
110	0xbec35328	-0.3814938
111	0xbf17580b	-0.5911872
112	0x3f8b3222	1.0874674
113	0xbd60ff62	-0.054931052
114	0xbe2afa68	-0.16697085
115	0xbf7111c9	-0.94167763
116	0xbecad2ef	-0.39614055
117	0x3fc38d4c	1.5277495
118	0x3f286e14	0.65792966
119	0x3f1b4d00	0.6066437
120	0x3f9de07e	1.2334135
121	0xbf80a552	-1.0050452
122	0x3f3a54d3	0.7278568
123	0x400112d6	2.0167747
124	0x3f4a4e41	0.79025656
125	0xbf39294a	-0.7232863
126	0xbed947f1	-0.424377
127	0xbf697aef	-0.91203207
128	0xbb951ac1	-0.0045503085
129	0x3f608106	0.87696874
130	0x3b34aa6a	0.0027567395
131	0x3f2f73eb	0.6853625
132	0x3ba7270a	0.0051010894
133	0xbfa1b3df	-1.2633017
134	0x3fafee8f	1.3744677
135	0xc00833ad	-2.128154
136	0x3dcab974	0.098986536
137	0x3f28d004	0.65942407
138	0x3f62a4ea	0.8853289
139	0xbf320be3	-0.6954939
140	0x3f319686	0.69370306
141	0x3e961dba	0.29319555
142	0x3fa28125	1.2695662
143	0x40005783	2.0053413
144	0x3dde7032	0.10861243
145	0xbfe59a33	-1.7937683
146	0xbf07bbf0	-0.53021145
147	0xc0194d92	-2.3953595
148	0xbe847688	-0.25871682
149	0x3dc851af	0.09781205
150	0x3f5ed072	0.8703681
151	0xbd899a70	-0.0671891
152	0x3f63040e	0.8867806
153	0x3f0d700c	0.55249095
154	0x3e4582f9	0.19288243
155	0x3ebc0ca5	0.36728397
156	0x3f076e56	0.52902734
157	0x3ebc4a08	0.3677523
158	0x3cac2363	0.021012967
159	0x4026329b	2.5968387
160	0xbe043ce3	-0.12913851
161	0x3e48f187	0.19623385
162	0xbed384af	-0.41312167
163	0xbee693d3	-0.45034656
164	0x4006007d	2.0937798
165	0x3e8999ac	0.26875055
166	0x3fa19495	1.2623469
167	0xbe306f71	-0.17230012
168	0x3fc57261	1.5425531
169	0x3ec68195	0.38770738
170	0xbfb06a21	-1.3782388
171	0x3ee774a6	0.45206183
172	0x3fc36885	1.5266272
173	0xbfbcaf03	-1.4740909
174	0xbf1bcc04	-0.6085818
175	0x3e943141	0.28943828
176	0x3f859be3	1.0438198
177	0x3f84e4b6	1.0382297
178	0x3eb2d458	0.3492763
179	0xbe43207c	-0.1905536
180	0xbebdfbc3	-0.3710614
181	0xbf298a87	-0.66227
182	0x4020a61c	2.5101385
183	0x3e66c748	0.22536957
184	0xbe3dd63f	-0.1853876
185	0x3ea603ee	0.32424873
186	0xbf0d6fe3	-0.5524885
187	0x3fa47135	1.2847048
188	0x3d9ab27c	0.075535744
189	0xbdc90f4a	-0.09817369
190	0x3facd8c1	1.3503648
191	0x3fd62c3c	1.6732249
192	0x3efed7d1	0.4977403
193	0xbfa3ab23	-1.2786602
194	0x3f7b94ed	0.9827412
195	0xbe76f4da	-0.24116841
196	0x3fc3eff6	1.5307605
197	0x3f99af58	1.2006636
198	0x3e85ea3f	0.26155278
199	0xbe630fa3	-0.22173934
200	0x3f8431b4	1.0327668
201	0xbcd0bbda	-0.0254802
202	0x3f773500	0.96565247
203	0x3f3dc431	0.7412749
204	0xbf13cfae	-0.5773877
205	0x3e42ceb7	0.19024168
206	0x3fa7e5ad	1.3116966
207	0x3fae9dee	1.3641946
208	0x3c92f0d8	0.017937109
209	0x3edb6b28	0.4285519
210	0x3dda44fe	0.106576905
211	0x3ff3b0ca	1.9038327
212	0x3f7b9748	0.9827771
213	0xbe014e23	-0.12627463
214	0x3f0f8f4c	0.5607803
215	0x3e4ef951	0.20212294
216	0x3fbd2ad9	1.4778701
217	0x3effdc5f	0.49972817
218	0x3f84c544	1.0372701
219	0xbeaac9ac	-0.33356988
220	0x40043fdc	2.0663977
221	0xbfbb24ee	-1.4620645
222	0x3f3187bb	0.69347733
223	0xbe36ef1f	-0.17864655
224	0x3fd59fce	1.6689394
225	0x3f397708	0.7244725
226	0x3f66c50b	0.90144414
227	0x3f509c0c	0.8148811
228	0xbf209cd8	-0.62739325
229	0xbeb4cda5	-0.35313144
230	0x3ffcfce6	1.9764678
231	0x3fa11915	1.258578
232	0x3e332c8a	0.17497459
233	0xbdbe9874	-0.09306422
234	0x3f7542e7	0.9580521
235	0x3f9a37dd	1.2048298
236	0x3f6d5f50	0.9272356
237	0x3f30292e	0.68812835
238	0x3fd2c447	1.6466149
239	0x3f9647c0	1.1740646
240	0x3e318dd4	0.1733926
241	0xbe23af6c	-0.15984887
242	0x3f1bc944	0.6085398
243	0x3f8cd1c4	1.1001515
244	0x3f80b3fd	1.0054928
245	0x3f5e8e14	0.86935544
246	0x3e831c1c	0.25607383
247	0xbe14e462	-0.14540246
248	0xbe8179bf	-0.25288197
249	0xbea06ede	-0.31334585
250	0x3da290df	0.07937788
251	0x3e789dbe	0.24278924
252	0xbee8652b	-0.45389685
253	0x3e025732	0.12728575
254	0x3eac5958	0.33661914
255	0x3da0c220	0.078495264

3 f4 [6, 12, 4]
0	0xc0859b5b	-4.1752143
1	0x4006f28a	2.1085534
2	0xbe7db543	-0.24776177
3	0xbdc5bd15	-0.09655205
4	0x40212031	2.5175898
5	0xbe3061a0	-0.17224741
6	0x3e3947c6	0.18093786
7	0xbee039a9	-0.4379399
8	0xbf8d20e5	-1.1025664
9	0x3da8d7e2	0.082443014
10	0xbfc9bb25	-1.5760237
11	0x3f068158	0.5254111
12	0x40543cf4	3.3162203
13	0x3f5dab3f	0.86589426
14	0x3ebe0882	0.37115866
15	0xbf018af0	-0.50602627
16	0x3f5158e7	0.8177628
17	0x3fa0f9ea	1.2576268
18	0xc005a7d2	-2.088368
19	0x3f5facbd	0.8737295
20	0x3e946ddb	0.28990063
21	0x3f527a0c	0.8221748
22	0xbf053b5f	-0.5204372
23	0xbe8e6cbe	-0.2781734
24	0x3eeb70c0	0.4598446
25	0x3ec88af9	0.39168528
26	0xbed043f0	-0.40676832
27	0x3f8b1db7	1.0868443
28	0x3f563a70	0.8368292
29	0xbcc6889a	-0.024235059
30	0xbeb0c5fb	-0.34526047
31	0x3f0fa6a0	0.56113625
32	0x400c7076	2.194364
33	0x3f52e468	0.8237977
34	0x3f6a683d	0.91565305
35	0xbfc29997	-1.5203122
36	0x4033f8bc	2.8120565
37	0x4036b4f8	2.8547955
38	0xbe298ff6	-0.16558823
39	0x3fb5466c	1.4162116
40	0x4071d4b5	3.7786076
41	0x4073278e	3.7992892
42	0xbea885a3	-0.32914457
43	0xbf59aa29	-0.8502527
44	0x3fd95a4d	1.6980683
45	0x402a991e	2.6655955
46	0xbeb17b96	-0.346646
47	0x3e89942e	0.26870865
48	0xbf41d2f6	-0.75712526
49	0x3f108483	0.56452197
50	0x3fb283d9	1.3946487
51	0xbe8345d7	-0.2563922
52	0xbfcfc5f9	-1.6232291
53	0x3ff60bb8	1.9222326
54	0x3ea39f03	0.31957254
55	0x3f929643	1.1452106
56	0x3ffff63f	1.9997023
57	0x3e80bdc1	0.2514477
58	0xbfed1b26	-1.852391
59	0x3ee80a16	0.45320195
60	0xc01ef088	-2.4834309
61	0x3f45e99d	0.7730959
62	0x3fa81b9a	1.3133423
63	0xbfcdd927	-1.6081895
64	0x3ed6975c	0.41912353
65	0x40029674	2.040433
66	0xbebb5b0c	-0.365929
67	0x3eedd4d1	0.4645143
68	0x3ffb4065	1.9629027
69	0x4007cd39	2.1219008
70	0x3f0c9f60	0.54930687
71	0xbec1d794	-0.37859786
72	0x3f44edb1	0.7692519
73	0x40082e79	2.1278365
74	0x3f96229c	1.1729312
75	0x3e7684e0	0.24074125
76	0xbef40d23	-0.47666273
77	0x3eaf43c0	0.34231377
78	0xbe944c20	-0.2896433
79	0x3f857974	1.042769
80	0xbeec9357	-0.4620616
81	0x3ed03cab	0.40671286
82	0xbfebec89	-1.843156
83	0xbf1ed6f8	-0.62046766
84	0x3fef5153	1.8696693
85	0x3fd55051	1.6665136
86	0x3e5f0dfc	0.21782678
87	0x3f9df4ab	1.2340292
88	0xbf0a7b74	-0.54094625
89	0x3e580bc5	0.2109824
90	0x3eb1ab8e	0.34701198
91	0xbfa1530d	-1.260347
92	0x3f128494	0.5723355
93	0x3da50a0c	0.08058557
94	0xbf655c95	-0.89594394
95	0x3fc8cdd9	1.568782
96	0x3f2e1b27	0.6801018
97	0xbe824087	-0.25439855
98	0x3f1f2e38	0.621799
99	0x3ea1a0ae	0.315679
100	0x3e9b8331	0.3037353
101	0x3f438c45	0.7638591
102	0x3f46e91b	0.7769944
103	0x3f91f521	1.1402932
104	0x3f55f885	0.83582336
105	0x3ee7b6d8	0.45256686
106	0x3f9abdae	1.2089136
107	0xbecdeee3	-0.4022132
108	0x4014c1b6	2.3243232
109	0x3f1e4d17	0.6183638
110	0x3f4269ff	0.7594299
111	0x3ebe3144	0.37146962
112	0x3f14e874	0.58167195
113	0x3fa48dd5	1.2855784
114	0xbf024999	-0.5089355
115	0x3fc519f4	1.5398545
116	0x3f925c09	1.1434337
117	0x3f0765f5	0.5288995
118	0x3f210306	0.6289524
119	0xbe32b8fb	-0.17453377
120	0xbe0bfd26	-0.13670787
121	0xbfa54f36	-1.2914798
122	0xbf91eb31	-1.13999
123	0xbf707ece	-0.9394349
124	0x3f5e64a6	0.8687233
125	0x3f00773c	0.5018194
126	0x3f51efc7	0.82006496
127	0x3cced247	0.025246752
128	0x3d8b6039	0.068054624
129	0xbf51359d	-0.8172243
130	0x3ee5b13a	0.44861776
131	0x3fd9e4e0	1.7022972
132	0x3f3775eb	0.71664304
133	0x3f160b46	0.5861095
134	0x3eef226b	0.46705946
135	0xbf0224c2	-0.5083734
136	0x3e5d49d7	0.21610199
137	0xbeef9c35	-0.46798864
138	0x3f2da32a	0.67827094
139	0xbeec4cda	-0.46152383
140	0xbf2e328d	-0.68045884
141	0x3ebda078	0.3703649
142	0x3fbdfcb6	1.4842746
143	0x4003b2bd	2.0577843
144	0x3ed5bc90	0.41745424
145	0x3f44f8bf	0.76942056
146	0xbecc60ce	-0.39917606
147	0x3fe1eea5	1.7650954
148	0x3f9fba25	1.2478682
149	0x3eacf25a	0.3377865
150	0x3fcd7230	1.6050472
151	0x3f1285d0	0.5723543
152	0x3ee73cc1	0.4516354
153	0x3fbc9c8f	1.4735278
154	0x3e894cb5	0.26816335
155	0x3e71d3db	0.23615973
156	0xbe9919b7	-0.2990243
157	0xbee13012	-0.43981987
158	0xbf2b1e85	-0.66843444
159	0x4021f958	2.5308437
160	0x3f944715	1.1584193
161	0xbeac0fc4	-0.33605778
162	0x3f32590b	0.6966712
163	0x3f1033db	0.56329125
164	0xbeea6d40	-0.45786476
165	0xbf318839	-0.69348484
166	0x3efc4dbc	0.49278057
167	0x3f22d286	0.63602483
168	0x3fafac30	1.3724422
169	0xbf8d2e95	-1.1029841
170	0x3f136c88	0.5758748
171	0xbdf01d32	-0.117243186
172	0x40195f4d	2.3964417
173	0x3fd8a430	1.6925106
174	0x3fa6246d	1.2979866
175	0x3f05ee32	0.5231658
176	0x3e6d23d8	0.23158205
177	0x3ea27779	0.31731775
178	0xbd8bc3f0	-0.068244815
179	0x3f1f9e42	0.6235086
180	0x3ed8a741	0.42315105
181	0x3e98dd4d	0.2985634
182	0x3e9590a0	0.29211903
183	0x3ef36bae	0.4754309
184	0xbf3a7e45	-0.7284892
185	0xbf894379	-1.0723716
186	0x3fb94f24	1.4477277
187	0x3f0cd8e9	0.5501848
188	0x3fb9203c	1.4462962
189	0xbe65e40d	-0.22450276
190	0xbfd1e040	-1.6396561
191	0xbe87d8e8	-0.26532674
192	0x3cb7249a	0.02235632
193	0xbe849a27	-0.2589886
194	0xbed3aee7	-0.41344377
195	0x3faa4f2c	1.3305411
196	0xbecad8c2	-0.39618498
197	0xbc40d19d	-0.011768726
198	0x3fb4e0fe	1.4131162
199	0xbf5d5e99	-0.8647247
200	0xbc51cafb	-0.012804742
201	0x3fcbc794	1.5920281
202	0xbf6774fb	-0.90412873
203	0x3fb02370	1.3760815
204	0xbe9b1a8f	-0.302937
205	0x3ef69801	0.48162845
206	0xbf013620	-0.50473213
207	0x3f5ce8b2	0.86292565
208	0x3fe7f4ad	1.8121544
209	0xbf63544d	-0.8880051
210	0x3ceb2bd2	0.028707419
211	0xbf80b231	-1.005438
212	0xbeb52b11	-0.3538442
213	0xbf9a54d3	-1.2057136
214	0x3f730b0d	0.9493874
215	0xbf2d37bb	-0.6766316
216	0x3f121d2c	0.5707576
217	0xbedcbccd	-0.43112794
218	0x3f38cff9	0.7219234
219	0xbecd5161	-0.4010115
220	0x401048d3	2.2544448
221	0x3f7f7e5b	0.9980218
222	0x3f84d2da	1.0376847
223	0x3f8b7bb5	1.0897127
224	0x3f0164eb	0.50544614
225	0x3e53733a	0.20649424
226	0x3d84bdc2	0.06481506
227	0x3ebf5334	0.37368166
228	0xbeca7190	-0.39539766
229	0x3ec9e659	0.39433554
230	0x3f932e13	1.1498436
231	0x3f9a47cc	1.2053161
232	0x3ede1bce	0.43380588
233	0xbf2383b3	-0.6387283
234	0x3f56bdfd	0.8388365
235	0x3f3f63b0	0.74761486
236	0x3ed64c96	0.41855305
237	0x3d551bab	0.05202834
238	0x3f6f02c8	0.9336362
239	0xbf529fbb	-0.8227498
240	0xbdd10c0e	-0.102073774
241	0xbebef66c	-0.3729738
242	0x3f2e6034	0.68115544
243	0x3eae67c2	0.34063536
244	0xbe8d0726	-0.27544516
245	0xbe970cb1	-0.2950187
246	0x3f0605dd	0.52352697
247	0xbf28afb8	-0.65893126
248	0x3e0f72a5	0.14008577
249	0x3e85e5bd	0.2615184
250	0xbec08b3b	-0.37606224
251	0x3ec08437	0.37600872
252	0x3b78b6a5	0.0037950661
253	0x3dec4fc1	0.11538649
254	0xbed67240	-0.4188404
255	0xbe27a290	-0.16370606

weight f4 [32, 288]
0	0xbf89b50d	-1.0758377
1	0x3ed25541	0.4108067
2	0xbd6d4bcf	-0.057933625
3	0x3d993296	0.074803516
4	0x3eb9b10a	0.36267883
5	0x3eef024b	0.46681437
6	0xbf1384ed	-0.57624704
7	0x3fcc8238	1.597724
8	0xbff7e08d	-1.9365402
9	0x3f81bac6	1.0135124
10	0xbd7a6e6c	-0.061140463
11	0xbeb4eef8	-0.3533857
12	0x3f790ee1	0.9728833
13	0xbe40d664	-0.18831784
14	0xbf68ba2d	-0.9090908
15	0xbf02a22d	-0.5102871
16	0x3e611e91	0.21984316
17	0x3f7d6281	0.9897843
18	0x3fd0294c	1.6262603
19	0xc034787f	-2.8198545
20	0x40847d4d	4.1402955
21	0xbf401687	-0.75034374
22	0x3f01498e	0.5050286
23	0x4019cb92	2.40305
24	0xbf039e53	-0.5141346
25	0x3ab05b80	0.0013455003
26	0x3ddc80c6	0.10766749
27	0x3e64e9e2	0.22354844
28	0x3e9a8532	0.30179745
29	0xbbd731cd	-0.006567216
30	0xbe753fec	-0.23950166
31	0x3f68c73b	0.90929
32	0xbed374c9	-0.41300038
33	0xbf788d51	-0.9709063
34	0x400fd609	2.2474387
35	0xbeb83936	-0.35981148
36	0xbf8d16c1	-1.1022569
37	0xbe82e128	-0.25562406
38	0x3f6a3758	0.914907
39	0xbfb9bdec	-1.4511085
40	0x401572cf	2.3351324
41	0x3f8c1329	1.0943347
42	0x3f91651a	1.1358979
43	0x4012ed49	2.2957327
44	0xbf4baf3a	-0.7956425
45	0xbf93e126	-1.1553085
46	0x400a9a4b	2.1656673
47	0x3ed0dad8	0.40791965
48	0xbf8bda6e	-1.0926034
49	0xbf1b0a4b	-0.6056258
50	0x3d5313d7	0.051532593
51	0xbece9b51	-0.40352872
52	0x3e9699f3	0.2941433
53	0xc000da71	-2.0133326
54	0xbf5546fe	-0.8331145
55	0xbb04b2e2	-0.0020248224
56	0x3da8f084	0.08249
57	0xbe8ae969	-0.27131203
58	0xbfda007c	-1.7031398
59	0xbe847970	-0.258739
60	0xbed515ef	-0.41618297
61	0x3fe72acf	1.8059939
62	0xbc3d26db	-0.011544908
63	0xbf07a2ee	-0.52982986
64	0x3f5c68ad	0.8609722
65	0x40269181	2.6026309
66	0x4006c75f	2.1059186
67	0x3fa5a92e	1.2942255
68	0xbf4063fb	-0.7515256
69	0x3f8ef6d8	1.1169081
70	0xc00492a6	-2.0714507
71	0x3f825f31	1.01853
72	0x3f53a055	0.8266652
73	0x3dd0c16a	0.10193141
74	0xbd33a6e4	-0.04386033
75	0x3f689566	0.90852964
76	0xbd48c664	-0.049017325
77	0xbf91d97d	-1.1394497
78	0x3f0e12c5	0.5549739
79	0xbe95019a	-0.29102784
80	0x3f325e54	0.69675183
81	0xbe896f1c	-0.26842582
82	0xbe9ad909	-0.3024371
83	0x3fe817c1	1.8132249
84	0xbfa93282	-1.3218539
85	0x3e988474	0.29788554
86	0xbf5454a7	-0.8294167
87	0x3fa91d4b	1.3212065
88	0xbf05b1fe	-0.5222472
89	0x3fcb2d18	1.5873137
90	0x3f2755c8	0.65365267
91	0xc0589806	-3.3842788
92	0xbf8b176c	-1.0866523
93	0xc0013623	-2.0189292
94	0xbde061c2	-0.10956146
95	0xc08f0b8d	-4.47016
96	0x3e830362	0.25588518
97	0xbe5f08e9	-0.21780743
98	0x3df2486b	0.11830219
99	0xbebc99db	-0.36836132
100	0x3e472d29	0.19450821
101	0xbfc9d48c	-1.5767989
102	0xbf29596a	-0.6615206
103	0x3e90f959	0.28315237
104	0xbeaad5fb	-0.3336638
105	0x3e96f704	0.29485333
106	0xbf25b5e2	-0.64730656
107	0x3f8a9194	1.0825677
108	0xbfab888a	-1.3401043
109	0x3e5f2d07	0.2179452
110	0x3be6586b	0.007029583
111	0xbf69939b	-0.91240853
112	0xbf731f76	-0.9496988
113	0x3f809733	1.0046142
114	0xc08e511e	-4.447402
115	0xbf1737ec	-0.59069705
116	0x3f029210	0.51004124
117	0x3eaa33ad	0.3324255
118	0xc028e114	-2.6387377
119	0xbe942215	-0.28932253
120	0x3caf2542	0.02138007
121	0xbca6c4ec	-0.020357572
122	0xbdfb87e6	-0.1228178
123	0xbd3c0d94	-0.045911387
124	0xbe889651	-0.26677182
125	0x3e938a8c	0.2881664
126	0x3f66eb16	0.9020246
127	0x3fa4c18a	1.2871563
128	0xbf9f960d	-1.2467667
129	0x3f38cef4	0.72190785
130	0xbdd14bda	-0.10219546
131	0x3edf28b9	0.43585756
132	0x3d388bd2	0.045055218
133	0x3df4c8c4	0.119523555
134	0xbbed5a9f	-0.007243469
135	0x3f88c285	1.0684363
136	0x3e32ff69	0.17480244
137	0xbed8fcfe	-0.42380518
138	0xbf37bf14	-0.7177594
139	0x3f26717e	0.65016925
140	0xbf1a92e8	-0.6038041
141	0x3c841228	0.016121939
142	0x401734c4	2.3625956
143	0x3f17979c	0.5921571
144	0x3ed7274c	0.4202217
145	0x3dd06871	0.101761706
146	0xbf15e1a2	-0.58547413
147	0x3e141424	0.14460808
148	0xbde88be1	-0.11354805
149	0xbfc96974	-1.5735307
150	0xbf8e4acb	-1.1116575
151	0x3ee935d4	0.4554888
152	0x3ea51bba	0.32247716
153	0xbf1fabb0	-0.6237135
154	0x3f132f11	0.5749369
155	0x3f2ca49e	0.67438686
156	0xbee40505	-0.4453508
157	0x3fb6665d	1.4249989
158	0x3f8fa312	1.122164
159	0xbf8e17a1	-1.1100961
160	0x3c360d01	0.011111499
161	0x406ede5e	3.7323222
162	0xbfb48ed6	-1.410609
163	0xbf1dbbc9	-0.6161466
164	0xbf779c72	-0.9672309
165	0xc02b089b	-2.6724002
166	0xbf3d53db	-0.7395608
167	0xc11501dc	-9.312954
168	0xbef12106	-0.47095507
169	0xbd3510a1	-0.04420531
170	0x3e8f9e42	0.2805043
171	0xbd166163	-0.03671397
172	0x3f4024c9	0.7505613
173	0xbfb5eb64	-1.421246
174	0x3e37db43	0.17954735
175	0xbe06111d	-0.13092466
176	0xbd8e616c	-0.069521755
177	0xbfba484d	-1.4553314
178	0xbebad881	-0.36493304
179	0xbfd0daf3	-1.6316818
180	0xbeaa47ed	-0.33258
181	0xbf3601f7	-0.7109675
182	0xbd04bfc2	-0.032409437
183	0x403530e5	2.8311093
184	0xbf4b575e	-0.79430187
185	0xc0995c18	-4.792492
186	0x3f13121e	0.5744952
187	0x400bec09	2.1862814
188	0xbf300094	-0.6875088
189	0x3fc73462	1.5562861
190	0xbfab8d98	-1.3402586
191	0x3f8fbdd5	1.1229807
192	0xbcaa0309	-0.0207534
193	0x3eff74aa	0.49893695
194	0xbbd2b873	-0.0064306795
195	0xbe75e63f	-0.24013613
196	0xbf0bc950	-0.54604053
197	0x3f56431c	0.8369615
198	0xbfb54de1	-1.4164392
199	0xbf7a52e8	-0.97782755
200	0xbf3086c6	-0.6895565
201	0xbe6efeae	-0.2333934
202	0xbe8cbfe5	-0.27490154
203	0xbf8e4512	-1.1114829
204	0x3ed7fba6	0.4218418
205	0xbff6fdbb	-1.9296182
206	0xbe8fc79b	-0.28081974
207	0xbfab646b	-1.339002
208	0x3cf9512b	0.030434212
209	0x4004946c	2.071559
210	0x3f666fc9	0.9001432
211	0x3f0967f8	0.5367427
212	0xbe1b7035	-0.15179522
213	0xbf2f70ce	-0.685315
214	0xbfc18ea8	-1.512166
215	0xc07e2167	-3.9707887
216	0x3f15b9f7	0.58486885
217	0x3f83ccec	1.0296912
218	0xbc594966	-0.013262128
219	0x3de05441	0.1095357
220	0x3e8873c2	0.26650816
221	0x3f1704eb	0.5899188
222	0x3d58c248	0.052919656
223	0xbf1f493f	-0.6222114
224	0x3e9f9571	0.31168702
225	0x3f400713	0.75010794
226	0x3f331f24	0.6996939
227	0xbe303530	-0.1720779
228	0x3e9bcca5	0.3042957
229	0x3e6fa95c	0.23404449
230	0x3eff5ecd	0.49877015
231	0x3cec136d	0.028817857
232	0xbeebabb4	-0.46029437
233	0xbf95a6b3	-1.1691498
234	0xbe8e01df	-0.27735803
235	0xc0ab1e40	-5.3474426
236	0xbfa3432b	-1.2754873
237	0xbe4ac3ab	-0.19801204
238	0x3f634b1c	0.8878648
239	0x3ef20047	0.47265837
240	0x3d014b46	0.031565927
241	0x3cb87228	0.022515371
242	0xbde1edfd	-0.11031721
243	0xbeebbe90	-0.46043825
244	0x3d035698	0.032065004
245	0xc045ceb2	-3.0907407
246	0x3cfa6286	0.030564558
247	0x40124c9a	2.2859254
248	0x3f7c7a11	0.9862376
249	0x3c9c700d	0.019096399
250	0x3fb70a35	1.429999
251	0xc00ee625	-2.232797
252	0x3efacb1b	0.48983082
253	0x3fc673d0	1.5504093
254	0x3ed16cbe	0.40903276
255	0x3f298ad3	0.66227454

bias f4 [32]
0	0xbf538d99	-0.82637936
1	0xbe1ea845	-0.15493877
2	0xbe53da4e	-0.20688745
3	0xbf464123	-0.7744314
4	0xbf5b05c3	-0.85555667
5	0xbf8f5a56	-1.1199443
6	0xbf943ea6	-1.1581619
7	0x3e2d2813	0.16909818
8	0xbf167a10	-0.5878
9	0xbeb6388d	-0.3559002
10	0xbe030790	-0.12795854
11	0xbf879c56	-1.0594585
12	0xbe868848	-0.2627585
13	0xbf8ba6e6	-1.0910308
14	0xbee2cf0b	-0.44298586
15	0x3e9f0ae9	0.3106301
16	0xbedd70f4	-0.4325024
17	0xbf148fdf	-0.5803203
18	0x3d85a5c6	0.065257594
19	0x3d9d92d2	0.076940194
20	0xbea2cf3d	-0.31798735
21	0x3d3a6770	0.045508802
22	0xbf3555a1	-0.70833784
23	0xbe0c546e	-0.13704082
24	0xbda64370	-0.081183314
25	0xbe2c4ca1	-0.16826107
26	0xbe3de9f9	-0.18546285
27	0x3e9a7657	0.3016841
28	0xbf207ec9	-0.6269346
29	0xbf3b9476	-0.7327341
30	0xbe3c6865	-0.18399198
31	0x3df55ff1	0.1198119

weight f4 [16, 32]
0	0xbd3a7993	-0.0455261
1	0xbedd3165	-0.43201748
2	0xbfcc96e8	-1.5983553
3	0xbed4efb7	-0.41589138
4	0xbe9f5094	-0.31116164
5	0xbe1bba35	-0.15207751
6	0x3f3ab685	0.7293475
7	0x3f0aba49	0.541905
8	0xbee5e223	-0.4489909
9	0xbf2affb0	-0.667964
10	0x3cd1e0f8	0.025619969
11	0xbfdb345d	-1.7125355
12	0xc01b7816	-2.4292045
13	0xbf18809b	-0.59571236
14	0xbf5c93eb	-0.86163205
15	0xbf6ba5f7	-0.9205012
16	0xbf92b116	-1.1460292
17	0xbf1ed6d3	-0.62046546
18	0x3e4183ce	0.18897936
19	0x3f5b8266	0.8574585
20	0x3dfc3ed6	0.123166725
21	0xbfa603cd	-1.296991
22	0xbf219c12	-0.6312877
23	0xbe891dcb	-0.26780543
24	0xbec0f558	-0.37687182
25	0xbfc29b5c	-1.5203662
26	0xbf4da801	-0.8033448
27	0xbf73b053	-0.95190924
28	0xbdcab8d1	-0.09898532
29	0x3f56c705	0.8389743
30	0xbf4c9cd6	-0.7992681
31	0xbf183a5d	-0.59464055
32	0xbcfedd2b	-0.03111132
33	0x3dcea194	0.10089412
34	0x3af47f80	0.0018653721
35	0x3e998981	0.2998772
36	0xbdba1959	-0.09086866
37	0x3de20142	0.11035396
38	0xbd0d10cc	-0.034439847
39	0x3dd5def7	0.10442918
40	0x3decde2f	0.11565816
41	0xbd2c5ed1	-0.04208261
42	0xbdac72c2	-0.08420326
43	0x3cd2322a	0.025658686
44	0xbecf52d6	-0.40492886
45	0x3e384441	0.17994787
46	0x3dc51886	0.09623818
47	0xbdc41ce1	-0.09575821
48	0xbe411062	-0.18853906
49	0x3e4a9e79	0.19787015
50	0x3b9f89b1	0.004868709
51	0x3d20fdb8	0.039304465
52	0x3ca600f4	0.020264126
53	0x3c709b83	0.014685514
54	0x3eb90297	0.36134788
55	0xbe0123e5	-0.12611349
56	0xbcc7d4f3	-0.024393534
57	0xbdb55cfa	-0.088556245
58	0x3cddcc32	0.027074907
59	0xbdb6149e	-0.08890651
60	0xbc800313	-0.015626466
61	0xbde370a7	-0.11105471
62	0xbe58ef49	-0.2118503
63	0x3de0a72f	0.10969388
64	0x3b0d7687	0.002158554
65	0x3d46c4a8	0.04852739
66	0x39d26f83	0.00040137404
67	0xba8f020c	-0.0010910644
68	0x3d4256b4	0.047445968
69	0x3dcc849e	0.09986232
70	0xbde6bc2c	-0.1126636
71	0x391cade4	0.00014942099
72	0xbcdeb6a0	-0.027186692
73	0x3da88fc2	0.082305446
74	0xbc8c744e	-0.017145302
75	0xb8e9865f	-0.00011135334
76	0xbd20e3f2	-0.039279886
77	0xbd0b97c2	-0.034080274
78	0xbd027887	-0.031853225
79	0xbd27165f	-0.04079282
80	0x3d3fe11c	0.04684554
81	0x3d92a4ad	0.07160316
82	0x3c33b4cf	0.010968401
83	0xbd3695a9	-0.04457632
84	0x3cb29fbc	0.021804683
85	0x3d31aeef	0.04337972
86	0x3ccf1b94	0.025281705
87	0x3d0b0c25	0.03394713
88	0xbd348feb	-0.044082563
89	0xbdc3eeff	-0.09567069
90	0x3d60f3b9	0.054919932
91	0xbcb28398	-0.021791264
92	0xbbdd5f72	-0.0067557627
93	0xbc3dfcac	-0.011595886
94	0xbd89b733	-0.067243956
95	0x3ce12fe7	0.027488662
96	0xbc51417d	-0.012771961
97	0xbc2c00a7	-0.010498202
98	0xbc8e14be	-0.017343875
99	0x3e2ddfeb	0.16979949
100	0x3d3287ee	0.043586664
101	0x3d161215	0.036638338
102	0x3d0190e6	0.031632327
103	0x3cf132a3	0.02944309
104	0x3d9805aa	0.07422955
105	0x3db531a6	0.0884736
106	0xbc0588d7	-0.008150301
107	0x3bb079e1	0.005385623
108	0x3ccc44a5	0.024935076
109	0xbd264acd	-0.04059868
110	0x3cc8d95d	0.02451771
111	0x3d24859c	0.040166482
112	0xbe390743	-0.18069176
113	0xbd5a6363	-0.05331744
114	0x3a99f6e9	0.0011746559
115	0x3d567156	0.05235418
116	0x3c97f6e8	0.018550351
117	0xbd1172ac	-0.03550975
118	0xbc7efc38	-0.015563063
119	0xbb688c4f	-0.003548402
120	0x3cdca092	0.026932035
121	0xbd4d61e8	-0.0501422
122	0x3cd5341a	0.02602582
123	0xbe2f7034	-0.17132646
124	0xbc68d576	-0.014211049
125	0xbc5b660b	-0.013391028
126	0x3c947f44	0.018127091
127	0x3cea3691	0.028590472
128	0xbc2f9d8c	-0.010718714
129	0x3d82e6d7	0.063916855
130	0xbb830a75	-0.0039990493
131	0x3db6dd0a	0.089288786
132	0xbdee6dd4	-0.11642042
133	0x3d146625	0.036230225
134	0x3d4d32ae	0.05009716
135	0x3d3b83ca	0.04577998
136	0x398dc58f	0.00027040808
137	0x3c57378a	0.0131358
138	0xbc45e4de	-0.012078492
139	0x3c3a99fe	0.011389254
140	0xbd4caebe	-0.049971335
141	0xbb10e1e7	-0.0022107305
142	0x3d974ca6	0.073876664
143	0xbd75a308	-0.05996993
144	0xbd89c321	-0.06726671
145	0xbd37c90a	-0.04486946
146	0x3c500c45	0.012698238
147	0x3dc15ecd	0.0944191
148	0x3bd560c1	0.006511778
149	0x3c9bfff5	0.019042948
150	0x3d5f4eb6	0.054518424
151	0x3dc977a4	0.09837273
152	0xbbe1157f	-0.0068690176
153	0xbdb08ca7	-0.08620577
154	0x3d0b9f74	0.034087613
155	0x3d18ef53	0.037337612
156	0xbb4d0d8d	-0.0031288594
157	0xbdc19619	-0.09452457
158	0x3d8dd8c2	0.06926109
159	0x3d07777b	0.03307293
160	0xbf15ca71	-0.58512026
161	0xbe892576	-0.26786393
162	0xbdd635d1	-0.104594834
163	0xbe35454b	-0.17702214
164	0xbf193829	-0.5985132
165	0xbefce2dd	-0.49391833
166	0xbe4c4b1f	-0.19950531
167	0xbf12cc7a	-0.57343256
168	0xbeb54063	-0.35400686
169	0xbf113bd4	-0.56731915
170	0xbeb8ebc7	-0.36117384
171	0xbf03539f	-0.5129947
172	0xbfa708a4	-1.3049512
173	0xbf178f27	-0.5920281
174	0xbf6a2672	-0.9146491
175	0xbed11ed7	-0.4084384
176	0x3d699d52	0.057034798
177	0xbf3d6839	-0.73987156
178	0xbf3f4561	-0.7471524
179	0xbf2752ab	-0.65360516
180	0xbe962080	-0.2932167
181	0xbec66f74	-0.38756907
182	0xbf36214f	-0.71144575
183	0x3db12574	0.08649722
184	0xbe6605cf	-0.22463153
185	0x3de291b4	0.11062947
186	0xbf166e1c	-0.58761764
187	0xbf15e4db	-0.5855233
188	0xbf86ede8	-1.0541353
189	0xbed28cc1	-0.41123012
190	0xbe8a0572	-0.2695728
191	0xbe1c5d2c	-0.15269917
192	0x3db5ca4e	0.08876477
193	0x3d9540b1	0.072877295
194	0x3e7552cf	0.2395737
195	0x3e4bfad3	0.199199
196	0x3e5d849b	0.21632616
197	0x3e923dd1	0.28562787
198	0x3d4567f2	0.048194833
199	0x3cee7e79	0.029113041
200	0x3e994ae6	0.29939955
201	0x3cded5a7	0.027201487
202	0xbf3dd70c	-0.7415626
203	0x3c9b9785	0.018993149
204	0xbee4949d	-0.44644633
205	0xbc97f065	-0.018547246
206	0xbd91d7e2	-0.071212545
207	0x3e1b69e7	0.15177117
208	0x3eb5479d	0.354062
209	0xbe2bf13a	-0.1679124
210	0xbdd18976	-0.10231297
211	0x3e095845	0.13412578
212	0x3e9afef2	0.30272633
213	0xbd680b58	-0.056651443
214	0xbdc07302	-0.09396936
215	0xbd8c6705	-0.06855587
216	0xbe2e88f7	-0.17044435
217	0xbed0ba3a	-0.4076708
218	0xbd639de7	-0.05557051
219	0x3efe75c3	0.4969922
220	0xbfc1e3a1	-1.5147592
221	0x3ca69b6d	0.020337785
222	0x3ec775fa	0.38957196
223	0x3e63e340	0.22254658
224	0x3a5fd682	0.0008538739
225	0x3d51ed4a	0.051251687
226	0xbc930494	-0.017946519
227	0xbcf40bec	-0.029790841
228	0xb9e0ee70	-0.0004290226
229	0x3be4882c	0.0069742408
230	0x3cc8ccfd	0.024511809
231	0xb95d0183	-0.00021076766
232	0x3cd5054a	0.026003499
233	0xbd8abf3b	-0.067747556
234	0xbcb58260	-0.022156894
235	0x3c41e455	0.011834224
236	0xbc157f39	-0.0091245705
237	0xbd48b03a	-0.048996188
238	0x3e01ba28	0.12668669
239	0xbd1c67dd	-0.03818499
240	0x3c47a157	0.0121844625
241	0xbdca58c7	-0.09880214
242	0x3cdb6697	0.026782317
243	0x3d9ed339	0.07755131
244	0x3cbe765a	0.023249794
245	0x3d835859	0.06413335
246	0x3d065158	0.03279242
247	0xbda5677b	-0.08076378
248	0xbc8a0832	-0.016849611
249	0xbd7a5c00	-0.061122894
250	0x3d30e7d0	0.043189824
251	0x3c1f370a	0.009717712
252	0xbb9d4311	-0.0047992547
253	0xbd5c9923	-0.05385698
254	0x3d499928	0.049218327
255	0xbbed75ec	-0.0072467234

bias f4 [16]
0	0x3f6e4ad2	0.93082917
1	0x3b000598	0.0019534584
2	0xbc5927a8	-0.013254084
3	0x3c87e219	0.016587304
4	0x3ced9ae7	0.029004527
5	0x3d26dece	0.040739827
6	0xbf0cd55a	-0.5501305
7	0x3c6f3785	0.014600639
8	0x3dbe103a	0.09280439
9	0xbea40556	-0.3203532
10	0x3d27365b	0.04082332
11	0xbf13db8c	-0.57756877
12	0xbed93dc9	-0.4242995
13	0xbd164dc7	-0.036695268
14	0xbd046476	-0.03232237
15	0xbd58d60c	-0.052938506

weight f4 [1, 16]
0	0x3f28a5dc	0.6587808
1	0xba3381da	-0.00068476575
2	0xba532437	-0.00080544077
3	0x3a25b0ce	0.00063205964
4	0x39ebe32b	0.00044991946
5	0xbf080a96	-0.5314115
6	0x3cc8f508	0.024530903
7	0x39c86fae	0.0003823018
8	0xbf170087	-0.5898518
9	0xbe400b8c	-0.18754405
10	0xbf04439d	-0.5166567
11	0xbecaccd0	-0.39609385
12	0x3c835ce6	0.016035508
13	0xb97dace7	-0.00024192371
14	0xb9c32b1d	-0.0003722542
15	0xbb16f11e	-0.00230319

weight f4 [1, 288]
0	0xbed1cb4b	-0.40975413
1	0xbe936808	-0.28790307
2	0x3dce77b8	0.10081428
3	0xbd095e3a	-0.033537127
4	0x3f401086	0.7502521
5	0xbe0cd10f	-0.13751625
6	0xbed141ed	-0.4087061
7	0x3cea4852	0.028598938
8	0xbfaba411	-1.3409444
9	0xbf1a19a1	-0.60195357
10	0x3e03300c	0.12811297
11	0xbf9fcefb	-1.248504
12	0xbf0db10d	-0.55348283
13	0xbe2b34fd	-0.16719432
14	0xbf69bdda	-0.91305315
15	0xbe85bf94	-0.26122725
16	0xbddb42e4	-0.10706118
17	0xc0218131	-2.5235102
18	0x3f4886c6	0.7833065
19	0xbf19063f	-0.59775156
20	0xbffdd130	-1.9829464
21	0xbf6c14e8	-0.922194
22	0x3f05e93a	0.52309
23	0xc01b10bc	-2.4228964
24	0x3e857236	0.260637
25	0x3d0505ff	0.03247642
26	0xbdb18494	-0.086678654
27	0xbe1480c8	-0.14502251
28	0xbd0c0076	-0.034180127
29	0x3e46d55d	0.19417329
30	0xbe8079b7	-0.2509286
31	0x3f556003	0.8334963
32	0xbe937a79	-0.28804377
33	0x3f078702	0.5294038
34	0xbcccc3db	-0.024995735
35	0xbe40e0d6	-0.18835768
36	0xbefb34b0	-0.49063635
37	0x3dd67eaf	0.10473382
38	0x3f16c9ca	0.58901656
39	0x3d09d4c1	0.033650164
40	0xbe6b2941	-0.22964956
41	0x3f018b30	0.5060301
42	0xbe82bd28	-0.2553494
43	0x3f8641f1	1.0488874
44	0xbeb278aa	-0.34857684
45	0xbe5a255a	-0.21303311
46	0x3f091875	0.53552943
47	0xbe2b7f4c	-0.16747779
48	0xbe88e7e6	-0.26739424
49	0xbd1127b8	-0.03543827
50	0xbd0d61b5	-0.03451701
51	0x3ea4988d	0.32147637
52	0x3df84492	0.12122454
53	0x3e1548ff	0.14578627
54	0xbfb7320f	-1.4312152
55	0xbdf0467c	-0.11732194
56	0xbe4b35b7	-0.1984471
57	0xbf4d9a69	-0.80313736
58	0xbed806d3	-0.42192706
59	0x3dddd06f	0.10830771
60	0xbdac0207	-0.08398824
61	0x3ed0a7da	0.4075306
62	0x3f6ee7be	0.9332236
63	0x3e08a930	0.1334579
64	0x3f08e52a	0.53474677
65	0xbf12aafc	-0.5729215
66	0x3f569f21	0.8383656
67	0xbe998701	-0.29985812
68	0xbdaf9687	-0.08573633
69	0x3eecab30	0.46224356
70	0xbf6edb8a	-0.9330374
71	0xbfd599d9	-1.6687576
72	0x3eddfaab	0.43355307
73	0x3bf92420	0.0076031834
74	0x3c2cd943	0.010549846
75	0x3e3fb968	0.1872307
76	0xbf4b9f12	-0.795396
77	0x3f5b47dd	0.8565653
78	0x3dba7bc6	0.09105639
79	0xbefbb26f	-0.49159572
80	0xbf728288	-0.94730425
81	0xbeaafb14	-0.33394682
82	0xbd2a42e2	-0.04156769
83	0xbe9f4fe4	-0.3111564
84	0xbf44f66a	-0.769385
85	0x3e2a7e72	0.16649798
86	0xbf3bdcf0	-0.73384
87	0xbf663a82	-0.89933026
88	0x3e707286	0.23481187
89	0xbec8dc9c	-0.39230812
90	0x3eef0eba	0.46690923
91	0x3ebfce58	0.37462115
92	0x3f1288d0	0.5724001
93	0x3ed1060f	0.40824935
94	0xbe30f6f0	-0.17281699
95	0xbe61aca5	-0.22038515
96	0xbe0d6b52	-0.1381047
97	0x3f120d2d	0.57051355
98	0xbef3e568	-0.4763596
99	0xbf3702c4	-0.71488595
100	0x3e22df04	0.15905386
101	0x3edb3441	0.42813304
102	0xbd955338	-0.07291263
103	0xbe9c3da0	-0.30515766
104	0x3e8acd1f	0.2710962
105	0xbe2efc2a	-0.1708838
106	0xbe978e80	-0.29600906
107	0xbbe2abb9	-0.0069174436
108	0xbf2e3b0c	-0.6805885
109	0x3d5c36cb	0.053763192
110	0xbe8944bc	-0.26810253
111	0x3e30dca3	0.17271666
112	0xbf768076	-0.96289766
113	0x3e825b11	0.25460103
114	0xc0162e6b	-2.3465831
115	0x3fb52cd8	1.415431
116	0x3ea91c0b	0.33029208
117	0xbf023a9f	-0.508707
118	0xc01df1af	-2.4678762
119	0x3f080ffb	0.53149384
120	0xbb532151	-0.0032215903
121	0xbd21f934	-0.0395443
122	0x3e9b80a7	0.3037159
123	0xba1dad9b	-0.0006014944
124	0xbf237f1b	-0.6386582
125	0x3d59ec8d	0.053204108
126	0x3e0c0111	0.13672282
127	0x3f707800	0.93933105
128	0xbf503331	-0.8132811
129	0x3dc6d27e	0.09708117
130	0xbe096064	-0.13415676
131	0xbe23d29b	-0.15998308
132	0xbe4e2c52	-0.20134094
133	0xbdaa0a57	-0.083027534
134	0xbec68391	-0.38772252
135	0xbe8b9844	-0.27264607
136	0xbec93292	-0.39296395
137	0xbe8fd666	-0.2809326
138	0xbea4e9f3	-0.3220974
139	0x3fb9788b	1.4489912
140	0xbe4a0118	-0.1972698
141	0xbed055da	-0.406905
142	0x4018aab6	2.3854194
143	0x3f6ef283	0.93338794
144	0x3ec58ae4	0.38582528
145	0x3e5c112c	0.21490926
146	0xbd6c0a40	-0.057626963
147	0xbf06fad5	-0.5272649
148	0x3eb21128	0.34778714
149	0x3ea96ab6	0.33089226
150	0xbf5d12ba	-0.863567
151	0xbe1593a3	-0.146071
152	0x3e964ef6	0.29357117
153	0x3f32be09	0.6982122
154	0xba57ed05	-0.0008236918
155	0x3e234555	0.15944417
156	0xbf054bde	-0.5206889
157	0xbf5c132e	-0.85966766
158	0x3f0bcb32	0.54606926
159	0x3e468b2b	0.19389026
160	0x3e966a19	0.2937782
161	0xc0072f01	-2.112244
162	0xbf00f018	-0.50366354
163	0xbeacab46	-0.3372442
164	0xbd3c38b3	-0.04595251
165	0x3fba4391	1.455187
166	0xbe1e9862	-0.15487817
167	0x3decd25c	0.1156356
168	0x3dd5b65d	0.10435174
169	0x3b97caba	0.004632321
170	0xbe0b3801	-0.13595583
171	0x3d53884e	0.051643662
172	0x3e367952	0.17819718
173	0x3f19dfc0	0.6010704
174	0x3db74a3c	0.08949706
175	0xbf9cb77a	-1.2243493
176	0xbd74e81d	-0.059791673
177	0x3f9479bd	1.1599652
178	0xbf1ee321	-0.6206532
179	0x3f0ac13b	0.54201096
180	0xbeaff976	-0.3437001
181	0x3eff9309	0.49916866
182	0xbde7a19e	-0.11310123
183	0x3e0341c9	0.12818064
184	0xbecb7e82	-0.39744955
185	0x402f7a8c	2.7418547
186	0x3eedc6c6	0.46440715
187	0x3d867cc3	0.06566765
188	0xbe5ca76a	-0.21548238
189	0x4013a9d6	2.307241
190	0xbe261f67	-0.16222917
191	0x3e84a3c6	0.259062
192	0x3efafbd0	0.49020243
193	0xbe16e750	-0.14736676
194	0xbcbea5f3	-0.02327249
195	0xbefb6429	-0.49099854
196	0xbf324683	-0.6963884
197	0xbb0db7f8	-0.0021624546
198	0xbecb6b4a	-0.39730293
199	0x3eb912e2	0.3614722
200	0xbf324454	-0.6963551
201	0x3e82e068	0.25561833
202	0xbd68d65f	-0.056845065
203	0x3f1ad8a7	0.60486835
204	0xbdc01c83	-0.09380438
205	0x3eca0083	0.39453515
206	0xbf23b853	-0.6395313
207	0x3f7858bd	0.97010404
208	0xbeb6851e	-0.35648435
209	0xbee118f5	-0.43964353
210	0x3e2886ac	0.16457623
211	0x3f4f87cc	0.81066585
212	0x3e217737	0.15768133
213	0x3e765576	0.24056038
214	0xbf967052	-1.1753027
215	0x3f816356	1.010844
216	0x3e8783d2	0.26467758
217	0xbee12e23	-0.43980512
218	0xbbfefa7e	-0.007781326
219	0xbd0cc958	-0.034371704
220	0x3ef54c4d	0.47909775
221	0x3d3163a6	0.043307923
222	0xbe354c39	-0.17704858
223	0xbe7c959c	-0.24666446
224	0x3da7336d	0.081641056
225	0x3d34b868	0.044121176
226	0x3e8ab596	0.27091664
227	0x3f2713ab	0.65264386
228	0xbdbd933c	-0.09256598
229	0x3e2c620a	0.16834274
230	0xbcfe8a25	-0.031071732
231	0x3ea86a66	0.32893676
232	0xbf26e237	-0.65188926
233	0xbead78bc	-0.33881176
234	0x3cd102a9	0.025513964
235	0x3fa2f090	1.2729664
236	0xbf8f1ee1	-1.1181298
237	0x3ca6db52	0.020368252
238	0x3f909c40	1.1297684
239	0xbf9b3e6c	-1.2128425
240	0x3efca72f	0.493463
241	0xbcbdcbdd	-0.023168499
242	0x3d9f0390	0.07764351
243	0x3d1ef9c0	0.0388124
244	0xbe866b49	-0.26253727
245	0x3f5dfa6b	0.8671023
246	0xbea493c7	-0.32143995
247	0xbf6388f2	-0.88880837
248	0x3f257f39	0.6464725
249	0xbe1e5a81	-0.15464212
250	0x3f2b71a9	0.66970307
251	0x3e8f8e7d	0.28038397
252	0xbe4f9e29	-0.20275177
253	0xbf2a014e	-0.6640824
254	0xbf072254	-0.52786756
255	0xbdb3f645	-0.087872066
