MLIPs/CACE-LES/water/caceles-r-4.5-nl-1-nu-3/checkpoint.pt (torch, 288354 bytes, 57 tensors)

representation.node_embedding_sender.embedding_weights f4 [2, 2]
0.23859084 0.1408313 -0.62244374 0.6636604
00000000: 2851 743e 1536 103e 7958 1fbf a6e5 293f

representation.node_embedding_receiver.embedding_weights f4 [2, 2]
0.31209564 0.0053901603 -0.12119857 0.66748816
00000000: 00cb 9f3e f19f b03b f536 f8bd 81e0 2a3f

representation.radial_basis.bessel_weights f4 [6]
0.36907932 1.2565045 2.0759223 2.919033 3.8251412 4.774614
00000000: f7f7 bc3e 24d5 a03f e9db 0440 70d1 3a40
00000010: 1dcf 7440 a3c9 9840

representation.radial_transform.weights.0 f4 [6, 12, 4]
2.1177926 -0.4585989 -0.015457317 0.00054644974 1.3922216 -0.0143796755 -0.0077421702 0.029300613
1.8789431 3.3646896 -0.0043803644 0.16507673 -3.042385 0.044583224 0.0109317275 -0.122247025
0.20593923 2.2823966 -0.06536472 0.81197685 0.024490193 0.04191028 0.056086 0.019841332
-2.0586224 -0.09600735 0.3899217 0.03678707 -0.005060791 0.032003168 -0.37161052 -0.009423373
0.7994498 -0.15330483 -0.004571492 0.14962992 -1.6865572 2.2096045 0.0031866163 -0.0058759004
0.46593443 0.10571652 0.007097654 -0.394679 1.9140816 0.0845095 0.0023614203 0.87730175
0.19775084 0.5139637 0.021316122 0.031048436 1.8142145 -0.013898317 0.02552146 0.15603596
1.2164857 0.13008222 0.018063348 -1.2753015 0.06982463 0.004960825 -0.039491493 1.0556333
0.006555314 0.069234304 0.35090485 1.4612359 0.009729817 0.028666299 -0.34284565 0.005716004
0.4254077 -0.013518504 0.1756436 1.1456062 0.71235645 0.0062938514 0.9775475 0.009256752
1.2641383 0.06671757 0.0066646338 0.42266077 -0.5054343 1.0729895 -0.013547497 0.029657578
1.65435 0.0035106426 -0.02515001 0.48022243 1.7893097 0.028318817 -0.001143359 0.34475228
-0.5938274 -0.33740968 -0.021700256 -0.01295566 1.4736438 0.022289164 -0.038989786 -0.018249156
-1.0138353 -0.64994466 -0.021019889 -0.8346237 0.7718235 -0.013108673 0.041494768 1.4590162
0.07908247 -0.4090726 0.46558288 -0.11904351 -0.022669706 -0.11116819 0.19833656 -0.009586749
0.39612442 0.09319261 -0.46965453 0.49010557 -0.4618483 -0.031170275 -0.14616254 0.0052709472
1.0579199 -0.152083 -0.025304817 0.07010627 0.3472649 0.1129415 0.0067665246 -0.04063441
1.4207891 -0.03755746 0.027047578 0.84793675 0.8204192 0.0032618342 0.0053848145 -0.9309856
0.029443908 -0.059885293 -0.008398141 0.029838687 0.38914323 0.008364592 0.04012643 0.033172205
-0.20976174 -0.123338476 0.019514034 0.027506793 0.15558484 0.0039040963 -0.0562072 -0.10783609
-0.14387694 0.15695907 -0.20555836 -0.35445124 0.037694298 0.00079172733 0.12363471 -0.016473157
-0.12706386 0.030912574 0.19066271 -0.05577649 0.13966343 -0.0020072614 0.07557815 0.003578445
0.6429425 0.018218072 -0.00265015 -0.08937373 0.33559588 -0.77606046 -0.007174018 0.04081428
1.0195445 -0.0065695704 -0.02782456 0.11738179 0.06306993 0.018714523 0.016030451 0.087662555
-0.110442206 0.32510185 0.02192148 -0.007323899 -0.07697115 -0.013739185 -0.04034379 0.008976101
0.30666563 0.78022116 -0.016834034 0.71181184 -0.2084736 0.01526297 0.04236516 0.15949184
0.16903394 0.0884212 0.22760044 0.73603827 -0.03175364 0.058584746 -0.11870966 0.024541948
0.019297702 -0.001283053 0.3718599 -0.22302821 0.036845252 0.00029753786 -0.090629905 -0.018686855
-0.12194346 0.11077835 0.010585566 0.109709956 0.21706481 -0.21108206 0.00016801569 -0.016532088
0.2236078 0.025766762 0.025382388 -0.15692799 0.42451033 0.0004161954 -0.03022023 1.2134761
0.321008 0.3557606 -0.050173 -0.023474364 0.29631037 -0.0075868196 0.004931736 0.0072748833
0.26123896 0.34775552 0.004386788 0.32995424 -0.11042132 0.001006301 -0.013273881 0.13010702
00000000: ea89 0740 7acd eabe b040 7dbc 9f3f 0f3a
00000010: 5134 b23f bb98 6bbc 08b2 fdbb d707 f03c
00000020: 3581 f03f 1357 5740 2989 8fbb e009 293e
00000030: 70b6 42c0 e69c 363d fd1a 333c a65c fabd
00000040: bce1 523e c912 1240 f0dd 85bd b7dd 4f3f
00000050: a89f c83c 1daa 2b3d 6fba 653d 4a8a a23c
00000060: 78c0 03c0 809f c4bd d1a3 c73e 0aae 163d
00000070: fed4 a5bb c115 033d bc43 bebe 7e64 1abc
00000080: bea8 4c3f f1fb 1cbe 74cc 95bb 9638 193e
00000090: 1be1 d7bf 296a 0d40 8dd6 503b a08a c0bb
000000a0: f58e ee3e e781 d83d 7093 e83b 5e13 cabe
000000b0: a000 f53f 5113 ad3d 0fc2 1a3b d996 603f
000000c0: 327f 4a3e 2093 033f 269f ae3c 4a59 fe3c
000000d0: 2e38 e83f c4b5 63bc 6212 d13c e4c7 1f3e
000000e0: ceb5 9b3f 4634 053e 96f9 933c 143d a3bf
000000f0: 3700 8f3d 6b8e a23b d5c1 21bd fe1e 873f
00000100: f6cd d63b b7ca 8d3d cda9 b33e c709 bb3f
00000110: cf69 1f3c 96d5 ea3c 7789 afbe 514d bb3b
00000120: 0acf d93e b77c 5dbc eadb 333e 39a3 923f
00000130: fe5c 363f a73c ce3b 8e40 7a3f a2a9 173c
00000140: 49cf a13f 39a3 883d 0063 da3b fe66 d83e
00000150: 2464 01bf b857 893f 52f6 5dbc 73f4 f23c
00000160: bec1 d33f cf12 663b 6507 cebc b7df f53e
00000170: 1a08 e53f ddfc e73c c3dc 95ba 5f83 b03e
00000180: 1305 18bf f6c0 acbe bcc4 b1bc fa43 54bc
00000190: 5ca0 bc3f c497 b63c c1b3 1fbd 417f 95bc
000001a0: 5bc5 81bf c662 26bf e731 acbc e6a9 55bf
000001b0: 3a96 453f c2c5 56bc 6bf6 293d 0bc1 ba3f
000001c0: fdf5 a13d f771 d1be e160 ee3e 15cd f3bd
000001d0: d2b5 b9bc 26ac e3bd bd18 4b3e bd11 1dbc
000001e0: d2d0 ca3e c4db be3d 8f76 f0be 1eef fa3e
000001f0: 6177 ecbe ce58 ffbc a2ab 15be e9b7 ac3b
00000200: eb69 873f a5bb 1bbe 0c4c cfbc e093 8f3d
00000210: b4cc b13e e04d e73d b9b9 dd3b 4470 26bd
00000220: 6bdc b53f dad5 19bd e292 dd3c 6212 593f
00000230: fe06 523f 7fc4 553b 1973 b03b 1355 6ebf
00000240: 5a34 f13c 484a 75bd 5b98 09bc 4370 f43c
00000250: c83d c73e a40b 093c 9d5b 243d 94df 073d
00000260: c8cb 56be e298 fcbd e5db 9f3c ed55 e13c
00000270: a251 1f3e dedb 7f3b 8539 66bd 2bd9 dcbd
00000280: 7a54 13be e1b9 203e e47d 52be a27a b5be
00000290: 5665 1a3d ec8b 4f3a 3234 fd3d b7f2 86bc
000002a0: 071d 02be 5e3c fd3c 163d 433e e475 64bd
000002b0: ee03 0f3e 428c 03bb b8c8 9a3d 5884 6a3b
000002c0: e197 243f 113e 953c 24ae 2dbb 9309 b7bd
000002d0: 39d3 ab3e e6ab 46bf 0614 ebbb e02c 273d
000002e0: 6f80 823f 8d45 d7bb 55f0 e3bc dd65 f03d
000002f0: cf2a 813d 334f 993c 4b52 833c 6d88 b33d
00000300: 862f e2bd c073 a63e ad94 b33c 51fd efbb
00000310: 0da3 9dbd 521a 61bc 883f 25bd 7f10 133c
00000320: 4703 9d3e 93bc 473f 87e7 89bc 4d39 363f
00000330: 1a7a 55be 8911 7a3c 1787 2d3d d451 233e
00000340: 3c17 2d3e 2d16 b53d 1710 693e 016d 3c3f
00000350: 1b10 02bd 8ff6 6f3d 0d1e f3bd 320c c93c
00000360: 3716 9e3c 1d2c a8ba 6c64 be3e 8261 64be
00000370: 0ceb 163d dbfe 9b39 2c9c b9bd 2d15 99bc
00000380: 7ebd f9bd c2df e23d 156f 2d3c 9daf e03d
00000390: 3d46 5e3e e525 58be 5e2d 3039 4d6e 87bc
000003a0: 71f9 643e d114 d33c baee cf3c bbb1 20be
000003b0: 6b59 d93e cd34 da39 6a90 f7bc 2f53 9b3f
000003c0: 295b a43e 4126 b63e 3482 4dbd 4f4d c0bc
000003d0: feb5 973e db9a f8bb 669a a13b 2562 ee3b
000003e0: 1dc1 853e 030d b23e 0bbf 8f3b c3ef a83e
000003f0: 9324 e2bd dce5 833a b17a 59bc c63a 053e

representation.radial_transform.weights.1 f4 [6, 12, 4]
2.4002893 -0.12167394 0.08682737 0.972809 3.7463152 0.8548297 1.2288651 -1.4341602
-1.024239 -3.1254985 2.9575 -0.08020286 -2.2977965 1.4082808 -0.10912023 0.8336556
1.9792104 -0.5039827 -2.4433553 -0.35709435 0.46521842 2.6232433 -1.517758 0.8113743
-4.17381 0.3565869 -1.3897557 1.7946074 1.5698861 -0.80687803 1.3458967 0.76874936
6.7612658 -0.95068204 -0.8530442 -1.1977845 4.357395 2.4909432 -0.8861738 0.16539705
2.256936 -2.2820776 0.113167666 1.3473849 3.1410267 1.1908163 -0.11192238 -0.090869196
3.07819 0.44737807 0.79137534 1.7763427 2.086496 1.8160899 0.5021506 -0.6545169
-1.8895646 0.9239192 2.226757 0.7445616 -1.2217963 0.6533931 -0.21712297 1.1010417
1.622232 -0.6460358 -0.21540008 0.81336623 -2.2144332 2.951498 -1.4760239 -1.0284438
-0.24305993 0.19947888 -1.7420573 2.4294186 1.8431041 0.115362674 1.1794107 1.94639
-0.25592384 0.8803786 0.8897022 0.4194185 1.7763896 1.5324794 -0.883869 0.733027
0.96258146 -0.4225688 0.44477838 2.7288487 0.10421326 1.0322922 1.1322697 1.0426806
0.02293902 1.1784235 0.58084524 1.4183295 -0.19957493 1.5833067 0.3775524 0.929846
0.631884 0.5726715 -0.4487592 -0.95791173 1.7132081 -0.07075907 0.92815393 0.8401206
-0.6558781 -0.05556047 0.8124918 1.9773561 0.3064603 0.3540025 1.0721664 0.2496782
0.90441555 0.6606169 -0.24878082 -0.23273131 0.6990008 0.2586611 -0.46458158 -0.06859672
-0.85964614 1.9594065 0.3987468 1.228412 -0.033823118 0.40820757 0.8346639 1.5269511
0.43009827 0.63206446 0.82855076 1.1597611 -0.5287088 0.6276394 -0.71645045 1.3855618
-0.07821021 1.6017089 -0.82244545 0.41873866 -0.43469316 0.17288227 0.57560647 0.8810096
0.55256975 -0.23562603 -0.45838892 -1.1904372 0.6858253 0.5549474 0.8894188 1.6452713
-0.017544458 -0.0137679335 -0.21816997 1.4631402 1.143506 -0.52230823 0.25458688 0.45895123
0.92616016 0.91824543 0.8661392 -0.036041856 -0.90532374 1.351888 -0.10155702 -0.79246545
-0.125116 1.230873 -0.11832021 -0.089004695 0.11449081 0.311768 2.360725 0.08347165
0.6631248 0.3161811 1.7996652 -0.91673017 -1.08505 -0.024165923 1.1545793 -0.50562567
0.044755563 0.88014054 0.6860828 0.42430997 0.1882612 -0.5898148 0.7506792 0.79016256
1.1316048 -0.16823538 0.057584915 1.0331845 -0.27315623 1.0781081 0.8875488 1.160745
-0.28441876 1.0896105 0.10906906 -0.26622567 0.32186294 -0.62506384 -0.5727106 0.2850329
1.2949196 1.3590659 0.059036363 1.5304779 -1.0472206 1.0287385 0.33811465 -0.61901754
0.5730708 0.09727556 -0.043193832 -0.473076 0.20937273 -0.074338295 1.6109302 -1.6465461
1.4041435 0.097573884 1.5695204 0.06271086 0.33934402 -0.06705651 0.63888127 -0.3206547
0.2850623 -0.11752347 0.44769847 0.42196596 0.20437014 -0.42517957 0.012611272 0.57772213
0.68194956 -0.13884987 0.11085155 0.7702544 -0.4677057 0.6465063 0.38187394 0.14406107
00000000: 579e 1940 3030 f9bd 8cd2 b13d 030a 793f
00000010: a1c3 6f40 1fd6 5a3f 744b 9d3f 9092 b7bf
00000020: 431a 83bf 2b08 48c0 ae47 3d40 6641 a4bd
00000030: 190f 13c0 8c42 b43f 6d7a dfbd 746a 553f
00000040: c456 fd3f 0305 01bf ef5f 1cc0 12d5 b6be
00000050: 1c31 ee3e 38e3 2740 e545 c2bf 3ab6 4f3f
00000060: da8f 85c0 8f92 b63e 84e3 b1bf b2b5 e53f
00000070: 07f2 c83f 8f8f 4ebf 5846 ac3f c2cc 443f
00000080: 4a5c d840 e65f 73bf 1b61 5abf 0151 99bf
00000090: c86f 8b40 9d6b 1f40 49dc 62bf d85d 293e
000000a0: a471 1040 8f0d 12c0 73c4 e73d 1c77 ac3f
000000b0: 9506 4940 ab6c 983f 9037 e5bd a119 babd
000000c0: 1101 4540 bd0e e53e 9397 4a3f 335f e33f
000000d0: 2789 0540 a275 e83f f18c 003f 6b8e 27bf
000000e0: 41dd f1bf f885 6c3f 3083 0e40 979b 3e3f
000000f0: d263 9cbf c544 273f 7c55 5ebe efee 8c3f
00000100: 4ca5 cf3f 9a62 25bf d791 5cbe c538 503f
00000110: 46b9 0dc0 58e5 3c40 5aee bcbf 0ca4 83bf
00000120: b4e4 78be 3144 4c3e bcfb debf 987b 1b40
00000130: d6ea eb3f 4443 ec3d eef6 963f 4f23 f93f
00000140: 7308 83be 7e60 613f 86c3 633f 06be d63e
00000150: bc60 e33f 4928 c43f 3d45 62bf a8a7 3b3f
00000160: bd6b 763f f05a d8be feb9 e33e 75a5 2e40
00000170: c36d d53d 2722 843f 37ee 903f 8f76 853f
00000180: 9dea bb3c 95d6 963f 46b2 143f d28b b53f
00000190: 5f5d 4cbe cba9 ca3f 8c4e c13e 630a 6e3f
000001a0: 26c3 213f 999a 123f c4c3 e5be b439 75bf
000001b0: 674a db3f 22ea 90bd 7f9b 6d3f 2512 573f
000001c0: a1e7 27bf 6093 63bd 76ff 4f3f 011a fd3f
000001d0: 5de8 9c3e d13f b53e c03c 893f a4ab 7f3e
000001e0: c787 673f 301e 293f 66c0 7ebe 1e51 6ebe
000001f0: b7f1 323f 3a6f 843e a3dd edbe 707c 8cbd
00000200: c511 5cbf d5cd fa3f 8a28 cc3e 9b3c 9d3f
00000210: 1c8a 0abd 9500 d13e 89ac 553f 2273 c33f
00000220: d735 dc3e face 213f e71b 543f 0d73 943f
00000230: 7659 07bf faac 203f 4c69 37bf 175a b13f
00000240: ad2c a0bd cc04 cd3f c98b 52bf ea64 d63e
00000250: 1a90 debe 0d08 313e f25a 133f d889 613f
00000260: 3675 0d3f f347 71be f4b1 eabe 3f60 98bf
00000270: 3f92 2f3f 0811 0e3f f3b0 633f 4098 d23f
00000280: 65b9 8fbc e692 61bc f367 5fbe 2e48 bb3f
00000290: 685e 923f feb5 05bf 3659 823e a8fb ea3e
000002a0: d518 6d3f 2212 6b3f 4cbb 5d3f a0a0 13bd
000002b0: 4cc3 67bf aa0a ad3f 20fd cfbd 04df 4abf
000002c0: 691e 00be 3f8d 9d3f de51 f2bd 1848 b6bd
000002d0: 287a ea3d 0ea0 9f3e 1e16 1740 2ff3 aa3d
000002e0: 8cc2 293f 7de2 a13e 6e5b e63f d4ae 6abf
000002f0: ebe2 8abf 9df7 c5bc 41c9 933f af70 01bf
00000300: 9c51 373d e450 613f 1fa3 2f3f 283f d93e
00000310: 8bc7 403e 1afe 16bf 832c 403f 1848 4a3f
00000320: 6dd8 903f e545 2cbe 29de 6b3d 643f 843f
00000330: 22db 8bbe 72ff 893f 6636 633f 4b93 943f
00000340: 569f 91be 5b78 8b3f 995f df3d bb4e 88be
00000350: 38cb a43e 2f04 20bf 299d 12bf d5ef 913e
00000360: edbf a53f dff5 ad3f 1dd0 713d b3e6 c33f
00000370: 530b 86bf b4ad 833f 5d1d ad3e ef77 1ebf
00000380: c5b4 123f 6938 c73d 04ec 30bd 0437 f2be
00000390: ce65 563e ad3e 98bd f632 ce3f 06c2 d2bf
000003a0: f9ba b33f d1d4 c73d 0be6 c83f 8d6e 803d
000003b0: 80be ad3e ec54 89bd b98d 233f da2c a4be
000003c0: b0f3 913e 25b0 f0bd bc38 e53e ec0b d83e
000003d0: 6846 513e 23b1 d9be 829f 4e3c 99e5 133f
000003e0: 3f94 2e3f a92e 0ebe 2306 e33d 642f 453f
000003f0: 1f77 efbe 7081 253f fb84 c33e bf84 133e

representation.radial_transform.weights.2 f4 [6, 12, 4]
-2.3500156 1.0247709 -0.11920166 1.1877857 3.7066271 2.4842794 0.040862814 1.0191044
-1.4338683 -2.4164608 2.0486205 0.88741106 0.59692466 2.839555 0.48970345 -0.70500225
-2.1136508 -1.8854308 0.1840931 0.5624835 2.8550534 1.6881636 0.23214494 0.6414014
-0.98644674 2.0448544 0.46393377 0.3195151 -0.09455834 -0.87708867 1.4701096 0.5319688
2.5345535 0.92065287 0.38175878 -0.99759144 2.1242876 2.7798896 0.1089487 0.7481836
3.5287814 2.622389 0.5776564 0.9270596 -0.8403793 -1.2292576 0.14440686 0.05450733
2.4928784 0.710101 1.4328989 1.9462129 0.027968496 0.4327344 1.066126 2.6019132
-0.30916813 -1.2858751 -1.1718984 2.0570858 -1.5658435 -1.3719367 -0.5970688 -2.096678
-0.8781943 -1.2616919 1.0536165 0.23285687 -0.5098701 1.7853187 0.033139758 -1.1369575
-0.04183953 0.4764898 -0.03875689 1.5240631 0.8826536 -0.54592896 0.39846334 -0.8828438
0.6741473 0.4580098 -0.8334887 -0.60387 1.8766167 -0.47173488 0.5849553 -1.0421332
2.3816533 2.640438 -0.30517414 0.9056941 1.0577428 0.9934377 0.3467179 1.0023485
-1.5465174 -0.6463395 -0.6951118 -0.028826855 -1.0970404 -0.78479886 -1.3937472 1.1218846
0.94520724 0.98711544 -0.06572908 0.9224219 1.07889 0.15978448 -0.38148874 -0.5912915
1.0874863 -0.054906853 -0.16660638 -0.9418555 -0.3960345 1.5277494 0.6574912 0.60652494
1.2333603 -1.0050496 0.72787434 2.0167944 0.79028475 -0.7232507 -0.42428023 -0.91229635
-0.004494695 0.87694746 0.0027507315 0.68581015 0.005080754 -1.2632965 1.3744061 -2.1282067
0.099009655 0.65939754 0.88549733 -0.6953896 0.6937047 0.29326522 1.2695653 2.0053508
0.108757585 -1.7936596 -0.5303658 -2.395269 -0.25870603 0.09808029 0.87041026 -0.06723804
0.8868622 0.55245745 0.1928748 0.3672644 0.529056 0.3677336 0.02093781 2.5966952
-0.12896164 0.19610997 -0.41333854 -0.4496312 2.0936687 0.26884583 1.2623466 -0.17230122
1.5423689 0.38802192 -1.3784902 0.45202625 1.5264994 -1.4739687 -0.60868514 0.28957093
1.0438738 1.0383663 0.3491781 -0.19094086 -0.37101495 -0.6623242 2.5101838 0.22569893
-0.18523818 0.32431412 -0.5525191 1.2846376 0.0755776 -0.098383605 1.3503739 1.6731856
0.49733728 -1.278807 0.9827431 -0.24130775 1.5307341 1.2005471 0.26147848 -0.2216825
1.0325633 -0.025486052 0.96563584 0.7412979 -0.5774422 0.19023259 1.3117156 1.3643651
0.017670657 0.4286754 0.10616473 1.9033407 0.9827238 -0.12643982 0.5610765 0.20217785
1.4780941 0.49922502 1.0373228 -0.3335361 2.0665035 -1.4623889 0.6933613 -0.17872393
1.668973 0.7242006 0.901486 0.8151991 -0.62743783 -0.35303673 1.9764833 1.2583326
0.17489135 -0.09317946 0.9580504 1.2048842 0.9271984 0.6883224 1.6466267 1.1741158
0.17346568 -0.15964352 0.6084651 1.1002307 1.0054764 0.8693779 0.25592616 -0.14559914
-0.25301632 -0.31313434 0.07981606 0.2425369 -0.45384902 0.12721092 0.3366186 0.078855604
00000000: a866 16c0 b12b 833f 0020 f4bd 5d09 983f
00000010: 6139 6d40 6ffe 1e40 c45f 273d 0372 823f
00000020: ff88 b7bf 4ba7 1ac0 991c 0340 5f2d 633f
00000030: 0ed0 183f 45bb 3540 69ba fa3e 077b 34bf
00000040: 0e46 07c0 cc55 f1bf e782 3c3e ebfe 0f3f
00000050: 32b9 3640 bf15 d83f 67b7 6d3e e232 243f
00000060: c687 7cbf e5de 0240 ba88 ed3e 7c97 a33e
00000070: cea7 c1bd e288 60bf 8d2c bc3f 1b2f 083f
00000080: 2036 2240 e8af 6b3f e375 c33e 2762 7fbf
00000090: 54f4 0740 b6e9 3140 7f20 df3d f688 3f3f
000000a0: 8ed7 6140 39d5 2740 4ae1 133f c753 6d3f
000000b0: 1923 57bf 5058 9dbf 64df 133e 1443 5f3d
000000c0: 528b 1f40 2ec9 353f 3b69 b73f 811d f93f
000000d0: 301e e53c 5d8f dd3e d176 883f bf85 2640
000000e0: 494b 9ebe 8e97 a4bf c400 96bf 4ba7 0340
000000f0: 8f6d c8bf 9f9b afbf 80d9 18bf f92f 06c0
00000100: 57d1 60bf 1f7f a1bf e8dc 863f 0872 6e3e
00000110: d986 02bf 5385 e43f 8ebd 073d d387 91bf
00000120: ed5f 2bbd 79f6 f33e 8bbf 1ebd 8014 c33f
00000130: 96f5 613f 00c2 0bbf 6303 cc3e 0d02 62bf
00000140: eb94 2c3f 4380 ea3e 845f 55bf 3997 1abf
00000150: fa34 f03f 3c87 f1be a1bf 153f 9f64 85bf
00000160: 026d 1840 f0fc 2840 c93f 9cbe 92db 673f
00000170: 1e64 873f ef51 7e3f 0285 b13e f54c 803f
00000180: 48f4 c5bf 8176 25bf d9f2 31bf 4c26 ecbc
00000190: d26b 8cbf 94e8 48bf 4f66 b2bf ea99 8f3f
000001a0: 1af9 713f 99b3 7c3f f89c 86bd d723 6c3f
000001b0: 1119 8a3f 8b9e 233e 7e52 c3be e15e 17bf
000001c0: c032 8b3f 02e6 60bd dd9a 2abe 711d 71bf
000001d0: 09c5 cabe 4b8d c33f 5851 283f 3845 1b3f
000001e0: c0de 9d3f 77a5 80bf f955 3a3f 2913 0140
000001f0: 1a50 4a3f f526 39bf 423b d9be 418c 69bf
00000200: 3c48 93bb a17f 603f 9e45 343b 4191 2f3f
00000210: 747c a63b b3b3 a1bf 8aec af3f 8a34 08c0
00000220: 93c5 ca3d 47ce 283f f4af 623f 0e05 32bf
00000230: a296 313f dc26 963e 1e81 a23f ab57 0040
00000240: 4cbc de3d a396 e5bf 0ec6 07bf 164c 19c0
00000250: 1e75 84be 52de c83d 35d3 5e3f 19b4 89bd
00000260: 6709 633f da6d 0d3f f980 453e 140a bc3e
00000270: 3770 073f 9447 bc3e c585 ab3c 4130 2640
00000280: 850e 04be 0dd1 483e 1ca1 d3be 1036 e6be
00000290: abfe 0540 29a6 893e 9394 a13f bb6f 30be
000002a0: 586c c53f cfaa c63e 5e72 b0bf fc6f e73e
000002b0: 5564 c33f 02ab bcbf cad2 1bbf a442 943e
000002c0: a89d 853f 30e9 843f 79c7 b23e 0086 43be
000002d0: acf5 bdbe 148e 29bf daa6 2040 9f1d 673e
000002e0: 14af 3dbe 800c a63e e471 0dbf 016f a43f
000002f0: 6ec8 9a3d 587d c9bd 0dd9 ac3f f22a d63f
00000300: fea2 fe3e f3af a3bf 0d95 7b3f 6119 77be
00000310: 18ef c33f 87ab 993f 82e0 853e bd00 63be
00000320: 092b 843f 20c8 d0bc e933 773f b3c5 3d3f
00000330: 41d3 13bf 55cc 423e 4ce6 a73f 84a3 ae3f
00000340: 0ec2 903c 587b db3e e56c d93d aba0 f33f
00000350: c993 7b3f 7179 01be b6a2 0f3f b607 4f3e
00000360: 3032 bd3f 6c9a ff3e fec6 843f 3ec5 aabe
00000370: 9841 0440 8f2f bbbf 2080 313f 6803 37be
00000380: e8a0 d53f 3665 393f c9c7 663f e3b0 503f
00000390: c49f 20bf 3bc1 b4be 68fd fc3f 0b11 a13f
000003a0: b816 333e dfd4 bebd ca42 753f a539 9a3f
000003b0: e05c 6d3f e635 303f aac4 d23f 6d49 963f
000003c0: fda0 313e 9779 23be 5ec4 1b3f 5cd4 8c3f
000003d0: 73b3 803f 8d8f 5e3f c108 833e f117 15be
000003e0: 5b8b 81be 2553 a0be 9a76 a33d 985b 783e
000003f0: e65e e8be 9443 023e 4659 ac3e 0c7f a13d

representation.radial_transform.weights.3 f4 [6, 12, 4]
-4.1752143 2.1084821 -0.24778657 -0.0965161 2.5176191 -0.17213619 0.18081462 -0.43813446
-1.10257 0.08239562 -1.5756693 0.52517843 3.3164194 0.86588913 0.3711088 -0.50607884
0.8177883 1.2577509 -2.0883088 0.87366056 0.28990677 0.82218605 -0.52042615 -0.27844718
0.45964497 0.39164573 -0.40635294 1.0868242 0.83684266 -0.024142295 -0.34528777 0.5606288
2.1943276 0.8238592 0.9159167 -1.5203795 2.8120792 2.854845 -0.16516644 1.4161425
3.7785478 3.7995455 -0.3290455 -0.8502968 1.6977798 2.6656225 -0.3467605 0.26849437
-0.7572436 0.56440955 1.3946651 -0.25641894 -1.6232374 1.9222009 0.31966037 1.1452045
1.9996909 0.2514056 -1.852351 0.4532175 -2.4832652 0.77310663 1.3133469 -1.6082106
0.419098 2.040395 -0.36570543 0.46453738 1.9628975 2.1219528 0.54922 -0.37864235
0.76919115 2.1279938 1.1728051 0.24083886 -0.47668636 0.3422562 -0.28955773 1.0429482
-0.4620374 0.40706566 -1.843126 -0.6201994 1.8696727 1.66651 0.21829472 1.2342342
-0.54094756 0.21105106 0.34708962 -1.2604371 0.57232827 0.08028596 -0.89582425 1.5687861
0.68012166 -0.25437996 0.6218039 0.31599134 0.30368435 0.76382095 0.7771857 1.1403553
0.83582956 0.45254064 1.2089344 -0.4021918 2.3242984 0.6183398 0.7594302 0.37187624
0.58167654 1.285531 -0.5087129 1.5398506 1.1434517 0.52894 0.6288172 -0.17462544
-0.13673997 -1.2911502 -1.1402681 -0.93934935 0.86866945 0.5017125 0.8201542 0.025251197
0.068035506 -0.8170506 0.4486995 1.7025692 0.7166599 0.58609515 0.46721858 -0.5082865
0.21613526 -0.46795505 0.67841154 -0.46127948 -0.6804018 0.3702751 1.4845852 2.0578017
0.41748172 0.7692548 -0.39920306 1.7650543 1.2478412 0.3378703 1.605111 0.5722016
0.45162013 1.4737726 0.2682426 0.2359332 -0.29921433 -0.43986318 -0.66849256 2.5307696
1.1585293 -0.33585483 0.69672173 0.5631873 -0.4578615 -0.6934715 0.49285528 0.63585705
1.3723524 -1.1029114 0.5761019 -0.11726475 2.396426 1.6925162 1.2980434 0.5228776
0.23144534 0.31715533 -0.068233654 0.6233383 0.42315266 0.29866266 0.2921902 0.47527328
-0.7284393 -1.071945 1.4477937 0.5499832 1.4463146 -0.22464657 -1.6397815 -0.2655457
0.022317093 -0.25891152 -0.4134414 1.3304688 -0.39621794 -0.011787538 1.4130447 -0.8646249
-0.012803591 1.5920094 -0.90410376 1.3762435 -0.30280685 0.48180813 -0.50473917 0.8628908
1.8120946 -0.88804173 0.028493283 -1.0053453 -0.35387036 -1.2057537 0.9494646 -0.67649335
0.57121754 -0.4316653 0.72213125 -0.4010034 2.254558 0.99811405 1.03769 1.0898895
0.505533 0.20646869 0.064740576 0.37370995 -0.39539972 0.39430135 1.1496332 1.2054459
0.43378043 -0.6391304 0.8386912 0.74769706 0.41874695 0.05206328 0.9334301 -0.8226259
-0.102041684 -0.37291417 0.6811439 0.34043634 -0.27534962 -0.2949823 0.52333546 -0.6590552
0.14010356 0.2610732 -0.3761427 0.37580398 0.0037572987 0.1153581 -0.4188196 -0.16386908
00000000: 5b9b 85c0 5ff1 0640 c3bb 7dbe 3caa c5bd
00000010: ac20 2140 7844 30be 7827 393e 2953 e0be
00000020: 0421 8dbf 09bf a83d 88af c9bf 1872 063f
00000030: 3740 5440 e9aa 5d3f f901 be3e 628e 01bf
00000040: 935a 513f fbfd a03f daa6 05c0 38a8 5f3f
00000050: a96e 943e c97a 523f a63a 05bf a190 8ebe
00000060: 9656 eb3e ca85 c83e 7e0d d0be 0e1d 8b3f
00000070: 523b 563f 10c6 c5bc 8fc9 b0be 5e85 0f3f
00000080: dd6f 0c40 70e8 523f 8479 6a3f cc9b c2bf
00000090: 1bf9 3340 c8b5 3640 6421 29be 2844 b53f
000000a0: bad3 7140 c12b 7340 a778 a8be 0dad 59bf
000000b0: d950 d93f 8f99 2a40 988a b1be 1878 893e
000000c0: b7da 41bf 257d 103f 6384 b23f 5849 83be
000000d0: 3ec6 cfbf ae0a f63f 86aa a33e 1096 923f
000000e0: dff5 ff3f 3cb8 803e d619 edbf 200c e83e
000000f0: d1ed 1ec0 51ea 453f c01b a83f d8d9 cdbf
00000100: 0394 d63e d595 0240 be3d bbbe d8d7 ed3e
00000110: 3a40 fb3f 13ce 0740 af99 0c3f 69dd c1be
00000120: b6e9 443f 0d31 0840 7a1e 963f 769e 763e
00000130: 3c10 f4be 343c af3e e940 94be 547f 853f
00000140: 2b90 ecbe e96a d03e 8eeb ebbf 63c5 1ebf
00000150: 6f51 ef3f 3350 d53f a788 5f3e 63fb 9d3f
00000160: 8a7b 0abf c51d 583e bbb5 b13e 0156 a1bf
00000170: 1b84 123f f76c a43d bd54 65bf fccd c83f
00000180: 741c 2e3f 173e 82be 8a2e 1f3f 9ec9 a13e
00000190: 847c 9b3e c589 433f a4f5 463f 2af7 913f
000001a0: edf8 553f 68b3 e73e 5dbe 9a3f 15ec cdbe
000001b0: 4ec1 1440 844b 1e3f 056a 423f 9066 be3e
000001c0: c1e8 143f 488c a43f 023b 02bf d319 c53f
000001d0: a05c 923f 9d68 073f 2afa 203f 03d1 32be
000001e0: 9005 0cbe 6944 a5bf 4ef4 91bf 3379 70bf
000001f0: 1f61 5e3f 3b70 003f a0f5 513f 99db ce3c
00000200: 3356 8b3d 3a2a 51bf f1bb e53e caed d93f
00000210: 0677 373f 550a 163f 4637 ef3e 101f 02bf
00000220: 9052 5d3e ce97 efbe 61ac 2d3f d32c ecbe
00000230: d02e 2ebf b394 bd3e e306 be3f 06b3 0340
00000240: 2ac0 d53e e2ed 443f 5864 ccbe 4ded e13f
00000250: 43b9 9f3f 56fd ac3e 4774 cd3f ce7b 123f
00000260: c13a e73e 95a4 bc3f 1857 893e 7998 713e
00000270: 9f32 99be bf35 e1be 5422 2bbf 21f8 2140
00000280: b04a 943f 2af5 abbe 5b5c 323f 0b2d 103f
00000290: d36c eabe 5987 31bf 8757 fc3e 87c7 223f
000002a0: 3ea9 af3f 332c 8dbf 6a7b 133f 8028 f0bd
000002b0: 0b5f 1940 5fa4 d83f 4926 a63f 4edb 053f
000002c0: 0200 6d3e 2f62 a23e 16be 8bbd 1993 1f3f
000002d0: 77a7 d83e 50ea 983e f499 953e 0557 f33e
000002e0: ff7a 3abf 7e35 89bf 4e51 b93f b3cb 0c3f
000002f0: d620 b93f c009 66be 5ce4 d1bf 9bf5 87be
00000300: 56d2 b63c 0d90 84be 97ae d3be cd4c aa3f
00000310: 14dd cabe 8520 41bc a6de b43f 0f58 5dbf
00000320: 27c6 51bc f7c6 cb3f 5873 67bf bf28 b03f
00000330: 8009 9bbe 8eaf f63e 9636 01bf 69e6 5c3f
00000340: b7f2 e73f b456 63bf bf6a e93c 28af 80bf
00000350: 7f2e b5be 2356 9abf 1d10 733f ab2e 2dbf
00000360: 503b 123f 3c03 ddbe 98dd 383f 5150 cdbe
00000370: ae4a 1040 6784 7f3f 07d3 843f 8081 8b3f
00000380: 9c6a 013f 876c 533e b596 843d e956 bf3e
00000390: d571 cabe dee1 c93e 2e27 933f 0d4c 9a3f
000003a0: 7818 de3e 0d9e 23bf 77b4 563f 1369 3f3f
000003b0: 0066 d63e 4e40 553d 46f5 6e3f 9c97 52bf
000003c0: 3bfb d0bd 9bee bebe 725f 2e3f ac4d ae3e
000003d0: a0fa 8cbe ec07 97be 50f9 053f d7b7 28bf
000003e0: 4f77 0f3e 63ab 853e c795 c0be 6169 c03e
000003f0: 033d 763b de40 ec3d 866f d6be 4ccd 27be

output_modules.0.les.atomwise.outnet.0.linear.weight f4 [32, 288]
-1.0759283 0.410786 -0.058249533 0.07466784 0.3625981 0.46697026 -0.57629585 1.5977737
-1.936515 1.0137035 -0.06103078 -0.3533137 0.97292805 -0.18826292 -0.9091199 -0.5102661
0.21970516 0.9899818 1.6262652 -2.8197796 4.140357 -0.750144 0.5050748 2.4029963
-0.5141297 0.0014592127 0.10773154 0.22345947 0.3017534 -0.0065211365 -0.23940465 0.9093427
-0.4131039 -0.9709299 2.2474358 -0.35967088 -1.1022432 -0.25553507 0.914957 -1.4510581
2.3350594 1.0942669 1.1359282 2.2958498 -0.7957776 -1.1553249 2.165742 0.40774313
-1.0927049 -0.60595626 0.05157361 -0.40354767 0.2940468 -2.0132592 -0.8331385 -0.0017031735
0.08247502 -0.2713049 -1.7029979 -0.25856283 -0.41618857 1.806165 -0.011559639 -0.5296452
0.8611056 2.6025727 2.1058457 1.294461 -0.7516152 1.1164409 -2.0710588 1.0187849
0.82691705 0.101751044 -0.04392144 0.90856236 -0.048958715 -1.1395148 0.55500704 -0.29092807
0.69665587 -0.26832053 -0.30241683 1.813327 -1.3217782 0.2978939 -0.8294279 1.3213526
-0.52239007 1.5873255 0.65344197 -3.3844748 -1.0868515 -2.0188768 -0.10972621 -4.4701586
0.25582913 -0.21794194 0.1182276 -0.36836338 0.19442122 -1.5767167 -0.6615157 0.28314352
-0.3336225 0.29493994 -0.6472802 1.0825685 -1.3401407 0.21801384 0.0070547056 -0.9122894
-0.9494952 1.0045112 -4.4474063 -0.59075034 0.5102089 0.33250418 -2.6387584 -0.28932837
0.021436207 -0.020493107 -0.122664966 -0.045832932 -0.26672006 0.28824475 0.9018774 1.2874371
-1.2468129 0.72197646 -0.10211265 0.43603945 0.04505102 0.11960494 -0.007298122 1.068434
0.17466702 -0.4236982 -0.7176921 0.65054566 -0.6038706 0.016197268 2.3625474 0.59272784
0.42048022 0.10198973 -0.5853388 0.14459625 -0.11368588 -1.5734613 -1.1116685 0.45540297
0.32246625 -0.6237827 0.57502735 0.67445326 -0.44540757 1.4250343 1.1222644 -1.1101484
0.01104045 3.7323775 -1.4105791 -0.6159896 -0.96750045 -2.6725934 -0.739388 -9.312954
-0.47090554 -0.044378262 0.28015354 -0.0368104 0.75055444 -1.421218 0.17953512 -0.13084583
-0.069404185 -1.4553123 -0.364871 -1.6315675 -0.33246884 -0.71084964 -0.03231487 2.8311965
-0.7942884 -4.7924733 0.5744776 2.1863415 -0.68767744 1.5565597 -1.3403063 1.1230791
-0.020764027 0.49881822 -0.006795691 -0.24012755 -0.5459821 0.8369937 -1.416487 -0.9779464
-0.6896703 -0.23333687 -0.2748686 -1.1114734 0.4218809 -1.929556 -0.28080598 -1.3390738
0.030451316 2.071609 0.9002374 0.53689057 -0.15160115 -0.6853665 -1.5122283 -3.9707665
0.5849111 1.0297657 -0.013139175 0.109343365 0.26641867 0.589996 0.05290752 -0.6221638
0.31170762 0.7500574 0.6996955 -0.17193803 0.30428982 0.23407292 0.49874866 0.028723635
-0.46021163 -1.169173 -0.27733007 -5.3474784 -1.2754567 -0.19803317 0.88794065 0.472777
0.031564955 0.022186063 -0.110364184 -0.4604526 0.032079782 -3.0906837 0.030655123 2.2859502
0.98624796 0.019179387 1.4300405 -2.232786 0.48983705 1.5505084 0.40908104 0.6623476
00000000: 05b8 89bf 8b52 d23e 1097 6ebd 74eb 983d
00000010: 75a6 b93e ba16 ef3e 2088 13bf d983 cc3f
00000020: b9df f7bf 09c1 813f 69fb 79bd 89e5 b4be
00000030: d011 793f ffc7 40be 15bc 68bf cda0 02bf
00000040: 64fa 603e 726f 7d3f 7529 d03f 4577 34c0
00000050: ce7d 8440 7009 40bf 954c 013f b1ca 1940
00000060: 019e 03bf 0e43 bf3a 5ba2 dc3d 8fd2 643e
00000070: 6c7f 9a3e 42af d5bb 7e26 75be afca 683f
00000080: 5b82 d3be dd8e 78bf fdd5 0f40 c826 b8be
00000090: 4e16 8dbf 7ed5 82be 9f3a 6a3f 46bc b9bf
000000a0: 9d71 1540 f010 8c3f 1866 913f 34ef 1240
000000b0: 15b8 4bbf b0e1 93bf 849b 0a40 b5c3 d03e
000000c0: c1dd 8bbf f31f 1bbf da3e 533d cd9d cebe
000000d0: 4d8d 963e 3dd9 00c0 9148 55bf 053d dfba
000000e0: aae8 a83d 7ae8 8abe d6fb d9bf 5962 84be
000000f0: ab16 d5be 6a30 e73f a464 3dbc d496 07bf
00000100: 6b71 5c3f 8d90 2640 2dc6 0640 e6b0 a53f
00000110: db69 40bf 89e7 8e3f 3a8c 04c0 8b67 823f
00000120: d6b0 533f da62 d03d f8e6 33bd 8b97 683f
00000130: ef88 48bd 9fdb 91bf f114 0e3f 86f4 94be
00000140: 0a58 323f 4f61 89be 61d6 9abe 191b e83f
00000150: 0730 a9bf 8d85 983e 6355 54bf 1522 a93f
00000160: 5bbb 05bf 7b2d cb3f f947 273f 3c9b 58c0
00000170: f31d 8bbf 4735 01c0 23b8 e0bd 8a0b 8fc0
00000180: 09fc 823e 2c2c 5fbe 5021 f23d 209a bcbe
00000190: 5b16 473e dad1 c9bf 1859 29bf 30f8 903e
000001a0: 91d0 aabe 5e02 973e 28b4 25bf 9b91 8a3f
000001b0: bb89 abbf 053f 5f3e 292b e73b cc8b 69bf
000001c0: 1e12 73bf d393 803f 2751 8ec0 6a3b 17bf
000001d0: 0d9d 023f fd3d aa3e 6be1 28c0 d922 94be
000001e0: fc9a af3c 29e1 a7bc c537 fbbd 50bb 3bbd
000001f0: 888f 88be d194 933e 70e1 663f bdca a43f
00000200: 9197 9fbf 73d3 383f 7020 d1bd 9040 df3e
00000210: 6b87 383d 6ff3 f43d 1625 efbb 72c2 883f
00000220: e9db 323e f8ee d8be abba 37bf 298a 263f
00000230: 4397 1abf 22b0 843c fa33 1740 03bd 173f
00000240: 2f49 d73e fedf d03d c3d8 15bf 0a11 143e
00000250: 25d4 e8bd 2e67 c9bf 274b 8ebf 942a e93e
00000260: 4c1a a53e 39b0 1fbf fe34 133f f8a8 2c3f
00000270: 760c e4be 8667 b63f 5ca6 8f3f 5819 8ebf
00000280: 01e3 343c 46df 6e40 db8d b4bf 7fb1 1dbf
00000290: 1cae 77bf c50b 2bc0 8848 3dbf dc01 15c1
000002a0: 881a f1be fbc5 35bd 4970 8f3e 81c6 16bd
000002b0: 5624 403f 79ea b5bf 0ed8 373e 73fc 05be
000002c0: c823 8ebd ac47 babf 5fd0 babe 34d7 d0bf
000002d0: 5b39 aabe 3efa 35bf 995c 04bd 5332 3540
000002e0: 7c56 4bbf f15b 99c0 f710 133f 05ed 0b40
000002f0: a10b 30bf 593d c73f 288f abbf 0ec1 8f3f
00000300: 5219 aabc 1a65 ff3e 63ae debb ffe3 75be
00000310: 7cc5 0bbf 3845 563f 724f b5bf b25a 7abf
00000320: 3c8e 30bf dcef 6ebe 94bb 8cbe c344 8ebf
00000330: c600 d83e b1fb f6bf cdc5 8fbe c566 abbf
00000340: 0a75 f93c 3e95 0440 f575 663f a971 093f
00000350: 553d 1bbe 2e74 2fbf b290 c1bf 0a21 7ec0
00000360: bcbc 153f 5dcf 833f b245 57bc 6aef df3d
00000370: 0768 883e fa09 173f 8eb5 583d 2046 1fbf
00000380: 2498 9f3e c303 403f 3f1f 333f 8610 30be
00000390: e0cb 9b3e d0b0 6f3e fc5b ff3e d44d eb3c
000003a0: dca0 ebbe 76a7 95bf 35fe 8dbe 8b1e abc0
000003b0: 2a42 a3bf 35c9 4abe 1450 633f d40f f23e
000003c0: 414a 013d 8cbf b53c 9e06 e2bd 71c0 ebbe
000003d0: 1766 033d c3cd 45c0 7420 fb3c 024d 1240
000003e0: bf7a 7c3f 171e 9d3c 910b b73f f7e5 0ec0
000003f0: eccb fa3e 0f77 c63f 1273 d13e 9d8f 293f

output_modules.0.les.atomwise.outnet.0.linear.bias f4 [32]
-0.8263809 -0.15484391 -0.20703325 -0.77440906 -0.8555236 -1.119959 -1.1581143 0.16929278
-0.58776176 -0.3558788 -0.12773676 -1.0594141 -0.26276764 -1.0910122 -0.44294667 0.3105947
-0.4324679 -0.5802808 0.065690234 0.07720434 -0.317982 0.04553023 -0.7083305 -0.13724051
-0.080865495 -0.16827203 -0.18550234 0.30152592 -0.62691176 -0.7327032 -0.1839751 0.119833544
00000000: b38d 53bf 678f 1ebe 8600 54be ac3f 46bf
00000010: 9803 5bbf d15a 8fbf 173d 94bf 165b 2d3e
00000020: 8e77 16bf bf35 b6be 6dcd 02be e29a 87bf
00000030: 7b89 86be 4aa6 8bbf e8c9 e2be 4506 9f3e
00000040: 6f6c ddbe 488d 14bf 9a88 863d 4f1d 9e3d
00000050: 89ce a2be e87d 3a3d 2655 35bf c788 0cbe
00000060: cf9c a5bd 814f 2cbe 53f4 3dbe 9b61 9a3e
00000070: 4a7d 20bf 7092 3bbf f863 3cbe 4a6b f53d

output_modules.0.les.atomwise.outnet.1.linear.weight f4 [16, 32]
-0.04556122 -0.4320637 -1.5983313 -0.4159134 -0.31120488 -0.15206148 0.7294349 0.5420212
-0.44905436 -0.66800624 0.025628272 -1.7125497 -2.429182 -0.5957627 -0.8617209 -0.9205192
-1.1460836 -0.6205898 0.18918058 0.85746664 0.12319054 -1.2969893 -0.6312148 -0.2677721
-0.37690917 -1.5203731 -0.8032909 -0.9519199 -0.098974325 0.839015 -0.79929715 -0.5946588
-0.031078687 0.10094936 0.0018864562 0.29990405 -0.09081836 0.110339105 -0.03450781 0.104384616
0.11572309 -0.042038415 -0.08420402 0.02566689 -0.40492812 0.18000841 0.09633277 -0.09573499
-0.1884762 0.1980328 0.0047492404 0.039305355 0.020253701 0.01468763 0.3612756 -0.12615357
-0.024354171 -0.08854515 0.027036713 -0.08889384 -0.015637701 -0.11108043 -0.21181706 0.10971158
0.0021930735 0.0485797 0.00041580322 -0.0010668983 0.04749402 0.09984814 -0.112732165 0.00010203397
-0.027124189 0.082347766 -0.017145244 -0.00010422011 -0.039283562 -0.034023482 -0.031761456 -0.040771786
0.04690453 0.07176072 0.010847267 -0.04457456 0.021790644 0.043380536 0.02520705 0.03390722
-0.0440451 -0.09566214 0.05488265 -0.021780485 -0.006765323 -0.011620726 -0.0672127 0.027504584
-0.012809155 -0.010554896 -0.017360156 0.16977194 0.043534193 0.036654327 0.03170764 0.02949492
0.07416134 0.0884276 -0.008149317 0.005377492 0.024938244 -0.04066033 0.024418103 0.04014279
-0.18075733 -0.053487457 0.001306594 0.052353483 0.0185641 -0.03551128 -0.015482948 -0.0035059475
0.026890855 -0.05015188 0.026066802 -0.17134006 -0.014199755 -0.013362903 0.018092927 0.0285724
-0.01075911 0.06385741 -0.0040225736 0.08926017 -0.11647582 0.036246534 0.050175037 0.0458298
0.0001989305 0.013087682 -0.012078286 0.011380812 -0.04996862 -0.0022756846 0.07377203 -0.05999448
-0.067334875 -0.045047928 0.012833345 0.09441858 0.006524124 0.019041251 0.054601543 0.0984169
-0.006911951 -0.08621669 0.034129117 0.0373246 -0.0031171702 -0.09449563 0.069224775 0.033053566
-0.58512783 -0.26782307 -0.104608946 -0.17705834 -0.5985474 -0.49393705 -0.19954136 -0.5734421
-0.35402796 -0.56733996 -0.36117983 -0.5130271 -1.3049704 -0.59206265 -0.9146566 -0.40832335
0.057027612 -0.7398972 -0.74716634 -0.6536083 -0.2932266 -0.3876416 -0.7114999 0.08640014
-0.22449458 0.11060033 -0.58763564 -0.5855754 -1.054133 -0.41125473 -0.26960596 -0.15274675
0.08877191 0.07283042 0.23958507 0.19922656 0.2163509 0.2856757 0.04822869 0.029120607
0.29941818 0.027218174 -0.7415567 0.019026697 -0.44642404 -0.01851309 -0.07119755 0.15166369
0.3540705 -0.16789003 -0.10230059 0.13412827 0.3027324 -0.056573063 -0.093937635 -0.06845113
-0.17054468 -0.40765408 -0.05555413 0.49701452 -1.5147588 0.020363836 0.3895782 0.2226093
0.00081679365 0.051197145 -0.01795972 -0.029813135 -0.00047616602 0.006987338 0.02458449 -0.00016009608
0.025940642 -0.06779033 -0.022158945 0.011828766 -0.0091180615 -0.04905171 0.12659241 -0.03820507
0.012125464 -0.09896525 0.026908837 0.0775485 0.023267308 0.06413497 0.032873265 -0.080719836
-0.016886795 -0.061130468 0.04322641 0.009708903 -0.0047915294 -0.053831927 0.04918852 -0.007261206
00000000: 679e 3abd 7437 ddbe 1f96 ccbf 9af2 d4be
00000010: 3f56 9fbe 01b6 1bbe 3fbc 3a3f e7c1 0a3f
00000020: 74ea e5be 7502 2bbf 62f2 d13c d434 dbbf
00000030: b877 1bc0 e883 18bf be99 5cbf 25a7 6bbf
00000040: deb2 92bf f9de 1ebf 8eb8 413e ef82 5b3f
00000050: 524b fc3d bf03 a6bf 4b97 21bf 6d19 89be
00000060: 3dfa c0be 969b c2bf 79a4 4dbf 06b1 73bf
00000070: 0db3 cabd b0c9 563f bd9e 4cbf 8f3b 18bf
00000080: bb98 febc 8abe ce3d f742 f73a 068d 993e
00000090: fafe b9bd 78f9 e13d 1058 0dbd 9ac7 d53d
000000a0: 3a00 ed3d 7930 2cbd 2873 acbd 5f43 d23c
000000b0: bd52 cfbe 2054 383e 1e4a c53d b510 c4bd
000000c0: e8ff 40be 1cc9 4a3e 849f 9b3b a7fe 203d
000000d0: 17eb a53c 63a4 703c 1ef9 b83e 672e 01be
000000e0: 6682 c7bc 2957 b5bd 197c dd3c f90d b6bd
000000f0: a31a 80bc 237e e3bd 92e6 58be 77b0 e03d
00000100: abb9 0f3b 82fb 463d 2a00 da39 2bd7 8bba
00000110: 1789 423d 2e7d cc3d 1fe0 e6bd 12fb d538
00000120: 8c33 debc f2a5 a83d 2f74 8cbc bf90 dab8
00000130: cde7 20bd 355c 0bbd 4d18 02bd 5100 27bd
00000140: f71e 403d 49f7 923d bcb8 313c d093 36bd
00000150: 4b82 b23c caaf 313d 047f ce3c 4ce2 0a3d
00000160: a368 34bd 83ea c3bd a1cc 603d fd6c b2bc
00000170: a5af ddbb dc64 3ebc d0a6 89bd 4b51 e13c
00000180: 7ddd 51bc 71ee 2cbc e336 8ebc b2d8 2d3e
00000190: e950 323d d922 163d dfdf 013d 559f f13c
000001a0: e7e1 973d 8819 b53d b684 05bc ac35 b03b
000001b0: 4a4b cc3c 728b 26bd 7908 c83c c46c 243d
000001c0: 7318 39be aa15 5bbd 0542 ab3a 9b70 563d
000001d0: bd13 983c 4774 11bd 31ac 7dbc 0ac4 65bb
000001e0: 364a dc3c 0f6c 4dbd 0c8a d53c c573 2fbe
000001f0: 17a6 68bc 14f0 5abc 9e37 943c aa10 ea3c
00000200: fa46 30bc acc7 823d cbcf 83bb 09ce b63d
00000210: e08a eebd 3f77 143d 5784 4d3d 07b8 3b3d
00000220: 0098 5039 b86d 563c 01e4 45bc 9676 3a3c
00000230: e5ab 4cbd a723 15bb ca15 973d c6bc 75bd
00000240: dee6 89bd 2d84 38bd f342 523c 875e c13d
00000250: 52c8 d53b 66fc 9b3c dea5 5f3d cd8e c93d
00000260: a67d e2bb 6092 b0bd f9ca 0b3d aee1 183d
00000270: 7049 4cbb ed86 c1bd b8c5 8d3d 2d63 073d
00000280: f0ca 15bf 1b20 89be 373d d6bd c84e 35be
00000290: 673a 19bf 51e5 fcbe 9254 4cbe 1acd 12bf
000002a0: 2743 b5be 313d 11bf 90ec b8be be55 03bf
000002b0: 4509 a7bf 6b91 17bf ef26 6abf c20f d1be
000002c0: c995 693d e769 3dbf 4b46 3fbf e052 27bf
000002d0: cc21 96be f678 c6be dc24 36bf 8ef2 b03d
000002e0: e8e1 65be 6d82 e23d 4a6f 16bf 45e8 15bf
000002f0: d5ed 86bf fb8f d2be cb09 8abe a569 1cbe
00000300: 0cce b53d 1e28 953d ca55 753e 0c02 4c3e
00000310: 178b 5d3e 1644 923e 728b 453d 578e ee3c
00000320: 574d 993e a6f8 de3c a9d6 3dbf e0dd 9b3c
00000330: b191 e4be c4a8 97bc 05d0 91bd ba4d 1b3e
00000340: bb48 b53e 5deb 2bbe f982 d1bd ec58 093e
00000350: beff 9a3e 28b9 67bd 6062 c0bd 1b30 8cbd
00000360: 44a3 2ebe 09b8 d0be ba8c 63bd b078 fe3e
00000370: 9ee3 c1bf 0fd2 a63c cb76 c73e b1f3 633e
00000380: 181e 563a 19b4 513d 4320 93bc ad3a f4bc
00000390: eca5 f9b9 0af6 e43b 6a65 c93c 77df 27b9
000003a0: 7881 d43c a8d5 8abd ad86 b5bc 71cd 413c
000003b0: ec63 15bc 72ea 48bd 71a1 013e eb7c 1cbd
000003c0: e2a9 463c 4bae cabd ec6f dc3c bfd1 9e3d
000003d0: 159b be3c 3259 833d 1ea6 063d 7150 a5bd
000003e0: 2d56 8abc f163 7abd 2d0e 313d 1712 1f3c
000003f0: 4302 9dbb de7e 5cbd e779 493d 69ef edbb

output_modules.0.les.atomwise.outnet.1.linear.bias f4 [16]
0.9309018 0.0018561087 -0.0133468 0.016688742 0.029115083 0.040744003 -0.55013365 0.014697067
0.0928094 -0.32034138 0.040828537 -0.57753116 -0.42430094 -0.03678878 -0.0324155 -0.053022284
00000000: 954f 6e3f ac48 f33a 89ac 5abc d4b6 883c
00000010: c182 ee3c 2fe3 263d 8fd5 0cbf f8cb 703c
00000020: db12 be3d c903 a4be d33b 273d 15d9 13bf
00000030: f93d d9be d5af 16bd 1ec6 04bd e52d 59bd

output_modules.0.les.atomwise.outnet.2.linear.weight f4 [1, 16]
0.6588069 -0.0003972311 -0.00035333118 0.0010117642 0.0012685795 -0.53142625 0.024352007 0.00057454366
-0.58986735 -0.18763025 -0.5166741 -0.3964523 0.01595264 -0.00062495435 -0.00064783933 -0.0029320344
00000000: 92a7 283f 7543 d0b9 4f3f b9b9 2c9d 843a
00000010: 7746 a63a 8d0b 08bf dc7d c73c f99c 163a
00000020: 8c01 17bf 2522 40be c144 04bf ccfb cabe
00000030: 1caf 823c fad3 23ba c3d3 29ba 6027 40bb

output_modules.0.les.atomwise.linear_nn.linear.weight f4 [1, 288]
-0.40987477 -0.28806224 0.10048408 -0.033239547 0.7501811 -0.13753864 -0.40876973 0.028585846
-1.3409497 -0.60194993 0.12823205 -1.2484461 -0.5534543 -0.16711225 -0.9130888 -0.26108983
-0.10717021 -2.523516 0.7833709 -0.5978014 -1.9825125 -0.9221952 0.5231407 -2.422963
0.26063183 0.032377057 -0.08674872 -0.14477189 -0.03423777 0.19418912 -0.25084427 0.833395
-0.28815335 0.52935827 -0.025059022 -0.18838067 -0.49060902 0.104715854 0.58905923 0.033685405
-0.22975017 0.50615203 -0.25542426 1.0485878 -0.3486768 -0.21302012 0.5356914 -0.16717698
-0.26756302 -0.035194498 -0.03464941 0.32120332 0.12112284 0.14571495 -1.4312341 -0.11740254
-0.19841786 -0.80312276 -0.4217886 0.10825675 -0.08400328 0.4074311 0.93320405 0.1334142
0.53493476 -0.5729814 0.83814526 -0.2999722 -0.08590762 0.4627339 -0.93236 -1.6688297
0.43377504 0.007816476 0.010637222 0.18714432 -0.7953483 0.8567625 0.09105733 -0.4916524
-0.9474113 -0.3339819 -0.04154775 -0.31111908 -0.7693051 0.16648228 -0.7338521 -0.89935046
0.23468874 -0.39249268 0.466695 0.37496886 0.5722049 0.40819606 -0.17295624 -0.22013685
-0.1382354 0.5705674 -0.47638452 -0.71482134 0.15892695 0.42815724 -0.07291591 -0.3050811
0.27111748 -0.17086734 -0.29596773 -0.006884813 -0.6806348 0.05376964 -0.26807544 0.17267835
-0.9626897 0.25458315 -2.3466237 1.4153949 0.3305242 -0.50868267 -2.4678848 0.5314484
-0.0031737816 -0.039505523 0.3040217 -0.0012203082 -0.63859993 0.053175986 0.13654675 0.9391467
-0.8133194 0.097097345 -0.13407625 -0.16022287 -0.20135245 -0.083027974 -0.38776898 -0.2726508
-0.39309326 -0.2809705 -0.32203278 1.4487827 -0.19729865 -0.4069172 2.3853765 0.9331697
0.3859739 0.21492258 -0.057601776 -0.5270153 0.34766972 0.33100095 -0.8635787 -0.1459621
0.29360634 0.6982222 -0.0006661722 0.15944219 -0.52075547 -0.85961384 0.5461421 0.19398381
0.29372522 -2.1123893 -0.50362957 -0.33687124 -0.046179328 1.455231 -0.15463668 0.11565097
0.10439812 0.00459608 -0.1361784 0.052082296 0.17818339 0.6010761 0.08950163 -1.2243806
-0.059695054 1.1599802 -0.62059677 0.54197997 -0.34358332 0.4991379 -0.11299549 0.12809364
-0.39737636 2.7417405 0.46439347 0.06561651 -0.21563815 2.3071449 -0.16228853 0.25855368
0.49018976 -0.14740431 -0.023487352 -0.4909042 -0.69633895 -0.0021232825 -0.3973774 0.36166364
-0.6964658 0.25563607 -0.056815192 0.6049258 -0.09374805 0.3944763 -0.6395405 0.9702466
-0.35646352 -0.43962443 0.16469535 0.8104563 0.15784055 0.24060374 -1.1753833 1.0106833
0.26474753 -0.43978164 -0.0076118945 -0.03406327 0.47901204 0.043300837 -0.17705835 -0.24662437
0.0816634 0.04414329 0.27091467 0.6525741 -0.092580214 0.1683934 -0.031079197 0.3290679
-0.65182793 -0.3388071 0.025522685 1.2733266 -1.1180997 0.020349963 1.1298052 -1.2128717
0.4934625 -0.022950526 0.077765234 0.038821552 -0.2625103 0.86718804 -0.321364 -0.8887949
0.6464879 -0.15462936 0.66973054 0.28048483 -0.2027504 -0.6640044 -0.5278614 -0.087877624
00000000: 1bdb d1be e57c 93be 99ca cd3d 3126 08bd
00000010: de0b 403f eed6 0cbe 444a d1be dd2c ea3c
00000020: 3da4 abbf 6419 1abf 434f 033e 15cd 9fbf
00000030: 2eaf 0dbf 791f 2bbe 30c0 69bf 91ad 85be
00000040: 0e7c dbbd 4981 21c0 ff8a 483f 8309 19bf
00000050: f8c2 fdbf fc14 6cbf 8dec 053f d311 1bc0
00000060: 8971 853e ce9d 043d 50a9 b1bd 153f 14be
00000070: e73c 0cbd 83d9 463e a96e 80be 6059 553f
00000080: d688 93be 0684 073f 9448 cdbc dde6 40be
00000090: 1b31 fbbe 4475 d63d 96cc 163f b5f9 093d
000000a0: a143 6bbe 2e93 013f f8c6 82be 2038 863f
000000b0: c485 b2be f221 5abe 1223 093f 7130 2bbe
000000c0: 05fe 88be 1b28 10bd 8aec 0dbd c374 a43e
000000d0: 400f f83d 4d36 153e ae32 b7bf be70 f0bd
000000e0: 0d2e 4bbe 7499 4dbf adf4 d7be b7b5 dd3d
000000f0: e909 acbd cf9a d03e 76e6 6e3f bb9d 083e
00000100: 7cf1 083f e9ae 12bf b090 563f f595 99be
00000110: 56f0 afbd 75eb ec3e 25af 6ebf 369c d5bf
00000120: c317 de3e ad10 003c be47 2e3c c3a2 3f3e
00000130: f29b 4bbf ca54 5b3f 447c ba3d ddb9 fbbe
00000140: 8c89 72bf adff aabe f92d 2abd 004b 9fbe
00000150: 2ef1 44bf 557a 2a3e bbdd 3bbf d53b 66bf
00000160: 3f52 703e cdf4 c8be a6f2 ee3e ebfb bf3e
00000170: 057c 123f 13ff d03e 711b 31be 8e6b 61be
00000180: 958d 0dbe b510 123f ace8 f3be 88fe 36bf
00000190: bfbd 223e 6d37 db3e f054 95bd 9733 9cbe
000001a0: e9cf 8a3e d9f7 2ebe 1589 97be ff99 e1bb
000001b0: 153e 2ebf 8e3d 5c3d 2f41 89be 98d2 303e
000001c0: d572 76bf b958 823e 152f 16c0 a92b b53f
000001d0: 783a a93e 0739 02bf d3f1 1dc0 010d 083f
000001e0: 38ff 4fbb 8bd0 21bd bba8 9b3e c0f2 9fba
000001f0: 497b 23bf 10cf 593d e9d2 0b3e eb6b 703f
00000200: b335 50bf f9da c63d 494b 09be 7711 24be
00000210: 562f 4ebe 920a aabd a889 c6be e398 8bbe
00000220: 8543 c9be 5edb 8fbe 7be1 a4be b671 b93f
00000230: a808 4abe 7457 d0be 02aa 1840 36e4 6e3f
00000240: 5f9e c53e aa14 5c3e d7ef 6bbd 7aea 06bf
00000250: c401 b23e f578 a93e 7e13 5dbf 1777 15be
00000260: 9253 963e b1be 323f 0fa2 2eba d044 233e
00000270: 3b50 05bf a70f 5cbf f8cf 0b3f b1a3 463e
00000280: 2763 963e 6331 07c0 deed 00bf 637a acbe
00000290: 8926 3dbd 0245 ba3f 1459 1ebe 6ada ec3d
000002a0: aece d53d b79a 963b 5a72 0bbe 3f54 553d
000002b0: b575 363e 20e0 193f a14c b73d 81b8 9cbf
000002c0: cd82 74bd 3b7a 943f 6edf 1ebf 33bf 0a3f
000002d0: 27ea afbe 018f ff3e 2e6a e7bd fb2a 033e
000002e0: ea74 cbbe ad78 2f40 fbc4 ed3e f361 863d
000002f0: 3fd0 5cbe 43a8 1340 f72e 26be 2661 843e
00000300: 27fa fa3e 28f1 16be 8c68 c0bc cc57 fbbe
00000310: 4543 32bf c526 0bbb 0d75 cbbe fa2b b93e
00000320: 954b 32bf bbe2 823e 0cb7 68bd 6bdc 1a3f
00000330: fafe bfbd ccf8 c93e edb8 23bf 1562 783f
00000340: 6382 b6be 7416 e1be e6a5 283e 107a 4f3f
00000350: f4a0 213e d460 763e f672 96bf 125e 813f
00000360: fd8c 873e 0f2b e1be 336d f9bb ed85 0bbd
00000370: 1141 f53e 385c 313d c94e 35be 198b 7cbe
00000380: 243f a73d 98cf 343d 54b5 8a3e 190f 273f
00000390: b29a bdbd 526f 2c3e cd99 febc 967b a83e
000003a0: 32de 26bf 2078 adbe f314 d13c 5efc a23f
000003b0: e41d 8fbf f7b4 a63c 759d 903f 613f 9bbf
000003c0: 1ea7 fc3e be02 bcbc 6143 9f3d 5903 1f3d
000003d0: c067 86be 0900 5e3f d289 a4be 1088 63bf
000003e0: 3b80 253f 2957 1ebe 7673 2b3f b59b 8f3e
000003f0: cd9d 4fbe 31fc 29bf ed21 07bf 2ff9 b3bd
