MLIPs/CACE-LES/dipep/cace-r-5.5-nl-1-nu-2/best_model.pth (torch, 109282 bytes, 12 tensors)

embedding_weights f4 [4, 4]
-0.03297656 0.3479113 -0.036180653 0.2826861 0.5054094 -0.32900816 -0.4194581 0.58649844
0.44584376 -0.40433425 0.55229896 0.5978705 0.9169645 0.35081092 0.40378687 0.41871923
00000000: 6e12 07bd 6e21 b23e 2a32 14bd 3cbc 903e
00000010: 8362 013f c273 a8be 36c3 d6be c324 163f
00000020: a245 e43e e604 cfbe 7763 0d3f 0b0e 193f
00000030: 2fbe 6a3f 7d9d b33e 27bd ce3e 5e62 d63e

embedding_weights f4 [4, 4]
0.24466732 0.27006727 0.010659134 0.2072139 0.062849395 -0.13316607 -0.5522112 0.4463504
0.20569777 -0.30266663 0.5476287 0.18576159 0.7165295 -0.06119223 0.42098087 -0.081247576
00000000: 128a 7a3e 4246 8a3e a6a3 2e3c e12f 543e
00000010: 2fb7 803d b05c 08be b75d 0dbf 0a88 e43e
00000020: 70a2 523e 1ff7 9abe 6531 0c3f 4938 3e3e
00000030: 7a6e 373f b4a4 7abd ce8a d73e 2165 a6bd

bessel_weights f4 [6]
0.19947319 1.0649048 1.8224218 2.6420481 3.4645884 4.2968206
00000000: b342 4c3e cd4e 883f 1e45 e93f 5117 2940
00000010: d1bb 5d40 8e7f 8940

0 f4 [6, 12, 16]
0.73383397 0.24569815 -0.12550634 -0.003611608 1.4503157 0.25078896 0.6363699 2.36273
1.6873131 0.19723053 1.4984965 -1.0484473 0.72380114 -0.36389846 -0.0018385793 0.6492842
0.10443317 0.60337037 0.0016860394 -0.18996531 0.0015953304 1.4506404 0.97238636 -1.5969901
-0.14094484 0.91942805 -0.20762187 -0.4123928 0.0025504236 1.6560345 0.38229784 0.17555638
0.24550335 -0.38625506 1.1173118 0.021646604 -0.41714787 -0.67190665 1.2267773 0.022805752
-0.5882884 -3.3043134 2.7304401 -0.8591431 -0.1273292 1.3910731 -1.2483115 0.007697129
0.4065904 0.4701267 -0.005057505 0.0040877988 2.2021458 -1.0553074 -0.009027098 -1.50504
1.6195202 -1.9857419 0.023323443 0.93549716 -0.025142066 0.76814395 -0.00010926124 -1.30566
0.44050196 1.7497656 -0.41518524 0.79107493 -0.1450757 -0.46991193 -0.91823 1.1336813
0.0058774683 -0.8597366 -1.0954738 -1.6603459 0.40653914 -0.2508935 0.8874478 -0.20532162
-0.31442928 -0.09061213 0.8110167 0.23022507 0.08892528 0.29710713 0.0091790175 -1.005299
0.97112936 -1.6673579 -0.51212484 1.8396437 0.90995544 0.23975086 -0.0008487313 -0.002374179
0.37075925 1.1169071 -0.252998 0.14360008 -0.84927773 2.7662842 0.0054633627 -1.0350529
-0.80283874 2.2869656 -0.11566468 -0.33501562 0.20441109 0.46015984 0.5223157 -0.06588092
-0.13353464 1.1750695 0.79311204 0.0011746681 0.16116251 -0.1621219 0.35063004 0.7784283
6.1961727 0.35423523 1.7168144 1.866961 -0.6401864 -1.800917 0.0005225536 -0.090268955
-0.006784915 0.15005708 -0.15703578 0.61623126 -0.8754851 -1.1267982 0.6229755 1.6986693
0.80308026 0.642886 0.1454287 2.0498674 0.668943 0.40754655 -0.002557745 -0.055340428
-0.6243443 0.3901068 0.17475334 0.22620863 0.8334917 -0.5565094 0.5673751 -1.0962455
-1.3167007 0.9230652 -1.3256199 0.28302142 1.0179659 -0.41001472 0.0042910012 -0.19532837
0.041149024 0.9016934 0.7778202 0.23422049 2.4418228 0.48350906 -0.022223894 1.8822532
-0.027844252 -0.7274953 -0.96672523 -0.73831946 0.15854304 0.10630943 0.0011677179 0.57334155
0.08492321 -0.8279617 0.19867079 -8.9132765e-05 0.8760215 1.7442406 1.2294086 0.75124514
0.0071372176 1.1183845 2.081126 2.1152756 0.6886254 0.1622803 -0.0045592 0.3747145
-0.22233051 0.058925427 0.25732404 0.004931257 -0.34215498 0.8012867 0.35276997 1.1283978
0.19763246 2.1627564 0.23890877 -0.20424876 1.2270728 1.0264359 0.0071488316 0.3311983
0.28461397 -0.21032195 -0.0035088798 -0.29087886 -0.0065337564 0.61687446 0.12524804 -1.7158765
-0.07162531 -0.18027589 0.07134307 -0.009658296 -0.003556583 0.66110575 -0.0034434646 0.23404934
-0.24429749 0.599001 -0.45577228 1.1689876 0.88001907 1.0984888 -0.20672937 -0.026244028
0.77717555 0.86801183 0.77600384 0.31691217 0.46791506 -1.6701728 1.6027782 -0.009178656
-0.4187795 1.4687631 0.00201483 -0.0036280523 0.15880734 0.088311896 1.3085159 0.91370755
-0.5998001 -0.68867254 0.002284955 -0.3075225 0.9852123 -0.64316094 -0.002678059 -0.47205114
00000000: 8bdc 3b3f 4c98 7b3e bc84 00be bab0 6cbb
00000010: f2a3 b93f 6967 803e 23e9 223f f836 1740
00000020: e0f9 d73f cdf6 493e bcce bf3f 8533 86bf
00000030: 084b 393f e650 babe 7cfc f0ba 7d37 263f
00000040: 0fe1 d53d 7b76 1a3f 18fe dc3a 4486 42be
00000050: 681a d13a 96ae b93f 50ee 783f 2c6a ccbf
00000060: d853 10be a35f 6b3f d49a 54be 2625 d3be
00000070: 0225 273b f0f8 d33f 8bbc c33e 0dc5 333e
00000080: 3b65 7b3e 39c3 c5be 1304 8f3f 3854 b13c
00000090: 6894 d5be 1302 2cbf 0a07 9d3f 21d3 ba3c
000000a0: 129a 16bf df79 53c0 88bf 2e40 cdf0 5bbf
000000b0: 9662 02be af0e b23f acc8 9fbf 3338 fc3b
000000c0: 9e2c d03e 72b4 f03e 6db9 a5bb f1f2 853b
000000d0: f5ef 0c40 5014 87bf 65e6 13bc 27a5 c0bf
000000e0: 704c cf3f ca2c febf ce10 bf3c be7c 6f3f
000000f0: bcf6 cdbc 15a5 443f 2e23 e5b8 de1f a7bf
00000100: 7989 e13e 52f8 df3f 2993 d4be e383 4a3f
00000110: b98e 14be 4c98 f0be 1f11 6bbf 781c 913f
00000120: c797 c03b b317 5cbf 7c38 8cbf 3786 d4bf
00000130: e625 d03e 1d75 80be c72f 633f d53f 52be
00000140: e0fc a0be da92 b9bd ca9e 4f3f 1fc0 6b3e
00000150: 751e b63d 6d1e 983e 9763 163c a3ad 80bf
00000160: ef9b 783f fc6b d5bf 9d1a 03bf 7279 eb3f
00000170: d7f2 683f 4081 753e 657d 5eba 1d98 1bbb
00000180: 28d4 bd3e d0f6 8e3f f488 81be e60b 133e
00000190: 446a 59bf cd0a 3140 0206 b33b 9d7c 84bf
000001a0: d786 4dbf a55d 1240 9be1 ecbd 2b87 abbe
000001b0: 2451 513e 129a eb3e 7bb6 053f 93ec 86bd
000001c0: 4ebd 08be ad68 963f 6409 4b3f 52f7 993a
000001d0: c907 253e 4903 26be c885 b33e 1447 473f
000001e0: 0c47 c640 525e b53e 93c0 db3f 94f8 ee3f
000001f0: 42e3 23bf 7384 e6bf fafb 083a eede b8bd
00000200: fe53 debb 90a8 193e fdcd 20be 55c1 1d3f
00000210: cb1f 60bf ec3a 90bf 537b 1f3f ff6d d93f
00000220: ab96 4d3f 2d94 243f 43eb 143e 0731 0340
00000230: d93f 2b3f f1a9 d03e d79f 27bb a5ac 62bd
00000240: 07d5 1fbf 14bc c73e 8af2 323e 3ca3 673e
00000250: b65f 553f 6677 0ebf 7f3f 113f c651 8cbf
00000260: a689 a8bf 004e 6c3f eaad a9bf 2fe8 903e
00000270: b54c 823f 73ed d1be 879b 8c3b 2904 48be
00000280: e18b 283d 61d5 663f 3a1f 473f 7fd7 6f3e
00000290: d346 1c40 808e f73e e20e b6bc aced f03f
000002a0: a119 e4bc 223d 3abf 4e7b 77bf 8102 3dbf
000002b0: 1b59 223e c2b8 d93d 1c0e 993a 83c6 123f
000002c0: 38ec ad3d 4cf5 53bf 5b70 4b3e caec bab8
000002d0: f242 603f 4743 df3f 435d 9d3f 9a51 403f
000002e0: 52df e93b 3927 8f3f 2b31 0540 ad60 0740
000002f0: c149 303f cf2c 263e 5765 95bb 94da bf3e
00000300: 9caa 63be ca5b 713d fabf 833e 6296 a13b
00000310: f02e afbe 2021 4d3f 449e b43e 576f 903f
00000320: 2a60 4a3e 9a6a 0a40 80a4 743e 9626 51be
00000330: b910 9d3f 4062 833f bf40 ea3b d392 a93e
00000340: ecb8 913e a35e 57be 3cf5 65bb 13ee 94be
00000350: 1f19 d6bb 7ceb 1d3f 0641 003e d7a1 dbbf
00000360: 4ab0 92bd 3e9a 38be 511c 923d d43d 1ebc
00000370: 9015 69bb 3a3e 293f c0ab 61bb a1aa 6f3e
00000380: 1f29 7abe 2158 193f fc5a e9be 63a1 953f
00000390: ee48 613f 489b 8c3f ddb0 53be b7fd d6bc
000003a0: faf4 463f 0636 5e3f 30a8 463f 5042 a23e
000003b0: 9092 ef3e 39c8 d5bf d627 cd3f 1362 16bc
000003c0: 446a d6be 6e00 bc3f 3d0b 043b 9ec4 6dbb
000003d0: 649e 223e dedc b43d 737d a73f bde8 693f
000003e0: 808c 19bf d84c 30bf 2fbf 153b 9773 9dbe
000003f0: e036 7c3f 32a6 24bf 6082 2fbb b0b0 f1be

1 f4 [6, 12, 16]
-0.014085231 1.2389835 -0.30808693 0.23430258 1.9993155 0.88166237 -0.955422 1.5452585
-1.9889992 0.4337184 0.9832331 -0.040078618 0.99360996 0.38043973 0.036970515 0.7314846
-1.1721996 0.82578295 -1.3875902 2.0722024 2.795651 1.0540829 -0.5958517 -1.3158273
2.961559 1.6613727 2.4913008 1.5074084 0.13701375 0.69166154 1.576627 -1.0051941
-0.005258474 0.6483472 -0.8289062 2.8534431 4.716279 0.24427365 -0.1539744 -0.37006134
-1.2341477 -0.34945428 -0.67494965 -0.66759706 1.7719393 0.8931162 1.2247444 0.74179447
0.84528875 1.8751013 0.060879588 -0.18291996 1.0560857 3.136032 -0.30623007 2.5206206
-2.331787 -1.676605 -0.3918653 -0.59044445 0.14481157 -1.1250759 -0.6085599 -0.3776098
0.8367728 1.8393549 0.026167538 -0.6767183 2.233881 2.9941738 1.9235711 -3.0504632
2.7620778 3.6415296 1.4756199 3.9026206 0.5636941 0.03405556 -0.09616974 -0.17200693
-1.1517955 -1.1894895 0.9064885 -0.09316617 2.893415 1.4276221 4.6064167 -0.4704856
-1.629022 2.2919607 -0.743541 -0.24540505 -0.6042415 1.7470067 -0.4408238 -1.3572994
1.349601 1.5202541 0.86536247 1.5289237 3.0157237 -2.3485074 -1.2359556 1.2424575
2.1515074 2.6356552 0.7899383 -5.479847 -0.3614135 0.07327963 0.3133076 1.1065456
1.7399181 2.1285985 -0.5150577 1.5808413 -0.9605807 1.8653232 1.5119171 1.2231909
1.2915075 -1.7394422 0.14617495 -0.13686284 1.1266694 1.7199594 -0.37348688 1.0908332
0.44739184 -0.62293893 -1.5470766 1.6061804 1.4500998 1.0245082 0.7631389 1.8733535
-0.7801662 -2.403488 2.0189486 2.7455993 0.36514243 1.4693934 -0.5551097 -0.9743379
0.62021494 1.2671248 1.2151 -0.26761416 -1.7186179 1.086333 3.8897724 3.173645
-1.3751212 -1.2423856 -1.092765 -1.0067791 -0.9125564 0.68523896 1.4549396 -0.18644993
0.7257402 -0.47502628 -1.0828453 -0.067020334 -0.107027814 4.878447 -0.7131009 -1.8062941
-0.4818558 0.910385 2.046072 2.3319144 0.03172767 3.0319228 1.1345234 0.9589843
-0.81621075 0.32897753 -0.739979 -0.55417335 1.1115335 3.8789372 -0.33615455 1.1065212
-0.9511759 -1.0294511 -2.336739 -3.1906211 -0.53377444 0.12786193 0.96934855 1.8427279
-0.61987203 0.8524858 0.18835422 0.07449384 0.26742116 0.26385415 0.02467122 0.77120864
0.0031925149 1.6266656 -0.76109225 1.0717278 0.32214078 1.0038003 0.43832982 1.1658596
1.2485318 0.8137533 -0.7896212 2.5450249 -0.74719393 0.21565567 1.4007809 0.055310145
-1.0362266 1.7954533 2.4127145 -1.5696108 0.08709362 0.52390116 1.4658493 0.29205096
0.5355135 -1.5388818 0.21996439 2.189566 -0.20544489 -1.2626457 0.2867418 0.2981589
0.6232591 0.688264 -0.6832907 -0.26563862 0.14436525 0.7022049 -1.0025512 -0.5046814
0.21453884 1.2464536 0.7413622 -0.013432864 0.434668 -1.4641454 0.954919 1.3377099
-0.10025658 -0.075985156 0.6382779 1.2370485 0.49473283 0.49324328 -0.9573952 -0.81192744
00000000: bec5 66bc 0397 9e3f 92bd 9dbe 04ed 6f3e
00000010: 92e9 ff3f a0b4 613f 8996 74bf 08cb c53f
00000020: 8797 febf 5710 de3e 2ab5 7b3f 7a29 24bd
00000030: 395d 7e3f ffc8 c23e 656e 173d 9342 3b3f
00000040: a30a 96bf 8366 533f 8e9c b1bf f79e 0440
00000050: f2eb 3240 30ec 863f bd89 18bf 076d a8bf
00000060: 2f8a 3d40 dca7 d43f 7971 1f40 c2f2 c03f
00000070: 554d 0c3e bb10 313f eace c93f 33aa 80bf
00000080: 474f acbb 15fa 253f 3233 54bf d09e 3640
00000090: c2eb 9640 df22 7a3e 77ab 1dbe ae78 bdbe
000000a0: 8df8 9dbf aceb b2be 80c9 2cbf a4e7 2abf
000000b0: e8ce e23f 43a3 643f 6dc4 9c3f 3ee6 3d3f
000000c0: d864 583f 5203 f03f e05c 793d 5f4f 3bbe
000000d0: d12d 873f c0b4 4840 30ca 9cbe d951 2140
000000e0: 003c 15c0 fe9a d6bf 92a2 c8be 5e27 17bf
000000f0: 7c49 143e 7d02 90bf 95ca 1bbf 1256 c1be
00000100: be36 563f fb6f eb3f 4e5d d63c 693d 2dbf
00000110: e8f7 0e40 8ba0 3f40 9437 f63f ca3a 43c0
00000120: e2c5 3040 d20e 6940 1de1 bc3f 89c4 7940
00000130: 424e 103f d87d 0b3d a4f4 c4bd 9622 30be
00000140: 096e 93bf 3141 98bf a10f 683f e8cd bebd
00000150: b62d 3940 52bc b63f c467 9340 7de3 f0be
00000160: cb83 d0bf 7caf 1240 b458 3ebf 764b 7bbe
00000170: 92af 1abf ea9d df3f a8b3 e1be fdbb adbf
00000180: babf ac3f b097 c23f 6588 5d3f c6b3 c33f
00000190: 9e01 4140 f24d 16c0 cb33 9ebf d908 9f3f
000001a0: 4cb2 0940 93ae 2840 6539 4a3f e85a afc0
000001b0: 310b b9be a113 963d db69 a03e 49a3 8d3f
000001c0: a3b5 de3f f53a 0840 d2da 03bf 0259 ca3f
000001d0: 9ee8 75bf e9c2 ee3f 8086 c13f 8591 9c3f
000001e0: 1e50 a53f 0ba6 debf e3ae 153e c625 0cbe
000001f0: b436 903f a127 dc3f ac39 bfbe 6ca0 8b3f
00000200: 8b10 e53e ed78 1fbf 9b06 c6bf 5297 cd3f
00000210: df9c b93f 1623 833f 125d 433f 0cca ef3f
00000220: f9b8 47bf bfd2 19c0 7436 0140 e6b7 2f40
00000230: f3f3 ba3e 1515 bc3f ab1b 0ebf 356e 79bf
00000240: 68c6 1e3f 2531 a23f 6688 9b3f b904 89be
00000250: acfb dbbf f60c 8b3f 08f2 7840 001d 4b40
00000260: f903 b0bf 7e06 9fbf b9df 8bbf 23de 80bf
00000270: 4c9d 69bf d26b 2f3f 763b ba3f bbec 3ebe
00000280: 1cca 393f a536 f3be ad9a 8abf f541 89bd
00000290: 6631 dbbd 3d1c 9c40 c88d 36bf a534 e7bf
000002a0: ceb5 f6be fe0e 693f d8f2 0240 163e 1540
000002b0: e0f4 013d 060b 4240 1038 913f ff7f 753f
000002c0: 30f3 50bf be6f a83e 446f 3dbf 4ede 0dbf
000002d0: bb46 8e3f 8240 7840 731c acbe 7da2 8d3f
000002e0: 4480 73bf 0ec5 83bf 228d 15c0 2333 4cc0
000002f0: 71a5 08bf 3dee 023e 3a27 783f 82de eb3f
00000300: efaf 1ebf 823c 5a3f eedf 403e 3a90 983d
00000310: 6deb 883e e417 873e 4c1b ca3c ee6d 453f
00000320: 8339 513b 9436 d03f f1d6 42bf 602e 893f
00000330: a3ef a43e 877c 803f c46c e03e e33a 953f
00000340: e4cf 9f3f 2352 503f 9d24 4abf b0e1 2240
00000350: 1a48 3fbf d7d4 5c3e ca4c b33f e48c 623d
00000360: 13a3 84bf 6ad1 e53f ea69 1a40 02e9 c8bf
00000370: 245e b23d 631e 063f f3a0 bb3f b487 953e
00000380: 6a17 093f 14fa c4bf 583e 613e d921 0c40
00000390: 2560 52be 609e a1bf d2cf 923e 49a8 983e
000003a0: e98d 1f3f 1232 303f 24ec 2ebf c901 88be
000003b0: 7cd4 133e b3c3 333f 9953 80bf cd32 01bf
000003c0: 12b0 5b3e cb8b 9f3f eac9 3d3f 8415 5cbc
000003d0: ce8c de3e 1e69 bbbf 9275 743f 143a ab3f
000003e0: 5253 cdbd 1b9e 9bbd 2e66 233f 9b57 9e3f
000003f0: 9f4d fd3e 628a fc3e da17 75bf 7ada 4fbf

2 f4 [6, 12, 16]
-0.39191318 0.12151484 0.33046106 0.24170122 2.4183018 3.9273443 0.10451599 1.4343168
-3.3901756 3.1641178 0.9056455 -1.6558436 0.523881 -0.39806554 0.52146107 0.559692
-0.4443695 1.2200216 -0.019734869 0.3056107 -2.2549179 -1.1595016 -0.30431196 0.51232636
0.4087202 -1.9888196 2.057165 2.9150894 0.121619664 0.13591096 -0.40265557 0.9275234
0.12796308 1.4044919 -0.09959873 0.29124904 2.4651418 0.29873425 1.0205246 1.1405165
2.56256 2.7160006 -1.2545457 1.2011029 1.0501438 0.5991211 -0.42709994 1.0202781
1.2209607 -0.8275663 0.1616264 -1.0873504 1.0711803 0.8254805 1.5141659 0.5795588
2.5165596 1.3253156 -0.9324063 -1.5152862 -0.1015437 0.9824942 1.37931 1.0555701
0.34327722 -0.62846625 -1.1034838 0.28426334 2.7234523 -1.2685243 2.1469736 -1.0311674
0.057770375 0.21791288 1.7618864 1.1223015 0.7450372 -0.3055564 -0.81531245 0.4329563
-0.423918 1.2526853 0.0071997037 -0.2244541 1.9801576 2.143008 1.0061259 0.2733431
0.2379362 -0.33037204 1.5937165 2.7740657 0.3171436 0.2562711 -0.13847929 -0.23540431
0.8182441 -0.14302453 -0.6161893 0.689851 -1.1561345 0.92279553 -0.011650017 -0.23962107
-1.8552428 -0.2554984 1.6155516 -1.2971755 0.48390523 -0.0040605264 1.1013963 0.0068534166
-0.25874367 1.7271732 -0.11796982 0.9548264 2.9584932 0.47316512 1.0040753 1.1733558
1.576685 1.5277219 1.7659044 2.2980952 0.11537775 1.0305512 0.77201384 0.9372575
-0.6654295 1.0424289 0.5884446 -0.55907184 1.5628964 -0.5437811 -0.29356796 -1.4081647
-0.32081893 0.7635976 -0.3573188 -2.4075866 0.48446718 0.26086956 -0.18745257 -0.6025114
0.69884044 -0.03637655 0.45762295 0.4153992 -3.7329793 0.51097304 1.1066672 1.9930192
-1.2240264 -3.5211487 2.6597679 4.39007 0.019824104 -0.28663558 0.5031412 -0.1529451
1.2622997 0.13323335 0.2610565 0.7146835 -0.88117033 -1.1519532 1.2619878 -0.19535892
1.619105 1.1456548 1.3444203 3.2384007 1.4944896 -0.039194062 0.33915564 1.6019624
-0.15843973 1.0125254 0.6422654 1.0627159 -1.672507 -0.7662214 2.9179375 0.79449964
0.08728573 -0.5508834 -0.4749922 1.5764785 0.3890024 0.55471694 -0.5726013 0.34282857
0.9909227 0.5065243 -0.3292247 0.9916397 0.939585 4.0135074 -0.007386757 1.309262
-0.46881774 -0.81009686 0.4816096 1.1409912 -0.07031627 0.8835335 1.067918 0.9754474
0.70853627 1.3656179 -0.0615725 0.9571371 0.17661695 -0.42380983 0.16714956 -2.45818
-0.5694052 -1.493934 2.5706398 1.8986549 0.80259794 0.30802613 1.8235363 -0.41032994
-0.15270226 -1.0166801 0.25291446 0.7808976 1.0861907 0.040188 1.5154456 0.27613455
3.1729202 0.4465943 -0.28606102 -1.7132031 -0.02625682 -0.09452466 0.61215717 0.008508735
-0.67870367 -0.6034265 0.6178602 1.1563053 0.4633333 0.10249624 -0.37226996 -0.2114281
-0.17958587 0.8258056 -1.0079767 1.7999817 0.6340239 0.54256403 0.2386066 0.09315256
00000000: d8a8 c8be c6dc f83d 3132 a93e 8680 773e
00000010: 75c5 1a40 9c59 7b40 7b0c d63d b197 b73f
00000020: a3f8 58c0 e880 4a40 62d8 673f aff2 d3bf
00000030: 111d 063f 3fcf cbbe 797e 053f fa47 0f3f
00000040: 6684 e3be ab29 9c3f 05ab a1bc 0179 9c3e
00000050: 9350 10c0 8c6a 94bf c7ce 9bbe d227 033f
00000060: c643 d13e a491 febf 97a8 0340 d390 3a40
00000070: bb13 f93d 3e2c 0b3e df28 cebe 2c72 6d3f
00000080: c108 033e 64c6 b33f 6bfa cbbd 981e 953e
00000090: e2c4 1d40 b2f3 983e 8da0 823f 72fc 913f
000000a0: fc00 2440 f4d2 2d40 f494 a0bf bdbd 993f
000000b0: 1d6b 863f 0060 193f d8ac dabe 7998 823f
000000c0: 7148 9c3f 63db 53bf 6481 253e 4c2e 8bbf
000000d0: 701c 893f b152 533f 30d0 c13f f75d 143f
000000e0: 500f 2140 f1a3 a93f 2eb2 6ebf e6f4 c1bf
000000f0: 25f6 cfbd bd84 7b3f 3b8d b03f ec1c 873f
00000100: 08c2 af3e 2ae3 20bf f53e 8dbf f78a 913e
00000110: 0b4d 2e40 015f a2bf 0468 0940 4bfd 83bf
00000120: a1a0 6c3d 8e24 5f3e 7e85 e13f 93a7 8f3f
00000130: c2ba 3e3f e371 9cbe 51b8 50bf 73ac dd3e
00000140: c80b d9be fe57 a03f 7eeb eb3b 4cd7 65be
00000150: ce75 fd3f 0b27 0940 bcc8 803f a0f3 8b3e
00000160: 8ca5 733e 8626 a9be e7fe cb3f 4b8a 3140
00000170: a560 a23e f735 833e 84cd 0dbe d40d 71be
00000180: 7278 513f 0675 12be 95be 1dbf 139a 303f
00000190: 37fc 93bf 543c 6c3f b7df 3ebc 3a5f 75be
000001a0: 9978 edbf b0d0 82be 65ca ce3f d909 a6bf
000001b0: 6dc2 f73e 2a0e 85bb 8efa 8c3f a092 e03b
000001c0: 0d7a 84be 0314 dd3f 299a f1bd 816f 743f
000001d0: f457 3d40 b342 f23e 8a85 803f 8630 963f
000001e0: d0d0 c93f 648c c33f 2809 e23f fe13 1340
000001f0: 2b4b ec3d 1ae9 833f b3a2 453f 1cf0 6f3f
00000200: 9659 2abf 4f6e 853f 4ea4 163f 551f 0fbf
00000210: fd0c c83f 3d35 0bbf 8a4e 96be be3e b4bf
00000220: 6142 a4be 227b 433f 7df2 b6be e615 1ac0
00000230: 150c f83e b290 853e 91f3 3fbe 303e 1abf
00000240: 35e7 323f 94ff 14bd 8e4d ea3e 34af d43e
00000250: 22e9 6ec0 21cf 023f 45a7 8d3f 411b ff3f
00000260: e6ac 9cbf 805a 61c0 a339 2a40 747b 8c40
00000270: 2966 a23c e6c1 92be ddcd 003f a49d 1cbe
00000280: 0993 a13f 536e 083e 33a9 853e 7ff5 363f
00000290: 6194 61bf 3473 93bf d188 a13f 2b0c 48be
000002a0: d53e cf3f d1a4 923f f715 ac3f f541 4f40
000002b0: 6f4b bf3f f489 20bd cfa5 ad3e 1b0d cd3f
000002c0: 063e 22be 6f9a 813f 816b 243f 1307 883f
000002d0: b614 d6bf 1627 44bf 7dbf 3a40 5464 4b3f
000002e0: dcc2 b23d b206 0dbf 2d32 f3be 0cca c93f
000002f0: 532b c73e ee01 0e3f 0096 12bf 3a87 af3e
00000300: 1cad 7d3f 94ab 013f 2490 a8be 19dc 7d3f
00000310: a488 703f a76e 8040 9c0c f2bb e695 a73f
00000320: e108 f0be 8262 4fbf 8995 f63e 000c 923f
00000330: fa01 90bd 402f 623f 89b1 883f ecb6 793f
00000340: a262 353f 91cc ae3f 7233 7cbd f006 753f
00000350: 13db 343e 9afd d8be 4129 2b3e d252 1dc0
00000360: 8ac4 11bf 3b39 bfbf 5d85 2440 2007 f33f
00000370: 0f77 4d3f 9ab5 9d3e a369 e93f c416 d2be
00000380: fb5d 1cbe 9322 82bf 017e 813e e8e8 473f
00000390: 4c08 8b3f 2c9c 243d 1ffa c13f 8261 8d3e
000003a0: 2011 4b40 02a8 e43e 9776 92be 3d4a dbbf
000003b0: 8b18 d7bc 2596 c1bd 55b6 1c3f 3968 0b3c
000003c0: 86bf 2dbf 297a 1abf 162c 1e3f d001 943f
000003d0: 063a ed3e 8ce9 d13d 2b9a bebe 9c80 58be
000003e0: 5ce5 37be ff67 533f 6105 81bf cd65 e63f
000003f0: 644f 223f 7ae5 0a3f 4a55 743e c5c6 be3d

weight f4 [32, 576]
-0.86984646 0.359979 0.27006966 0.0017042123 -0.3721406 0.72534204 0.9174941 -0.6105777
-0.4071001 0.21337953 0.79826117 0.13406469 -1.7574997 0.25414222 -0.0014780267 -0.35459688
-0.23479888 -0.010491172 -0.061741225 1.2375088 0.79809743 -2.8632548 -2.79708 0.0037768448
0.018042548 -2.5764878 0.29939106 0.59986305 -0.6081005 0.521239 -2.365036 1.9462581
1.054695 0.7987668 0.9265512 -1.473757 0.45381197 -0.32765034 1.0708824 0.18646395
-0.008050151 0.24456558 1.209319 0.57056314 0.6103474 -1.403796 -0.18124521 -0.058605168
0.4739853 -0.0549444 -0.0073848986 1.1478537 0.032664407 0.45672774 0.26227823 0.2134381
-0.83246166 -0.15151611 0.14562024 0.035054844 -0.00012809968 0.042370833 -0.20727754 -0.4559154
0.6760831 -0.41752484 1.1173602 -0.07721995 0.11271215 1.3271589 -1.4260204 -1.3246971
-0.9838414 -0.36526778 -1.123622 -0.28823027 1.0072857 0.5852953 0.87286305 1.2732075
-1.2771145 1.4617178 0.72191715 0.36303657 -0.54482424 0.34061995 1.0335209 0.54056036
-0.09582363 0.24644935 -1.3604667 -0.6655011 3.2868855 -0.24189475 1.0877565 0.31446564
0.7438792 -0.15709446 0.04359934 0.22799025 0.7279207 0.64359367 0.20737144 0.054512814
-0.5374362 0.4728717 -0.97109944 -0.08636803 -0.41025874 0.021608585 0.222223 -0.0033679446
0.6454044 -1.848101 -0.8441555 0.093612134 1.8256199 -0.68376017 -2.0909486 -0.37881124
-1.1830162 -0.035073474 0.7417274 -0.16823147 -0.340536 0.950843 -0.010451628 0.43627083
-1.3810606 0.27672514 -1.3254986 0.8790795 -0.5134661 -1.0728968 0.8240353 -0.20073768
-0.94893855 1.032007 -1.1555951 -0.16753054 -0.53532565 0.061486952 0.026379842 2.2259374
-1.0051732 -0.38362157 0.011097065 0.0029095928 -0.57001245 -0.28142974 1.7871921 -0.56651527
0.39504826 0.52702516 -0.015219145 -0.06555573 0.5287142 0.41646454 8.366582e-05 0.65843487
-0.54251033 0.29690823 0.5455562 1.8187939 1.2653311 -0.39674816 0.09152551 -0.25705007
-0.8380274 1.416311 0.21297741 -1.1603084 -0.050090294 0.5786244 0.5693952 0.05766211
-1.1063054 -3.0877955 -0.8593031 0.2500741 -0.7018094 -0.18080826 -1.4470512 -1.64055
-0.5100823 -1.3395041 0.4971842 -1.0413065 -0.16934519 0.62724465 0.9350683 0.73271614
0.4347869 -0.60992086 0.44674054 -0.98589146 0.7171252 -1.7169635 -0.06694487 -0.026251605
-5.1987372e-05 0.433443 -0.53976786 -1.6548742 -0.25388515 -0.03225987 -0.13239236 1.0185814
0.9796725 1.7184707 1.5833638 -1.1527461 0.7178057 1.6272883 0.21588045 -0.9353155
-0.39821038 0.61464167 -0.14034395 3.2389631 2.5120933 -0.027950795 -0.32455897 1.0123253
0.87001693 -0.9248746 -0.44154507 0.7195196 -0.3057253 -0.54284394 -1.9845108 -1.7824318
0.004084907 -0.85285085 0.31548864 0.5801817 -0.17873694 -2.0736628 -0.68683785 -1.8469487
0.8829784 0.5725466 0.049241256 0.1765034 0.28005755 0.021206034 0.008271289 1.0632094
-0.21151416 0.010194374 0.5646673 1.2342954 -0.77648544 0.015168363 -0.008112786 -0.004571761
00000000: 42ae 5ebf 2b4f b83e 9246 8a3e e05f df3a
00000010: 3689 bebe 04b0 393f e5e0 6a3f d24e 1cbf
00000020: 6d6f d0be 2a80 5a3e d85a 4c3f 4148 093e
00000030: c0f5 e0bf ee1e 823e 59ba c1ba b98d b5be
00000040: 1e6f 70be 2ae3 2bbc 5ee4 7cbd b066 9e3f
00000050: 1d50 4c3f 913f 37c0 5c03 33c0 f184 773b
00000060: f7cd 933c 2de5 24c0 c949 993e a090 193f
00000070: 79ac 1bbf eb6f 053f c05c 17c0 fc1e f93f
00000080: 3f00 873f fb7b 4c3f 7632 6d3f 12a4 bcbf
00000090: 0b5a e83e c9c1 a7be ad12 893f 68f0 3e3e
000000a0: c8e4 03bc 666f 7a3e f7ca 9a3f 6d10 123f
000000b0: ba3f 1c3f 96af b3bf 5898 39be f90b 70bd
000000c0: 34ae f23e 610d 61bd 05fd f1bb dfec 923f
000000d0: 1dcb 053d 38d8 e93e 5549 863e 848f 5a3e
000000e0: 351c 55bf 0a27 1bbe 791d 153e ab95 0f3d
000000f0: 7f52 06b9 0a8d 2d3d 9040 54be be6d e9be
00000100: c813 2d3f d1c5 d5be a905 8f3f 7e25 9ebd
00000110: a1d5 e63d 58e0 a93f d687 b6bf ad8f a9bf
00000120: 08dd 7bbf 6104 bbbe d8d2 8fbf eb92 93be
00000130: bdee 803f ead5 153f f473 5f3f 77f8 a23f
00000140: 7d78 a3bf 9219 bb3f 90cf 383f eedf b93e
00000150: 9a79 0bbf bd65 ae3e 6a4a 843f 2a62 0a3f
00000160: 2e3f c4bd 385d 7c3e c623 aebf 485e 2abf
00000170: 555c 5240 42b3 77be 9b3b 8b3f a401 a13e
00000180: de6e 3e3f 5fdd 20be 3995 323d 4776 693e
00000190: 0359 3a3f 8ec2 243f 2e59 543e d448 5f3d
000001a0: 6b95 09bf 3d1c f23e f999 78bf b9e1 b0bd
000001b0: 6f0d d2be 7d04 b13c 6d8e 633e bcb8 5cbb
000001c0: 3939 253f 938e ecbf 931a 58bf b8b7 bf3d
000001d0: eaad e93f e80a 2fbf 1ad2 05c0 8cf3 c1be
000001e0: 136d 97bf 34a9 0fbd d9e1 3d3f df44 2cbe
000001f0: bc5a aebe 726a 733f 4e3d 2bbc e45e df3e
00000200: 98c6 b0bf ebae 8d3e f0a9 a9bf 5b0b 613f
00000210: 8472 03bf af54 89bf faf3 523f 2e8e 4dbe
00000220: a3ed 72bf ce18 843f 8aea 93bf 208d 2bbe
00000230: 1a0b 09bf bed9 7b3d 8a1a d83c c275 0e40
00000240: 84a9 80bf 0c6a c4be 77d0 353c deae 3e3b
00000250: 56ec 11bf 8f17 90be b6c2 e43f 2507 11bf
00000260: c443 ca3e 1feb 063f b959 79bc 1542 86bd
00000270: d059 073f d73a d53e bf75 af38 308f 283f
00000280: f5e1 0abf 5b04 983e 92a9 0b3f 3dce e83f
00000290: 5ff6 a13f 9322 cbbe ba71 bb3d 119c 83be
000002a0: f788 56bf ae49 b53f c016 5a3e fc84 94bf
000002b0: 7b2b 4dbd bb20 143f e2c3 113f 1b2f 6c3d
000002c0: 6a9b 8dbf 719e 45c0 4afb 5bbf b609 803e
000002d0: c8a9 33bf cd25 39be f938 b9bf 8bfd d1bf
000002e0: c194 02bf df74 abbf ed8e fe3e 8849 85bf
000002f0: d368 2dbe 1b93 203f a360 6f3f 4993 3b3f
00000300: 639c de3e c623 1cbf 2dbb e43e 6263 7cbf
00000310: 8495 373f 76c5 dbbf 641a 89bd 9b0d d7bc
00000320: 040d 5ab8 3eec dd3e 3a2e 0abf ebd2 d3bf
00000330: 3cfd 81be ed22 04bd dd91 07be e060 823f
00000340: d1cb 7a3f d9f6 db3f aaab ca3f 2f8d 93bf
00000350: 1dc2 373f fc4a d03f c40f 5d3e d670 6fbf
00000360: 3be2 cbbe 2859 1d3f 53b6 0fbe 2c4b 4f40
00000370: 23c6 2040 11f9 e4bc 982c a6be e093 813f
00000380: 6eb9 5e3f 95c4 6cbf 3212 e2be 7032 383f
00000390: 0788 9cbe d2f7 0abf 7304 febf ba26 e4bf
000003a0: afda 853b 6f54 5abf ba87 a13e ca86 143f
000003b0: d106 37be e4b6 04c0 9bd4 2fbf d168 ecbf
000003c0: df0a 623f 6a92 123f 33b1 493d 4fbd 343e
000003d0: b463 8f3e 47b8 ad3c 4d84 073c 3f17 883f
000003e0: 2b97 58be 4e06 273c 098e 103f 64fd 9d3f
000003f0: c0c7 46bf ba84 783c 7eeb 04bc b6ce 95bb

bias f4 [32]
-0.5844297 -0.8568164 0.06274699 -0.73273104 0.05889586 -0.90742797 -0.12757401 -0.06539727
-0.7818421 -0.511582 -0.77468634 -0.6987411 -0.57035226 -0.014285442 -0.89563334 -0.45279896
-0.20724224 -1.3729581 -0.31528562 0.39051026 -1.2530007 -1.0880466 0.003825705 0.43128476
-1.0318542 0.35535052 -0.40583777 -1.076187 -0.94665474 -0.53965276 0.027564153 -0.8001586
00000000: 2f9d 15bf 5258 5bbf 7e81 803d 4394 3bbf
00000010: c93c 713d 334d 68bf c3a2 02be 01ef 85bd
00000020: ce26 48bf 0af7 02bf d851 46bf b2e0 32bf
00000030: 9b02 12bf 7d0d 6abc 3a48 65bf 44d5 e7be
00000040: 4f37 54be 17bd afbf 1e6d a1be f6f0 c73e
00000050: 5462 a0bf 1c45 8bbf aeb8 7a3b 5bd1 dc3e
00000060: cc13 84bf 81f0 b53e f8c9 cfbe 7fc0 89bf
00000070: f757 72bf af26 0abf 38ce e13c 32d7 4cbf

weight f4 [16, 32]
1.666731 -2.106996 0.45673826 -1.5123261 -0.023307225 -0.15474878 0.09941217 0.34948966
0.59559435 0.005378111 1.0902569 -1.66521 0.28931883 -0.68877095 1.1169516 -0.07962335
0.25964087 1.5261428 2.198489 -0.4862723 -1.9193832 -0.41466454 -0.08617191 0.30814883
0.42376304 0.095300436 -0.13297099 1.2626253 0.5262797 0.5592805 0.28227457 -0.86050755
0.34146193 -0.26160228 -0.75490665 -0.15518561 0.18585141 0.565859 -0.3293102 -0.8641485
-0.738685 -0.74737936 0.3553933 1.0379568 -1.1877706 -0.11512585 -0.6231316 -0.2743193
-0.2527508 -2.0095522 1.1437705 0.19258142 -0.38783753 -0.560778 -0.5377455 -0.04467182
0.90359086 -0.013218542 -0.20790641 1.0296086 -0.29269826 0.004192233 -0.75884616 -0.433265
-0.29578978 0.2041476 0.5699406 1.6012561 -1.5989007 0.40429398 -1.0542253 -1.5350628
-0.9699381 -0.24242708 0.13447106 -1.6416062 -1.4878538 -0.6186999 0.6023384 0.19221085
-0.8880761 1.2535652 0.010613827 -0.72063965 -0.377282 0.10663651 0.5154782 -1.0716778
-1.8758248 -0.407073 0.1605479 -1.7675899 0.03382805 -0.0065790927 0.3552979 0.6948722
2.0177429 -1.9366009 -0.36568907 -1.0888548 0.20346415 0.28470045 0.38444802 0.022700874
0.7392479 -0.21423899 1.4666328 -2.982369 1.2756746 0.22295544 0.616576 0.35502723
-0.012636538 1.841524 0.81770253 -0.44977385 -1.6826441 -0.85434943 -0.06973373 -0.15454009
0.1049872 0.35735062 -0.55070776 1.1159179 1.6317296 0.08662501 0.27785587 -1.3675025
0.069844976 -0.31796387 0.15203322 0.3559462 -0.2582341 -0.66805536 0.31600794 -0.37169018
-0.038792968 -1.2101848 -1.0852492 -0.07733115 0.42294407 0.15868855 -0.080100335 -0.55494845
-1.0885245 -0.80700904 -0.30529177 0.27941734 0.18390289 1.0432343 0.4815269 -0.3118605
0.84230757 -1.1435798 0.5822998 -0.83412874 1.1130052 -0.70675904 0.30980527 0.20113736
-0.7345089 -0.2260714 0.6111848 0.29927236 0.24290335 0.87805784 -1.1291888 -1.3116347
0.75780416 -0.030165082 0.80252725 0.86423945 2.0215526 -0.31771076 0.14262375 -0.1680136
-0.280395 -1.2395543 -0.29883355 0.5817034 0.5207702 -0.54504615 -0.29061267 -0.8544518
1.5015001 -0.04868442 -0.66589063 3.190147 0.33993202 -0.9585284 -1.1238462 -0.08307283
-2.1885026 0.24400528 0.0010065865 0.94076437 0.22238368 -1.216717 0.07247578 0.33991775
-0.7412279 0.05148239 -1.2267416 1.0273042 -0.07554457 0.18275632 -1.1672058 -0.0843233
0.2598049 -0.13911052 -1.7192516 -0.17705 0.21624738 -0.03803599 -0.55357933 0.20576364
-1.2042193 0.14909811 0.12169172 -1.9398983 0.36483 -0.14936034 -0.19023217 1.0171978
-2.225055 0.7468034 0.009032067 0.8475992 -1.542032 -1.1752373 0.37063798 0.39329877
-0.23458225 -0.13803789 -0.61145836 1.6810604 2.3454933 -0.1807887 -0.3842378 -0.7159652
0.21553884 -1.5899627 -1.3331999 0.10626861 0.91143054 -0.40203482 -0.080647215 -0.21047881
-0.92071605 0.10478051 -0.42366934 -1.1379168 0.11579864 -0.40247262 -0.42718002 0.6295114
00000000: 7157 d53f 06d9 06c0 99d9 e93e e793 c1bf
00000010: cbee bebc 7776 1ebe 9c98 cb3d 4ff0 b23e
00000020: df78 183f dd3a b03b 8a8d 8b3f 9a25 d5bf
00000030: 9921 943e 4b53 30bf 45f8 8e3f 9111 a3bd
00000040: a6ef 843e a658 c33f 0bb4 0c40 aff8 f8be
00000050: 59ae f5bf e94e d4be e67a b0bd afc5 9d3e
00000060: 78f7 d83e e02c c33d 8c29 08be b59d a13f
00000070: 44ba 063f 022d 0f3f 4b86 903e 394a 5cbf
00000080: 19d4 ae3e bcf0 85be 9041 41bf fae8 1ebe
00000090: d54f 3e3e 23dc 103f 599b a8be d638 5dbf
000000a0: 761a 3dbf 4154 3fbf 1cf6 b53e c5db 843f
000000b0: de08 98bf 1ac7 ebbd 8d85 1fbf 9473 8cbe
000000c0: 8e68 81be 819c 00c0 1267 923f 1034 453e
000000d0: a492 c6be 268f 0fbf b0a9 09bf ccf9 36bd
000000e0: bb51 673f 9592 58bc 6be5 54be 37ca 833f
000000f0: 8cdc 95be 005f 893b be43 42bf e9d4 ddbe
00000100: c271 97be 120c 513e a1e7 113f f6f5 cc3f
00000110: c7a8 ccbf 9fff ce3e dbf0 86bf f07c c4bf
00000120: dd4d 78bf ce3e 78be c8b2 093e 2720 d2bf
00000130: fe71 bebf 1e63 1ebf d932 1a3f ecd2 443e
00000140: f558 63bf d374 a03f 9ee5 2d3c d77b 38bf
00000150: 1b2b c1be 3e64 da3d 61f6 033f bd2c 89bf
00000160: 071b f0bf df6b d0be ab66 243e 6340 e2bf
00000170: 488f 0a3d 6e95 d7bb 9be9 b53e 25e3 313f
00000180: b322 0140 8ae2 f7bf 993b bbbe 985f 8bbf
00000190: e858 503e 42c4 913e 5fd6 c43e 2ff7 b93c
000001a0: 5a3f 3d3f 7761 5bbe a0ba bb3f 22df 3ec0
000001b0: 4e49 a33f 6e4e 643e edd7 1d3f 21c6 b53e
000001c0: 7b09 4fbc 0fb7 eb3f f454 513f c248 e6be
000001d0: e260 d7bf a5b6 5abf 8fd0 8ebd c23f 1ebe
000001e0: 8703 d73d a9f6 b63e 2ffb 0cbf 66d6 8e3f
000001f0: 84dc d03f 7468 b13d 2043 8e3e 520a afbf
00000200: e20a 8f3d 29cc a2be 99ae 1b3e 953e b63e
00000210: 4337 84be ad05 2bbf cbcb a13e 2d4e bebe
00000220: 60e5 1ebd 56e7 9abf 72e9 8abf cb5f 9ebd
00000230: 208c d83e 407f 223e a50b a4bd 1a11 0ebf
00000240: c554 8bbf 2598 4ebf 344f 9cbe ca0f 8f3e
00000250: 0a51 3c3e b488 853f b28a f63e 2eac 9fbe
00000260: 78a1 573f d360 92bf 9a11 153f 7689 55bf
00000270: f476 8e3f 29ee 34bf cc9e 9e3e f4f6 4d3e
00000280: c608 3cbf 437f 67be 9b76 1c3f 3a3a 993e
00000290: a8bb 783e 66c8 603f 4289 90bf a5e3 a7bf
000002a0: 74ff 413f c31c f7bc 6d72 4d3f cc3e 5d3f
000002b0: 1e61 0140 fcaa a2be f60b 123e c20b 2cbe
000002c0: ef8f 8fbe b7a9 9ebf b600 99be 84ea 143f
000002d0: 3251 053f 2588 0bbf 2fcb 94be 5abd 5abf
000002e0: 2831 c03f 5069 47bd cf77 2abf 5e2b 4c40
000002f0: 920b ae3e 1e62 75bf 31da 8fbf 1722 aabd
00000300: 6d10 0cc0 85dc 793e 70ef 833a efd5 703f
00000310: 8cb8 633e 62bd 9bbf 2f6e 943d b309 ae3e
00000320: 1dc1 3dbf 33df 523d de05 9dbf b47e 833f
00000330: 1db7 9abd 7924 3b3e 0067 95bf b2b1 acbd
00000340: 2605 853e fd72 0ebe 7010 dcbf 984c 35be
00000350: f46f 5d3e a0cb 1bbd 60b7 0dbf b4b3 523e
00000360: dc23 9abf 2dad 183e 8239 f93d 964e f8bf
00000370: ffca ba3e ebf1 18be 39cc 42be 8a33 823f
00000380: 4d67 0ec0 822e 3f3f 3cfb 133c 43fc 583f
00000390: 4e61 c5bf 2d6e 96bf 43c4 bd3e 755e c93e
000003a0: 5436 70be ce59 0dbe 8988 1cbf fd2c d73f
000003b0: 901c 1640 ac20 39be d1ba c4be 7f49 37bf
000003c0: 37b6 5c3e e683 cbbf 4ba6 aabf 5ba3 d93d
000003d0: 8353 693f 82d7 cdbe 5e2a a5bd c287 57be
000003e0: 0cb4 6bbf 2a97 d63d 30eb d8be 42a7 91bf
000003f0: d627 ed3d e410 cebe 57b7 dabe a927 213f

bias f4 [16]
0.022196839 -0.53246444 -1.6770037 0.35698384 -0.16514967 -0.7116764 -0.4476774 -0.44090074
-4.534203 0.31348196 -1.3973358 -0.42800882 -0.6399928 -0.37379244 -1.4765689 -0.81016904
00000000: 25d6 b53c 974f 08bf 0fa8 d6bf 96c6 b63e
00000010: ff1c 29be 6d30 36bf f935 e5be bebd e1be
00000020: 3118 91c0 b580 a03e e6db b2bf f923 dbbe
00000030: 91d6 23bf b961 bfbe 3600 bdbf 3d67 4fbf

weight f4 [1, 16]
-0.09493247 -0.3026755 -0.39727712 -0.27167046 0.40282518 0.49393052 0.17641856 0.21146707
0.01016368 -0.1265517 -0.60639745 -0.29768497 0.20400727 0.20697638 -0.33828855 -0.19211216
00000000: f46b c2bd 48f8 9abe e867 cbbe 6418 8bbe
00000010: 1a3f ce3e 76e4 fc3e 11a7 343e d38a 583e
00000020: 9085 263c c596 01be dd3c 1bbf 2a6a 98be
00000030: 48e7 503e 9ef1 533e 2834 adbe 0db9 44be

weight f4 [1, 576]
-0.17217074 0.006371135 -0.17718087 0.0010907715 -0.018338472 0.22912312 -0.034747124 0.17210482
0.12116415 -0.24287312 0.09994417 -0.05722961 -0.110173576 -0.12012325 -0.0006664215 0.17518319
0.3396377 -0.26191622 0.12643069 -0.0669012 0.2712063 0.24561682 0.8189464 0.22804242
-0.109068856 0.21633689 -0.041561414 -0.026784707 0.17908739 -0.14518112 -0.047681123 -0.34117475
-0.350169 0.45231515 0.18168323 -0.032974556 0.13194144 0.3395729 0.25096405 0.43998772
-0.005543875 -0.46969917 0.20688426 0.070489965 0.03471433 -0.2686904 0.19886355 0.6506851
-0.03352484 0.024784403 0.0012494052 0.22383755 0.0023701082 -0.03395431 0.050030693 -0.32393745
-0.008384226 0.0030285355 -0.0017671988 -0.0033621266 -0.00092038675 0.27619505 -0.14731002 0.048323195
0.05220795 0.1327968 0.7524539 0.13438836 -0.029756038 -0.18129802 -0.2153652 -0.10631502
0.004091329 -0.01048284 0.5121002 -0.033623207 0.2731943 0.16381486 0.36248758 -0.014026411
-0.11211275 -0.1578216 0.106724225 0.26483288 0.12176403 -0.11943617 0.41793513 -0.20048817
0.2374228 -0.44343245 0.4621846 -0.07656946 -0.25095338 -0.07655042 -0.16238692 -0.04607682
-0.04795378 -0.060442183 -0.13027787 -0.011505354 0.16843355 0.20090592 -0.028507318 -0.006771352
-0.06505524 0.23110951 0.18888761 0.050269 -0.11705713 -0.17339694 -0.13129126 -0.0011567303
-0.04692705 -0.075365975 -0.060223177 0.41346282 0.11969574 0.24327868 0.40040174 -0.032045495
0.051892877 0.2880066 0.055383716 0.12438637 -0.01048208 -0.16775988 -0.11751299 0.16277224
0.3352506 -0.05720025 0.12161944 0.069081396 -0.11787583 0.55127937 -0.13071118 -0.035631295
0.26325783 0.10034329 -0.2763094 -0.36179224 0.08634299 0.14468199 -0.10052003 -0.16166534
-0.029439062 -0.24074453 0.00015863829 0.000404628 0.091194585 0.21963811 -0.055400833 -0.043742698
0.06977506 -0.027185705 -0.0020428663 -0.04793585 0.20841222 0.029294832 0.0008305044 -0.40539157
0.24222298 -0.15377884 -0.008061384 -0.06259212 0.16266781 -0.16634853 0.22415446 -0.17660262
-0.09410836 0.061742492 0.005275341 -0.4248259 -0.106249094 0.054588284 0.32824153 0.38854828
-0.019970955 0.112123646 0.3916579 0.1369349 -0.037110914 -0.20895192 -0.09231994 -0.0049196607
0.089124165 0.09861428 -0.31420913 0.08882705 0.26992914 -0.1868716 -0.03558851 -0.066606276
-0.05107473 -0.20273481 0.040538725 -0.030578544 0.14721335 0.0279128 -0.0026201007 0.145267
0.00064282934 0.008531214 0.0015260527 0.112122595 -0.00032904212 0.1623565 0.07423687 -0.06187276
-0.1825367 0.09254341 0.32666254 -0.11494973 -0.22873971 0.3234681 -0.15791325 -0.09437638
0.060022175 0.14566997 -0.047971707 -0.048410967 0.07320705 0.7944537 0.27183753 0.33086735
0.1610626 0.37954342 -0.010625354 0.076485366 -0.33399028 0.18567103 -0.2569486 0.02623845
0.17206432 -0.014071891 0.44493014 0.088911995 0.20022927 0.22085823 0.26299763 -0.14339104
-0.00032026778 0.020823937 0.0056343367 0.07879041 0.0019676914 0.23037085 -0.0005158055 0.08350062
0.049032696 -0.049885675 0.044088524 -0.0553889 -0.081485 0.21454255 -0.0005595711 -0.001961028
00000000: 874d 30be f4c4 d03b e76e 35be 38f8 8e3a
00000010: 903a 96bc 409f 6a3e 0053 0ebd 3f3c 303e
00000020: e924 f83d bbb3 78be 87af cc3d 9869 6abd
00000030: afa2 e1bd 2e03 f6bd cab2 2eba 3963 333e
00000040: fee4 ad3e e219 86be 0c77 013e 7f03 89bd
00000050: 8ddb 8a3e fa82 7b3e 79a6 513f f483 693e
00000060: 7e5f dfbd 6b87 5d3e 4d3c 2abd 9a6b dbbc
00000070: af62 373e 5caa 14be 484d 43bd 75ae aebe
00000080: 5a49 b3be da95 e73e 2b0b 3a3e 5410 07bd
00000090: a81b 073e 80dc ad3e 5c7e 803e 1246 e13e
000000a0: 65a9 b5bb 697c f0be 78d9 533e 0b5d 903d
000000b0: 9d30 0e3d ca91 89be e3a2 4b3e 4c93 263f
000000c0: 5851 09bd a908 cb3c 15c3 a33a ac35 653e
000000d0: d153 1b3b ad13 0bbd fcec 4c3d 21db a5be
000000e0: fe5d 09bc 657a 463b 5aa1 e7ba 2057 5cbb
000000f0: 1c46 71ba 7069 8d3e 70d8 16be 8bee 453d
00000100: 01d8 553d e2fb 073e d2a0 403f 1a9d 093e
00000110: efc2 f3bc 30a6 39be b288 5cbe b0bb d9bd
00000120: 8e10 863b 38c0 2bbc 0019 033f 7db8 09bd
00000130: 20e0 8b3e 15bf 273e f997 b93e 08cf 65bc
00000140: 5f9b e5bd fc9b 21be 3b92 da3d 2d98 873e
00000150: 6b5f f93d f39a f4bd 98fb d53e c54c 4dbe
00000160: f61e 733e 9409 e3be 76a3 ec3e 73d0 9cbd
00000170: f67c 80be 77c6 9cbd c248 26be 0cbb 3cbd
00000180: 2f6b 44bd 3992 77bd 9067 05be f480 3cbc
00000190: d879 2c3e 48ba 4d3e 2e88 e9bc 38e2 ddbb
000001a0: af3b 85bd f9a7 6c3e c16b 413e dee6 4d3d
000001b0: a6bb efbd f88e 31be 3771 06be 6e9d 97ba
000001c0: 9436 40bd 7a59 9abd 94ac 76bd 66b1 d33e
000001d0: 0a23 f53d 0c1e 793e 7501 cd3e 2342 03bd
000001e0: a08d 543d 9a75 933e 09da 623d 48be fe3d
000001f0: 08bd 2bbc 3fc9 2bbe a7aa f0bd c4ad 263e
00000200: f7a5 ab3e cf4a 6abd 9d13 f93d 8c7a 8d3d
00000210: e268 f1bd a520 0d3f 27d9 05be 1ff2 11bd
00000220: bbc9 863e c880 cd3d 6d78 8dbe d53c b9be
00000230: 98d4 b03d 8427 143e 72dd cdbd 998b 25be
00000240: 302a f1bc bc85 76be 2458 2639 4024 d439
00000250: 3ac4 ba3d d0e8 603e fceb 62bd 8b2b 33bd
00000260: 3ae6 8e3d 8eb4 debc 9ce1 05bb 6258 44bd
00000270: 036a 553e b7fb ef3c 35b6 593a 7c8f cfbe
00000280: 4d09 783e 3378 1dbe e513 04bc 4c30 80bd
00000290: 6492 263e 4557 2abe bf88 653e 51d7 34be
000002a0: e2bb c0bd b2e5 7c3d c5dc ac3b c882 d9be
000002b0: 2099 d9bd f797 5f3d 460f a83e cdef c63e
000002c0: 219a a3bc 15a1 e53d 6287 c83e aa38 0c3e
000002d0: 9d01 18bd 7ef7 55be 3d12 bdbd 1b35 a1bb
000002e0: bb86 b63d 49f6 c93d 05e0 a0be f5ea b53d
000002f0: 2734 8a3e 455b 3fbe 42c5 11bd df68 88bd
00000300: bc33 51bd b799 4fbe ef0b 263d db7f fabc
00000310: 19bf 163e 62a9 e43c ffb5 2bbb dfc0 143e
00000320: 8c83 283a 81c6 0b3c d505 c83a 88a0 e53d
00000330: 4983 acb9 c840 263e 8009 983d 4b6e 7dbd
00000340: e7ea 3abe 6687 bd3d 5040 a73e c46a ebbd
00000350: be3a 6abe 9c9d a53e 03b4 21be 6748 c1bd
00000360: d0d9 753d 822a 153e fb7d 44bd 944a 46bd
00000370: 94ed 953d 5161 4b3f 4a2e 8b3e 7267 a93e
00000380: 98ed 243e 8453 c23e f715 2ebc 5ca4 9c3d
00000390: c600 abbe 8c20 3e3e c48e 83be 05f2 d63c
000003a0: a131 303e ca8d 66bc e2cd e33e 7e17 b63d
000003b0: e708 4d3e a928 623e a0a7 863e 1ad5 12be
000003c0: 9de9 a7b9 f696 aa3c 3ea0 b83b de5c a13d
000003d0: 62f4 003b 56e6 6b3e 1f37 07ba 6002 ab3d
000003e0: 82d6 483d ec54 4cbd 2b96 343d 79df 62bd
000003f0: 9ce1 a6bd 0bb1 5b3e 2eb0 12ba 9784 00bb
