MLIPs/NequIP-LES/Au-MgO-Al/nequiples-r-4-nl-2-l-1/best.ckpt (torch, 999336 bytes, 88 tensors)

model.sole_model.model.func.edge_norm._rmax_recip f8 []
0.25
00000000: 0000 0000 0000 d03f

model.sole_model.model.func.bessel_encode.bessel_weights f8 [1, 8]
0.7021822512546562 1.6133536719779473 2.4682893633035325 3.8215366427405555 4.484505848442346 6.721526552759655 7.354857459594104 9.343232913753443
00000000: 8b0d 9fe9 4678 e63f c16d a0f0 4bd0 f93f
00000010: 6ea0 637e 0ebf 0340 634a a8cd 8192 0e40
00000020: 581f 174d 22f0 1140 7f31 4ddb d7e2 1a40
00000030: 14cb fec0 5f6b 1d40 b2f6 7639 bcaf 2240

model.sole_model.model.func.type_embed.embed_module.weight f4 [4, 32]
-0.0017825373 0.0034392083 -0.006775459 0.0139820315 0.004754538 0.8255683 0.0010338223 0.004870339
0.026213018 -0.05737464 -0.0051037064 0.0048847613 0.0010220974 0.022525962 1.1804862 0.008579544
-0.0064391997 -0.011133613 -0.0029054303 -0.14733253 0.011179657 -0.00070443546 -0.0012750002 0.0026618245
-0.0032754515 -0.0046589808 0.0008798718 -0.007177459 -0.0022761298 0.0011179545 0.0025367585 -0.008415374
-0.00015755119 -0.001278578 0.012590783 0.010136286 -0.001048089 -0.1728764 0.010931347 0.007517045
0.008626799 0.96280324 -0.00054182607 6.892186e-05 0.002191623 -0.0045124004 -0.10295136 -0.0070991376
0.005969051 0.0016602845 -0.003792256 -1.1322976 0.0020379159 0.0051212306 0.0040338268 -0.010782682
0.00064263324 0.007543257 0.0037845888 0.061198637 -7.2785742e-06 -0.0064119985 0.0019311111 0.0019090257
0.0029099847 0.007482202 -5.5327406 1.0612166 -0.00458581 3.504654 0.0018514234 -0.0004683476
-7.878996 -4.8950844 -0.54063207 -0.0035508892 -0.002297513 5.801817 -7.35148 -0.0037437796
-4.7369843 -3.5294213 -0.0013809897 5.144077 4.2275143 0.0017680724 -0.0007992892 -0.0011924581
0.0012557053 0.0023477252 0.0061021135 8.975356 0.0006242282 0.005011142 0.0042293556 0.0026847771
-0.031416558 0.02316858 -0.031092543 -0.021801813 0.002189065 -0.09624959 -0.00522143 -0.0029015855
-3.93943 0.051525272 -0.046585027 0.04190918 0.0184415 -2.529045 0.32099882 -0.020318259
-0.04645256 0.0030757478 -0.018005336 -0.8811603 0.0042427494 0.007577299 0.024460495 -0.01989122
-0.019885346 0.015066789 0.0400445 0.073196344 -0.026174782 -0.006392575 -0.008388912 0.0074589886
00000000: 07a4 e9ba 5764 613b ab04 debb e414 653c
00000010: f5cb 9b3b 7258 533f 5281 873a 5d97 9f3b
00000020: afbc d63c ac01 6bbd fe3c a7bb 5910 a03b
00000030: e6f7 853a 5e88 b83c 2c1a 973f 3791 0c3c
00000040: ecff d2bb c269 36bc 0869 3ebb 57de 16be
00000050: e12a 373c dda9 38ba e81d a7ba 0172 2e3b
00000060: f5a8 56bb 5daa 98bb 32a7 663a e430 ebbb
00000070: 1f2b 15bb 5488 923a bf3f 263b a3e0 09bc
00000080: 5334 25b9 f595 a7ba 9249 4e3c aa12 263c
00000090: 0860 89ba 8306 31be 6419 333c 8b51 f63b
000000a0: 6b57 0d3c 467a 763f 5509 0eba 248a 9038
000000b0: 55a1 0f3b c2dc 93bb 2ad8 d2bd e29f e8bb
000000c0: 0798 c33b e79d d93a 7f87 78bb 21ef 90bf
000000d0: 8e8e 053b ffcf a73b 312e 843b d9a9 30bc
000000e0: 6376 283a 6d2d f73b dd06 783b 6cab 7a3d
000000f0: 7a3a f4b6 be1b d2bb 561d fd3a 4638 fa3a
00000100: 71b5 3e3b 422d f53b 360c b1c0 f2d5 873f
00000110: 9044 96bb 404c 6040 76ab f23a 8d8c f5b9
00000120: bc20 fcc0 88a4 9cc0 dd66 0abf 09b6 68bb
00000130: df91 16bb 7ca8 b940 533f ebc0 335a 75bb
00000140: 6095 97c0 0ae2 61c0 5302 b5ba 479c a440
00000150: cc47 8740 aabe e73a 6487 51ba 414c 9cba
00000160: 7a96 a43a 4bdc 193b 3df4 c73b 0f9b 0f41
00000170: 3fa3 233a 8234 a43b 6896 8a3b 16f3 2f3b
00000180: a6ae 00bd 09cc bd3c cab5 febc b799 b2bc
00000190: 6b76 0f3b 811e c5bd 8818 abbb 8728 3ebb
000001a0: 9f1f 7cc0 2a0c 533d f1cf 3ebd f6a8 2b3d
000001b0: a112 973c e0db 21c0 f559 a43e 7a72 a6bc
000001c0: 0a45 3ebd 7c92 493b ed7f 93bc b993 61bf
000001d0: c306 8b3b fe4a f83b 6061 c83c e9f2 a2bc
000001e0: 98e6 a2bc b2da 763c b405 243d f7e7 953d
000001f0: 7f6c d6bc ce78 d1bb a671 09bc 886a f43b

model.sole_model.model.func.layer0_convnet.equivariant_nonlin.mul.output_mask f4 [96]
1.0 1.0 1.0 1.0 1.0 1.0 1.0 1.0
1.0 1.0 1.0 1.0 1.0 1.0 1.0 1.0
1.0 1.0 1.0 1.0 1.0 1.0 1.0 1.0
1.0 1.0 1.0 1.0 1.0 1.0 1.0 1.0
1.0 1.0 1.0 1.0 1.0 1.0 1.0 1.0
1.0 1.0 1.0 1.0 1.0 1.0 1.0 1.0
1.0 1.0 1.0 1.0 1.0 1.0 1.0 1.0
1.0 1.0 1.0 1.0 1.0 1.0 1.0 1.0
1.0 1.0 1.0 1.0 1.0 1.0 1.0 1.0
1.0 1.0 1.0 1.0 1.0 1.0 1.0 1.0
1.0 1.0 1.0 1.0 1.0 1.0 1.0 1.0
1.0 1.0 1.0 1.0 1.0 1.0 1.0 1.0
00000000: 0000 803f 0000 803f 0000 803f 0000 803f
00000010: 0000 803f 0000 803f 0000 803f 0000 803f
00000020: 0000 803f 0000 803f 0000 803f 0000 803f
00000030: 0000 803f 0000 803f 0000 803f 0000 803f
00000040: 0000 803f 0000 803f 0000 803f 0000 803f
00000050: 0000 803f 0000 803f 0000 803f 0000 803f
00000060: 0000 803f 0000 803f 0000 803f 0000 803f
00000070: 0000 803f 0000 803f 0000 803f 0000 803f
00000080: 0000 803f 0000 803f 0000 803f 0000 803f
00000090: 0000 803f 0000 803f 0000 803f 0000 803f
000000a0: 0000 803f 0000 803f 0000 803f 0000 803f
000000b0: 0000 803f 0000 803f 0000 803f 0000 803f
000000c0: 0000 803f 0000 803f 0000 803f 0000 803f
000000d0: 0000 803f 0000 803f 0000 803f 0000 803f
000000e0: 0000 803f 0000 803f 0000 803f 0000 803f
000000f0: 0000 803f 0000 803f 0000 803f 0000 803f
00000100: 0000 803f 0000 803f 0000 803f 0000 803f
00000110: 0000 803f 0000 803f 0000 803f 0000 803f
00000120: 0000 803f 0000 803f 0000 803f 0000 803f
00000130: 0000 803f 0000 803f 0000 803f 0000 803f
00000140: 0000 803f 0000 803f 0000 803f 0000 803f
00000150: 0000 803f 0000 803f 0000 803f 0000 803f
00000160: 0000 803f 0000 803f 0000 803f 0000 803f
00000170: 0000 803f 0000 803f 0000 803f 0000 803f

model.sole_model.model.func.layer0_convnet.conv.linear_1.weight f4 [1024]
-1.4824383 -0.13984036 0.70162046 0.0754057 -0.049601015 -0.04532398 0.06602093 -0.466052
-0.055494763 1.3218216 -0.5950796 0.09104085 -0.030630827 0.09409666 -0.01652366 0.15525493
-0.026878247 0.58829486 0.18029523 0.005935838 -0.024552237 0.1848762 0.3798781 -0.084553875
-0.17734675 0.39815214 0.1750386 0.6084245 1.3702605 -0.028984427 0.06884216 -0.37632525
0.8855057 0.09761159 -0.027767543 0.071946904 -0.096451506 0.07216576 0.19730695 0.16963096
-0.22944514 -0.6918274 0.35041767 -0.10966119 -0.36704376 0.1642993 -0.4498816 0.21043815
-0.0043469295 -0.18847568 0.00036544562 0.046609193 -0.1726001 0.1260501 -0.14670728 0.09234231
0.052606404 0.36035544 0.18633425 -0.38024387 -0.41025722 0.12807721 -0.69499534 -0.2582096
0.3656767 -0.054201614 2.194076 1.4287051 -0.18307097 -0.34305584 -1.549237 -1.1378294
1.3359419 0.45622504 0.5833137 -0.22324964 1.0245988 0.8229456 1.6407803 -0.29827148
-0.073270015 -0.79191136 -1.093944 0.7195198 1.4950901 -0.41959798 0.062412288 0.49321705
-0.5217135 -0.036921106 1.1857266 -0.1971834 0.5527489 -0.2507335 0.8123623 -0.59284174
-0.5602949 -0.14710867 -0.096392445 -0.15777901 -0.017498149 -0.081061 0.5877071 0.19517173
-0.57190263 -1.763591 0.52998024 -0.119075015 0.18838963 0.08758596 0.50755525 -0.75175846
-0.09672493 -1.0956753 -0.09151044 -0.58726925 -0.21279177 0.0013272122 0.09403976 -0.017246302
0.38031757 0.53445166 -0.06536985 0.25335726 -1.4517847 0.33149326 -1.0569397 1.0634305
0.33901533 0.045884617 -0.53304243 -0.23068233 0.022514913 0.08393976 -0.08329984 0.15756653
-0.209962 -0.108601995 0.419304 0.0035251293 -1.1003253 -0.111350805 -0.43402332 0.32212102
-0.04964709 -0.3631189 -0.124658205 -0.05814967 0.10477939 -0.052208852 -0.14735314 -0.008983163
-0.053299684 -0.9917009 -0.09802021 -0.34981704 -1.370832 0.04440487 -0.015468959 0.9477296
-0.9531467 -0.18099377 -0.012164608 2.5321612 3.9463058 0.7375359 1.3446348 0.014266594
0.65262544 -1.0729368 -3.7667675 0.67949814 -0.46569747 -1.7302957 -0.572428 -1.3231086
3.818971 0.34782884 0.8026756 2.3151913 -1.228379 -4.8835216 1.4847314 -0.008876763
-1.2845151 0.943438 -3.0066965 -1.5246435 -1.2756158 1.2295885 -0.22652832 0.67534477
0.44265702 0.030080225 0.008598558 0.12669486 0.017244967 0.061613902 -0.032003485 0.58119965
-0.3306716 0.14078476 1.0146353 0.03110661 0.601672 0.17465144 -0.4039833 0.40825582
0.21990561 0.61781216 -0.032258302 -0.16103353 -0.2462156 0.087442495 0.26638383 0.11361287
0.18242072 -0.44177338 -0.22599988 -1.223511 -0.15507476 -0.17277817 0.36255863 -0.64839303
-1.0311272 0.056085326 0.070348956 0.2338669 0.03891804 0.05521639 -0.014677865 0.12571822
-0.23140025 1.1737964 0.73979187 -0.06583798 0.72060525 0.032602802 0.079078004 0.02470653
0.13544458 -0.5017038 -0.08190623 -0.048966587 0.035079822 -0.0580223 0.0076641077 0.0036052165
0.019708443 -0.31242368 0.08470774 0.09254571 -1.2705086 -0.26759377 -0.7569921 0.10172902
00000000: 8ac0 bdbf 5032 0fbe 669d 333f 4e6e 9a3d
00000010: 6f2a 4bbd a3a5 39bd fb35 873d 5e9e eebe
00000020: 7a4e 63bd 7331 a93f 2357 18bf a073 ba3d
00000030: 80ed fabc c0b5 c03d a05c 87bc 26fb 1e3e
00000040: c52f dcbc 7e9a 163f 509f 383e 6b81 c23b
00000050: c621 c9bc 3050 3d3e 627f c23e 952a adbd
00000060: 639a 35be 99da cb3e 523d 333e b5c1 1b3f
00000070: b264 af3f c070 edbc 1efd 8c3d b4ad c0be
00000080: 80b0 623f 96e8 c73d c278 e3bc e658 933d
00000090: 5e88 c5bd a4cb 933d d50a 4a3e bdb3 2d3e
000000a0: abf3 6abe 9a1b 31bf f269 b33e 0c96 e0bd
000000b0: 29ed bbbe 133e 283e e256 e6be 197d 573e
000000c0: b070 8ebb c5ff 40be 4899 bf39 48e9 3e3d
000000d0: 15be 30be 4713 013e 6f3a 16be f71d bd3d
000000e0: d079 573d 8280 b83e 68ce 3e3e 53af c2be
000000f0: 3c0d d2be ac26 033e 37eb 31bf 0c34 84be
00000100: fa39 bb3e 8302 5ebd be6b 0c40 cfdf b63f
00000110: f576 3bbe 04a5 afbe 664d c6bf 65a4 91bf
00000120: 2500 ab3f 5496 e93e 0c54 153f 8e9b 64be
00000130: 0e26 833f 90ac 523f 1705 d23f 0ab7 98be
00000140: 970e 96bd b4ba 4abf 5b06 8cbf 7332 383f
00000150: 1d5f bf3f 8cd5 d6be 07a4 7f3d f286 fc3e
00000160: 048f 05bf 963a 17bd e4c5 973f 72ea 49be
00000170: f480 0d3f 2460 80be faf6 4f3f 7ac4 17bf
00000180: 7d6f 0fbf a8a3 16be 6769 c5bd d290 21be
00000190: 4758 8fbc 4f03 a6bd f973 163f 19db 473e
000001a0: 3668 12bf 5abd e1bf c9ac 073f 9add f3bd
000001b0: 36e9 403e 4560 b33d 24ef 013f 3e73 40bf
000001c0: b817 c6bd 173f 8cbf d369 bbbd 4757 16bf
000001d0: 16e6 59be daf5 ad3a eb97 c03d 1e48 8dbc
000001e0: fcb8 c23e d3d1 083f a1e0 85bd 0bb8 813e
000001f0: 15d4 b9bf 7cb9 a93e cd49 87bf 7e1e 883f
00000200: 6b93 ad3e 82f1 3b3d 7875 08bf fd37 6cbe
00000210: 3271 b83c 9ce8 ab3d 1b99 aabd 1f59 213e
00000220: 4700 57be b96a debd 04af d63e db05 673b
00000230: 76d7 8cbf e40b e4bd 4e38 debe 0ced a43e
00000240: bf5a 4bbd b8ea b9be cd4c ffbd 592e 6ebd
00000250: 9496 d63d f3d8 55bd bee3 16be 1e2e 13bc
00000260: c550 5abd 1ce0 7dbf d2be c8bd 381b b3be
00000270: 6c77 afbf e2e1 353d 8471 7dbc 689e 723f
00000280: 6c01 74bf 6e56 39be 104e 47bc ee0e 2240
00000290: 4690 7c40 27cf 3c3f fe1c ac3f 6fbe 693c
000002a0: 7612 273f fe55 89bf b812 71c0 97f3 2d3f
000002b0: e66f eebe 547a ddbf a48a 12bf 9f5b a9bf
000002c0: 056a 7440 9f16 b23e 267c 4d3f 182c 1440
000002d0: 863b 9dbf cf45 9cc0 ae0b be3f d86f 11bc
000002e0: fe6a a4bf 2785 713f b76d 40c0 8527 c3bf
000002f0: 6147 a3bf 2863 9d3f 0af7 67be 65e3 2c3f
00000300: f1a3 e23e ce6a f63c f7e0 0c3c 4cbc 013e
00000310: 5145 8d3c dc5e 7c3d 1616 03bd 80c9 143f
00000320: ca4d a9be e129 103e 92df 813f 4ad3 fe3c
00000330: 2d07 1a3f d4d7 323e e6d6 cebe e806 d13e
00000340: f02e 613e f028 1e3f 4821 04bd f9e5 24be
00000350: f11f 7cbe 0d15 b33d 7663 883e ddad e83d
00000360: 7fcc 3a3e 1f30 e2be 836c 67be 029c 9cbf
00000370: ebcb 1ebe c3ec 30be 49a1 b93e 16fd 25bf
00000380: fafb 83bf bab9 653d 1d13 903d ce7a 6f3e
00000390: 8668 1f3d 952a 623d 6e7b 70bc 47bc 003e
000003a0: 30f4 6cbe f63e 963f 0063 3d3f 10d6 86bd
000003b0: 9679 383f 848a 053d a6f3 a13d 5965 ca3c
000003c0: fcb1 0a3e a96f 00bf 74be a7bd 3091 48bd
000003d0: dcaf 0f3d cba8 6dbd 3223 fb3b 7f45 6c3b
000003e0: 9a73 a13c fff5 9fbe 407b ad3d 9b88 bd3d
000003f0: 07a0 a2bf 0d02 89be 3cca 41bf 4e57 d03d

model.sole_model.model.func.layer0_convnet.conv.linear_1.output_mask f4 [32]
1.0 1.0 1.0 1.0 1.0 1.0 1.0 1.0
1.0 1.0 1.0 1.0 1.0 1.0 1.0 1.0
1.0 1.0 1.0 1.0 1.0 1.0 1.0 1.0
1.0 1.0 1.0 1.0 1.0 1.0 1.0 1.0
00000000: 0000 803f 0000 803f 0000 803f 0000 803f
00000010: 0000 803f 0000 803f 0000 803f 0000 803f
00000020: 0000 803f 0000 803f 0000 803f 0000 803f
00000030: 0000 803f 0000 803f 0000 803f 0000 803f
00000040: 0000 803f 0000 803f 0000 803f 0000 803f
00000050: 0000 803f 0000 803f 0000 803f 0000 803f
00000060: 0000 803f 0000 803f 0000 803f 0000 803f
00000070: 0000 803f 0000 803f 0000 803f 0000 803f

model.sole_model.model.func.layer0_convnet.conv.edge_mlp.mlp.0.weight f4 [8, 64]
-3.4095893 0.046345197 0.099904746 -0.1997473 0.4471899 -0.20273231 0.7424873 -4.422302
-0.12139497 -0.21717109 -1.6830456 0.002965885 0.15094332 0.266898 4.2295637 0.24541968
-0.103330396 -3.9571927 0.0024673007 0.45721743 -1.3370962 0.2766145 -0.013804712 -0.4045787
-3.8112502 -1.2746218 -1.8075546 0.37625635 -1.7147675 -0.42748722 -0.28928295 -5.4694066
-4.9360833 0.034430888 0.25149244 0.0056597283 0.3373145 -1.4622637 0.32612804 0.073001824
0.14317569 -4.393551 0.14760244 -5.7005115 3.4601765 -0.043817326 -0.08186481 -0.059635654
-0.1950623 -5.7154884 -1.6556153 -4.8462434 2.8864079 -0.72484535 0.06307923 -1.6388252
0.16363849 -0.05252809 -0.02602215 -0.4095693 -0.847512 -0.3087347 -0.027520156 -6.385158
0.59403944 0.010904323 0.110895924 -0.05988491 0.16917597 -0.09220715 0.23466523 2.7888885
-0.07560127 -0.08904283 -0.39225605 -0.0024343245 0.038764115 0.114253245 -5.3437986 -6.9161773
0.014710757 2.9008503 0.04454002 0.23957805 -0.29380575 0.15214662 0.027451353 -0.2018709
3.507405 -0.27722356 0.53913516 0.13494246 -0.41589507 -0.28186208 -0.1652766 4.7082767
5.3998322 0.113896504 0.04701948 -0.07582336 0.19584435 -0.27765882 0.19613203 0.021256212
-0.006203823 6.0017114 0.25823793 1.2078556 -2.1600053 0.057452638 -0.04491691 0.0477442
-0.015373295 -0.8551411 -0.3619467 0.031233473 2.5579567 -0.24465092 0.0395403 -0.35258484
0.023722885 -0.05457426 -0.016666291 -0.090296976 4.965261 -0.047203533 0.16103607 0.75438917
-4.2468657 0.18290196 0.24332435 -0.36107856 0.77632153 -0.36595333 1.3216664 -2.7414386
-0.14629512 -0.29065645 -3.5241694 -0.089016676 0.33977863 0.55282295 5.837358 -2.9858074
-0.03347797 -5.486812 -0.065518506 0.9172431 -2.5691018 0.4809662 0.008343182 -0.7380551
-5.0008755 -2.5459158 -3.5048406 0.42332 -3.618628 -0.77969813 -0.44477215 -2.8305392
-4.998455 0.124483466 0.50222355 -0.055831414 0.6795125 -2.8614411 0.59362984 0.22182009
0.18105653 -3.5717008 0.38932455 0.004436076 5.828889 -0.10647998 -0.012053623 -0.04207097
-0.2556417 5.1993794 -3.3779917 -3.2936845 -1.4805721 -1.2136434 0.18909949 -3.3453426
0.40471256 0.052253664 -0.1798929 -0.6966212 -5.0000234 -0.54225534 -0.044158753 3.6567485
0.055933807 0.14763328 -0.024487989 -0.23618491 0.2482047 -0.10664671 0.5737351 0.80116904
0.010153452 -0.059976645 -1.4286402 -0.10432536 0.21319084 0.29818442 -2.7006094 3.546714
-0.08722415 0.35466403 -0.10200586 0.26404792 -1.0644567 0.19635506 -0.058543246 -0.31758615
0.646414 -1.0081569 -0.97484845 0.27712733 -1.4920695 -0.28252622 -0.08722284 1.8215418
2.5767782 -0.076155506 0.32115784 0.099976666 0.191935 -1.1320183 0.24574438 0.15020283
0.15998092 3.402838 -0.04584522 1.3571949 0.3902807 -0.14592448 0.051145565 -0.08779908
-0.19744015 3.302017 -1.3330868 -1.5847843 -1.662962 -0.49489155 0.16045037 -1.3279957
0.26008463 0.08019348 -0.17189291 -0.38297018 -1.0638938 -0.23743236 -0.22763643 -4.362428
00000000: b636 5ac0 76d4 3d3d dc9a cc3d 8e8a 4cbe
00000010: 13f6 e43e 0f99 4fbe a613 3e3f 7f83 8dc0
00000020: ed9d f8bd 1962 5ebe 0a6e d7bf 4b5f 423b
00000030: e390 1a3e dba6 883e 9658 8740 4c4f 7b3e
00000040: e39e d3bd a542 7dc0 70b2 213b 6718 ea3e
00000050: f825 abbf 6aa0 8d3e 292d 62bc f024 cfbe
00000060: 86eb 73c0 cf26 a3bf f35d e7bf aca4 c03e
00000070: 807d dbbf 9bdf dabe e51c 94be 6105 afc0
00000080: 65f4 9dc0 6707 0d3d 9ec3 803e 3e75 b93b
00000090: 7cb4 ac3e 752b bbbf 41fa a63e fb81 953d
000000a0: a69c 123e f897 8cc0 1825 173e 976a b6c0
000000b0: 8873 5d40 cc79 33bd bda8 a7bd 8444 74bd
000000c0: 69be 47be 48e5 b6c0 34eb d3bf 6d14 9bc0
000000d0: e8ba 3840 778f 39bf af2f 813d 06c5 d1bf
000000e0: d990 273e b227 57bd 672c d5bc 11b3 d1be
000000f0: 8cf6 58bf 7912 9ebe f371 e1bc 3753 ccc0
00000100: f812 183f 0ca8 323c 671d e33d e149 75bd
00000110: 773c 2d3e 1ad7 bcbd 154c 703e 267d 3240
00000120: d7d4 9abd 165c b6bd c9d5 c8be 3089 1fbb
00000130: 1fc7 1e3d 9bfd e93d 6600 abc0 5351 ddc0
00000140: 6305 713c 88a7 3940 996f 363d f353 753e
00000150: b56d 96be 53cc 1b3e a9e1 e03c 3fb7 4ebe
00000160: 5379 6040 3ff0 8dbe c304 0a3f 5b2e 0a3e
00000170: 33f0 d4be 3a50 90be 453e 29be 34aa 9640
00000180: 6dcb ac40 9242 e93d 8097 403d 4749 9bbd
00000190: 6c8b 483e 4c29 8ebe d6d6 483e 8221 ae3c
000001a0: 7049 cbbb 050e c040 c337 843e 039b 9a3f
000001b0: 873d 0ac0 7553 6b3d cbfa 37bd 6c8f 433d
000001c0: 46e0 7bbc 87ea 5abf 1451 b9be 57dd ff3c
000001d0: 90b5 2340 c585 7abe 02f5 213d 0086 b4be
000001e0: 7f56 c23c 4289 5fbd bf87 88bc 9fed b8bd
000001f0: 6be3 9e40 7e58 41bd a4e6 243e a61f 413f
00000200: 53e6 87c0 a74a 3b3e 052a 793e 4adf b8be
00000210: 02bd 463f 3c5e bbbe 5d2c a93f bb73 2fc0
00000220: 63ce 15be ecd0 94be fe8b 61c0 604e b6bd
00000230: 77f7 ad3e ce85 0d3f a3cb ba40 7817 3fc0
00000240: 3220 09bd f793 afc0 912e 86bd 72d0 6a3f
00000250: 2a6c 24c0 3441 f63e d7b1 083c 2ef1 3cbf
00000260: 2c07 a0c0 49f0 22c0 4f4f 60c0 66bd d83e
00000270: 9a97 67c0 4c9a 47bf 2db9 e3be 8e27 35c0
00000280: 58f3 9fc0 30f1 fe3d b991 003f 7baf 64bd
00000290: 88f4 2d3f da21 37c0 20f8 173f ce24 633e
000002a0: e266 393e bf96 64c0 8c55 c73e 815c 913b
000002b0: 4286 ba40 2d12 dabd 8f7c 45bc 9c52 2cbd
000002c0: 78e3 82be 5161 a640 0431 58c0 bacb 52c0
000002d0: 6383 bdbf ab58 9bbf 4ca3 413e 181a 56c0
000002e0: 7c36 cf3e f007 563d d835 38be c455 32bf
000002f0: 3100 a0c0 3fd1 0abf cfdf 34bd 2b08 6a40
00000300: d91a 653d 2e2d 173e 099b c8bc 75da 71be
00000310: 5f29 7e3e 9769 dabd 4ee0 123f 6a19 4d3f
00000320: aa5a 263c 12aa 75bd afdd b6bf 89a8 d5bd
00000330: b34e 5a3e a1ab 983e c9d6 2cc0 5dfd 6240
00000340: 93a2 b2bd 8696 b53e 73e8 d0bd 4a31 873e
00000350: 1e40 88bf 4d11 493e 0bcb 6fbd a79a a2be
00000360: 637b 253f 490b 81bf ab8f 79bf a2e3 8d3e
00000370: 22fc bebf 47a7 90be e3a1 b2bd 4828 e93f
00000380: efe9 2440 6bf7 9bbd cd6e a43e 91c0 cc3d
00000390: 9c8a 443e fae5 90bf 6aa4 7b3e c5ce 193e
000003a0: 0ad2 233e 19c8 5940 33c8 3bbd 90b8 ad3f
000003b0: dfd2 c73e 3a6d 15be 037e 513d 01d0 b3bd
000003c0: c02d 4abe 3f54 5340 97a2 aabf 36da cabf
000003d0: f0db d4bf 6d62 fdbe 1a4d 243e c3fb a9bf
000003e0: d029 853e 7b3c a43d b204 30be ab14 c4be
000003f0: ac2d 88bf 7821 73be 8619 69be 0399 8bc0

model.sole_model.model.func.layer0_convnet.conv.edge_mlp.mlp.2.weight f4 [64, 64]
-0.3200391 -0.07594901 0.6920616 0.6645561 0.160631 0.66890365 0.4259008 -0.27255878
0.585045 2.6828127 -0.7727476 0.2173373 0.42196658 -2.0569482 0.22920738 0.34184802
0.6329169 -3.903335 0.7751182 1.9603316 1.2427132 -1.8122532 0.009858633 5.0080166
-0.23851271 0.16426638 -0.13568053 0.25370377 0.65140104 0.5576841 -0.36103398 0.29759005
0.34435034 -0.45035484 0.6839743 0.5944845 0.6694564 -2.6915972 -0.529178 -1.3236929
-0.5466786 0.4514856 -0.05080851 0.046590734 0.21601403 -0.23812456 0.38121343 -0.3998091
0.8997927 0.7035258 1.5285374 0.9335611 -0.8696209 -0.25131842 0.1657523 0.076640464
-0.16651478 0.53667164 0.21471858 -0.24839021 0.39806187 0.084176004 -0.30561063 -0.12632999
0.034273926 -0.056421287 -0.23458666 0.21823317 -0.20047507 -0.051049557 0.17283708 0.1491766
0.09246402 -0.10593934 0.17023046 0.23594676 -0.013207333 0.040600453 -0.05232437 -0.07996709
-0.06869951 -0.010793648 -0.30857077 0.22479162 -0.09851657 -0.12163812 0.121513955 0.054933388
0.23105742 -0.3387201 -0.049784362 0.3330967 0.11183466 0.18657544 0.22844729 0.18534896
-0.11158493 0.15203136 -0.17110556 -0.13485338 -0.21571018 -0.05289294 0.35647544 0.35133094
0.007977029 0.068221904 0.09892413 -0.103864454 0.004025027 -0.33102965 0.358291 -0.04282432
0.08298836 0.10162542 0.03432938 0.151501 -0.02435274 -0.16883278 0.042611424 -0.044077266
-0.31590536 0.03653597 -0.02877928 -0.17977554 0.086307704 -0.062438864 0.040874127 -0.07848709
-0.004640854 0.2628744 -0.0059087332 -0.13825843 0.124696165 -0.03286232 0.036988895 -0.027175708
-0.18868189 0.038793072 0.17736375 -0.32644096 0.21761632 0.113584325 0.09274991 -0.14891058
-0.08022767 0.06012521 0.09913968 0.17684698 -0.33447143 0.1134319 -0.0884544 -0.013562165
-0.023283362 0.2349248 0.12907496 0.38329223 0.25065553 0.14733638 -0.12753975 -0.116329476
0.43966255 -0.06277585 -0.2471391 -0.119406626 0.17954981 0.0032217512 -0.20750535 0.061632697
-0.010051279 -0.38091454 -0.33742315 0.06149524 -0.2333648 -0.012271329 0.18604036 0.12000043
0.25398996 0.111940585 0.21497 -0.1387546 -0.12035906 0.047088534 0.26054493 -0.2939792
-0.018589174 -0.035445675 0.17900397 0.07144178 0.20469838 -0.031802088 0.06628858 0.1093
-0.23355836 0.13869284 -0.014214472 0.027015809 0.12974745 0.02670827 -0.025408925 0.14750664
-0.028999098 0.08609226 0.12260602 -0.32281485 -0.21302642 0.13070266 0.12583652 0.07441331
-0.013563495 0.117501006 0.2769036 0.2049229 -0.36060664 0.029427903 0.13117875 0.0667108
0.13213204 0.31727383 -0.078503065 0.3768129 -0.03365333 -0.014315216 0.05198718 0.10508051
0.092283696 -0.08452548 0.1475734 -0.36344802 0.11810724 0.0032580283 0.13040295 0.08387212
0.019345047 0.059084732 -0.20270479 -0.3804193 -0.22737265 -0.015730744 0.3139223 0.28870076
0.2642005 -0.09463434 0.123892836 0.2601031 -0.053165518 -0.037663125 -0.12451142 0.124012895
-0.060895238 0.013136641 0.15491994 -0.26597187 -0.016696975 0.16350909 0.18386 0.04799252
00000000: 2adc a3be 288b 9bbd f32a 313f 5920 2a3f
00000010: 747c 243e 453d 2b3f ab0f da3e d38c 8bbe
00000020: 82c5 153f 34b3 2b40 c9d2 45bf ab8d 5e3e
00000030: 010c d83e 0aa5 03c0 57b5 6a3e b406 af3e
00000040: d806 223f 3ed0 79c0 256e 463f 25ec fa3f
00000050: 3a11 9f3f eaf7 e7bf 1b86 213c ac41 a040
00000060: ad3c 74be 7235 283e d6ef 0abe 76e5 813e
00000070: 38c2 263f 63c4 0e3f 72d9 b8be b95d 983e
00000080: b04e b03e e994 e6be f118 2f3f 2330 183f
00000090: 7f61 2b3f 2143 2cc0 3678 07bf c56e a9bf
000000a0: 21f3 0bbf 1f29 e73e 961c 50bd edd5 3e3d
000000b0: c832 5d3e edd6 73be 682e c33e c7b3 ccbe
000000c0: d058 663f 441a 343f 1da7 c33f dcfd 6e3f
000000d0: 7a9f 5ebf cfac 80be f9ba 293e adf5 9c3d
000000e0: da82 2abe 5063 093f 30df 5b3e 015a 7ebe
000000f0: c4ce cb3e 7864 ac3d ff78 9cbe a65c 01be
00000100: d162 0c3d 021a 67bd 7c37 70be 8478 5f3e
00000110: 5649 4dbe 5719 51bd 34fc 303e c0c1 183e
00000120: c75d bd3d baf6 d8bd e550 2e3e 079c 713e
00000130: 9263 58bc a94c 263d 1452 56bd c9c5 a3bd
00000140: 54b2 8cbd d7d7 30bc fdfc 9dbe c62f 663e
00000150: 0ec3 c9bd 681d f9bd 4fdc f83d d501 613d
00000160: 519a 6c3e b96c adbe b0ea 4bbd a78b aa3e
00000170: 9209 e53d a20d 3f3e 16ee 693e 1ecc 3d3e
00000180: a486 e4bd 1cae 1b3e 4c36 2fbe 0117 0abe
00000190: 21e3 5cbe 44a6 58bd f383 b63e a6e1 b33e
000001a0: 16b2 023c edb7 8b3d bc98 ca3d e3b6 d4bd
000001b0: 60e4 833b b87c a9be eb71 b73e 8e68 2fbd
000001c0: cdf5 a93d fd20 d03d f79c 0c3d 1423 1b3e
000001d0: 667f c7bc 80e2 2cbe 5189 2e3d 5d8a 34bd
000001e0: 59be a1be bea6 153d 86c2 ebbc 1417 38be
000001f0: 18c2 b03d e5bf 7fbd a16b 273d d7bd a0bd
00000200: 4e12 98bb 7997 863e 0c9e c1bb 9e93 0dbe
00000210: b460 ff3d a49a 06bd ab81 173d 979f debc
00000220: d335 41be 7ce5 1e3d d89e 353e 4523 a7be
00000230: d0d6 5e3e e69e e83d aaf3 bd3d 047c 18be
00000240: 684e a4bd da45 763d bf09 cb3d 6017 353e
00000250: d73f abbe fc4e e83d 9527 b5bd d833 5ebc
00000260: c0bc bebc 2090 703e 3a2c 043e e13e c43e
00000270: ec55 803e 59df 163e c899 02be 263e eebd
00000280: 731b e13e a090 80bd 0812 7dbe 768b f4bd
00000290: e8db 373e 0424 533b 487c 54be 9172 7c3d
000002a0: 1fae 24bc 3b07 c3be bac2 acbe 6fe2 7b3d
000002b0: 2ff7 6ebe af0d 49bc 5d81 3e3e c9c2 f53d
000002c0: f90a 823e 1b41 e53d 1821 5c3e b015 0ebe
000002d0: d07e f6bd e8df 403d 2566 853e 7184 96be
000002e0: 5348 98bc 7c2f 11bd d14c 373e 1150 923d
000002f0: 749c 513e e842 02bd 4fc2 873d aed8 df3d
00000300: ec29 6fbe 7f05 0e3e d1e3 68bc 4250 dd3c
00000310: 84dc 043e 4dcb da3c 6126 d0bc fb0b 173e
00000320: 848f edbc 2451 b03d dd18 fb3d fd47 a5be
00000330: 9923 5abe ebd6 053e 4adb 003e 0166 983d
00000340: 6c39 5ebc 5ea4 f03d 4fc6 8d3e 4fd7 513e
00000350: 6fa1 b8be c912 f13c b953 063e ac9f 883d
00000360: 9f4d 073e b771 a23e 37c6 a0bd 9fed c03e
00000370: 13d8 09bd 5e8a 6abc 82f0 543d 7334 d73d
00000380: 3cff bc3d b21b adbd 7b1d 173e dc15 babe
00000390: 35e2 f13d a584 553b 5a88 053e 25c5 ab3d
000003a0: 8179 9e3c d502 723d d891 4fbe 52c6 c2be
000003b0: 60d4 68be c3dd 80bc 6cba a03e 96d0 933e
000003c0: 4a45 873e a6cf c1bd 87bb fd3d 3c2c 853e
000003d0: 16c4 59bd a644 1abd d8ff febd 79fa fd3d
000003e0: 496d 79bd 113b 573c 55a3 1e3e 772d 88be
000003f0: 18c8 88bc ed6e 273e cc45 3c3e ce93 443d

model.sole_model.model.func.layer0_convnet.conv.edge_mlp.mlp.4.weight f4 [64, 64]
0.0936271 -0.034878395 0.4385171 0.11432224 0.082458876 0.17890918 -0.027173093 -0.085308716
-0.02671106 -0.21800233 -0.38993078 -0.15481018 0.37086058 0.020896936 -1.4407421 -0.01166548
-0.045071136 0.35066018 0.31256863 0.06375657 -0.042434067 0.32074904 0.023032153 -0.11900853
-0.08852837 -0.42263007 -0.08391264 1.7737476 -0.1292681 0.021868743 0.64290684 -0.8793012
0.7668262 0.08436074 2.3120382 -0.09007844 -0.016960287 0.14495973 -0.116703086 0.24686413
-0.3016986 0.28401712 0.18638927 0.2337133 -1.6414536 -0.2071998 0.659719 -0.029705282
-0.10737396 -1.3002449 -0.019803286 0.11767165 -0.083798856 0.17021474 -0.04143571 0.005697783
0.1677515 0.9153184 0.19676387 -0.7582669 -0.014784055 -0.099028885 -1.6912203 0.5818423
-1.3849221 0.018481148 -0.46540016 0.019969037 -0.03874281 -0.04549518 0.063597515 0.002116731
-0.047468256 0.36858228 1.1387122 0.008297557 -1.2720848 -0.08950507 1.0948715 -0.044562098
-0.066092044 0.47800028 -0.20238994 -0.13832419 -0.098247334 -0.036269642 -0.02486729 0.089556485
0.18027726 1.0440714 -0.041179765 -0.7720993 0.16335429 -0.019571753 -0.87433755 1.4755552
-1.4141394 -0.062193893 -1.5367962 0.15279804 0.06296299 -0.11332704 0.078386925 -0.66845244
0.2794118 -0.25392365 0.1242657 -0.04534023 -1.3791964 0.2148478 0.87002045 -0.040544443
0.16516085 -1.2944853 -0.06389111 -0.37941083 -0.08681334 0.0346569 0.022196194 0.07059761
-0.05813133 0.8535504 -0.09102738 -0.042451624 -0.93480283 0.028137816 -0.7633151 -0.01896919
-0.09744953 -0.019828096 0.53003216 -0.2087294 -0.07376563 -0.019331537 -0.02120268 0.09758768
0.071256936 -0.31132576 -0.11280418 0.09685505 -0.8078404 0.0815678 0.057547573 -0.07513312
0.08152286 0.63658273 -0.14825918 -0.008061826 -0.010976727 -0.42050132 -0.015143812 -0.0484526
0.056913447 0.57784 0.20401959 0.034769867 0.69487387 -0.111522555 0.625068 2.002278
1.1516386 -0.09639848 -2.694632 0.079287484 0.012280517 -0.076445736 -0.0006988424 -0.3042686
0.31673822 0.013405257 -0.16258132 -0.16654849 -2.5124984 0.09440158 0.27178144 0.19982822
0.106049515 -1.2540188 0.24567519 -0.08842801 0.09598742 -0.22159162 0.022431515 -0.055142224
-0.07223645 -0.35917002 -0.15204342 0.76115084 -0.75495017 0.21919467 0.29366934 2.2785559
-0.65114284 0.100434065 -0.5815937 -0.25715977 0.14231539 -0.017395405 0.0056124507 0.036382798
-0.0051975274 -0.91235805 2.6814256 -0.09702929 -0.8654173 -0.08160503 -0.78067577 0.32134533
0.0475596 -0.96658534 0.2928192 -0.06390028 -0.06867416 0.2058212 -0.11696107 -0.1751676
0.04345595 -1.103403 0.15988131 -0.64149994 -1.1812334 0.010713803 0.23724702 -0.63556755
0.95323324 0.31698513 0.69485813 0.91865176 -0.0038433918 0.19931093 -0.20883735 0.48478445
-0.6343529 3.0243242 2.1599197 -0.021150915 -1.6328356 0.028887894 2.0130403 0.5025671
-0.62801075 -4.0504713 -0.016330285 0.30433208 -0.032460835 0.04538921 -0.075672135 -0.24060118
0.43233302 2.0910263 0.051284093 -1.8754486 -0.6155645 -0.041519526 0.5873912 -0.6282724
00000000: 91bf bf3d a6dc 0ebd 5085 e03e c721 ea3d
00000010: 33e0 a83d f833 373e 1b9a debc 56b6 aebd
00000020: 27d1 dabc 013c 5fbe 02a5 c7be 8f86 1ebe
00000030: 70e1 bd3e 0d30 ab3c 3d6a b8bf 9220 3fbc
00000040: 839c 38bd bb89 b33e ff08 a03e ce92 823d
00000050: 58cf 2dbd 3839 a43e edad bc3c bfba f3bd
00000060: 5d4e b5bd f862 d8be 64da abbd 290a e33f
00000070: db5e 04be 1426 b33c 8b95 243f e219 61bf
00000080: b94e 443f 53c5 ac3d 6ff8 1340 0c7b b8bd
00000090: 4df0 8abc 5370 143e 0702 efbd f3c9 7c3e
000000a0: 3d78 9abe b16a 913e d4dc 3e3e 8a52 6f3e
000000b0: 271b d2bf 2f2c 54be 58e3 283f 7e58 f3bc
000000c0: e1e6 dbbd 6d6e a6bf 803a a2bc d6fd f03d
000000d0: bc9e abbd c64c 2e3e 7eb8 29bd 78b4 ba3b
000000e0: 0dc7 2b3e 4f52 6a3f 787c 493e c81d 42bf
000000f0: d238 72bc a8cf cabd e879 d8bf 9ef3 143f
00000100: 2145 b1bf c765 973c ee48 eebe 1b96 a33c
00000110: c8b0 1ebd 2759 3abd 6a3f 823d dab8 0a3b
00000120: 136e 42bd d1b6 bc3e 52c1 913f 7af2 073c
00000130: add3 a2bf 6f4e b7bd c024 8c3f bf86 36bd
00000140: 445b 87bd 74bc f43e 4f3f 4fbe dba4 0dbe
00000150: e635 c9bd 7a8f 14bd 7db6 cbbc 6469 b73d
00000160: 9a9a 383e 22a4 853f 1dac 28bd 4da8 45bf
00000170: 5946 273e f154 a0bc 96d4 5fbf fede bc3f
00000180: 8502 b5bf 06bf 7ebd bdb5 c4bf 1777 1c3e
00000190: bdf2 803d 0218 e8bd 5389 a03d b31f 2bbf
000001a0: 100f 8f3e 4802 82be 047f fe3d adb6 39bd
000001b0: 8289 b0bf 1001 5c3e a9b9 5e3f ee11 26bd
000001c0: ed1f 293e b2b1 a5bf 58d9 82bd 2342 c2be
000001d0: 31cb b1bd 65f4 0d3d cbd4 b53c 7b95 903d
000001e0: 1e1b 6ebd 4782 5a3f 906c babd c1e1 2dbd
000001f0: 3d4f 6fbf 4781 e63c 9e68 43bf 4665 9bbc
00000200: 9f93 c7bd 886e a2bc 30b0 073f 29bd 55be
00000210: 6f12 97bd 2c5d 9ebc 3eb1 adbc 0ddc c73d
00000220: 28ef 913d 1766 9fbe e105 e7bd f15b c63d
00000230: a1ce 4ebf 050d a73d 01b7 6b3d 65df 99bd
00000240: 75f5 a63d 16f7 223f 41d1 17be c015 04bc
00000250: bbd7 33bc f34b d7be c01d 78bc 3c76 46bd
00000260: 131e 693d 52ed 133f 83ea 503e d96a 0e3d
00000270: 41e3 313f f065 e4bd 7504 203f 5325 0040
00000280: e568 933f 916c c5bd da74 2cc0 7a61 a23d
00000290: 3934 493c 958f 9cbd 8532 37ba 18c9 9bbe
000002a0: 832b a23e b9a1 5b3c b87b 26be b08b 2abe
000002b0: c6cc 20c0 9e55 c13d f026 8b3e c59f 4c3e
000002c0: 7d30 d93d b083 a0bf 4792 7b3e bf19 b5bd
000002d0: 0d95 c43d eae8 62be 4cc2 b73c d0dc 61bd
000002e0: b4f0 93bd 22e5 b7be 45b1 1bbe c8da 423f
000002f0: 6a44 41bf 9174 603e d45b 963e dcd3 1140
00000300: 4cb1 26bf 60b0 cd3d 53e3 14bf 72aa 83be
00000310: 20bb 113e cf80 8ebc a6e8 b73b 2106 153d
00000320: 0550 aabb 4c90 69bf 7a9c 2b40 4bb7 c6bd
00000330: fd8b 5dbf 8a20 a7bd 5eda 47bf 6087 a43e
00000340: dbcd 423d 2372 77bf 66ec 953e 26de 82bd
00000350: 0aa5 8cbd cbc2 523e 4989 efbd 235f 33be
00000360: defe 313d 4f3c 8dbf edb7 233e 5739 24bf
00000370: a832 97bf f288 2f3c e2f0 723e 8eb4 22bf
00000380: 1807 743f e04b a23e 39e2 313f c32c 6b3f
00000390: 6ae1 7bbb 2a18 4c3e 75d9 55be ab35 f83e
000003a0: f464 22bf 878e 4140 203c 0a40 af44 adbc
000003b0: c200 d1bf 4ea6 ec3c a7d5 0040 3da8 003f
000003c0: 50c5 20bf 769d 81c0 17c7 85bc 6ad1 9b3e
000003d0: a7f5 04bd 09ea 393d fef9 9abd 2860 76be
000003e0: c15a dd3e 60d3 0540 450f 523d b30e f0bf
000003f0: a395 1dbf 6110 2abd 455f 163f 76d6 20bf

model.sole_model.model.func.layer0_convnet.conv.tp.output_mask f4 [128]
1.0 1.0 1.0 1.0 1.0 1.0 1.0 1.0
1.0 1.0 1.0 1.0 1.0 1.0 1.0 1.0
1.0 1.0 1.0 1.0 1.0 1.0 1.0 1.0
1.0 1.0 1.0 1.0 1.0 1.0 1.0 1.0
1.0 1.0 1.0 1.0 1.0 1.0 1.0 1.0
1.0 1.0 1.0 1.0 1.0 1.0 1.0 1.0
1.0 1.0 1.0 1.0 1.0 1.0 1.0 1.0
1.0 1.0 1.0 1.0 1.0 1.0 1.0 1.0
1.0 1.0 1.0 1.0 1.0 1.0 1.0 1.0
1.0 1.0 1.0 1.0 1.0 1.0 1.0 1.0
1.0 1.0 1.0 1.0 1.0 1.0 1.0 1.0
1.0 1.0 1.0 1.0 1.0 1.0 1.0 1.0
1.0 1.0 1.0 1.0 1.0 1.0 1.0 1.0
1.0 1.0 1.0 1.0 1.0 1.0 1.0 1.0
1.0 1.0 1.0 1.0 1.0 1.0 1.0 1.0
1.0 1.0 1.0 1.0 1.0 1.0 1.0 1.0
00000000: 0000 803f 0000 803f 0000 803f 0000 803f
00000010: 0000 803f 0000 803f 0000 803f 0000 803f
00000020: 0000 803f 0000 803f 0000 803f 0000 803f
00000030: 0000 803f 0000 803f 0000 803f 0000 803f
00000040: 0000 803f 0000 803f 0000 803f 0000 803f
00000050: 0000 803f 0000 803f 0000 803f 0000 803f
00000060: 0000 803f 0000 803f 0000 803f 0000 803f
00000070: 0000 803f 0000 803f 0000 803f 0000 803f
00000080: 0000 803f 0000 803f 0000 803f 0000 803f
00000090: 0000 803f 0000 803f 0000 803f 0000 803f
000000a0: 0000 803f 0000 803f 0000 803f 0000 803f
000000b0: 0000 803f 0000 803f 0000 803f 0000 803f
000000c0: 0000 803f 0000 803f 0000 803f 0000 803f
000000d0: 0000 803f 0000 803f 0000 803f 0000 803f
000000e0: 0000 803f 0000 803f 0000 803f 0000 803f
000000f0: 0000 803f 0000 803f 0000 803f 0000 803f
00000100: 0000 803f 0000 803f 0000 803f 0000 803f
00000110: 0000 803f 0000 803f 0000 803f 0000 803f
00000120: 0000 803f 0000 803f 0000 803f 0000 803f
00000130: 0000 803f 0000 803f 0000 803f 0000 803f
00000140: 0000 803f 0000 803f 0000 803f 0000 803f
00000150: 0000 803f 0000 803f 0000 803f 0000 803f
00000160: 0000 803f 0000 803f 0000 803f 0000 803f
00000170: 0000 803f 0000 803f 0000 803f 0000 803f
00000180: 0000 803f 0000 803f 0000 803f 0000 803f
00000190: 0000 803f 0000 803f 0000 803f 0000 803f
000001a0: 0000 803f 0000 803f 0000 803f 0000 803f
000001b0: 0000 803f 0000 803f 0000 803f 0000 803f
000001c0: 0000 803f 0000 803f 0000 803f 0000 803f
000001d0: 0000 803f 0000 803f 0000 803f 0000 803f
000001e0: 0000 803f 0000 803f 0000 803f 0000 803f
000001f0: 0000 803f 0000 803f 0000 803f 0000 803f

model.sole_model.model.func.layer0_convnet.conv.linear_2.weight f4 [3072]
-0.06635701 -1.5646055 -0.13147736 -0.008164569 0.14645165 0.04374972 0.5703613 0.09371588
-0.35871106 -0.28671402 0.07033154 -0.36126852 0.1280278 0.39616007 -0.31360602 0.40481848
0.281268 0.18435517 0.16502541 -0.12364015 0.15292235 -0.30747068 -0.41995928 0.20141727
-0.057701956 -0.81377286 0.48849794 0.5356766 0.20784456 -0.31723395 0.7061655 0.6889098
0.4387385 -0.4256632 0.14270546 -0.028283892 0.5951007 0.14744273 -0.3880634 -0.5743639
-0.13492729 -1.3877406 0.18578263 0.363618 -0.6293817 0.43223244 -0.2781482 -2.6204352
-0.07984835 -1.177337 1.303553 0.15049426 -0.3222508 0.031699248 0.79299366 -1.3580382
0.051932428 0.9154374 -1.3902845 0.73063624 0.6112562 -0.60003436 -0.8021539 0.33524296
-0.77624613 0.5733417 -1.5071534 2.1082642 -1.085493 4.3015704 1.6487275 -1.0758252
-0.2587767 1.0864549 -1.0752659 -0.55217975 -8.323052 -1.7638885 0.54242486 -0.043600675
0.37596473 -0.28218713 -0.045667723 5.6527286 -1.7430663 0.10647155 0.6230572 -0.57892025
1.9460989 -0.4590734 -0.9177095 -2.93144 2.1932554 -2.5101237 0.026462289 -0.4276709
0.783353 -8.338539 12.729668 -0.8914343 -12.960092 1.6928699 -14.320349 -0.25547737
-1.8501763 0.36433965 20.130634 -3.6007402 3.3934968 -5.369192 -7.1493087 -0.75119907
26.969435 -4.897375 -7.809512 7.75188 2.218225 -6.1056895 -8.3244705 -13.232089
-6.3875794 -8.078041 -1.1816968 -0.22759117 -2.0695963 -10.921468 26.888409 0.7551229
-0.10888066 0.5120723 0.13953775 -0.07837236 -0.09165019 -0.1464389 0.03251211 -0.25914714
0.1874442 0.20882969 0.14579016 -0.20243467 0.15404207 -0.011100041 -0.27874243 0.2161245
0.055958476 -0.046717 0.021849122 0.19399764 0.097329214 -0.113905095 -0.3317574 -0.19702215
-0.13044739 -0.18239644 -0.052307006 -0.117216654 -0.11231087 0.17780186 -0.0022707805 -0.07826685
0.46197164 0.039321005 0.11517527 -0.3446977 -0.2716523 -0.054035652 -0.13358977 0.1053758
-0.066725075 0.5996999 -0.47073644 -0.3245254 0.8827825 -0.23046245 0.35933262 0.878602
0.13731216 -0.62944436 0.6616707 0.27569494 0.09758051 -0.029274708 0.012248295 0.4881383
-0.5402078 -0.3309669 0.5730459 -0.028887862 0.39990437 0.59446853 0.38184878 -0.052356217
0.15930407 0.8716189 1.6964191 0.29497397 -1.9066516 1.3719087 -1.1316211 1.5237712
-0.2760981 -1.1763989 0.4428383 2.1810837 2.610402 -1.1971649 -0.35608792 -0.08890732
-0.1281467 -3.6938329 0.005346421 0.94795007 0.27676544 -0.0636858 -0.4823212 0.10085475
0.15288898 -1.2199968 0.6432038 2.5622702 -0.46739998 -1.6460689 -0.07979951 -1.526124
2.8018322 1.1409423 0.52168286 0.977067 0.6299899 -2.8914688 -0.13535134 0.7766441
4.780436 -2.7091494 4.7153955 6.5343328 -6.5151772 1.7000697 0.7530139 -0.12583333
5.6824374 2.1235344 0.77309704 -0.85389245 -5.6914105 3.4164538 -7.9433885 4.307183
7.525731 -2.5281672 9.772463 -3.137202 -10.799165 0.7522822 0.1620343 -1.4890604
00000000: 2fe6 87bd fe44 c8bf 00a2 06be afc4 05bc
00000010: 6cf7 153e e832 333d 3303 123f 1cee bf3d
00000020: faa8 b7be 2ecc 92be fc09 903d 30f8 b8be
00000030: b819 033e 7ed5 ca3e f890 a0be 5e44 cf3e
00000040: 5c02 903e 9ac7 3c3e 6cfc 283e 0c37 fdbd
00000050: ad97 1c3e cc6c 9dbe e704 d7be 5440 4e3e
00000060: e358 6cbd 6b53 50bf 671c fa3e 1a22 093f
00000070: 34d5 543e 7d6c a2be 43c7 343f 655c 303f
00000080: 55a2 e03e 87f0 d9be 6121 123e 9fb3 e7bc
00000090: 8558 183f 3afb 163e 3fb0 c6be 8309 13bf
000000a0: 612a 0abe 7ca1 b1bf cd3d 3e3e 232c ba3e
000000b0: 291f 21bf 924d dd3e 7169 8ebe 36b5 27c0
000000c0: 8887 a3bd fbb2 96bf d3da a63f 2b1b 1a3e
000000d0: 0ffe a4be 12d7 013d a201 4b3f 32d4 adbf
000000e0: 19b7 543d 1b5a 6a3f d8f4 b1bf fa0a 3b3f
000000f0: 497b 1c3f da9b 19bf f559 4dbf f7a4 ab3e
00000100: 11b8 46bf 86c6 123f 67ea c0bf cded 0640
00000110: 6ff1 8abf 77a6 8940 8109 d33f a4b4 89bf
00000120: 617e 84be f410 8b3f 50a2 89bf a75b 0dbf
00000130: 392b 05c1 19c7 e1bf 5bdc 0a3f 9f96 32bd
00000140: 737e c03e d57a 90be 140e 3bbd 27e3 b440
00000150: cc1c dfbf c20d da3d ad80 1f3f 1e34 14bf
00000160: c519 f93f ab0b ebbe 03ef 6abf b79c 3bc0
00000170: 4c5e 0c40 dea5 20c0 71c7 d83c aef7 dabe
00000180: d289 483f a86a 05c1 b8ac 4b41 0a35 64bf
00000190: 895c 4fc1 f6af d83f 2620 65c1 eecd 82be
000001a0: 94d2 ecbf ba8a ba3e 8a0b a141 8772 66c0
000001b0: 0d2f 5940 6cd0 abc0 23c7 e4c0 954e 40bf
000001c0: 67c1 d741 4cb7 9cc0 86e7 f9c0 670f f840
000001d0: 66f7 0d40 cf61 c3c0 0831 05c1 a3b6 53c1
000001e0: 0d67 ccc0 a83f 01c1 d741 97bf a90d 69be
000001f0: 4474 04c0 55be 2ec1 761b d741 bc4f 413f
00000200: d3fc debd 2c17 033f fce2 0e3e b081 a0bd
00000210: 18b3 bbbd 14f4 15be 6b2b 053d efae 84be
00000220: 5ff1 3f3e 73d7 553e 044a 153e 094b 4fbe
00000230: 34bd 1d3e f2dc 35bc 54b7 8ebe be4f 5d3e
00000240: b734 653d 535a 3fbd eefc b23c 51a7 463e
00000250: 8a54 c73d 1347 e9bd 1bdc a9be 2dc0 49be
00000260: 0094 05be 22c6 3abe df3f 56bd 490f f0bd
00000270: 3e03 e6bd b111 363e 60d1 14bb 5f4a a0bd
00000280: 8c87 ec3e 100f 213d 03e1 eb3d 387c b0be
00000290: 0316 8bbe 7d54 5dbd c2cb 08be 44cf d73d
000002a0: 28a7 88bd ef85 193f 5e04 f1be 3128 a6be
000002b0: 09fe 613f 59fe 6bbe 72fa b73e 10ec 603f
000002c0: 8f9b 0c3e 4423 21bf 4063 293f e327 8d3e
000002d0: 4ad8 c73d 83d1 efbc 13ad 483c 43ed f93e
000002e0: 0f4b 0abf 7e74 a9be 23b3 123f 3da6 ecbc
000002f0: 44c0 cc3e 172f 183f af81 c33e 7973 56bd
00000300: 9b20 233e 6b22 5f3f 4324 d93f d406 973e
00000310: 290d f4bf b49a af3f f6d8 90bf ef0a c33f
00000320: bb5c 8dbe 3d94 96bf b4bb e23e e096 0b40
00000330: d410 2740 b33c 99bf 2851 b6be 0a15 b6bd
00000340: e338 03be c267 6cc0 0831 af3b dbac 723f
00000350: 33b4 8d3e b36d 82bd cef2 f6be ef8c ce3d
00000360: ee8e 1c3e db28 9cbf 01a9 243f 3cfc 2340
00000370: 0d4f efbe 63b2 d2bf ed6d a3bd 0858 c3bf
00000380: 3851 3340 660a 923f 028d 053f 1021 7a3f
00000390: 0547 213f d30d 39c0 8b99 0abe 26d2 463f
000003a0: 55f9 9840 b462 2dc0 85e4 9640 4119 d140
000003b0: 557c d0c0 e29b d93f 85c5 403f 74da 00be
000003c0: 87d6 b540 fde7 0740 b0e9 453f b298 5abf
000003d0: 0920 b6c0 2ea7 5a40 3d30 fec0 71d4 8940
000003e0: cad2 f040 7ecd 21c0 025c 1c41 ebc7 48c0
000003f0: 61c9 2cc1 9195 403f 52ec 253e 8899 bebf

model.sole_model.model.func.layer0_convnet.conv.linear_2.output_mask f4 [160]
1.0 1.0 1.0 1.0 1.0 1.0 1.0 1.0
1.0 1.0 1.0 1.0 1.0 1.0 1.0 1.0
1.0 1.0 1.0 1.0 1.0 1.0 1.0 1.0
1.0 1.0 1.0 1.0 1.0 1.0 1.0 1.0
1.0 1.0 1.0 1.0 1.0 1.0 1.0 1.0
1.0 1.0 1.0 1.0 1.0 1.0 1.0 1.0
1.0 1.0 1.0 1.0 1.0 1.0 1.0 1.0
1.0 1.0 1.0 1.0 1.0 1.0 1.0 1.0
1.0 1.0 1.0 1.0 1.0 1.0 1.0 1.0
1.0 1.0 1.0 1.0 1.0 1.0 1.0 1.0
1.0 1.0 1.0 1.0 1.0 1.0 1.0 1.0
1.0 1.0 1.0 1.0 1.0 1.0 1.0 1.0
1.0 1.0 1.0 1.0 1.0 1.0 1.0 1.0
1.0 1.0 1.0 1.0 1.0 1.0 1.0 1.0
1.0 1.0 1.0 1.0 1.0 1.0 1.0 1.0
1.0 1.0 1.0 1.0 1.0 1.0 1.0 1.0
1.0 1.0 1.0 1.0 1.0 1.0 1.0 1.0
1.0 1.0 1.0 1.0 1.0 1.0 1.0 1.0
1.0 1.0 1.0 1.0 1.0 1.0 1.0 1.0
1.0 1.0 1.0 1.0 1.0 1.0 1.0 1.0
00000000: 0000 803f 0000 803f 0000 803f 0000 803f
00000010: 0000 803f 0000 803f 0000 803f 0000 803f
00000020: 0000 803f 0000 803f 0000 803f 0000 803f
00000030: 0000 803f 0000 803f 0000 803f 0000 803f
00000040: 0000 803f 0000 803f 0000 803f 0000 803f
00000050: 0000 803f 0000 803f 0000 803f 0000 803f
00000060: 0000 803f 0000 803f 0000 803f 0000 803f
00000070: 0000 803f 0000 803f 0000 803f 0000 803f
00000080: 0000 803f 0000 803f 0000 803f 0000 803f
00000090: 0000 803f 0000 803f 0000 803f 0000 803f
000000a0: 0000 803f 0000 803f 0000 803f 0000 803f
000000b0: 0000 803f 0000 803f 0000 803f 0000 803f
000000c0: 0000 803f 0000 803f 0000 803f 0000 803f
000000d0: 0000 803f 0000 803f 0000 803f 0000 803f
000000e0: 0000 803f 0000 803f 0000 803f 0000 803f
000000f0: 0000 803f 0000 803f 0000 803f 0000 803f
00000100: 0000 803f 0000 803f 0000 803f 0000 803f
00000110: 0000 803f 0000 803f 0000 803f 0000 803f
00000120: 0000 803f 0000 803f 0000 803f 0000 803f
00000130: 0000 803f 0000 803f 0000 803f 0000 803f
00000140: 0000 803f 0000 803f 0000 803f 0000 803f
00000150: 0000 803f 0000 803f 0000 803f 0000 803f
00000160: 0000 803f 0000 803f 0000 803f 0000 803f
00000170: 0000 803f 0000 803f 0000 803f 0000 803f
00000180: 0000 803f 0000 803f 0000 803f 0000 803f
00000190: 0000 803f 0000 803f 0000 803f 0000 803f
000001a0: 0000 803f 0000 803f 0000 803f 0000 803f
000001b0: 0000 803f 0000 803f 0000 803f 0000 803f
000001c0: 0000 803f 0000 803f 0000 803f 0000 803f
000001d0: 0000 803f 0000 803f 0000 803f 0000 803f
000001e0: 0000 803f 0000 803f 0000 803f 0000 803f
000001f0: 0000 803f 0000 803f 0000 803f 0000 803f
00000200: 0000 803f 0000 803f 0000 803f 0000 803f
00000210: 0000 803f 0000 803f 0000 803f 0000 803f
00000220: 0000 803f 0000 803f 0000 803f 0000 803f
00000230: 0000 803f 0000 803f 0000 803f 0000 803f
00000240: 0000 803f 0000 803f 0000 803f 0000 803f
00000250: 0000 803f 0000 803f 0000 803f 0000 803f
00000260: 0000 803f 0000 803f 0000 803f 0000 803f
00000270: 0000 803f 0000 803f 0000 803f 0000 803f

model.sole_model.model.func.layer1_convnet.conv.linear_1.weight f4 [2048]
-0.6618142 -0.92643523 -0.14679076 -0.46130642 0.39868054 -2.7625978 0.15033965 -0.9238338
-0.036500853 -0.10745179 3.237089 -0.48644954 -1.443585 0.13615716 0.0880923 0.23272347
0.15106635 1.057233 1.3715762 -0.048901338 -0.09609236 -0.123531155 0.20944986 0.06124566
2.738697 0.8449567 0.5907569 1.7049593 0.15490356 0.38128206 0.4448486 1.4554682
-2.8564303 2.969781 -0.22116777 -5.764055 -0.14419208 6.144546 1.0040458 -0.21133655
-3.1742966 1.7116616 -0.8477652 0.41824335 -0.65942705 3.6875236 -0.27262494 -2.4360204
-3.7655954 -1.9282761 0.428216 -0.124846295 -2.5642715 1.414272 -0.918916 1.3763361
0.056698695 0.935206 -1.3457215 0.41133055 0.12401435 0.9163833 5.625346 -5.066511
0.37028265 0.029750744 0.91970026 0.7003875 -0.13213749 2.1089754 -0.511855 0.38344195
-0.5105446 0.9525658 -3.4298437 -0.64701396 1.3466916 -0.6567588 0.023936858 0.021887489
-0.7180345 0.47210422 -0.6364837 -0.49667487 0.43184024 -0.42081302 1.2429578 0.13045095
4.5337305 -1.6140589 -0.31568518 -0.385135 0.24504103 0.39200833 0.33140218 0.5378562
0.50910574 -2.2070308 0.35632697 5.681515 -0.63276017 -0.9695068 -0.2058824 0.8501442
0.50408494 -0.25626257 5.2813067 6.0480766 3.730062 1.1240644 -0.0352484 -0.7394862
-4.027248 1.7387489 -1.101426 -0.6442051 0.019605353 0.42848772 -4.754009 0.6223513
2.3047898 -0.043315265 -0.15684608 1.3479887 -8.220518 0.50542015 -0.15361144 1.086129
0.7900456 -0.27499768 0.11131115 0.92748344 0.80856365 1.4034109 -0.030398965 -0.43216586
-0.33267656 -1.9667468 -3.3242035 -2.366451 -0.38452458 -0.3432117 0.035489965 -1.0454807
-0.6296159 1.0790435 0.21173443 0.40545994 0.07921289 1.2323731 -1.702256 -0.694395
2.5627773 -0.09735882 -1.6707634 1.2660836 1.6566416 -0.13630544 -0.6628209 1.4063483
-1.1494718 0.19521536 0.13535358 0.028161349 0.24907476 0.24745758 -0.040344995 0.64990777
1.0450516 0.30492777 3.0879898 -2.779979 -3.0060265 0.731339 -0.39657092 -0.111652486
-0.10387601 -2.114381 0.5077522 -0.5348844 -0.15316692 -0.6286026 0.28591767 -0.1796259
-2.3072963 -0.8800295 0.49302754 0.9366161 -1.0152875 0.35158178 0.32014528 0.5830589
0.52822655 1.8794701 -0.07275261 8.250134 0.48532912 -0.3277976 -0.23584741 -0.877856
-1.9055815 0.22129658 2.528921 -0.39360452 -1.3727436 -2.0821178 -0.18401927 0.23687115
1.9490933 -2.4189894 -0.043626554 -0.08768364 0.027967451 1.6199315 -0.42851323 -0.6451521
2.4894972 4.075151 -0.23667026 0.6739264 -2.6374974 -0.9260183 1.3294898 0.60940474
-1.8424367 0.94312644 -0.1970038 -2.299566 -0.5439664 2.3168368 -0.2456956 -0.23962389
1.5246418 -0.33552513 1.3072226 -0.7485972 2.1979437 0.47964263 -0.32332873 -0.35792112
-0.024792068 0.2365853 0.76900077 -0.77104133 0.5710313 -3.363253 0.7537033 0.7664071
0.53986865 1.2777649 0.45042044 2.6145904 -0.18099144 0.6642007 -1.8242278 2.3470817
00000000: a86c 29bf dc2a 6dbf 5150 16be 5b30 ecbe
00000010: db1f cc3e 67ce 30c0 a3f2 193e 5f80 6cbf
00000020: eb81 15bd af0f dcbd 772c 4f40 ea0f f9be
00000030: 65c7 b8bf c86c 0b3e bc69 b43d 104f 6e3e
00000040: 23b1 1a3e 6953 873f cf8f af3f c54c 48bd
00000050: 12cc c4bd e7fd fcbd 067a 563e bbdc 7a3d
00000060: d046 2f40 154f 583f d83b 173f 1b3c da3f
00000070: 0a9f 1e3e 6737 c33e 32c3 e33e c84c ba3f
00000080: c1cf 36c0 e410 3e40 ce79 62be 2373 b8c0
00000090: 17a7 13be 1fa0 c440 9384 803f 9c68 58be
000000a0: ad27 4bc0 ba17 db3f 2407 59bf fe23 d63e
000000b0: 36d0 28bf 6300 6c40 7f95 8bbe c2e7 1bc0
000000c0: 84ff 70c0 c0d1 f6bf 213f db3e 6aaf ffbd
000000d0: 061d 24c0 dd06 b53f 143e 6bbf c82b b03f
000000e0: e43c 683d a969 6f3f 9a40 acbf eb99 d23e
000000f0: 3cfb fd3d 1998 6a3f d602 b440 dc20 a2c0
00000100: b095 bd3e d5b7 f33c 7a71 6b3f 984c 333f
00000110: 0d4f 07be 74f9 0640 ee08 03bf 8152 c43e
00000120: 0db3 02bf 5adb 733f 8f82 5bc0 b5a2 25bf
00000130: 6460 ac3f 5821 28bf 3b17 c43c 644d b33c
00000140: 1cd1 37bf a5b7 f13e 99f0 22bf 2b4c febe
00000150: 2a1a dd3e ce74 d7be 3e19 9f3f ef94 053e
00000160: 5214 9140 7b99 cebf 7da1 a1be 6a30 c5be
00000170: 09ec 7a3e 51b5 c83e 8cad a93e f2b0 093f
00000180: c154 023f fe3f 0dc0 7d70 b63e f9ce b540
00000190: 92fc 21bf 9931 78bf d6d2 52be 0da3 593f
000001a0: b60b 013f d934 83be 7700 a940 d889 c140
000001b0: 56b9 6e40 58e1 8f3f a060 10bd f84e 3dbf
000001c0: 37df 80c0 538f de3f 87fb 8cbf a0ea 24bf
000001d0: 689b a03c be62 db3e d720 98c0 6a52 1f3f
000001e0: ad81 1340 596b 31bd 429c 20be e58a ac3f
000001f0: 3e87 03c1 3763 013f 514c 1dbe 4606 8b3f
00000200: 6e40 4a3f 7fcc 8cbe 1af7 e33d 8e6f 6d3f
00000210: 07fe 4e3f f8a2 b33f 4007 f9bc d844 ddbe
00000220: 9554 aabe 5cbe fbbf c0bf 54c0 ef73 17c0
00000230: 68e0 c4be 72b9 afbe ed5d 113d 50d2 85bf
00000240: 822e 21bf 191e 8a3f e9d0 583e 7298 cf3e
00000250: 5e3a a23d 67be 9d3f 86e3 d9bf dfc3 31bf
00000260: 8b04 2440 1064 c7bd 93db d5bf 070f a23f
00000270: d50c d43f a793 0bbe a1ae 29bf 3903 b43f
00000280: e421 93bf 89e6 473e 219a 0a3e a1b2 e63c
00000290: 740d 7f3e 8565 7d3e cb40 25bd 5b60 263f
000002a0: 40c4 853f 7e1f 9c3e a0a1 4540 2deb 31c0
000002b0: bd62 40c0 0839 3b3f 580b cbbe 0faa e4bd
000002c0: f2bc d4bd 0552 07c0 0cfc 013f 2fee 08bf
000002d0: cad7 1cbe 1aec 20bf cd63 923e daef 37be
000002e0: beaa 13c0 9d49 61bf 1b6e fc3e 13c6 6f3f
000002f0: f1f4 81bf 8702 b43e 15ea a33e 5943 153f
00000300: db39 073f 7a92 f03f 52ff 94bd 8d00 0441
00000310: 0f7d f83e 16d5 a7be fc81 71be 2cbb 60bf
00000320: 18ea f3bf 929b 623e d7d9 2140 8886 c9be
00000330: 10b6 afbf 6b41 05c0 8c6f 3cbe 5a8e 723e
00000340: e47b f93f b9d0 1ac0 c2b1 32bd 7b93 b3bd
00000350: ff1b e53c ea59 cf3f 1666 dbbe b028 25bf
00000360: ec53 1f40 a367 8240 b059 72be 7186 2c3f
00000370: c2cc 28c0 890f 6dbf b92c aa3f f301 1c3f
00000380: f7d4 ebbf bc70 713f 5dbb 49be 172c 13c0
00000390: 6241 0bbf 0e47 1440 a197 7bbe f75f 75be
000003a0: 7627 c33f f3c9 abbe 1253 a73f 11a4 3fbf
000003b0: 1cab 0c40 b893 f53e 588b a5be 7041 b7be
000003c0: bc18 cbbc 6b43 723e 3cdd 443f f762 45bf
000003d0: 1b2f 123f 8a3f 57c0 b3f2 403f 4133 443f
000003e0: d534 0a3f cd8d a33f 829d e63e 7355 2740
000003f0: d255 39be 0f09 2a3f 4c80 e9bf 9636 1640

model.sole_model.model.func.layer1_convnet.conv.linear_1.output_mask f4 [128]
1.0 1.0 1.0 1.0 1.0 1.0 1.0 1.0
1.0 1.0 1.0 1.0 1.0 1.0 1.0 1.0
1.0 1.0 1.0 1.0 1.0 1.0 1.0 1.0
1.0 1.0 1.0 1.0 1.0 1.0 1.0 1.0
1.0 1.0 1.0 1.0 1.0 1.0 1.0 1.0
1.0 1.0 1.0 1.0 1.0 1.0 1.0 1.0
1.0 1.0 1.0 1.0 1.0 1.0 1.0 1.0
1.0 1.0 1.0 1.0 1.0 1.0 1.0 1.0
1.0 1.0 1.0 1.0 1.0 1.0 1.0 1.0
1.0 1.0 1.0 1.0 1.0 1.0 1.0 1.0
1.0 1.0 1.0 1.0 1.0 1.0 1.0 1.0
1.0 1.0 1.0 1.0 1.0 1.0 1.0 1.0
1.0 1.0 1.0 1.0 1.0 1.0 1.0 1.0
1.0 1.0 1.0 1.0 1.0 1.0 1.0 1.0
1.0 1.0 1.0 1.0 1.0 1.0 1.0 1.0
1.0 1.0 1.0 1.0 1.0 1.0 1.0 1.0
00000000: 0000 803f 0000 803f 0000 803f 0000 803f
00000010: 0000 803f 0000 803f 0000 803f 0000 803f
00000020: 0000 803f 0000 803f 0000 803f 0000 803f
00000030: 0000 803f 0000 803f 0000 803f 0000 803f
00000040: 0000 803f 0000 803f 0000 803f 0000 803f
00000050: 0000 803f 0000 803f 0000 803f 0000 803f
00000060: 0000 803f 0000 803f 0000 803f 0000 803f
00000070: 0000 803f 0000 803f 0000 803f 0000 803f
00000080: 0000 803f 0000 803f 0000 803f 0000 803f
00000090: 0000 803f 0000 803f 0000 803f 0000 803f
000000a0: 0000 803f 0000 803f 0000 803f 0000 803f
000000b0: 0000 803f 0000 803f 0000 803f 0000 803f
000000c0: 0000 803f 0000 803f 0000 803f 0000 803f
000000d0: 0000 803f 0000 803f 0000 803f 0000 803f
000000e0: 0000 803f 0000 803f 0000 803f 0000 803f
000000f0: 0000 803f 0000 803f 0000 803f 0000 803f
00000100: 0000 803f 0000 803f 0000 803f 0000 803f
00000110: 0000 803f 0000 803f 0000 803f 0000 803f
00000120: 0000 803f 0000 803f 0000 803f 0000 803f
00000130: 0000 803f 0000 803f 0000 803f 0000 803f
00000140: 0000 803f 0000 803f 0000 803f 0000 803f
00000150: 0000 803f 0000 803f 0000 803f 0000 803f
00000160: 0000 803f 0000 803f 0000 803f 0000 803f
00000170: 0000 803f 0000 803f 0000 803f 0000 803f
00000180: 0000 803f 0000 803f 0000 803f 0000 803f
00000190: 0000 803f 0000 803f 0000 803f 0000 803f
000001a0: 0000 803f 0000 803f 0000 803f 0000 803f
000001b0: 0000 803f 0000 803f 0000 803f 0000 803f
000001c0: 0000 803f 0000 803f 0000 803f 0000 803f
000001d0: 0000 803f 0000 803f 0000 803f 0000 803f
000001e0: 0000 803f 0000 803f 0000 803f 0000 803f
000001f0: 0000 803f 0000 803f 0000 803f 0000 803f
