MLIPs/CACE-LES/Au-MgO-Al/cace-r-5.5-nl-1-nu-2/best_model.pth (torch, 109858 bytes, 12 tensors)

embedding_weights f4 [4, 4]
0.41774952 0.4890593 0.011205499 0.32723618 -0.295865 -0.36971596 -0.3010641 0.33028936
0.9544983 -2.3566933 0.21815246 0.40712833 1.0966011 0.3433821 -0.8262078 -0.11329738
00000000: 44e3 d53e fb65 fa3e 4597 373c 808b a73e
00000010: 9e7b 97be 694b bdbe 1325 9abe b01b a93e
00000020: 005a 743f 10d4 16c0 5c63 5f3e 2073 d03e
00000030: 6d5d 8c3f c7cf af3e 5b82 53bf 7508 e8bd

embedding_weights f4 [4, 4]
0.0034586242 0.12610105 0.0034033172 0.1618071 -0.004934826 0.001246858 -0.13401139 0.15492268
-0.006653465 0.0008218691 0.18066807 -0.033081353 0.30875984 -0.016747106 0.012603988 -0.013682314
00000000: 16aa 623b a220 013e 300a 5f3b c3b0 253e
00000010: 52b4 a1bb 9d6d a33a 483a 09be 0da4 1e3e
00000020: 4f05 dabb b472 573a 0d01 393e 5080 07bd
00000030: c515 9e3e 3a31 89bc f580 4e3c c92b 60bc

bessel_weights f4 [6]
0.29637188 0.98524946 1.5204673 2.0940104 2.6813838 3.3436813
00000000: 0ebe 973e 4f39 7c3f ac9e c23f 4404 0640
00000010: cb9b 2b40 e0fe 5540

0 f4 [6, 12, 16]
0.043999713 -0.009336326 0.027193604 -0.0075896694 -0.0313774 -0.004401958 -0.0066452813 0.012177167
0.039256826 1.4798893 0.15589398 0.0048443615 0.054472644 -0.0041851043 0.035403688 -0.024011591
0.009800545 -0.019484384 -0.010775263 0.01522957 0.027403632 -0.011084137 -0.0024916276 0.011069344
0.08350083 0.0072944625 0.13072683 0.004594858 -0.024627363 0.011290188 0.030638538 0.93119615
0.0053916774 -0.018023945 -0.030812463 -0.0035356807 0.017492926 -0.024285328 0.06472756 0.0023487408
0.14717786 0.012523302 -0.0006534778 -0.00044186355 -0.017236786 -0.1575638 0.016661787 0.038580053
0.04316865 -0.003658899 0.020570971 0.0014914103 -0.046462286 -0.011163441 0.033382095 0.02634552
0.07401443 -0.025109649 0.14906262 -0.00012058803 -0.01943933 -7.316492e-05 0.015179426 -0.9580822
0.006321582 0.0053351144 0.0010036039 -0.0045062806 -0.042375267 0.002242659 -2.8719437 0.013475819
0.036236446 -0.006837095 0.19280578 -0.0029548956 0.013273589 0.00789883 0.033307113 -0.31808594
0.021718502 -0.0030464944 0.0008200361 -0.001431974 -0.032795627 -0.03346179 -0.01580949 -0.0023316073
0.038031444 -1.8875542 2.4053636 -0.07501442 -0.010480925 0.005805015 0.0020474812 -0.016656913
-0.042914517 -0.009563095 -0.011600539 -0.011886631 0.014874011 0.01804314 -0.015677422 0.00043739835
-0.06880645 0.024020957 0.23606646 -0.0075888205 0.0028561507 -0.058284022 0.029447623 0.07802921
-0.08748537 -0.004044831 -0.010127775 0.0009128309 0.042101666 0.0024524105 0.03134699 -0.0141675975
-0.074675426 -0.036609147 0.32171267 -0.00036583754 0.027344285 0.09945931 0.006307525 1.102172
-0.037550107 0.006828153 0.01736579 0.0065900018 -0.0051113307 0.010956056 -1.6048243 1.6294438
0.115365304 0.021558978 1.1875144 0.0018657062 -0.00987945 0.019414293 0.15280375 0.0002405676
0.012297789 0.012595278 -0.0059085703 -0.003816285 0.06713795 0.010308318 0.033150684 0.0012694333
0.13302284 -0.053864367 0.2040669 -0.0037390187 -0.015375691 0.024163049 0.8503922 0.014983261
0.010107507 1.785648 0.02480597 -0.008919066 0.07580208 0.015381487 -0.027625447 -0.003950996
0.15096833 0.0028105564 0.21141405 -0.0027129746 -0.017397838 -0.034576986 0.007695443 -0.04731806
-0.007816177 -0.18048447 -0.04948943 -0.007284503 -0.002894045 0.0055114445 -1.0056617 0.010703408
0.06081799 -0.012297834 0.2515091 -0.004937022 0.0014934527 -0.008797867 0.033824947 0.009316359
-0.0065318984 0.041608546 -0.005685718 -0.02132636 0.05990248 -0.036395315 0.012614957 0.053789042
0.20650354 1.0322628 -0.10610078 -0.0067240996 0.55261403 0.11371672 0.11412736 0.23340368
0.040815383 0.09837716 -0.0144598475 0.028553972 0.015289548 -0.082971744 0.040793728 0.04280089
0.13836479 0.025290763 0.20807795 0.011390121 0.085539624 0.15030837 0.08583292 0.625881
-0.0554499 0.12194985 0.03984187 0.021864649 -0.020527381 -0.059262864 0.20025988 0.034485806
0.49720415 -0.006701968 2.759025 0.0044557517 -0.01657497 -0.42039502 -0.023250887 -0.091253996
0.08193224 0.06658161 0.0008085532 0.016743895 0.0006652883 -0.089584656 0.031404667 0.07724351
0.32987818 0.013267473 0.095639355 0.003579525 0.07104264 0.11769802 -0.011759042 2.3163586
00000000: 0b39 343d 64f7 18bc 1fc5 de3c c3b2 f8bb
00000010: 9785 00bd 4d3e 90bb a9c0 d9bb be82 473c
00000020: c4cb 203d 036d bd3f aca2 1f3e 73bd 9e3b
00000030: b51e 5f3d 3323 89bb 7503 113d f5b3 c4bc
00000040: 7792 203c b79d 9fbc bb8a 30bc 7285 793c
00000050: 957d e03c 3d9a 35bc 934a 23bb 325c 353c
00000060: 7c02 ab3d 6306 ef3b 41dd 053e 7690 963b
00000070: 53bf c9bc 7bfa 383c acfd fa3c df62 6e3f
00000080: abac b03b f4a6 93bc 6b6a fcbc e1b6 67bb
00000090: 534d 8f3c 06f2 c6bc e28f 843d 55ed 193b
000000a0: cbb5 163e 892e 4d3c 274e 2bba eca9 e7b9
000000b0: 2934 8dbc 6858 21be 4d7e 883c 1e06 1e3d
000000c0: 9cd1 303d 24ca 6fbb 7484 a83c 6d7b c33a
000000d0: 3d4f 3ebd dee6 36bc aabb 083d 8fd2 d73c
000000e0: e194 973d c0b2 cdbc dfa3 183e 35e4 fcb8
000000f0: 3b3f 9fbc 1e70 99b8 21b3 783c e044 75bf
00000100: 4625 cf3b 2fd2 ae3b 5c8b 833a 6ca9 93bb
00000110: b091 2dbd 93f9 123b edcd 37c0 aec9 5c3c
00000120: ab6c 143d b609 e0bb e16e 453e eca6 41bb
00000130: 7879 593c 186a 013c 0a6d 083d 29dc a2be
00000140: 00eb b13c b2a7 47bb b1f7 563a 13b1 bbba
00000150: b554 06bd 3b0f 09bd e782 81bc e1cd 18bb
00000160: dcc6 1b3d 609b f1bf 7af1 1940 29a1 99bd
00000170: 30b8 2bbc ff37 be3b 092f 063b 1474 88bc
00000180: 22c7 2fbd 87ae 1cbc 3010 3ebc 25c0 42bc
00000190: 20b2 733c 35cf 933c f06d 80bc 9d52 e539
000001a0: 65ea 8cbd 99c7 c43c 68bb 713e a4ab f8bb
000001b0: 422e 3b3b 3abb 6ebd 243c f13c c7cd 9f3d
000001c0: 882b b3bd 808a 84bb f8ee 25bc 0b4b 6f3a
000001d0: cc72 2c3d 9fb8 203b b465 003d 361f 68bc
000001e0: 6eef 98bd 79f3 15bd 86b7 a43e e2cd bfb9
000001f0: 1f01 e03c 53b1 cb3d 5baf ce3b f913 8d3f
00000200: 24ce 19bd b3be df3b b442 8e3c f1f0 d73b
00000210: f37c a7bb 0881 333c e26a cdbf 9d91 d03f
00000220: a544 ec3d 749c b03c 7900 983f b68a f43a
00000230: 6bdd 21bc b90a 9f3c 9678 1c3e e040 7c39
00000240: aa7c 493c 6d5c 4e3c ae9c c1bb a31a 7abb
00000250: 9f7f 893d 38e4 283c 03c9 073d 1d63 a63a
00000260: 2437 083e e2a0 5cbd eaf6 503e 530a 75bb
00000270: 52ea 7bbc 96f1 c53c 4eb3 593f 5a7c 753c
00000280: f599 253c 1d90 e43f e435 cb3c 4621 12bc
00000290: 1f3e 9b3d a202 7c3c c34e e2bc 5b77 81bb
000002a0: 7197 1a3e 5031 383b ed7c 583e 29cc 31bb
000002b0: e985 8ebc 99a0 0dbd 0e2a fc3b 95d0 41bd
000002c0: 6c0f 00bc ecd0 38be 6eb5 4abd d7b2 eebb
000002d0: 05aa 3dbb 5999 b43b 86b9 80bf 595d 2f3c
000002e0: 491c 793d db7c 49bc cdc5 803e bec6 a1bb
000002f0: f5bf c33a ee24 10bc 078c 0a3d a4a3 183c
00000300: 8909 d6bb b96d 2a3d 424f babb 9eb4 aebc
00000310: 4e5c 753d 4113 15bd f7ae 4e3c e651 5c3d
00000320: aa75 533e 3021 843f 5e4b d9bd d655 dcbb
00000330: 1d78 0d3f 50e4 e83d 9bbb e93d 6001 6f3e
00000340: 082e 273d f779 c93d ffe8 6cbc 05ea e93c
00000350: 0381 7a3c 17ed a9bd 5317 273d fc4f 2f3d
00000360: 80af 0d3e 932e cf3c 6312 553e a19d 3a3c
00000370: 662f af3d 70ea 193e 2cc9 af3d bd39 203f
00000380: 6f1f 63bd d8c0 f93d 3b31 233d 7e1d b33c
00000390: 0a29 a8bc 9ebd 72bd ed10 4d3e fd40 0d3d
000003a0: 8b91 fe3e 2f9c dbbb de93 3040 8e01 923b
000003b0: 3bc8 87bc 043e d7be a578 bebc 60e3 babd
000003c0: 17cc a73d f05b 883d 16f5 533a 7e2a 893c
000003d0: be66 2e3a 2978 b7bd 2ea2 003d d831 9e3d
000003e0: cbe5 a83e d15f 593c 91de c33d 7796 6a3b
000003f0: ce7e 913d a90b f13d ffa8 40bc 383f 1440

1 f4 [6, 12, 16]
-0.24221049 -0.024150213 0.42203423 0.013291764 -0.2489224 -3.0400379 0.015633497 0.52274805
0.2513059 7.241688 10.026757 0.034467462 0.08200413 -0.6010256 0.8247208 1.2701075
-0.14004323 -0.034135804 1.4416971 4.6354733 -3.4633436 0.022754628 6.466936 -11.766813
0.3746433 -6.467669 2.0152302 -1.1528543 2.4681613 3.1027973 4.589655 -2.0179403
-0.034277417 3.2953906 0.036240492 5.222564 5.6118813 0.068269834 0.09953552 4.8093524
0.05884695 3.0074458 -0.7172691 -0.010096059 -0.026218217 0.15874176 3.500526 1.0575029
4.257129 0.025697602 0.03373983 0.010034169 1.949579 9.653776 0.03450037 5.0650315
0.11428733 -0.0081197 4.002472 0.020802839 -0.044894725 0.041291278 -2.6246052 -1.7573177
-0.27763128 15.583617 -6.8568907 -0.0017894127 1.1183816 0.10858753 -5.854683 0.19528757
0.2692854 9.849443 -7.6217136 0.0049583735 1.4264003 -0.33939716 0.29246747 5.491834
-0.058264025 0.050879568 5.9858317 0.033391856 8.709146 5.743873 10.824816 0.3155199
-2.8511407 -0.06521183 -5.7333174 -0.025997682 -0.035327308 0.34620756 0.17054223 2.9648116
0.37108544 3.802064 6.143349 -0.2627274 0.09562879 0.1350669 0.30997953 5.9071784
0.61486644 0.012870054 1.5993747 0.022156725 -0.017346613 3.8851752 0.5394522 1.5170474
0.1301219 2.3584752 0.18910751 16.803913 8.295003 2.723463 9.462663 4.160717
2.4190934 -2.098892 8.5274515 0.65217817 1.2821938 -5.66298 -1.3021147 5.8201547
-0.011411202 -0.013315439 -0.004983659 1.5176997 -0.009912613 -7.577489 0.22560957 0.53365374
0.1382672 -8.462241 3.5261104 3.964498 3.0947585 -1.1455252 -2.2631497 -1.0095199
-0.14891303 7.5900245 4.4645615 2.5349755 0.3999371 -13.486417 5.727359 0.31545588
0.08041155 5.6306667 -7.4484777 -9.541371 0.024365496 0.020126523 0.153874 -2.5479672
0.07837948 -6.4996166 0.055713557 7.6599426 -0.934211 0.0867815 0.29580623 10.90434
0.15615326 -0.0493205 -6.305214 -0.0017875477 -0.116871364 -0.08363865 0.5351969 0.10782938
0.08485686 0.0671039 0.38965136 -0.011069929 0.039859027 -1.4746903 1.5698216 0.006906357
-0.13467814 -0.9180993 -13.808318 1.7675265 1.9237713 -0.9265446 0.8805896 -1.8685898
-1.8101665 0.010387934 0.44226986 -0.03164203 0.56111705 5.6490088 0.43516913 1.100449
1.1160784 3.7753153 -7.0482583 0.008034979 0.10014243 4.3599424 1.3723882 5.077154
0.82010514 -0.009936695 0.54839396 0.4795744 5.6614866 0.18127817 -1.3765032 9.006763
0.6721856 3.3965735 -8.239476 3.1077774 5.892162 1.3979386 -0.8892393 5.5327783
0.29793018 -1.7822425 0.1937844 -7.2113833 -0.5561187 0.18755366 0.2861005 -4.2250023
0.2978907 5.7497478 -9.792988 -0.010439855 -0.03730874 1.0620804 3.8527176 4.6209674
3.4892523 -0.008567412 0.021909842 0.037262205 -1.2046851 -4.040094 0.23421425 -8.312906
0.38880217 0.0041530663 -8.596118 -0.025762772 0.28965 1.0673753 5.8633533 5.59042
00000000: 0706 78be abd6 c5bc df14 d83e b3c5 593c
00000010: 83e5 7ebe fb8f 42c0 d211 803c d1d2 053f
00000020: 2bab 803e e8bb e740 996d 2041 c12d 0d3d
00000030: c8f1 a73d d0dc 19bf e720 533f e292 a23f
00000040: 7e67 0fbe fcd1 0bbd 8889 b83f cc55 9440
00000050: 6ca7 5dc0 ea67 ba3c 24f1 ce40 de44 3cc1
00000060: 3fd1 bf3e 25f7 cec0 88f9 0040 bb90 93bf
00000070: 5bf6 1d40 3b94 4640 74de 9240 ef25 01c0
00000080: 7a66 0cbd aee7 5240 e970 143d 3f1f a740
00000090: 8894 b340 0ed1 8b3d 47d9 cb3d 37e6 9940
000000a0: 8009 713d fe79 4040 f39e 37bf f169 25bc
000000b0: 96c7 d6bc 338d 223e 9e08 6040 415c 873f
000000c0: 673a 8840 c783 d23c c732 0a3d 5b66 243c
000000d0: ce8b f93f de75 1a41 4350 0d3d bd14 a240
000000e0: 7a0f ea3d 7d08 05bc 4014 8040 b76a aa3c
000000f0: 88e3 37bd 0b21 293d 88f9 27c0 c9ef e0bf
00000100: b025 8ebe 7f56 7941 a66b dbc0 ba8a eaba
00000110: 2127 8f3f 2463 de3d 9059 bbc0 77f9 473e
00000120: c7df 893e 5297 1d41 14e5 f3c0 da79 a23b
00000130: 4994 b63f 77c5 adbe 4cbe 953e 1bbd af40
00000140: 42a6 6ebd 1867 503d ef8b bf40 e6c5 083d
00000150: a958 0b41 cfcd b740 7232 2d41 d38b a13e
00000160: 1779 36c0 c88d 85bd 5677 b7c0 17f9 d4bc
00000170: 5eb3 10bd 1e42 b13e 9fa2 2e3e 79bf 3d40
00000180: e9fe bd3e 0455 7340 5196 c440 3584 86be
00000190: 07d9 c33d fa4e 0a3e a3b5 9e3e 9b07 bd40
000001a0: e367 1d3f ebdc 523c 4fb8 cc3f 0582 b53c
000001b0: 7c1a 8ebc b6a6 7840 8a19 0a3f 9c2e c23f
000001c0: ad3e 053e 42f1 1640 66a5 413e 6a6e 8641
000001d0: 55b8 0441 384d 2e40 1167 1741 9824 8540
000001e0: 6dd2 1a40 3f54 06c0 7170 0841 26f5 263f
000001f0: ed1e a43f 2237 b5c0 b2ab a6bf b53e ba40
00000200: 0df6 3abc 0029 5abc f64d a3bb fc43 c23f
00000210: 8368 22bc ca7a f2c0 3206 673e 889d 083f
00000220: eb95 0d3e 5765 07c1 cbab 6140 56ba 7d40
00000230: 8610 4640 92a0 92bf 72d7 10c0 f337 81bf
00000240: a87c 18be 7be1 f240 b0dd 8e40 0a3d 2240
00000250: 8ec4 cc3e 5dc8 57c1 8646 b740 6f83 a13e
00000260: d0ae a43d 6c2e b440 ee59 eec0 75a9 18c1
00000270: 269a c73c 61e0 a43c 2591 1d3e e511 23c0
00000280: 6c85 a03d dcfc cfc0 e633 643d 401e f540
00000290: 7428 6fbf 80ba b13d ea73 973e 2d78 2e41
000002a0: a4e6 1f3e 4b04 4abd 50c4 c9c0 264c eaba
000002b0: 415a efbd be4a abbd aa02 093f a6d5 dc3d
000002c0: 6fc9 ad3d c56d 893d 6280 c73e a65e 35bc
000002d0: 3843 233d a7c2 bcbf eaef c83f b94e e23b
000002e0: 11e9 09be 8e08 6bbf dfee 5cc1 4f3e e23f
000002f0: 233e f63f 0732 6dbf 526e 613f f32d efbf
00000300: 89b3 e7bf 2732 2a3c 3271 e23e 139b 01bd
00000310: 5ea5 0f3f aec4 b440 7dce de3e 83db 8c3f
00000320: a8db 8e3f c49e 7140 558b e1c0 25a5 033c
00000330: 7917 cd3d a684 8b40 6baa af3f 0c78 a240
00000340: 69f2 513f 85cd 22bc 8c63 0c3f c78a f53e
00000350: e62a b540 fca0 393e 4231 b0bf b41b 1041
00000360: 5b14 2c3f 7661 5940 e5d4 03c1 d3e5 4640
00000370: 978c bc40 a7ef b23f 30a5 63bf 850c b140
00000380: 4e8a 983e 8620 e4bf 6b6f 463e a7c3 e6c0
00000390: cc5d 0ebf 110e 403e c47b 923e 3833 87c0
000003a0: 2185 983e effd b740 14b0 1cc1 ed0b 2bbc
000003b0: 0dd1 18bd 40f2 873f ed92 7640 f7de 9340
000003c0: e94f 5f40 555e 0cbc 457c b33c 41a0 183d
000003d0: 1f33 9abf 7348 81c0 dcd5 6f3e aa01 05c1
000003e0: 1411 c73e 7216 883b b389 09c1 730c d3bc
000003f0: 014d 943e c19f 883f 97a0 bb40 b8e4 b240

2 f4 [6, 12, 16]
0.10387698 0.4670096 0.09011405 6.715856 0.8666769 7.5004683 3.3669305 0.08405623
-0.17785887 3.2657933 3.5209167 -0.0007368039 0.1332902 0.20771922 0.15740931 0.06414383
1.1235254 -1.0398804 0.10774413 4.6276655 -0.19980432 0.06344882 0.08513684 0.00075738406
0.48849428 2.4641151 -0.42512178 0.0009836962 -0.9745354 2.0910985 1.2074745 0.19571339
0.28521553 0.7132848 1.8494589 0.70036995 5.5904317 0.07167142 0.05791132 6.3036885
3.9355025 3.951571 0.32485053 2.707985 2.9046702 0.04361041 0.053353444 -0.1407231
5.06108 -6.9441705 -2.9523032 1.4791025 7.1462574 0.057915922 0.081449896 0.0271352
-0.22970746 0.018324725 0.51447105 -0.006670983 2.748682 1.0859932 0.09834449 0.021479022
3.207011 5.7073617 0.10902388 0.32885414 0.014793642 0.12495956 0.11118016 0.0798367
0.13507134 0.06455404 0.14661759 -0.0059191664 -0.010186193 0.105289504 -0.6680211 -0.17015533
3.2926235 -0.022591839 0.088275895 0.004862068 -0.042354215 8.815015 -2.235876 6.2938128
0.122289285 0.7431634 -2.5600183 -3.7957008 -0.007968061 0.23122923 0.10848036 0.019130802
-0.33308154 -0.00046178506 0.030381458 0.13401428 -0.0064171995 2.3402264 5.813982 9.8296585
0.578363 0.0037916047 -2.8110874 -0.00025079743 0.01806438 -2.3687587 0.21532388 -0.9335744
0.16344243 -0.011964883 1.2725781 0.025827104 2.7274234 0.12891054 0.07219469 2.2111468
0.70009696 2.276171 -1.268141 -3.5959527 1.7377833 0.09010197 0.10530462 0.0075097666
0.13901502 2.1081262 0.10144758 6.8803697 6.084638 8.812597 0.0073693274 -1.2769494
0.5168241 0.02951258 0.33719984 0.0022989458 1.3202841 0.15682742 0.0674228 -1.5525702
-0.98065394 0.1472052 7.4225717 1.7630618 0.08309824 0.110793464 10.45842 0.02220703
0.083764255 0.02011756 0.9182451 -0.0110865375 0.49710727 0.061918505 0.32911012 0.0024340749
1.9369296 0.0013350471 4.8503685 1.7454892 -0.024742605 0.09584227 0.09095862 0.16683315
0.09360871 -0.003156411 -3.6515687 -2.270205 0.016373297 0.08015098 0.053871155 1.7118862
-1.1691467 0.04195161 7.545721 6.1033177 -0.004823645 0.036807764 0.109010465 0.07618555
-0.07817464 -0.016845372 -2.0793405 0.02033618 2.3525507 2.6395314 0.075794734 0.08916692
0.40231666 1.9077426 0.27635542 -8.743342 5.9743667 -1.7566406 -7.326288 0.22045587
1.2066268 1.451796 -0.053587988 0.011705264 2.1477995 0.45320186 0.38374975 0.18512456
-0.8714994 -0.9833966 0.13513072 -4.055386 1.0906436 0.10196305 1.1829135 0.032176863
1.5963093 1.1946552 9.291363 0.024367895 4.1852202 -3.8870087 1.9600624 -0.08749206
-0.38806278 -0.53562504 -1.2708535 1.1975471 1.505324 0.38173947 0.27871966 -1.810747
0.7459608 0.563363 0.5106021 -6.7096376 5.173471 0.24925235 0.06641206 0.8841882
0.37628636 7.140815 -3.8204305 3.2862124 0.19472256 0.1340657 0.16936399 0.031994246
0.39649987 0.012527706 0.9992514 -0.022446787 -4.122261 -1.6712309 0.23298621 0.17891815
00000000: 74bd d43d e21b ef3e b78d b83d 4be8 d640
00000010: 8ade 5d3f d603 f040 ca7b 5740 ac25 ac3d
00000020: a320 36be c202 5140 b356 6140 1326 41ba
00000030: 3a7d 083e 59b4 543e e82f 213e d75d 833d
00000040: aecf 8f3f cd1a 85bf f4a8 dc3d d615 9440
00000050: 8199 4cbe 74f1 813d 395c ae3d 2f8b 463a
00000060: ec1b fa3e 10b4 1d40 90a9 d9be 5eef 803a
00000070: 277b 79bf 8fd4 0540 868e 9a3f 1769 483e
00000080: c507 923e d599 363f 12bb ec3f 724b 333f
00000090: d1e4 b240 77c8 923d 6c34 6d3d d1b7 c940
000000a0: 46df 7b40 8ae6 7c40 cf52 a63e a04f 2d40
000000b0: 1ee6 3940 d4a0 323d 2489 5a3d b719 10be
000000c0: 5ef4 a140 a536 dec0 89f2 3cc0 3b53 bd3f
000000d0: 24ae e440 3f39 6d3d 34cf a63d a44a de3c
000000e0: 6f38 6bbe bc1d 963c 60b4 033f 4398 dabb
000000f0: 68ea 2f40 d301 8b3f d668 c93d c6f4 af3c
00000100: ab3f 4d40 b5a2 b640 e947 df3d 925f a83e
00000110: 0861 723c ccea ff3d 6cb2 e33d 6c81 a33d
00000120: 2450 0a3e e934 843d ec22 163e 91f5 c1bb
00000130: fde3 26bc 06a2 d73d 6e03 2bbf 333d 2ebe
00000140: 58ba 5240 8512 b9bc fec9 b43d fc51 9f3b
00000150: 9d7b 2dbd 4d0a 0d41 9818 0fc0 ea66 c940
00000160: ce72 fa3d f53f 3e3f 57d7 23c0 c3ec 72c0
00000170: 788c 02bc 5bc7 6c3e f32a de3d 33b8 9c3c
00000180: aa89 aabe be1b f2b9 89e2 f83c 0a3b 093e
00000190: 5f47 d2bb 45c6 1540 240c ba40 4846 1d41
000001a0: 990f 143f 927c 783b dbe8 33c0 767d 83b9
000001b0: c0fb 933c be99 17c0 dd7d 5c3e bbfe 6ebf
000001c0: 745d 273e 5b08 44bc d7e3 a23f 5d93 d33c
000001d0: 1b8e 2e40 2001 043e cfda 933d 6e83 0d40
000001e0: 8e39 333f c9ac 1140 7252 a2bf 1724 66c0
000001f0: af6f de3f 6287 b83d f3a9 d73d 7d14 f63b
00000200: f459 0e3e 8aeb 0640 c0c3 cf3d fd2b dc40
00000210: 5bb5 c240 6600 0d41 667a f13b 1473 a3bf
00000220: 964e 043f 5ec4 f13c 75a5 ac3e e9a9 163b
00000230: 12ff a83f 5e97 203e f714 8a3d 9fba c6bf
00000240: 230c 7bbf f6bc 163e b585 ed40 02ac e13f
00000250: 692f aa3d afe7 e23d b055 2741 84eb b53c
00000260: 988c ab3d 95cd a43c 1c12 6b3f 4fa4 35bc
00000270: d884 fe3e 429e 7d3d 1f81 a83e 0085 1f3b
00000280: 4fed f73f bffc ae3a 3836 9b40 316c df3f
00000290: 01b1 cabc f448 c43d 8348 ba3d 4fd6 2a3e
000002a0: ecb5 bf3d cadb 4ebb 4db3 69c0 0a4b 11c0
000002b0: 4b21 863c 3226 a43d 00a8 5c3d 161f db3f
000002c0: 99a6 95bf 74d5 2b3d 8c76 f140 614e c340
000002d0: ab0f 9ebb bdc3 163d e140 df3d 2b07 9c3d
000002e0: 071a a0bd 4eff 89bc ea13 05c0 1098 a63c
000002f0: 3190 1640 15ee 2840 453a 9b3d 259d b63d
00000300: 73fc cd3e e930 f43f 757e 8d3e bbe4 0bc1
00000310: 032e bf40 99d9 e0bf f470 eac0 2fbf 613e
00000320: bf72 9a3f 74d4 b93f 147f 5bbd 70c7 3f3c
00000330: 8c75 0940 130a e83e d97a c43e 4b91 3d3e
00000340: 961a 5fbf e1bf 7bbf b55f 0a3e b9c5 81c0
00000350: 369a 8b3f 01d2 d03d b669 973f e3cb 033d
00000360: dd53 cc3f 76ea 983f 6ca9 1441 2e9f c73c
00000370: 53ed 8540 c0c4 78c0 53e3 fa3f 0a2f b3bd
00000380: 2ab0 c6be b91e 09bf 54ab a2bf 3949 993f
00000390: 75ae c03f 5b73 c33e 58b4 8e3e 8fc6 e7bf
000003a0: 49f7 3e3f 8f38 103f d2b6 023f 5ab5 d6c0
000003b0: 138d a540 023c 7f3e 0c03 883d 285a 623f
000003c0: 9ba8 c03e 8e81 e440 ef81 74c0 4e51 5240
000003d0: 5a65 473e 8548 093e c16d 2d3e 660c 033d
000003e0: 0802 cb3e 0241 4d3c f1ce 7f3f 53e2 b7bc
000003f0: 90e9 83c0 e5ea d5bf f093 6e3e 5236 373e

weight f4 [32, 576]
0.2963396 0.056219235 -0.087025195 0.086105615 0.12695119 -0.008463206 0.10640668 -0.046806835
-0.026576128 2.4213254 -0.2547914 -0.008894816 -0.025545789 -0.04065991 0.122852735 -0.12730896
0.97785187 0.30736324 0.23129043 -0.22227532 0.87330997 -3.2499542 0.7899716 -1.6852455
-1.0139321 15.290217 -0.9165093 0.17443627 -0.43611467 3.1487632 1.232074 -2.3644838
-0.03638511 0.56455827 -0.066287555 -7.579021 3.2564745 -21.278923 0.92843574 -0.09151548
-0.45175025 -12.79598 -6.5473843 -0.33933696 -0.5547669 0.69389755 -0.11206674 0.38562098
0.23316269 -0.00057031936 0.0332176 -0.036187008 0.25225097 0.050931547 -0.039070457 0.044454496
0.08428453 0.04709565 -0.114919804 -0.03134996 -0.036735937 -0.051226784 -0.011797444 0.2085871
-0.18622747 -0.41297334 -2.4325516 -8.389656 6.481722 0.02297552 -4.8586574 2.2378154
-1.2677131 3.0351205 -5.3274584 4.1028843 -0.3308545 7.131106 -0.16978471 -7.201249
-1.5430652 -7.468837 -0.05827579 -3.9151907 -1.4022617 0.2805403 -0.011888925 0.37478155
0.0681942 0.19666956 -1.5023094 -0.07576868 -1.6441224 1.0200464 -1.8498291 -3.8947592
0.006646793 0.06382513 0.046636235 -0.0038876287 0.055817492 0.021386841 0.011867116 0.04970446
0.27364317 0.04813892 -0.39404795 -0.00032044612 -0.0042744125 -0.70765835 0.07222413 0.079428986
1.5514723 -9.610062 -0.12825969 -17.737068 0.68235403 0.4194532 -0.058452923 -10.2255125
-0.71700394 -0.43176392 -9.505392 0.06859634 0.4429716 -0.511266 -0.019375648 -2.4054582
-0.84216344 -2.4168737 -0.26073828 -0.3837529 -15.976302 -0.37353626 0.3146305 -9.432649
1.2060765 -7.398204 -0.25672802 -5.6030025 0.34046423 -0.24457476 0.051517326 -1.8623453
0.21568799 0.04264172 -0.12248653 -0.025393073 -0.11732009 0.09012826 0.042923804 0.05762867
0.16937906 -0.06990146 -0.32449704 -0.03326876 0.069709614 -0.050364397 0.122427456 -3.1618161
0.13187492 -0.00085932337 0.38065293 -0.07361633 -0.67191344 10.629729 -2.3019717 -14.583377
-0.18526745 -0.45263773 -4.617256 0.1666172 0.9236447 -0.1397912 -7.4314013 6.51163
-0.8890586 -4.493084 5.05391 5.8913283 -3.080735 -0.32542747 -0.48854557 0.8179952
0.31510723 0.77501374 -1.5582857 -0.20043515 -0.69094044 1.259883 0.13753684 -0.093240395
0.3609137 -0.021812944 -0.028668532 0.0041012582 0.09584373 0.018681819 -1.5471258 0.05329721
0.1955905 0.047187302 -0.3636329 -0.03332797 0.20718093 0.023087585 0.09206239 1.0277419
0.21204516 -17.364513 1.3390894 -0.56459004 3.8012514 -0.29041904 3.107904 -0.33062384
-0.85064083 0.26246884 -2.962703 0.19146726 -3.0971284 5.4260964 0.29372644 6.6171665
-2.0629826 -11.446195 0.03970464 -0.067124926 -0.08164638 -0.2344186 0.13055632 0.19794509
-0.8111103 -0.25328076 -1.0509127 -0.020409686 -2.568086 -0.10425816 -2.450849 -2.6309278
0.17267627 0.009524885 -0.115564786 -0.017699555 0.15967846 -0.02154955 0.19292793 -0.04423667
-0.036789823 -0.3569768 0.438693 -1.3611643 -0.034547646 -0.026383536 0.12206582 -0.027436595
00000000: d3b9 973e 2446 663d 443a b2bd 2458 b03d
00000010: 7eff 013e 42a9 0abc bfeb d93d 86b8 3fbd
00000020: 2eb6 d9bc fff6 1a40 0574 82be 90bb 11bc
00000030: 6745 d1bc 018b 26bd 379a fb3d 485d 02be
00000040: 8054 7a3f b75e 9d3e 66d7 6c3e 249c 63be
00000050: 3e91 5f3f 40ff 4fc0 943b 4a3f 20b6 d7bf
00000060: 87c8 81bf bba4 7441 5aa0 6abf 6c9f 323e
00000070: 6c4a dfbe 5685 4940 9ab4 9d3f b453 17c0
00000080: 8e08 15bd e486 103f c5c1 87bd 5787 f2c0
00000090: 146a 5040 3c3b aac1 f7ad 6d3f 786c bbbd
000000a0: cf4b e7be 56bc 4cc1 2c84 d1c0 93bd adbe
000000b0: 3405 0ebf 45a3 313f 3f83 e5bd 1d70 c53e
000000c0: 33c2 6e3e 7c81 15ba 2e0f 083d d438 14bd
000000d0: 0a27 813e 999d 503d 5808 20bd eb15 363d
000000e0: 5e9d ac3d 5ee7 403d 135b ebbd d168 00bd
000000f0: 6c78 16bd 2dd3 51bd 114a 41bc db97 553e
00000100: 6ab2 3ebe 3e71 d3be edae 1bc0 083c 06c1
00000110: 446a cf40 2837 bc3c 1f7a 9bc0 5e38 0f40
00000120: 6c44 a2bf 6a3f 4240 8a7a aac0 d44a 8340
00000130: c365 a9be 0532 e440 0bdc 2dbe a270 e6c0
00000140: 2983 c5bf b600 efc0 98b2 6ebd 7c92 7ac0
00000150: 507d b3bf faa2 8f3e c4c9 42bc 5ee3 bf3e
00000160: 67a9 8b3d bf63 493e ad4b c0bf 9c2c 9bbd
00000170: 9a72 d2bf e190 823f 33c7 ecbf bc43 79c0
00000180: 57cd d93b c0b6 823d a305 3f3d 96c7 7ebb
00000190: e2a0 643d 7533 af3c 4b6e 423c e796 4b3d
000001a0: f51a 8c3e 512d 453d a7c0 c9be 8d01 a8b9
000001b0: 5f10 8cbb 1929 35bf 3fea 933d aaab a23d
000001c0: a596 c63f d0c2 19c1 8256 03be 84e5 8dc1
000001d0: c1ae 2e3f 92c2 d63e 556c 6fbd b39b 23c1
000001e0: 928d 37bf 2910 ddbe 1616 18c1 3d7c 8c3d
000001f0: 2ccd e23e 54e2 02bf aeb9 9ebc 07f3 19c0
00000200: 0698 57bf 0fae 1ac0 7d7f 85be 437b c4be
00000210: ef9e 7fc1 2540 bfbe 4017 a13e 21ec 16c1
00000220: b760 9a3f 16be ecc0 db71 83be cc4b b3c0
00000230: 5451 ae3e ce71 7abe d503 533d 5561 eebf
00000240: 50dd 5c3e 16a9 2e3d 38da fabd 2205 d0bc
00000250: 8445 f0bd 2a95 b83d dfd0 2f3d 0a0c 6c3d
00000260: b471 2d3e 7f28 8fbd 7a24 a6be d344 08bd
00000270: eac3 8e3d e64a 4ebd 3fbb fa3d 325b 4ac0
00000280: 380a 073e 3744 61ba f1e4 c23e 29c4 96bd
00000290: 8502 2cbf 5f13 2a41 8153 13c0 8355 69c1
000002a0: c0b6 3dbe 22c0 e7be 90c0 93c0 b39d 2a3e
000002b0: fb73 6c3f 6d25 0fbe 0ace edc0 465f d040
000002c0: 5899 63bf 58c7 8fc0 a1b9 a140 c385 bc40
000002d0: c32a 45c0 6e9e a6be a522 fabe 2268 513f
000002e0: bc55 a13e 4d67 463f e875 c7bf df3e 4dbe
000002f0: 79e1 30bf d943 a13f 75d6 0c3e d2f4 bebd
00000300: aec9 b83e 0fb1 b2bc 45da eabc d963 863b
00000310: b849 c43d 9d0a 993c 3808 c6bf 2d4e 5a3d
00000320: e048 483e 7947 413d 172e babe e982 08bd
00000330: 3d27 543e 2d22 bd3c 358b bc3d 0c8d 833f
00000340: 5e22 593e 86ea 8ac1 4867 ab3f f988 10bf
00000350: b447 7340 ceb1 94be e6e7 4640 8747 a9be
00000360: 99c3 59bf 5162 863e ed9c 3dc0 fe0f 443e
00000370: 5a37 46c0 95a2 ad40 5063 963e d4bf d340
00000380: e807 04c0 9d23 37c1 55a1 223d cb78 89bd
00000390: 3836 a7bd 6e0b 70be 8eb0 053e 1eb2 4a3e
000003a0: eda4 4fbf 04ae 81be 4f84 86bf 3732 a7bc
000003b0: 855b 24c0 4d85 d5bd b6da 1cc0 1f61 28c0
000003c0: 0cd2 303e 430e 1c3c 3bad ecbd a8fe 90bc
000003d0: c082 233e af88 b0bc e68e 453e 8331 35bd
000003e0: edb0 16bd aac5 b6be 5e9c e03e a23a aebf
000003f0: d581 0dbd 4922 d8bc a5fd f93d b6c2 e0bc

bias f4 [32]
-1.7948169 -2.130421 -0.15188569 -2.713965 -2.617782 -3.198872 -3.0316532 -0.30117476
-0.7257919 -1.1176584 -3.459065 -2.067978 -2.6714895 -0.17230023 -2.6668482 -0.7306814
-3.383994 -3.064623 -4.792114 -0.036412634 -3.2302272 -2.4787164 -0.23035496 -4.023027
-1.9373584 -3.1742368 -0.019293189 -0.370509 -2.1642306 -0.40088534 -1.1542306 -2.683895
00000000: 8fbc e5bf d158 08c0 ec87 1bbe 9ab1 2dc0
00000010: be89 27c0 52ba 4cc0 9b06 42c0 9433 9abe
00000020: 7fcd 39bf 6e0f 8fbf 5261 5dc0 c059 04c0
00000030: aff9 2ac0 796f 30be a4ad 2ac0 f00d 3bbf
00000040: 5c93 58c0 c922 44c0 ff58 99c0 6a25 15bd
00000050: 0bbc 4ec0 4aa3 1ec0 2ce2 6bbe a3bc 80c0
00000060: 5cfb f7bf b226 4bc0 c00c 9ebc 5bb3 bdbe
00000070: c182 0ac0 d840 cdbe d4bd 93bf f0c4 2bc0

weight f4 [16, 32]
0.13167939 -0.03274669 -0.017857993 0.046609696 0.02843011 -0.050384205 -0.08869983 -0.047244053
0.040341236 0.018360114 -0.0694175 -0.07780994 -0.06862943 0.017208902 0.35150224 0.03873226
-0.012818378 0.13909209 -0.12615556 0.024423676 0.055055406 0.1563026 0.0055801193 -0.22847266
0.46699107 -0.009774588 -7.7617085e-05 -0.10560861 0.0070329243 -0.025426527 -0.025919173 -0.059928775
1.1711504 0.80543053 -0.38454962 1.062399 3.9542341 -6.0726604 -2.5635302 -0.6404967
-2.3718581 -2.3323672 -6.9070687 1.6156679 4.03593 -1.6617901 -1.0373012 0.8180439
-3.2801538 -7.22271 6.097607 -2.4525228 3.4134302 -0.3200781 -2.8271153 -6.525428
2.9895546 -2.791879 1.1337202 0.0869004 0.88473135 -0.9903425 -0.43018594 2.2363372
6.334699 2.3273544 5.7490463 6.728737 4.2165794 6.150679 2.7109835 10.668025
-5.690526 -5.418272 5.3122754 6.2579346 2.7417698 4.2521114 5.631185 -2.2939148
4.1814237 5.5150695 -0.20562954 -4.5715847 5.942989 9.420603 -2.7684941 0.30428767
11.741057 4.464665 3.4889777 2.3886783 3.0296493 3.1319802 -4.3489385 7.3147426
-1.5588578 0.87784064 -4.1517715 2.5676007 2.157153 0.76625293 0.46760005 -1.5779153
-3.465985 -1.5017564 -1.6072048 0.03880802 -3.0270135 0.8579835 -0.1801423 0.0355291
-0.35024935 -1.4843903 3.2479098 -0.50139666 4.9956326 -2.1398327 -0.77931875 6.486023
0.58098423 2.7203894 -0.45912623 0.958605 1.6796038 -0.2892864 0.35169792 2.213562
-1.9260979 0.9988566 0.16892864 -1.0518246 0.8022783 -2.8841398 -0.7792772 -0.08913851
0.30008057 -0.12627873 -2.3948078 -2.3722441 3.152688 -0.29989442 -2.7802296 -0.099337764
-1.0098743 -2.1999664 -1.1454773 -0.61460954 -1.1652509 3.649787 0.093162425 -3.196796
-0.27750337 -3.3474855 -0.38425747 -0.7229562 4.259857 0.15753928 -0.3031479 -1.9897426
4.205757 1.089232 7.0943136 8.521325 0.95443887 3.2347834 2.8278675 8.195853
1.6004614 -0.72281605 5.9858904 0.13819784 2.9161747 3.9809823 0.33860675 1.5548838
-1.256766 2.7888067 9.867243 -0.88774294 4.3724 2.0250115 -0.018925413 2.151444
2.5808048 7.7524967 7.2439184 9.146292 3.5107973 1.0743179 -0.16869299 4.6479306
-1.9780549 -1.2466964 -0.79040605 7.638813 -1.6781019 10.702814 2.215536 2.4356244
0.37423852 -1.0271897 -2.3859284 0.4316619 1.2853861 0.1354921 1.4072669 -0.5511916
2.533566 5.1539745 -0.07420785 -1.6758612 4.1213307 -0.5861314 0.10546775 7.2227597
0.38060018 0.26878852 -0.32924798 1.9867327 -4.525337 1.231006 -2.848752 1.1547982
-0.04659144 0.042329032 -0.044693302 0.056331433 0.06140663 0.03775666 0.013067543 0.057413023
0.04234999 -0.0324202 -0.08514692 -0.058450695 0.097445816 -0.008205874 -0.11905466 0.03335508
0.048782855 0.04384224 -0.06534369 0.004765108 -0.010365358 -0.2922795 -0.009832319 -0.12667039
0.13434981 0.08985737 -0.035901748 0.09776896 0.1879741 -0.08800661 -0.015162497 0.002421791
00000000: f6d6 063e 6521 06bd ed4a 92bc cfe9 3e3d
00000010: 43e6 e83c ab5f 4ebd 42a8 b5bd fb82 41bd
00000020: da3c 253d f367 963c c32a 8ebd d15a 9fbd
00000030: 968d 8cbd aff9 8c3c 1af8 b33e b8a5 1e3d
00000040: 2d04 52bc 286e 0e3e ec2e 01be 2914 c83c
00000050: c781 613d ca0d 203e 6fd9 b63b bdf4 69be
00000060: 7419 ef3e 9825 20bc 5bc6 a2b8 5449 d8bd
00000070: 7274 e63b 4b4b d0bc 7254 d4bc e077 75bd
00000080: 42e8 953f b230 4e3f b0e3 c4be b1fc 873f
00000090: 2c12 7d40 3c53 c2c0 e110 24c0 97f7 23bf
000000a0: 86cc 17c0 8145 15c0 b506 ddc0 35ce ce3f
000000b0: 5726 8140 8ab5 d4bf 49c6 84bf 536b 513f
000000c0: 0aee 51c0 7120 e7c0 991f c340 22f6 1cc0
000000d0: a475 5a40 47e1 a3be 75ef 34c0 4ed0 d0c0
000000e0: dd54 3f40 25ae 32c0 be1d 913f d6f8 b13d
000000f0: c17d 623f 1687 7dbf 5541 dcbe 2620 0f40
00000100: dbb5 ca40 60f3 1440 30f8 b740 d051 d740
00000110: 38ee 8640 5dd2 c440 c180 2d40 3bb0 2a41
00000120: ca18 b6c0 7c62 adc0 29fe a940 0041 c840
00000130: 2879 2f40 4c11 8840 ab32 b440 80cf 12c0
00000140: 39ce 8540 737b b040 8d90 52be 6c4a 92c0
00000150: f72c be40 caba 1641 022f 31c0 98cb 9b3e
00000160: 5fdb 3b41 89de 8e40 694b 5f40 1be0 1840
00000170: c6e5 4140 5d72 4840 812a 8bc0 5f12 ea40
00000180: a788 c7bf 2aba 603f 50db 84c0 9253 2440
00000190: cb0e 0a40 2729 443f 4669 ef3e 21f9 c9bf
000001a0: b3d2 5dc0 8e39 c0bf e3b8 cdbf 29f5 1e3d
000001b0: 97ba 41c0 cfa4 5b3f 3977 38be f686 113d
000001c0: e253 b3be 8000 bebf c1dd 4f40 885b 00bf
000001d0: 39dc 9f40 05f3 08c0 6f81 47bf 808d cf40
000001e0: 62bb 143f dc1a 2e40 9812 ebbe 2367 753f
000001f0: 42fd d63f 591d 94be c011 b43e 00ab 0d40
00000200: 608a f6bf 11b5 7f3f a1fb 2c3e 30a2 86bf
00000210: 1c62 4d3f bf95 38c0 b67e 47bf 408e b6bd
00000220: 29a4 993e 364f 01be 8844 19c0 d9d2 17c0
00000230: a4c5 4940 c38b 99be 48ef 31c0 9971 cbbd
00000240: 9043 81bf 40cc 0cc0 009f 92bf 0d57 1dbf
00000250: f126 95bf 1c96 6940 f1cb be3d 4e98 4cc0
00000260: ec14 8ebe 343d 56c0 65bd c4be a813 39bf
00000270: c050 8840 fa51 213e 3436 9bbe e3af febf
00000280: 9095 8640 f46b 8b3f 9e04 e340 5957 0841
00000290: 1b56 743f b106 4f40 c8fb 3440 3722 0341
000002a0: ebdb cc3f 790a 39bf 6a8c bf40 bc83 0d3e
000002b0: 9ba2 3a40 6ac8 7e40 dd5d ad3e 6f06 c73f
000002c0: b5dd a0bf cf7b 3240 3ae0 1d41 1f43 63bf
000002d0: b3ea 8b40 ca99 0140 7809 9bbc 42b1 0940
000002e0: e82b 2540 7414 f840 2ece e740 3657 1241
000002f0: e7b0 6040 4083 893f dbbd 2cbe d9bb 9440
00000300: e730 fdbf bf93 9fbf 0d58 4abf 2871 f440
00000310: 0bcc d6bf ba3e 2b41 58cb 0d40 45e1 1b40
00000320: 319c bf3e f47a 83bf 0db3 18c0 ca02 dd3e
00000330: 8887 a43f 71be 0a3e 5221 b43f e51a 0dbf
00000340: f225 2240 5ced a440 49fa 97bd 9f82 d6bf
00000350: f1e1 8340 b50c 16bf 7aff d73d d920 e740
00000360: 07de c23e a69e 893e 3193 a8be 424d fe3f
00000370: 90cf 90c0 9b91 9d3f f451 36c0 6dd0 933f
00000380: aad6 3ebd 3561 2d3d 5310 37bd cabb 663d
00000390: 8585 7b3d baa6 1a3d 3f19 563c eb29 6b3d
000003a0: 2f77 2d3d 0bcb 04bd 8261 aebd ff69 6fbd
000003b0: ac91 c73d ee71 06bc eed2 f3bd 569f 083d
000003c0: 88d0 473d ec93 333d ead2 85bd a024 9c3b
000003d0: 76d3 29bc a9a5 95be bc17 21bc e2b5 01be
000003e0: ff92 093e 2407 b83d b60d 13bd 183b c83d
000003f0: 487c 403e cf3c b4bd 1f6c 78bc e9b6 1e3b

bias f4 [16]
-0.01640837 -3.6694026 -8.860386 -2.1210535 -0.7472391 -14.801532 -1.7684278 0.0067273155
-4.4218493 0.021666842 0.0074224407 0.022696357 -8.181989 -1.2812272 -13.268867 -2.2413716
00000000: d96a 86bc 7ed7 6ac0 24c4 0dc1 57bf 07c0
00000010: 104b 3fbf 13d3 6cc1 d85b e2bf d070 dc3b
00000020: ca7f 8dc0 a97e b13c f237 f33b b6ed b93c
00000030: 6de9 02c1 41ff a3bf 474d 54c1 a272 0fc0

weight f4 [1, 16]
0.0005340038 -0.1284291 6.0768604 -0.18689324 0.24651708 0.41784817 0.20916368 4.5811852e-05
-1.1827012 0.00017367995 -0.00018661664 1.1723423e-05 3.410814 0.29280365 3.031564 -0.9615877
00000000: 63fc 0b3a eb82 03be a475 c240 f160 3fbe
00000010: f96e 7c3e 32f0 d53e 012f 563e 1a26 4038
00000020: c162 97bf db1d 3639 86ae 43b9 b8af 4437
00000030: c74a 5a40 5cea 953e 2505 4240 9d2a 76bf

weight f4 [1, 576]
-0.012578928 -0.00096798694 -0.004835633 0.0078121996 0.003103069 -0.003277171 0.0028903086 -0.0026273627
-0.0031582904 -0.012559979 0.011444275 -0.00064060197 -0.038330555 -0.0015874938 0.0006292034 0.0036590595
0.6418826 -0.0057318835 -0.02083669 -0.02311897 1.4360915 0.058819965 -0.23864119 -0.05115301
0.081826165 -1.0291464 -0.045793474 -0.008440405 0.008769348 0.38006124 0.26275387 -0.27367625
0.050943375 0.0074123656 -0.006984518 -0.6880317 1.3226987 0.28845719 0.06811207 -0.015380951
-0.0038095107 0.7104944 0.22506975 -0.014936544 -0.018459672 -0.07301422 0.026052706 0.019761235
-0.007117884 -0.0036687478 -0.0027326688 0.0004165996 -0.007487487 0.004567789 0.0008032536 0.00074298034
-0.008434546 0.004320875 0.0066783153 0.0016817873 0.0005625313 -0.0069447127 0.0033695695 0.22056685
0.030300094 -0.06298941 -0.29759976 0.9865937 -0.49940285 -0.024062699 0.08138851 -0.01982097
0.028331775 -0.36401442 -0.69227433 0.8130724 4.262015 0.21568409 1.351488 0.18872851
0.085333295 -0.114311494 -0.010816412 0.21619982 -0.13680843 -0.0011588614 -0.011906318 0.0020925354
0.03447169 0.7931055 -0.9825382 -0.00077521405 -0.8719145 -0.110321335 0.75778466 0.028535096
0.0075772624 0.0016849085 -0.00060223264 0.001929208 0.0010107864 -0.0010763797 -0.0020276501 0.003375473
-0.0028721534 -8.860125e-05 -0.030839067 -0.0018785729 8.4930216e-05 -0.12114992 -0.00042218005 -0.0011555507
-0.041835245 0.69972926 -0.030029036 -0.4872386 0.55964315 -0.005852433 -0.030177489 0.005333266
-0.03554586 1.6152227 1.2943517 0.0351966 -0.054930326 -0.04773349 -0.9263059 -0.3382818
0.029314348 0.53553104 -0.064966686 0.024621101 -0.6782434 -0.02121698 0.019379696 0.6200225
-0.84059227 0.73148155 -0.00885986 0.3858308 5.177721 -0.01795014 -0.012472327 0.17870057
-0.005647107 0.0010117122 0.002602314 -0.0014847479 0.010736354 0.0032054924 -0.0011197212 0.00057529553
0.0014801879 -0.007022761 -0.0032154263 0.0008920267 -0.003860993 -0.009456532 0.0007579018 0.00974177
1.5257193 -0.015140636 -0.033338495 -0.024125399 -0.11763413 0.18987188 -0.08171214 -0.050418828
-0.033637475 -0.0104534235 -0.54295367 -0.018372675 -0.006858111 -0.11249703 0.17251198 -0.040441267
-0.5848962 0.14907557 -0.03174009 0.79545116 2.392689 -0.01326684 -0.010125985 0.023241723
-0.0045675165 0.06051923 0.019559411 0.005173878 -1.6976764 -0.22244275 -0.021000514 -0.03225322
-0.0114255985 0.00237542 8.066071e-06 -0.0016757668 0.0053014974 0.0012227872 0.059035983 0.0022857417
0.0002203319 0.00066093926 0.0024357298 0.0013611823 -0.017304411 -0.004389143 0.003982299 0.05358843
0.052613053 0.27884775 -0.15875848 0.011176677 -0.36304218 -0.03805946 -1.4426091 0.022490585
-0.028242035 -0.66571003 0.25059277 0.009835665 -0.0047681336 -0.08684913 0.11442798 -0.06424274
-0.26396692 -0.1205545 0.004972394 0.021261932 -0.02133672 0.011473922 0.010735392 0.042698193
-0.02714149 -0.011916209 -0.008179607 -0.010317135 0.25513828 3.8866467e-05 1.242697 -0.0423083
-0.007674999 0.0036850688 0.0015505169 -0.0037073942 -0.00573295 -0.000730259 0.0030329162 5.927648e-05
0.0026923674 0.11221706 0.2620904 -0.16307577 -0.00080990273 -0.0044627497 -0.0023807576 -0.0046370346
00000000: d917 4ebc 81c0 7dba 3b74 9ebb 7bfd ff3b
00000010: dc5c 4b3b cec5 56bb 556b 3d3b d52f 2cbb
00000020: 52fb 4ebb 5fc8 4dbc c580 3b3c 12ee 27ba
00000030: 8000 1dbd 7413 d0ba 20f1 243a d5cc 6f3b
00000040: 6b52 243f 86d2 bbbb b5b1 aabc ff63 bdbc
00000050: d9d1 b73f 34ed 703d 5b5e 74be d285 51bd
00000060: 7a94 a73d 12bb 83bf f091 3bbd a049 0abc
00000070: 50ad 0f3c 6397 c23e ad87 863e 4b1f 8cbe
00000080: 00aa 503d 6ee3 f23b 62de e4bb d822 30bf
00000090: 314e a93f a9b0 933e 577e 8b3d 6200 7cbc
000000a0: fca8 79bb f6e2 353f af78 663e 68b8 74bc
000000b0: bd38 97bc 7b88 95bd 7c6c d53c 50e2 a13c
000000c0: 233d e9bb 606f 70bb 9316 33bb 0d6b da39
000000d0: 9859 f5bb 64ad 953b 7091 523a 91c4 423a
000000e0: 0d31 0abc 2096 8d3b c5d5 da3b 6b6f dc3a
000000f0: d676 133a 7990 e3bb ffd3 5c3b 47dc 613e
00000100: e737 f83c 9700 81bd ff5e 98be 6891 7c3f
00000110: bbb1 ffbe 231f c5bc 05af a63d 965f a2bc
00000120: 0a18 e83c 1960 babe e438 31bf 8325 503f
00000130: 6d62 8840 4adc 5c3e 8ffd ac3f 0c42 413e
00000140: 39c3 ae3d 251c eabd 5237 31bc 7c63 5d3e
00000150: 8217 0cbe f0e4 97ba b812 43bc eb22 093b
00000160: 3032 0d3d f608 4b3f a087 7bbf bc37 4bba
00000170: ca35 5fbf 27f0 e1bd 2dfe 413f 6fc2 e93c
00000180: af4a f83b 26d8 dc3a 26df 1dba 7bdd fc3a
00000190: 5d7c 843a 4f15 8dba 53e2 04bb 0a37 5d3b
000001a0: bd3a 3cbb 6fcf b9b8 36a2 fcbc 723a f6ba
000001b0: 901c b238 731d f8bd 0c58 ddb9 d975 97ba
000001c0: 6f5b 2bbd 7521 333f 74ff f5bc 5677 f9be
000001d0: c644 0f3f c4c5 bfbb c836 f7bc aec2 ae3b
000001e0: 8998 11bd 9ebf ce3f 51ad a53f 4f2a 103d
000001f0: 9ffe 60bd 3184 43bd 6222 6dbf 4633 adbe
00000200: a524 f03c 9018 093f 410d 85bd 31b2 c93c
00000210: 5ca1 2dbf 3bcf adbc 2bc2 9e3c cbb9 1e3f
00000220: 0e31 57bf 6042 3b3f f228 11bc 9d8b c53e
00000230: e4af a540 2c0c 93bc bb58 4cbc 48fd 363e
00000240: 5e0b b9bb 6e9b 843a 968b 2a3b df9b c2ba
00000250: 88e7 2f3c 3d13 523b 9cc3 92ba 6ecf 163a
00000260: dd02 c23a 301f e6bb e7b9 52bb e6d6 693a
00000270: b708 7dbb 92ef 1abc eead 463a f29b 1f3c
00000280: c54a c33f 6e10 78bc f28d 08bd a1a2 c5bc
00000290: 2aea f0bd c66d 423e b258 a7bd f983 4ebd
000002a0: 73c7 09bd d644 2bbc 03ff 0abf 4b82 96bc
000002b0: 01ba e0bb d864 e6bd fba6 303e bea5 25bd
000002c0: c2bb 15bf 44a7 183e e601 02bd b0a2 4b3f
000002d0: d121 1940 295d 59bc 76e7 25bc 6d65 be3c
000002e0: 1bab 95bb 03e3 773d 0f3b a03c a289 a93b
000002f0: 764d d9bf 08c8 63be 4509 acbc f41b 04bd
00000300: 6f32 3bbc efac 1b3b 8353 0737 67a5 dbba
00000310: 2fb8 ad3b ee45 a03a b7cf 713d 62cc 153b
00000320: e508 6739 e242 2d3a c4a0 1f3b b369 b23a
00000330: fbc1 8dbc cdd2 8fbb f27d 823b 8b7f 5b3d
00000340: c980 573d 22c5 8e3e 9591 22be 621e 373c
00000350: aae0 b9be 3de4 1bbd 6aa7 b8bf 2d3e b83c
00000360: d75b e7bc f96b 2abf b24d 803e c525 213c
00000370: 013e 9cbb f5dd b1bd 3759 ea3d b391 83bd
00000380: ac26 87be 47e5 f6bd 77ef a23b 812d ae3c
00000390: 58ca aebc 1efd 3b3c 7fe3 2f3c 4de4 2e3d
000003a0: d457 debc 343c 43bc c203 06bc 3309 29bc
000003b0: 7ca1 823e 8d04 2338 b210 9f3f 784b 2dbd
000003c0: 8f7e fbbb 3281 713b b73a cb3a c1f7 72bb
000003d0: 78db bbbb da6e 3fba e4c3 463b a39f 7838
000003e0: 6e72 303b 0fd2 e53d b730 863e 56fd 26be
000003f0: a74f 54ba 423c 92bb 7c06 1cbb 44f2 97bb
