MLIPs/CACE-LES/Au-MgO-Al/cace-r-5.5-nl-1-nu-2/checkpoint.pt (torch, 298146 bytes, 36 tensors)

representation.node_embedding_sender.embedding_weights f4 [4, 4]
000000 53 de d5 3e f9 68 fa 3e fa 34 37 3c 57 76 a7 3e
       0.41771182 0.48908213 0.011182064 0.32707474
000010 12 7b 97 be 51 49 bd be 38 27 9a be 74 16 a9 3e
       -0.29586083 -0.36969998 -0.30108047 0.33024943
000020 43 56 74 3f 83 d4 16 c0 35 55 5f 3e e7 9f d0 3e
       0.95444125 -2.3567207 0.21809848 0.40746996
000030 10 5d 8c 3f 55 da af 3e 30 6f 53 bf 49 11 e8 bd
       1.09659 0.34346262 -0.82591534 -0.11331422

representation.node_embedding_receiver.embedding_weights f4 [4, 4]
000000 bc 65 5a 3b d5 3e 01 3e f8 6f 52 3b 58 ac 25 3e
       0.0033324799 0.12621625 0.0032110196 0.16179025
000010 40 60 a5 bb 41 ec 8e 3a 2c 33 09 be a7 9f 1e 3e
       -0.0050468743 0.0010904149 -0.13398427 0.1549059
000020 34 0d d3 bb 74 e9 2c 3a aa ec 38 3e 25 75 07 bd
       -0.006440783 0.00065960665 0.1805903 -0.033070702
000030 2e df 9d 3e e2 d5 8d bc 89 7f 53 3c 9f c2 69 bc
       0.30834335 -0.017313901 0.012908825 -0.014267593

representation.radial_basis.bessel_weights f4 [6]
000000 23 bd 97 3e 4c 20 7c 3f 4f 9c c2 3f 01 04 06 40
       0.29636487 0.9848678 1.5203952 2.0939944
000010 71 9b 2b 40 a6 fe 55 40
       2.6813624 3.3436675

representation.radial_transform.weights.0 f4 [6, 12, 16]
000000 71 5b 33 3d 43 65 16 bc 20 41 df 3c ed 37 f8 bb
       0.043788377 -0.009179416 0.027252734 -0.0075750262
000010 02 22 00 bd ca 26 6b bb c6 a7 e0 bb fd 1a 47 3c
       -0.031282432 -0.0035881274 -0.0068559377 0.012152431
000020 11 de 20 3d 55 6f bd 3f 67 c9 1f 3e c8 c6 9d 3b
       0.03927428 1.4799601 0.15604173 0.0048149563
000030 f7 fa 5e 3d ee 83 87 bb 8f dd 10 3d 4a 85 c2 bc
       0.054438557 -0.0041356003 0.035367545 -0.023745198
000040 3f f9 1e 3c 96 92 9f bc 2c 99 2e bc 64 49 79 3c
       0.00970298 -0.019479077 -0.010656636 0.015215252
000050 a9 ec e0 3c 51 17 2d bc 7c e2 35 bb b8 2a 34 3c
       0.027456598 -0.010564641 -0.0027753403 0.010996513
000060 17 cf aa 3d 0e ab f8 3b e3 0b 06 3e cc a4 88 3b
       0.083402805 0.0075887507 0.13090472 0.004170036
000070 3b 0c ca bc 25 6a 38 3c e2 72 f7 3c 33 62 6e 3f
       -0.024664035 0.011255776 0.030206148 0.9311859
000080 d0 5a 8d 3b b6 0e 92 bc be 24 fd bc f0 1f 4a bb
       0.004313804 -0.01782928 -0.03090131 -0.003084179
000090 6b 92 92 3c 13 e1 c3 bc bb a0 84 3d ea ad ef 3a
       0.017892083 -0.023911035 0.064759694 0.0018286083
0000a0 88 00 17 3e f0 74 50 3c b4 11 1c ba 68 2d 00 ba
       0.14746296 0.012723193 -0.00059535657 -0.00048895786
0000b0 4c 08 90 bc 2c 53 21 be 4a 29 88 3c 6d ed 1c 3d
       -0.017582081 -0.15754384 0.01662125 0.038312364
0000c0 23 80 30 3d 65 af 68 bb de 13 a9 3c da 1e a9 3a
       0.04309095 -0.0035504934 0.020639356 0.0012902871
0000d0 a7 1b 41 bd d0 ba 30 bc f7 17 0a 3d 08 a0 d7 3c
       -0.047145512 -0.010786727 0.03371426 0.026321426
0000e0 7d 59 98 3d 1a 8e d1 bc b3 55 19 3e 1c d7 25 39
       0.074389435 -0.025580455 0.14974098 0.0001581576
0000f0 f4 ef a0 bc b5 46 c8 b9 c2 20 78 3c 74 42 75 bf
       -0.019645669 -0.00038199653 0.015144529 -0.95804524
000100 d4 7e cb 3b f6 7d b0 3b aa 30 9c 3a 85 8d 91 bb
       0.0062101875 0.0053861095 0.0011916358 -0.0044419193
000110 c7 6f 2d bd c5 1f 01 3b ea cd 37 c0 91 46 5b 3c
       -0.042342927 0.0019702774 -2.871943 0.013383524
000120 e7 2f 16 3d cc b8 dd bb 1e a4 45 3e ce ee 34 bb
       0.036666777 -0.0067664143 0.19300887 -0.002760816
000130 03 8c 58 3c 5b 74 f4 3b 8a 7b 09 3d de e0 a2 be
       0.013216975 0.0074601597 0.03356508 -0.31812185
000140 ef de b0 3c e8 3a 2e bb ed ca 4f 3a 51 c4 b3 ba
       0.021590678 -0.0026585404 0.00079266616 -0.0013715123
000150 3c 7b 05 bd ac 5f 08 bd c9 7c 83 bc 25 ae 0f bb
       -0.03258823 -0.033294365 -0.016050713 -0.0021923867
000160 00 65 1e 3d 0c 9a f1 bf 26 f1 19 40 f0 9c 99 bd
       0.03867054 -1.8875136 2.4053435 -0.075006366
000170 2d 1b 2b bc 1a b1 c0 3b 57 e4 e2 3a d5 3f 8a bc
       -0.010443491 0.005880487 0.0017310482 -0.01687614
000180 a3 26 2e bd bc f8 17 bc bd 30 3c bc e7 e3 40 bc
       -0.042517316 -0.0092756115 -0.0114862295 -0.011773086
000190 f8 ec 76 3c 18 1b 93 3c ed b1 80 bc 42 d0 07 3a
       0.015071146 0.017957255 -0.015709842 0.0005180874
0001a0 8c b5 8c bd 5b 5b c5 3c 45 e1 71 3e 25 3f f9 bb
       -0.06870565 0.024091413 0.2362109 -0.0076064044
0001b0 9b 14 38 3b 3f d8 6e bd 65 a4 ef 3c de 2a 9f 3d
       0.0028088454 -0.058311697 0.029253194 0.07771848
0001c0 c1 c9 b2 bd 62 6f 86 bb cb 9e 23 bc 6e b1 4f 3a
       -0.08729888 -0.0041026333 -0.00998659 0.00079228624
0001d0 68 d3 2d 3d 03 d3 0e 3b 88 44 00 3d 84 1c 69 bc
       0.04243794 0.0021793253 0.031315356 -0.01422799
0001e0 20 ec 98 bd 30 d7 16 bd 16 c3 a4 3e e3 ba 00 ba
       -0.07466912 -0.036826313 0.3218009 -0.0004910661
0001f0 9f 21 e5 3c c2 c6 cb 3d 24 47 d7 3b 11 12 8d 3f
       0.027970133 0.099500194 0.00656976 1.1021138
000200 27 b3 1a bd 4f a6 dc 3b 55 ae 8f 3c 4f fd db 3b
       -0.03776851 0.0067336927 0.017539183 0.0067135463
000210 2c 60 a2 bb 01 e2 38 3c 00 68 cd bf 85 8d d0 3f
       -0.0049553122 0.011284352 -1.6047363 1.6293188
000220 15 e4 ec 3d e5 b5 b2 3c 49 01 98 3f 0b a0 fb 3a
       0.11566941 0.02181525 1.1875392 0.0019197477
000230 15 48 25 bc b3 14 9d 3c 9c 69 1c 3e 9c 33 94 39
       -0.0100879865 0.01917491 0.15274662 0.00028267212
000240 2e 9d 55 3c 6a e7 48 3c 6a 78 bc bb 18 d0 6c bb
       0.013037963 0.012262205 -0.005751659 -0.0036134776
000250 ca 4b 89 3d c6 0d 2b 3c 8b 99 07 3d 78 9d 99 3a
       0.06703909 0.010440296 0.033105414 0.0011719903
000260 62 9b 08 3e 1e cf 5c bd 50 19 51 3e cf 8d 6e bb
       0.13340524 -0.05390846 0.20419812 -0.0036400442
000270 ca 04 7c bc 4c 51 ca 3c fd af 59 3f f9 40 71 3c
       -0.015382001 0.024696968 0.8503416 0.014724963
000280 06 66 24 3c 36 91 e4 3f 81 ea cd 3c eb bf 0e bc
       0.01003409 1.7856815 0.025136234 -0.008712749
000290 dc dc 9a 3d 2b dd 7e 3c 26 f6 e7 bc 21 02 8c bb
       0.07561657 0.01555566 -0.028315615 -0.0042727147
0002a0 03 8c 1a 3e 6e 60 0c 3b d9 a8 58 3e 3d 45 25 bb
       0.15092473 0.0021419781 0.2115816 -0.0025218271
0002b0 9f 19 8e bc e4 e6 0d bd 55 f7 fd 3b e2 0a 41 bd
       -0.017346201 -0.034644023 0.0077504315 -0.04712952
0002c0 8e 57 fd bb b2 bc 38 be e0 e3 4a bd c0 13 f1 bb
       -0.0077313846 -0.18040732 -0.049533725 -0.0073570907
0002d0 32 2c 4d bb 8d 23 bc 3b 70 bb 80 bf fe 8b 31 3c
       -0.003130686 0.0057415427 -1.0057201 0.010836599
0002e0 49 7f 79 3d a7 2c 4b bc b6 e4 80 3e e4 5c a6 bb
       0.060912404 -0.012400783 0.25174493 -0.0050769914
0002f0 fe f3 b2 3a 1d 1a 0f bc 42 87 0a 3d 93 54 1a 3c
       0.0013653038 -0.008734253 0.0338204 0.009419578
000300 12 cc e0 bb ff 0e 28 3d 4d ca b9 bb d0 75 b2 bc
       -0.0068602646 0.041029926 -0.005669868 -0.021784693
000310 92 e3 77 3d 63 04 15 bd a0 3c 4c 3c 00 37 5b 3d
       0.060519762 -0.036381137 0.012465626 0.05351925
000320 81 08 54 3e ee 21 84 3f d7 ee d8 bd 13 7d db bb
       0.20706369 1.0322855 -0.1059243 -0.0066982596
000330 d4 94 0d 3f 18 f6 e8 3d 0c c1 e9 3d eb 3c 6f 3e
       0.5530522 0.11375064 0.11413774 0.23363082
000340 46 5e 28 3d c5 e5 c8 3d d9 45 6a bc 01 61 ea 3c
       0.04110553 0.0980945 -0.01429888 0.028610708
000350 7e b9 7b 3c fc 7a aa bd 94 64 25 3d 25 b6 2f 3d
       0.015364049 -0.08324239 0.040379122 0.042898316
000360 f6 c3 0d 3e 78 d0 d3 3c d8 26 55 3e fa b4 30 3c
       0.13844284 0.025856242 0.20815599 0.010785336
000370 94 69 af 3d c5 d9 19 3e e0 fc ae 3d 94 38 20 3f
       0.08565059 0.15024479 0.08544326 0.6258633
000380 06 af 67 bd 82 cf f8 3d dd 0c 23 3d 66 96 b3 3c
       -0.0565634 0.12148954 0.03980719 0.021922302
000390 4d af a2 bc 20 ae 72 bd 0b 02 4d 3e d2 86 0e 3d
       -0.01985898 -0.05924809 0.2002031 0.034796543
0003a0 0e f1 fe 3e 5b 43 d6 bb 95 92 30 40 da b5 94 3b
       0.49793285 -0.006538791 2.7589467 0.00453828
0003b0 f2 ee 86 bc 7f 3a d7 be 90 96 be bc 41 6d bb bd
       -0.01647136 -0.42036816 -0.023265153 -0.09151698
0003c0 e1 86 a7 3d bd bd 87 3d 66 56 69 3a aa 79 8b 3c
       0.08180023 0.066279866 0.0008901119 0.017025787
0003d0 9e 30 9f 39 e7 c8 b7 bd 2d e3 01 3d cf 82 9e 3d
       0.00030363066 -0.08973866 0.031710792 0.077397935
0003e0 37 4e a9 3e 28 f3 54 3c ca 36 c4 3d 11 87 50 3b
       0.33067486 0.012997426 0.09580763 0.0031818787
0003f0 92 e0 91 3d 57 70 f0 3d 07 f2 40 bc f2 3e 14 40
       0.071229115 0.11740177 -0.011776454 2.3163419

representation.radial_transform.weights.1 f4 [6, 12, 16]
000000 ff 34 77 be 0c e8 c7 bc 24 19 d8 3e 94 6b 5b 3c
       -0.2414131 -0.02440264 0.4220668 0.013392348
000010 06 5c 7f be f5 8c 42 c0 12 3f 80 3c b0 d8 05 3f
       -0.24937448 -3.0398533 0.015655074 0.52283764
000020 27 42 80 3e 26 bc e7 40 82 6d 20 41 0b 66 0d 3d
       0.2505047 7.2417173 10.026735 0.034521144
000030 7a ea a8 3d 17 e2 19 bf c5 26 53 3f 79 81 a2 3f
       0.08247848 -0.6011061 0.8248103 1.2695762
000040 63 2a 0f be 28 c9 0c bd 3e 8f b8 3f 48 56 94 40
       -0.13981013 -0.034371525 1.4418714 4.6355324
000050 2b a2 5d c0 54 8e b9 3c f1 f0 ce 40 de 44 3c c1
       -3.463023 0.022650875 6.466912 -11.766813
000060 f1 59 bf 3e 6c f7 ce c0 03 f9 00 40 fa 94 93 bf
       0.37373307 -6.467703 2.0151985 -1.1529839
000070 54 f5 1d 40 09 99 46 40 a6 de 92 40 b6 27 01 c0
       2.4680986 3.1030905 4.589679 -2.0180488
000080 3d 9f 0a bd 33 e9 52 40 9b 04 14 3d 50 1f a7 40
       -0.033843268 3.2954834 0.036137205 5.2225723
000090 83 94 b3 40 b6 f9 8b 3d 2f ae cb 3d 0c e8 99 40
       5.611879 0.06834738 0.09945332 4.809576
0000a0 a3 55 6b 3d 93 78 40 40 17 a3 37 bf 04 ea 24 bc
       0.057454716 3.0073593 -0.7173323 -0.010065559
0000b0 d9 98 da bc ee 66 22 3e a6 08 60 40 c0 44 87 3f
       -0.026684212 0.15859577 3.5005279 1.0567856
0000c0 ab 3b 88 40 dd da d2 3c 5a b0 0a 3d 08 87 25 3c
       4.2572837 0.025739128 0.03385959 0.010102995
0000d0 32 98 f9 3f cc 75 1a 41 26 aa 0c 3d 4c 14 a2 40
       1.9499571 9.653759 0.034341954 5.0649776
0000e0 6a 29 ea 3d 03 f5 03 bc ec 13 80 40 a6 07 ac 3c
       0.1143368 -0.008054021 4.002432 0.02099974
0000f0 6a 86 38 bd 07 38 28 3d 5c fb 27 c0 73 f6 e0 bf
       -0.045050062 0.041069057 -2.6247168 -1.757521
000100 c0 e8 8d be 7f 56 79 41 b9 6b db c0 8f ba c5 ba
       -0.27716637 15.583617 -6.8568997 -0.0015085506
000110 3a 36 8f 3f 43 82 de 3d 58 59 bb c0 07 32 48 3e
       1.1188424 0.10864689 -5.854656 0.19550334
000120 cf b7 89 3e 53 97 1d 41 83 e4 f3 c0 e4 8a 9f 3b
       0.26898047 9.849444 -7.6216445 0.004868852
000130 46 92 b6 3f f3 cc ad be 6c ba 95 3e 45 bd af 40
       1.4263389 -0.33945426 0.2924379 5.491854
000140 ba fa 68 bd cb 44 50 3d d5 8b bf 40 f1 13 09 3d
       -0.056879736 0.050846856 5.9858193 0.033466283
000150 7f 58 0b 41 38 cd b7 40 72 32 2d 41 a4 85 a1 3e
       8.7091055 5.743801 10.824816 0.31547272
000160 2e 7a 36 c0 5f 5e 85 bd 01 77 b7 c0 fe 2c dc bc
       -2.8512073 -0.065121405 -5.733277 -0.026876923
000170 a7 e1 10 bd 45 44 b1 3e dd 21 2f 3e 1d c1 3d 40
       -0.03537145 0.34622398 0.17102762 2.9649117
000180 16 b2 bd 3e d5 52 73 40 2d 96 c4 40 6b 82 86 be
       0.3704993 3.8019307 6.143332 -0.26271376
000190 d9 6b c5 3d f7 06 0b 3e 8e d2 9e 3e 0c 09 bd 40
       0.09639711 0.13576876 0.31020015 5.9073544
0001a0 0f 55 1d 3f 31 c7 4f 3c a5 c0 cc 3f 83 f9 b3 3c
       0.61457914 0.012681768 1.599629 0.021969562
0001b0 0e 26 92 bc b9 a6 78 40 39 1f 0a 3f 45 30 c2 3f
       -0.017840412 3.885176 0.5395389 1.5170981
0001c0 51 93 05 3e a9 ed 16 40 ac 94 41 3e 6a 6e 86 41
       0.13044478 2.3582556 0.1890437 16.803913
0001d0 47 b8 04 41 f7 4b 2e 40 11 67 17 41 39 25 85 40
       8.29499 2.7233865 9.462663 4.160794
0001e0 09 d4 1a 40 7a 56 06 c0 71 70 08 41 58 e8 26 3f
       2.4191916 -2.099028 8.5274515 0.6519828
0001f0 f8 24 a4 3f c7 36 b5 c0 37 ae a6 bf b3 3e ba 40
       1.2823782 -5.6629367 -1.3021916 5.8201537
000200 95 a3 2d bc a7 f1 5c bc 2e 34 a0 bb 18 3e c2 3f
       -0.010598083 -0.013485349 -0.004889033 1.51752
000210 2f 1c 15 bc 5e 7a f2 c0 df 13 67 3e ff a3 08 3f
       -0.009100958 -7.5774374 0.22566174 0.5337524
000220 7b 11 0d 3e 57 65 07 c1 38 ad 61 40 dd bc 7d 40
       0.137762 -8.462241 3.5261974 3.9646523
000230 88 0a 46 40 5d a1 92 bf 9e d8 10 c0 32 37 81 bf
       3.0943928 -1.1455494 -2.2632213 -1.0094969
000240 01 bb 19 be de e1 f2 40 df dd 8e 40 61 3c 22 40
       -0.15012743 7.5900717 4.464584 2.5349352
000250 6c 13 cd 3e 60 c8 57 c1 4f 46 b7 40 4a 8a a1 3e
       0.4005388 -13.48642 5.7273326 0.3155082
000260 3c 97 a2 3d 6a 2e b4 40 fd 59 ee c0 5a a9 18 c1
       0.07939002 5.630666 -7.448485 -9.541346
000270 8d 94 d0 3c 16 b1 a3 3c 87 72 1d 3e 6d 12 23 c0
       0.02546146 0.019981902 0.1537572 -2.5479996
000280 75 01 9f 3d a0 fc cf c0 9f a7 63 3d a2 1e f5 40
       0.0776395 -6.499588 0.055579778 7.6599894
000290 25 34 6f bf 1d 46 b2 3d a4 6c 97 3e 2d 78 2e 41
       -0.9343894 0.08704779 0.29575074 10.90434
0002a0 76 af 1e 3e 6c 2c 4a bd 14 c4 c9 c0 75 f1 ce ba
       0.1549662 -0.04935877 -6.3051853 -0.0015788513
0002b0 a6 81 f0 bd 87 27 ab bd 34 06 09 3f 1a a6 dc 3d
       -0.117434785 -0.083571486 0.5352509 0.10773869
0002c0 0e 20 af 3d f8 bd 88 3d 18 7f c7 3e 81 3a 35 bc
       0.08551036 0.06676859 0.38964152 -0.011061312
0002d0 11 fc 26 3d 5d c5 bc bf 8e f3 c8 3f 6a ed f3 3b
       0.040767733 -1.474773 1.5699327 0.0074440734
0002e0 ed 34 0a be 66 0c 6b bf df ee 5c c1 60 3c e2 3f
       -0.13496752 -0.91815794 -13.808318 1.7674675
0002f0 45 42 f6 3f 26 35 6d bf f4 73 61 3f c8 25 ef bf
       1.9238974 -0.92659223 0.88067555 -1.8683405
000300 10 b8 e7 bf a7 5f 2b 3c 5d 64 e2 3e fb e6 00 bd
       -1.8103046 0.010459817 0.44217196 -0.03147028
000310 ff 94 0f 3f bb c4 b4 40 4b cf de 3e 17 ea 8c 3f
       0.56086725 5.649015 0.43517527 1.1008939
000320 b6 e3 8e 3f 30 a1 71 40 9a 8b e1 c0 0f 83 09 3c
       1.1163242 3.775463 -7.048291 0.008393063
000330 e0 d6 cd 3d 76 84 8b 40 42 bc af 3f dc 77 a2 40
       0.1005075 4.3599195 1.3729327 5.0771313
000340 d6 e8 51 3f 21 0d 2f bc 37 69 0c 3f 43 75 f5 3e
       0.81995904 -0.0106842825 0.54848045 0.47941026
000350 89 2a b5 40 99 5f 39 3e 55 2d b0 bf d1 1b 10 41
       5.6614423 0.18102874 -1.3763834 9.006791
000360 c0 be 2b 3f 9c 61 59 40 0d d5 03 c1 2c e5 46 40
       0.67087936 3.3965826 -8.239514 3.1077375
000370 40 8c bc 40 da f8 b2 3f 2f bb 63 bf 59 0c b1 40
       5.8921204 1.3982193 -0.88957494 5.5327573
000380 fd 73 98 3e 6d 1e e4 bf 05 51 46 3e 75 c3 e6 c0
       0.29775992 -1.7821785 0.19366844 -7.2113595
000390 68 78 0e bf 9c 4d 40 3e 80 7d 92 3e 94 32 87 c0
       -0.55652475 0.18779606 0.28611374 -4.224924
0003a0 54 c4 97 3e 8f fd b7 40 f4 af 1c c1 f9 d8 25 bc
       0.29641974 5.749702 -9.792957 -0.010122531
0003b0 82 3a 17 bd 5b f1 87 3f 2d 93 76 40 9b dd 93 40
       -0.03692103 1.0620531 3.852733 4.6208014
0003c0 d8 50 5f 40 be 7d 0c bc fe 51 b4 3c 5c de 18 3d
       3.4893093 -0.008574901 0.022011753 0.037321433
0003d0 a9 2f 9a bf 43 48 81 c0 ff d7 6f 3e a8 01 05 c1
       -1.2045795 -4.040071 0.2342224 -8.312904
0003e0 01 73 c7 3e 60 d8 88 3b b3 89 09 c1 29 a1 d2 bc
       0.3895493 0.0041761845 -8.596118 -0.025711613
0003f0 db 32 94 3e eb 9c 88 3f e2 a0 bb 40 91 e3 b2 40
       0.2894505 1.0672888 5.863389 5.590279

representation.radial_transform.weights.2 f4 [6, 12, 16]
000000 8e b0 d6 3d a9 16 ef 3e 13 d4 b8 3d 55 e8 d6 40
       0.10482894 0.46696976 0.09024825 6.715861
000010 a2 e4 5d 3f bc 03 f0 40 3a 7d 57 40 30 18 ac 3d
       0.8667699 7.500456 3.3670182 0.08403051
000020 67 ee 35 be c7 02 51 40 a2 57 61 40 e8 d6 68 ba
       -0.17766725 3.2657945 3.5209737 -0.0008882121
000030 6b 5f 08 3e a4 c6 54 3e 47 26 21 3e 1c 87 83 3d
       0.13317649 0.207789 0.15737258 0.064222544
000040 f4 b2 8f 3f 29 1b 85 bf 48 dc db 3d e0 15 94 40
       1.1226487 -1.0398914 0.10735375 4.6276703
000050 0f f5 4c be 4b bc 81 3d ce 56 ae 3d c0 29 2a 3a
       -0.20015357 0.06334742 0.085126504 0.00064912066
000060 59 01 fa 3e ad b4 1d 40 ae a6 d9 be ce 87 92 3a
       0.48829153 2.4641526 -0.4250998 0.0011179389
000070 63 7c 79 bf 86 d5 05 40 0e 8f 9a 3f 73 73 48 3e
       -0.97455424 2.0911574 1.2074907 0.1957529
000080 ce 3d 91 3e 10 9b 36 3f c5 b8 ec 3f 12 49 33 3f
       0.28367466 0.71330357 1.8493887 0.7003337
000090 b1 e4 b2 40 eb 26 92 3d 8e 6d 6d 3d 30 b8 c9 40
       5.5904164 0.07136329 0.057965808 6.303734
0000a0 80 dd 7b 40 85 e6 7c 40 a3 6e a6 3e 50 4e 2d 40
       3.9353943 3.9515698 0.32506284 2.7079048
0000b0 73 e3 39 40 c5 e8 31 3d 51 81 58 3d 05 20 10 be
       2.9045074 0.043434877 0.0528577 -0.14074714
0000c0 89 f4 a1 40 f1 36 de c0 05 f1 3c c0 ee 54 bd 3f
       5.0611005 -6.9442067 -2.9522107 1.4791543
0000d0 df ad e4 40 f2 9e 6c 3d 0b bb a6 3d f4 2e df 3c
       7.1462245 0.05776877 0.08141144 0.027244069
0000e0 22 d4 6b be a1 ff 93 3c ed b5 03 3f 0d 77 e0 bb
       -0.23030141 0.01806623 0.5144947 -0.0068501295
0000f0 44 ea 2f 40 e8 01 8b 3f a3 85 c8 3d 9d 90 ae 3c
       2.7486734 1.0859957 0.09791114 0.021309191
000100 1e 48 4d 40 f5 a2 b6 40 bd 6c df 3d a7 62 a8 3e
       3.2075267 5.707392 0.10909412 0.32887766
000110 c6 5c 7a 3c 5f 0f 00 3e 25 af e3 3d 2a 67 a2 3d
       0.015280908 0.12505864 0.111173905 0.07929833
000120 48 bf 0a 3e 3a 11 84 3d 30 5c 16 3e e4 7e c1 bb
       0.1354953 0.06448598 0.14683604 -0.005905019
000130 88 7d 2b bc 1f 2f d7 3d ef 02 2b bf e4 42 2e be
       -0.010466941 0.105070345 -0.6680135 -0.17017704
000140 ef c3 52 40 02 ab b9 bc 83 c5 b5 3d 89 db 9e 3b
       3.2932088 -0.02266455 0.08875563 0.004847948
000150 66 6d 2d bd 60 0a 0d 41 ab 16 0f c0 ae 66 c9 40
       -0.04234066 8.815033 -2.2357585 6.293784
000160 89 90 fb 3d c4 3d 3e 3f 4d d7 23 c0 a0 ee 72 c0
       0.12283427 0.74312997 -2.560016 -3.7958145
000170 e1 b4 0b bc c1 a7 6c 3e fd 1f de 3d 9e 9e 9f 3c
       -0.008527012 0.23110868 0.10845945 0.019484814
000180 32 7c aa be 16 85 e2 b9 d0 ee fa 3c a6 4c 09 3e
       -0.33297879 -0.00043205236 0.030631453 0.13408145
000190 7a fb cf bb d5 c7 15 40 8b 0c ba 40 48 46 1d 41
       -0.006347117 2.3403218 5.814031 9.8296585
0001a0 be 1f 14 3f 73 66 62 3b ab e9 33 c0 76 a2 75 b9
       0.57860935 0.0034545928 -2.811137 -0.00023425542
0001b0 95 21 96 3c aa 99 17 c0 2e d9 5b 3e 4b ff 6e bf
       0.01832656 -2.368754 0.21469566 -0.93358296
0001c0 af 71 25 3e 70 aa 3c bc 59 ec a2 3f 1c d2 d2 3c
       0.16156648 -0.011515245 1.2728378 0.025734954
0001d0 b7 94 2e 40 4c 71 03 3e 93 c0 94 3d d2 81 0d 40
       2.7278268 0.12836188 0.07263293 2.2110486
0001e0 a8 09 33 3f 2c ac 11 40 e8 51 a2 bf 56 23 66 c0
       0.6993661 2.2761335 -1.2681246 -3.5959067
0001f0 02 69 de 3f 1c 7a b8 3d 19 88 d7 3d 90 8d df 3b
       1.7375796 0.090076655 0.105240054 0.0068222955
000200 b8 48 0d 3e f4 e9 06 40 9e 89 cf 3d 9a 2b dc 40
       0.13797271 2.1080294 0.1013367 6.8803225
000210 9e b4 c2 40 66 00 0d 41 bb bc f0 3b 5a 6f a3 bf
       6.084548 8.812597 0.007346717 -1.2768357
000220 cf 38 04 3f 3d 79 f2 3c 57 9b ac 3e 52 1e 1d 3b
       0.51649183 0.029598827 0.33712265 0.002397437
000230 00 f9 a8 3f ae 70 20 3e cb 03 8b 3d 55 bb c6 bf
       1.3200989 0.15667984 0.06787833 -1.5525919
000240 fc 0e 7b bf 71 d7 16 3e 8d 85 ed 40 c4 ab e1 3f
       -0.9806974 0.14730622 7.4225526 1.7630544
000250 fb 85 ab 3d ef 1f e3 3d a6 55 27 41 02 e8 b5 3c
       0.08375164 0.11090075 10.45841 0.022205357
000260 62 dd a9 3d 4a e1 a5 3c 92 f3 6a 3f 4a 17 35 bc
       0.082941785 0.020249028 0.9177791 -0.011052916
000270 2b 8d fe 3e 68 2e 7e 3d 82 92 a8 3e 9c 2a 2e 3b
       0.49717078 0.062055975 0.32924277 0.002657569
000280 1d e2 f7 3f 50 42 bd 3a 51 36 9b 40 f5 6e df 3f
       1.9365879 0.0014439318 4.8503804 1.7455736
000290 6e d3 cf bc ea 57 c4 3d 3d 1e ba 3d 66 65 2a 3e
       -0.025369372 0.09587081 0.09087799 0.16640243
0002a0 68 bf c1 3d 5d 46 56 bb cb b3 69 c0 69 4a 11 c0
       0.09460336 -0.0032695748 -3.6515987 -2.2701666
0002b0 8f e1 85 3c 74 2f a4 3d ca 80 5c 3d 62 1f db 3f
       0.016342906 0.080168635 0.05383376 1.7118952
0002c0 a3 b8 95 bf 4e 5f 2c 3d 2b 76 f1 40 3a 4e c3 40
       -1.1696972 0.042083077 7.545675 6.103299
0002d0 2b 79 9e bb 4a 5f 17 3d c2 af de 3d 59 d8 9b 3d
       -0.0048362217 0.03695611 0.10873367 0.076096244
0002e0 4a 00 9f bd fa bb 89 bc 59 14 05 c0 e8 ad a6 3c
       -0.07763727 -0.016813267 -2.079367 0.020346597
0002f0 d1 8c 16 40 26 ed 28 40 1d 0a 9b 3d 43 ed b6 3d
       2.3523448 2.6394744 0.07570288 0.08931973
000300 bd 69 ce 3e 4e 2e f4 3f cb 8f 8d 3e bb e4 0b c1
       0.40315047 1.9076631 0.27648768 -8.743342
000310 f7 2e bf 40 46 d9 e0 bf 8f 70 ea c0 bd b2 61 3e
       5.974483 -1.7566307 -7.32624 0.2204084
000320 32 7c 9a 3f 6a d2 b9 3f 30 dc 5b bd 4e 86 41 3c
       1.2069151 1.4517338 -0.053676784 0.011811806
000330 5c 74 09 40 18 18 e8 3e fd 79 c4 3e 10 8c 3d 3e
       2.147727 0.45330882 0.3837432 0.18510461
000340 7b 61 5f bf 95 bf 7b bf 99 47 0a 3e b0 c5 81 c0
       -0.8725812 -0.98339206 0.13503875 -4.055382
000350 fb 9d 8b 3f b3 65 d0 3d b6 66 97 3f 2b 92 04 3d
       1.0907587 0.101756476 1.182822 0.03236596
000360 36 3e cc 3f 4f ea 98 3f 6c a9 14 41 ad 68 c8 3c
       1.5956485 1.1946505 9.291363 0.024463976
000370 90 ec 85 40 cb c3 78 c0 00 e3 fa 3f 20 08 b3 bd
       4.1851273 -3.8869503 1.9600525 -0.08741784
000380 ed 6c c7 be 24 1a 09 bf 3a af a2 bf 21 47 99 3f
       -0.3895029 -0.5355551 -1.2709725 1.1974832
000390 3c a6 c0 3f 34 81 c3 3e b1 c7 8e 3e fd c8 e7 bf
       1.5050731 0.38184512 0.27886727 -1.8108212
0003a0 d3 d9 3e 3f 35 39 10 3f 44 c4 02 3f 45 b5 d6 c0
       0.74551123 0.5633729 0.5108073 -6.7096276
0003b0 c0 8c a5 40 4e 23 7f 3e e2 49 87 3d be 5c 62 3f
       5.1734314 0.24915811 0.06605889 0.88422763
0003c0 6a 84 c0 3e e4 81 e4 40 1f 80 74 c0 1a 51 52 40
       0.37601024 7.140856 -3.82032 3.2862
0003d0 48 66 47 3e 30 23 09 3e 05 3f 2d 3e c9 62 02 3d
       0.19472611 0.13392329 0.16918571 0.03183249
0003e0 7a 92 ca 3e f6 6c 48 3c de da 7f 3f 73 06 b8 bc
       0.39564878 0.01223301 0.9994334 -0.022464013
0003f0 b8 e8 83 c0 21 eb d5 bf a0 5a 6e 3e b6 16 37 3e
       -4.122158 -1.6712381 0.23276758 0.17879757

output_modules.0.outnet.0.linear.weight f4 [32, 576]
000000 e5 e7 97 3e 90 33 66 3d d3 45 b2 bd 09 68 b0 3d
       0.2966911 0.056201518 -0.08704724 0.08613593
000010 89 4d 02 3e 40 4f 0b bc 5b 81 da 3d bd a1 3f bd
       0.1272489 -0.008502781 0.10669204 -0.046785105
000020 da 70 df bc 13 f7 1a 40 b2 98 82 be 10 ae 0f bc
       -0.027275492 2.4213302 -0.25507122 -0.008769527
000030 50 11 d1 bc 96 46 27 bd 69 5f fa 3d 78 4b 02 be
       -0.02552095 -0.0408388 0.12225229 -0.12724102
000040 19 34 7a 3f 08 70 9d 3e 02 e4 6c 3e d6 40 63 be
       0.97735745 0.30749536 0.23133853 -0.22192702
000050 30 a5 5f 3f 62 fa 4f c0 ad 27 4a 3f d1 a8 d7 bf
       0.8736143 -3.2496572 0.7896679 -1.6848394
000060 18 b4 81 bf b7 a4 74 41 24 ac 6a bf c0 a0 32 3e
       -1.0133085 15.290214 -0.91668916 0.17444134
000070 7e 46 df be 6f 86 49 40 d9 b7 9d 3f 05 54 17 c0
       -0.4360847 3.1488302 1.2321731 -2.3645031
000080 e7 52 12 bd f2 8a 10 3f 21 19 88 bd 80 87 f2 c0
       -0.035723593 0.56462014 -0.06645418 -7.5790405
000090 26 67 50 40 3c 3b aa c1 49 a6 6d 3f 71 85 bb bd
       3.2562957 -21.278923 0.92831856 -0.09156311
0000a0 c8 0f e7 be 56 bc 4c c1 e3 83 d1 c0 93 bd ad be
       -0.45129228 -12.79598 -6.5473495 -0.33933696
0000b0 1c 0b 0e bf 70 a2 31 3f 08 f1 e5 bd c2 68 c5 3e
       -0.554857 0.69388485 -0.11227614 0.38556486
0000c0 d9 4d 6f 3e ca 7a 27 ba 8c 72 08 3d 96 10 14 bd
       0.2336954 -0.00063888414 0.033312365 -0.03614863
0000d0 2b 48 81 3e 26 70 50 3d 49 9b 1e bd d8 42 36 3d
       0.25250372 0.050888203 -0.03872231 0.04449734
0000e0 e2 f0 ac 3d 01 88 40 3d 52 77 eb bd f3 e5 00 bd
       0.08444382 0.047004703 -0.11497368 -0.031469297
0000f0 69 48 17 bd a8 69 51 bd 97 1d 3e bc 24 b1 55 3e
       -0.03693429 -0.051126152 -0.011603734 0.20868355
000100 9f 0a 3f be 59 52 d3 be 90 af 1b c0 08 3c 06 c1
       -0.18656395 -0.41273764 -2.4325905 -8.389656
000110 76 69 cf 40 e1 e3 bc 3c e2 7a 9b c0 4d 37 0f 40
       6.4816236 0.02305788 -4.8587503 2.2377503
000120 ac 2a a2 bf 0e 40 42 40 a1 7a aa c0 40 4b 83 40
       -1.2669272 3.0351596 -5.3274693 4.102936
000130 63 6e a9 be e0 31 e4 40 34 21 2e be ad 70 e6 c0
       -0.3309203 7.1310883 -0.17004853 -7.2012544
000140 17 70 c5 bf de 00 ef c0 bf d1 6e bd b3 92 7a c0
       -1.5424832 -7.468856 -0.0583055 -3.9152038
000150 98 83 b3 bf fa a2 8f 3e 2c 9f 44 bc 22 e0 bf 3e
       -1.4024534 0.2805403 -0.01200084 0.37475687
000160 53 61 8b 3d 3f 62 49 3e 78 4b c0 bf 3e 37 9b bd
       0.068056725 0.19666384 -1.5023031 -0.07578896
000170 97 6f d2 bf 9d 8f 82 3f d5 d0 ec bf a2 44 79 c0
       -1.6440305 1.0200077 -1.850123 -3.894814
000180 62 82 c9 3b 42 91 82 3d fc 9f 3e 3d 70 82 7d bb
       0.006149576 0.06375362 0.04653929 -0.0038682483
000190 60 a8 65 3d fa 95 b1 3c cd ef 3a 3c 91 86 4b 3d
       0.056068778 0.02167796 0.011409712 0.04968888
0001a0 e4 cf 8b 3e 55 1b 45 3d f7 aa c9 be 6c d5 65 b9
       0.27307045 0.04812177 -0.39388248 -0.00021918648
0001b0 31 bc 89 bb 19 25 35 bf a6 80 94 3d 60 ab a2 3d
       -0.0042033424 -0.7075973 0.072511 0.079428434
0001c0 ab 96 c6 3f df c2 19 c1 b3 3c 03 be 84 e5 8d c1
       1.551473 -9.610076 -0.12816124 -17.737068
0001d0 6c a4 2e 3f 31 c2 d6 3e ae 28 6e bd af 9b 23 c1
       0.6821964 0.4194503 -0.058144264 -10.225509
0001e0 e6 82 37 bf 12 3e dd be 07 16 18 c1 bb 7f 8c 3d
       -0.7168411 -0.43211418 -9.505378 0.068603
0001f0 07 c4 e2 3e d1 d9 02 bf 58 42 a2 bc 5f f3 19 c0
       0.44290182 -0.5111361 -0.019807026 -2.4054792
000200 06 6a 57 bf cb ac 1a c0 72 88 85 be e5 7b c4 be
       -0.84146154 -2.4167964 -0.26080662 -0.38375774
000210 ef 9e 7f c1 15 3f bf be cc 15 a1 3e 21 ec 16 c1
       -15.976302 -0.37352815 0.31461942 -9.432649
000220 4f 61 9a 3f 58 be ec c0 3e 79 83 be be 4b b3 c0
       1.2060946 -7.3982353 -0.25678438 -5.602996
000230 43 3c ae 3e e1 75 7a be dc 05 53 3d 86 64 ee bf
       0.3403035 -0.2445903 0.05151926 -1.8624427
000240 f0 42 5d 3e e0 6e 2e 3d aa 93 fa bd 53 7b d0 bc
       0.21607566 0.042586207 -0.12235196 -0.02544943
000250 6e 4c f0 bd 35 9e b8 3d 16 f1 2d 3d 2b 46 6c 3d
       -0.11733328 0.090145506 0.042466246 0.057684105
000260 97 0a 2d 3e 10 62 8f bd de 3b a6 be 70 4e 09 bd
       0.16898571 -0.07001126 -0.3246755 -0.03352207
000270 22 7a 8e 3d 03 dc 4d bd 27 4d f9 3d 51 59 4a c0
       0.06956889 -0.050258648 0.12172919 -3.1617014
000280 7d d7 07 3e 97 bb 51 ba a0 eb c2 3e 19 05 96 bd
       0.13265796 -0.00080006704 0.38070393 -0.07325191
000290 ff e6 2b bf 5f 13 2a 41 7f 57 13 c0 83 55 69 c1
       -0.6714935 10.629729 -2.3022153 -14.583377
0002a0 bc c0 3c be 22 c0 e7 be 0b c1 93 c0 29 bd 2a 3e
       -0.18432897 -0.45263773 -4.617315 0.16673721
0002b0 b8 7d 6c 3f b7 08 0f be c5 ce ed c0 25 5f d0 40
       0.9237933 -0.13968168 -7.4314904 6.5116143
0002c0 37 8d 63 bf b2 c7 8f c0 66 b9 a1 40 85 85 bc 40
       -0.8888735 -4.493127 5.0538816 5.891299
0002d0 cd 2f 45 c0 6e a2 a6 be a5 33 fa be 09 66 51 3f
       -3.0810425 -0.325458 -0.48867527 0.8179632
0002e0 da 70 a1 3e 21 66 46 3f ec 77 c7 bf df 3e 4d be
       0.3153141 0.77499586 -1.5583472 -0.20043515
0002f0 11 ea 30 bf ee 45 a1 3f cb db 0c 3e d3 03 bf bd
       -0.69107157 1.2599466 0.1375572 -0.09326901
000300 d6 fe b8 3e 4d 2f b3 bc f1 cc e8 bc 6e 68 85 3b
       0.36131924 -0.02187314 -0.028418036 0.004071287
000310 a5 ce c4 3d 82 dd 99 3c 2f ff c5 bf 57 47 5b 3d
       0.09609727 0.018782381 -1.5468501 0.05353483
000320 a7 bb 48 3e 3c e9 40 3d a6 43 ba be fe bc 08 bd
       0.19602834 0.04709743 -0.36379737 -0.033383362
000330 6a b9 53 3e 51 cd bd 3c c3 e7 bd 3d 10 92 83 3f
       0.20676199 0.023169192 0.09272721 1.027895
000340 72 97 58 3e 86 ea 8a c1 df 66 ab 3f f9 88 10 bf
       0.21151522 -17.364513 1.3390769 -0.56459004
000350 fe 4a 73 40 92 9f 94 be af e5 46 40 66 46 a9 be
       3.8014522 -0.29027992 3.1077688 -0.33061522
000360 85 a1 59 bf 69 6e 86 3e 56 9f 3d c0 74 33 44 3e
       -0.85012084 0.2625611 -2.96285 0.19160253
000370 de 3c 46 c0 e3 a2 ad 40 f9 4f 96 3e c6 bf d3 40
       -3.097465 5.4261336 0.2935789 6.61716
000380 d3 08 04 c0 9c 23 37 c1 e6 a9 22 3d a0 6f 89 bd
       -2.0630386 -11.446194 0.03971281 -0.06710744
000390 0c 0c a7 bd 50 0b 70 be 9b 7e 05 3e 63 a0 4a 3e
       -0.08156595 -0.23441815 0.13036577 0.19787745
0003a0 35 cf 4f bf 35 aa 81 be 8f 85 86 bf 8f 31 a7 bc
       -0.8117555 -0.2532517 -1.0509509 -0.020409374
0003b0 23 56 24 c0 d4 94 d5 bd 83 dc 1c c0 49 62 28 c0
       -2.5677574 -0.10428777 -2.450959 -2.6309988
0003c0 d4 45 31 3e cb 50 1b 3c fe 6b ec bd 60 2a 91 bc
       0.17311794 0.009479712 -0.115440354 -0.017720401
0003d0 92 5a 23 3e d3 12 b1 bc d0 dd 45 3e a4 43 35 bd
       0.15952519 -0.021615421 0.19322896 -0.04425396
0003e0 81 8a 18 bd 77 d8 b6 be b5 79 e0 3e 93 46 ae bf
       -0.037241463 -0.35712025 0.43842855 -1.3615288
0003f0 e4 99 0e bd 14 03 d6 bc 58 a5 f9 3d ff b5 e0 bc
       -0.03481473 -0.026124515 0.1218974 -0.027430533

output_modules.0.outnet.0.linear.bias f4 [32]
000000 c9 bf e5 bf f3 57 08 c0 48 87 1b be c6 b2 2d c0
       -1.7949153 -2.130368 -0.15188324 -2.7140365
000010 fd 89 27 c0 58 ba 4c c0 db 06 42 c0 d6 35 9a be
       -2.6177971 -3.1988735 -3.0316684 -0.301192
000020 2f c9 39 bf 68 0d 8f bf dd 60 5d c0 31 59 04 c0
       -0.72572607 -1.1175966 -3.459037 -2.0679438
000030 30 fa 2a c0 40 66 30 be 6f ad 2a c0 6f 05 3b bf
       -2.6715202 -0.17226505 -2.6668355 -0.73055166
000040 20 93 58 c0 7e 22 44 c0 23 59 99 c0 56 af 14 bd
       -3.3839798 -3.0646052 -4.792131 -0.036300026
000050 c2 bb 4e c0 67 a2 1e c0 13 d0 6b be bb bc 80 c0
       -3.2302098 -2.4786623 -0.23028593 -4.0230384
000060 94 f5 f7 bf e5 26 4b c0 fb dd 9d bc 49 b9 bd be
       -1.937182 -3.174249 -0.019270888 -0.37055424
000070 36 83 0a c0 ba 33 cd be bc bd 93 bf 36 c6 2b c0
       -2.1642585 -0.40078527 -1.1542277 -2.6839728

output_modules.0.outnet.1.linear.weight f4 [16, 32]
000000 9d d3 06 3e db 3b 06 bd 7f 53 92 bc 1c 3a 3f 3d
       0.13166662 -0.032771926 -0.01786208 0.046686277
000010 c3 dc e8 3c 60 20 4e bd a3 9a b5 bd fa 73 41 bd
       0.02842558 -0.050323844 -0.08867385 -0.047229744
000020 8b 39 25 3d 9e 16 96 3c 3b 30 8e bd 76 6b 9f bd
       0.04033808 0.018321332 -0.06942793 -0.077841684
000030 dd 9d 8c bd 24 d9 8c 3c 5c fa b3 3e 71 75 1e 3d
       -0.068660475 0.017193384 0.35151947 0.03868622
000040 26 ce 51 bc 11 6c 0e 3e f7 18 01 be 8f f7 c7 3c
       -0.012805497 0.13908412 -0.1260718 0.024410037
000050 01 7b 61 3d 26 19 20 3e 02 1b b4 3b e4 e6 69 be
       0.055048946 0.15634593 0.0054963836 -0.22841984
000060 a2 20 ef 3e c9 7b 1f bc ee 16 c6 b8 3b 49 d8 bd
       0.46704584 -0.0097341025 -9.445647e-05 -0.105608426
000070 fa e6 e6 3b c0 5a d0 bc ae 57 d4 bc 7d 64 75 bd
       0.0070465775 -0.025433898 -0.025920715 -0.059910286
000080 91 e5 95 3f 8d 2f 4e 3f c0 e5 c4 be bf fc 87 3f
       1.1710683 0.80541307 -0.38456535 1.0624007
000090 7b 11 7d 40 5b 53 c2 c0 36 11 24 c0 73 f5 23 bf
       3.954192 -6.072675 -2.5635505 -0.640464
0000a0 d0 cc 17 c0 78 46 15 c0 6c 06 dd c0 a6 cb ce 3f
       -2.3718758 -2.332426 -6.907034 1.6155899
0000b0 2d 26 81 40 3b b7 d4 bf ac c8 84 bf c5 69 51 3f
       4.03591 -1.6618418 -1.037374 0.81802016
0000c0 4c ee 51 c0 5d 20 e7 c0 89 1f c3 40 e6 f6 1c c0
       -3.2801695 -7.2227006 6.0975995 -2.4525695
0000d0 0c 75 5a 40 3d df a3 be 15 f1 34 c0 53 d0 d0 c0
       3.413394 -0.32006255 -2.8272145 -6.52543
0000e0 aa 55 3f 40 09 ae 32 c0 ea 1d 91 3f d7 ef b1 3d
       2.9896035 -2.7918723 1.1337254 0.08688324
0000f0 17 7e 62 3f c8 86 7d bf 33 42 dc be 18 20 0f 40
       0.8847365 -0.99033785 -0.43019256 2.2363338
000100 b0 b5 ca 40 2a f3 14 40 72 f8 b7 40 f6 51 d7 40
       6.3346786 2.3273416 5.749078 6.728755
000110 17 ee 86 40 c0 d2 c4 40 3d 7f 2d 40 33 b0 2a 41
       4.2165637 6.1507263 2.710891 10.668017
000120 85 18 b6 c0 2b 62 ad c0 5a fe a9 40 cf 40 c8 40
       -5.690493 -5.4182334 5.312299 6.257911
000130 25 7a 2f 40 47 11 88 40 f5 32 b4 40 63 d1 12 c0
       2.74183 4.252109 5.6312203 -2.29403
000140 0b ce 85 40 2b 7b b0 40 cf 9a 52 be 20 4a 92 c0
       4.1814017 5.515035 -0.20566867 -4.5715485
000150 bb 2c be 40 ba ba 16 41 0e 2e 31 c0 01 be 9b 3e
       5.9429603 9.420588 -2.768436 0.304184
000160 5d db 3b 41 ad de 8e 40 28 49 5f 40 13 de 18 40
       11.7410555 4.464682 3.48884 2.3885543
000170 9c e4 41 40 23 70 48 40 5c 2a 8b c0 91 12 ea 40
       3.0295782 3.1318443 -4.348921 7.3147664
000180 4b 85 c7 bf 4d ba 60 3f 4e db 84 c0 d7 55 24 40
       -1.5587553 0.8778427 -4.1517706 2.5677392
000190 f7 0f 0a 40 a0 2c 44 3f 25 69 ef 3e aa f7 c9 bf
       2.1572244 0.7663059 0.46759906 -1.5778706
0001a0 2e d2 5d c0 ef 38 c0 bf fa b6 cd bf 34 1a 1f 3d
       -3.4659534 -1.5017375 -1.6071465 0.03884335
0001b0 b1 b9 41 c0 2d a7 5b 3f 81 72 38 be 8f 99 11 3d
       -3.0269587 0.85801965 -0.1801243 0.035546836
0001c0 bb 54 b3 be 51 fc bd bf a1 df 4f 40 2a 5a 00 bf
       -0.35025582 -1.4842626 3.2480242 -0.5013758
0001d0 32 dc 9f 40 05 f3 08 c0 80 81 47 bf ac 8d cf 40
       4.9956293 -2.1398327 -0.77931976 6.486044
0001e0 8f b9 14 3f 66 1c 2e 40 ca 0b eb be a7 69 75 3f
       0.5809564 2.7204833 -0.45907432 0.9586434
0001f0 b7 00 d7 3f ab 17 94 be f3 12 b4 3e 52 ac 0d 40
       1.6797093 -0.28924307 0.35170707 2.2136426
000200 ac 8c f6 bf 3c b4 7f 3f 2e fb 2c 3e 71 a0 86 bf
       -1.926168 0.9988439 0.16892692 -1.0517713
000210 ab 62 4d 3f f6 94 38 c0 45 7c 47 bf cb 8b b6 bd
       0.8022868 -2.8840919 -0.77923995 -0.08913382
000220 b0 a3 99 3e a5 55 01 be 07 45 19 c0 6b d3 17 c0
       0.30007696 -0.12630327 -2.394838 -2.372279
000230 06 c5 49 40 2f 8f 99 be 0e ef 31 c0 a7 91 cb bd
       3.1526504 -0.29992053 -2.7802157 -0.0993989
000240 d3 43 81 bf aa cc 0c c0 7d 9c 92 bf 04 57 1d bf
       -1.0098823 -2.1999917 -1.1454006 -0.614609
000250 74 28 95 bf 71 96 69 40 08 af be 3d 9c 97 4c c0
       -1.165297 3.6498072 0.09310728 -3.1967535
000260 e3 0d 8e be ae 3c 56 c0 84 c1 c4 be 75 12 39 bf
       -0.2774497 -3.3474536 -0.3842889 -0.7229379
000270 fa 50 88 40 1b 50 21 3e a6 38 9b be ef ae fe bf
       4.259885 0.15753214 -0.30316657 -1.9897135
000280 90 95 86 40 f4 6b 8b 3f 9e 04 e3 40 59 57 08 41
       4.205757 1.089232 7.0943136 8.521325
000290 1b 56 74 3f b1 06 4f 40 c8 fb 34 40 37 22 03 41
       0.95443887 3.2347834 2.8278675 8.195853
0002a0 eb db cc 3f 79 0a 39 bf 6a 8c bf 40 bc 83 0d 3e
       1.6004614 -0.72281605 5.9858904 0.13819784
0002b0 9b a2 3a 40 6a c8 7e 40 dd 5d ad 3e 6f 06 c7 3f
       2.9161747 3.9809823 0.33860675 1.5548838
0002c0 b5 dd a0 bf cf 7b 32 40 3a e0 1d 41 3b 42 63 bf
       -1.256766 2.7888067 9.867243 -0.88772935
0002d0 b3 ea 8b 40 ca 99 01 40 af 20 9b bc 42 b1 09 40
       4.3724 2.0250115 -0.018936483 2.151444
0002e0 e8 2b 25 40 74 14 f8 40 2e ce e7 40 36 57 12 41
       2.5808048 7.7524967 7.2439184 9.146292
0002f0 e7 b0 60 40 40 83 89 3f 61 c0 2c be d9 bb 94 40
       3.5107973 1.0743179 -0.16870262 4.6479306
000300 99 2e fd bf bf 91 9f bf 53 58 4a bf 1a 71 f4 40
       -1.9779845 -1.2466353 -0.7904102 7.6388063
000310 a3 ca d6 bf b6 3e 2b 41 03 cb 0d 40 90 e1 1b 40
       -1.678059 10.70281 2.2155159 2.4356422
000320 88 9d bf 3e f3 77 83 bf 5a b2 18 c0 0f 08 dd 3e
       0.37424874 -1.0270981 -2.3858857 0.4317021
000330 69 8a a4 3f 37 c0 0a 3e 7f 21 b4 3f bb 19 0d bf
       1.285474 0.13549887 1.4072722 -0.55117387
000340 0f 26 22 40 30 ed a4 40 a3 26 98 bd b6 80 d6 bf
       2.533573 5.1539536 -0.07429244 -1.675803
000350 d7 e1 83 40 4d 10 16 bf 18 04 d8 3d bc 20 e7 40
       4.1213183 -0.58618623 0.10547656 7.222746
000360 6f d7 c2 3e 65 98 89 3e bb 90 a8 be 58 4d fe 3f
       0.38054988 0.2687408 -0.3292292 1.9867353
000370 be cf 90 c0 1c 92 9d 3f a8 51 36 c0 bb cf 93 3f
       -4.525359 1.2310214 -2.848734 1.1547769
000380 2c bb 3e bd 0f 77 2d 3d eb 0f 37 bd f1 c8 66 3d
       -0.04656522 0.04234987 -0.044692915 0.056343976
000390 47 a2 7b 3d 12 c5 1a 3d ee 27 56 3c f5 3b 6b 3d
       0.061434057 0.037785597 0.013071043 0.057430226
0003a0 ed 80 2d 3d 13 c0 04 bd e4 74 ae bd 98 63 6f bd
       0.04235928 -0.03240974 -0.08518389 -0.05844459
0003b0 3a 93 c7 3d 09 6a 06 bc b7 b9 f3 bd fc 9a 08 3d
       0.09744878 -0.008203992 -0.11900657 0.03335093
0003c0 b5 fc 47 3d bd 96 33 3d 23 d0 85 bd 7e 3d 9d 3b
       0.048824985 0.043844927 -0.065338396 0.00479859
0003d0 9c 78 29 bc df 9f 95 be 4b 86 21 bc 44 b8 01 be
       -0.010343697 -0.29223534 -0.009858678 -0.12667948
0003e0 07 94 09 3e 29 0d b8 3d 7f 25 13 bd 32 3b c8 3d
       0.13435374 0.08986885 -0.03592443 0.097769156
0003f0 41 82 40 3e 5d 31 b4 bd 90 e4 77 bc 87 3c 1f 3b
       0.18799688 -0.08798478 -0.015130177 0.0024297552

output_modules.0.outnet.1.linear.bias f4 [16]
000000 7e 7a 86 bc ff d6 6a c0 24 c4 0d c1 fb bf 07 c0
       -0.01641583 -3.6693723 -8.860386 -2.1210926
000010 72 4b 3f bf 13 d3 6c c1 ad 5b e2 bf 46 d9 dc 3b
       -0.74724495 -14.801532 -1.7684227 0.006739768
000020 e8 7f 8d c0 c2 4b b1 3c ae 8d f4 3b 37 e6 b9 3c
       -4.4218636 0.02164257 0.0074631786 0.022692783
000030 77 e9 02 c1 79 fe a3 bf 3d 4d 54 c1 90 72 0f c0
       -8.181998 -1.2812034 -13.268857 -2.2413673

output_modules.0.outnet.2.linear.weight f4 [1, 16]
000000 71 cd 0e 3a 0b 84 03 be 55 75 c2 40 bd 5f 3f be
       0.0005447483 -0.12843339 6.0768228 -0.18688865
000010 ec 66 7c 3e 7e f2 d5 3e f2 2c 56 3e 70 d5 1c 39
       0.24648637 0.4178657 0.20915583 0.00014956831
000020 d3 61 97 bf f7 8e 17 3a 8a d5 c0 37 f1 c8 49 3a
       -1.1826729 0.00057814963 2.298762e-05 0.0007697484
000030 6c 48 5a 40 c7 ed 95 3e eb 05 42 40 e4 28 76 bf
       3.4106703 0.29282972 3.0316112 -0.96156144

output_modules.0.linear_nn.linear.weight f4 [1, 576]
000000 1f 6d 4a bc 56 b1 81 ba 4a c3 a3 bb 08 fe fd 3b
       -0.012355118 -0.0009894769 -0.0049976455 0.00775123
000010 30 d8 56 3b d0 79 58 bb d5 3c 41 3b f5 53 2e bb
       0.0032782666 -0.003303159 0.0029485722 -0.0026600335
000020 e5 b7 60 bb 6a f1 4d bc 35 bc 3b 3c ab 7c 5c ba
       -0.0034289297 -0.012569765 0.011458446 -0.0008410911
000030 57 c3 1c bd 06 80 de ba 4d d2 57 3a dd a5 48 3b
       -0.038272228 -0.001697541 0.00082329364 0.003061644
000040 c4 2d 24 3f c6 37 bd bb 75 a6 ab bc 6c 4d be bc
       0.6413233 -0.005774471 -0.020953396 -0.023230277
000050 0e dc b7 3f e4 87 70 3d ba 70 74 be 1a 4d 52 bd
       1.436403 0.058723345 -0.23871127 -0.05134306
000060 88 ee a8 3d b9 bb 83 bf 81 11 3c bd 01 0b 0c bc
       0.08248621 -1.0291663 -0.04591513 -0.008547545
000070 5f 25 13 3c 46 84 c2 3e 24 3e 86 3e 3b 24 8c be
       0.008981078 0.37991542 0.26219285 -0.27371392
000080 63 86 52 3d 97 bf f0 3b 8b 92 e2 bb 24 24 30 bf
       0.051397692 0.007347058 -0.006914442 -0.68805146
000090 e0 4f a9 3f 76 ab 93 3e 38 6c 8b 3d 3c 7b 7b bc
       1.3227501 0.28841752 0.068077505 -0.015349206
0000a0 d7 20 77 bb 0f dd 35 3f 8c 58 66 3e 5a c5 74 bc
       -0.0037708783 0.71040434 0.22494715 -0.01493963
0000b0 35 a0 97 bc 80 d7 95 bd ba 53 d5 3c c4 e8 a1 3c
       -0.01850901 -0.07316494 0.0260409 0.019764312
0000c0 93 d5 dc bb 2f 7a 6f bb b4 08 36 bb bc ee ba 39
       -0.006739327 -0.0036541333 -0.0027776184 0.00035654556
0000d0 76 31 ef bb a7 2e 94 3b 07 8f 73 3a d4 91 4d 3a
       -0.0072995974 0.004522163 0.0009291027 0.00078418595
0000e0 c8 59 07 bc 23 c3 91 3b 63 30 da 3b a0 16 d9 3a
       -0.008261152 0.004448311 0.0066586 0.0016562529
0000f0 32 9e be 39 1a 11 e8 bb 9d dc 5d 3b 00 00 62 3e
       0.0003635749 -0.007082117 0.003385342 0.22070312
000100 24 32 f4 3c 63 30 81 bd ac 70 98 be 00 80 7c 3f
       0.029809065 -0.06308057 -0.29773462 0.9863281
000110 7a e0 ff be 47 39 c5 bc c7 9b a6 3d 99 82 a2 bc
       -0.4997595 -0.024075164 0.08135181 -0.019837664
000120 f8 1f ea 3c bf 5b ba be ad 40 31 bf b9 16 50 3f
       0.028579697 -0.36398122 -0.6923931 0.8128467
000130 39 62 88 40 8b 53 5c 3e 28 f4 ac 3f 74 32 41 3e
       4.26199 0.21516244 1.351201 0.18866903
000140 70 b3 af 3d 1a 35 ea bd a9 dc 31 bc d7 58 5d 3e
       0.08579147 -0.114359096 -0.010855832 0.21615921
000150 25 5a 0c be c6 3f 93 ba a6 28 43 bc d1 fe 02 3b
       -0.13706262 -0.0011234216 -0.011911547 0.0019988308
000160 65 da 0a 3d f5 06 4b 3f b8 88 7b bf 86 06 40 ba
       0.033899684 0.7930749 -0.9825549 -0.0007325191
000170 14 23 5f bf c5 11 e2 bd 55 f5 41 3f ef f7 e8 3c
       -0.871629 -0.110385455 0.7576497 0.028438536
000180 95 15 ea 3b ed ac d6 3a 3a 78 e5 b9 ee a4 e5 3a
       0.007143686 0.001637844 -0.0004376786 0.0017520466
000190 7a 6e 99 3a 6e 1f 96 ba 31 3b f0 ba e7 6b 5b 3b
       0.0011705898 -0.0011453459 -0.0018328187 0.0033481063
0001a0 2e d1 38 bb ab a4 bb 38 01 8b fd bc d7 c1 e9 ba
       -0.0028200853 8.947527e-05 -0.030950071 -0.0017834258
0001b0 9d dc d4 38 93 fd f8 bd 30 4b 01 ba 41 1a 57 ba
       0.0001015004 -0.121577404 -0.0004932163 -0.0008205511
0001c0 a8 48 2b bd 2a 28 33 3f 88 7a f8 bc e1 7a f9 be
       -0.041817337 0.6998316 -0.030331865 -0.48726562
0001d0 6f 41 0f 3f fc 42 bb bb 63 1c f9 bc f4 5e ad 3b
       0.5595922 -0.0057147723 -0.030409044 0.0052908603
0001e0 40 a0 11 bd 49 ba ce 3f c8 a6 a5 3f 91 6b 0f 3d
       -0.035553217 1.61506 1.2941523 0.035014693
0001f0 b9 2c 61 bd 61 fe 42 bd 4b 23 6d bf 3c 38 ad be
       -0.05497429 -0.047605876 -0.9263198 -0.33831966
000200 01 bb f3 3c dd 14 09 3f eb 05 85 bd 62 1f c9 3c
       0.029752256 0.5354746 -0.064952694 0.024551097
000210 37 95 2d bf a3 46 ae bc 83 cd 9d 3c f1 b7 1e 3f
       -0.6780581 -0.021273917 0.019263035 0.6199942
000220 5b 26 57 bf 11 3f 3b 3f ce f0 10 bc 13 86 c5 3e
       -0.840429 0.73143107 -0.008846475 0.38578853
000230 bd af a5 40 35 e1 92 bc 44 ab 4c bc 53 fd 36 3e
       5.1777024 -0.017929653 -0.012492005 0.17870073
000240 c8 1b b1 bb 73 fc 85 3a 05 75 23 3b b0 ac ca ba
       -0.005404923 0.001022233 0.0024941575 -0.0015462842
000250 16 5e 2e 3c e2 88 4d 3b 68 12 51 ba 1b e2 24 3a
       0.010642549 0.0031362106 -0.000797546 0.0006289796
000260 b4 8b ca 3a 8b 59 e2 bb 47 1b 52 bb 22 14 55 3a
       0.0015453012 -0.006907647 -0.0032059716 0.0008128305
000270 9c 1c 84 bb 92 81 1b bc 15 cc 72 3a ca 5d 1f 3c
       -0.004031731 -0.009491341 0.0009261978 0.009726951
000280 4d 47 c3 3f 52 df 78 bc b6 ed 08 bd 9b 50 c6 bc
       1.5256134 -0.015189962 -0.033429824 -0.024208358
000290 5e ce ef bd 96 61 42 3e 54 93 a7 bd 71 92 4e bd
       -0.11709283 0.18982539 -0.081823975 -0.050432626
0002a0 9c 71 08 bd fe 83 2c bc 58 00 0b bf 2b ba 97 bc
       -0.03331147 -0.010529516 -0.542974 -0.018521389
0002b0 92 08 d8 bb 19 fd e5 bd b4 93 30 3e d0 2c 25 bd
       -0.0065928185 -0.11229915 0.17243844 -0.04032594
0002c0 a8 a5 15 bf b5 b8 18 3e f1 23 02 bd 60 a4 4b 3f
       -0.58455896 0.1491421 -0.031772558 0.7954769
0002d0 6d 1e 19 40 23 10 5a bc 87 e6 26 bc 7e 81 be 3c
       2.392482 -0.013309511 -0.010186798 0.023255106
0002e0 1f 59 8a bb 85 ec 77 3d 68 eb 9f 3c 40 d3 a7 3b
       -0.00422205 0.060528297 0.01952143 0.0051216185
0002f0 7e 4e d9 bf 2c d9 63 be cc 71 ac bc 49 16 04 bd
       -1.6977079 -0.22250813 -0.021050356 -0.032247815
000300 7a 4e 37 bc f5 06 23 3b 76 82 91 b8 cb 6f fd ba
       -0.011188144 0.0024875973 -6.938439e-05 -0.0019335685
000310 ba 03 b0 3b 9b 83 a2 3a 9c c2 72 3d cf 34 14 3b
       0.005371538 0.0012398841 0.059267625 0.0022614484
000320 7e 07 6b 3a d8 75 3c 3a 8d ca 20 3b 55 33 a0 3a
       0.0008965655 0.0007189191 0.0024534792 0.0012222329
000330 08 26 92 bc 98 36 90 bb 3c 5f 81 3b 59 06 5b 3d
       -0.0178404 -0.0044010393 0.0039481204 0.05347285
000340 94 99 54 3d d5 c0 8e 3e df 9e 22 be ee 45 36 3c
       0.051904276 0.27881494 -0.15880917 0.011125071
000350 7b cc b9 be bd 2c 1c bd 70 a9 b8 bf b8 d2 b7 3c
       -0.3628882 -0.038128603 -1.4426708 0.022439346
000360 50 55 e1 bc 1d 6c 2a bf 21 43 80 3e 3e 76 1c 3c
       -0.0275065 -0.6657122 0.25051215 0.0095496755
000370 9c 3b 97 bb d1 f2 b3 bd fa 9d e9 3d d0 8f 83 bd
       -0.0046152603 -0.08786548 0.11407085 -0.064239144
000380 67 12 87 be a2 fa f6 bd 51 e6 a0 3b ff dc ad 3c
       -0.26381227 -0.12059523 0.0049102684 0.021223543
000390 45 fe ad bc e2 ea 3a 3c 7a ed 2e 3c ee 01 2f 3d
       -0.02123941 0.0114085395 0.010676736 0.04272645
0003a0 11 6e e3 bc 2e bf 47 bc 37 db 05 bc 42 d4 29 bc
       -0.027762445 -0.012191577 -0.008169941 -0.010365548
0003b0 1d e6 82 3e b6 fb 2d 38 82 11 9f 3f d0 5e 2d bd
       0.25566188 4.148084e-05 1.2427218 -0.04232675
0003c0 39 11 f1 bb 84 49 74 3b f7 50 b8 3a 4d 9e 77 bb
       -0.0073567894 0.0037275264 0.0014062215 -0.0037783564
0003d0 6d db c0 bb 2d 6c 4d ba 0a f2 4c 3b 3d 31 81 38
       -0.0058855326 -0.0007836249 0.0031272196 6.160371e-05
0003e0 4c 48 28 3b 31 35 e6 3d b4 33 86 3e 55 7c 26 be
       0.0025677858 0.11240614 0.2621132 -0.16258366
0003f0 23 68 8d ba f0 35 a5 bb b7 e9 11 bb 58 33 94 bb
       -0.0010788481 -0.0050418302 -0.002226455 -0.004522722

exp_avg f4 [4, 4]
000000 74 f0 5d 3d 17 b3 76 bd fc dc e4 3b 7f bc 0f bd
       0.054184392 -0.060229387 0.006984351 -0.035091873
000010 20 60 e6 bd 77 50 a8 be be 70 ec ba 61 18 33 be
       -0.11248803 -0.3287389 -0.0018038971 -0.17489769
000020 a4 44 4c bb 14 9a e1 38 e4 c5 23 bb 09 56 91 ba
       -0.0031168843 0.00010757535 -0.0024989778 -0.0011088263
000030 fb 61 a8 3b 18 5d 63 bb 99 3a a0 bb ba 7b 75 39
       0.0051386333 -0.003469294 -0.004889798 0.00023411112

exp_avg_sq f4 [4, 4]
000000 d2 a9 1a 3f 36 a4 c8 40 6b 78 29 3c 05 c1 f4 3d
       0.60415375 6.2700453 0.010343651 0.11950878
000010 07 35 84 3f 6e 0e 32 41 75 e0 93 3b 29 9e f4 3f
       1.0328683 11.128523 0.0045128413 1.9110767
000020 bd d9 3c 3c 6f 5d fe 39 02 43 10 3c 08 8c ba 39
       0.011526522 0.0004851627 0.008805038 0.00035581016
000030 ea 72 e5 3b 50 e0 7c 3b 71 22 9b 3b 93 ce 8b 3b
       0.007002224 0.003858585 0.0047343303 0.004266569

exp_avg f4 [4, 4]
000000 32 e3 86 b7 55 5c c6 3d 77 d6 15 3c 25 52 de 3d
       -1.607984e-05 0.0968558 0.009145371 0.108555116
000010 fb 10 50 3a 85 13 c4 3a 27 7d 78 be a9 f4 cb 3d
       0.00079371006 0.001495943 -0.24266492 0.099587746
000020 da 32 a8 b7 57 39 a1 38 9d d3 ec ba 39 c1 09 3a
       -2.005084e-05 7.6877586e-05 -0.0018068437 0.00052549277
000030 0c 26 a7 3c fc a8 e6 3a 4d 7a c6 ba 4f 2f 58 3b
       0.020403884 0.0017597969 -0.001514265 0.0032987182

exp_avg_sq f4 [4, 4]
000000 02 65 b2 38 0a 0a 10 3f 10 a0 26 3c 82 43 5b 3f
       8.5065156e-05 0.5626532 0.010169998 0.85649884
000010 a2 3b 35 3a 82 fb ca 3b ce 77 74 40 3b a1 39 3f
       0.0006913488 0.006194533 3.8198123 0.72511643
000020 7b 36 a8 36 74 01 c1 37 97 9b 4c 3b 55 1e d0 3a
       5.0131325e-06 2.300807e-05 0.0031220668 0.001587818
000030 b7 5e 02 3e 20 3f cb 3a 8d cb 26 3a eb b6 9d 3a
       0.12731443 0.0015506484 0.0006362729 0.0012032663

exp_avg f4 [6]
000000 3b 53 17 be 76 a4 08 bc 76 58 15 bd e4 39 b5 3d
       -0.14777844 -0.008339992 -0.036461316 0.088489324
000010 8c 64 6e be 32 13 b4 3e
       -0.23280543 0.35170895

exp_avg_sq f4 [6]
000000 42 3e 93 3f c9 05 f6 3c 39 bf 05 3f 32 e7 20 3f
       1.1503375 0.030032055 0.5224491 0.62852776
000010 cc 8b 46 40 70 33 00 41
       3.1022825 8.012558
