MLIPs/CACE-LES/water/caceles-r-5.5-nl-1-nu-2/checkpoint.pt (torch, 169570 bytes, 54 tensors)

representation.node_embedding_sender.embedding_weights f4 [2, 2]
000000 a9 2f 89 3e e7 dd 6e 3d 87 21 d2 be 3b 4e 2d 3f
       0.26794174 0.05831709 -0.41041204 0.67697495

representation.node_embedding_receiver.embedding_weights f4 [2, 2]
000000 63 a6 81 3e 6c 30 86 3b ae 4c 1a be 0f cb fb 3e
       0.25322255 0.004095128 -0.15068313 0.4917836

representation.radial_basis.bessel_weights f4 [6]
000000 7b 99 ca 3e 39 b8 95 3f bb f3 fa 3f 61 03 31 40
       0.3957022 1.1696845 1.9605631 2.7658312
000010 2c 95 65 40 02 7d 8d 40
       3.5872297 4.4215097

representation.radial_transform.weights.0 f4 [6, 12, 4]
000000 b2 d9 06 40 34 eb d4 3f b5 8a 9f 3e e2 59 18 be
       2.107037 1.6634278 0.31160513 -0.14878038
000010 08 a2 78 bf cd c1 4e 3f b7 47 c9 3c 21 b1 a7 3d
       -0.9712224 0.80764467 0.02457033 0.081880815
000020 a2 e8 c8 3f f8 85 d4 3f 83 d7 10 3f 83 a0 1c 3f
       1.5695994 1.6603384 0.56578845 0.6118242
000030 c3 c7 83 be f1 26 74 bf ca 23 b8 b9 a4 8c 55 3e
       -0.25738344 -0.9537192 -0.0003512188 0.20854431
000040 a6 40 14 3f a6 53 8c 3f dc 7b d3 3c 53 ca 2a 3f
       0.57911146 1.0963027 0.025815897 0.6671497
000050 1e ca 07 40 87 1e 58 3b 3d 5b 22 bc ff df 6c 3e
       2.1217113 0.003297718 -0.009909448 0.23132323
000060 2f f0 22 40 21 43 78 3f ad 3c 0b 3c 4a d6 f5 3e
       2.5459096 0.9697743 0.008498353 0.48015052
000070 a1 e8 b9 3d 74 77 09 3f aa d3 92 3e 6f c1 be 3f
       0.090775736 0.53697896 0.28677112 1.4902781
000080 57 9d ba bb ae 1b f2 3e e9 9d d6 be fc 0f 42 bd
       -0.005695026 0.47286743 -0.4191735 -0.047378525
000090 62 5c d9 be 03 17 9d 3e 56 95 08 be 4e f7 79 3e
       -0.42453295 0.3068162 -0.13338217 0.24410746
0000a0 6b 83 17 bf ca 3f ba 3e 5f f8 36 3c ff a7 2b bb
       -0.591849 0.36376792 0.011167615 -0.0026192663
0000b0 15 d2 2b c0 bb d9 a9 bf bc a9 f0 bb 1f ac 96 bd
       -2.6846974 -1.3269571 -0.0073444527 -0.07357048
0000c0 5f e0 a8 3f 7c 55 09 bf 66 2e 1d 3f 63 b0 dd be
       1.3193473 -0.53646064 0.61398923 -0.43298635
0000d0 82 38 a5 3d bc 47 a4 3f b9 0b c0 bc a8 cf 57 3e
       0.08067419 1.2834392 -0.02344309 0.21075308
0000e0 6f ca 04 40 b1 d7 a0 bf 5c 74 9b bf cd 66 e5 3f
       2.0748556 -1.2565824 -1.2144885 1.7921997
0000f0 e2 56 90 be 09 63 84 3e c9 67 ed be 36 cf 18 3f
       -0.28191286 0.25856808 -0.46368244 0.5969118
000100 24 76 a4 bf b1 97 79 bf bb 1e 92 bc 58 11 f4 3f
       -1.2848554 -0.9749709 -0.017836919 1.9067793
000110 2e 05 5c 3f 41 ec 46 be 1d 9a 08 bc 50 b1 cb bf
       0.85945404 -0.19426061 -0.008337525 -1.5913486
000120 a4 fd 1c 40 0e 95 0b 40 24 e9 42 ba 95 cf f1 3f
       2.452981 2.1809726 -0.00074352534 1.8891474
000130 d6 48 1f 3f 4b 74 7a 3f 3e cf ab 3f 3a a5 c7 3f
       0.62220514 0.978337 1.342262 1.5597298
000140 6a 4e b6 3f 56 91 13 40 82 de 39 3e c8 91 cc bd
       1.424268 2.3057456 0.18151286 -0.09988743
000150 77 ad eb be 94 c8 41 bf 74 c8 d3 3e 33 37 d7 3f
       -0.4603078 -0.7569668 0.4136387 1.681372
000160 88 cd 61 3e 71 61 a2 3f 4d 27 b3 bc 2b 04 87 bc
       0.2205106 1.2685987 -0.021869326 -0.01648148
000170 09 34 f9 be a7 1e e8 bd 32 60 1d bc ae f4 80 be
       -0.48672512 -0.113339715 -0.009605454 -0.25186676
000180 cd 99 94 3f 69 0e 2c bf ab 68 d3 be 97 04 78 be
       1.1609436 -0.6720949 -0.41290793 -0.24220501
000190 4e 19 c1 3d 42 ac b0 3f 28 9d a0 bc 1e b7 39 3e
       0.094286546 1.3802569 -0.019606188 0.1813626
0001a0 c7 47 52 3f 9e be 03 bf 3c 37 83 bf db 2d 8c 3f
       0.82140774 -0.51462734 -1.0251231 1.0951494
0001b0 d6 95 2c 3e 63 f6 dc 3e 1f fd 82 bf fc 9b f4 3e
       0.16854033 0.43156728 -1.0233496 0.47775257
0001c0 c6 c7 18 3f b5 ff 6d 3f 75 88 08 bd 8e 36 9e 3f
       0.5967983 0.929683 -0.03333326 1.2360399
0001d0 eb ae 4f be 86 e1 73 3e 5b 32 63 3c 01 07 08 c0
       -0.2028157 0.23816499 0.013866986 -2.1254275
0001e0 b4 55 a2 3f 20 55 d5 3f 87 12 20 bc 4b 48 b2 3f
       1.2682405 1.6666603 -0.009770042 1.3928312
0001f0 6c d3 88 3f 34 9c b5 3e f8 d7 e5 be 6a f8 72 bf
       1.0689521 0.35470736 -0.44891334 -0.949103
000200 54 85 c0 3f d6 96 a5 3f 17 10 40 3f db 5e b2 3c
       1.5040689 1.2936656 0.7502455 0.021773746
000210 d0 6f 3f 3e 2a 52 9e 3e e1 1a 4d bb 73 dc 43 40
       0.18694997 0.3092206 -0.0031296539 3.0603302
000220 3c 1b 0a 3f eb aa 78 3f db c6 8c bc 3c 81 a7 bc
       0.53947806 0.971358 -0.017184665 -0.020447366
000230 ef 3c b0 3f 4f 89 a8 3f 01 67 96 3b 2e 10 c7 bc
       1.3768595 1.3166903 0.0045899157 -0.024299707
000240 77 7e 45 3e 6d 65 f6 bd 3e 38 36 be 06 b5 f4 3a
       0.19286524 -0.12031064 -0.17794892 0.0018669672
000250 f3 9d 52 be 19 85 11 3f 80 2b 2a 3c 6d d4 75 bd
       -0.20568065 0.56843716 0.010386348 -0.060017038
000260 e8 bd 0c 3f 04 04 5d 3f 35 10 58 3e 4b 34 17 bd
       0.54977274 0.8633425 0.21099932 -0.036915105
000270 a3 77 ba 3c 5a 07 3d 3c 41 e5 16 3f dc 2b 69 bd
       0.022762125 0.011537397 0.58943564 -0.056926593
000280 24 73 7d 3e 64 2a 44 3f eb db 23 bc 79 4c 11 be
       0.24750954 0.7662718 -0.010001163 -0.14189328
000290 f0 71 6f 3d 9e 4a 55 3e c2 15 04 3c f5 3a e9 be
       0.05845827 0.20829245 0.008061828 -0.45552793
0002a0 6f 6f 83 3e a2 e7 7e 3f a7 2f 33 3b 42 7b 09 3f
       0.25670955 0.99572194 0.0027341635 0.537037
0002b0 67 15 eb 3f 26 df 4b 3f b7 4e 01 bf c3 24 ab 3d
       1.8365906 0.7963737 -0.50510734 0.08356621
0002c0 ee be 51 3f 39 5b 71 3f 90 fa 29 3e 8d 3d 32 bc
       0.8193196 0.9427982 0.16599488 -0.010878933
0002d0 2e 02 89 3f ec b8 aa 3d 51 75 62 3e eb af aa 3f
       1.070379 0.08336052 0.22115065 1.3334936
0002e0 c8 76 80 bd 78 d7 82 3f 53 d6 57 bd b2 88 04 bc
       -0.06272656 1.0222006 -0.05269463 -0.008089231
0002f0 3e aa c9 3e 6c d3 3d 3f 46 aa eb bb ee bd 6b bd
       0.39387697 0.7415073 -0.007191929 -0.057554178
000300 d9 a3 f5 3d c9 ab 8e 3e bf 47 95 3e ba be 9d 3d
       0.11994142 0.27865437 0.291563 0.07702394
000310 a2 26 1c bc fd b7 2f 3e a1 e4 98 b9 87 91 2d bc
       -0.009530695 0.1716003 -0.0002916204 -0.010593778
000320 96 ae 47 3f 3e f3 c3 3e 6e 88 95 3c e8 be c0 be
       0.7800077 0.38271517 0.018253531 -0.3764565
000330 a9 82 77 bd 99 e8 64 bd 15 b1 a7 3f 1f 78 b7 bd
       -0.06042734 -0.055885885 1.3100916 -0.08958458
000340 14 f5 b6 3d 21 df c2 3e 1e 36 d3 3c 3e 47 ee be
       0.08933464 0.3806086 0.025782641 -0.46538728
000350 81 1f 37 3c 46 35 4b be 4a 4e ca bb bb 17 b4 3f
       0.011176945 -0.19844541 -0.0061738836 1.4069742
000360 3b cb 41 be 1b d3 45 3d ee e4 ef ba 7e 81 99 be
       -0.18925183 0.04829703 -0.0018302479 -0.29981607
000370 6e 68 06 3f 1a 3e 8c 3f 6c 6d a4 bd 3d d9 1b 40
       0.525031 1.0956452 -0.08028683 2.4351342
000380 b9 21 2e 3e c4 eb 3c 3e 26 d5 9c be 4f e4 86 3c
       0.17005052 0.18449312 -0.3063137 0.016466288
000390 c6 b8 70 3f 85 bd e1 3d 04 47 8a be 16 06 37 3f
       0.9403194 0.11022476 -0.27007306 0.7149366
0003a0 a8 e7 8a 3e eb 8e 5a 3f 19 78 99 3d 29 dc 7b 3b
       0.27129865 0.85374326 0.0749361 0.0038430786
0003b0 3d 03 dc bc 22 32 88 be 95 3c d9 39 3b 39 87 3d
       -0.026857013 -0.26600748 0.00041434602 0.06602713
0003c0 a6 2a 64 3e 92 72 9e 3e 9f a7 b8 3e 48 2c 52 3d
       0.22281894 0.30946785 0.36065385 0.05131176
0003d0 18 49 50 3d 85 6c 03 be cd e6 4d 3d e6 0c 7e bc
       0.050850958 -0.12834366 0.050268937 -0.015506005
0003e0 68 21 99 3e 16 b3 2a be 89 8f 15 3d ee e4 e6 bd
       0.299083 -0.16669878 0.03651384 -0.112741336
0003f0 29 71 6e 3e 06 a7 ac bd 63 de a3 3e 1f 4c 04 be
       0.23285355 -0.08430295 0.32005605 -0.12919663

representation.radial_transform.weights.1 f4 [6, 12, 4]
000000 f4 37 44 c0 6a 53 fe be 07 9b 85 40 e0 b5 a9 3f
       -3.065915 -0.49673015 4.175174 1.3258629
000010 03 58 9e c0 84 41 dc bf ba 4c 60 3f d8 34 8d bf
       -4.9482436 -1.7207494 0.87617075 -1.1031752
000020 85 d9 69 3d 60 8a 9e 3f 38 6c c9 3f 5c 51 97 bf
       0.05709221 1.2385979 1.5736151 -1.1821704
000030 30 9f 5c 40 15 9c a3 3f d7 0b b2 3f 17 76 57 3f
       3.447216 1.2782007 1.3909863 0.84164566
000040 66 7c 81 40 13 c9 be be 78 8b 32 c0 0f 67 32 c0
       4.0464354 -0.37262782 -2.7897625 -2.7875402
000050 8d 36 9f c0 5a c2 08 c0 c3 96 6a be 22 89 83 3d
       -4.975409 -2.1368623 -0.22909074 0.064226404
000060 54 05 46 40 bd 93 8c 40 f4 5b 38 bf ec c6 1d 3f
       3.0940752 4.3930345 -0.7201531 0.61631656
000070 a2 a0 03 41 a8 fb 00 c0 a2 c4 e8 3f 6c a2 27 40
       8.226717 -2.0153599 1.8185008 2.6192884
000080 c9 26 3a c0 0b fa d5 bf ab 5c fe bf 60 f2 27 3f
       -2.9086173 -1.6716932 -1.987203 0.6560421
000090 b4 32 56 40 a5 89 13 40 91 98 1f bf 49 fc c8 be
       3.3468447 2.3052762 -0.6234217 -0.39254978
0000a0 b8 eb ad 40 b3 28 36 40 23 39 f1 bf 12 53 1f c0
       5.4350243 2.846234 -1.8845562 -2.4894452
0000b0 38 d0 54 40 23 9a db 3f db 66 31 3f fd 36 e0 3f
       3.3252087 1.7156414 0.6929757 1.7516781
0000c0 e9 8b b7 3f ee 5c 6c 3f a9 04 76 40 82 d1 0c 40
       1.4339572 0.923293 3.8440344 2.2002873
0000d0 55 bf 94 bf e7 9e 99 be 53 b9 f2 3e 00 94 b6 3f
       -1.162089 -0.30004045 0.47407016 1.4263916
0000e0 8f 56 27 3f 13 fa 9a 3f 08 2c 7d 3e 00 98 54 3e
       0.6536645 1.2107567 0.24723828 0.20761108
0000f0 59 c8 89 40 52 94 83 3f 2f 11 18 bf 51 b7 58 40
       4.3057065 1.0279639 -0.5940122 3.3861887
000100 70 82 f4 bf ce 5e 09 40 a6 d7 80 c0 ad 88 30 c0
       -1.9102306 2.1464114 -4.0263243 -2.758342
000110 3d 47 2c c0 39 bd 5c bf 25 a1 06 be 3b d2 93 be
       -2.691848 -0.8622623 -0.1314741 -0.2887133
000120 7e 0f 0d bf 2d b8 26 3e 66 37 0e c0 b6 50 ed 3f
       -0.55101764 0.16281195 -2.2221313 1.8540256
000130 96 9e 65 40 7a 12 4d 3f 00 5a fd 3e e1 1e 05 40
       3.5878043 0.8010632 0.49482727 2.0800097
000140 43 68 50 3f eb c3 ab bf a9 cf bc bf 00 cb 06 40
       0.8140909 -1.3419164 -1.4750873 2.1061401
000150 b8 ba 66 bf 6b e6 14 40 8f 0e 6f bf 28 9f ac bf
       -0.9012866 2.3265636 -0.9338159 -1.3486071
000160 8e ad dd 40 20 43 42 40 46 ef 56 bf 1e fd 83 c0
       6.927436 3.035347 -0.8395885 -4.124648
000170 71 3e 28 3e 4f 72 3a 3f fe 09 d8 be c8 93 30 40
       0.1643007 0.7283067 -0.42195123 2.7590199
000180 30 43 14 40 c0 2a c8 3f c7 d8 9a be 1f fa d5 bd
       2.3166008 1.5638046 -0.30243513 -0.104480974
000190 95 04 fc 3e 08 9f 8b 3f 96 53 10 3f 85 8d a7 3f
       0.49222246 1.0907907 0.5637754 1.3090063
0001a0 02 85 13 c0 7b 13 40 3f ae 79 c4 3d 0f 50 80 40
       -2.3049932 0.75029725 0.09593521 4.009773
0001b0 fa 84 23 40 9b b2 b4 3f f4 b7 46 bf 21 5f 7a 40
       2.5549912 1.4117006 -0.7762444 3.9120562
0001c0 fe 31 77 3e 2d 17 66 3f f0 59 96 bf a4 cb d0 3f
       0.24140164 0.89879113 -1.1746197 1.6312146
0001d0 d3 08 06 40 95 bc 95 3f 37 43 eb 3e 2e b0 8e 3f
       2.0942886 1.1698176 0.45949718 1.1147516
0001e0 6a 78 1a c0 d0 ab 25 be 39 3a e1 3e 0d c1 e8 3f
       -2.4135995 -0.16178823 0.43989733 1.8183914
0001f0 0e 1c 6d 3f 2d 2a dd 3f 0d 50 d8 3e d3 51 78 3f
       0.92620933 1.7278496 0.42248574 0.96999854
000200 66 aa 80 40 7e bd b2 3f 36 e9 64 3f c3 fb 50 40
       4.0208006 1.3964078 0.8941835 3.2653663
000210 9a 96 af bf 3e ce a2 bf 76 65 86 3f 9a e0 0f bf
       -1.3717835 -1.271919 1.0499713 -0.5620209
000220 1b 8e 06 40 8b a9 65 3e dc f7 97 3f 84 92 58 c0
       2.1024234 0.22427957 1.1872516 -3.3839426
000230 78 c5 8f 3f 3f 1b a7 3f e5 d2 8d bf 7f b8 5e 3f
       1.1232138 1.305519 -1.1079985 0.8700027
000240 c2 95 db 3f 33 d3 69 3f ff 59 be bf e4 b3 a0 bf
       1.7155077 0.9133789 -1.4871215 -1.2554898
000250 3c 72 d0 3e 5f 68 40 bf 38 10 e5 3f ff 16 be be
       0.40712154 -0.7515926 1.7895575 -0.3712692
000260 1d 07 64 bf de 7e 9b 3f 57 09 bf 3f 97 48 43 40
       -0.89073354 1.2148092 1.4924725 3.0513055
000270 e9 e7 af be 98 9e 39 3f 1c e0 06 bf 0a f5 09 40
       -0.3435662 0.7250762 -0.52685714 2.155581
000280 ea eb a0 3f 78 94 37 3f 0e 91 0e 40 62 70 3c 40
       1.2571995 0.7171092 2.2276034 2.9443593
000290 8b fd 94 40 56 4a 0a 40 52 9b 5b bf 49 b2 7b 40
       4.65595 2.160787 -0.85783875 3.9327567
0002a0 ce b2 e9 3f 76 59 ff 3d 22 c1 be 3f bb 2b eb 3f
       1.8257692 0.12468235 1.490269 1.837272
0002b0 82 b3 bc 3f 74 f3 76 3d dc b0 bb 3f 29 4e cc 3d
       1.4742281 0.06029077 1.4663348 0.09975845
0002c0 ff 2e 49 40 88 3f 19 40 b8 41 34 3e 8f b8 8c 3f
       3.1434934 2.3945026 0.17603195 1.0993823
0002d0 70 6a 13 be 1f 37 69 bf 57 ff 37 40 41 a7 46 40
       -0.14396071 -0.91099733 2.8749597 3.1039584
0002e0 5b 51 ce be 93 f3 83 bf d0 82 1e 40 50 76 ee bf
       -0.40296444 -1.0308708 2.4767342 -1.8629856
0002f0 28 d2 5e bf 64 9c 2d 3f 9d b4 e0 3e 13 5c 89 3f
       -0.87039423 0.6781676 0.43887797 1.0731224
000300 2c 50 b5 3f ae 02 54 3f 35 9d af 3e 03 ad bc 3f
       1.4165092 0.8281659 0.34299627 1.4740299
000310 cc c8 0d 3e 49 41 c4 be 41 54 03 40 7a 23 fb be
       0.13846129 -0.3833106 2.0520175 -0.49050504
000320 e0 bb d9 bd 53 73 91 3f bf db 4d 3f c3 03 1b bf
       -0.106315374 1.1363319 0.8041343 -0.60552615
000330 65 bb ad bf 4d f2 b7 be 1f c9 3c 3e c1 6c 38 3f
       -1.3572813 -0.35927048 0.18436097 0.72040945
000340 d3 71 0e bf cc 20 3c 3e 69 04 1b 40 6b cd 23 40
       -0.5564243 0.18371886 2.4221442 2.5594127
000350 18 d0 3d 40 12 0e 23 40 9b 38 39 3f 44 ab 1e 40
       2.965826 2.5477338 0.72352 2.4792032
000360 54 9b 86 40 98 04 cd 3e b0 d6 6d 3f ea fd 14 40
       4.206461 0.40042567 0.9290571 2.3279977
000370 2a f9 f1 3e 6f 85 f7 be a2 94 de 3f 10 33 be 3d
       0.4726041 -0.4834399 1.7389109 0.09287083
000380 ea 8f 54 3f d6 46 a5 3f a8 3e 0a c0 62 be 3e bf
       0.83032095 1.2912242 -2.1600742 -0.7450925
000390 55 e9 69 be 72 bf 1f 3f 93 81 11 40 d1 57 86 40
       -0.22842915 0.624015 2.2735336 4.19822
0003a0 4b e5 56 3d 66 09 90 be 39 b4 0b 40 1b 8e 29 3e
       0.052464765 -0.2813217 2.182875 0.16558115
0003b0 12 c7 17 bf d3 a9 83 3c e1 25 4d 3e 1d 48 0d 40
       -0.5928813 0.01607219 0.20033981 2.2075264
0003c0 35 3c 04 3f 90 58 f0 3e 79 b5 25 3f ce 81 da 3f
       0.5165437 0.46942568 0.6473003 1.7070863
0003d0 c6 3a 26 be 38 a5 c5 3e 7d d1 3a 3f 0a ee 15 be
       -0.16233358 0.38602614 0.72975904 -0.14641586
0003e0 26 c0 b4 be 2b 6d b7 3e 75 7b 4d bd b4 77 8f bf
       -0.35302848 0.35825476 -0.050166566 -1.1208405
0003f0 ec 3f e8 be d5 34 3d bd e8 5e 24 3f 82 af 77 3e
       -0.4536127 -0.046192963 0.64207315 0.24188045

representation.radial_transform.weights.2 f4 [6, 12, 4]
000000 1f 54 96 40 e2 5e 06 40 df 8e b4 3f f1 8b b7 3f
       4.6977687 2.0995412 1.4106101 1.4339582
000010 10 f5 68 3d 09 b0 e8 bf e3 9e 03 3f ca 30 3b 3f
       0.056874335 -1.8178722 0.51414317 0.7312132
000020 c1 2a c6 3e 12 a1 bd 3e bc 12 06 3f 37 46 d8 3f
       0.38704494 0.3703695 0.52372336 1.6896428
000030 37 5c 3a bf 68 95 38 be fc a2 3f bf b8 f7 bd 3e
       -0.7279696 -0.18025744 -0.7485807 0.37103057
000040 9a a8 2b c0 36 a9 da 3e 1e da 88 bd b4 20 b0 3f
       -2.6821656 0.42707223 -0.066822276 1.375998
000050 50 5a b3 bf 71 e4 28 40 f8 dc 04 3f 56 03 f4 3f
       -1.4011936 2.638943 0.5189967 1.9063518
000060 fc 40 8c 40 28 e3 f2 be 5e 3a 85 bd 0a cf 05 3f
       4.3829327 -0.4743893 -0.06505273 0.5226904
000070 f0 33 5c 3d 4d 95 d4 bf 07 29 bd 3f 2b e6 e2 3d
       0.05376047 -1.6608063 1.4778146 0.11079057
000080 60 ab 8f 3f a0 6c d1 3f 53 4b d2 3d 22 11 dd be
       1.1224174 1.6361275 0.10268273 -0.43177134
000090 0f 6c 4c c0 fc 34 d3 3e ef e4 06 3f 65 30 66 bf
       -3.1940954 0.4125136 0.52693075 -0.89917594
0000a0 48 88 59 bc 83 78 42 3f af 74 4c 3f 8e ad 71 3f
       -0.013277121 0.75965136 0.79865545 0.9440545
0000b0 2e 0d c6 3e be ac 04 40 38 06 80 bc 03 10 8d 3e
       0.3868193 2.0730433 -0.015627965 0.27551278
0000c0 84 89 70 40 73 62 8a 3f 0a 0b 07 40 b8 59 bf 40
       3.7583933 1.0811294 2.1100488 5.979702
0000d0 d6 2b 09 40 ea 51 bc 3d 35 24 e6 3f 20 26 ac 3f
       2.1433005 0.09195311 1.79798 1.3449135
0000e0 a9 a3 1e 40 e4 d6 c6 bf cb e7 12 3f 53 ce b4 40
       2.478739 -1.553433 0.5738494 5.650186
0000f0 02 ed b1 bf 65 77 fa bf 53 48 e6 be d8 cf a7 3d
       -1.3900454 -1.9567686 -0.44977054 0.0819394
000100 5b 9b d5 3e 8e 2c 89 bf 9e 81 8c 3e ae dc 0b 40
       0.4172009 -1.0716722 0.2744264 2.1853442
000110 52 cd 4d c0 68 04 92 40 60 6f ee 3d 10 fd ee 3f
       -3.2156568 4.563038 0.11642337 1.8670979
000120 73 71 e6 3f ee 4e 2b 3d 09 b9 d6 3f ea b5 54 bf
       1.8003372 0.04182332 1.6775218 -0.8309008
000130 e2 82 8b 3f 27 05 04 3e 98 be c6 3e 81 86 bb bf
       1.0899317 0.1289259 0.38817286 -1.4650422
000140 8f 2b 0e bf c0 51 f1 be 96 b0 79 3e f9 f2 27 bf
       -0.55535215 -0.47132683 0.24383768 -0.6560512
000150 ed 3f 6f bf c9 f9 c9 3f 8b 52 71 3f 57 66 17 c0
       -0.9345692 1.5779353 0.94266576 -2.3656213
000160 1a b8 71 c0 cd 93 13 40 36 77 1c 3f 92 36 b8 3f
       -3.7768617 2.305896 0.611194 1.4391654
000170 cc ea d3 3f 99 36 42 40 6c 87 e3 bf 0b a8 e0 bf
       1.6556029 3.0345824 -1.7775702 -1.7551283
000180 0a 11 fe 3f 5c 29 c0 bf 76 b1 05 40 b0 1d e7 40
       1.984895 -1.5012622 2.0889564 7.222374
000190 99 cf 0e be 97 84 8c 3f 40 9f 0f 40 58 6a 87 bf
       -0.1394638 1.0977963 2.2440948 -1.0579329
0001a0 2a 5f ae 3f 27 e2 ce bd a5 0f c3 bf ff 4a 94 40
       1.3622792 -0.10101729 -1.5239149 4.634155
0001b0 72 17 fb 3f 7e cd d2 3f 52 f6 d1 3f b3 b9 7c bf
       1.961653 1.6468961 1.6403296 -0.98720855
0001c0 a6 9e 22 40 58 0b 26 3f 80 42 97 3f a6 8d 91 be
       2.5409331 0.6486106 1.1817169 -0.28428382
0001d0 be 2b 12 3f cb 13 4e 40 38 ea 86 3f 19 82 15 bf
       0.57097995 3.219958 1.0540228 -0.5840164
0001e0 08 9a 31 40 d4 84 77 3f b5 40 f2 3f 92 92 51 c0
       2.7750263 0.96687055 1.8925997 -3.274571
0001f0 44 cb 27 3f 18 7c bb 3f a1 97 f8 bf e2 9b 80 c0
       0.65544534 1.4647245 -1.9421273 -4.0190287
000200 87 51 8e be 55 7e 94 bf 8b a3 c0 3f 63 40 12 bf
       -0.27796575 -1.1601053 1.5049909 -0.57129496
000210 85 70 ec be ad b0 1d 40 fa 17 9e be 7a cb 56 3e
       -0.46179596 2.4639084 -0.30877668 0.20976058
000220 89 50 43 3f ef ae c3 3f a7 75 e0 be 73 7d 97 be
       0.7629476 1.528776 -0.43839762 -0.29587898
000230 97 27 ef bf 1d 6b 9c 3f 02 a1 69 3e 98 91 03 bf
       -1.8683957 1.2220188 0.22815326 -0.51394033
000240 ab ee a3 3f af 47 05 c0 be b1 a5 3e 0b 73 be 3f
       1.2807211 -2.0825002 0.3236217 1.4878858
000250 17 99 15 bf 6f 8a 24 3e 98 b9 51 40 f2 b5 10 bf
       -0.5843672 0.16068433 3.2769527 -0.56527627
000260 2e a4 c7 be a0 3d 87 3f e8 03 2e bf ed 67 1e bc
       -0.38992447 1.0565681 -0.6797471 -0.0096683325
000270 f3 b7 9f be dc ad 4b 3f e4 8d 55 40 75 a7 90 be
       -0.3119503 0.79562163 3.3367853 -0.2825276
000280 e5 89 02 40 74 4d a1 3f 0a 9b f3 3e c7 a0 04 c0
       2.0396664 1.2601762 0.47579223 -2.072313
000290 95 19 26 3e 90 cf b8 3f 0a 11 0d 40 be 07 14 3e
       0.16220696 1.4438343 2.204165 0.14456078
0002a0 e1 06 f3 3f ed f4 1b 40 50 1d 6d 3e 64 da 0e c0
       1.8986474 2.436824 0.23155713 -2.2320795
0002b0 08 86 18 bf 37 66 fb be 66 4d a2 bf 5b fc c9 bf
       -0.59579515 -0.4910142 -1.267987 -1.5780138
0002c0 ec d6 a6 bf f0 d3 4f 3e 68 f7 39 40 b0 65 31 40
       -1.3034339 0.20295691 2.9057255 2.7718315
0002d0 a8 7c 03 c0 21 d2 2c 40 d8 50 4d 3f 43 8a 8e 3e
       -2.0544834 2.7003253 0.8020148 0.2783986
0002e0 d2 41 30 40 1c 8c bc 3f 4f 26 bd bf ef 94 91 bf
       2.7540174 1.4730258 -1.4777316 -1.1373576
0002f0 03 30 50 bf ef f0 81 be 79 05 f1 3c f6 a2 3b 40
       -0.8132326 -0.2537913 0.029421555 2.9318213
000300 31 31 a5 3e 60 4b 25 bf 31 af 13 be 58 9d af bf
       0.32264093 -0.6456814 -0.14422299 -1.3719893
000310 fa 88 f0 3f 22 23 9a bf ec a0 72 3f 6d dd 42 bf
       1.8791802 -1.2041972 0.947768 -0.7611912
000320 d0 d4 94 3d 59 5f d5 be 49 b5 c6 3f 52 d6 08 c0
       0.07267153 -0.41674307 1.5524074 -2.138081
000330 3d 4d 01 bf 14 59 7c bf 34 06 34 40 15 7e b2 bd
       -0.5050848 -0.9857342 2.8128786 -0.087154545
000340 dd 22 86 3e d7 f8 09 3e 2b 3c 97 3f 2e ad e8 3e
       0.26198474 0.13473831 1.1815237 0.45444626
000350 75 39 58 bf 4c 58 e1 3e ae ee 00 40 02 9f c7 3e
       -0.8446267 0.44012678 2.0145679 0.389885
000360 19 76 9f 3e 96 c0 32 40 6d 78 81 bf b8 98 c5 3f
       0.3114479 2.7930045 -1.0114876 1.5437231
000370 24 47 93 3f 12 25 1c 3e d8 f2 57 3e e4 92 62 3f
       1.1506085 0.15248516 0.21088731 0.8850539
000380 67 27 9d bf d0 d5 19 3f 84 4f 3f 40 74 b5 41 40
       -1.227765 0.60091877 2.9892282 3.0267
000390 17 5a 7e bf 02 2a 1a 40 df 18 e4 3f e0 b3 25 3f
       -0.99356216 2.408814 1.782009 0.6472759
0003a0 53 27 aa 3f b1 3a cb 3e 88 58 8b 3f 34 97 8a bf
       1.3293251 0.39693215 1.0886393 -1.0827394
0003b0 b9 40 33 bf f9 89 e8 be f0 51 69 3c 1a e8 49 40
       -0.70020634 -0.45417765 0.014240727 3.1547914
0003c0 a2 a0 21 3b d7 d6 60 3e 90 c1 c0 be 9d 9c 5c bf
       0.0024662395 0.21956955 -0.37647676 -0.8617647
0003d0 30 fd d8 3f 78 ca 70 bf 32 94 45 bf 3f aa 16 be
       1.6952267 -0.9405894 -0.77179253 -0.14713381
0003e0 0e b8 4e 3e 71 db 76 bf a7 50 f0 3e 98 4b 52 bf
       0.20187399 -0.9642859 0.46936533 -0.82146597
0003f0 e0 63 2b 3e f0 08 ca be f4 f7 9f 3f 9a 71 51 3f
       0.16737318 -0.39459944 1.2497544 0.8181397

output_modules.0.les.atomwise.outnet.0.linear.weight f4 [32, 144]
000000 54 5f 83 bd 6a fa 51 be 94 98 ae bf 48 ac 06 bd
       -0.06414667 -0.20505682 -1.3640313 -0.032879144
000010 e2 87 10 be aa 90 49 3f 5c 43 16 be b4 93 95 bf
       -0.14114335 0.78736365 -0.14674133 -1.16857
000020 e5 5a 61 bd f7 fb 81 bd a4 ae 09 bf 83 45 49 bf
       -0.055018324 -0.063468866 -0.53782105 -0.7862169
000030 c2 ef 4d 3f 0f 79 d9 be 30 b2 2b bf e1 df f4 bd
       0.80443966 -0.42475173 -0.6706877 -0.11956764
000040 a3 22 c3 40 23 23 22 3f d4 83 03 c0 ad 65 7f bf
       6.097978 0.63334864 -2.0549212 -0.9976452
000050 36 89 8c bf 44 c8 f8 3e bc 97 90 bf eb 97 12 3d
       -1.0979373 0.4859029 -1.1296306 0.03578941
000060 63 b0 01 be f0 b3 e6 3e fe 18 e4 3e 93 22 dd 3d
       -0.12664942 0.45059156 0.44550318 0.1079761
000070 4d 9f a8 c0 e6 6d 19 3f 8b 4c 1c 3f ae 5e 2e bf
       -5.269446 0.59933317 0.61054295 -0.6811322
000080 17 83 82 bf 58 e5 86 3e 24 85 9b 3f 46 ac b9 bf
       -1.0196255 0.2634685 1.2150006 -1.4505699
000090 6b 93 79 3e 39 57 8e be ef 06 ae be e1 19 8e be
       0.24372642 -0.2780092 -0.33989665 -0.2775412
0000a0 bf 91 9d bf 45 37 ce be 60 1f 91 bf cf 36 8c 3f
       -1.2310103 -0.40276542 -1.13377 1.0954226
0000b0 6a 6a 5b c0 6a 3c b1 3c 38 f8 1f be 3e d9 c9 bd
       -3.42837 0.021635253 -0.15622032 -0.09855889
0000c0 27 7c d6 3e 01 8c 35 bf 02 05 35 bf c5 65 82 be
       0.41891596 -0.70916754 -0.70710766 -0.2546827
0000d0 90 03 dd bf 19 1d 55 bf 12 06 08 bf 58 a8 fd 3e
       -1.7266712 -0.83247524 -0.5313426 0.495425
0000e0 1d 4a 60 c0 30 df c8 bf 5f 50 0a c0 2b f6 c1 bf
       -3.5045235 -1.5693111 -2.1611555 -1.515325
0000f0 d4 82 81 be de f5 aa be 72 ec 17 3f 1a 3d c5 bc
       -0.25295126 -0.33390707 0.5934516 -0.024076987
000100 a5 4a 01 c0 38 a7 dd 3e 0b a0 77 3d 2b 7f a6 bf
       -2.020181 0.4329164 0.060455363 -1.3007559
000110 40 bd 20 40 e7 3b 62 bf b4 57 6d bf 86 c2 94 3f
       2.511551 -0.88372654 -0.9271195 1.1621864
000120 df b6 8d be e1 02 a8 be 87 58 90 3d 04 7d d8 bd
       -0.27678582 -0.32814696 0.07048135 -0.1057072
000130 3c 1e d3 be 80 ec 78 3f 4f 8d 6d bf bd 51 4d 3d
       -0.41234004 0.9723587 -0.92793745 0.05012678
000140 86 33 44 c0 10 75 82 3e ec 48 2f bf d2 d0 42 bf
       -3.0656447 0.25479937 -0.68470645 -0.76099885
000150 19 98 57 3f fb e2 d9 3e d4 68 74 bf 72 89 96 3f
       0.8421646 0.42555985 -0.95472455 1.1760695
000160 61 15 41 bf b4 db f4 bd 16 47 fa bf f9 02 30 3e
       -0.75423247 -0.119559675 -1.9552944 0.17188634
000170 c9 2e 08 c0 e5 0a a2 3d a1 6b 2b c0 29 27 93 3e
       -2.1278555 0.07912234 -2.6784441 0.28740814
000180 7e d5 26 40 26 ae 08 be be 27 16 3f cc 98 7d be
       2.6067805 -0.13347682 0.5865439 -0.24765319
000190 5e 4c 27 c0 3c 79 61 3e 3a 31 66 be d2 80 26 bf
       -2.614036 0.22018903 -0.22479716 -0.65040314
0001a0 d5 4b 9c bf 2d 97 28 3d bb 10 67 bf d7 05 f8 bf
       -1.2210642 0.041159797 -0.90259904 -1.9376782
0001b0 53 37 6e be 71 29 37 bf a6 78 08 bf 1b f7 94 3c
       -0.23263292 -0.7154761 -0.53309095 0.018184235
0001c0 df e8 98 40 c9 d1 c1 be dd 3b c6 be ed 88 a9 bf
       4.7784266 -0.37855366 -0.38717547 -1.3244911
0001d0 40 7a 98 be a6 8f bc 3e f3 d4 8c bf 09 91 ec bb
       -0.2978077 0.36828345 -1.1002487 -0.007219438
0001e0 90 32 a6 3f 81 2e 25 3e cc ec 1c be 8d 06 40 3d
       1.298418 0.16131021 -0.15324706 0.046881247
0001f0 79 0f 8f 3e 19 40 b1 3e 9e 22 95 bf b8 2f 20 be
       0.27941492 0.34619215 -1.1651189 -0.15643203
000200 a8 7a 8c bf 60 de 4a bf 9e 90 d6 bc 98 5a 54 3e
       -1.0974932 -0.7924557 -0.026192006 0.20737684
000210 28 01 79 3f b3 d1 e2 be 05 75 78 3e 6b b4 8d bd
       0.9726739 -0.44300613 0.2426339 -0.069191776
000220 1d 92 d7 bc 09 b4 2c bf 00 1a df bf c3 a1 d5 bf
       -0.02631479 -0.6746221 -1.742981 -1.6689991
000230 f1 52 14 c0 ce f0 1c bf 72 e2 cb bd 91 f9 59 bf
       -2.3175623 -0.6130494 -0.099553004 -0.85146433
000240 6d e1 16 3f ba b6 91 be 77 3f 88 bf 62 ae a1 be
       0.5893772 -0.28459722 -1.0644368 -0.31578356
000250 cd b0 98 3f ba d7 89 3f 97 d5 b1 be 39 fe f3 bf
       1.1928955 1.076896 -0.3473327 -1.9061958
000260 e9 f6 94 bf b7 db 5e bf 82 ce 0f bf 9c 6c 60 bf
       -1.1637851 -0.8705401 -0.5617448 -0.87665725
000270 38 f2 78 3f d5 3c 1b bf c7 13 9d be 43 07 a1 bd
       0.97244596 -0.606397 -0.3067915 -0.07862713
000280 cd 6c b0 40 fa c0 47 3f 53 dd b7 bf 1c 07 7c bf
       5.5132813 0.78028834 -1.4364418 -0.9844835
000290 61 cd 0e c0 ef 3a 01 3d 95 8c 42 bf 98 01 cd be
       -2.2312853 0.031550344 -0.7599576 -0.40040278
0002a0 a1 68 77 3d b6 24 0b 3f df 72 8b 3e e3 12 3d 3f
       0.060402516 0.5435289 0.27236077 0.73856944
0002b0 b1 d1 ce c0 48 e2 57 3f c3 65 70 bf ed c2 28 bf
       -6.463097 0.8432965 -0.93905276 -0.65922433
0002c0 de b1 a4 bf fd ed 03 bf f2 2c b4 be dc 95 bd bf
       -1.2866781 -0.51535016 -0.3519054 -1.4811358
0002d0 56 b3 d7 be cd 9f aa bd 15 85 0c be 92 16 ad bd
       -0.4212901 -0.08331261 -0.13722642 -0.084515706
0002e0 49 a7 af bf 1d 4e 1c bf 31 19 c4 bf 4f 61 eb 3e
       -1.3722926 -0.6105669 -1.5320188 0.45972678
0002f0 90 11 8f c0 15 5d 6b bd 5d a5 7c be 6e 1d 37 bf
       -4.470894 -0.057461817 -0.24672456 -0.7152928
000300 df b3 3a bf 07 66 a1 bd 8f 7d d4 bd f4 1a e6 3e
       -0.7293071 -0.07880788 -0.10375511 0.4494244
000310 3e 77 56 c0 f4 60 5b bf c4 b9 2b bf 67 ce 2a 3f
       -3.351028 -0.85694814 -0.6708033 0.66721195
000320 39 31 58 c0 38 7e 89 bf 26 e4 0c c0 2a ec 8f bf
       -3.3780043 -1.0741644 -2.201425 -1.1243947
000330 53 de 0c be dd 66 0d be 1a 66 50 3e 97 60 b2 be
       -0.13756685 -0.1380877 0.20351449 -0.34839317
000340 fc c3 46 be 9e 94 49 3d 34 d5 43 bf eb b0 85 bf
       -0.194107 0.049213998 -0.764972 -1.0444616
000350 e9 f5 62 bf 33 f5 00 bf 6e 2a 85 bf e6 b7 d5 3f
       -0.8865648 -0.50374144 -1.0403574 1.6696746
000360 17 82 10 3f 53 8b af be d6 77 75 3e e0 6b ff 3e
       0.564485 -0.34285983 0.23971495 0.4988699
000370 b4 5d aa bf 99 89 26 3f 2a 5e 86 bf 57 bc 78 3f
       -1.3309846 0.6505371 -1.0497487 0.97162384
000380 f0 82 1e c0 56 c3 b3 bc 69 e4 96 bf 5e 5c 0e 3d
       -2.4767418 -0.02194373 -1.1788455 0.034756057
000390 14 0a 49 3f e1 f4 c3 3e 8e 9c 63 bf 0a ab 62 3f
       0.78531003 0.38272765 -0.8891076 0.88542235
0003a0 70 84 c9 bf 25 c4 9e be 65 31 a2 bf 2d 1b ad 3e
       -1.5743542 -0.3100902 -1.2671324 0.33809796
0003b0 78 09 76 c0 52 00 6a be 0e 5f 54 c0 53 1b b0 3e
       -3.844328 -0.22851685 -3.3183017 0.34395847
0003c0 1d 10 34 40 42 16 b3 be a3 c4 50 3e ec 74 8f be
       2.8134835 -0.3497792 0.20387511 -0.28018892
0003d0 12 6b 54 c0 2c b2 f9 3d b5 d5 5a be 9e 59 e8 be
       -3.319035 0.12192187 -0.21370585 -0.45380872
0003e0 7c b9 00 c0 4d 1c 41 be 46 72 91 bf 35 7f f9 bf
       -2.011321 -0.18858452 -1.1362998 -1.9491946
0003f0 03 09 2f bf 70 75 17 bf 05 bd 24 bf ab b0 23 3e
       -0.68373126 -0.5916357 -0.6435092 0.15985362

output_modules.0.les.atomwise.outnet.0.linear.bias f4 [32]
000000 1d 72 24 bf e9 62 62 bf 3e 25 e7 3d d5 fc 13 be
       -0.64236623 -0.88432175 0.112864 -0.14451917
000010 52 85 53 bf 0c 56 43 be 6d 89 31 bf 29 76 57 bf
       -0.82625306 -0.19075793 -0.6935032 -0.84164673
000020 59 2a 7a bf 5e cd 09 3f 0c c5 35 3c 24 73 36 3e
       -0.9772087 0.5382899 0.011094343 0.1781736
000030 dc f3 01 bf 89 31 ce be 03 9a 84 be a9 2a 9f 3e
       -0.50762725 -0.40272167 -0.25898752 0.31087235
000040 25 14 df bd 28 f8 02 bf 90 e6 76 bb f5 9d f6 3e
       -0.10892514 -0.51159906 -0.0037674047 0.48167387
000050 e6 83 19 bf 53 3d 09 3e 40 e1 52 3e 4b 46 0f bf
       -0.59966886 0.134023 0.20593739 -0.55966634
000060 37 4e 01 be 8f fb 0b bf c8 7d 69 bf 20 05 e1 be
       -0.12627493 -0.5468072 -0.9120755 -0.43949223
000070 1a 69 27 bf f4 86 2f bf ea bc 29 3f ed 0e c3 3e
       -0.6539475 -0.685653 0.66303885 0.38097325

output_modules.0.les.atomwise.outnet.1.linear.weight f4 [16, 32]
000000 43 27 36 be 25 f4 23 3d 2f c3 1a 3b 89 7a 4d 3c
       -0.17788415 0.040027756 0.0023614874 0.012541422
000010 7b 25 69 bd 3a e0 b1 bd 5b 9f f0 bc 2a ca a2 3c
       -0.05692051 -0.08685346 -0.029372862 0.01987179
000020 58 cc 05 bc 5c 11 16 3c 22 ac e0 3c d8 07 b1 bb
       -0.008166395 0.009159412 0.02742583 -0.0054025464
000030 36 8b 1a bd 98 03 05 3d f3 0d 85 bd 68 1c a3 bc
       -0.03773042 0.03247413 -0.06496801 -0.019911006
000040 24 4b e4 3d 70 e3 0d bd 58 95 15 3d db af b9 bc
       0.111471444 -0.03464073 0.03651938 -0.022666862
000050 6a fe e5 bd 4c a2 52 3c 15 a6 79 3d 19 9e 69 bd
       -0.11230166 0.012856077 0.060949404 -0.05703554
000060 13 41 ea bc 5f 24 75 bd 88 62 13 3e 5c ee ac 3e
       -0.028595483 -0.05984914 0.14393055 0.33775604
000070 49 53 ab bd 84 c4 d7 bd 76 9c e2 bd e3 0e 90 bd
       -0.08365495 -0.10535529 -0.11064999 -0.070340894
000080 ea b5 8a 3c ca 3e 6c bd d0 33 58 3b d6 46 19 3d
       0.016932447 -0.057677068 0.0032989867 0.03742107
000090 89 21 70 3d 2b 4c 67 bd 19 bf 14 bd 41 bb ed ba
       0.05862573 -0.056469124 -0.036315057 -0.0018137471
0000a0 21 f7 8c 3c 60 1b d3 bc 59 bb a9 3c fa 3d e0 bd
       0.017207684 -0.02576989 0.020719217 -0.10949321
0000b0 07 3f d3 bc 26 11 0e bd a1 04 c2 bd a3 84 ae 3b
       -0.02578689 -0.034684323 -0.09473539 0.00532587
0000c0 a0 bd b5 3d 89 9e e7 bd c5 da 22 3d d7 5b e2 bc
       0.08874059 -0.11309535 0.039759416 -0.027631683
0000d0 ea 5d c3 bd d3 21 cc bc 72 82 c9 3c 0b e0 83 bd
       -0.09539397 -0.024918472 0.024598334 -0.06439217
0000e0 39 30 1b bb 06 ba bf bd e4 99 ca 3c 1b ac 93 3e
       -0.0023679866 -0.09361653 0.024731584 0.28842244
0000f0 d5 19 68 3b eb 71 fc bd ca 31 ef bc 32 1e fc bc
       0.0035415788 -0.12326416 -0.029198546 -0.030776117
000100 a9 24 4e 3f c1 70 23 3f 9e 8f 7d be 44 cf d1 3e
       0.8052469 0.63843924 -0.24761817 0.40978444
000110 c3 e6 70 3e 04 92 78 3f 5f 9e 23 3f a1 a3 02 3f
       0.23525529 0.970978 0.6391353 0.5103093
000120 4b 30 3e 3f 58 ff 88 bd 4f d6 a3 be 93 eb 17 3f
       0.7429244 -0.06689328 -0.31999442 0.5934383
000130 08 58 07 3f 5b f2 aa 3f 54 1b 90 be a7 61 34 3f
       0.528687 1.3355211 -0.2814585 0.70461506
000140 fe 62 cd bd ee bd 6f 3f b5 99 d6 3d 5b de 51 3e
       -0.10028647 0.93649185 0.10478536 0.20494978
000150 81 59 59 3f e1 1a 3b 3f 40 18 80 3f 92 67 a3 bd
       0.849022 0.7308789 1.00074 -0.07978739
000160 2f f4 92 be be 68 29 3f c6 3c 66 be 37 a0 5f 3f
       -0.28701922 0.6617545 -0.2248412 0.87353843
000170 e6 0d ca be 47 dc 37 bf 69 4e 46 bf 80 1d c0 3e
       -0.3946373 -0.7182049 -0.77463394 0.37522507
000180 18 0a 42 3e 5a 65 c5 3e 3a 6b 55 3f 44 fd 59 3f
       0.18949163 0.38553888 0.8336674 0.8515208
000190 57 d5 7a 3f 20 29 25 bf 30 37 ea be 4e 9b b9 be
       0.9798178 -0.64515877 -0.4574523 -0.362513
0001a0 a9 5e b9 be 92 44 c5 bf 20 36 0f bf 28 15 8c 3d
       -0.36205032 -1.5411551 -0.55941963 0.06839973
0001b0 31 87 20 be 4b 0f 95 3d f1 5e 1e bf e1 c2 2e bf
       -0.15676571 0.072783075 -0.6186362 -0.6826611
0001c0 f6 6c 5c 3e 9a f1 94 be f2 0a 3e 3e 46 ab b9 be
       0.2152594 -0.29090577 0.18558863 -0.36263484
0001d0 e4 8e c5 3d 61 cf a5 bd c3 6d 22 3f 53 6d 5c 3e
       0.09646395 -0.08096195 0.63448733 0.21526079
0001e0 e5 f0 da bf db 56 ac bf a9 cc a0 3f 4c 1a 98 3f
       -1.7104765 -1.3464006 1.2562457 1.1883025
0001f0 8e 59 59 3e 78 a8 03 be eb c2 8b bf 41 da 88 3f
       0.21225569 -0.12857234 -1.0918859 1.0691606
000200 25 c5 c1 bd 66 d1 5f be df b1 29 3d f0 72 04 bd
       -0.094614305 -0.21857223 0.041429397 -0.032336175
000210 a6 ad d0 bd a0 5d 68 bd 31 a1 51 bd b9 1c c2 b9
       -0.10189371 -0.056729913 -0.051179115 -0.00037023964
000220 c9 0a 09 3d d3 5a dc bc 20 5d 5c 3d 0e b5 a7 3d
       0.03345755 -0.026898777 0.05379975 0.0818883
000230 c8 b5 c1 bc 47 0d 83 3c 42 f7 bb 3c 24 7c 06 be
       -0.02364625 0.015997542 0.02294505 -0.13133293
000240 ee 0c 7b 3d eb 34 b3 bd 3b 8a 1d 3d 4c d1 a2 3b
       0.061291628 -0.08750328 0.038461905 0.004968798
000250 1e af a2 bc 48 59 a3 bd 74 46 05 bd a3 49 40 bd
       -0.019858893 -0.079760134 -0.032537892 -0.046945225
000260 f1 74 c2 bc 95 76 0f bd 3c 29 cf 3e e0 29 84 ba
       -0.023737403 -0.035025198 0.40461147 -0.001008328
000270 ad c1 d4 bb 45 c1 f2 bd 52 7e 65 bd f6 27 b7 3d
       -0.0064928145 -0.118532695 -0.05602867 0.08943169
000280 b8 d1 31 bf 67 9f 16 be eb 19 03 3f 10 ea b9 bf
       -0.6946063 -0.14709245 0.5121142 -1.4524555
000290 d7 77 22 3f 23 78 a3 3f b8 b2 ae be cc ca 46 bf
       0.6346411 1.2771038 -0.34120727 -0.77653193
0002a0 7d f0 06 3e 9e fe b3 bf 28 6f 67 3e 9b db a0 bf
       0.13177676 -1.4062078 0.22600996 -1.2567018
0002b0 b4 91 c1 3d 5e 61 97 3f bd a9 b2 bb 20 df 51 bf
       0.09451619 1.1826589 -0.0054523633 -0.81981087
0002c0 64 ff 00 3f fb a6 59 bf c4 78 45 3f e6 ce 99 bf
       0.50389695 -0.85020417 0.771374 -1.2016265
0002d0 9a 95 3b bf 16 35 72 bf 82 5a 3a 3e b5 a7 d0 3e
       -0.7327515 -0.9461225 0.18198588 0.4075295
0002e0 95 d6 d1 3e 4d 89 74 3f d0 05 97 3e 3d f8 7a 3e
       0.40984026 0.95522004 0.29496622 0.24508758
0002f0 01 89 81 3f 9d 00 08 3f ce cf 32 3f 4c f4 43 bf
       1.0119935 0.53125936 0.69848335 -0.7654464
000300 4e 6f 5e 3d e9 67 04 be 37 a6 76 3c 96 dd b0 bc
       0.054305367 -0.12930264 0.015054277 -0.021590035
000310 a8 e6 71 be a6 4d ae bc 7d ac f3 bc 1e fc c3 bb
       -0.23623145 -0.02127726 -0.029745335 -0.0059809824
000320 86 01 43 3c f2 ad 20 bd df 02 47 3b aa fd fa bc
       0.011902219 -0.039228387 0.0030366702 -0.030638535
000330 39 c6 d8 bb 55 5b 8d bd a6 b6 1e bd a0 1a c0 bd
       -0.006615427 -0.06902186 -0.038748406 -0.09380078
000340 04 e1 35 3d c6 87 6c bd 47 51 9d 3c aa ff ee bc
       0.044404045 -0.05774667 0.019203795 -0.029174645
000350 dc 86 01 bd c2 13 b0 bb f9 43 b7 3d 40 ca 09 bd
       -0.031622753 -0.005373449 0.08948512 -0.033640146
000360 ea 3c 15 bc f4 f3 02 bd 5f 94 56 3e 79 f7 66 3e
       -0.009108761 -0.031970933 0.20955037 0.22555341
000370 bc d3 0f bd 66 36 33 be dc de c6 ba 70 1f 91 bd
       -0.035114035 -0.1750122 -0.0015172618 -0.07086074
000380 da b5 07 bf 0b 0c 44 bf 26 7e a1 3e 1d 50 57 3f
       -0.5301186 -0.76580876 0.31541556 0.8410662
000390 33 a8 88 bf 48 56 0c 3f fc 0c 7d bd 9f 7d 3f be
       -1.067633 0.54819155 -0.06177996 -0.18700264
0003a0 d9 05 1f 3e 71 d5 62 bf 6d d3 b4 bf c7 7a 4a bf
       0.15529574 -0.88606936 -1.4127022 -0.79093593
0003b0 bc 0f de 3b ac 77 a6 3d 96 4c c5 3f a8 f8 ad bf
       0.006776778 0.08128294 1.5413997 -1.3591509
0003c0 85 2b 40 3f ab e8 4d bf 4d a5 b0 be 83 5f ae 3f
       0.75066406 -0.8043315 -0.34501114 1.3622898
0003d0 6e 9d 3f bf 5b bb 7a bd f7 a6 a0 be 51 ef b6 bf
       -0.74849594 -0.061213832 -0.31377384 -1.4291784
0003e0 be f6 29 bf 8d 0f 86 bf f3 21 50 bf 98 93 92 bc
       -0.66392124 -1.0473496 -0.813018 -0.017892644
0003f0 82 22 f8 3d 3c 88 48 3f 5a e7 c4 3e 1f 34 ac bf
       0.12115957 0.7833288 0.38457757 -1.3453406

output_modules.0.les.atomwise.outnet.1.linear.bias f4 [16]
000000 eb eb 96 bd 0c bd cf bd 29 3a 94 be b6 20 4b bf
       -0.073692165 -0.1014348 -0.28950623 -0.7934679
000010 ae fd ef bc 17 d6 45 be 48 bb c9 bd 8f 49 be be
       -0.029295769 -0.1931995 -0.09850174 -0.37165496
000020 2d e5 62 bd e3 fa 67 be 02 fb 8c bd b9 40 22 be
       -0.05539434 -0.226543 -0.068838134 -0.15845002
000030 88 da 13 bf 12 07 97 bd f8 ea 9f 3e b1 6f 95 bd
       -0.5775533 -0.073743954 0.31233954 -0.07296694

output_modules.0.les.atomwise.outnet.2.linear.weight f4 [1, 16]
000000 9b 7a 99 ba fd e3 fc bb 10 ec 52 3f a7 b0 65 3e
       -0.0011709513 -0.007717608 0.8239145 0.22430669
000010 2e e3 9d bc 5e bb 01 bf 96 e4 55 ba df b4 0a bf
       -0.019273367 -0.50676525 -0.0008159367 -0.5418224
000020 88 8e 0d ba 7d f9 01 3f a0 a4 12 bb 2d d9 a8 3e
       -0.0005399962 0.50771314 -0.0022375956 0.32978192
000030 c4 25 17 3f 19 bc 61 ba 84 d9 d6 be ae 65 21 ba
       0.59042 -0.00086110976 -0.41962826 -0.0006156814

output_modules.0.les.atomwise.linear_nn.linear.weight f4 [1, 144]
000000 83 99 02 3f eb 2c 20 bf 3c c7 81 be 84 a1 4d bd
       0.5101549 -0.6256854 -0.25347316 -0.05020286
000010 93 79 4e 3d cc 33 46 3e 26 da a2 3e e3 b4 0c 3f
       0.05040891 0.19355696 0.3180706 0.5496351
000020 4a 69 c1 3e b6 81 f4 3e af df 2e 3d 7a ca 41 be
       0.37775642 0.47755212 0.04269379 -0.18924895
000030 89 04 3f bf 10 90 46 be 0e a4 f7 3c e5 9d 4a bd
       -0.74616295 -0.19390893 0.030229595 -0.049466986
000040 27 c9 06 be 95 56 8d bf 0c 0c bf 3e 22 a5 cc be
       -0.13162671 -1.1042048 0.3731388 -0.39969736
000050 d2 db 4d 3f f7 ae 84 bf fb 20 97 3d 35 8d a5 bf
       0.80413544 -1.0365895 0.073793374 -1.2933718
000060 03 24 5f 3e ff 3c 0d bf c3 0e 98 be 4c e7 e2 3e
       0.21791081 -0.551712 -0.29698762 0.4431709
000070 d4 05 dd 3f 65 b3 ec 3e a4 6c 31 bf ff 1a b0 3e
       1.7267404 0.46230617 -0.693064 0.34395596
000080 b1 e3 5f 3c 66 82 40 be 1b d7 27 be 15 6a 2e 3e
       0.013665126 -0.18799743 -0.1639065 0.17032655
000090 e8 01 1a be b6 c2 0e 3e 0d 83 1a bf e8 fa 4d bd
       -0.1503979 0.13941464 -0.6035622 -0.05028811
0000a0 d8 1b b1 3e 57 e9 ab 3e 17 2c 61 3e 0d db 74 3f
       0.34591556 0.33576462 0.21989475 0.95646745
0000b0 27 c7 b4 3f d1 b3 bb be 23 be 7b 3d a3 e5 53 be
       1.4123276 -0.36660627 0.061460625 -0.20693068
0000c0 3e 37 3a 3f e3 fe 94 be 64 0d e1 3c 57 80 09 3f
       0.7274054 -0.29100713 0.027472205 0.53711456
0000d0 af bb bc 3e 08 a0 25 3f 13 87 80 3f 4a 7d d1 bf
       0.3686194 0.64697313 1.0041221 -1.636636
0000e0 3d 4c d6 3e d1 5c 35 3f 36 0a c6 3c 8e fa 3a 3f
       0.4185504 0.7084475 0.02417479 0.73038566
0000f0 f8 dd 11 3f d6 a4 eb bd 22 30 03 3d ea 77 41 bf
       0.5697932 -0.11506049 0.032028325 -0.755736
000100 d8 c0 b7 3e 94 1b 03 bf a3 ed ec be a7 9b 6f 3f
       0.35889316 -0.51213956 -0.46275052 0.9359688
000110 d5 2a 57 bf 3b 59 d1 3d 1b e0 6c 3e ae 32 9d bf
       -0.8404973 0.102220975 0.23132364 -1.2281091
000120 4a 52 36 3f 1c 71 c1 be 84 43 a3 3b 42 4e 1c 3f
       0.71219313 -0.37781608 0.0049824137 0.6105691
000130 81 52 93 3e fc d4 d6 bf ab b4 1f 3e 98 a6 a6 be
       0.28773883 -1.6783748 0.15596263 -0.32548976
000140 f2 9a 5c 3f e1 6f 70 be e0 97 5d bd 6a 77 e1 be
       0.8617393 -0.23480178 -0.054099917 -0.44036418
000150 96 47 06 bf 21 75 a8 be 8d 5e f6 3d c2 13 70 3e
       -0.5245298 -0.32901862 0.12029753 0.23445037
000160 6a 9a 54 3d f7 75 82 3e 67 f8 0e 3f b5 32 0d bf
       0.051905073 0.25480625 0.5584778 -0.551555
000170 e3 89 66 3f 8a d2 83 bc 92 39 5d 3e 5b 49 52 bf
       0.9005415 -0.016091604 0.21603993 -0.8214318
000180 47 11 97 bf 45 73 97 be be ac d2 3e 40 ab de 3c
       -1.1802148 -0.2958013 0.41147417 0.027181268
000190 c5 55 78 3e 97 97 1b 3f 23 a7 b7 3d 32 d2 3e 3f
       0.24251468 0.6077818 0.08967426 0.7453948
0001a0 6c 6d a5 3f 16 de 2f bf 00 9b 53 3d 5a 7c fb 3f
       1.2924018 -0.6869825 0.05166149 1.9647324
0001b0 0b b5 94 bd c3 25 56 be 8f e9 01 3d b6 c1 f8 bd
       -0.07261094 -0.20912842 0.03171688 -0.121463224
0001c0 5d bc 26 bf 53 3c e1 be be 30 71 bf 2d 95 24 3f
       -0.6513117 -0.43991336 -0.94215 0.64290124
0001d0 9d 59 b5 3c a9 14 34 be 0d c1 bf 3d 09 64 42 bf
       0.022137458 -0.17586006 0.093629934 -0.7593389
0001e0 21 8f 48 bf f5 7b 94 be 6f 88 11 3c f9 be dc bc
       -0.783434 -0.29000822 0.008882626 -0.026946532
0001f0 45 f0 a3 be e2 9b 18 3f 70 cf 68 3e 4e 7c 4c 3f
       -0.3201925 0.5961286 0.22735381 0.79877174
000200 ee 0e 61 3d 47 93 6e be 97 6a ed 3e fe d3 23 bf
       0.05494588 -0.2329837 0.46370384 -0.6399535
000210 43 de 8a bf 6c 89 86 3d c6 3b 14 bb 19 ad a3 bd
       -1.0849079 0.0656918 -0.0022618636 -0.07992
000220 de 74 bf 3e 41 51 1b 3f e4 19 be 3f 1d 84 b1 3d
       0.3739385 0.6067086 1.4851651 0.08667777
000230 31 db 41 3f 1f ce 57 3e 3f 23 c3 bd 50 07 e7 3e
       0.75725085 0.21074723 -0.09528207 0.45122766

output_modules.1.outnet.0.linear.weight f4 [32, 144]
000000 7d 8d f4 3d cb 8a 11 3f ff f3 98 bf c3 ab a0 be
       0.11941049 0.56852406 -1.1949462 -0.31381044
000010 2a b0 61 40 9b ce 1f bf 55 e2 ea bf 15 d5 66 bf
       3.5263772 -0.6242463 -1.8350321 -0.9016889
000020 25 37 07 c0 a8 0c 08 bf 60 fd a9 3c 89 98 1c 3f
       -2.1127408 -0.5314431 0.020750701 0.6117025
000030 fc 34 e4 bb 3f 22 8d bf 0c 95 09 3c ad 07 1f bc
       -0.006964324 -1.1026076 0.008397352 -0.00970642
000040 b7 68 0d 40 96 cc d7 3e d8 9a 5c bf f1 d8 ad be
       2.2095163 0.42148274 -0.8617377 -0.33954576
000050 26 31 41 3f b8 9b d2 be fd 58 d2 be 15 3e d7 3d
       0.7546562 -0.4113443 -0.41083518 0.10509888
000060 dd d2 cf 3e c8 8a 85 3d c5 0b be be 6f 3f 52 3e
       0.40590563 0.06520611 -0.37118354 0.2053201
000070 28 d2 e5 bf 6f bb 15 c0 f0 b7 15 c0 eb 9b 52 bf
       -1.795476 -2.339565 -2.3393517 -0.8226916
000080 90 dd 4f c0 bd e1 3c bf 2e db ef bf 23 93 93 3e
       -3.247898 -0.7378195 -1.8738763 0.28823194
000090 c4 69 f9 3e 07 94 33 bf 5f 2b 7c be f7 91 04 3e
       0.48713505 -0.70147747 -0.2462592 0.12946306
0000a0 77 23 0b c0 cf e5 f7 bf c1 14 97 3f e1 53 3f c0
       -2.1740396 -1.9367007 1.1803209 -2.9894946
0000b0 be d2 01 40 f2 91 dd be 3d c2 b3 3e 52 a3 b2 3e
       2.0284877 -0.4327541 0.3510913 0.3489023
0000c0 6a 26 42 3f ba c3 8b bf 3d f6 a4 bd 18 fe ad 3e
       0.75839865 -1.0919106 -0.08054779 0.3398292
0000d0 d5 c8 66 c0 c8 03 29 c0 35 6b b9 be 31 99 b3 3d
       -3.6060078 -2.6408558 -0.36214605 0.08769453
0000e0 b3 8f 85 3f 61 bb 26 bf 6c b0 31 3f bb 09 92 bf
       1.0434479 -0.6512967 0.69409823 -1.140922
0000f0 70 5e 04 3e 6b c7 67 bf 2a 4c 32 3d 5e 1c e4 bd
       0.1292665 -0.9053866 0.043529667 -0.11138223
000100 86 3c cf bf 2a 9d 2c 3f 28 b6 3a 3e d5 b1 4d bf
       -1.6190345 0.67427313 0.1823355 -0.80349475
000110 70 20 7c c0 e8 51 ba 3e 87 65 91 3e a7 91 38 bf
       -3.9394798 0.36390615 0.28397772 -0.7209725
000120 8f c9 cb bf 25 ab 97 bf 6d cf 5e bc 9e 64 46 be
       -1.5920886 -1.1849104 -0.013599259 -0.1937432
000130 65 ca 68 bc 44 28 11 bf 13 5a 25 c0 31 a5 a7 be
       -0.014208411 -0.56702065 -2.5836227 -0.3274322
000140 b2 c9 12 3d 39 0c 38 3e cd 20 a6 be af 70 98 be
       0.035836883 0.17973413 -0.324469 -0.2977347
000150 96 b5 c1 3e e9 b5 0d bf d7 76 62 bf 25 7b fc bc
       0.37833852 -0.553557 -0.88462585 -0.030820439
000160 04 09 82 bf a0 01 e7 bf f3 8a 7a 40 b6 f6 96 bf
       -1.0159001 -1.8047371 3.9147308 -1.179404
000170 c7 47 5f be 0d 0b 5d be b1 d7 37 bf e4 be 57 be
       -0.21804725 -0.21586247 -0.71813494 -0.21068913
000180 e7 d4 b4 be 49 77 84 bf e6 4c 45 3f 00 81 65 3d
       -0.35318682 -1.0348903 0.7707046 0.056031227
000190 c1 19 a0 3f 47 be 30 be 03 a7 cd 3f 1b 02 ef be
       1.250786 -0.17260085 1.6066593 -0.46681294
0001a0 59 07 e6 3f 94 2d cb 3d 41 b2 ea 3e 21 2d f1 3d
       1.7970992 0.09920803 0.45839122 0.11776186
0001b0 9d 08 85 3f 01 38 7b bf 57 e8 29 3f f6 d6 88 be
       1.0393254 -0.9813233 0.6637015 -0.26726502
0001c0 ec 41 d8 3f 76 50 8d bd c2 b8 27 3e 1c 39 4f 3f
       1.6895118 -0.06900112 0.16379073 0.80946517
0001d0 ec c8 c8 bf d0 36 6c 3e 12 bf e3 be d9 0c 7b 3d
       -1.5686316 0.23067784 -0.44481713 0.06129155
0001e0 84 a2 8f 3e 71 8c 81 bf b7 f5 a6 be 5d 26 a9 bd
       0.28053677 -1.0120984 -0.3260934 -0.0825927
0001f0 c7 80 74 bf d0 9d 47 3f 9d c2 a5 3f 7e 83 3d c0
       -0.95509 0.7797518 1.2950016 -2.9611506
000200 8c 1b 5e c0 fb 6a 8a 3e 5e 4a c2 3f 12 8d 5b be
       -3.4704313 0.27034745 1.5178945 -0.21440533
000210 87 f1 58 be 9d 7b 6e bf 7c ac 9c bd 30 d9 56 be
       -0.21185885 -0.9315737 -0.07650086 -0.20981288
000220 19 3f 18 40 73 84 d8 bf 44 ac 36 3f 21 fd a4 be
       2.3788512 -1.691542 0.71356606 -0.32224372
000230 6f 18 b8 3f 2e 26 4c be 39 bc cf 3e aa bd dc be
       1.4382457 -0.1993644 0.4057329 -0.43113452
000240 0a 65 34 bf 6b b6 7f 3f 1d 83 59 bf e6 4b 1e 3e
       -0.70466673 0.9988772 -0.8496569 0.1545864
000250 2c 80 e2 3d a8 9c 69 be 6d 4b 0e 3f ba 0b 05 40
       0.11059603 -0.22813666 0.5558384 2.0788407
000260 a5 93 65 be e6 d5 b2 c0 93 be 75 bf df d6 a5 3f
       -0.22419603 -5.5886106 -0.9599392 1.2956198
000270 75 b5 08 bf 15 b5 d2 be 06 dc 6c bc ad ac 24 be
       -0.5340188 -0.4115378 -0.014456755 -0.16081496
000280 ea aa 0f 40 7e 02 93 3e f7 45 74 3f 1c c7 86 3e
       2.2448068 0.2871284 0.9541926 0.26323783
000290 ff 21 66 bd 97 87 04 3f c5 9c 4c be 09 ff ca 3f
       -0.056184765 0.51769394 -0.19981678 1.585908
0002a0 4c d4 dd bf ac 0a 1a bd 56 49 07 bf e3 b1 84 be
       -1.7330413 -0.037607834 -0.52846277 -0.25916967
0002b0 50 2a b2 3e 13 82 15 c0 26 6f 94 be 44 d5 52 c0
       0.34797907 -2.336064 -0.2899105 -3.2942667
0002c0 d1 e0 a5 3e 58 b6 89 bf 3a ae c6 3f 08 4d fc be
       0.32398084 -1.0758772 1.552192 -0.4927752
0002d0 ec 3e 87 be c5 44 e9 bd 0e 96 5e 3f d1 fc d4 be
       -0.26415193 -0.1139007 0.86947715 -0.41599134
0002e0 c8 91 f3 3e ee 76 bf 3f fb de c3 3f 98 6b 67 3d
       0.4757216 1.495817 1.5302423 0.056499094
0002f0 cc 9d d9 bf af e2 14 3e f5 de f1 bf 64 6f f9 3e
       -1.7001281 0.14539598 -1.8896166 0.48717797
000300 ed 4a 4e 3f e4 24 77 be ac 0a 01 be c4 03 7f bc
       0.8058308 -0.24135166 -0.12601727 -0.015564863
000310 fd f0 46 3f ef 96 b2 3f 4c b7 e9 3e 43 99 59 c0
       0.7771147 1.3952311 0.45647657 -3.3999794
000320 61 1e 69 bf d1 5e 0a bf 9d a9 8b 3f 26 82 f2 bf
       -0.9106198 -0.5405093 1.0911137 -1.8945968
000330 66 77 ce be e9 8f b3 be 28 22 a3 3c f2 8f 4c 3d
       -0.4032547 -0.35070732 0.019913748 0.049941964
000340 dc 85 34 3f 77 ff 97 3f ce 91 81 bf c8 69 dd 3f
       0.70516753 1.1874837 -1.0122621 1.7297907
000350 dc 13 13 40 e5 c6 fc be b4 bc ee 3e c6 66 47 3d
       2.2980871 -0.49370494 0.46628344 0.048681997
000360 f9 03 87 3e d6 a2 2e be d5 ce 05 3e 14 9c 19 3f
       0.26370218 -0.17054304 0.13067181 0.6000378
000370 d8 f0 8d 3f 3b bc 38 bf 25 e3 84 be 8b a2 88 3f
       1.1089125 -0.72162217 -0.25954548 1.0674604
000380 dc f0 d6 3d b2 f2 ab bf ec 1e dd be 08 57 3d 40
       0.10495159 -1.343344 -0.43187654 2.958437
000390 d0 09 39 3f dd b2 30 be c1 3b 92 bf 8f de a9 3e
       0.722806 -0.17255731 -1.1424485 0.3317761
0003a0 fd 50 8a bf bf f0 92 3f 10 2d 7c bf fc c5 54 3f
       -1.0805966 1.147972 -0.9850626 0.831146
0003b0 13 28 fe 3f f0 b6 a5 3d 7b 1d ac 3f 7e bd 56 40
       1.985598 0.08091533 1.3446497 3.3553157
0003c0 be c8 26 3f b8 43 3f be a8 dd d7 3e ee 1c 95 bc
       0.6515006 -0.18678176 0.42161298 -0.018202271
0003d0 b0 bf 82 3e 41 5f a8 be f3 e3 9a be 50 23 9f be
       0.2553687 -0.32885173 -0.30252036 -0.3108163
0003e0 79 93 1f c0 67 b0 dc 3d 5e 9d c6 be b7 e9 43 3f
       -2.493376 0.107758336 -0.38791937 0.76528496
0003f0 08 43 5e bf 9f d0 e4 be 66 77 cf 3f e4 3d 6d 3f
       -0.8682103 -0.44690415 1.6208313 0.9267256

output_modules.1.outnet.0.linear.bias f4 [32]
000000 e9 98 d8 be 44 3f 11 bf 12 78 84 3d 8e d3 65 3e
       -0.4230416 -0.5673716 0.06468214 0.22443983
000010 8d 56 03 bf 45 9b 71 3d bb 26 38 be 47 9c 60 be
       -0.5130394 0.058985967 -0.17983525 -0.21934615
000020 35 b9 59 3f ad 6e dd be d1 b3 7c be 2d f6 96 3d
       0.8504823 -0.432485 -0.2467797 0.07371173
000030 f3 ac 5f bf f6 f6 b7 bc 85 f8 56 3d ee 5c ca be
       -0.87373275 -0.022456627 0.0524831 -0.39524025
000040 9e 52 9f be 08 a3 74 be 54 56 77 3f 3a 32 c4 be
       -0.3111772 -0.23890316 0.966161 -0.3831957
000050 60 99 ca be 41 63 25 be a7 a7 f5 bf c0 fd bf 3d
       -0.3957014 -0.16151144 -1.9191788 0.09374571
000060 9c 13 b1 be 1d f7 29 bf 22 89 a9 3d 89 ab 0f bf
       -0.34585273 -0.6639269 0.08278109 -0.56121117
000070 5d 69 a5 bf f3 49 2d 3f 0c ee f7 bc e7 b3 0f 3f
       -1.2922779 0.6769096 -0.030264877 0.56133884
