MLIPs/CACE-LES/water/caceles-r-4.5-nl-1-nu-2/best_model.pth (torch, 70242 bytes, 18 tensors)

embedding_weights f4 [2, 2]
00000000: fabe 8b3e d62e d53d ef6f 01bf 32ce 2b3f
0.2729414 0.10409324 -0.5056142 0.67111504

embedding_weights f4 [2, 2]
00000000: 163d b53e 18fd 8e3d fcc5 2abc 6091 4a3f
0.35398167 0.069818676 -0.01042318 0.79128075

bessel_weights f4 [6]
00000000: 3cdc b43e ec6d a73f 3868 0940 e1a4 3f40
00000010: 2195 7a40 7123 9c40
0.35324275 1.308042 2.146986 2.9944384 3.915352 4.8793263

0 f4 [6, 12, 4]
00000000: 79ea e13f 0f92 0540 05bc 68bd 3f1a 23bb
00000010: 47a1 11bf 0c61 ff3f 62e0 3bbe e9e8 033f
00000020: b0b8 1440 8761 adbe b07f 053f 7aac e738
00000030: 86b6 9cbb a972 91bf 996b 263c 8a47 d43e
00000040: 5fa0 78bf 528a abbc f965 843d 7016 c23e
00000050: 8c28 2240 4a03 56bf c2dc b0bc b853 9d3c
00000060: c82b ec3f 04f1 e53f 5bdc 0b3d 97d3 dfbc
00000070: 511b 80bf 75e7 883f aa21 1b3d 7f89 1a3f
00000080: f6b5 963e 1327 25be 611c 15be 772a d7be
00000090: 8a43 23bf 2108 1fbf 8d9f aabd 815e e13d
000000a0: 10d4 fdbe f2c2 243f 370a 013b 3b84 9b3c
000000b0: c65c 5ac0 9bdd 9d3f af13 c2bc 206d 8f3e
000000c0: 531b d93f 4966 053e 00c5 0f3e 36e3 163a
000000d0: 0b06 c4be 06fd e23e 0b14 a5bc dd70 c0bd
000000e0: ac72 fd3f 8e0b 0cbf f255 49bf cd68 eb3a
000000f0: be8f fc3d b12e 893e 8ce2 963c 77d9 8b3f
00000100: eec5 b13e adf2 82bf 93a1 28be 8cb1 9a3f
00000110: 840f 253f 241c 083f 658b 013c 5103 1abd
00000120: 7044 f53f 2b88 a33f a736 8e3c 9ff1 4a3e
00000130: 0f25 b53e e015 4bbe 14a6 8dbc a791 9ebe
00000140: 0bb1 9b3f 2331 863d 1979 ea3e f2a5 063f
00000150: 36ea 97be 8e43 cb3e a54b 153f fc98 d13e
00000160: 4799 523d 4c39 563d e908 0c3e 6666 1bbd
00000170: 63d1 4bbe 718a 8a3f 760c d43c ff72 9d3d
00000180: 8341 a73f 378f 0ebf 598d 05bd 08ce ec3a
00000190: 83c9 903e 6518 673e 8349 0f3f a5b3 ffbe
000001a0: 879f d33e 8f08 433b 34ce bcbe d645 21bc
000001b0: 4c47 8f3c 2157 273f 6f8d 4cbd e852 9c3e
000001c0: 49b9 3ebe b480 883f 735d c23b 355f 353e
000001d0: 5f29 cbbe b45f fbbb 08e4 d53c 165c acb9
000001e0: dfc2 2f3f 3720 403f 1b8c a7bd 70ef 2e3c
000001f0: 9d59 b53f b6b5 48bd b661 4cbc 600c 93bf
00000200: 38d4 9d3f 7f5a 79bd 9145 c9bd dfc7 d03f
00000210: 6d92 16be b38a d73e 10d9 85be 04d3 a53c
00000220: ecd3 7fbd f67a e2bd 73ed 05bd fc34 8bbc
00000230: c0dd ce3e d8f2 4bbf 5074 86bb a269 a8bd
00000240: 4513 3c3e 01a7 943d f926 d63c c60e 16ba
00000250: 65ce e73c 5d13 5b3e ad44 b0bd 4da7 ddbd
00000260: 0db4 323e 3e28 5a3f 14bd bd3e 24f0 143c
00000270: 31b5 393a dd73 8d3e 954e bf3c a12c 29be
00000280: d583 763d f0b9 ca3f 3e1f 20bc bfb0 04be
00000290: 4ca3 97bd 4aa9 46bc 1d54 53bc d7ce f3bc
000002a0: e487 183f d3db bf3e 1dc3 2f3d 76a7 0d3d
000002b0: 9326 db3f 3550 ac3d dd0c bb3c 5459 1b3e
000002c0: 73f4 483f 71d1 4f3b 31c9 b93d 6aa7 8f3e
000002d0: bc6c 983d 9035 15be af80 593e be8f 59bc
000002e0: 1926 883d 71f1 953d 0131 063d ce5d dabb
000002f0: 65e4 3ebe d656 6e3f 1905 503c 8965 c1bd
00000300: c4a5 4f3c 774b 5a3f 1c26 62bb 4022 5cbb
00000310: 1ceb 57bd faa9 a03e 71c5 66be 1d68 5b3f
00000320: 5151 a63e 56c6 813f bdce ad3c b1ee a2bb
00000330: baae 403c d41b 663e e442 a03c af27 4c3e
00000340: 93c8 cebd 9ac8 723f 4ba6 893c e03d 0a3e
00000350: c3bf 2f3e 38f1 103e 338f 13bc f150 5f3d
00000360: d144 01be 5690 2dbe 6088 883c 7c4b 0fbe
00000370: c6ab 923f 46b0 383e 32a7 18bc 7f49 893f
00000380: 80f1 5d3d 5192 b53d d97f c5bd 97a9 c13d
00000390: 1fab 8abc 6aad f83d ebbd 83bd c494 b83b
000003a0: 5b50 4abd 0d12 863e 2945 da3c 0c84 403d
000003b0: 02cf bf3d 3366 423e 30df c0bc e518 fb3e
000003c0: c37a 953e 6603 123f 6fec edbc c320 3f3b
000003d0: 341e 073a e668 48be 65e3 793e 9a15 a63e
000003e0: 97bb 893e 9ed2 44bc 0d13 2c3e 855e 91bc
000003f0: 01a7 d73d cf7b d33e 4144 90bc d991 af3e
1.764968 2.0870397 -0.056819934 -0.002488747 -0.56886715 1.9951491 -0.18347314 0.5152727
2.3237724 -0.3386347 0.5214796 0.000110470646 -0.0047825007 -1.1363117 0.010157489 0.4146083
-0.97119707 -0.02093998 0.06464762 0.37907743 2.5337248 -0.8359877 -0.02158964 0.01920496
1.8450861 1.7964177 0.034145694 -0.027322574 -1.0008336 1.0695635 0.0378739 0.6036605
0.294357 -0.16128187 -0.14561607 -0.42024586 -0.6377493 -0.6212178 -0.08331213 0.11004353
-0.49575853 0.6435996 0.0019689926 0.01898395 -3.4119124 1.2333254 -0.023691026 0.28012943
1.6961464 0.130273 0.14039993 0.0005755903 -0.3828586 0.44333667 -0.020151159 -0.09396527
1.980062 -0.5470513 -0.7864677 0.001796031 0.12332104 0.26793435 0.018418573 1.092574
0.3472132 -1.0230309 -0.16467886 1.2085433 0.644768 0.5316794 0.007906769 -0.03760082
1.916151 1.277593 0.017360045 0.19818734 0.35379836 -0.19832563 -0.017291106 -0.309705
1.2163404 0.06552341 0.45795515 0.5259696 -0.29670876 0.39699978 0.5831855 0.4093703
0.051415708 0.052300736 0.13675274 -0.03793945 -0.19904093 1.0823499 0.025884848 0.076879494
1.3066868 -0.5568728 -0.032605503 0.0018066773 0.2827874 0.225679 0.55971545 -0.49941745
0.41332647 0.002975974 -0.3687607 -0.00984331 0.017490052 0.65367323 -0.04993957 0.30532002
-0.18625368 1.0664277 0.00593155 0.177121 -0.3968 -0.007671321 0.02610971 -0.00032875006
0.68656725 0.75049156 -0.0818102 0.010677204 1.4167973 -0.049001418 -0.012474468 -1.1488152
1.2330389 -0.06087732 -0.09827722 1.6310996 -0.14704295 0.42098007 -0.26142168 0.020242222
-0.062457964 -0.11058609 -0.032697152 -0.016993038 0.40403557 -0.79667425 -0.004103221 -0.08223273
0.18366726 0.07258416 0.02614163 -0.00057242473 0.028296659 0.21394105 -0.08606849 -0.10822926
0.17451496 0.85217655 0.37058318 0.009090457 0.00070841896 0.2762746 0.0233529 -0.16520931
0.06018432 1.5837994 -0.009773074 -0.12958048 -0.07404193 -0.012125323 -0.012898472 -0.029761715
0.5958235 0.374724 0.042910684 0.03458353 1.7121147 0.08413736 0.022833282 0.15170795
0.78498 0.003171053 0.09071577 0.28057414 0.074426144 -0.14571214 0.21240495 -0.0132789
0.066478916 0.07321442 0.032761578 -0.0066640144 -0.18641813 0.9310125 0.012696528 -0.094431944
0.012673799 0.852714 -0.0034507578 -0.003358975 -0.052714452 0.31379682 -0.22536255 0.8570574
0.32483914 1.0138652 0.021216745 -0.004972302 0.011760408 0.22471553 0.019563146 0.19937013
-0.1009685 0.94837344 0.016802927 0.13500166 0.17162995 0.14154518 -0.009006309 0.05452055
-0.12623908 -0.16949591 0.016666591 -0.13993639 1.1458671 0.18035993 -0.009317206 1.0725554
0.05418539 0.08865798 -0.09643526 0.09456175 -0.0169273 0.12142451 -0.06432708 0.0056329686
-0.04939304 0.26185647 0.026644306 0.04700093 0.093656555 0.18984298 -0.023543924 0.4904243
0.29195222 0.57036436 -0.029043404 0.0029163815 0.0005154342 -0.19571266 0.2440315 0.32438356
0.26900932 -0.012013106 0.16804142 -0.017745266 0.105299 0.41305396 -0.017610671 0.3429096

1 f4 [6, 12, 4]
00000000: 09d0 f7bf 7aec aebd 13b9 2740 3c47 5e3f
00000010: 9a9a 39c0 8fba 403e d4f3 b5be 1470 18bf
00000020: 8113 503f 5cc7 0740 6737 813f 71ab 81bf
00000030: 29a8 cb40 4181 f53f 16fa a83f f51c e73f
00000040: 44e9 dbbf 94ef 003d 85e8 46c0 b3c1 8e3f
00000050: 8e9d 303f d2cf 03c0 9d15 543f 7ec4 6dbf
00000060: 8152 8c40 bd47 e1bf b4ed eabf a8ed dc3f
00000070: bc0b e23f 5901 d63f 4ad6 453f 06d5 7c3f
00000080: 0666 9dc0 88f4 833e e390 973e 4b9e 19be
00000090: 7905 8740 d2e6 853f d853 f1bd 25fb f0bc
000000a0: 12cb 4c40 646c 1740 1ba2 0bbf c319 b6bf
000000b0: dbdd 6e40 d35b afbf 80bc 913f 994a 9a3f
000000c0: ea57 26b8 9079 213f 9731 a03f 173c 693f
000000d0: 2d48 173e 523b edbd e074 153f 83eb c23f
000000e0: 69ee 0b40 e5ff 823f 6188 ae3f 85d4 febd
000000f0: 6656 e03f e34e c03f 3f0b b2bf d09f 3f40
00000100: 9585 c0bc 18ad e23f a7a7 bdbf 0b3c b83f
00000110: 39cd 203e 2e6c 97bf 3273 96be 160e 0d3e
00000120: 2b20 ea3f 7fdf 63bf ba6b b23d 425a e13f
00000130: 59ff 6b40 ef46 9f3f 6b19 a33f ab12 dd3f
00000140: 4167 7dbe 9731 b83f c35a 153e c11c 913f
00000150: 2ce7 a43f 753c 5c3f 26ff c0bd bc76 09be
00000160: c3ed d8be fd9d fb3e 9a7d c83e e026 86be
00000170: 2c65 2e40 151a 513f 6a27 e13f 025d 0a40
00000180: 1314 d93f 870d 453f 2c43 853e 87e3 3a3f
00000190: ef37 da3f dba6 ed3e 973f 263f a92f 243f
000001a0: c439 86bf ed46 84bf 3d12 11bf 6967 e83f
000001b0: 7830 a93e 5729 223e 06a8 cfbd b665 4a3e
000001c0: 874b c93f f37c dfbe 7f21 183f f97f bc3f
000001d0: 83a9 9e3e 2cef 993d 9bdc 8a3f 8f8e a03f
000001e0: 55f3 c9be aef9 333f 1b93 4b3f 6870 7fbe
000001f0: 286c 223f 3fac 553f 293c 7dbd 24ee 003e
00000200: 382b ef3f d22e c43f 1f67 cb3f 4e85 d63f
00000210: 2adb e3be bcc7 dfbd f152 763f bdee e73e
00000220: 8a2b ca3e 0fb9 01bf 667a 503f 51f7 47be
00000230: c5b8 cd3e 41ec 403f 0a6a 23bf e4f3 843f
00000240: 41bd 973f 29d3 7d3f 5986 0cbf da2a c33e
00000250: 5d58 a13d 4874 e13e 3d74 823f 72e1 15bf
00000260: 9487 6dbf 232e bebe 735b 33bf e55b 0d3f
00000270: 9dfb a6be 0ca6 893d 6a4b 263e ec60 28bf
00000280: c10d 1e3f e6ee ddbe 2519 803f 5347 fc3f
00000290: 1996 0f40 e0a1 723f 146d 54bf 8baa 8c3f
000002a0: 5c6c 0d3f 5afe 923f 9867 263f a831 e03e
000002b0: 9ed6 9bbe c857 523e 1348 09bf 4367 abbf
000002c0: 2e7e c73f d7aa 973f 6f30 1740 5b7a 1e3f
000002d0: 200f 7f3e 7994 cabe 6b07 f73f 718a e03f
000002e0: 8146 cd3f a01e b03e 7f8d 3d40 4549 be3e
000002f0: a951 0dbe de2b a5be ac59 9abd fbcd 6dbf
00000300: 3a7d a1bd b6b3 a63f 4236 1c3e c464 fc3f
00000310: d989 a0bd e97a 643f 803e 6e3f 4f3a 5bbe
00000320: 7add 0d3d 783c 223f 3509 3b3f 59cb 86bc
00000330: c8a4 1ebf c468 273f 1665 a23e 29e2 413e
00000340: 4d02 78bd cedb 693d 22fa 933e da69 853f
00000350: 60e7 2340 161a a83f 90aa 0d3f 7d63 bc3f
00000360: c226 a73f 8858 063f 927e f73e cf2f 873f
00000370: 4fe7 f9be aefd b43e ab33 153f 0149 8f3f
00000380: 65b3 9a3e cb01 703e f49b 1440 0cbb 06bf
00000390: f760 ee3e ba29 1f3e 10b5 913f 4deb be3f
000003a0: 6d21 b13f 8309 34be 2e87 0f40 d0fa 903e
000003b0: c294 053f 5de6 1ebe f251 8bbe 7d28 dfbe
000003c0: 6006 1c3e b4dc 523f f4f0 f63e 40b7 aa3f
000003d0: 141a 873d 2ceb 79bd 1b6a 3a3f b32f 26bd
000003e0: 106e 803e 6960 dd3e 7e56 f1bc e6ab 873d
000003f0: aca6 2bbf 1067 863e 17d3 b43e 0798 0dbd
-1.9360362 -0.08541198 2.620671 0.86827445 -2.9000611 0.18821166 -0.3553759 -0.5954602
0.8127976 2.121543 1.0095032 -1.0130445 6.3642774 1.918007 1.320132 1.8055712
-1.7180562 0.03147848 -3.1079419 1.1152862 0.6899041 -2.0595593 0.8284548 -0.9287795
4.3850713 -1.7600018 -1.8353791 1.7260027 1.7659831 1.6719161 0.77280104 0.9876255
-4.918704 0.257725 0.29602727 -0.1500179 4.219418 1.0461066 -0.1178357 -0.02941663
3.1998944 2.3659906 -0.5454423 -1.4226612 3.732291 -1.3699898 1.1385651 1.2054015
-3.965936e-05 0.63076115 1.2515134 0.91107315 0.14773627 -0.1158358 0.5838146 1.5228122
2.1864264 1.0234343 1.363537 -0.12442879 1.7526367 1.5024074 -1.3909682 2.9941292
-0.023501197 1.7709074 -1.4816788 1.4393324 0.15703286 -1.1829889 -0.29384762 0.13774905
1.8291067 -0.890129 0.087119535 1.760567 3.6874602 1.2443522 1.2742132 1.7271322
-0.2474642 1.4390134 0.14585404 1.13369 1.2883048 0.8602975 -0.09423666 -0.134242
-0.42368898 0.49143973 0.39158326 -0.26201534 2.724925 0.81680423 1.7590153 2.1619267
1.6959251 0.76973766 0.2602781 0.7300343 1.704832 0.46416363 0.6494078 0.64135224
-1.0486379 -1.0334145 -0.56668454 1.8156558 0.3304479 0.15836082 -0.1013947 0.19765362
1.5726174 -0.43650016 0.5942611 1.4726554 0.30988702 0.075163215 1.0848573 1.2543505
-0.3944346 0.70302856 0.7952134 -0.24945223 0.63446283 0.8346595 -0.06182495 0.12590843
1.8685064 1.5326788 1.5890845 1.6759431 -0.44503146 -0.10926768 0.9622031 0.4529933
0.39486343 -0.50673 0.81436765 -0.19527937 0.4018003 0.75360495 -0.6383368 1.038693
1.1854631 0.9915033 -0.548925 0.3811863 0.07878182 0.44034028 1.0191723 -0.5854713
-0.92785 -0.37144575 -0.70061415 0.55218345 -0.3261384 0.06721124 0.16239706 -0.6577289
0.61739737 -0.43346328 1.0007674 1.9709266 2.2435362 0.9477825 -0.8297894 1.0989546
0.5524347 1.1483872 0.6500182 0.43787885 -0.30437177 0.20541298 -0.536256 -1.3390888
1.5585382 1.1849011 2.3623312 0.6190545 0.24908113 -0.395664 1.9299139 1.7542249
1.6037141 0.34398365 2.9617612 0.37165275 -0.13800682 -0.3226003 -0.07536635 -0.92892426
-0.07885213 1.3023593 0.15255073 1.9718251 -0.07838792 0.89250046 0.9306412 -0.21408962
0.034635045 0.6337352 0.73060924 -0.016454386 -0.61970186 0.65394235 0.31717747 0.1893393
-0.06054907 0.057094388 0.28901774 1.0422928 2.560997 1.3132961 0.5533838 1.4717861
1.3058703 0.5247884 0.48338753 1.0561465 -0.48809287 0.35349792 0.58281964 1.1194154
0.30214992 0.23438184 2.3220186 -0.5262916 0.46558353 0.15543261 1.1383381 1.4915558
1.3838326 -0.17581753 2.2426257 0.28316355 0.5218011 -0.15517564 -0.27210957 -0.43585578
0.15236807 0.82368016 0.48230708 1.3337173 0.06596771 -0.061015293 0.72818154 -0.040572833
0.2508397 0.43237618 -0.029460188 0.06624584 -0.67051196 0.26250505 0.353173 -0.034568813

2 f4 [6, 12, 4]
00000000: 892a 4540 3601 eebe 163c 22bf 1c4f 4b3f
00000010: fead 46bf 51e0 7cbf 89f2 a33e ed31 883f
00000020: d0b4 d53f 2d42 07c0 9455 383f 198b 4ebf
00000030: aff5 4a40 4792 0d40 f0d5 0abf 90b0 67bd
00000040: 0cd9 7b40 498b 2740 e25c eb3e d90f 723f
00000050: 4e47 2340 5e54 e23f 0a6f 063f a563 cd3f
00000060: 65ea 2abf 6100 b3bf 0fdf 373e 6ff0 b33f
00000070: c030 3dc0 8a0a c9bf f06c d63f 1314 e13e
00000080: 96a0 0d40 09c7 96be 4aed 833c e513 aabe
00000090: f5c6 e13f be75 a8bd 0f66 8b3f 175b 863f
000000a0: 0f5f 3e40 633c ce3f 0a1f c13f c7ba 183f
000000b0: 30d6 0ec0 516a 0e40 ab66 29be 44fb 9fbd
000000c0: 9b34 9b3f 0e2c da3e 7aac 653f 1b34 3e40
000000d0: a1d0 1c3f 009d dcbe 2616 ae3f 2bdd 233f
000000e0: 2814 1b40 3984 013f ac33 793f a6e7 e1bf
000000f0: 5acc 5ebf 8b64 1a3f 6cdf af3f 3d5e e73f
00000100: ab4b e73e 6389 2f3f f781 cf3d 702b 013f
00000110: 8c0c a53f c211 0a40 c935 85bd d660 2940
00000120: 22b6 213e 4222 163f f18e e33f df34 b53f
00000130: c6ef 653f f9d3 a53f 7556 0bbe dd2d 6b3f
00000140: bd57 fa3f 65c5 ee3e e643 e73e bd9b c03f
00000150: b1ec 04c0 36f8 133f 53c2 0c3f 6c25 d3be
00000160: b0f7 b03f d543 f93f ba27 afbe a61c 2d3f
00000170: 31bc 30be ec33 e53f 3d0a 82bf 2073 fc3e
00000180: 77bc 723f a334 eebe 2ac5 923f 0111 fd3f
00000190: 4b48 4ebf 38cc 8f3f 4728 dcbf fdde 35bf
000001a0: 48e3 72bf 9d29 253f 6c25 9fbe 7fcd 9ebd
000001b0: 8be7 613f 3f37 01bf 1dda b43f 8624 2a3f
000001c0: 0ebd b0be 2ffb b6bf d673 9d3f 608a 5fbf
000001d0: 95c2 983e 4bb4 973f 5448 753f 4520 8c3d
000001e0: c52d 8a3f 795f 243f e0f7 583f bfc0 00bf
000001f0: abc1 ef3f 03a9 0dbf d799 88bf 989e 6e3f
00000200: cc8e bdbc e128 673e 8a97 a03f 8894 3440
00000210: f70d a13f 7669 9e3f d5b1 dcbe adad 93be
00000220: 054b 83bf d85e 523f c2b3 7f3e 2961 72bf
00000230: d0b6 8e3f a238 183f 0a49 563f efaf dc3f
00000240: a98a 9f3c 53e8 1abf 2512 30bf 9d2a 6a3e
00000250: 038b c5bf be2c 193c dc4b 263f 054d 893e
00000260: f2a9 64bf 688d 30be c198 5abf 88b0 2340
00000270: c807 02bf 1d23 ee3e 5394 d33f d513 2cbe
00000280: bb20 023f 09ac 8fbf 261b b63f 6a42 2e3e
00000290: 9c1f 9abe 2978 443f 3805 cc3f b5ba b9be
000002a0: e28c c83f bc8d 0d3f ce67 c7bd fe4d bdbf
000002b0: c17c a6be fd32 a43d d528 513e 7506 26bf
000002c0: 05ff 5f3e bb78 bbbe 6c75 0040 cd50 cc3e
000002d0: 2954 3dbf 812a dc3f 57c3 343f 392a cf3e
000002e0: d558 293e b9ec 983e a9dd b3bd a3a4 19be
000002f0: 1ff7 183e add5 31be fcff 713e 673c 1740
00000300: 550e 8bbd 135d 183f dd70 3a3e 5553 b8bd
00000310: 5c57 203f 6e95 4bbf 866a 413e 1a56 48be
00000320: f7be 4e3f 4c9d c93d f0bd b33f b882 873f
00000330: 0582 6e3d c44d c43f 530b cd3f 0b69 2cbf
00000340: 5691 0c40 12ba bfbd 270f f23e dec5 473f
00000350: c219 023f a976 ca3d 5bb9 9d3f ec0e 503f
00000360: 2666 b33f 2489 8e3f 99f1 5bbf 8e0c cd3f
00000370: 6fef 90be b137 8dbe 4ea1 913f b136 9bbe
00000380: eff2 8fbe c3c5 d4be 82a9 d13f 04f3 63bf
00000390: 5da3 0dbf 23b6 e73f 3294 c4bd 90fe 3cbe
000003a0: ec69 e83e 8c0c 793c 3e59 1d3f 082f 84be
000003b0: 14b5 713e af7b bebe 6e4d 153f 5793 b43f
000003c0: 25c7 1f3f af5e 8c3e 9a66 c73b 11ae ca3d
000003d0: 797a 4a3f cd19 3ebe 1c94 8d3c 51d7 09be
000003e0: e308 b83e 15b3 35be 8076 083e ad84 113d
000003f0: e6f0 04bf 7709 8d3f 7ce4 9c3f 3dfa abbe
3.0807211 -0.464853 -0.63372934 0.79417586 -0.7760924 -0.9877978 0.32020977 1.0640236
1.6695805 -2.113414 0.7200558 -0.80680996 3.1712453 2.212053 -0.5423269 -0.056564867
3.9351225 2.6178763 0.459693 0.9455543 2.551227 1.7681997 0.5251318 1.6046034
-0.6676391 -1.3984491 0.17956184 1.405775 -2.9561005 -1.5706341 1.6751995 0.43960628
2.2129264 -0.29448727 0.01610436 -0.33218303 1.7638842 -0.082255825 1.0890521 1.0496548
2.974552 1.6112179 1.5087597 0.5966 -2.231823 2.225239 -0.16543071 -0.07811597
1.2125429 0.42611736 0.89716303 2.9719303 0.6125584 -0.43088531 1.3600509 0.6400935
2.4231052 0.5059238 0.9734447 -1.7648818 -0.87030566 0.60309666 1.3740058 1.8075634
0.45174918 0.6856901 0.10132211 0.50456905 1.2894454 2.1573339 -0.06504399 2.6465354
0.15792134 0.58646023 1.7777997 1.415676 0.8981899 1.2955314 -0.136072 0.91866857
1.9558026 0.46634975 0.4516899 1.5047528 -2.0769465 0.57800615 0.54984015 -0.41239488
1.3825588 1.9473826 -0.34209996 0.6762184 -0.1725929 1.790647 -1.0159374 0.49306583
0.94818825 -0.46524534 1.146642 1.9770814 -0.8057906 1.1234198 -1.7199792 -0.7104338
-0.94878054 0.6451662 -0.31083238 -0.07754039 0.8824393 -0.50474924 1.4129063 0.6646198
-0.34519237 -1.4295405 1.2300975 -0.8732052 0.29835954 1.1851896 0.9581349 0.068420924
1.0795218 0.6420818 0.8475323 -0.5029411 1.8730978 -0.55336016 -1.0671948 0.93210745
-0.02313938 0.22574188 1.2546246 2.8215656 1.2582387 1.2375934 -0.43104425 -0.28843442
-1.0257269 0.8217597 0.24970916 -0.94679505 1.114954 0.59461415 0.837052 1.7241191
0.019475298 -0.6051075 -0.68777686 0.22867818 -1.5433048 0.009349046 0.649595 0.26816574
-0.89321816 -0.17241442 -0.85389334 2.5576496 -0.50793123 0.46511164 1.652964 -0.1680444
0.5083119 -1.1224376 1.4227035 0.17017522 -0.3010224 0.7674585 1.5939093 -0.3627526
1.5667994 0.55294394 -0.09736596 -1.4789426 -0.32517055 0.08017538 0.20425732 -0.648536
0.21874626 -0.36615548 2.0071669 0.39905396 -0.73956543 1.7200471 0.70610565 0.404619
0.16537793 0.29868105 -0.08782513 -0.1500421 0.14938019 -0.17366667 0.23632807 2.3630617
-0.06789843 0.5951702 0.18207116 -0.09000269 0.626333 -0.79524887 0.18888292 -0.19564095
0.8076014 0.09844455 1.4042339 1.0586767 0.058229465 1.5336232 1.6019081 -0.6734778
2.1963706 -0.09361662 0.47277185 0.78036296 0.50820553 0.09885914 1.2322191 0.8127277
1.4015548 1.1135602 -0.85915524 1.6019456 -0.28307673 -0.27581552 1.1377351 -0.30315164
-0.2811503 -0.4155713 1.6379855 -0.8904269 -0.553274 1.8102459 -0.095985785 -0.18456483
0.45393312 0.015200745 0.614643 -0.25817132 0.23604232 -0.37203738 0.58321273 1.4107465
0.62413245 0.27415988 0.006085229 0.09896482 0.7909313 -0.1856453 0.017282538 -0.13461043
0.3594428 -0.17744096 0.13326454 0.03552692 -0.5193008 1.1018513 1.2257228 -0.33589354

weight f4 [32, 144]
00000000: 637a 33bf efa7 443f 0778 efbd b8de 22bc
00000010: d4b0 9dbe 7079 963f c7bf 9f3f 2a62 32bf
00000020: 05a3 b4bf acf4 45bf be24 bebe 6f8f c63e
00000030: 7fac 643f d911 15bf 0b86 863f 943d bbbf
00000040: 7c75 3dbf 157a b33f 98e6 de3d 2262 cc3e
00000050: b266 1b3f 2c45 773f 390f 61bf 9ed3 493d
00000060: 8497 e1be 6a8a 273f d74b 853f 2aa7 cbbe
00000070: b513 37bf eb4a 0c3e 2254 6bbf fc69 48bf
00000080: a4f3 97c0 6025 833f ac49 3bbf 9fce 123e
00000090: 5247 99be 1a32 1e3f 7606 94bd 725a d5be
000000a0: 50aa 1abf 6365 d2bf 65eb d53e 8eb1 9b3e
000000b0: b65a 153f 0a89 4f3e 5e3e 343e 7f2f 8c3f
000000c0: 7f37 333f 18d0 823e 2a23 263f 0264 72bd
000000d0: 0c45 67be 1c7a e9bf ba6d f13e 1669 003e
000000e0: 40ed 5d3f ebba b5bf 6f89 283e b309 ae3d
000000f0: ce87 74bf 210a c03e 9c84 623d afcd edbe
00000100: 3848 f23e ce2d 39bf 4eee 963f bb23 0a3f
00000110: eb75 22c0 ee22 a5bf 3c29 0ebe b62e e43e
00000120: 699b c9be 73c3 44bf b20f 95be e68f 153f
00000130: a5f7 ed3d 4ad6 cf3e 8215 66be 88f9 b23c
00000140: 743e aabe 13c0 c23b c96e 633c 129f 05be
00000150: 0eae 203e 9fc3 dd3e 7855 9bbe 7753 77bf
00000160: 40af 42bd db0d adbf 6437 f4bf 3a49 23bf
00000170: d44f b93d 7371 d23e 8fa9 c23f 50f5 12bf
00000180: 3998 9bbe 0369 0f3f f67c 82be 8840 093f
00000190: 472b a93d 4be2 0ebf 5876 003f bd57 00bf
000001a0: c18c c7bf 2844 e33e a4d7 00bc 2372 0d3f
000001b0: 3f8d 98be 5695 9cbd da1b 24bf 930f 82be
000001c0: e57b adbe 9458 24bf 6b48 333e 9182 483f
000001d0: ba81 3cbf cade 553f 7896 a83f 1de2 5ebe
000001e0: d990 cc3f 49e8 5f3f 9430 70bf b451 5dbe
000001f0: 06cc 393f 5500 073f 257b 8e3e ec24 d9bd
00000200: 0bba f3bf 7762 8dbf 7741 bd3e 6a48 54be
00000210: 8545 933f 988d d6be 8a56 b53e ac83 14c0
00000220: b664 cabe 0853 45bf 559f e63e 0d69 b83d
00000230: c354 793f 0e1a 86bf b98a d9be 6b13 59be
00000240: ac10 573f 48c2 80bf 5d24 af3f 97d5 653e
00000250: 0a0f f2be 5789 713f 5d35 6b3d f82c 763f
00000260: ce9e 90be 1dad 92bf 3cb3 f1bf 4a55 7d3d
00000270: 44f7 1ac0 d637 6cbf 1904 d23f ad93 02bf
00000280: ba2e 9dbf 0188 2b3f 4e5c 7f3e 7753 efbd
00000290: 38c6 483f c74a 483f bd26 6dbf 2823 0e3f
000002a0: 214c 883f a5ee c03e c585 2cc0 8ab6 2bbe
000002b0: 4375 793f ba15 0fbf 30fa 66c0 4f79 ff3e
000002c0: 9b3f 473f e8b2 55c0 8ee8 88bf 1841 19bf
000002d0: 90db e6bf b68b ea3e 58a3 efbe 73d9 b8bf
000002e0: ab11 87bf 3871 11c0 b438 83bf b60f ad3e
000002f0: 307c df3d 070e c6be 0736 8cbf d2fe 4e3c
00000300: ae80 763f 385e 5b3f 2f5e 26c0 8c76 abbf
00000310: fa7a 19bf 57bd 53c0 578e 11bf 1f83 f73e
00000320: 10cb 9cbe 38d8 803e 252b 11be aaa4 7abf
00000330: 090c 2940 c0b3 0cbf f1cb e5bc 96f1 a4bc
00000340: 9502 02bf bb2c 19bf b8d2 c4bf bf8c ce3e
00000350: 7d01 7cbf 17fb a3bf 3cca 3a3e 021c af3e
00000360: b1f5 5e3f 078a 42be 5b68 08bf 02d0 02bf
00000370: 01d3 9bbf c4ff 16bf 9939 90bf 3462 e53f
00000380: a02e 203f c281 c73e e4d9 65bf 6c59 07c0
00000390: e061 09bf cc0b 44bf 212e 04bf bd10 1040
000003a0: 2eee 80bf 8052 553f 4dbc 91be cf61 3b40
000003b0: acd9 a2bf 6529 f2bf b239 52c0 004e fdbd
000003c0: 26b2 3c3f b445 233e 417f 2b40 e474 e0bf
000003d0: d577 b8bc 7bab 923d 7936 a6be 416e 53bf
000003e0: 2c18 5bbf cdf4 7840 df54 043f 2bf4 7dbf
000003f0: 6c07 0ac0 90d7 d6be 1ac3 1240 1257 31bf
-0.7010862 0.76818746 -0.11692815 -0.009940796 -0.30798972 1.175581 1.2480401 -0.69681036
-1.411225 -0.77326465 -0.37137407 0.38781306 0.8932571 -0.5823036 1.0509657 -1.4628167
-0.7400739 1.4021631 0.10883826 0.3991862 0.60703576 0.9658992 -0.8791385 0.04927408
-0.4406091 0.6544558 1.041377 -0.39775974 -0.71514446 0.13700454 -0.9192525 -0.7828672
-4.7484913 1.0245781 -0.7315929 0.14336632 -0.29937226 0.617952 -0.07227795 -0.41670567
-0.60416126 -1.6437191 0.41781154 0.304089 0.5834154 0.2026712 0.17601916 1.0951995
0.70006555 0.25549388 0.64897406 -0.059177406 -0.22584933 -1.824039 0.47154027 0.12540087
0.8669014 -1.4197668 0.16458677 0.08497944 -0.9551972 0.37507728 0.055302247 -0.46445987
0.47320724 -0.7233552 1.1791475 0.5396077 -2.5384471 -1.2901285 -0.13882917 0.44566888
-0.3937638 -0.7686073 -0.29113537 0.58422697 0.116195 0.40593177 -0.22469142 0.021847501
-0.33250773 0.005943307 0.013881394 -0.13048962 0.15691397 0.4331331 -0.30338645 -0.9661173
-0.047530413 -1.3519853 -1.9079404 -0.6378361 0.09048429 0.4110218 1.5207995 -0.5740557
-0.30389574 0.5601961 -0.25485963 0.5361409 0.082602076 -0.55814046 0.5018058 -0.5013388
-1.558983 0.44387937 -0.007863913 0.55252284 -0.29795262 -0.07645671 -0.64105 -0.25402507
-0.33883587 -0.6419766 0.17508094 0.7832423 -0.7363545 0.83543074 1.317092 -0.21765943
1.5981704 0.87463814 -0.93824124 -0.21613199 0.7257694 0.5273488 0.27828327 -0.106027454
-1.9041151 -1.1045674 0.36964008 -0.20730749 1.1505591 -0.41904902 0.35417587 -2.3205366
-0.3952996 -0.7707982 0.45043436 0.09004412 0.9739496 -1.0476701 -0.4248865 -0.21198814
0.84009814 -1.005929 1.3682972 0.2244476 -0.472771 0.9435019 0.057423938 0.96162367
-0.28246158 -1.145908 -1.8882823 0.061848916 -2.421342 -0.922727 1.64075 -0.51006585
-1.2279885 0.670044 0.24937555 -0.116858415 0.7842746 0.782391 -0.92637235 0.55522394
1.0648233 0.3768207 -2.6956646 -0.16768852 0.9744455 -0.5589253 -3.6090202 0.4989724
0.7783143 -3.3390446 -1.069597 -0.5986495 -1.8035755 0.45809716 -0.4680431 -1.444136
-1.0552267 -2.2725353 -1.025168 0.3380105 0.10912359 -0.38682577 -1.0953988 0.012633996
0.962901 0.8569064 -2.5994985 -1.3395553 -0.5995327 -3.3084314 -0.5685782 0.48342225
-0.30623674 0.25164962 -0.14176615 -0.9790751 2.6413596 -0.54961777 -0.028051348 -0.020134728
-0.5078519 -0.5983388 -1.5376806 0.40341756 -0.9843977 -1.2811002 0.18241209 0.34201056
0.87093645 -0.18997966 -0.53284234 -0.51098645 -1.2173768 -0.5898402 -1.1267577 1.7920594
0.62571144 0.38966185 -0.897856 -2.1148329 -0.5366497 -0.765805 -0.5163289 2.2510216
-1.0072687 0.8332901 -0.28463975 2.9278448 -1.2722678 -1.8918883 -3.2847714 -0.12368393
0.7370933 0.15944558 2.679642 -1.7535672 -0.022518078 0.071616136 -0.32463434 -0.8259011
-0.8558376 3.8899415 0.51692003 -0.99200696 -2.156703 -0.41961336 2.293158 -0.69273484

bias f4 [32]
00000000: 745e 293d a4e2 ffbe c979 bdbe 5868 27bf
00000010: 23a0 50be e391 a13e 1365 32bf 8bf5 60bf
00000020: aac3 1abe e366 4bbd 6a37 0bbe c9ae 853e
00000030: 93ee f0be fab0 fabe ba32 12bf 4cfc 71bf
00000040: 8cb1 bbbe b27e c8be b164 d9be 778d 2fbf
00000050: eaf4 99be bdcf d9be 6e04 c23e 49a6 0bbf
00000060: 1799 5dbf e7e6 2e3e 643a 9d3e 3b22 70be
00000070: 806a 8e3c 8279 d5bb 7e7e f4bd 52a4 47bd
0.041349843 -0.499776 -0.37006977 -0.6539359 -0.20373587 0.31556615 -0.69685477 -0.8787467
-0.15113702 -0.049658667 -0.13595358 0.26109913 -0.47057018 -0.48963147 -0.5710865 -0.945256
-0.36658895 -0.3915916 -0.42459634 -0.68575233 -0.30069667 -0.42541304 0.37894005 -0.54550606
-0.8656172 0.1708027 0.3070861 -0.23450558 0.017384768 -0.006514729 -0.11938189 -0.048740692

weight f4 [16, 32]
00000000: 6efd 173f 345f 023f ff4d ce3f d875 e73f
00000010: 310c 5e40 e8bd cc3d 4bd1 29bf 1181 ef3e
00000020: c77f 3b3f 6aa1 d53f db20 f53e d840 103f
00000030: 264a 4a3f 5bd7 a23f 44a6 92bf 3008 803e
00000040: e95e c03f 0755 e53e d33c a23f 518f cdbd
00000050: c38f e43f d303 9f3f 486c 833e 8f01 f6be
00000060: 6eee 06c0 eb81 35bf 3925 b03e 1110 09bf
00000070: d5a9 f93f 1e30 523f b5bb 3f3f 8993 3b40
00000080: 74c8 0b3f 1ef1 563f 116e f13f 9180 f63f
00000090: afd6 5740 80ea c3bd 1d33 29bf 12d8 2d3f
000000a0: db6c 713f b0fb d53f baa2 5e3f 883e 503f
000000b0: c945 7c3f 807c 963f 6f2b 88bf d7d6 6e3e
000000c0: 6b4b ca3f b580 173f 87f2 973f e026 1c3e
000000d0: 9706 f03f 6375 a73f 4d6b 763e 5e3e 05bf
000000e0: ca04 00c0 4ec7 40bf 2457 373f d799 b0be
000000f0: 969d 0440 0cfc 293f 264b 883f 2fa6 3340
00000100: 86d2 f83f a331 2940 9889 0340 3992 1d40
00000110: 8231 313f 18eb e7bf e988 77bf c637 093f
00000120: cb31 9c3f badb 20be b04b a53f 009c d43f
00000130: a6fb 4d3f 181a 863f 831f 563f 2277 a7bd
00000140: 1518 393f e5e8 463f c0a1 943d 8c43 ea3f
00000150: 198f 1a40 7839 b33f 3f83 a0be ede7 b83e
00000160: 2525 06c0 7573 88be c03c 6c40 72de 8d3f
00000170: de6c 2e40 d6a2 cfbe 7c4e bf3f 15f4 f13f
00000180: b53a 243f e096 4c3f 8699 1f3d 3e4a 4dbb
00000190: 248c a0bf db49 c63e 0bfc 06bf 89d1 9bbd
000001a0: 2b53 073b dac8 97bf ca95 4fbe 7acf b7be
000001b0: 1785 2fbe 06be f8bd 5932 893f fc51 82bf
000001c0: 5603 753e e9b3 703e c2ee b9be 9c07 b73f
000001d0: 8e77 673d 6a05 923b 8d47 90bf 4e18 143f
000001e0: 5a0f 2fbf b28a 443f 7e63 f83f 10f2 5a3e
000001f0: a805 a53e 92db e0be 9992 8f3f c9c5 bcbe
00000200: bcfc a5bf 310f 0540 743c ce3b 2fc6 843f
00000210: d5a1 84bf 7a48 883f b0c6 b03e 6c47 9a3d
00000220: f33b 013f f967 8c3f 631a af3f 4a87 ae3f
00000230: 3c15 003f 367a afbe 6cfa debe 2c17 45bf
00000240: 2811 af3e ccb1 783f 2ea8 703f 22c9 9e3f
00000250: e458 583f 7f69 f63e b86d 21bf b738 9abf
00000260: 39a6 60bf 1771 a93e 1cda 07be 29b3 3440
00000270: 9d2b 0d3f 7389 993d 4f6f 3dbe 2851 92be
00000280: 3ca6 c1be f1ec f6be b300 1e3b a80b 06c0
00000290: ad33 933f 09a8 d5bd 0b50 76bd 9933 1a3f
000002a0: deb8 553f adbc b9bf 691b 3a3f c623 943f
000002b0: dd27 ffbd fb1f bbbe 401d 4d3c fb24 3e3e
000002c0: 4bea f0bc 4873 2ebf f84a b4be b01c 9abf
000002d0: 0d07 6ebf 2278 023e c5f7 783e c8d0 9dbd
000002e0: 7fd3 30bf f098 883f 15bd 993f ffbd 5abf
000002f0: 6784 40bf d9ac 0bbf d52f 863f 88a8 503d
00000300: f868 663f 729a 3a3f 9bd4 dd3f bee5 1640
00000310: 41be 8140 679f f53e d441 81bf 7ad3 073f
00000320: 3db6 7e3f dc8c 1740 52fd 703f ab05 633f
00000330: 34c4 893f e24d aa3f 428e 3dbf a092 c23d
00000340: fe33 9c3f a643 4a3f 7bce ae3f 8405 203e
00000350: f887 1540 3167 c53f 8076 b33e 2325 03bf
00000360: be6e 2bc0 8075 edbe ca21 153f 69b6 17be
00000370: f846 1240 56ec 273e 9c1e 0d3f f5f7 4540
00000380: 7397 b93d 002d 2c3d 313c d2be ab38 bdbf
00000390: b30b 783e fdcc 6cbf 73ef 90be d50c 723e
000003a0: 68c1 ad3f 4cdc 97be 8315 3c3f 87b8 b53f
000003b0: 9cff 2a3e 3233 d0bb f28b 133f 2866 26be
000003c0: 641b d43e 3dc1 843d 7b2a 2a3e 849b ccbe
000003d0: 52b5 f4be 4bdb 2f3f b43b 4a3f b20a 1bbf
000003e0: e328 81bf 1177 0dbf 845d 093f bf5b 33bf
000003f0: 2514 bbbf 41b6 46bf 80a5 b03e 2e8c 17be
0.5937108 0.5092652 1.6117553 1.8082838 3.469494 0.09997159 -0.6633498 0.46778157
0.7324185 1.6689885 0.4787663 0.56348944 0.7901939 1.2721971 -1.145699 0.25006247
1.5028964 0.44791433 1.2674812 -0.10037101 1.7856373 1.2423042 0.2566855 -0.48048064
-2.1083026 -0.70901364 0.344034 -0.5354014 1.9504954 0.8210467 0.74895793 2.9308798
0.5460274 0.83961666 1.8861715 1.9257985 3.3724782 -0.09566212 -0.6609362 0.6790782
0.94306725 1.6717434 0.8696705 0.81345415 0.98543984 1.1756744 -1.0638255 0.23324142
1.5804266 0.59180766 1.1870888 0.15249205 1.8752011 1.3082699 0.2406437 -0.5204829
-2.0002923 -0.75304115 0.7161734 -0.3449237 2.0721183 0.6640022 1.0647933 2.807018
1.9439247 2.6436546 2.055273 2.4620497 0.6921617 -1.811862 -0.96693283 0.5360073
1.2202696 -0.15708819 1.2913723 1.6610107 0.8046211 1.0476713 0.83641833 -0.0817702
0.7230237 0.7769912 0.07257414 1.8301864 2.414984 1.4001913 -0.31350133 0.36114445
-2.0960171 -0.26650587 3.691208 1.108351 2.7253947 -0.4055392 1.4945827 1.8902613
0.6415208 0.79917717 0.03896477 -0.003132477 -1.2542768 0.38728222 -0.5272834 -0.07608325
0.0020648937 -1.185817 -0.20271984 -0.3590048 -0.17140613 -0.12145619 1.071849 -1.018127
0.23927054 0.2350613 -0.3631497 1.4299197 0.0565105 0.004456212 -1.1271836 0.57849586
-0.683828 0.7677413 1.9405363 0.21381402 0.32230878 -0.4391752 1.1216613 -0.36869648
-1.2967753 2.0790522 0.0062938277 1.0372981 -1.0361887 1.0647118 0.34526587 0.07533154
0.504821 1.096923 1.3679928 1.3635037 0.500324 -0.34272927 -0.43550432 -0.7698848
0.34192777 0.97146297 0.9400662 1.2405131 0.84510636 0.48127362 -0.6305804 -1.2048558
-0.87753636 0.33094093 -0.13266796 2.823435 0.55144674 0.074969195 -0.18499492 -0.28577542
-0.3782214 -0.48227647 0.0024109303 -2.0944614 1.1500145 -0.10432441 -0.06013493 0.6023498
0.8348521 -1.4510704 0.72698075 1.1573417 -0.12458775 -0.36547837 0.012519181 0.18568794
-0.029408595 -0.68144655 -0.35213447 -1.2040005 -0.9297951 0.1274114 0.24313267 -0.077058375
-0.6907272 1.0671673 1.2010828 -0.8544616 -0.7520203 -0.5456062 1.0483347 0.050941974
0.9000392 0.72891915 1.7330507 2.3577724 4.0544744 0.47973177 -1.0098214 0.5305706
0.99496824 2.3679724 0.94136536 0.88680524 1.0763001 1.3305018 -0.74045193 0.09500623
1.2203367 0.79009473 1.3656763 0.15627104 2.3364239 1.5422117 0.35051346 -0.5122854
-2.6786342 -0.46378708 0.58254683 -0.14815678 2.2855816 0.16398749 0.5512483 3.093259
0.0906209 0.042035103 -0.41061547 -1.4782919 0.24223213 -0.9250029 -0.28307685 0.23637708
1.3574648 -0.2966026 0.73470324 1.4196938 0.1669907 -0.006353759 0.57635415 -0.16249907
0.41427147 0.0648217 0.16617768 -0.399624 -0.47794586 0.6869399 0.7899735 -0.60563195
-1.0090603 -0.55259806 0.5365832 -0.7006187 -1.4615523 -0.7762185 0.34501266 -0.14799568

bias f4 [16]
00000000: c4ca 1cc0 6d61 36c0 abb6 4ac0 e951 8dbe
00000010: 6807 2fbf 6912 22bf 6cc9 26c0 6b5a 1dbf
00000020: 1cee 2cbd 731b 29bd 027f 0fbf d5a3 283d
00000030: ed79 7bbf 7a73 48be b04e 7d3d c1f0 73bd
-2.4498758 -2.8496964 -3.1673992 -0.27601555 -0.68370676 -0.6330934 -2.6060438 -0.6146609
-0.042219266 -0.041285943 -0.56053174 0.041171867 -0.9823292 -0.19575301 0.06184262 -0.059555773

weight f4 [1, 16]
00000000: 2ec7 aebe dadb 72be 3add 33bf 26e4 3a3e
00000010: 178d 343f 53b5 80be c61a bcbe f60a 1fbe
00000020: bf4a 9bb7 2d5b 05b8 8072 b1be 3481 da3e
00000030: c1ad 093f a898 603f 2034 2bbf 4ec0 1bba
-0.34136337 -0.23716679 -0.7025944 0.18251094 0.70527786 -0.2513834 -0.36739177 -0.15531525
-1.8512246e-05 -3.1794585e-05 -0.3465767 0.426767 0.5378075 0.87732935 -0.6687641 -0.00059414364

weight f4 [1, 144]
00000000: b59d 98be ccec b13e 66fe 15be c18b c0bc
00000010: 9d81 643d 96f6 93bf 91b7 8a3f c5df 19bf
00000020: 6dc8 03bf d140 ec3e c64a 54bf 599c 303f
00000030: cf9f a6be 8da7 f1be c8dd a9bd 59bb 46be
00000040: decd 7d3e 9a84 283f 6fb7 353f dba7 48bf
00000050: c4fd 893f b2c1 5b3d 343f 1cbf a023 36bf
00000060: e15c a33c 5e15 b1be 1f10 3dbe 6f5a 953c
00000070: 84a2 d63f 73c8 95be a29e 87bf e7e5 afbe
00000080: bde9 f63e 3e18 f4be 09b6 69bf 56d5 073f
00000090: 830a 223d daf0 09be c20e ad3c c0ad 703e
000000a0: f193 3abd bfe1 4abf 0540 bb3f 7013 9d3f
000000b0: 5260 233f 4ec5 5ebf 5873 0c3f d7f7 03be
000000c0: 0a0b 04be 09ed abbe 3379 6a3e 8f12 bd3e
000000d0: 1e18 bb3d 26b1 4a3f 3389 943f 50ba a33e
000000e0: 3a5c b53e b341 333f 873b f6bd eb66 2cbf
000000f0: fe54 053f 04d1 9e3e 1e27 e5bb 93af 11bd
00000100: aafc 933f 1e00 f7bd 5ba6 8abe 43a1 41bf
00000110: de7c 45bf 9fbb 4dbc 9f2d bcbd 67b4 133f
00000120: 759c f7bd 986d 00bf 0774 143d d4ac 573e
00000130: 59ed 3c3e 1c82 0d3e b1b9 1fbf cbf0 88be
00000140: 61ad 0e3f 5217 39be 9ea5 a2be b2b6 1fbd
00000150: 40d8 ffbe 4afe 2bbe ec0d 1f3d 5f62 6abe
00000160: 2190 adbe 2a6a 48bd 2646 a7be fb6b 6c3e
00000170: dcc2 7c3e 815a be3e d056 113f 442c b43d
00000180: f480 febe db27 bd3b 7afc a4be a3af 03be
00000190: 87c2 9d3e b486 283f 0ff3 ba3e 547c 41be
000001a0: cbc0 20bf 530b 96bd dbb5 78be 99ae 7abf
000001b0: 89f3 cfbc b80c 823e 440b bfbe 8fe5 933e
000001c0: f247 38bf 7134 683e 03a4 66bf fcbc 9cbf
000001d0: 0790 e03f 41ff bdbe 4195 473f 5458 cdbe
000001e0: 00a7 0dbc bb76 31be 9fb7 2abe a251 d3bc
000001f0: 65c7 153f c86a 7cbc 09fc b23e 18f3 cabe
00000200: 6a0f 9e3f 9702 5bbd 99d1 143f 2792 a83e
00000210: f2d0 9abf bde9 d4be 23ca d4bc edb4 4abe
00000220: f86d 07be c02c 8dbe 5f26 e73e b11c 733f
00000230: dc29 3dbd ef71 36be 4170 d8bd 526b a2be
-0.2980782 0.34750974 -0.14647827 -0.02350414 0.05578767 -1.1559627 1.083727 -0.6010707
-0.514777 0.461432 -0.82926595 0.6898857 -0.325438 -0.47198144 -0.082942545 -0.19407405
0.24785563 0.65827334 0.7098302 -0.7838113 1.0780568 0.05365152 -0.6103394 -0.7114811
0.019941749 -0.34586614 -0.18463181 0.018231599 1.6768346 -0.29254493 -1.0595286 -0.3435509
0.48225203 -0.47674745 -0.9129339 0.530599 0.039560806 -0.13470784 0.021125201 0.2350378
-0.045551244 -0.7925071 1.4628912 1.2271557 0.6381885 -0.87019813 0.548635 -0.12887512
-0.12894836 -0.3357928 0.22897796 0.36928222 0.09135459 0.7917656 1.160437 0.31978083
0.35421926 0.70022124 -0.12023073 -0.6734454 0.5208281 0.3101884 -0.0069931885 -0.03556783
1.1561482 -0.12060569 -0.27080044 -0.7563669 -0.7714366 -0.012556939 -0.09188389 0.5769715
-0.12090389 -0.50167227 0.036243465 0.21062022 0.18449916 0.13819164 -0.6239272 -0.2674621
0.55733305 -0.18075302 -0.3176698 -0.03899259 -0.49969673 -0.16796222 0.038831636 -0.22889088
-0.33899024 -0.04892937 -0.32670707 0.23088066 0.24683708 0.37178424 0.5677309 0.087975055
-0.49707758 0.0057725734 -0.32223874 -0.12859969 0.30812475 0.6583054 0.36513564 -0.18895084
-0.6279418 -0.07326379 -0.24288122 -0.97922665 -0.025384681 0.2540033 -0.37313282 0.28886077
-0.7198478 0.22676255 -0.9009401 -1.2245173 1.7543954 -0.37108806 0.7796212 -0.40106452
-0.008645773 -0.17330448 -0.16671608 -0.025795761 0.58507377 -0.015406318 0.34957913 -0.3963859
1.2348454 -0.053469267 0.5813232 0.32924005 -1.2095015 -0.41584578 -0.025975293 -0.1979558
-0.13225543 -0.27573204 0.45146462 0.94965655 -0.0461825 -0.178169 -0.10568286 -0.31722504

weight f4 [32, 144]
00000000: 243f ff3f 166e 20c0 c08c b83e 82db 943e
00000010: 00c8 90be d47f e43d f3dc afbe 3216 1a3e
00000020: 62c4 e8bd 1b0c bf3d 4e0a c13d 9671 fcbe
00000030: 0af6 22bf f7d8 20bf 1ffd 343d bc71 2fc0
00000040: 0688 a1be af87 23bf ca78 89bf a24d 313c
00000050: e642 f23e 71c6 e6bf c50d 06bf 1f6a 553e
00000060: 88b8 b93f 1cda 783f 20b5 c93e 6c31 7abe
00000070: e5ae acbf 30af a0bf eada 6bbf f7a9 d33f
00000080: 53f3 81bc 1c6d cbbe d6b5 2bbf 0324 9a3f
00000090: d4d3 33bf dfc3 443f 043b 98bd 2842 583e
000000a0: 5955 94bf 09b4 44bd f2f2 4abf ee6a 72c0
000000b0: 2497 0cbf 93eb bbbf e60b f1be 2b85 86bf
000000c0: 2247 dcbe 5788 553f 6267 83be eec2 8cbd
000000d0: 3938 66be 570f abc0 6d4b 51bf a9d3 f53c
000000e0: d5dd 5bbf 1d54 9cbf 1fc1 ed3e e01e c63f
000000f0: 4f84 933e 0437 e43e fc37 463d aa23 a7bd
00000100: fb12 66be 9c5e 33bf bfd3 70bd aa5d e83f
00000110: a6d6 d4be e154 3fbe 5ad5 09bd 240c 643e
00000120: 56dd fd3f 794e a8be 18d8 99bd 9f96 ec3e
00000130: 9721 99be 4f1a 13c0 7f46 5a3f a6d8 cfbf
00000140: 1c65 223e 062e 20bf 434e 79bf 8026 b0bf
00000150: 14c0 b1bd f5f8 dfbf 1a40 ebbe d7c8 0cc0
00000160: 3e26 eebf dd5e d6bf 6fb7 67be f351 0740
00000170: bdd4 aabf 7b8d 9fbf b975 4c3e 667c 873c
00000180: 7868 cf3f dfa4 843e fc31 dd3e 1afe 993f
00000190: b215 bebe 0ad0 d8bc 749b 3dbf 98f5 323f
000001a0: 8200 a4be fab0 64bf fe34 9e3e f707 9bbe
000001b0: c516 e8bf f9e6 90be c79e 903f 6267 b83e
000001c0: 8fae 233f b928 3040 e974 0c3f 2f38 883d
000001d0: b401 6fbf 6be2 3b3f d6a3 ec3e da1b 21bf
000001e0: b39c 08bf 2839 bcbf 6336 18be ac7b d03d
000001f0: c9c0 3a3e 28bb a440 8341 4abf 77a8 6ebf
00000200: 8a01 d73d 3735 0b3f c86e 283e 3f5a 12bf
00000210: e221 dd3d e125 183f 7cf5 bcbd c5aa 3fbf
00000220: 6aff 13be 6ebb 8cc0 e489 37bf 7133 26bf
00000230: dc7a 72be 0aeb 2fbe 4957 0ac0 0b29 ac3e
00000240: e512 c5be 4865 673e a266 d33d 35bc e6bd
00000250: cd16 5c3f 1638 98bf 3470 623d bd6b 14c0
00000260: 9f7c b6be dd6e 543f ec5b 7ebf 9f14 1a3f
00000270: bf10 e73e 26a0 17bf 04b5 033e 32ee 08be
00000280: 2ba6 dc3f d262 1140 e922 02bf 3804 9bbd
00000290: ca7a 7fbe fb01 73bc 9fd7 dfbf a79b 04c0
000002a0: 217a 55bf 388b 1c3f faae efbd 8e74 723d
000002b0: d827 1840 27b6 763f cd11 7b3f ef73 1ac0
000002c0: bfaf a53f 511c a83f 6870 3fc0 8d2a 37bf
000002d0: 5e2a 42bd 924a 6dbe 64cb 123d 583b 2bbf
000002e0: 7862 95bf 173b febd dfc6 a23e a7b4 773f
000002f0: a3b1 593f 5336 2abe 08fd 00be 278d 933f
00000300: 2a9a 69bf c2f0 f73e 394e 83bc a65c 31bf
00000310: 8f51 573f d120 e3bd db23 7f3f 2f1c db3e
00000320: a937 eabf 0571 8b3f 343b 33bf 2fef debd
00000330: 280e 06bf 9200 96bf 08f7 493c 5fd9 9cbc
00000340: 7a05 7d3d 7cf0 50bf db7d bfbf 86dc dbbf
00000350: 0321 743f 5a15 0f3f 0b94 e93e 9b72 52c0
00000360: a331 93be 6d26 8dbf b605 9dbc 3388 edbd
00000370: a596 703f 5007 b53f 9491 04c0 c8b8 353f
00000380: 6474 833f db23 913c bab2 bebe b467 89c0
00000390: 95c4 5a3f 0b02 fe3e 843f a2bc dd1a 933e
000003a0: 7bd1 b5bf a7b0 71bf ccfe 33bf 42cc c1bf
000003b0: 3187 8ebf 60ed 543f 40d5 d83f 30c4 08c0
000003c0: 4331 633e cdde f83d 05bd 27bd ef00 64be
000003d0: b10b e7bd 9b7f e1be 86bc f9be 96fb 94bf
000003e0: 04fd 3b3f c910 64bf 35e1 38bf 54aa 5740
000003f0: 3b7f d0bb 8640 96bf 4ee9 f0be a899 00bf
1.9941144 -2.506719 0.36044884 0.2907372 -0.28277588 0.11157194 -0.34348258 0.1504753
-0.11365582 0.09328481 0.094257936 -0.4930541 -0.63656676 -0.6283106 0.044186708 -2.7413168
-0.3154909 -0.6387891 -1.0739987 0.010821732 0.47316664 -1.802931 -0.5236476 0.20841263
1.450944 0.9720781 0.39396 -0.24432915 -1.3490874 -1.2553463 -0.9213091 1.6536244
-0.015863096 -0.3973168 -0.67074335 1.204224 -0.702451 0.76861376 -0.07433131 0.21118987
-1.1588546 -0.048023257 -0.79276955 -3.7877765 -0.5491812 -1.4681267 -0.4707939 -1.050939
-0.4302302 0.83411163 -0.25664812 -0.068731174 -0.22482385 -5.3456225 -0.81755716 0.030008154
-0.85885364 -1.2213169 0.46436402 1.5478172 0.2881188 0.44573224 0.048393235 -0.08161099
-0.22468178 -0.7006624 -0.058795687 1.8153584 -0.41570014 -0.18684722 -0.033650734 0.22270256
1.9833171 -0.3287237 -0.0751192 0.46208665 -0.2990844 -2.2984807 0.8526382 -1.6237991
0.15858883 -0.62570226 -0.9738504 -1.3761749 -0.08679214 -1.7497851 -0.45947343 -2.1997583
-1.860542 -1.67477 -0.22628568 2.1143768 -1.3346173 -1.2465051 0.19966783 0.01653881
1.6203756 0.25907037 0.43202198 1.2030671 -0.37125927 -0.026466388 -0.7406533 0.69905996
-0.32031637 -0.89332545 0.30899805 -0.30279514 -1.8131949 -0.28301218 1.1298455 0.36016375
0.6393823 2.7524855 0.5486589 0.06651341 -0.93361974 0.7339236 0.46218747 -0.62933123
-0.53364104 -1.4704943 -0.14864497 0.101798385 0.18237604 5.147846 -0.7900621 -0.93225807
0.104983404 0.54378074 0.1644851 -0.57168955 0.10797478 0.594328 -0.0922651 -0.7486995
-0.14452901 -4.3978796 -0.7169478 -0.64922243 -0.2367968 -0.17179504 -2.1615775 0.33625063
-0.38490978 0.2259723 0.1032231 -0.112663664 0.8597229 -1.1892116 0.055282786 -2.3190758
-0.35641953 0.82981664 -0.9935901 0.60187715 0.45129964 -0.5922874 0.1286202 -0.13372114
1.723821 2.2716565 -0.5083452 -0.07569164 -0.24949184 -0.014832015 -1.7487677 -2.0720003
-0.8338948 0.6114993 -0.11703296 0.059193186 2.3774319 0.9637169 0.98074037 -2.413326
1.2944258 1.3133641 -2.9912357 -0.715493 -0.047403686 -0.23172978 0.0358385 -0.66887426
-1.1670675 -0.12413614 0.31792352 0.9676003 0.8503668 -0.16622286 -0.12596524 1.1527451
-0.9125086 0.4842587 -0.01602851 -0.69281995 0.84108824 -0.110902436 0.99664086 0.4279494
-1.8298236 1.0893866 -0.7001221 -0.108854644 -0.5236535 -1.1718924 0.012326963 -0.01914662
0.0617728 -0.8161695 -1.4960283 -1.7176673 0.9536287 0.55891955 0.4562076 -3.288245
-0.28748807 -1.1027352 -0.019167762 -0.115982436 0.93979865 1.4142857 -2.0713854 0.7098508
1.0269895 0.017717293 -0.37245733 -4.293909 0.8545621 0.49610934 -0.019805677 0.28731433
-1.4204553 -0.94410175 -0.70310664 -1.514046 -1.1135007 0.83174706 1.6940079 -2.1369743
0.2218676 0.12151871 -0.040951747 -0.22265981 -0.11281527 -0.44042668 -0.48776644 -1.1639278
0.73432946 -0.8908811 -0.7221864 3.369771 -0.0063628233 -1.1738441 -0.47052997 -0.5023446

bias f4 [32]
00000000: 4c91 b9bf 8721 18bf bdfc 13be a545 38bd
00000010: 2d52 15bf d94a e8bc 6ea8 3fbf 8bf8 5d3e
00000020: 769a 5abf e482 61be bee9 40bf 37d4 25be
00000030: d251 4ebe 8f44 3fbf cf61 7abf b828 e2be
00000040: 0f81 05bf 4248 313e 1402 b9bf c577 2bbf
00000050: aa19 02bf 435d bebc 213b 68bf 618e 70bf
00000060: c339 b23e 442a cdbe 2b48 96bf d8dc 46be
00000070: 96c0 08bf fb5e 69bf 380b 7dbe ac2b f5be
-1.4497466 -0.5942616 -0.14451881 -0.044988293 -0.58328515 -0.028356003 -0.7486638 0.21676843
-0.8539194 -0.22022587 -0.7535666 -0.16194235 -0.201484 -0.7471399 -0.97805494 -0.4417169
-0.5215005 0.1731272 -1.4453759 -0.6697963 -0.5082041 -0.02323783 -0.90715224 -0.9396725
0.34809694 -0.4007131 -1.1740774 -0.19420183 -0.5341886 -0.91160554 -0.24711311 -0.47884881

weight f4 [16, 32]
00000000: 4321 b73d 0a5b 403d dede 873b d493 1f3d
00000010: 0c73 45be 1ad4 13bd 7e90 17bc c0ec 0cbd
00000020: 7a9b 30bd 8cff b1bc 25d8 083d 7aa4 9cbc
00000030: bb87 113d fd79 bf3c ce8b 873b 0312 f5bb
00000040: 68c3 5cbc 76da 163c aca1 1ebd 688f 783b
00000050: 35ae 2abe 3b1f 15bd ad4f a63c 43d6 0abe
00000060: 9f82 afba 9759 263c 2526 5f3e 776b 7a3c
00000070: aded 70bd 4465 b03b c919 1b3c af2f 813d
00000080: 68fc f0be cac9 37bf bf19 803e 804d c73e
00000090: afea a3be dda3 f0bc 0d4a 19bf e204 2e3f
000000a0: aae6 4fbf d9a8 edbe 9a34 03be 27c2 bd3e
000000b0: bf75 d13e cc30 b3be 997c 84bf a5b3 423f
000000c0: d736 3fbf 9712 88bd 0c8b 19bf fcee 6ebf
000000d0: 00c6 d6be a7b4 413f f410 073f b68f 92be
000000e0: f40c 5dbf 11eb f03d fdcb 89bf cb1a bc3e
000000f0: d473 58be 7b49 72be 36dd 453f b425 e4be
00000100: 260c 00bf d9bd e5be 63be eabd 3074 f53e
00000110: 7e8b 13bf 9eae 2c3e 83be 12bf 7351 e23e
00000120: 7efa 08bf 8885 eabe 0199 96be c755 d53b
00000130: b1b7 dfbd 85aa 0cbf 34cf 5abf 2fa4 2fbf
00000140: 7422 88bf 51fb b23d cda0 53bf 1af3 2abf
00000150: 2325 14bf 6fe3 153f 833e 0f3f 968e 583d
00000160: f2b4 6b3e 3d02 87be 9680 3fbf 8011 d63e
00000170: 1f59 4dbf 7626 2ebf 6616 cc3e 82b6 d2be
00000180: 6ad6 0a3f b494 8ebc e38f 033e b138 f8bd
00000190: 6903 98be e6e5 c7bd f814 143d ac55 ecbd
000001a0: 439a 11bf 39d6 20be 21b6 f5bd 6887 52bd
000001b0: 4289 813d c243 993d 1a70 3abc a3d3 35bc
000001c0: 4adf ab3d 64b6 313d 7233 f03d 6bd6 ddbd
000001d0: d639 a3be d1d6 98bd 5253 9c3e 0ffa 90be
000001e0: f506 d6bc cc61 83bc b5c9 023f 19d3 863e
000001f0: 41d7 febd e700 e03e e9e8 edbc 8363 49be
00000200: e773 283d bafa 1f3c 7646 a03b b696 f23b
00000210: 1291 57be c78a dfbc 0c54 82ba 2908 8fbd
00000220: 85e2 17bd b99f 6cbc 65c3 84bc 92ae 6fbc
00000230: 9b7c a73c 16cb 8abc 57e9 c83d 8765 54b8
00000240: 0f79 38bd 6215 c33c 0c25 e9bb 61d5 2e3c
00000250: d40d 5fbd 43a3 babc 8980 c5bc ff73 18bd
00000260: d39b 38bc 9b85 893b 3b32 8c3e a9dd e53c
00000270: 9a61 dcbc 8e4c c23b 8000 df3c d3d2 9f3c
00000280: 6550 443f 25a7 7fbe 2273 703f a4f4 213e
00000290: 476f 91bc 9813 cbbe 1059 1c3f ada7 053f
000002a0: d371 893e 6d6f 49bf c6ea 0fbf 2fb0 3c3f
000002b0: e93b 7bbf a490 afbe f749 8b3f 5316 963e
000002c0: 6465 a33e f0ad df3e a74b 153e d3fa 89be
000002d0: fea6 14bf 10d7 683f d558 333f dfb3 653f
000002e0: 29bc 4b3f 69e9 893f d222 51be cc0f 8abe
000002f0: 03d9 ac3f 9c8f 2dbf d6d3 a53e b48f babd
00000300: 7564 14bd b85f 23bd fe6d d53d ad12 4dbe
00000310: 8587 dfbe 7eec cbbd df43 053c 8344 bdbd
00000320: ff8c fdbe 3de9 c6bc 98f5 60be 3b0f 4fba
00000330: f188 043d 2a04 8bbe 96f3 263e b76a c0bc
00000340: fa0d 3e3d 6aa8 833d 4072 083e 6ba5 cdbc
00000350: 5ae2 22be 8535 89bd dd66 2d3e a10b afbe
00000360: fd5e 78bd 6c1c 22bd 947e d03e cb34 703e
00000370: 05ac ac3b 4449 013f 407e 54bd 1d3e 85be
00000380: 635a 3c3d 5607 35bd 6821 bcbb c352 703c
00000390: fe81 acbc ab22 52bb 89a8 643b e3ec 3b3c
000003a0: 17f3 9fbc c46d 3abd 7c32 14be 2674 10bd
000003b0: 2fa8 6b3c af7e 903d 765a bb3c 0c24 9abc
000003c0: dabd 173d 5746 5c3d c27a 423c d031 393c
000003d0: 455d 0dbe 6e7b dbbc a2fd abbd 549b 25bd
000003e0: 08be 063c 7064 9ebc fa68 823e 3c40 463c
000003f0: 262a d3bd 84f7 0c3c 353b ecbb 9106 f43d
0.08941891 0.04696182 0.004146441 0.03895934 -0.19282168 -0.036090948 -0.009250758 -0.03440547
-0.043117024 -0.0217283 0.033409256 -0.019121397 0.035529833 0.023373598 0.004136539 -0.007478954
-0.013474323 0.009207359 -0.0387284 0.0037927274 -0.16668017 -0.036406737 0.020301664 -0.13558297
-0.0013390369 0.010153196 0.21791895 0.015284411 -0.058820415 0.0053831656 0.009466597 0.06307923
-0.4706757 -0.7179228 0.25019643 0.38926315 -0.32014987 -0.029375011 -0.5987862 0.679762
-0.8121134 -0.46417883 -0.12813035 0.3706219 0.40910146 -0.34998167 -1.0350524 0.76055366
-0.74693054 -0.06644171 -0.59977794 -0.9333341 -0.41947937 0.7566628 0.52760243 -0.28625268
-0.8634789 0.11763585 -1.0765377 0.3673919 -0.21137935 -0.23660843 0.77290666 -0.44560015
-0.5001854 -0.44871405 -0.11462095 0.47940207 -0.57634723 0.16863486 -0.5732195 0.44202766
-0.5350722 -0.45805 -0.29413608 0.0065104696 -0.10923708 -0.5494769 -0.85472417 -0.686099
-1.0635514 0.08739341 -0.8266724 -0.66777194 -0.57869166 0.5855016 0.5595476 0.052870356
0.23018244 -0.26368895 -0.7480558 0.41810226 -0.80214113 -0.68027437 0.3986084 -0.41154867
0.5423342 -0.017404892 0.12847857 -0.12120188 -0.29690102 -0.097606465 0.03615281 -0.11539778
-0.5687601 -0.1570672 -0.11997629 -0.051398665 0.06325008 0.07483627 -0.011379266 -0.011097821
0.083921984 0.043386832 0.117285624 -0.108319126 -0.31880063 -0.07462848 0.30532318 -0.2831578
-0.026126364 -0.016037844 0.5108903 0.2633293 -0.124434 0.43750688 -0.029041724 -0.19666867
0.041126158 0.009764368 0.004891212 0.00740322 -0.21051434 -0.027287854 -0.0009943261 -0.06983978
-0.03708126 -0.014442378 -0.016206453 -0.014629023 0.020445159 -0.016942542 0.09810131 -5.0639293e-05
-0.045037325 0.023813907 -0.007115012 0.010670991 -0.054456547 -0.022782927 -0.024109142 -0.037219997
-0.01126762 0.004196835 0.27382073 0.028059797 -0.026902009 0.005929536 0.027221918 0.019509709
0.7668517 -0.24966104 0.9392568 0.15815979 -0.017753256 -0.39663386 0.610734 0.5220898
0.26844653 -0.7868565 -0.5621761 0.73706335 -0.9813829 -0.3429004 1.0881947 0.29313907
0.31913292 0.4368739 0.1457964 -0.26949176 -0.5806731 0.9095316 0.7005742 0.89727587
0.79583985 1.0774356 -0.20423439 -0.26965177 1.3503727 -0.67797256 0.3238818 -0.091094404
-0.036228616 -0.039886206 0.1042137 -0.20026655 -0.4365808 -0.09957217 0.0081338575 -0.09241583
-0.49521634 -0.024281139 -0.21968687 -0.0007898693 0.03235716 -0.27151614 0.16303858 -0.023488386
0.046400048 0.06428607 0.13324833 -0.025103291 -0.15906659 -0.06699661 0.1693377 -0.3418856
-0.060637463 -0.039577886 0.4072157 0.23457639 0.0052695298 0.5050242 -0.051878214 -0.2602395
0.045984637 -0.04419645 -0.005741287 0.014668169 -0.021058079 -0.003206412 0.0034890494 0.011470052
-0.019525094 -0.045514837 -0.14472383 -0.035267018 0.01438336 0.07055413 0.022870284 -0.018816017
0.03704629 0.05377802 0.011870088 0.01130338 -0.13805111 -0.026792254 -0.08397986 -0.040431336
0.008224018 -0.019335002 0.25470716 0.012100276 -0.103107736 0.008603934 -0.0072092065 0.11915315

bias f4 [16]
00000000: 6fb1 c7ba 0992 3a3e ca39 d8bd 05b9 693d
00000010: e402 edbb bb13 4d3e 04c8 b03c 36be 89bc
00000020: 36c8 bdbe cf47 e2bb fcfe cd3c b1bd 293c
00000030: 373c 4cbc 4748 42bc 2c34 4dbb 77d1 983c
-0.0015235374 0.1821977 -0.105578974 0.057061214 -0.0072330106 0.20027058 0.02157975 -0.016814332
-0.3706681 -0.006905533 0.025146 0.010360167 -0.012465528 -0.011858053 -0.0031311614 0.018654568

weight f4 [1, 16]
00000000: f1a5 713a 4c3a 333e 6e91 653e 03a8 d0b9
00000010: 7f84 383a 94ca 0b3e 1984 24b9 9002 dc38
00000020: 327e 44be 6f83 a73a 6a25 4ab9 ce98 37b9
00000030: b9a9 863a 2f60 b039 c64b e4b8 7264 99b8
0.00092181476 0.17502707 0.22418758 -0.0003979803 0.00070387864 0.13651496 -0.00015689469 0.00010490895
-0.19188765 0.0012780259 -0.00019278159 -0.00017509164 0.001027397 0.00033640998 -0.00010886001 -7.314318e-05
