MLIPs/CACE-LES/water/caceles-r-4.5-nl-1-nu-2/checkpoint.pt (torch, 169570 bytes, 54 tensors)

representation.node_embedding_sender.embedding_weights f4 [2, 2]
0.27297422 0.10406988 -0.50558966 0.671097
00000000: 47c3 8b3e 9722 d53d 536e 01bf 03cd 2b3f

representation.node_embedding_receiver.embedding_weights f4 [2, 2]
0.3539672 0.06998481 -0.010435403 0.7913126
00000000: 303b b53e 3254 8f3d 41f9 2abc 7693 4a3f

representation.radial_basis.bessel_weights f4 [6]
0.3532938 1.3081374 2.1469147 2.9944968 3.9152005 4.8793077
00000000: ede2 b43e 0c71 a73f 0d67 0940 d6a5 3f40
00000010: a592 7a40 4a23 9c40

representation.radial_transform.weights.0 f4 [6, 12, 4]
1.764844 2.0871248 -0.05647243 -0.003159962 -0.56910723 1.9951897 -0.18327545 0.51535684
2.32368 -0.33896443 0.52153164 0.00056370714 -0.005009008 -1.1364326 0.010329325 0.41472197
-0.97136855 -0.021593401 0.0642733 0.37944904 2.5339487 -0.8363719 -0.021537587 0.018981865
1.844988 1.79647 0.034559898 -0.026768573 -1.001053 1.0698982 0.037850443 0.60369766
0.29419312 -0.16164184 -0.14551759 -0.4202798 -0.63764006 -0.62117314 -0.08329993 0.110298514
-0.49557713 0.643819 0.0024103483 0.019108985 -3.412645 1.2333517 -0.023623466 0.27992663
1.6961347 0.13046034 0.14066586 0.0012671136 -0.38278466 0.4433356 -0.020267755 -0.09415348
1.9800649 -0.54714483 -0.78647155 0.0014756856 0.123149835 0.26793107 0.018702876 1.0923723
0.34710166 -1.02315 -0.1650976 1.2080743 0.6448946 0.53090453 0.0080408305 -0.03740165
1.9161448 1.2775935 0.017605169 0.19797534 0.35395867 -0.19750379 -0.017462285 -0.3099194
1.2163457 0.06519342 0.45825294 0.5261203 -0.29673907 0.39694238 0.5833745 0.4090424
0.05178163 0.052981306 0.13713057 -0.038326047 -0.19927171 1.0823394 0.026103975 0.07678942
1.3066908 -0.5564881 -0.032469094 0.00091197056 0.2827942 0.22573684 0.55988866 -0.49914998
0.4133414 0.0027765702 -0.36874938 -0.009456642 0.017663505 0.65366703 -0.0499379 0.30540347
-0.18644068 1.0663735 0.0057270024 0.17758526 -0.39676046 -0.008419719 0.026211997 -0.00033637937
0.6865803 0.75055486 -0.08160341 0.010744244 1.416886 -0.048127797 -0.012410725 -1.148787
1.2330582 -0.06142317 -0.0982964 1.6310205 -0.14708641 0.42109105 -0.26154992 0.020242065
-0.062141884 -0.10976567 -0.03247655 -0.016519932 0.40381563 -0.79664844 -0.0041627632 -0.0825103
0.18357691 0.07232142 0.02614765 -0.00066670537 0.028861288 0.21383236 -0.08545564 -0.10836257
0.1744172 0.8522357 0.3707052 0.009472963 0.0005085283 0.27661797 0.023335764 -0.16507226
0.05996081 1.5838999 -0.009686621 -0.12925611 -0.07438561 -0.011831365 -0.013027386 -0.03011796
0.59574485 0.37462518 0.043395307 0.035147972 1.7120678 0.08343311 0.023145564 0.15176256
0.7849046 0.0036713937 0.09065077 0.2806194 0.07455414 -0.14557971 0.21234903 -0.012655404
0.06650874 0.07279787 0.032647338 -0.0068973484 -0.18630488 0.9309093 0.012917171 -0.094413355
0.012692382 0.85284764 -0.0035195737 -0.0029799195 -0.05355014 0.314 -0.22565474 0.85709983
0.32483673 1.0141722 0.021092355 -0.005545991 0.011054733 0.22439551 0.018846564 0.1991602
-0.10063478 0.94848365 0.016905388 0.13457467 0.17220609 0.14112397 -0.008816043 0.055006504
-0.12622719 -0.16932158 0.015731927 -0.14060023 1.1457182 0.18054539 -0.009684864 1.0725093
0.054176085 0.088557586 -0.09643605 0.09457379 -0.016880287 0.12072725 -0.06436174 0.0050368817
-0.049450558 0.26225746 0.026415244 0.047105446 0.09287145 0.1900869 -0.023678603 0.49050772
0.29200795 0.57012165 -0.029334662 0.003084266 0.00081879436 -0.19578244 0.24390508 0.32429406
0.26905334 -0.012008587 0.16802487 -0.017494142 0.10611582 0.41321024 -0.017446604 0.34339288
00000000: 68e6 e13f 7493 0540 a24f 67bd 5d17 4fbb
00000010: 03b1 11bf 6062 ff3f 8fac 3bbe 6dee 033f
00000020: 2cb7 1440 bf8c adbe 1983 053f bfc5 133a
00000030: 9b22 a4bb a076 91bf 543c 293c 7056 d43e
00000040: 9cab 78bf a5e4 b0bc b8a1 833d 2547 c23e
00000050: 372c 2240 781c 56bf 986f b0bc db7f 9b3c
00000060: 9128 ec3f bbf2 e53f ae8e 0d3d c449 dbbc
00000070: 8122 80bf 6df2 883f 1109 1b3d ee8b 1a3f
00000080: 7ba0 963e 7085 25be 9002 15be ea2e d7be
00000090: 613c 23bf 3405 1fbf 2799 aabd 30e4 e13d
000000a0: 49bc fdbe 52d1 243f eff6 1d3b 728a 9c3c
000000b0: c768 5ac0 78de 9d3f 0086 c1bc 8b52 8f3e
000000c0: f11a d93f 6597 053e b60a 103e 4715 a63a
000000d0: 5afc c3be e2fc e23e 9008 a6bc 8ad3 c0bd
000000e0: c472 fd3f af11 0cbf 3356 49bf cb6b c13a
000000f0: fb35 fc3d 432e 893e c636 993c dbd2 8b3f
00000100: 4fb7 b13e 94f6 82bf 580f 29be 2ea2 9a3f
00000110: d017 253f 5ce9 073f b0bd 033c 7932 19bd
00000120: 3c44 f53f 2f88 a33f b738 903c 0cba 4a3e
00000130: 123a b53e 6f3e 4abe 110d 8fbc c1ad 9ebe
00000140: 37b1 9b3f 2184 853d 21a0 ea3e d2af 063f
00000150: 2fee 97be 083c cb3e 0858 153f 016e d13e
00000160: f918 543d ed02 593d f56b 0c3e c6fb 1cbd
00000170: e20d 4cbe 198a 8a3f 01d8 d53c c543 9d3d
00000180: a541 a73f 0176 0ebf 50fe 04bd 4f11 6f3a
00000190: 67ca 903e 8f27 673e dd54 0f3f 9690 ffbe
000001a0: 7ca1 d33e 1ef7 353b b8cc bcbe 08f0 1abc
000001b0: 0eb3 903c b956 273f af8b 4cbd d85d 9c3e
000001c0: 4eea 3ebe ed7e 883f 94a9 bb3b e9d8 353e
000001d0: 3024 cbbe dcf2 09bc 8bba d63c 135c b0b9
000001e0: bac3 2f3f 5d24 403f b01f a7bd a008 303c
000001f0: 855c b53f a721 45bd 5a56 4bbc 740b 93bf
00000200: dad4 9d3f dd96 7bbd 9f4f c9bd 48c5 d03f
00000210: d29d 16be 3f99 d73e dfe9 85be b0d2 a53c
00000220: 7d88 7ebd d3cc e0bd 2206 05bd cf54 87bc
00000230: ecc0 ce3e 27f1 4bbf ca67 88bb 29fb a8bd
00000240: 96fb 3b3e 411d 943d 9933 d63c d7c5 2eba
00000250: 826e ec3c dff6 5a3e 5e03 afbd 32ed ddbd
00000260: 6c9a 323e 1e2c 5a3f 12cd bd3e 7d34 1b3c
00000270: c24e 053a dfa0 8d3e a52a bf3c b408 29be
00000280: 7799 753d 3bbd ca3f a2b4 1ebc b75b 04be
00000290: 7c57 98bd 57d8 41bc d170 55bc f1b9 f6bc
000002a0: bc82 183f dfce bf3e 47bf 313d 52f7 0f3d
000002b0: 0a25 db3f fade aa3d c49b bd3c a567 1b3e
000002c0: 82ef 483f c49b 703b 1ca7 b93d 59ad 8f3e
000002d0: d7af 983d d912 15be 0672 593e 9d58 4fbc
000002e0: bc35 883d 0d17 953d 37b9 053d 2703 e2bb
000002f0: b5c6 3ebe 1250 6e3f 8ba2 533c ca5b c1bd
00000300: b5f3 4f3c 3954 5a3f a6a8 66bb c14a 43bb
00000310: 6457 5bbd 9cc4 a03e 0912 67be e56a 5b3f
00000320: 0051 a63e 65d0 813f e0c9 ac3c 25bb b5bb
00000330: e91e 353c f0c7 653e 1c64 9a3c a7f0 4b3e
00000340: 9c19 cebd d3cf 723f 2b7d 8a3c f1cd 093e
00000350: cb56 303e cd82 103e 2a71 10bc 804e 613d
00000360: b341 01be a362 2dbe 3ee0 803c 82f9 0fbe
00000370: e5a6 923f e4e0 383e 44ad 1ebc fc47 893f
00000380: bee7 5d3d ae5d b53d 4480 c5bd e7af c13d
00000390: 8748 8abc d93f f73d 17d0 83bd 6d0c a53b
000003a0: ab8c 4abd 9c46 863e c864 d83c a4f1 403d
000003b0: 6333 be3d 24a6 423e a1f9 c1bc d423 fb3e
000003c0: 1182 953e 7ef3 113f 3f4f f0bc 6621 4a3b
000003d0: 5ca4 563a 317b 48be 41c2 793e df09 a63e
000003e0: 5cc1 893e aabf 44bc b60e 2c3e e04f 8fbc
000003f0: 4053 d93d 4b90 d33e 2eec 8ebc 31d1 af3e

representation.radial_transform.weights.1 f4 [6, 12, 4]
-1.9359727 -0.08523941 2.6208332 0.86906755 -2.900033 0.1884569 -0.35528055 -0.59533966
0.81282514 2.1215124 1.0093359 -1.0130258 6.3641477 1.917841 1.3201395 1.805676
-1.7179996 0.031821176 -3.1076498 1.1158429 0.6900618 -2.0595882 0.82704437 -0.92854595
4.385086 -1.7595003 -1.8355787 1.7259014 1.7657995 1.6719887 0.77267295 0.9874945
-4.918691 0.25780153 0.29609236 -0.15004867 4.2192783 1.0462193 -0.11786858 -0.029614063
3.1999652 2.3657448 -0.5459198 -1.4230145 3.7319214 -1.3697984 1.1382906 1.2057297
-7.1450086e-05 0.6310679 1.2516316 0.91102207 0.14776537 -0.11594383 0.5837456 1.5227754
2.186699 1.0235088 1.3636906 -0.12458354 1.7525142 1.5023674 -1.3909311 2.9941905
-0.023528984 1.7711291 -1.4816684 1.439274 0.15714751 -1.1830882 -0.29362202 0.13820179
1.8288647 -0.8888196 0.08706179 1.7612362 3.6873965 1.244511 1.2742276 1.7271847
-0.24754478 1.439096 0.14600828 1.1338843 1.2880299 0.8605342 -0.09412526 -0.13419567
-0.42358816 0.49134398 0.3917095 -0.26168075 2.7246256 0.8169045 1.7589093 2.1618204
1.6959345 0.7699623 0.26035175 0.73005015 1.7048236 0.46403536 0.64921296 0.64157194
-1.0486062 -1.0334336 -0.5664121 1.8155925 0.3304221 0.1584674 -0.10137094 0.19757551
1.5726113 -0.43622008 0.5944169 1.4728254 0.30991313 0.075105846 1.0851297 1.2540818
-0.39440483 0.70417076 0.7950244 -0.25014263 0.6344398 0.8347789 -0.061800055 0.1258467
1.868507 1.5327101 1.5892953 1.6760215 -0.44530857 -0.109012626 0.96238184 0.45285124
0.39488205 -0.5069025 0.8145139 -0.19540438 0.40158254 0.75353384 -0.6385369 1.0386529
1.1854752 0.9914172 -0.5492849 0.38131922 0.07881107 0.44121465 1.0194867 -0.58565426
-0.9277986 -0.37160873 -0.70058143 0.55239433 -0.32616183 0.06680155 0.16228881 -0.6573196
0.6174102 -0.43325213 1.0005978 1.9711299 2.243697 0.9480654 -0.8294909 1.0992093
0.5524676 1.1486342 0.6502507 0.4381575 -0.304351 0.20526803 -0.5363353 -1.3390627
1.5584902 1.1848098 2.3625371 0.6196141 0.24912563 -0.39585456 1.930041 1.7545265
1.6037784 0.3437687 2.9618428 0.37141684 -0.13809758 -0.3219408 -0.07512713 -0.92862153
-0.07887572 1.302305 0.15243213 1.97154 -0.07837328 0.891833 0.93084455 -0.21411707
0.03461197 0.63396996 0.7302209 -0.016565239 -0.61963946 0.6540019 0.31728676 0.18922687
-0.060565248 0.05653927 0.28900462 1.0421236 2.560978 1.3131844 0.5531906 1.4717411
1.3058654 0.5234364 0.48362842 1.0562943 -0.48801762 0.3535126 0.5827054 1.119613
0.30213428 0.23452231 2.321891 -0.52684826 0.4660268 0.15544342 1.1383078 1.4914705
1.383934 -0.1755571 2.2425473 0.283279 0.5223117 -0.15539284 -0.27202228 -0.43599942
0.15233906 0.8235038 0.48226756 1.3336492 0.06590183 -0.06071763 0.728185 -0.04077263
0.25079522 0.43218777 -0.029658329 0.06644832 -0.6704645 0.26247585 0.35308942 -0.03465105
00000000: f4cd f7bf 0092 aebd bbbb 2740 367b 5e3f
00000010: 249a 39c0 d8fa 403e 55e7 b5be 2e68 18bf
00000020: 4f15 503f dcc6 0740 eb31 813f d4aa 81bf
00000030: 19a7 cb40 d07b f53f 55fa a83f 6420 e73f
00000040: 69e7 dbbf ec56 023d bce3 46c0 f1d3 8e3f
00000050: e4a7 303f 4bd0 03c0 2eb9 533f 30b5 6dbf
00000060: a052 8c40 4e37 e1bf 3ef4 eabf 56ea dc3f
00000070: b805 e23f ba03 d63f e5cd 453f 71cc 7c3f
00000080: eb65 9dc0 90fe 833e 6b99 973e 5ca6 19be
00000090: 5404 8740 84ea 853f 1565 f1bd 3199 f2bc
000000a0: 3bcc 4c40 5d68 1740 66c1 0bbf 5725 b6bf
000000b0: cdd7 6e40 8e55 afbf 82b3 913f 5a55 9a3f
000000c0: 79d7 95b8 aa8d 213f 7735 a03f be38 693f
000000d0: ce4f 173e f573 edbd 5a70 153f 4eea c23f
000000e0: e0f2 0b40 5602 833f 6a8d ae3f a825 ffbd
000000f0: 6352 e03f 934d c03f 080a b2bf d1a0 3f40
00000100: dbbf c0bc 5cb4 e23f 4fa7 bdbf 213a b83f
00000110: 47eb 203e 6f6f 97bf a055 96be c584 0d3e
00000120: 3d18 ea3f ae89 63bf 744d b23d 3070 e13f
00000130: 4efe 6b40 234c 9f3f e419 a33f 6314 dd3f
00000140: 617c 7dbe 4c34 b83f 3283 153e 1f23 913f
00000150: 2ade a43f f84b 5c3f bfc4 c0bd 976a 09be
00000160: 8ce0 d8be 7091 fb3e 268e c83e 05fb 85be
00000170: 4460 2e40 a720 513f f123 e13f 445b 0a40
00000180: 6214 d93f 401c 453f d34c 853e 91e4 3a3f
00000190: a937 da3f 0b96 ed3e d232 263f 0f3e 243f
000001a0: ba38 86bf 8d47 84bf 6200 11bf 5665 e83f
000001b0: 162d a93e 4745 223e 919b cfbd 3c51 4a3e
000001c0: 544b c93f 3d58 dfbe b52b 183f 8b85 bc3f
000001d0: efac 9e3e 18d1 993d 88e5 8a3f c185 a03f
000001e0: 6eef c9be 8944 343f b886 4b3f b212 80be
000001f0: a66a 223f 12b4 553f 0e22 7dbd f5dd 003e
00000200: 3d2b ef3f d82f c43f 076e cb3f df87 d63f
00000210: 7cff e3be 0342 dfbd a85e 763f 1edc e73e
00000220: fb2d ca3e 5dc4 01bf fc83 503f 1618 48be
00000230: 3a9c cd3e 98e7 403f 2777 23bf 94f2 843f
00000240: a7bd 973f 85cd 7d3f ef9d 0cbf 463c c33e
00000250: b367 a13d e3e6 e13e 8a7e 823f 70ed 15bf
00000260: 3684 6dbf 8043 bebe 4e59 33bf b769 0d3f
00000270: affe a6be 40cf 883d 0a2f 263e 1946 28bf
00000280: 980e 1e3f 39d3 ddbe 9713 803f fc4d fc3f
00000290: bb98 0f40 6ab4 723f 8459 54bf e4b2 8c3f
000002a0: 846e 0d3f 7206 933f d476 263f 2e56 e03e
000002b0: e5d3 9bbe c831 523e 454d 09bf 6866 abbf
000002c0: 9b7c c73f d9a7 973f cf33 1740 089f 1e3f
000002d0: ca1a 7f3e 73ad cabe 950b f73f 5394 e03f
000002e0: 9c48 cd3f 7302 b03e d58e 3d40 592a be3e
000002f0: 7469 0dbe 6dd5 a4be 41dc 99bd 24ba 6dbf
00000300: 9889 a1bd eeb1 a63f 2b17 1c3e 6c5b fc3f
00000310: 2c82 a0bd 2b4f 643f d44b 6e3f 8141 5bbe
00000320: 48c5 0d3d db4b 223f c2ef 3a3f d3b3 87bc
00000330: b1a0 1ebf ab6c 273f 6973 a23e b0c4 413e
00000340: 4413 78bd b995 673d 6af8 933e 4e64 853f
00000350: 10e7 2340 6d16 a83f e69d 0d3f 0362 bc3f
00000360: 9926 a73f eeff 053f 259e f73e a734 873f
00000370: 72dd f9be 9aff b43e 2e2c 153f 7b4f 8f3f
00000380: 58b1 9a3e 9e26 703e dd99 1440 87df 06bf
00000390: 119b ee3e 8f2c 1f3e 12b4 913f 81e8 be3f
000003a0: c024 b13f 3ec5 33be e585 0f40 f209 913e
000003b0: 38b6 053f 4d1f 1fbe 8146 8bbe 513b dfbe
000003c0: c5fe 1b3e 25d1 523f c6eb f63e 04b5 aa3f
000003d0: 8af7 863d 0db3 78bd 556a 3a3f 3401 27bd
000003e0: 3b68 803e b747 dd3e 06f6 f2bc 0f16 883d
000003f0: 90a3 2bbf 3c63 863e 23c8 b43e 42ee 0dbd

representation.radial_transform.weights.2 f4 [6, 12, 4]
3.0809317 -0.4641441 -0.6340985 0.7939903 -0.77591443 -0.98786855 0.32038587 1.0640337
1.6693945 -2.113309 0.71989375 -0.80718684 3.17113 2.2121365 -0.5423827 -0.05625413
3.9351459 2.6179862 0.45974523 0.9456236 2.5514753 1.7681808 0.5252131 1.604665
-0.66774875 -1.3985225 0.17953828 1.4061934 -2.9561834 -1.5706937 1.6751165 0.43948635
2.213083 -0.294364 0.016056495 -0.33236074 1.7642068 -0.08228028 1.088684 1.0495887
2.9748127 1.6112014 1.5087723 0.59603524 -2.2318819 2.2252338 -0.16547205 -0.07819034
1.2127421 0.42691135 0.8970834 2.9725628 0.61271685 -0.4308047 1.3600634 0.6400935
2.422945 0.5059522 0.97351307 -1.7646186 -0.87063044 0.6030583 1.3742012 1.8073325
0.4518944 0.6863934 0.101309866 0.5045104 1.2898085 2.157354 -0.06528587 2.6465306
0.15778908 0.5863877 1.7777367 1.4152062 0.8981015 1.2955669 -0.13626753 0.91849583
1.9560039 0.46656698 0.4516075 1.5050201 -2.0767307 0.5779745 0.5498226 -0.41223693
1.3828621 1.9474056 -0.3422725 0.67635417 -0.17264892 1.7906628 -1.0159178 0.49336764
0.9484222 -0.46472868 1.146587 1.9769976 -0.8057042 1.1234709 -1.7201692 -0.71046084
-0.9488767 0.6453435 -0.3109429 -0.07757032 0.8819319 -0.50486606 1.4129057 0.6651331
-0.34504563 -1.4287256 1.2300837 -0.87320125 0.29920015 1.1851455 0.9580927 0.06855445
1.079414 0.64214534 0.8474779 -0.50302577 1.8730925 -0.5534461 -1.0670825 0.93223834
-0.022967655 0.22605543 1.2545637 2.8215432 1.2582963 1.2374322 -0.43156192 -0.28855103
-1.0255923 0.82172996 0.24978724 -0.94651794 1.1151861 0.59456885 0.8370779 1.7240299
0.019638807 -0.60518754 -0.68817973 0.22871496 -1.5432861 0.009407543 0.64941984 0.2682826
-0.8929722 -0.1725966 -0.8540077 2.557191 -0.5081688 0.46532884 1.652765 -0.16821162
0.50820774 -1.1227536 1.4228455 0.1706418 -0.30084476 0.76755565 1.5941323 -0.36269322
1.5670191 0.5530411 -0.09716373 -1.4783517 -0.32512143 0.08045123 0.20509398 -0.64880186
0.21873623 -0.3656006 2.0072443 0.3988757 -0.7393573 1.7204174 0.7055212 0.4047029
0.16532934 0.29871732 -0.087508425 -0.15072258 0.1492895 -0.17358465 0.2362002 2.363152
-0.068251036 0.5950919 0.18237004 -0.08994536 0.6263864 -0.7952475 0.18926583 -0.19576022
0.8079846 0.098290205 1.4046166 1.0592144 0.058120307 1.533605 1.6021373 -0.6735277
2.196318 -0.093292005 0.47274756 0.78003955 0.50804126 0.09878121 1.2321124 0.8127099
1.4019891 1.1134733 -0.8590623 1.6014582 -0.28288615 -0.27624378 1.1375314 -0.3028355
-0.28138724 -0.41589606 1.6381112 -0.8903195 -0.552579 1.8103712 -0.095301434 -0.18460234
0.45353264 0.01513049 0.6139503 -0.25759238 0.235517 -0.3721301 0.58316046 1.41072
0.62376505 0.27332446 0.006216943 0.09885483 0.79076284 -0.1858172 0.017227681 -0.13437136
0.35929012 -0.17745018 0.13318396 0.03526845 -0.51868457 1.1019005 1.2255784 -0.33578932
00000000: fc2d 4540 4ca4 edbe 4754 22bf f342 4b3f
00000010: 54a2 46bf f4e4 7cbf 9e09 a43e 4232 883f
00000020: b8ae d53f 7440 07c0 f54a 383f cca3 4ebf
00000030: cbf3 4a40 a593 0d40 98d9 0abf bb6a 66bd
00000040: 6ed9 7b40 168d 2740 ba63 eb3e 6314 723f
00000050: 5f4b 2340 c053 e23f 5e74 063f aa65 cd3f
00000060: 95f1 2abf c902 b3bf e2d8 373e 25fe b33f
00000070: 1c32 3dc0 7e0c c9bf 386a d63f 5b04 e13e
00000080: 27a3 0d40 e1b6 96be e988 833c 302b aabe
00000090: 87d1 e13f 9082 a8bd ff59 8b3f ec58 863f
000000a0: 5563 3e40 d93b ce3f 731f c13f c495 183f
000000b0: 27d7 0ec0 3b6a 0e40 8171 29be 4222 a0bd
000000c0: 223b 9b3f 2094 da3e 42a7 653f 783e 3e40
000000d0: 03db 1c3f 6f92 dcbe 8f16 ae3f 2bdd 233f
000000e0: 8811 1b40 1586 013f 2738 793f 06df e1bf
000000f0: a3e1 5ebf 0762 1a3f d3e5 af3f ac56 e73f
00000100: b45e e73e 7ab7 2f3f 8c7b cf3d 9827 013f
00000110: 7218 a53f 1712 0a40 99b4 85bd c260 2940
00000120: 7693 213e 811d 163f e08c e33f 7a25 b53f
00000130: fbe9 653f 23d5 a53f b789 0bbe 8b22 6b3f
00000140: 565e fa3f dee1 ee3e 1939 e73e 80a4 c03f
00000150: 28e9 04c0 23f6 133f 2dc1 0c3f b810 d3be
00000160: a001 b13f 9644 f93f 573e afbe 8c25 2d3f
00000170: e1ca 30be 7034 e53f 9809 82bf af9a fc3e
00000180: cccb 723f ebf0 edbe 5dc3 923f 420e fd3f
00000190: a142 4ebf e5cd 8f3f 812e dcbf c3e0 35bf
000001a0: 95e9 72bf 3b35 253f e833 9fbe 30dd 9ebd
000001b0: 4ac6 613f e73e 01bf 18da b43f 2a46 2a3f
000001c0: d2a9 b0be 7be0 b6bf 6273 9d3f 1e8a 5fbf
000001d0: c330 993e d9b2 973f 9045 753f 4766 8c3d
000001e0: 3d2a 8a3f a363 243f 50f4 583f 4cc6 00bf
000001f0: 7fc1 ef3f a5ae 0dbf 2996 88bf 2ca7 6e3f
00000200: aa26 bcbc 137b 673e 8b95 a03f 2a94 3440
00000210: da0f a13f 2e64 9e3f aff5 dcbe f6bc 93be
00000220: 9c46 83bf e55c 523f 3ac8 7f3e 004f 72bf
00000230: 6bbe 8e3f aa35 183f bd4a 563f 03ad dc3f
00000240: 90e1 a03c 92ed 1abf 8c2c 30bf 4134 6a3e
00000250: 668a c5bf 1822 1a3c 6140 263f 565c 893e
00000260: d399 64bf 2abd 30be 40a0 5abf 04a9 2340
00000270: 5a17 02bf 953f ee3e ce8d d33f ab3f 2cbe
00000280: e719 023f 64b6 8fbf cd1f b63f b9bc 2e3e
00000290: 5308 9abe 877e 443f 870c cc3f edb2 b9be
000002a0: 1594 c83f 1a94 0d3f c7fd c6bd a13a bdbf
000002b0: 5176 a6be 9dc3 a43d 2804 523e e117 26bf
000002c0: 64fc 5f3e 0030 bbbe b176 0040 7039 cc3e
000002d0: 8546 3dbf a336 dc3f 0a9d 343f 3835 cf3e
000002e0: 184c 293e 7af1 983e 9e37 b3bd 0557 1abe
000002f0: 59df 183e 2dc0 31be 77de 713e e23d 1740
00000300: 33c7 8bbd f157 183f 36bf 3a3e 4635 b8bd
00000310: dc5a 203f 5795 4bbf e7ce 413e 5e75 48be
00000320: 14d8 4e3f 604c c93d 7aca b33f 5694 873f
00000330: 8f0f 6e3d 2b4d c43f d612 cd3f 506c 2cbf
00000340: 7990 0c40 e10f bfbd f80b f23e acb0 473f
00000350: fe0e 023f ce4d ca3d dcb5 9d3f c20d 503f
00000360: 6174 b33f 4b86 8e3f 82eb 5bbf 95fc cc3f
00000370: 74d6 90be d36f 8dbe a19a 913f 410d 9bbe
00000380: fd11 90be 54f0 d4be a1ad d13f fbeb 63bf
00000390: d175 0dbf 3eba e73f 662d c3bd 6508 3dbe
000003a0: 6e35 e83e e0e5 773c d92b 1d3f 26e3 83be
000003b0: 5e2b 713e d687 bebe 014a 153f 7992 b43f
000003c0: 11af 1f3f 2ff1 8b3e 7fb7 cb3b 6774 ca3d
000003d0: 6f6f 4a3f dd46 3ebe 1121 8d3c a598 09be
000003e0: e0f4 b73e 80b5 35be 6061 083e a675 103d
000003f0: 83c8 04bf 130b 8d3f c1df 9c3f 94ec abbe

output_modules.0.les.atomwise.outnet.0.linear.weight f4 [32, 144]
-0.70107955 0.76835793 -0.11604464 -0.009999454 -0.3079841 1.1758269 1.2479194 -0.69675046
-1.4113243 -0.7731977 -0.3714739 0.38780957 0.8934821 -0.58219737 1.050284 -1.4627783
-0.7400781 1.4022444 0.108837195 0.3992583 0.60700184 0.96592057 -0.87897307 0.049347393
-0.4406308 0.65445083 1.0409372 -0.39750272 -0.7149867 0.13715237 -0.91926306 -0.78281045
-4.748465 1.0247828 -0.7315686 0.14342368 -0.29950926 0.6178376 -0.07142591 -0.41655853
-0.6041238 -1.6436628 0.4178231 0.30405456 0.583395 0.20274214 0.17589103 1.0950767
0.69943726 0.25545335 0.648341 -0.05887649 -0.22583462 -1.8239402 0.47142413 0.12532263
0.8669537 -1.419721 0.16452128 0.08506909 -0.95510685 0.37473252 0.055384587 -0.4645065
0.4731506 -0.7232898 1.1792669 0.53935057 -2.5384567 -1.2900866 -0.13906226 0.44571203
-0.3937682 -0.76853794 -0.2907551 0.58461124 0.11630861 0.4058923 -0.22468536 0.021759294
-0.33264264 0.0061083236 0.013840268 -0.1303554 0.15692486 0.43346167 -0.30406153 -0.96607786
-0.04750826 -1.3519733 -1.9079344 -0.6378524 0.09055306 0.41088736 1.5207893 -0.5742155
-0.30389535 0.56018436 -0.2540928 0.5360311 0.08260631 -0.558123 0.50184387 -0.5012802
-1.55899 0.44357792 -0.007922075 0.5525441 -0.29795983 -0.076483876 -0.64044344 -0.25362322
-0.33873975 -0.6420879 0.17491989 0.7834175 -0.7360775 0.835384 1.3169597 -0.2176725
1.5980202 0.87480366 -0.9378707 -0.21629602 0.72575235 0.5273819 0.27836555 -0.10622539
-1.9040717 -1.1045367 0.36948365 -0.20746744 1.1502355 -0.41908455 0.35450456 -2.320542
-0.39521912 -0.7708695 0.45039183 0.09011289 0.97415984 -1.0476213 -0.42480937 -0.21196602
0.84004533 -1.0054957 1.3684357 0.22447896 -0.4727382 0.94370556 0.057313032 0.9616876
-0.28248927 -1.1459132 -1.8883862 0.06177124 -2.4215672 -0.92272973 1.6403975 -0.5102418
-1.2279893 0.6701391 0.24938363 -0.11682872 0.78430927 0.78237784 -0.92623544 0.5552394
1.0648032 0.37694675 -2.6957798 -0.1673098 0.97461414 -0.5587986 -3.6089227 0.49898458
0.7782496 -3.3389277 -1.069525 -0.5985462 -1.8036928 0.45802322 -0.4677984 -1.4440535
-1.0551072 -2.2725027 -1.0250896 0.3379689 0.10923832 -0.38683218 -1.0955038 0.012392307
0.96291614 0.85694385 -2.5995164 -1.3393911 -0.59950215 -3.3083868 -0.5685723 0.48329315
-0.30612233 0.25160512 -0.14173649 -0.97906065 2.6417778 -0.5497254 -0.027915405 -0.020226456
-0.5078238 -0.5983471 -1.5377499 0.40315196 -0.98440605 -1.2811394 0.18221089 0.34189212
0.8709137 -0.19002247 -0.53290427 -0.51076585 -1.2172203 -0.5900716 -1.1268137 1.7920446
0.62558496 0.3896753 -0.8978706 -2.114718 -0.53668886 -0.76533514 -0.51675934 2.251051
-1.0071765 0.8332539 -0.28471303 2.9278374 -1.2721789 -1.892042 -3.284702 -0.12389401
0.7370604 0.1597291 2.6794963 -1.7536703 -0.022499105 0.07157886 -0.3245263 -0.8258667
-0.85584366 3.8896608 0.51681644 -0.9920408 -2.1567094 -0.41968897 2.2930017 -0.69256335
00000000: f379 33bf 1bb3 443f d0a8 edbd c0d4 23bc
00000010: 18b0 9dbe 7f81 963f d3bb 9f3f 3d5e 32bf
00000020: 46a6 b4bf 49f0 45bf d431 bebe fa8e c63e
00000030: 3ebb 643f e30a 15bf b56f 863f 523c bbbf
00000040: c275 3dbf bf7c b33f 09e6 de3d 956b cc3e
00000050: 7964 1b3f 9246 773f 6104 61bf 7e20 4a3d
00000060: 5c9a e1be 178a 273f 6e3d 853f 7a85 cbbe
00000070: 5e09 37bf ac71 0c3e d354 6bbf 4466 48bf
00000080: 6df3 97c0 152c 833f 1448 3bbf a8dd 123e
00000090: 4759 99be 9b2a 1e3f bf47 92bd 2947 d5be
000000a0: dba7 1abf 8b63 d2bf e9ec d53e 0aad 9b3e
000000b0: 6059 153f a39b 4f3e c71c 343e 792b 8c3f
000000c0: 520e 333f c8ca 823e adf9 253f 7928 71bd
000000d0: 3141 67be df76 e9bf 815e f13e 9354 003e
000000e0: adf0 5d3f 6bb9 b5bf 4478 283e b438 ae3d
000000f0: e281 74bf f1dc bf3e f3da 623d ccd3 edbe
00000100: cc40 f23e 8529 39bf 38f2 963f e112 0a3f
00000110: 1376 22c0 8f21 a5bf 5666 0ebe 5e34 e43e
00000120: fc9b c9be e7be 44bf dadd 94be 15a9 153f
00000130: 3533 ee3d 1ed1 cf3e eb13 66be 8c40 b23c
00000140: 2350 aabe 5528 c83b 4bc2 623c e37b 05be
00000150: e9b0 203e b0ee dd3e f4ad 9bbe e150 77bf
00000160: 0598 42bd 760d adbf 3237 f4bf 4b4a 23bf
00000170: e273 b93d d45f d23e 39a9 c23f c9ff 12bf
00000180: 2c98 9bbe 3e68 0f3f 7418 82be 5639 093f
00000190: 7f2d a93d 26e1 0ebf d778 003f e653 00bf
000001a0: fc8c c7bf a51c e33e 97cb 01bc 8873 0d3f
000001b0: 318e 98be 94a3 9cbd 1af4 23bf e7da 81be
000001c0: 4c6f adbe df5f 24bf 331e 333e 0d8e 483f
000001d0: 936f 3cbf badb 553f 2392 a83f 8ae5 5ebe
000001e0: ed8b cc3f 22f3 5f3f 4b18 70bf b47c 5dbe
000001f0: e8ca 393f 8002 073f ee85 8e3e b38c d9bd
00000200: 9fb8 f3bf 7561 8dbf f62c bd3e 5872 54be
00000210: eb3a 933f 4092 d6be 9f81 b53e c383 14c0
00000220: 295a cabe b457 45bf c299 e63e 1b8d b83d
00000230: 8a62 793f 7418 86bf 9d80 d9be 9f0d 59be
00000240: 360d 573f 15b4 80bf e728 af3f d0dd 653e
00000250: be0a f2be b096 713f 12c1 6a3d 2931 763f
00000260: 6fa2 90be 49ad 92bf a4b6 f1bf d703 7d3d
00000270: f5fa 1ac0 0438 6cbf 8cf8 d13f 359f 02bf
00000280: c12e 9dbf 3c8e 2b3f 6c5e 7f3e e543 efbd
00000290: 7ec8 483f ea49 483f c41d 6dbf 2b24 0e3f
000002a0: 794b 883f 2aff c03e a887 2cc0 4353 2bbe
000002b0: 5080 793f 6d0d 0fbf 97f8 66c0 e87a ff3e
000002c0: 5e3b 473f feb0 55c0 32e6 88bf 533a 19bf
000002d0: 68df e6bf 0582 ea3e 4683 efbe bfd6 b8bf
000002e0: c10d 87bf af70 11c0 2336 83bf 420a ad3e
000002f0: 57b8 df3d de0e c6be 7839 8cbf 1a09 4b3c
00000300: ac81 763f ac60 5b3f 7a5e 26c0 2b71 abbf
00000310: f978 19bf 9cbc 53c0 f48d 11bf 3372 f73e
00000320: 11bc 9cbe 63d2 803e 5f23 11be b8a3 7abf
00000330: e312 2940 ceba 0cbf d9ae e4bc f4b1 a5bc
00000340: be00 02bf 472d 19bf fdd4 c4bf ef69 ce3e
00000350: 0902 7cbf 60fc a3bf 7e95 3a3e 7c0c af3e
00000360: 33f4 5e3f 4095 42be 6a6c 08bf 8dc1 02bf
00000370: e0cd 9bbf ef0e 17bf 6e3b 90bf b861 e53f
00000380: 5626 203f 8583 c73e d9da 65bf 8a57 07c0
00000390: 7164 09bf 01ed 43bf 574a 04bf 3811 1040
000003a0: 29eb 80bf 2150 553f e8c5 91be b061 3b40
000003b0: c2d6 a2bf 6f2e f2bf 8f38 52c0 25bc fdbd
000003c0: feaf 3c3f 0690 233e de7c 2b40 4578 e0bf
000003d0: 0b50 b8bc f097 923d 5028 a6be 006c 53bf
000003e0: 9218 5bbf 34f0 7840 154e 043f 63f6 7dbf
000003f0: 8707 0ac0 79e1 d6be 8ac0 1240 d54b 31bf

output_modules.0.les.atomwise.outnet.0.linear.bias f4 [32]
0.0413632 -0.49976096 -0.37003535 -0.6538601 -0.20374855 0.3156535 -0.696691 -0.8781243
-0.15144566 -0.049554564 -0.13587663 0.26106402 -0.47054031 -0.48959622 -0.5710601 -0.945128
-0.3672253 -0.39154765 -0.42454118 -0.6856879 -0.30065456 -0.42540112 0.37914363 -0.5458046
-0.86565447 0.17081136 0.30719244 -0.23440547 0.01741017 -0.006491675 -0.1195317 -0.04871725
00000000: 756c 293d abe0 ffbe 4675 bdbe 6063 27bf
00000010: 76a3 50be 569d a13e 575a 32bf c1cc 60bf
00000020: 9214 1bbe baf9 4abd 3e23 0bbe 2faa 853e
00000030: a9ea f0be 5bac fabe ff30 12bf e9f3 71bf
00000040: f404 bcbe ef78 c8be 765d d9be 3e89 2fbf
00000050: 65ef 99be 2dce d9be 1d1f c23e dab9 0bbf
00000060: 889b 5dbf 2ce9 2e3e 5448 9d3e fd07 70be
00000070: c69f 8e3c 1eb8 d4bb 09cd f4bd bd8b 47bd

output_modules.0.les.atomwise.outnet.1.linear.weight f4 [16, 32]
0.59336096 0.50929517 1.6118842 1.808736 3.469435 0.10009603 -0.66330755 0.46802634
0.732571 1.6691062 0.47887006 0.563718 0.7903797 1.2724446 -1.1458839 0.24999356
1.5030439 0.44799805 1.2677042 -0.10025806 1.7859461 1.2425331 0.25662866 -0.48043826
-2.1082926 -0.7088605 0.34481052 -0.53532314 1.9505094 0.82098126 0.7491382 2.9311054
0.54569197 0.83961385 1.8862494 1.9261769 3.3724163 -0.09552045 -0.6608896 0.6793186
0.943207 1.6718551 0.8697655 0.81365895 0.9856007 1.1758811 -1.0640107 0.23317838
1.5805569 0.5918703 1.187305 0.15258615 1.8754467 1.3084738 0.24057701 -0.5204482
-2.000271 -0.75290793 0.71684706 -0.34486386 2.072113 0.6639138 1.0649642 2.8071759
1.9436398 2.643651 2.0553098 2.46219 0.6919745 -1.8119221 -0.966909 0.5360608
1.2203019 -0.15709819 1.291401 1.6610494 0.80464846 1.0477374 0.8362223 -0.08176791
0.7230787 0.7769673 0.072654925 1.8301901 2.4150712 1.4002196 -0.313546 0.36131355
-2.0959468 -0.26647824 3.6921425 1.108352 2.7255635 -0.40566742 1.4945964 1.8903488
0.641275 0.7991879 0.038926575 -0.0032101115 -1.2544714 0.38689655 -0.5272694 -0.07617552
0.002007692 -1.1859177 -0.20278136 -0.3590517 -0.17142978 -0.12152894 1.071815 -1.0180801
0.23913282 0.23499896 -0.3632395 1.4298894 0.05648424 0.00440237 -1.1269931 0.57833683
-0.6836225 0.7677138 1.9406632 0.21378426 0.32229578 -0.43931878 1.1215738 -0.36873055
-1.2965945 2.0791128 0.0064074653 1.0374087 -1.0361398 1.0648402 0.34514078 0.07555164
0.50488365 1.096961 1.3680018 1.3635788 0.50040597 -0.3426068 -0.43546787 -0.76976275
0.34197482 0.97154814 0.94013304 1.240565 0.84522593 0.48138383 -0.6301122 -1.2048007
-0.8776336 0.3310546 -0.13266079 2.8234873 0.5515539 0.07510237 -0.18489747 -0.28564626
-0.37836918 -0.4820952 0.0022658906 -2.0946898 1.1501807 -0.10444593 -0.06002036 0.60338026
0.834807 -1.451061 0.72715294 1.1573627 -0.12473611 -0.3654962 0.012569686 0.18547241
-0.02928175 -0.6813927 -0.35225657 -1.2040086 -0.93009233 0.12730819 0.24304517 -0.07735228
-0.6913125 1.067799 1.2008554 -0.8543795 -0.752172 -0.5455684 1.0483531 0.050844472
0.89963865 0.7290459 1.7334263 2.3585851 4.054402 0.47998786 -1.0097635 0.5308128
0.9951563 2.3681037 0.9415194 0.8870462 1.0764967 1.3307935 -0.740698 0.09488694
1.2205068 0.79023415 1.3659236 0.15643358 2.336914 1.5424398 0.35042092 -0.51229686
-2.6786656 -0.46358243 0.5837753 -0.14802513 2.285615 0.16398774 0.55145705 3.093548
0.09097521 0.04171519 -0.41097462 -1.4786975 0.24146643 -0.92590034 -0.28293324 0.23631898
1.3569779 -0.29726517 0.73405194 1.4193234 0.16649392 -0.006832655 0.5764891 -0.16184326
0.4136211 0.06431276 0.16553879 -0.4002398 -0.4783909 0.6864866 0.7903621 -0.6057021
-1.0086939 -0.55298674 0.5363213 -0.7012386 -1.461788 -0.7769125 0.3444658 -0.14840628
00000000: 81e6 173f 2b61 023f 3952 ce3f a984 e73f
00000010: 390b 5e40 26ff cc3d 86ce 29bf 26a1 ef3e
00000020: c689 3b3f 46a5 d53f 752e f53e d34f 103f
00000030: 5356 4a3f 77df a23f 53ac 92bf 50fe 7f3e
00000040: be63 c03f 0060 e53e 2244 a23f 1954 cdbd
00000050: e299 e43f 530b 9f3f d564 833e 01fc f5be
00000060: 44ee 06c0 e277 35bf 018b b03e f00a 09bf
00000070: 4baa f93f d42b 523f 85c7 3f3f 3b97 3b40
00000080: 78b2 0b3f eff0 563f 9f70 f13f f78c f63f
00000090: abd5 5740 3aa0 c3bd 1030 29bf d3e7 2d3f
000000a0: 0476 713f 59ff d53f f4a8 5e3f f44b 503f
000000b0: 5450 7c3f 4683 963f 8131 88bf 50c6 6e3e
000000c0: b04f ca3f d084 173f 9cf9 973f 8b3f 1c3e
000000d0: a30e f03f 127c a73f d259 763e 183c 05bf
000000e0: 7104 00c0 93be 40bf 4a83 373f ff91 b0be
000000f0: 809d 0440 41f6 293f bf50 883f c5a8 3340
00000100: 30c9 f83f 9431 2940 328a 0340 8594 1d40
00000110: 3e25 313f 10ed e7bf 5987 77bf 483b 093f
00000120: da32 9c3f 59de 20be a14c a53f 449d d43f
00000130: 71fd 4d3f 421c 863f aa12 563f ef75 a7bd
00000140: b01b 393f 54e7 463f 1bcc 943d ab43 ea3f
00000150: 8790 1a40 653a b33f 1a89 a0be 17fe b83e
00000160: fe23 06c0 d66f 88be 104c 6c40 7ade 8d3f
00000170: a26f 2e40 a4b3 cfbe ef4e bf3f f3f6 f13f
00000180: 992a 243f 9497 4c3f 7971 1f3d bc60 52bb
00000190: 8592 a0bf 4e17 c63e 21fb 06bf e901 9cbd
000001a0: 7b93 033b 27cc 97bf eba5 4fbe a0d5 b7be
000001b0: 4a8b 2fbe 2ae4 f8bd 3c31 893f 7350 82bf
000001c0: 3cdf 743e 91a3 703e 87fa b9be 9e06 b73f
000001d0: 055c 673d c241 903b 4f41 90bf e20d 143f
000001e0: e201 2fbf e488 443f a767 f83f 43ea 5a3e
000001f0: f403 a53e 64ee e0be bb8f 8f3f 40ca bcbe
00000200: cff6 a5bf 2f10 0540 b7f5 d13b cfc9 843f
00000210: 3ba0 84bf af4c 883f 4bb6 b03e d1ba 9a3d
00000220: 0e40 013f 3869 8c3f af1a af3f c089 ae3f
00000230: 9b1a 003f 296a afbe a5f5 debe 2c0f 45bf
00000240: 5317 af3e 61b7 783f 8fac 703f d5ca 9e3f
00000250: ba60 583f f177 f63e 084f 21bf e936 9abf
00000260: 98ac 60bf fd7f a93e 3bd8 07be 04b4 3440
00000270: a332 0d3f 45cf 993d c355 3dbe 3a40 92be
00000280: 9bb9 c1be 2fd5 f6be 567f 143b 660f 06c0
00000290: 1f39 933f bfe7 d5bd e9d7 75bd 2177 1a3f
000002a0: e9b5 553f 5ebc b9bf b226 3a3f 7624 943f
000002b0: a575 ffbd 5122 bbbe 16f1 4d3c 7bec 3d3e
000002c0: 48e0 efbc c16f 2ebf f95a b4be f41c 9abf
000002d0: 881a 6ebf 145d 023e d5e0 783e df6a 9ebd
000002e0: dbf9 30bf a3ad 883f a1b5 993f 9db8 5abf
000002f0: 588e 40bf 5faa 0bbf 6f30 863f 4b42 503d
00000300: b84e 663f c1a2 3a3f eae0 dd3f 0ff3 1640
00000310: a9bd 8140 f8c0 f53e ee3f 81bf 59e3 073f
00000320: 90c2 7e3f 038f 1740 6a07 713f 7615 633f
00000330: a5ca 893f 7157 aa3f 629e 3dbf 1654 c23d
00000340: 9139 9c3f c94c 4a3f 96d6 ae3f 2030 203e
00000350: 0090 1540 ab6e c53f 5f6a b33e e325 03bf
00000360: 426f 2bc0 ad5a edbe 4c72 153f e693 17be
00000370: 8447 1240 67ec 273e 4a2c 0d3f b1fc 4540
00000380: 3651 ba3d 8cdd 2a3d 446b d2be f645 bdbf
00000390: fa42 773e ce07 6dbf a0dc 90be 9afd 713e
000003a0: 74b1 ad3f 2433 98be d4ea 3b3f 64ac b53f
000003b0: 627d 2a3e 77e4 dfbb ca94 133f 3dba 25be
000003c0: 25c6 d33e 69b6 833d 0083 293e 3bec ccbe
000003d0: a7ef f4be 96bd 2f3f 2c55 4a3f 4b0f 1bbf
000003e0: e21c 81bf 8a90 0dbf 5a4c 093f 5f84 33bf
000003f0: df1b bbbf bde3 46bf d25d b03e d1f7 17be

output_modules.0.les.atomwise.outnet.1.linear.bias f4 [16]
-2.4500077 -2.849813 -3.1674216 -0.27597845 -0.68378323 -0.63307685 -2.6061893 -0.6141993
-0.04223925 -0.041320685 -0.5600169 0.041214507 -0.9824193 -0.19567592 0.061879523 -0.05958552
00000000: edcc 1cc0 5663 36c0 09b7 4ac0 0c4d 8dbe
00000010: 6b0c 2fbf 5311 22bf cecb 26c0 2a3c 1dbf
00000020: 1003 2dbd e13f 29bd 445d 0fbf 8bd0 283d
00000030: d57f 7bbf 455f 48be 6275 7d3d f20f 74bd

output_modules.0.les.atomwise.outnet.2.linear.weight f4 [1, 16]
-0.34116086 -0.23698996 -0.70255816 0.18240625 0.70531553 -0.2517171 -0.3671701 -0.1555443
-0.00033295556 -0.00038821786 -0.3471538 0.42682236 0.5378413 0.8774537 -0.66882265 -0.00096094946
00000000: a3ac aebe 7fad 72be dada 33bf b4c8 3a3e
00000010: 8f8f 343f 10e1 80be b8fd bbbe 0147 1fbe
00000020: 8a90 aeb9 b889 cbb9 25be b1be 7688 da3e
00000030: f8af 093f cea0 603f f637 2bbf 3ae8 7bba

output_modules.0.les.atomwise.linear_nn.linear.weight f4 [1, 144]
-0.29812887 0.34738037 -0.14608774 -0.02356134 0.05580085 -1.1561587 1.0836418 -0.60107034
-0.5148239 0.4613617 -0.82939965 0.6899258 -0.3257323 -0.47204673 -0.08339839 -0.19381699
0.24783723 0.65813446 0.7098479 -0.7838747 1.078069 0.05359853 -0.6102077 -0.7115385
0.019920805 -0.3458879 -0.18495627 0.017958816 1.6769962 -0.29268402 -1.0594178 -0.34357184
0.48219773 -0.47701603 -0.9128652 0.53037953 0.039428916 -0.13460946 0.021496098 0.235035
-0.045402672 -0.7925826 1.462948 1.2271394 0.63826936 -0.87026805 0.54847884 -0.12858793
-0.12917534 -0.33576834 0.22873516 0.36923647 0.09135661 0.79162747 1.1604347 0.31990322
0.35432258 0.7001764 -0.120228834 -0.6735112 0.5213877 0.3102865 -0.006801166 -0.03545178
1.1561261 -0.120651565 -0.27088648 -0.75612485 -0.7714489 -0.012585355 -0.09212244 0.5772742
-0.120924145 -0.501695 0.036210377 0.21049166 0.18469651 0.13828208 -0.62397087 -0.26744083
0.55717885 -0.18086734 -0.317689 -0.03919609 -0.4997331 -0.16822048 0.038257897 -0.22884399
-0.33888146 -0.04896839 -0.3267761 0.23091665 0.2469483 0.37191132 0.5678016 0.088130124
-0.49711356 0.0056357756 -0.3221389 -0.12852174 0.30814207 0.65830654 0.3652126 -0.18902843
-0.62794745 -0.0729393 -0.24299 -0.97928244 -0.025385585 0.25400817 -0.37314382 0.28878435
-0.71961546 0.2270105 -0.9012572 -1.2247775 1.7545307 -0.37095422 0.7794999 -0.40106386
-0.008686939 -0.1737307 -0.16665858 -0.025674118 0.58508587 -0.015390559 0.34962687 -0.39602953
1.2348464 -0.053479884 0.58130294 0.329745 -1.2099403 -0.41581115 -0.026061824 -0.19760555
-0.13201556 -0.27568948 0.45158884 0.949519 -0.045957286 -0.17819703 -0.105632655 -0.3172765
00000000: 59a4 98be d7db b13e 0698 15be b603 c1bc
00000010: 6f8f 643d 02fd 93bf c6b4 8a3f bfdf 19bf
00000020: 80cb 03bf 9a37 ec3e 8953 54bf fa9e 303f
00000030: 62c6 a6be 1cb0 f1be c6cc aabd f677 46be
00000040: 0bc9 7d3e 807b 283f 98b8 353f 03ac 48bf
00000050: 2afe 893f 228a 5b3d 9236 1cbf 6327 36bf
00000060: f530 a33c 3818 b1be 2d65 3dbe 5e1e 933c
00000070: d0a7 d63f aeda 95be 019b 87bf a6e8 afbe
00000080: 9fe2 f63e 723b f4be 89b1 69bf f4c6 073f
00000090: 3780 213d 10d7 09be 9618 b03c 04ad 703e
000000a0: 27f8 39bd b1e6 4abf e141 bb3f e712 9d3f
000000b0: 9f65 233f e3c9 5ebf 1c69 0c3f 8eac 03be
000000c0: 8a46 04be d4e9 abbe 8d39 6a3e 900c bd3e
000000d0: 2d19 bb3d 19a8 4a3f 2089 943f 5bca a33e
000000e0: c569 b53e c33e 333f 893a f6bd 3b6b 2cbf
000000f0: aa79 053f dfdd 9e3e 51dc debb e335 11bd
00000100: f1fb 933f 2b18 f7bd a2b1 8abe 6691 41bf
00000110: ad7d 45bf ce32 4ebc b1aa bcbd 3ec8 133f
00000120: 14a7 f7bd 156f 00bf 5551 143d 208b 573e
00000130: 1521 3d3e d199 0d3e 8ebc 1fbf 01ee 88be
00000140: 46a3 0e3f 4a35 39be 22a8 a2be 148c 20bd
00000150: 04dd ffbe fd41 2cbe 50b4 1c3d 1456 6abe
00000160: df81 adbe 1493 48bd 324f a7be 6a75 6c3e
00000170: 04e0 7c3e 296b be3e 725b 113f 917d b43d
00000180: ab85 febe 50ac b83b 64ef a4be 349b 03be
00000190: ccc4 9d3e c786 283f 25fd ba3e ab90 41be
000001a0: 2ac1 20bf 3361 95bd 5fd2 78be 41b2 7abf
000001b0: 6ef5 cfbc 5c0d 823e b50c bfbe 8bdb 933e
000001c0: b838 38bf 7175 683e cbb8 66bf 82c5 9cbf
000001d0: 7694 e03f b6ed bdbe 4e8d 473f 3e58 cdbe
000001e0: aa53 0ebc 76e6 31be 8ca8 2abe 8752 d2bc
000001f0: 30c8 153f af28 7cbc 4b02 b33e 62c4 cabe
00000200: 720f 9e3f b90d 5bbd 45d0 143f 56d4 a83e
00000210: 53df 9abf 33e5 d4be 9b7f d5bc 1c59 4abe
00000220: 162f 07be 2c27 8dbe a736 e73e ad13 733f
00000230: b53d 3cbd 4879 36be ef55 d8bd 1172 a2be

output_modules.1.outnet.0.linear.weight f4 [32, 144]
1.9941077 -2.506586 0.3602014 0.29092363 -0.2827569 0.111543484 -0.3433273 0.15050755
-0.11353694 0.09308883 0.09446924 -0.493079 -0.63647574 -0.62839854 0.04465831 -2.7413008
-0.31545702 -0.6389146 -1.0739335 0.010768818 0.47320256 -1.8030025 -0.52368635 0.20835659
1.4509236 0.972222 0.39412132 -0.24465846 -1.3491869 -1.2551706 -0.92135763 1.6536748
-0.01572778 -0.39755458 -0.67076343 1.2041756 -0.7023888 0.7686375 -0.07473446 0.21123627
-1.1589 -0.048357196 -0.7927822 -3.7878168 -0.5492222 -1.4682087 -0.47060487 -1.0508463
-0.4303043 0.8340813 -0.25656793 -0.06876943 -0.22479951 -5.3457136 -0.8174902 0.030009745
-0.8588427 -1.2214309 0.4643996 1.5476677 0.2879906 0.44656825 0.048321377 -0.08190898
-0.22460777 -0.7008175 -0.058631733 1.8154242 -0.4156314 -0.18693757 -0.033341207 0.22274685
1.983287 -0.32884595 -0.07515975 0.46207386 -0.29919606 -2.2986283 0.8527643 -1.6238271
0.15886204 -0.6259953 -0.9737538 -1.3763541 -0.08682467 -1.750178 -0.45903394 -2.199715
-1.8605804 -1.6748691 -0.22614324 2.114358 -1.3346452 -1.2464314 0.19965681 0.016781015
1.6203456 0.2596263 0.4321037 1.2029645 -0.3712338 -0.026513277 -0.7406223 0.6990573
-0.32024533 -0.89319164 0.3091867 -0.30290785 -1.8131518 -0.28285384 1.1299345 0.36018184
0.63927084 2.7527602 0.5490389 0.06633617 -0.93367314 0.7338006 0.46232367 -0.62932676
-0.53372157 -1.4704558 -0.1486224 0.10162444 0.18236013 5.1477966 -0.7900457 -0.93213165
0.10512536 0.54371476 0.16454686 -0.571645 0.10811898 0.594263 -0.09215414 -0.7484295
-0.14468601 -4.397861 -0.71698666 -0.6493332 -0.23692587 -0.17188333 -2.161545 0.3361056
-0.3848954 0.22590378 0.1031349 -0.112836376 0.8596576 -1.1895121 0.055108093 -2.3190587
-0.3564976 0.829832 -0.9937565 0.6018507 0.45070428 -0.5922645 0.1286552 -0.1334882
1.7237146 2.2716315 -0.5084714 -0.07570497 -0.24957187 -0.014815151 -1.7487966 -2.072072
-0.8338354 0.6114466 -0.117254734 0.059029188 2.3775008 0.9635192 0.98081124 -2.4133875
1.2942895 1.3132592 -2.9912112 -0.7155506 -0.047523938 -0.23183 0.035625186 -0.66892093
-1.1670189 -0.124102466 0.31791604 0.96765953 0.85040575 -0.16623755 -0.12625208 1.1528407
-0.91227335 0.4842433 -0.015966242 -0.69287056 0.84099436 -0.11087478 0.99658746 0.4280264
-1.8298239 1.0893649 -0.7001726 -0.10881967 -0.52271295 -1.1718743 0.012709564 -0.018735854
0.06159589 -0.8161404 -1.4960884 -1.7174098 0.95356107 0.55897033 0.45593232 -3.288275
-0.287428 -1.1026947 -0.01959403 -0.11614807 0.9398479 1.4145147 -2.0714867 0.71018475
1.0268189 0.01783688 -0.37253457 -4.2940683 0.85459983 0.49605885 -0.02021389 0.28732517
-1.4204285 -0.94398147 -0.7031623 -1.514047 -1.1134439 0.83202744 1.6940166 -2.1368892
0.22190796 0.12130857 -0.041339733 -0.22254613 -0.1128529 -0.440344 -0.487943 -1.1639832
0.73425514 -0.89040154 -0.72236633 3.36978 -0.0064367973 -1.1738958 -0.47106478 -0.5024381
00000000: ec3e ff3f e86b 20c0 516c b83e f1f3 943e
00000010: 83c5 90be e970 e43d 99c8 afbe a71e 1a3e
00000020: 0e86 e8bd 5ba5 be3d 1779 c13d da74 fcbe
00000030: 13f0 22bf bade 20bf a2eb 363d 7971 2fc0
00000040: 9583 a1be e88f 23bf a776 89bf b26f 303c
00000050: 9b47 f23e c9c8 e6bf 4f10 06bf 6e5b 553e
00000060: ddb7 b93f 8ae3 783f 45ca c93e bf87 7abe
00000070: 28b2 acbf 6ea9 a0bf 18de 6bbf 9eab d33f
00000080: 8cd7 80bc 468c cbbe 27b7 2bbf 6d22 9a3f
00000090: c1cf 33bf 6dc5 443f 610e 99bd 524e 583e
000000a0: d656 94bf 3212 46bd c6f3 4abf 976b 72c0
000000b0: d399 0cbf 43ee bbbf 1ff3 f0be 2282 86bf
000000c0: d850 dcbe 5a86 553f df5c 83be fdd6 8cbd
000000d0: d831 66be 1610 abc0 0a47 51bf ffd6 f53c
000000e0: 1ddd 5bbf d957 9cbf c9c5 ed3e fa19 c63f
000000f0: 8173 933e 98a4 e43e a3ec 453d e5bf a7bd
00000100: 94ff 65be c768 33bf d427 70bd d25f e83f
00000110: a4cd d4be 906c 3fbe ca90 08bd c017 643e
00000120: 59dc fd3f 7f5e a8be 5bed 99bd f294 ec3e
00000130: 3a30 99be ba1c 13c0 c34e 5a3f 91d9 cfbf
00000140: bbac 223e 3a41 20bf ee47 79bf 5f2c b0bf
00000150: 22d1 b1bd d505 e0bf 7f06 ebbe 21c8 0cc0
00000160: 8027 eebf 1c62 d6bf 1892 67be a451 0740
00000170: a7d5 aabf 108b 9fbf d672 4c3e 5778 893c
00000180: 7c67 cf3f bded 843e b23c dd3e befa 993f
00000190: 5b12 bebe 5f32 d9bc 6c99 3dbf 6bf5 323f
000001a0: 32f7 a3be 35a8 64bf b84d 9e3e bd16 9bbe
000001b0: 5c15 e8bf 38d2 90be b2a1 903f c169 b83e
000001c0: 41a7 233f 392d 3040 d08d 0c3f 42db 873d
000001d0: 3405 6fbf 5bda 3b3f b0b5 ec3e 8f1b 21bf
000001e0: faa1 08bf e537 bcbf 7830 18be 7920 d03d
000001f0: 9dbc 3a3e c0ba a440 6f40 4abf 2ea0 6ebf
00000200: f74b d73d e430 0b3f f97e 283e 5457 12bf
00000210: 7c6d dd3d 9f21 183f 4fbb bcbd 1399 3fbf
00000220: 9228 14be 47bb 8cc0 708c 37bf b33a 26bf
00000230: b29c 72be 2f02 30be c156 0ac0 0916 ac3e
00000240: 0311 c5be 5253 673e 6438 d33d c216 e7bd
00000250: 8512 5c3f ef41 98bf 06b9 613d 756b 14c0
00000260: da86 b6be df6f 543f d366 7ebf e312 1a3f
00000270: b6c2 e63e a59e 17bf 30be 033e 21b1 08be
00000280: aea2 dc3f 6962 1140 2f2b 02bf 350b 9bbd
00000290: c58f 7fbe 3fbb 72bc 91d8 dfbf d49c 04c0
000002a0: 3d76 55bf c487 1c3f 4023 f0bd 97c8 713d
000002b0: f928 1840 32a9 763f 7216 7b3f f174 1ac0
000002c0: 47ab a53f e118 a83f 0170 3fc0 532e 37bf
000002d0: 76a8 42bd d864 6dbe b7eb 113d 673e 2bbf
000002e0: e060 95bf 6f29 febd e4c5 a23e 89b8 773f
000002f0: 31b4 593f 2d3a 2abe 3a48 01be 4990 933f
00000300: bf8a 69bf bdee f73e a3cb 82bc f75f 31bf
00000310: 684b 573f 5112 e3bd 5b20 7f3f 4726 db3e
00000320: ab37 eabf 4f70 8b3f 833e 33bf d9dc debd
00000330: 84d0 05bf faff 95bf c63b 503c ef7b 99bc
00000340: f94b 7c3d 94ee 50bf d37f bfbf 16d4 dbbf
00000350: 941c 743f ae18 0f3f f66f e93e 1973 52c0
00000360: c329 93be 1a25 8dbf a983 a0bc 0adf edbd
00000370: df99 703f d10e b53f 3d93 04c0 abce 353f
00000380: cd6e 833f a61e 923c dabc bebe 0269 89c0
00000390: 0ec7 5a3f 6dfb fd3e 9a97 a5bc 491c 933e
000003a0: 9ad0 b5bf c5a8 71bf 7202 34bf 4bcc c1bf
000003b0: 5485 8ebf c0ff 543f 89d5 d83f cbc2 08c0
000003c0: d73b 633e a170 f83d da53 29bd 22e3 63be
000003d0: 6c1f e7bd c574 e1be aad3 f9be 67fd 94bf
000003e0: 25f8 3b3f 5bf1 63bf 00ed 38bf 7aaa 5740
000003f0: c5eb d2bb 3842 96bf 672f f1be c99f 00bf

output_modules.1.outnet.0.linear.bias f4 [32]
-1.4497498 -0.5943003 -0.14421916 -0.04474414 -0.5832871 -0.028398804 -0.7488325 0.2165784
-0.853848 -0.22018129 -0.7535713 -0.16198371 -0.20150343 -0.74716014 -0.9780644 -0.4418641
-0.52148914 0.17318152 -1.445484 -0.6700074 -0.5082157 -0.02324415 -0.907119 -0.93945813
0.34816045 -0.4006452 -1.1740932 -0.1940509 -0.53419477 -0.91147447 -0.24664201 -0.47887102
00000000: 6791 b9bf 1124 18bf 30ae 13be a245 37bd
00000010: 4e52 15bf 9ca4 e8bc 7db3 3fbf bac6 5d3e
00000020: c895 5abf 3477 61be 0cea 40bf 0fdf 25be
00000030: ea56 4ebe e345 3fbf 6e62 7abf 033c e2be
00000040: 5080 05bf 7f56 313e 9f05 b9bf 9b85 2bbf
00000050: 6d1a 02bf 846a bebc f338 68bf 5480 70bf
00000060: 1642 b23e 5e21 cdbe b048 96bf 47b5 46be
00000070: fdc0 08bf 6456 69bf b98f 7cbe 952e f5be

output_modules.1.outnet.1.linear.weight f4 [16, 32]
0.08938813 0.046993032 0.00418051 0.03900008 -0.19282252 -0.036114596 -0.009122424 -0.034410924
-0.04305916 -0.021700803 0.033426795 -0.019120475 0.035555396 0.02339466 0.0040959846 -0.0078109945
-0.013507822 0.009346573 -0.038676813 0.0038592485 -0.16666238 -0.036374208 0.020336984 -0.13559014
-0.001437085 0.010174749 0.21794881 0.015331684 -0.058829524 0.0053928127 0.009495714 0.063091405
-0.47066092 -0.71787614 0.2502435 0.38931602 -0.32014206 -0.029344782 -0.59873676 0.6797488
-0.8121005 -0.46418017 -0.12809756 0.37066847 0.40914148 -0.34993944 -1.035063 0.7602887
-0.746947 -0.06629369 -0.59971786 -0.9333061 -0.41945407 0.75670016 0.52765137 -0.2862795
-0.8637281 0.11767382 -1.0765204 0.36745822 -0.21138048 -0.23655516 0.77294374 -0.44558492
-0.5001966 -0.44867218 -0.114590965 0.47943953 -0.5763483 0.16861963 -0.5731858 0.44202375
-0.53506404 -0.45803887 -0.29409793 0.006521153 -0.10922443 -0.54944736 -0.8547563 -0.6863571
-1.0635717 0.087570876 -0.82660943 -0.6677148 -0.5786721 0.58553165 0.5595826 0.05286876
0.2300696 -0.26364017 -0.7480246 0.4181524 -0.80214584 -0.6802447 0.3986437 -0.4115241
0.54234546 -0.01745624 0.12844169 -0.121245325 -0.2969066 -0.09762858 0.03609884 -0.11537752
-0.5688121 -0.15707868 -0.12000584 -0.05142647 0.063230366 0.074802876 -0.01136345 -0.010673909
0.0839486 0.04323736 0.11724065 -0.10834413 -0.318824 -0.07465825 0.30528367 -0.28313363
-0.025719047 -0.016056746 0.5108699 0.26326606 -0.124433726 0.4374589 -0.02907111 -0.1966832
0.041091952 0.009795344 0.0049254005 0.00744452 -0.21051547 -0.027315287 -0.0008644238 -0.069846064
-0.03702116 -0.01441274 -0.016188359 -0.014628958 0.02046822 -0.016921462 0.0980567 -0.00039565336
-0.045072757 0.023960551 -0.0070627304 0.010738444 -0.05443979 -0.022750111 -0.02407365 -0.037228607
-0.0113691725 0.004220157 0.2738544 0.028106317 -0.026913201 0.0059383237 0.027250806 0.01952098
0.7667531 -0.24966061 0.9392637 0.15819727 -0.017803853 -0.39669925 0.6108219 0.5220871
0.26849714 -0.7868696 -0.56222266 0.7370313 -0.98141 -0.34292623 1.0880922 0.2930839
0.31907102 0.43720368 0.14585628 -0.26939982 -0.5807252 0.9095558 0.7006108 0.8973
0.7958255 1.0775104 -0.20422785 -0.26961884 1.350328 -0.6779938 0.32390696 -0.09112775
-0.036225267 -0.039936565 0.10417539 -0.20031191 -0.4365884 -0.099591866 0.008071464 -0.09239627
-0.4953241 -0.024292117 -0.21971622 -0.00081414374 0.032330617 -0.27155507 0.16305742 -0.023026424
0.046428777 0.06413312 0.13319743 -0.025140202 -0.15909047 -0.06702809 0.169298 -0.3418638
-0.06027517 -0.039598048 0.40718165 0.23451647 0.0052703302 0.5049931 -0.051909044 -0.26026237
0.04596626 -0.044167336 -0.00570912 0.014707013 -0.021055752 -0.0032272427 0.0035885905 0.011467465
-0.01947894 -0.04547966 -0.14469928 -0.035264466 0.0143996645 0.07057798 0.022839919 -0.019119108
0.037020035 0.05390179 0.011914974 0.011361928 -0.13803206 -0.026760211 -0.08395148 -0.0404317
0.008147128 -0.019313348 0.25474474 0.012140389 -0.10310897 0.008610242 -0.007180337 0.11916828
00000000: 2011 b73d c47b 403d a9fc 883b 8cbe 1f3d
00000010: 4473 45be e6ec 13bd 3876 15bc 78f2 0cbd
00000020: cd5e 30bd e2c5 b1bc 89ea 083d 8ba2 9cbc
00000030: 89a2 113d 28a6 bf3c 9c37 863b 5ff3 ffbb
00000040: e94f 5dbc 5e22 193c 946b 1ebd 72eb 7c3b
00000050: 8ba9 2abe 1ffd 14bd bf99 a63c 24d8 0abe
00000060: 925c bcba feb3 263c f92d 5f3e be31 7b3c
00000070: 3af7 70bd 31b6 b03b e993 1b3c 1136 813d
00000080: 78fa f0be bbc6 37bf eb1f 803e 6e54 c73e
00000090: a9e9 a3be 7864 f0bc d046 19bf 0404 2e3f
000000a0: d2e5 4fbf 06a9 edbe 022c 03be 42c8 bd3e
000000b0: fe7a d13e 432b b3be f27c 84bf 48a2 423f
000000c0: eb37 3fbf fcc4 87bd 1c87 19bf 26ed 6ebf
000000d0: afc2 d6be 1ab7 413f 2914 073f 3a93 92be
000000e0: 491d 5dbf f9fe f03d 6ccb 89bf 7c23 bc3e
000000f0: 2074 58be 843b 72be a4df 453f b523 e4be
00000100: e20c 00bf 5cb8 e5be abae eabd 1979 f53e
00000110: 908b 13bf a0aa 2c3e 4ebc 12bf f050 e23e
00000120: f5f9 08bf 1284 eabe 0194 96be 65af d53b
00000130: 0fb1 dfbd 95a8 0cbf 4fd1 5abf 19b5 2fbf
00000140: 1e23 88bf 5c58 b33d ad9c 53bf 5bef 2abf
00000150: db23 14bf 67e5 153f ce40 0f3f ea8c 583d
00000160: 5d97 6b3e d8fb 86be 8a7e 3fbf 1218 d63e
00000170: 6e59 4dbf 8424 2ebf 071b cc3e 49b3 d2be
00000180: 27d7 0a3f 6300 8fbc 3886 033e 784f f8bd
00000190: 2404 98be 7ef1 c7bd 61dc 133d 0d4b ecbd
000001a0: ab9d 11bf 3cd9 20be 9fc5 f5bd 90a4 52bd
000001b0: ec7e 813d 4032 993d c42d 3abc 9fe1 2ebc
000001c0: 3eed ab3d a819 313d de1b f03d 87e3 ddbd
000001d0: e63c a3be 6de6 98bd 244e 9c3e e4f6 90be
000001e0: c0b0 d2bc 7089 83bc 5fc8 023f cfca 863e
000001f0: 1cd7 febd 9dfa df3e 8926 eebc 5267 49be
00000200: 0950 283d a77c 203c 4165 a13b 29f1 f33b
00000210: 5e91 57be 4fc4 dfbc 809a 62ba 740b 8fbd
00000220: 80a3 17bd 6a23 6cbc 739d 84bc 4cae 6fbc
00000230: f8ac a73c e19e 8abc f3d1 c83d b26f cfb9
00000240: 369e 38bd eb48 c43c 7a6e e7bb 4cf0 2f3c
00000250: 42fc 5ebd 715e babc 1a36 c5bc 067d 18bd
00000260: c445 3abc 3e49 8a3b a536 8c3e 383f e63c
00000270: 1379 dcbc 4596 c23b 153d df3c 76ea 9f3c
00000280: ee49 443f 08a7 7fbe 9673 703f 77fe 213e
00000290: 63d9 91bc 2a1c cbbe d35e 1c3f 80a7 053f
000002a0: 7578 893e 4970 49bf d3ed 0fbf 15ae 3c3f
000002b0: b03d 7bbf 0794 afbe 9b46 8b3f 180f 963e
000002c0: 475d a33e 29d9 df3e 595b 153e c6ee 89be
000002d0: 68aa 14bf a6d8 683f 3b5b 333f 74b5 653f
000002e0: 38bb 4b3f dceb 893f 1b21 51be 7b0b 8abe
000002f0: 8cd7 ac3f 0091 2dbf 22d7 a53e 30a1 babd
00000300: f260 14bd 8694 23bd e859 d53d 911e 4dbe
00000310: 8488 dfbe d2f6 cbbd 2c3e 043c 413a bdbd
00000320: 1f9b fdbe 4300 c7bc 4afd 60be 436c 55ba
00000330: 1c6d 043d 4409 8bbe 86f8 263e e9a1 bcbc
00000340: 1a2c 3e3d 3a58 833d e864 083e d3f2 cdbc
00000350: 9de8 22be 0646 89bd 745c 2d3e c608 afbe
00000360: 19e3 76bd 9031 22bd 1d7a d03e 1625 703e
00000370: bcb2 ac3b 3a47 013f 949e 54bd 1c41 85be
00000380: 1e47 3c3d cfe8 34bd 9213 bbbb aff5 703c
00000390: 1d7d acbc 2680 53bb 8f2e 6b3b 09e2 3b3c
000003a0: 4c92 9fbc e148 3abd 0c2c 14be 7971 10bd
000003b0: 92ec 6b3c 308b 903d c81a bb3c ad9f 9cbc
000003c0: 52a2 173d 20c8 5c3d 0637 433c 6127 3a3c
000003d0: 4758 0dbe 3b38 dbbc c1ee abbd b69b 25bd
000003e0: 887b 053c 0737 9ebc e76d 823e 7be8 463c
000003f0: cc2a d3bd f911 0d3c 0849 ebbb 800e f43d

output_modules.1.outnet.1.linear.bias f4 [16]
-0.0015371259 0.18216638 -0.10559733 0.0570835 -0.0072459686 0.20028117 0.021601351 -0.016828584
-0.370657 -0.006918792 0.02513868 0.010375442 -0.012479456 -0.011871239 -0.0031171814 0.018670093
00000000: 6379 c9ba d389 3a3e 6a43 d8bd 63d0 693d
00000010: 976f edbb 8216 4d3e 51f5 b03c 19dc 89bc
00000020: c1c6 bdbe 09b7 e2bb a2ef cd3c c2fd 293c
00000030: a276 4cbc 967f 42bc a049 4cbb 06f2 983c

output_modules.1.outnet.2.linear.weight f4 [1, 16]
0.0011670089 0.17496626 0.224152 -0.0012173195 0.0012963755 0.13656612 -0.0009935974 8.7544184e-05
-0.1918673 0.0017384784 0.00042603555 -0.00040710176 0.0012657584 0.00072266866 -0.0005055582 -0.00018243805
00000000: 52f6 983a 5b2a 333e 1a88 653e 778e 9fba
00000010: 25eb a93a fdd7 0b3e 993b 82ba ed97 b738
00000020: dd78 44be a8dd e33a 865d df39 4670 d5b9
00000030: cee7 a53a 7971 3d3a 7087 04ba d74c 3fb9
