MLIPs/CACE-LES/water/cace-r-4.5-nl-1-nu-2/best_model.pth (torch, 41698 bytes, 12 tensors)

embedding_weights f4 [2, 2]
00000000: 3eba 863e e258 8e3d 26e8 ddbe 1814 1b3f
0.26313967 0.06950547 -0.43341178 0.60577536

embedding_weights f4 [2, 2]
00000000: 244f 873e bafa 7fbb f549 dfbd 77df 153f
0.26427567 -0.0039059357 -0.10902778 0.58544105

bessel_weights f4 [6]
00000000: 473e 933e b5e1 a83f 7860 0640 d0d1 3640
00000010: 2da7 7240 2e3e 9940
0.2875845 1.319388 2.099638 2.856556 3.7914536 4.7888403

0 f4 [6, 12, 4]
00000000: dade 9b40 48ea a33c 1719 2abf 88e8 303d
00000010: 8c5f 14c0 7073 ce3f 85f9 9d3f 63bf 323f
00000020: 5878 933f 2fa0 a43f 7686 eb3d dc69 ef3c
00000030: 7603 4c40 6f7d d63f 011c 323f a703 a7bd
00000040: 7a80 0b40 b369 2940 3b03 e1bd ae03 053d
00000050: 01d5 e03f ff4d 0040 066b 4abb 32ae fd3e
00000060: 8938 3a3f 7782 cf3f 0b1e 1f3f 3a30 703f
00000070: 0ec7 c0bf 1aa1 f03f a4f6 393e f261 103f
00000080: 4ca7 1dc0 c183 973f 3ab1 59bf a705 0dbf
00000090: 3ba1 853f 5b9c 1040 76c2 943d 4127 3e3e
000000a0: 7160 e1bd e233 803f b6eb e0ba 7f03 c23b
000000b0: c852 60bf 331e d13f 8804 b23e 6c68 013c
000000c0: 9689 643e 794b 1ebd a390 553e 5d41 f03f
000000d0: 417a 5cbf 7cf5 1d3f de33 57bf 2acc a83f
000000e0: efa5 2040 0095 383f 31c3 6c3f e65e 663c
000000f0: cd97 d33f d1a2 0bbf 7587 f0be d8f7 943f
00000100: 87cb 1240 c1ff d43d b0a1 cc3e 4d52 933d
00000110: f61b 0540 8dbf fe3f 588d d33b b817 783f
00000120: bba2 353f 28f0 ae3f 95b5 3c3f 7440 4b3f
00000130: 32d3 793e d857 be3e 271c 4e3f 53fe 06be
00000140: 2ba9 56bf a610 db3f 54c6 be3f 4bb4 893f
00000150: 8bfc 1040 257a 433f 0606 84ba 0f08 213e
00000160: 2d21 903d ae00 693f 043d 653c 77c6 1b3f
00000170: 6b19 e7bd 41cb acbe 4b23 3cbe 921a 083d
00000180: 2d9a fe3d 892e f83d 7827 bc3d 09c0 903f
00000190: 766d 283f e0af e33e c1eb 61be 5467 ca3e
000001a0: b01a 873f ca88 413e 74fd 4a3c 1fd5 1ebc
000001b0: 22d9 ec3e 7603 983c a4b6 a2be ca6c eb3f
000001c0: dd68 a33f 9931 4bbe 5562 ee3e 48de 643d
000001d0: 8f69 dd3f 8307 043f d67a 093a 1eac be3e
000001e0: b66a 25bf 759b 113f 1317 66bf 76c5 2cbe
000001f0: bc8d 28bf be17 58bf 7b59 073f 397c ecbe
00000200: eb9c 5e3e ffbf a73d b02d 023f 7347 0940
00000210: 5d10 973f fa44 6f3e 1487 73bc d904 413b
00000220: ac07 2abd 5f26 4fbd 33af 44bc 0b80 e23e
00000230: 368d 8f3e 6cae 06bf e5d3 2b3f 9707 423d
00000240: c415 65be e513 293d 8671 e03d b041 193f
00000250: c554 003f fbb3 a73c 26ea 85bd afc8 61be
00000260: 6361 2c3f 0890 033f c8ea 823f 6622 07bc
00000270: bb63 7e3f ee2f d1bd 46a8 053e 02df 4c3f
00000280: 7ddd 5c3f 1de4 7dbe 1a8b 6ebd 2f4a 72bc
00000290: c5c1 863f 746c b63e 69fd e83a 28ef bcbd
000002a0: 6012 7dbf 54d1 fa3e 91a5 9f3e 382d b7be
000002b0: 5bc9 6b3e 1ad9 7f3d 1d35 9bbd 8a5c 74be
000002c0: 1355 aa3e 1c08 363e d5bd db3c 6563 e13e
000002d0: 6a87 6b3f 36de 703e 26a5 50bd 02fa 64bd
000002e0: 6fb2 b63b f0f2 073f 1c75 b53a e0a5 613d
000002f0: c641 93be 2af2 713f 2ca5 043e 0a21 aebc
00000300: 85b8 c23d 72ae 29bc 4c4d 03bf 8eaf 63bf
00000310: 593f e33e f38c 373e b2b7 1e3f 9f44 36bd
00000320: 8dad 593e 662c 993c 0291 5e3d 717c a93c
00000330: 26f7 023f 9d6e 443e 1ab4 7b3e 0f0a 683e
00000340: ab83 c53e 141c 6e3e 9b81 003d 7bc2 cfbc
00000350: 9232 9c3e da5e 74be 26fb feba 2d1d dfbc
00000360: 1b72 85bf 2e9d 5fbe a959 283f 94f5 323f
00000370: 6bb6 a53e 806e 483f f8bc 503f c039 793f
00000380: 307c b73d 18b8 c03d 8bcb c4be e6d9 64be
00000390: 0676 783e 78f8 c5bb e71d 863d f791 0a3e
000003a0: 824d 013c 7135 813e 1dba cc3b 314b fabe
000003b0: 6ae9 753e 5732 ba3e 7713 d43e 11ff c4bc
000003c0: 774e 803d 29e7 893d 4841 bbbe 0fa0 1bbf
000003d0: d0b8 943e 5e15 babe 919c 3e3f 580b d6bb
000003e0: 980e 373d 3fc7 e43c 1d77 06be c7a4 0e3d
000003f0: fdfa b23e b690 b73d 4c54 a93e 60ea dcbd
4.8709536 0.020009175 -0.66444534 0.04319051 -2.3183317 1.6128979 1.2341772 0.6982328
1.1521101 1.2861384 0.11500256 0.029225282 3.1877112 1.6757029 0.6957398 -0.081549935
2.1797166 2.6470764 -0.10986944 0.032474212 1.7565004 2.0047605 -0.0030886545 0.49546963
0.72742516 1.621169 0.62155217 0.9382359 -1.5060747 1.8799164 0.18160492 0.5639945
-2.463336 1.1837083 -0.8503605 -0.5508675 1.0439829 2.2595432 0.07263653 0.18569662
-0.11004723 1.0015833 -0.0017160091 0.005920827 -0.87626314 1.6337341 0.34769082 0.007898431
0.2231811 -0.038646195 0.20855956 1.8769947 -0.86124045 0.61702704 -0.8406352 1.3187306
2.5101278 0.72102356 0.9248534 0.0140607115 1.6530701 -0.54545313 -0.46978346 1.1638136
2.2936723 0.10400344 0.39967108 0.07193432 2.0798316 1.9902207 0.0064560585 0.9691119
0.7095143 1.366704 0.7371457 0.7939522 0.24396971 0.37176394 0.8051171 -0.13182954
-0.8385188 1.7114456 1.4904275 1.0758146 2.265414 0.7635825 -0.0010072596 0.1572573
0.07037578 0.9101666 0.013991598 0.6084971 -0.11284145 -0.3374882 -0.18372838 0.033228464
0.124317504 0.12118251 0.091872156 1.1308604 0.65792024 0.4447012 -0.22062589 0.39531958
1.0555019 0.18899837 0.0123895295 -0.009694367 0.4625941 0.018556338 -0.3177997 1.8392575
1.2766377 -0.19843139 0.46559396 0.055876046 1.7297839 0.5157396 0.0005244439 0.3724069
-0.6461595 0.56877834 -0.8987896 -0.168722 -0.6584127 -0.8441123 0.5287091 -0.46188524
0.21739547 0.08190917 0.50850964 2.144986 1.1801869 0.23366156 -0.014863748 0.0029452352
-0.041511223 -0.050573703 -0.012004661 0.44238314 0.28037423 -0.52609897 0.671202 0.04737052
-0.22371584 0.04127874 0.10959153 0.59865856 0.5012935 0.020471564 -0.06538801 -0.22049211
0.673361 0.5139165 1.02279 -0.008247947 0.99370927 -0.1021422 0.13052472 0.8002778
0.86275464 -0.2479405 -0.058238126 -0.014788195 1.0527884 0.35629618 0.0017775717 -0.09225303
-0.98856163 0.4898783 0.31181005 -0.35776687 0.2302603 0.062462904 -0.0757849 -0.23863426
0.3326803 0.17776531 0.026823917 0.44021145 0.920035 0.23522267 -0.050938748 -0.05590249
0.00557547 0.5310507 0.0013844105 0.05508983 -0.2876112 0.9451014 0.12953633 -0.021255989
0.095078506 -0.010356532 -0.5128982 -0.8893975 0.44384268 0.17924862 0.61999047 -0.044499036
0.2125761 0.018697929 0.05433751 0.020689221 0.5115837 0.1918282 0.24580422 0.22660087
0.38577017 0.23252898 0.0313736 -0.02536129 0.30507332 -0.23864308 -0.001945351 -0.027235592
-1.0425447 -0.21837303 0.6576181 0.6990597 0.32365736 0.7829361 0.81538343 0.97353745
0.08959234 0.09410113 -0.3843654 -0.22348747 0.24263772 -0.0060415827 0.06548672 0.13532244
0.007892014 0.25236085 0.0062477724 -0.48885491 0.24014822 0.3636653 0.414211 -0.024047406
0.06264966 0.067335434 -0.36573243 -0.60791105 0.2904725 -0.36344427 0.7445765 -0.006532114
0.044691652 0.02792704 -0.13131376 0.034825113 0.34957114 0.08963148 0.33072126 -0.10786891

1 f4 [6, 12, 4]
00000000: 57a9 6840 83bb 8ebf 48be 9640 bdd4 43bf
00000010: 1ecc b340 c29d 8fbe afc3 f23d 0c1d 1940
00000020: bfb5 9d40 cc09 683f 05cd 2ec0 3d90 cebf
00000030: 4726 c0c0 94fc 0640 5259 1bc0 d088 6b3f
00000040: a82a 99bb a0ae fcbf 472a b5bd b305 0640
00000050: 4019 0341 4ae4 6840 adab 9abf c4fe f1bf
00000060: e142 cfbf b648 643f 8269 cb3f 8f09 3840
00000070: 6cb4 0540 bd93 23c0 b53a 8cbe 361a 773f
00000080: 0492 72c0 e640 0bc0 8878 80c0 b30f aebf
00000090: 6cde bec0 0c08 3340 622d 903f 979b 24c0
000000a0: 28ee 5d40 82d1 a240 5d70 a4bf 1a16 c3bd
000000b0: e558 c340 03bd 223f 3357 913d ed95 c43f
000000c0: e701 7e40 90af 833f bcfa 1a40 5480 713f
000000d0: 1685 8040 18a9 103f f44e b63e cccb 1c40
000000e0: bbf9 c3be df4a a93f 730d ed3e 3fc1 713f
000000f0: 0815 933f 9407 ef3f e843 683d 102d 11bf
00000100: 6454 a6bf b207 2a3f 935b 98be 6331 eb3f
00000110: ff57 7040 21b4 fa3f 536e 313a 6167 9dbf
00000120: 0f54 6fbe 2a34 ea3f 4863 20c0 62a0 6840
00000130: 1f59 11c0 7757 b83f 33c9 8fbf 9953 673f
00000140: 2f55 e2bf b325 8fbf c9d1 24bf c490 113f
00000150: 1d31 ccbe 346a 613f d259 f93e fb6d 85c0
00000160: b0c6 4f40 53fc ba3f daa6 b03e 307e 30bf
00000170: 5abd 65bf 822c b53f f7c1 da3f bb35 e93d
00000180: d971 823f 6fb5 3f3f eed9 c0be 7340 4440
00000190: fea7 633f 2cc9 363f 862f 953f 2165 a33f
000001a0: 99fe a43e 7bc3 90bf 1b9f 59bf dd40 1240
000001b0: 3da9 543f 412c b83f f3e5 c33f 89e8 903f
000001c0: eb16 0140 0ea4 5d3f 6c1a b43f 4975 0840
000001d0: eb0e 1f3f c938 a0be 9c8c a13f ade5 bb3d
000001e0: 51f8 c3bd 5bb4 c53f 0767 1a3d b45b 97be
000001f0: 4501 1b40 bfa9 f03d e874 c13b f4b1 8f3f
00000200: ee2f f03f 294f 3a3f 3590 85bd 15d4 dc3f
00000210: 6e14 1140 c971 b5bf ec26 aa3e f795 b0bf
00000220: 1be8 233f 0506 9bbf 2cf2 b83f e6f9 d7be
00000230: 98c4 05c0 d391 b23e 8de0 88bf 0a25 1abe
00000240: cd14 8bbc 1925 74bf 2282 63bf 785d ad3f
00000250: 4713 4c3f 2dfe 993f 8f5e 0f40 6077 fa3f
00000260: 4b08 af3f b5f3 30bf 8182 a83f 6362 1740
00000270: 6fef adbb 6cfa 713e 53df 9e3f a08a e43f
00000280: 897b 0440 0f32 773f 6003 6440 0f50 643f
00000290: b54e c0be 0fab 8e3e 1b74 29bf 38fe 5640
000002a0: ed22 ff3f 19cc 303f 10fc bbbd 6bb6 c33e
000002b0: e08c 34bf df08 0a3f f88d a93f b1e3 38bf
000002c0: 29b4 cb3f 361d bc3f 208f a23e 5741 a33f
000002d0: 1799 703f 2930 413e edc1 b3bf c306 2540
000002e0: 5acb d73f e839 e0be 27bf 6340 af8e 8bbf
000002f0: 7223 f3bf 562f 9f3f b5b1 4b3f 2dc8 0e40
00000300: 49f7 37bf 96f7 cd3e fff2 803f b68c 033d
00000310: b488 fbbe 3a64 b83f 29d2 3b40 c952 b33f
00000320: f8de ca3f 13e1 9fbf 887e 933d 697b 2ebf
00000330: 1b4c 533f d609 0fbe 43be 1440 0b91 553f
00000340: 49c7 25bf 5a50 ae3f 7b46 3640 0abc 09bf
00000350: f5f6 e9bd 498a 893e 1a84 35bf f6b1 ad3f
00000360: 4d8f 3840 ee00 863c e785 a03e 34d5 903f
00000370: 703a 2e3d 9d11 13be 3f6d 47bf 5fbb cf3f
00000380: 8308 f03e 5c2a 263f 6ae9 d1bd 9963 0f40
00000390: 685b 64bd 0b72 173f 5afe 713f 78f7 be3f
000003a0: d7b2 4040 c327 ef3e 5b84 3140 a0d8 9d3f
000003b0: 4987 c83d 4e95 bfbe 8832 a0bd e3a1 2740
000003c0: d4d2 183f 532e b43e 8510 923f 45c1 173d
000003d0: 961c 3ebf c5ee ed3e 9eae 7e3f 63d5 203e
000003e0: f90d 8d3e c78f b4be 0a41 5fbf 7894 a8bf
000003f0: 6f13 9d3f 6e1b 273e d629 0b3f 0c63 74be
3.6353357 -1.1150974 4.7107277 -0.7649649 5.6186666 -0.28050047 0.1185373 2.3923979
4.928436 0.9063995 -2.7312634 -1.6137768 -6.0046725 2.1091661 -2.4273267 0.92005634
-0.0046742745 -1.9740791 -0.088459544 2.0940979 8.193665 3.6389337 -1.2083641 -1.8905873
-1.6192285 0.8917345 1.5891573 2.8755834 2.089137 -2.5558922 -0.2738854 0.9652437
-3.790162 -2.175836 -4.0147133 -1.3598541 -5.964651 2.7973661 1.126385 -2.5719965
3.467661 5.0880747 -1.284679 -0.095257 6.1046014 0.6356966 0.0709671 1.5358254
3.968866 1.0287952 2.4215536 0.9433644 4.016246 0.56508017 0.3560711 2.4499388
-0.38276467 1.3225974 0.46299323 0.94435495 1.1490793 1.8674188 0.056705385 -0.56709385
-1.2994504 0.6641799 -0.29757366 1.8374447 3.7553709 1.9586221 0.0006768454 -1.2297174
-0.2337191 1.8297169 -2.5060596 3.634789 -2.2710645 1.4401692 -1.1233276 0.90361935
-1.7682246 -1.118338 -0.64382607 0.5686152 -0.3988122 0.8805268 0.4870134 -4.1696754
3.246502 1.4608253 0.34502298 -0.68942547 -0.8974205 1.4154208 1.7090443 0.113872014
1.0190994 0.7488622 -0.37666267 3.0664337 0.8892821 0.71400714 1.1655128 1.2765237
0.32225493 -1.1309656 -0.850084 2.285209 0.8307074 1.4388505 1.530455 1.1320964
2.0170238 0.8657845 1.4070563 2.1321585 0.6213214 -0.31293324 1.2621036 0.091746666
-0.09568847 1.5445665 0.03769591 -0.2956215 2.4219525 0.117511265 0.005903829 1.1226182
1.8764627 0.7277704 -0.06521646 1.7252222 2.266872 -1.417535 0.3323282 -1.3795766
0.6402604 -1.2111212 1.4448905 -0.42182845 -2.0901241 0.3487688 -1.0693527 -0.15053192
-0.016977692 -0.95369107 -0.8887044 1.3544149 0.79716915 1.2030693 2.2401464 1.956768
1.3674406 -0.6912187 1.3164827 2.36538 -0.0053080837 0.23630685 1.2411903 1.7854805
2.07004 0.9656076 3.562706 0.8918466 -0.3756005 0.27864882 -0.6619279 3.3592663
1.9932534 0.6906143 -0.091789365 0.3822511 -0.7052746 0.53919786 1.324645 -0.7222243
1.5914356 1.4696414 0.3174982 1.2754315 0.93983597 0.18866028 -1.4043556 2.5785377
1.6858933 -0.4379418 3.558542 -1.0902919 -1.8995192 1.2436321 0.79568034 2.2309678
-0.718617 0.40227956 1.0074157 0.032116614 -0.49127734 1.4405587 2.9347022 1.4009639
1.5849295 -1.2490562 0.07201868 -0.6815706 0.82538 -0.13968596 2.3241127 0.83424443
-0.6475721 1.3618271 2.8480518 -0.5380255 -0.114240564 0.26863316 -0.70904696 1.3569934
2.8837464 0.016357865 0.3135216 1.1315064 0.0425362 -0.14362188 -0.7790107 1.6229056
0.46881494 0.64908385 -0.10249598 2.240454 -0.055751234 0.5915839 0.94528735 1.4919271
3.0109155 0.46710023 2.7737033 1.2331734 0.097914286 -0.37418598 -0.07822138 2.6192558
0.596967 0.35191593 1.1411291 0.03704955 -0.7426237 0.4647123 0.99485195 0.157064
0.27549723 -0.35265943 -0.87208617 -1.3170309 1.2271556 0.16319057 0.5436071 -0.23865908

2 f4 [6, 12, 4]
00000000: 2851 dcbf 7ff6 e5bf 0c17 383d a5e8 da3f
00000010: 2de9 8ec0 dbbe 09c0 c395 bbbe efd4 0e3f
00000020: 777b 5ac0 55f7 2140 7a8d 8f3f 7786 283f
00000030: 2984 1741 8e02 0240 56c6 5d3f aec9 773f
00000040: 122f 8a40 f246 8240 7633 8d3f 8dbd 0b40
00000050: 0385 0fc0 06a7 6c3f 4672 da3d 5a4a 273f
00000060: 7636 dfbf 8a8d 6640 372b efbd 0713 233f
00000070: adda 8840 1554 f73f 910b 6240 991a f7bf
00000080: 7d97 d0bf 59af 0940 faa0 f23d c2ff e03e
00000090: a692 113f 8947 4cbe 2927 933e 8463 de3f
000000a0: 3339 8740 37d6 4140 512a bb3e bb6b ba3f
000000b0: df15 93bf 6ff3 2740 b1fe 673e bf19 763f
000000c0: 40be 41c0 e8eb 74be 9757 2e3f c22a 9840
000000d0: 8e38 2e40 9c32 5fbf 7931 7e3f 391d 243f
000000e0: 53cf c3bf d7f8 2c40 1dc2 f33f 619e 4abe
000000f0: da3b 3340 ee82 c0bd 6a3f 433e 9437 c53f
00000100: 7c5f 3f3d 133a 5a40 6d8f 0640 1381 8140
00000110: 617d 3240 646c 113f 35d6 643d 387a 0040
00000120: 9d1f e6bf 17d9 83bf cae9 fe3f df79 233e
00000130: 30c0 e6be eebe 6c3f 25e7 c3be 5186 9bbf
00000140: 2c0a 813d 9f44 1e40 627d 053f ea4b 1d40
00000150: 0fed a7bf 166a ac3f 1651 0140 29d4 08bf
00000160: df1d 1840 594d 02bf 15f5 b73f d9cf 87be
00000170: 8149 473f f3c6 a9be 9635 b0bd c538 873f
00000180: 0496 ff3f c5d9 c53f 1f2d b93f e8d0 4440
00000190: adb7 77bf 9b3f d93f 8dfa 0140 b6ff 17be
000001a0: 69e4 6f3f c16c 493f a99c 2c3f 58f4 7b3f
000001b0: efb8 0d40 b335 92bd b9bc 8b3f 5b55 aa3f
000001c0: b575 d1be ff96 c93f c709 30be 1f14 d23f
000001d0: 9387 a73d 446e afbf 8050 0640 407d 9c3f
000001e0: a0d8 1740 ef3d ba3e b647 0bbe d7bf 4abe
000001f0: fd24 883f 30f9 df3e de68 3fbf b57e 1d40
00000200: edd1 95be ef6d 753f 9d1f b23f d6be 7a40
00000210: 7e40 3f3e f1a0 0b40 095e 0fbf b3d7 30bf
00000220: c42d 17bf 7a63 85bf f329 95be 3db8 96bf
00000230: 7420 383f 977e 12be 70e6 c43f 042d 57bf
00000240: c440 993f 8bad e63f 7fbb 0340 c71c ab3e
00000250: b255 1abf 596e 133f a583 8040 7536 e9be
00000260: 04a8 e5bf ef3e bc3e 533f e93d 2053 3d40
00000270: a301 893e ad97 9fbd 4454 a6bf 5215 b9be
00000280: a6ad 88be c476 c93e 4371 48be 62ab 35c0
00000290: 55b5 9abe 48f8 7d3f 3472 fcbd 35d7 2e40
000002a0: 3cc9 9abf 1150 3abe c583 af3e 9c0a 03be
000002b0: 6b97 723d 451e 56bf 2876 0ebd e48f 593f
000002c0: 825d 863f 0cf2 963f 2b64 0540 50b6 cd3f
000002d0: 2988 96bf aff6 1c40 dad4 debb 6a77 653e
000002e0: b88d 323f 8eb9 ff3e 105d efbe d6a8 ad3e
000002f0: 11f8 de3f 1db2 d6bf 8768 a03f 0eb3 e93c
00000300: d09c 763d 48bd 1140 ec45 1c40 4084 0bbf
00000310: 19c1 af3e 1581 39bf f162 4740 565c 06be
00000320: 1915 813e 0b3a a83d 7d7c dabe dbf0 c03f
00000330: 5aed b93e 8cc4 d83f 46b9 9b3f d526 60bd
00000340: 637e ed3f 834c 02bf 4db4 17bf 38c2 c9bf
00000350: 7b9c 3f3f de1d 3b3e c21a 7ebf 2ca4 dc3f
00000360: b6c1 dcbe fc8e a9be f39d 8cbf 4a5c 9f3e
00000370: 3c8c 9e3e c3cc 283a 674c 893f 2b63 aebe
00000380: 3dc7 54be e59a e03e 59c0 0a40 c545 43bf
00000390: 97f4 1d3f ddc2 ec3f df78 bfbd 09c9 cfbe
000003a0: c468 413f d3cb 933e 92fe 833f 4337 12bf
000003b0: e77a 2340 727e a13e e6ac 923f 458d ac3f
000003c0: 34cb 6bbe 4d40 603f fd59 813f 8096 953e
000003d0: a45e be3f 4ff5 04bf eb57 833f 19ed 47be
000003e0: 9200 8b3f 6c6b 7a3e 7caf 563e a9c8 3bbe
000003f0: 57d9 b53e 8fb4 c73f 5345 c63e d520 b33f
-1.7212267 -1.796585 0.044943854 1.7102247 -4.465964 -2.152274 -0.36637697 0.5579366
-3.4137857 2.530721 1.121505 0.6583018 9.469766 2.031406 0.8663076 0.96792114
4.318246 4.0711603 1.103133 2.1834443 -2.2424934 0.9244236 0.10666327 0.65347826
-1.7438495 3.6023889 -0.116781645 0.6370091 4.276694 1.9322535 3.531956 -1.9304992
-1.629623 2.1513274 0.1184711 0.43945128 0.5686439 -0.19949163 0.28740814 1.737412
4.2257323 3.0286996 0.36555722 1.4564127 -1.149105 2.624233 0.22655751 0.96133035
-3.027237 -0.23918116 0.681024 4.7552195 2.7222018 -0.871866 0.9929424 0.6410709
-1.5297645 2.702688 1.9043614 -0.1978698 2.800528 -0.09399973 0.1906716 1.5407586
0.04672192 3.4097946 2.102504 4.047006 2.7889025 0.56806016 0.055868346 2.0074596
-1.7978398 -1.0300626 1.9915097 0.15964459 -0.45068502 0.92478836 -0.38262287 -1.2150365
0.06300768 2.4729383 0.52144444 2.4577584 -1.311922 1.3469875 2.020574 -0.5344873
2.3768232 -0.50899273 1.4371668 -0.26525763 0.77846533 -0.331596 -0.08603971 1.05642
1.9967656 1.5457083 1.4466895 3.0752506 -0.9676464 1.6972536 2.0309174 -0.1484364
0.937079 0.7868157 0.67426544 0.98419714 2.2144125 -0.071391486 1.0916969 1.3307298
-0.40910116 1.5749205 -0.1719123 1.641239 0.081801556 -1.3705525 2.0986633 1.2225723
2.3725967 0.36375377 -0.13601574 -0.19799744 1.0636288 0.43744802 -0.7476939 2.4608586
-0.29261723 0.9587087 1.3915898 3.9178977 0.18676946 2.181698 -0.5600286 -0.6907913
-0.5905421 -1.0420983 -0.29133567 -1.1774975 0.7192452 -0.14306103 1.5382824 -0.84053063
1.197289 1.8021711 2.0583189 0.33420393 -0.6028701 0.5759025 4.01607 -0.4554936
-1.7941899 0.36766765 0.11389031 2.9581985 0.2675906 -0.07792602 -1.2994466 -0.3614908
-0.26694983 0.39348423 -0.19574456 -2.8385854 -0.3021647 0.9920697 -0.1232647 2.7318852
-1.2092662 -0.18194605 0.3428022 -0.12797016 0.059226435 -0.8363994 -0.03478065 0.84985185
1.0497286 1.1792617 2.0842388 1.6071262 -1.1760303 2.4525564 -0.006800276 0.22408834
0.69747496 0.49946254 -0.4675069 0.33917874 1.7419454 -1.6773106 1.2531899 0.028527763
0.06020814 2.2771778 2.4417677 -0.5449867 0.3432701 -0.7246259 3.115414 -0.13121161
0.2521141 0.08214196 -0.42673102 1.5073503 0.36313897 1.6934981 1.2165916 -0.054724533
1.8554195 -0.50898 -0.5925949 -1.5762396 0.74848145 0.18273112 -0.9925958 1.7237601
-0.4311654 -0.331169 -1.0985702 0.31125098 0.30966365 0.0006439203 1.0726441 -0.34060034
-0.20779128 0.43868175 2.16799 -0.76278335 0.6170134 1.8496968 -0.09349226 -0.40583065
0.75550485 0.28866443 1.0312064 -0.5711557 2.5543764 0.31541783 1.1459014 1.3480612
-0.23026735 0.87598115 1.0105587 0.29216385 1.4872632 -0.5193681 1.0261205 -0.1952404
1.0859549 0.2445504 0.2096538 -0.18338265 0.3551738 1.5601977 0.38724765 1.3994395

weight f4 [32, 144]
00000000: 64e5 2fc0 5b2b 3fbe 703a 6bbf f3f7 6b3f
00000010: 2d46 fbbe 1cfb 8f3f 7f48 e9bf 81fe 97bf
00000020: d58b c9bf d69b 99bd 3824 50bf 5f1e 2bc0
00000030: dc6e 0e40 af75 493d d964 703f 3780 acbd
00000040: 87d8 983f 8cea 2540 3e3d d83b 781f 9dbf
00000050: 357b 0140 6516 cd3e 6275 233e 8328 873e
00000060: 30d6 00be bdef cdbd 4d42 8bbf 89c3 d238
00000070: ada9 9fbf 8150 c1bf f102 c33e 1871 20c0
00000080: 7cb9 903f c2f3 d1be f9ea 963c 6cbc 6b3f
00000090: 8ec9 bbbf 1674 38be cafb 803d ed2d 033f
000000a0: 1ba1 8bbf fed5 4a3f 0e1a 3d3f 3ba3 20c0
000000b0: 5704 ca3e 609f 76bf b837 ed3b 181d 953f
000000c0: d843 efbe 756b b5be 5745 f4bd 6fa4 e1bc
000000d0: 7f89 ebbe 567b 0cc0 a29d 843e 26f8 0e3f
000000e0: c548 c3bf c9be 30bf 03f7 cf3d d77e 85c0
000000f0: 559a d6bd 2892 21be 53a5 6fbb 623e 5f3e
00000100: 5937 31be 8315 2640 04b8 e3be 2e22 cfbf
00000110: d492 5a3f 4e40 623e da7d 293f a499 193f
00000120: 010a 71bf f74f b6bd 0720 9fbe 7e77 b53e
00000130: 4bc4 b13e cc0b 03bf 49da 43c0 0c4e 2040
00000140: 3ad6 4ec0 0960 533f 3baf 2cbf 2bc8 1b3e
00000150: 7473 743d 6ae7 823f 0a5f 133f 29e8 9f3c
00000160: b29f aebe 150d 1040 6a85 c03f 783e 913d
00000170: 9085 14c0 0332 ba3f 6fe3 03c0 1dcc 0840
00000180: bec5 9e3f 1c9b d0bd d4d5 66bf 8639 0d3f
00000190: 0b9e bcbe af97 0240 8f2c 2ac0 7f33 4e40
000001a0: b015 fbbf bc48 57bf d373 aebe e799 04c0
000001b0: 2c69 0fbe 77c3 ee3d 79fa 8b3e bebd f53d
000001c0: a335 0b3f 51cc 883f e62f 6e3f 9b75 bcbf
000001d0: 5d49 a33f 87d0 08bd 830e b2bf d89b 273f
000001e0: 1453 db3c 3944 693d 5bb8 7a3c 00d9 93be
000001f0: 9283 5cbe e976 2ebf aee9 b3be a3df 1140
00000200: 2dee afbf 828b 4cbf 13bd 9bbe 25ce 503f
00000210: 06a3 8f3f c797 adbe 1912 323f 1384 a1bc
00000220: f140 7a3e f0e8 f5bf 8aa4 b4bf 38ef b8bf
00000230: 6376 713e 2e55 c73f c140 93be b068 92bf
00000240: f765 233f ea93 aabe d82e 59bf 8034 cebe
00000250: 6741 94bd 2198 d7be d29e afbf 2c9a 59be
00000260: 7e6f f7bd 2ced 1540 2fd1 593f b464 193f
00000270: e41e 963e cf89 893d ef28 553f cf52 303f
00000280: 7ddc dcbe 150f 6140 0c67 183f 982d 2ac0
00000290: b069 c73f 7943 f8bd f6a3 7e3f b9f7 2bbd
000002a0: b65c 743e 75c1 7bbc 7de3 79bf aa1b 55bc
000002b0: 14f3 fabf ac0a 4940 bebd 0ebf c6ac 8cbf
000002c0: 84a3 54bc 50c8 2e3f 6679 0ebf a18f f2bf
000002d0: ec20 883f d4c1 613f 32c4 3b3e b32b ffbe
000002e0: 868a 55bf 7fd2 b9bf 0f67 bb3e 95b2 4d40
000002f0: dde5 71bd 9394 80be f9c2 b1be a74f e5be
00000300: 87fc 1d3f d329 403f ad9c f03c 288c b2bc
00000310: afec 3fbf 32dd e33f abf2 bd3e 5550 2ec0
00000320: 70c1 2dbf f276 0c3f 24e2 7fbf 685e ae3f
00000330: 4d06 6b3f 1727 26be c211 a3bc 53bf 50be
00000340: 5a1d 023f 8b05 28bf cd3e a13e 1495 773f
00000350: 27ba 493f bc6c 7dbe ea21 9bbf 788a b33f
00000360: 4e62 29bf 47fd ae3c 1df4 0b40 3d77 83be
00000370: 0544 c3be 6253 2fc0 2c95 13bf dcaf 12bf
00000380: cddf 29bf 8723 373e d2c8 8dbf 752a c5bd
00000390: 8ae7 33be 6449 8d3f df20 5bbe 0238 e2be
000003a0: 742a 03bf 5e03 4dc0 84bc 8fbe 6567 97be
000003b0: 7d75 8cbe 96ff 76bd cdd0 66bf 44ef acbf
000003c0: efbe 303e 526f 913c 7dbe 523f af43 bbbd
000003d0: 50d0 25bd f9de f43f f106 99bf f404 f13f
000003e0: 96fa 9abc 210b 773e 7db2 683f ca41 24bf
000003f0: f5e3 033f d723 433d b482 533e d2e9 3dbe
-2.748376 -0.18668883 -0.91886044 0.92175215 -0.49076977 1.1248507 -1.8225249 -1.1874543
-1.5745798 -0.075004265 -0.81305265 -2.6737287 2.2255163 0.049184497 0.9390388 -0.084228925
1.1941079 2.5924406 0.0065990975 -1.2275229 2.023145 0.40056148 0.15962747 0.26398095
-0.12581706 -0.10055492 -1.0879608 0.000100500016 -1.2473656 -1.5102693 0.38088182 -2.5069027
1.1306605 -0.41006285 0.01842259 0.92084384 -1.4670885 -0.18013033 0.06298025 0.5124195
-1.090854 0.79232776 0.7386788 -2.5099628 0.39456436 -0.96336937 0.007239308 1.1649504
-0.46731448 -0.35433546 -0.11927288 -0.027544228 -0.4600334 -2.1950278 0.25901514 0.55847394
-1.5256582 -0.69041115 0.101545356 -4.1717334 -0.10478655 -0.1577841 -0.0036567047 0.21801141
-0.1730627 2.595063 -0.4447633 -1.6182306 0.8538029 0.22094843 0.6620766 0.6000006
-0.9415589 -0.08901971 -0.31079122 0.35442728 0.34720072 -0.51189876 -3.060198 2.5047636
-3.2318254 0.82568413 -0.6745488 0.15213077 0.059680417 1.0226872 0.57566893 0.019519882
-0.34106213 2.2507985 1.5040715 0.07091993 -2.320652 1.4546512 -2.0607564 2.137458
1.2404096 -0.10185835 -0.90170026 0.551659 -0.36839327 2.040508 -2.6589696 3.221893
-1.9615993 -0.8409536 -0.34072742 -2.0718935 -0.14004964 0.11658376 0.27339533 0.11999081
0.5437872 1.0687352 0.9304184 -1.472339 1.2756764 -0.033401992 -1.3910679 0.65472174
0.026773013 0.056949828 0.015302743 -0.28876495 -0.21534565 -0.6815019 -0.3513922 2.2792747
-1.374456 -0.7990037 -0.3041769 0.8156455 1.1221626 -0.3390486 0.69558865 -0.019716298
0.24438836 -1.9211712 -1.4112713 -1.4448004 0.23580317 1.557287 -0.2876034 -1.1438198
0.6382746 -0.33315974 -0.848371 -0.4027443 -0.07239037 -0.42108253 -1.3720343 -0.21250218
-0.12081812 2.3426008 0.85084814 0.59919286 0.29320443 0.06715738 0.83265585 0.68876356
-0.4313697 3.5165455 0.5953224 -2.6590328 1.5579128 -0.121222444 0.99468935 -0.041984294
0.23863491 -0.015365948 -0.97612745 -0.013007084 -1.9605432 3.1412764 -0.55758274 -1.0990226
-0.012978438 0.682744 -0.5565399 -1.8950082 1.0635047 0.88186383 0.18336561 -0.49838027
-0.83414495 -1.4517363 0.36602065 3.2140248 -0.059057105 -0.25113353 -0.34719065 -0.44787332
0.6171345 0.7506382 0.029371584 -0.021795347 -0.74970526 1.7801878 0.37099203 -2.723653
-0.6787329 0.54868996 -0.9995444 1.362256 0.9180649 -0.16225849 -0.019905929 -0.20385484
0.50826037 -0.6563346 0.31493226 0.9671185 0.7879967 -0.2474851 -1.2119725 1.4026632
-0.66165626 0.021361006 2.1867745 -0.2567691 -0.38137832 -2.7394643 -0.57649493 -0.5729959
-0.6635712 0.17884646 -1.107691 -0.09627239 -0.17568794 1.1038022 -0.21399258 -0.44183356
-0.51236653 -3.2033305 -0.28073514 -0.2957107 -0.27433386 -0.06030234 -0.90162355 -1.3510518
0.17260335 0.017753277 0.8232191 -0.09143769 -0.040481865 1.9130546 -1.1955243 1.8829637
-0.018918317 0.24125339 0.9089735 -0.64162886 0.5151971 0.0476416 0.20655328 -0.18546227

bias f4 [32]
00000000: bad7 9b3d 3f35 103f 8c5e 02bf 203f 13be
00000010: d6fc fc3e cf9b e3be 1edf 03c0 8630 633d
00000020: 92a0 d8bd ee3a 633f f595 933d 9123 4cbe
00000030: ba0b 85be 7436 7abc 8348 de3e 108d 043f
00000040: 1a3d 943e 5405 1fbe 570e 02c0 da2b b1be
00000050: 9c23 f6bf a6d6 913d d5fa a83e 20e3 06be
00000060: c5fb 58be ab26 08c0 0466 5d3e ab82 6abd
00000070: 910a a2be b4ad 40bd 20f9 ec3e 44e1 97be
0.07609506 0.5633125 -0.5092552 -0.14379549 0.4941165 -0.4445481 -2.060493 0.055466197
-0.10577501 0.88761795 0.072063364 -0.19935443 -0.2598551 -0.015271772 0.43414697 0.51777744
0.28952867 -0.15529376 -2.0321252 -0.3460377 -1.9229617 0.07121019 0.3300387 -0.13172579
-0.21189792 -2.12736 0.21620947 -0.05725352 -0.31648687 -0.047040656 0.46283817 -0.29664052

weight f4 [16, 32]
00000000: 34de 133c 38e9 71ba be6f b23b b054 4dbd
00000010: fdf7 343c 1bb8 e53a eaa1 03bc 9bc2 54bc
00000020: ce51 63bc 8b80 0fbd 0343 893c ae0a 9fbb
00000030: 26e2 f6bc ac3a 53ba 4240 c9bb 5b83 9b3b
00000040: 3385 f63c 9d2c 66bd cd11 073d d682 293c
00000050: d61d 58bb 9527 b5bc d9a8 b23c 2fcf f03b
00000060: 397a 883b c0e2 66bd ed21 bfbc b237 19bd
00000070: bad1 463c 16e4 923b 2be2 aebc 3f49 d03b
00000080: d8a3 ea3b 0e35 52bb ab89 babc 6e5d 9539
00000090: 8ead 2d3b 9acf 9fbc 2bd8 efbc 10c0 843c
000000a0: 1963 95bd c92b 063d 464c a1bb 1326 d4bb
000000b0: 3b2f f83b 1ed5 803c b6af b9b9 9f45 023c
000000c0: 02be de3b 8609 763c 4fc6 363c c42f 8f3c
000000d0: 76af 843b cf5b 8bbc 98f0 693c dbcc 483d
000000e0: 3805 bf3b 8690 aabc b659 70bc 91c5 85bc
000000f0: 5451 3a3d bff2 913c 0524 6fbc 9f5c df3b
00000100: 65ab 8cbf bbb0 df3e 3375 4dbe 85ff 993e
00000110: 0257 e7be 3afe 0dbf dfe6 b93e fd92 803e
00000120: 8ebc f83e b821 243f 893e 2f3f 7e73 39be
00000130: d42a 5dbf f901 3a3f 7b8d 383f 2c06 2b3f
00000140: 64fc 9dbe c143 20be 57ea f93e d9f4 223f
00000150: 23db 653e d320 d03e f1b0 203f c962 943d
00000160: 87c4 8e3e fab6 7c3e 557b 203f a2ea f63e
00000170: f5b4 0dbe 926e 66bf c030 2a3d 7439 37bf
00000180: 9a02 973f 07d1 383e ddee f4be 61b0 9f3e
00000190: 957d 323e e564 fbbd cebb 87bf 73aa 1a3f
000001a0: d378 0c3e 2e0e 893f a2d2 893e dbd4 abbd
000001b0: c1af f5be d52d b23d 7e2d 543e 8a64 8cbe
000001c0: 3d6b 49bc 48e3 16bf 9b30 b53e 0bc5 fb3e
000001d0: 7cbc b4bf 78bc e13e 42ec 66bd 5066 2c3f
000001e0: f1db 32be b5ba 333f 6be8 babc 1d9a 1f3f
000001f0: 3f6d f13e ab6a cc3f 6db3 6dbf 2479 813e
00000200: 5336 7ebb b872 32bb b3fe c0bc a1f9 c8ba
00000210: 3e9f e2b9 debb 89bc fffb 553c 4fb3 883c
00000220: 2ba3 d9bc 902e e03c b0c2 e5bb c248 4cbb
00000230: 4bc1 8ebc 4a77 543c 0467 6abc 7615 aabc
00000240: 6269 1b3d 9ad8 10bc ac4f a6bb 0c3f 1c3c
00000250: acdf 47bc 9644 09bd 88ff ca3c d29a 7d3c
00000260: 0894 8b3b 2695 c73a 0520 0e3c 6380 c4bb
00000270: b5b8 c33b 917d 7fbb 3463 06bc c12f dabc
00000280: b625 d83e da87 8f3f bb80 0a3f 56b0 58bf
00000290: a4ce 9a3c f956 a33e d116 133d deec b7be
000002a0: f7c9 04be b9c0 1cbf 0eb6 06bf 06f0 913e
000002b0: e833 143f a5ec 413f f6de b1be 2ac8 81bf
000002c0: 255b 843e b6db 273f d2ae 4fbd 00b9 10bf
000002d0: 18df f6bc b783 373e b94c 893f 4b0a 17be
000002e0: 68e2 90bf 8fea 2d3d 4336 18bf ac7d 9b3f
000002f0: 88cf 433f 7796 223f 81fd 96be 8715 01be
00000300: 9abb 9f3b 6609 b5bc 5dad 0dbd cd06 a13c
00000310: 76a2 293c 692a 47bc 33fa 30bd 2f15 223d
00000320: d16c e3bc 8416 89bc 816e 9c3c 6691 8dba
00000330: 6ddc bb3c d829 af3c 7e2b 4a3c 15c5 433c
00000340: cfc9 cfbb ab8e 953c 6072 14bc 0559 393b
00000350: 2bdb 4dbb 5b9f 59bc c47f e23b f69a 74bd
00000360: 35a1 423c 4229 93bc f8b5 723c f703 9abc
00000370: 53de 303d 500e 893b 02f5 913c 646a 9dbb
00000380: e205 8fbc 390b acbc 113d 183c fefb 673c
00000390: 853e 863c 1e44 863b cefb 82bc 3d98 c43c
000003a0: 8f0d 8a3c adae 7cbc 62ad 0b3d 3c88 213c
000003b0: 54b8 e7bb 3805 403d 124f 8cbb 7505 8a3b
000003c0: b988 3f3c 8d5f 4dbb f3bc 1fbd db9f c3bc
000003d0: 27ea b3bb 0359 62bc a5e9 8ebc 0ecc 763c
000003e0: cb07 b33a dd63 313b 9d91 923c 689e 873c
000003f0: 629b ee3c dbd6 a4bb 9c67 e13c a42c 10bd
0.009025145 -0.0009228173 0.0054454496 -0.050129592 0.011045453 0.0017526181 -0.008034209 -0.012985851
-0.013874484 -0.035034698 0.016755586 -0.004853568 -0.030137133 -0.0008057754 -0.0061416933 0.0047458834
0.030092811 -0.05619489 0.03297596 0.010346135 -0.0032976768 -0.0221136 0.021809028 0.007348917
0.0041649607 -0.05636859 -0.023331607 -0.03740663 0.012134964 0.0044827564 -0.02134808 0.006356388
0.007160645 -0.003207508 -0.022770723 0.00028489105 0.0026501152 -0.019508172 -0.029277882 0.016204864
-0.07294292 0.0327566 -0.0049224226 -0.0064742654 0.0075739897 0.015726622 -0.00035416865 0.007951169
0.006797553 0.015016919 0.011155679 0.017478831 0.004049237 -0.017011551 0.014278553 0.04902349
0.0058294795 -0.020820867 -0.014669826 -0.016329559 0.045487717 0.017815946 -0.01459599 0.006816461
-1.0989805 0.43689522 -0.20064239 0.30077758 -0.4518357 -0.55466044 0.36308953 0.25112143
0.48581356 0.6411395 0.68454796 -0.18110463 -0.86393476 0.7265926 0.7209088 0.6680629
-0.3085662 -0.15650846 0.488116 0.6365486 0.22446875 0.40650043 0.6276999 0.07245404
0.27884313 0.24679175 0.6268819 0.48225886 -0.13838561 -0.90012467 0.041550398 -0.7157204
1.1797669 0.18048488 -0.47838488 0.31189254 0.17430718 -0.122751035 -1.0604188 0.60416335
0.13717966 1.0707452 0.26918513 -0.08390208 -0.47985652 0.08700148 0.20720479 -0.27420455
-0.012293634 -0.58940554 0.35388646 0.4917377 -1.4120021 0.44089103 -0.056377657 0.67343616
-0.17466713 0.7020677 -0.022815904 0.62344533 0.4715366 1.5970052 -0.92851907 0.25287735
-0.0038789704 -0.0027229022 -0.02355895 -0.0015333184 -0.00043224724 -0.016813215 0.013060569 0.016687064
-0.026567062 0.027365953 -0.007011734 -0.0031171297 -0.017426154 0.012967894 -0.014306787 -0.020762186
0.037942298 -0.008840704 -0.0050754156 0.009536516 -0.012199324 -0.033512674 0.02478005 0.015478807
0.00425959 0.0015226945 0.008674626 -0.00599675 0.0059729465 -0.0038984756 -0.008202363 -0.026634099
0.4221627 1.1213334 0.5410268 -0.8464407 0.018897362 0.31902292 0.03591043 -0.35922903
-0.12967668 -0.6123157 -0.52621543 0.28503436 0.578917 0.75751716 -0.34740418 -1.013921
0.25850788 0.6556963 -0.05070383 -0.5653229 -0.030135676 0.17921339 1.0726539 -0.1475002
-1.1319094 0.04246002 -0.59457797 1.2147727 0.7648854 0.6351084 -0.29490283 -0.12605868
0.004874659 -0.022099208 -0.03458916 0.019656563 0.010353675 -0.012156107 -0.04320736 0.039570983
-0.027761849 -0.01673437 0.019095661 -0.0010800778 0.022932256 0.021382257 0.012339471 0.0119488435
-0.006341196 0.018256506 -0.009060472 0.002828182 -0.0031411152 -0.013282622 0.0069122035 -0.059718095
0.011879255 -0.01796401 0.014813893 -0.018800719 0.043180775 0.0041826144 0.017817024 -0.0048039425
-0.01745886 -0.021001445 0.009291903 0.014159201 0.016387234 0.0040974757 -0.01598921 0.023998374
0.016852168 -0.015422505 0.034100898 0.009859141 -0.007071534 0.046879977 -0.004281887 0.0042120763
0.011690312 -0.003133747 -0.038998555 -0.023879936 -0.0054905596 -0.013815167 -0.017445395 0.015063299
0.0013658939 0.002706758 0.0178917 0.016555026 0.029126827 -0.0050304956 0.027515225 -0.035198823

bias f4 [16]
00000000: e873 12bd 87a4 0139 cc03 963d 8c94 9ebd
00000010: 5da5 19bc 4ad7 9bbe 089e a03b 1d3a a83c
00000020: 4c85 f9bb 3ece 8b3c 7e7e 5dbb f482 a1bd
00000030: f753 18be 82c8 113e 585d 8ebe dae8 08bc
-0.035755068 0.0001236369 0.07324943 -0.07743177 -0.009377805 -0.3043769 0.0049016513 0.020535523
-0.007614767 0.017066117 -0.003379732 -0.078863055 -0.1487578 0.14236644 -0.2780559 -0.008356297

weight f4 [1, 16]
00000000: 112f 2ab8 f8ad a038 1587 2a3e a5fa d13d
00000010: 0a17 d2b5 3af7 2fbe 45ee 1fba e52b f539
00000020: 3435 093a a058 8a39 7eaa 7a3a 34e7 483e
00000030: d64b 3b3e f8eb e73d e68a a7bd 6126 213b
-4.0574992e-05 7.661799e-05 0.16653092 0.10252885 -1.5652925e-06 -0.17184153 -0.00061008736 0.00046762745
0.0005234063 0.00026387442 0.00095621485 0.19619447 0.18290648 0.11324304 -0.0818079 0.0024589526

weight f4 [1, 144]
00000000: d07b b63c ddb0 c03c 8787 db39 590a bbbc
00000010: d86f 0b3e 3e93 f8bd e098 7b3e c0c9 7d3e
00000020: 40a0 e83d 6e6e 4b3e a597 cf3e 9517 0d3f
00000030: 6946 08bb 6376 a0be 1eb0 9abc 55d8 8c3d
00000040: b46d 253e 7823 8c3e 51ad 183f 607d da3e
00000050: 5a02 18bc 387e 5cbe 7ded 3e3f d732 9ebd
00000060: 2c29 e53e 416e 6ebe a9a9 da3c de8b 9e3b
00000070: 980f f03e 8999 adbd 2dbd 273d 088b d7bd
00000080: 3d65 af3d 0d34 193f 153a 09be dce1 403d
00000090: 6b73 4e3e 0d56 76bd 226a df3c 0d2d 02be
000000a0: 4a10 d8bd 81d3 be3e d01d af3e 37d3 5dbe
000000b0: 9657 a03d 73c1 68be 515d 2d3e c9f3 22be
000000c0: 35b5 003f ece6 35be 962d 12bc f04e 973b
000000d0: 87a6 2ebd 74f8 f53d 0926 5b3f 8414 9e3c
000000e0: bc7d 763e 3462 2a3f df1e 56bd 9f58 103e
000000f0: 9a32 033f ada7 d3be 292d d2ba ec73 20bc
00000100: e622 f03d 10a9 b53e 044b a73e 942b f5bc
00000110: d7c2 05be e628 e2bd 6573 a2bd 2429 643e
00000120: 2337 12bd 8a8a cfbe c53b dcbd b7ae e2ba
00000130: 7cdf c43e 10c8 943e 0874 13be 38fe 073e
00000140: 0fa6 22be 96a1 4b3e 724a 2dbf 634c f1bd
00000150: 89ff 89bd c340 cebd f7eb 00bd 26a2 33bb
00000160: 6fe5 8c3d f154 a83d 0377 103e 5fb0 a0be
00000170: 3b09 c33d 643e 143d 549c 0f3f ea32 e7bd
00000180: 7438 913c 3c74 91be 4c0b 7c3c 730a cbbe
00000190: a4da a6be e7d0 0e3d f5ae 8a3d 986d 27be
000001a0: 6bfa c0bd 0806 e93e 9bdb cd3e 2f97 0c3f
000001b0: 6a65 c93e 1643 e8be cef2 e1bc e50a 1d3c
000001c0: 65f1 62be 7ae9 60be de64 4dbe cb72 82bd
000001d0: a76d a23e 5632 903e c34a 2cbe 81fd bdbe
000001e0: 7905 453b f135 61be 4fc4 193b 1d27 053c
000001f0: d2a5 543e 75f7 debe 87e0 163f a1d0 9d3c
00000200: 1918 9bbd 0c15 9ebd 4799 773e 021f a8be
00000210: d90d debc 85d0 d3bd bd0f 62bd cc90 4d39
00000220: 84ab c3bc 3514 a23d 246c acbe 9067 b9be
00000230: 54d1 b83e 2d65 54bd 00fc fb3d 93d2 a3be
0.022275835 0.023521835 0.0004187191 -0.022832083 0.13616884 -0.12137459 0.24570036 0.24783993
0.1135869 0.19866344 0.40545383 0.5511411 -0.002079392 -0.31340322 -0.018882807 0.068771996
0.1615513 0.2737081 0.5963946 0.4267378 -0.009277904 -0.21532524 0.7458113 -0.07724541
0.44757974 -0.23284246 0.026692228 0.004838451 0.46886897 -0.0847655 0.040951896 -0.10524565
0.085642315 0.5984505 -0.13401063 0.047090396 0.20161216 -0.06014066 0.027272288 -0.12712498
-0.10549982 0.3727074 0.34202433 -0.21662603 0.07829206 -0.22730045 0.16930129 -0.15913309
0.502765 -0.17763871 -0.008922001 0.0046175644 -0.04263928 0.12010279 0.8560491 0.019296892
0.24071401 0.66556096 -0.052275535 0.14096306 0.51249087 -0.41338864 -0.0016035187 -0.009793263
0.11725406 0.35480547 0.3267442 -0.029928006 -0.13062607 -0.11042957 -0.07932166 0.22281319
-0.035697114 -0.40535384 -0.10753588 -0.0017294501 0.38451755 0.29058886 -0.14399731 0.1328057
-0.15883659 0.19885859 -0.6769172 -0.11782148 -0.067381926 -0.10070946 -0.031475034 -0.002740988
0.068796985 0.08219326 0.141079 -0.3138456 0.09523245 0.036192313 0.5609791 -0.11289008
0.017727114 -0.28408992 0.015383553 -0.3965641 -0.32588685 0.034867194 0.06771652 -0.163504
-0.094227634 0.45512414 0.40206608 0.5491819 0.39335185 -0.45363683 -0.027581599 0.009585117
-0.22162397 -0.21964064 -0.20058009 -0.06369551 0.31724283 0.28163403 -0.16825394 -0.3710747
0.0030063076 -0.21993233 0.0023462956 0.008127001 0.2076638 -0.4354817 0.5893635 0.019264521
-0.07572956 -0.07718858 0.24179564 -0.32836157 -0.027106212 -0.10342506 -0.05519079 0.00019604265
-0.023885496 0.079140104 -0.33676255 -0.36211824 0.36097205 -0.0518543 0.123039246 -0.31996593
