MLIPs/CACE-LES/water/cace-r-4.5-nl-1-nu-2/checkpoint.pt (torch, 95010 bytes, 36 tensors)

representation.node_embedding_sender.embedding_weights f4 [2, 2]
00000000: 2aba 863e cf53 8e3d f3e7 ddbe 2414 1b3f
0.26313907 0.06949579 -0.43341026 0.6057761

representation.node_embedding_receiver.embedding_weights f4 [2, 2]
00000000: a14e 873e 764d 80bb 064b dfbd 77df 153f
0.26427177 -0.003915484 -0.109029815 0.58544105

representation.radial_basis.bessel_weights f4 [6]
00000000: 6d3e 933e b5e1 a83f 7860 0640 d0d1 3640
00000010: 2da7 7240 2e3e 9940
0.28758565 1.319388 2.099638 2.856556 3.7914536 4.7888403

representation.radial_transform.weights.0 f4 [6, 12, 4]
00000000: dade 9b40 0af4 a33c 1b19 2abf dae8 303d
00000010: 8c5f 14c0 7073 ce3f 85f9 9d3f 8fbf 323f
00000020: 5878 933f 2fa0 a43f fb91 eb3d 9566 ef3c
00000030: 7603 4c40 6f7d d63f 301c 323f 7304 a7bd
00000040: 7a80 0b40 b369 2940 980b e1bd 32fc 043d
00000050: 01d5 e03f ff4d 0040 921f 4abb 12af fd3e
00000060: a638 3a3f 7782 cf3f 101e 1f3f bf30 703f
00000070: 0ec7 c0bf 1aa1 f03f c7fb 393e 0c62 103f
00000080: 4ca7 1dc0 c183 973f 90b1 59bf a805 0dbf
00000090: 3ba1 853f 5b9c 1040 20cd 943d 2a2b 3e3e
000000a0: 1a57 e1bd e233 803f accf e0ba d9d2 c13b
000000b0: ea52 60bf 331e d13f 6807 b23e 6112 013c
000000c0: 6c8c 643e 414e 1ebd 4094 553e 5d41 f03f
000000d0: 417a 5cbf 7bf5 1d3f f333 57bf 2acc a83f
000000e0: efa5 2040 0095 383f 6ac3 6c3f 855b 663c
000000f0: cd97 d33f f3a2 0bbf 8f85 f0be d8f7 943f
00000100: 87cb 1240 bb02 d53d ad9f cc3e 8558 933d
00000110: f61b 0540 8dbf fe3f 61a9 d33b ab17 783f
00000120: 9da2 353f 28f0 ae3f 96b5 3c3f ce3f 4b3f
00000130: fed2 793e 0558 be3e 481c 4e3f 4902 07be
00000140: 2ba9 56bf a610 db3f 54c6 be3f 4bb4 893f
00000150: 8bfc 1040 257a 433f 12b7 83ba 3903 213e
00000160: 8b36 903d ad00 693f 39a8 653c 90c6 1b3f
00000170: 9917 e7bd 96cc acbe e91c 3cbe ac32 083d
00000180: c0a1 fe3d bb2e f83d a426 bc3d 09c0 903f
00000190: 766d 283f 95ae e33e 5ae8 61be c969 ca3e
000001a0: b01a 873f 0688 413e 4842 4b3c 0406 1fbc
000001b0: 50d9 ec3e 8507 983c 5bb3 a2be ca6c eb3f
000001c0: dd68 a33f 9930 4bbe c65e ee3e feda 643d
000001d0: 8f69 dd3f 8b07 043f 71f9 0a3a 85ab be3e
000001e0: db6a 25bf 849b 113f 1517 66bf 74be 2cbe
000001f0: bc8d 28bf cc17 58bf 8359 073f be7a ecbe
00000200: 9d9a 5e3e ecbd a73d 962d 023f 7347 0940
00000210: 5d10 973f 0044 6f3e c18d 73bc d971 413b
00000220: 37f8 29bd 2e2d 4fbd 0daf 44bc 507e e23e
00000230: e28b 8f3e 70ae 06bf 12d4 2b3f 4dfd 413d
00000240: 4813 65be 1733 293d 0865 e03d aa41 193f
00000250: d354 003f c2d1 a73c a5de 85bd 25c4 61be
00000260: 8361 2c3f 3290 033f c8ea 823f 39f4 06bc
00000270: ce63 7e3f 112a d1bd a3ad 053e 02df 4c3f
00000280: 9bdd 5c3f 3ce1 7dbe 018d 6ebd 166a 72bc
00000290: c5c1 863f ab6e b63e c466 e83a aae9 bcbd
000002a0: 8512 7dbf 98d3 fa3e 83a7 9f3e 362b b7be
000002b0: f5c5 6b3e 17db 7f3d c229 9bbd f859 74be
000002c0: cd54 aa3e 9b0b 363e 348c db3c 3562 e13e
000002d0: 8987 6b3f bee1 703e d78f 50bd 36e3 64bd
000002e0: df4d b73b 1df3 073f 4e6f b53a 43a4 613d
000002f0: b940 93be e6f1 713f 60ae 043e 1750 aebc
00000300: ecbd c23d 7454 2abc 474d 03bf 87af 63bf
00000310: 7e3e e33e 6989 373e b2b7 1e3f 2c5e 36bd
00000320: 8eab 593e 3411 993c 3775 5e3d 7255 a93c
00000330: e5f6 023f bf68 443e 61b0 7b3e 5d0b 683e
00000340: a682 c53e cd16 6e3e 4c85 003d 15c2 cfbc
00000350: b331 9c3e d162 74be c910 00bb e334 dfbc
00000360: 1b72 85bf eba0 5fbe a959 283f 30f5 323f
00000370: 90b6 a53e be6e 483f fabc 503f af39 793f
00000380: 7278 b73d d8b0 c03d cec9 c4be b7d8 64be
00000390: 1074 783e 425e c6bb 2a16 863d cd89 0a3e
000003a0: 801a 013c 7d34 813e 1593 cc3b c94a fabe
000003b0: 1fe4 753e e333 ba3e 3a11 d43e f7cd c4bc
000003c0: 3841 803d 57ea 893d 813f bbbe 02a0 1bbf
000003d0: 70ba 943e b614 babe 809c 3e3f b5c7 d5bb
000003e0: b40e 373d 5ec6 e43c 9b7b 06be 97cc 0e3d
000003f0: 8bfa b23e 3292 b73d d94f a93e 34ee dcbd
4.8709536 0.020013828 -0.6644456 0.043190815 -2.3183317 1.6128979 1.2341772 0.69823545
1.1521101 1.2861384 0.11502453 0.02922372 3.1877112 1.6757029 0.6957426 -0.081551455
2.1797166 2.6470764 -0.109885395 0.032467075 1.7565004 2.0047605 -0.0030841571 0.4954763
0.7274269 1.621169 0.62155247 0.9382438 -1.5060747 1.8799164 0.18162452 0.5639961
-2.463336 1.1837083 -0.85036564 -0.55086756 1.0439829 2.2595432 0.07265687 0.18571153
-0.110029414 1.0015833 -0.0017151735 0.0059150276 -0.87626517 1.6337341 0.34771276 0.007877917
0.22319192 -0.038648847 0.20857334 1.8769947 -0.86124045 0.617027 -0.84063643 1.3187306
2.5101278 0.72102356 0.9248568 0.014059906 1.6530701 -0.54545516 -0.46976897 1.1638136
2.2936723 0.104009114 0.39965573 0.07194618 2.0798316 1.9902207 0.0064594005 0.96911114
0.70951253 1.366704 0.7371458 0.79394233 0.24396893 0.3717653 0.80511904 -0.13184465
-0.8385188 1.7114456 1.4904275 1.0758146 2.265414 0.7635825 -0.0010049066 0.15723886
0.07041653 0.91016656 0.014017158 0.6084986 -0.11283798 -0.33749837 -0.18370403 0.03325145
0.12433195 0.12118288 0.091870576 1.1308604 0.65792024 0.44469133 -0.22061291 0.39533833
1.0555019 0.18899545 0.012405939 -0.009706024 0.46259546 0.018558273 -0.31777462 1.8392575
1.2766377 -0.19842757 0.4655668 0.05587291 1.7297839 0.5157401 0.0005301452 0.37240234
-0.64616174 0.56877923 -0.8987897 -0.16869527 -0.6584127 -0.8441131 0.5287096 -0.46187395
0.21738668 0.081905216 0.5085081 2.144986 1.1801869 0.23365784 -0.01486534 0.0029517321
-0.04149648 -0.050580196 -0.012004626 0.44236994 0.2803641 -0.5260992 0.6712047 0.047360707
-0.22370636 0.04130849 0.1095677 0.5986582 0.5012943 0.020485763 -0.06536607 -0.2204748
0.6733629 0.513919 1.02279 -0.008236938 0.9937104 -0.10213102 0.13054518 0.8002778
0.86275643 -0.24792951 -0.05823994 -0.014795801 1.0527884 0.35631308 0.0017730822 -0.092242554
-0.98856384 0.48989558 0.3118249 -0.35775155 0.23024733 0.0624648 -0.07576324 -0.23862445
0.33267823 0.17777865 0.026800252 0.4402024 0.92003685 0.23523614 -0.050918426 -0.055880748
0.0055939998 0.53105336 0.0013842375 0.055088293 -0.28760317 0.9450973 0.12957144 -0.021278424
0.09508881 -0.010396112 -0.5128979 -0.8893971 0.44383615 0.17923512 0.61999047 -0.044523403
0.21256849 0.01868496 0.054311004 0.020670626 0.5115798 0.19180582 0.24579002 0.22660585
0.3857624 0.23250885 0.03137712 -0.0253611 0.30506667 -0.2386582 -0.0019541255 -0.027246898
-1.0425447 -0.21838729 0.6576181 0.69905376 0.32365847 0.7829398 0.81538355 0.97353643
0.0895852 0.0940873 -0.38435215 -0.22348295 0.24263024 -0.006053717 0.06547196 0.1352913
0.007879853 0.25235358 0.0062431195 -0.48885182 0.24012803 0.3636771 0.41419393 -0.024023993
0.062624395 0.0673415 -0.36571887 -0.6079103 0.2904849 -0.36343926 0.7445755 -0.006524051
0.044691756 0.02792662 -0.13133089 0.03486308 0.34956774 0.089634314 0.3306873 -0.10787621

representation.radial_transform.weights.1 f4 [6, 12, 4]
00000000: 57a9 6840 83bb 8ebf 48be 9640 e6d4 43bf
00000010: 1ecc b340 f0a0 8fbe f6b9 f23d 0c1d 1940
00000020: bfb5 9d40 cf09 683f 05cd 2ec0 3d90 cebf
00000030: 4726 c0c0 94fc 0640 5259 1bc0 dd88 6b3f
00000040: e480 99bb a0ae fcbf 552a b5bd b305 0640
00000050: 4019 0341 4ae4 6840 adab 9abf c4fe f1bf
00000060: e142 cfbf b448 643f 8269 cb3f 8f09 3840
00000070: 6cb4 0540 bd93 23c0 9638 8cbe 461a 773f
00000080: 0492 72c0 e640 0bc0 8878 80c0 b30f aebf
00000090: 6cde bec0 0c08 3340 622d 903f 979b 24c0
000000a0: 28ee 5d40 82d1 a240 5d70 a4bf 5918 c3bd
000000b0: e558 c340 febc 223f ce61 913d ed95 c43f
000000c0: e701 7e40 90af 833f bcfa 1a40 5a80 713f
000000d0: 1685 8040 35a9 103f 1350 b63e cccb 1c40
000000e0: 2ffb c3be df4a a93f d60c ed3e 4cc1 713f
000000f0: 0815 933f 9407 ef3f 6445 683d 122d 11bf
00000100: 6454 a6bf c507 2a3f 0359 98be 6331 eb3f
00000110: ff57 7040 21b4 fa3f 09bf 2f3a 6167 9dbf
00000120: ce50 6fbe 2a34 ea3f 4863 20c0 62a0 6840
00000130: 1f59 11c0 7757 b83f 33c9 8fbf 5153 673f
00000140: 2f55 e2bf b325 8fbf aad1 24bf e990 113f
00000150: 9b31 ccbe 346a 613f bc5c f93e fb6d 85c0
00000160: b0c6 4f40 53fc ba3f 84a9 b03e ff7d 30bf
00000170: 52bd 65bf 822c b53f f7c1 da3f 9a34 e93d
00000180: d971 823f 4ab5 3f3f 82db c0be 7340 4440
00000190: 01a8 633f 43c9 363f 862f 953f 2165 a33f
000001a0: 75fe a43e 7bc3 90bf 229f 59bf dd40 1240
000001b0: 3ca9 543f 412c b83f f3e5 c33f 89e8 903f
000001c0: eb16 0140 00a4 5d3f 6c1a b43f 4975 0840
000001d0: f00e 1f3f e838 a0be 9c8c a13f 9bf9 bb3d
000001e0: 87f7 c3bd 5bb4 c53f 0063 1a3d 005d 97be
000001f0: 4501 1b40 66aa f03d 74cc c13b f4b1 8f3f
00000200: ee2f f03f 624f 3a3f c58b 85bd 15d4 dc3f
00000210: 6e14 1140 c971 b5bf 1b29 aa3e f795 b0bf
00000220: e8e7 233f 0506 9bbf 2cf2 b83f 58fb d7be
00000230: 98c4 05c0 f391 b23e 8de0 88bf 5225 1abe
00000240: fd08 8bbc 6525 74bf 2a82 63bf 785d ad3f
00000250: 4413 4c3f 2dfe 993f 8f5e 0f40 6077 fa3f
00000260: 4b08 af3f abf3 30bf 8182 a83f 6362 1740
00000270: f9ed adbb e4f9 713e 53df 9e3f a08a e43f
00000280: 897b 0440 2632 773f 6003 6440 4950 643f
00000290: 1a4d c0be c3a9 8e3e 2474 29bf 38fe 5640
000002a0: ed22 ff3f 14cc 303f 05f7 bbbd 2fb7 c33e
000002b0: d88c 34bf aa08 0a3f f88d a93f b0e3 38bf
000002c0: 29b4 cb3f 361d bc3f 148e a23e 5741 a33f
000002d0: 0399 703f 602f 413e edc1 b3bf c306 2540
000002e0: 5acb d73f 8c39 e0be 27bf 6340 af8e 8bbf
000002f0: 7223 f3bf 562f 9f3f f1b1 4b3f 2dc8 0e40
00000300: 54f7 37bf 61f8 cd3e fff2 803f 1e81 033d
00000310: 3f8b fbbe 3a64 b83f 29d2 3b40 c952 b33f
00000320: f8de ca3f 13e1 9fbf 5e89 933d 5f7b 2ebf
00000330: fd4b 533f 4d09 0fbe 43be 1440 1291 553f
00000340: 2dc7 25bf 5a50 ae3f 7b46 3640 40bc 09bf
00000350: d7fb e9bd de8a 893e 1a84 35bf f6b1 ad3f
00000360: 4d8f 3840 a809 863c b085 a03e 34d5 903f
00000370: 8744 2e3d 4012 13be 236d 47bf 5fbb cf3f
00000380: a60a f03e 402a 263f acea d1bd 9963 0f40
00000390: 7c4f 64bd 1072 173f 45fe 713f 78f7 be3f
000003a0: d7b2 4040 7928 ef3e 5b84 3140 a0d8 9d3f
000003b0: c57c c83d c894 bfbe 1133 a0bd e3a1 2740
000003c0: d4d2 183f 872f b43e 8510 923f 58d0 173d
000003d0: 9a1c 3ebf 85ee ed3e 81ae 7e3f 88d3 203e
000003e0: 600d 8d3e c98e b4be 0241 5fbf 7894 a8bf
000003f0: 6f13 9d3f 991a 273e ca29 0b3f c063 74be
3.6353357 -1.1150974 4.7107277 -0.7649673 5.6186666 -0.28052473 0.118518755 2.3923979
4.928436 0.90639967 -2.7312634 -1.6137768 -6.0046725 2.1091661 -2.4273267 0.9200571
-0.0046845544 -1.9740791 -0.08845965 2.0940979 8.193665 3.6389337 -1.2083641 -1.8905873
-1.6192285 0.89173436 1.5891573 2.8755834 2.089137 -2.5558922 -0.27386922 0.96524465
-3.790162 -2.175836 -4.0147133 -1.3598541 -5.964651 2.7973661 1.126385 -2.5719965
3.467661 5.0880747 -1.284679 -0.09526128 6.1046014 0.6356963 0.07098733 1.5358254
3.968866 1.0287952 2.4215536 0.94336474 4.016246 0.5650819 0.35607967 2.4499388
-0.38277575 1.3225974 0.46298856 0.9443557 1.1490793 1.8674188 0.0567068 -0.56709397
-1.2994504 0.66418105 -0.2975541 1.8374447 3.7553709 1.9586221 0.00067041867 -1.2297174
-0.23370668 1.8297169 -2.5060596 3.634789 -2.2710645 1.4401692 -1.1233276 0.90361506
-1.7682246 -1.118338 -0.6438242 0.5686174 -0.39881596 0.8805268 0.48703563 -4.1696754
3.246502 1.4608253 0.3450433 -0.68942255 -0.89742005 1.4154208 1.7090443 0.11386986
1.0190994 0.74886 -0.3766747 3.0664337 0.8892823 0.7140085 1.1655128 1.2765237
0.32225385 -1.1309656 -0.8500844 2.285209 0.8307073 1.4388505 1.530455 1.1320964
2.0170238 0.8657837 1.4070563 2.1321585 0.6213217 -0.31293416 1.2621036 0.09178468
-0.095686965 1.5445665 0.03769207 -0.2956314 2.4219525 0.11751251 0.0059142653 1.1226182
1.8764627 0.7277738 -0.065207995 1.7252222 2.266872 -1.417535 0.33234486 -1.3795766
0.64025736 -1.2111212 1.4448905 -0.42183948 -2.0901241 0.34876975 -1.0693527 -0.15053299
-0.01697206 -0.9536956 -0.8887049 1.3544149 0.79716897 1.2030693 2.2401464 1.956768
1.3674406 -0.6912181 1.3164827 2.36538 -0.0053079096 0.23630482 1.2411903 1.7854805
2.07004 0.96560895 3.562706 0.89185005 -0.37558824 0.27863893 -0.6619284 3.3592663
1.9932534 0.690614 -0.091779746 0.38225695 -0.7052741 0.5391947 1.324645 -0.72222424
1.5914356 1.4696414 0.31749022 1.2754315 0.9398348 0.18865728 -1.4043556 2.5785377
1.6858933 -0.43793905 3.558542 -1.0902919 -1.8995192 1.2436321 0.7956839 2.2309678
-0.7186177 0.4022856 1.0074157 0.032105558 -0.49129674 1.4405587 2.9347022 1.4009639
1.5849295 -1.2490562 0.07203935 -0.68157 0.82537824 -0.13968392 2.3241127 0.83424485
-0.64757043 1.3618271 2.8480518 -0.5380287 -0.11424988 0.2686376 -0.70904696 1.3569934
2.8837464 0.016362026 0.31351995 1.1315064 0.04254582 -0.1436243 -0.77900904 1.6229056
0.46883124 0.6490822 -0.10249838 2.240454 -0.055739865 0.5915842 0.9452861 1.4919271
3.0109155 0.46710566 2.7737033 1.2331734 0.09789423 -0.374182 -0.0782224 2.6192558
0.596967 0.3519251 1.1411291 0.037063926 -0.7426239 0.46471038 0.9948502 0.15705693
0.27549267 -0.35265186 -0.8720857 -1.3170309 1.2271556 0.1631874 0.5436064 -0.23866177

representation.radial_transform.weights.2 f4 [6, 12, 4]
00000000: 2851 dcbf 7ff6 e5bf df0e 383d a5e8 da3f
00000010: 2de9 8ec0 dbbe 09c0 9396 bbbe b1d4 0e3f
00000020: 777b 5ac0 55f7 2140 7a8d 8f3f 7786 283f
00000030: 2984 1741 8e02 0240 5fc6 5d3f adc9 773f
00000040: 122f 8a40 f246 8240 7633 8d3f 8dbd 0b40
00000050: 0385 0fc0 29a7 6c3f 8f79 da3d 3b4a 273f
00000060: 7636 dfbf 8a8d 6640 a12c efbd 0713 233f
00000070: adda 8840 1554 f73f 910b 6240 991a f7bf
00000080: 7d97 d0bf 59af 0940 869d f23d 7fff e03e
00000090: a592 113f 3549 4cbe e625 933e 8463 de3f
000000a0: 3339 8740 37d6 4140 292b bb3e bb6b ba3f
000000b0: df15 93bf 6ff3 2740 3cfe 673e fe19 763f
000000c0: 40be 41c0 13eb 74be 9657 2e3f c22a 9840
000000d0: 8e38 2e40 7d32 5fbf 7331 7e3f 461d 243f
000000e0: 53cf c3bf d7f8 2c40 1dc2 f33f 4c9e 4abe
000000f0: da3b 3340 c486 c0bd e43f 433e 9437 c53f
00000100: 066e 3f3d 133a 5a40 6d8f 0640 1381 8140
00000110: 617d 3240 6e6c 113f c2e5 643d 387a 0040
00000120: 9d1f e6bf 17d9 83bf cae9 fe3f df78 233e
00000130: 8abe e6be f6be 6c3f 7ee4 c3be 5186 9bbf
00000140: d70b 813d 9f44 1e40 707d 053f ea4b 1d40
00000150: 0fed a7bf 166a ac3f 1651 0140 29d4 08bf
00000160: df1d 1840 494d 02bf 15f5 b73f dacf 87be
00000170: 7f49 473f 53c7 a9be 362f b0bd c538 873f
00000180: 0496 ff3f c5d9 c53f 1f2d b93f e8d0 4440
00000190: a0b7 77bf 9b3f d93f 8dfa 0140 95f9 17be
000001a0: 24e4 6f3f bb6c 493f a99c 2c3f 66f4 7b3f
000001b0: efb8 0d40 4238 92bd b9bc 8b3f 5b55 aa3f
000001c0: 3674 d1be ff96 c93f fa08 30be 1f14 d23f
000001d0: 6d88 a73d 446e afbf 8050 0640 407d 9c3f
000001e0: a0d8 1740 953e ba3e ae46 0bbe 35bf 4abe
000001f0: fd24 883f fbf6 df3e c868 3fbf b57e 1d40
00000200: 8ad0 95be e66d 753f 9d1f b23f d6be 7a40
00000210: 5c3f 3f3e f1a0 0b40 fb5d 0fbf b0d7 30bf
00000220: c02d 17bf 7a63 85bf d827 95be 3db8 96bf
00000230: 7220 383f b278 12be 70e6 c43f 1f2d 57bf
00000240: c440 993f 8bad e63f 7fbb 0340 fa1c ab3e
00000250: b355 1abf 676e 133f a583 8040 8c38 e9be
00000260: 04a8 e5bf a23c bc3e 3f4a e93d 2053 3d40
00000270: 6103 893e 859d 9fbd 4454 a6bf 7614 b9be
00000280: ffab 88be 6c74 c93e 096c 48be 62ab 35c0
00000290: 1db4 9abe 77f8 7d3f cc67 fcbd 35d7 2e40
000002a0: 3cc9 9abf 7b59 3abe 6f85 af3e be09 03be
000002b0: a098 723d 361e 56bf 4e79 0ebd 0290 593f
000002c0: 825d 863f 0cf2 963f 2b64 0540 50b6 cd3f
000002d0: 2988 96bf aff6 1c40 0d5a debb d876 653e
000002e0: f28d 323f 3ebb ff3e af5c efbe 06a8 ad3e
000002f0: 11f8 de3f 1db2 d6bf 8768 a03f f6bf e93c
00000300: 78b5 763d 48bd 1140 ec45 1c40 6884 0bbf
00000310: c6c3 af3e 2681 39bf f162 4740 6559 06be
00000320: 8e17 813e 2042 a83d f27c dabe dbf0 c03f
00000330: f7ea b93e 8cc4 d83f 46b9 9b3f 172c 60bd
00000340: 637e ed3f 804c 02bf 4db4 17bf 38c2 c9bf
00000350: 5c9c 3f3f 711e 3b3e c91a 7ebf 2ca4 dc3f
00000360: 1cc0 dcbe 2d8e a9be f39d 8cbf 8c5c 9f3e
00000370: 2a8a 9e3e 4a69 2e3a 674c 893f fe63 aebe
00000380: 9fc4 54be e29c e03e 59c0 0a40 c645 43bf
00000390: 66f4 1d3f ddc2 ec3f 1275 bfbd 5ac8 cfbe
000003a0: 1069 413f 39ca 933e 92fe 833f 4837 12bf
000003b0: e77a 2340 5b7d a13e e6ac 923f 458d ac3f
000003c0: 8ecd 6bbe 3e40 603f fd59 813f 7197 953e
000003d0: a45e be3f 7af5 04bf eb57 833f 4bee 47be
000003e0: 9200 8b3f e66b 7a3e a7ad 563e f0c7 3bbe
000003f0: 4ad6 b53e 8fb4 c73f c644 c63e d520 b33f
-1.7212267 -1.796585 0.044936057 1.7102247 -4.465964 -2.152274 -0.36638317 0.5579329
-3.4137857 2.530721 1.121505 0.6583018 9.469766 2.031406 0.86630815 0.9679211
4.318246 4.0711603 1.103133 2.1834443 -2.2424934 0.92442566 0.10667717 0.6534764
-1.7438495 3.6023889 -0.11678434 0.6370091 4.276694 1.9322535 3.531956 -1.9304992
-1.629623 2.1513274 0.118464515 0.43944928 0.56864387 -0.19949801 0.28739852 1.737412
4.2257323 3.0286996 0.36556366 1.4564127 -1.149105 2.624233 0.22655576 0.9613341
-3.027237 -0.23917799 0.68102396 4.7552195 2.7222018 -0.87186414 0.99294204 0.6410717
-1.5297645 2.702688 1.9043614 -0.19786948 2.800528 -0.094007045 0.19067341 1.5407586
0.046735786 3.4097946 2.102504 4.047006 2.7889025 0.56806076 0.055883177 2.0074596
-1.7978398 -1.0300626 1.9915097 0.15964077 -0.45067245 0.92478883 -0.38260263 -1.2150365
0.063010864 2.4729383 0.5214453 2.4577584 -1.311922 1.3469875 2.020574 -0.5344873
2.3768232 -0.5089918 1.4371668 -0.26525766 0.7784652 -0.33159885 -0.08602755 1.05642
1.9967656 1.5457083 1.4466895 3.0752506 -0.96764565 1.6972536 2.0309174 -0.14841302
0.9370749 0.78681535 0.67426544 0.984198 2.2144125 -0.071396366 1.0916969 1.3307298
-0.40908974 1.5749205 -0.17190924 1.641239 0.08180318 -1.3705525 2.0986633 1.2225723
2.3725967 0.3637587 -0.13601181 -0.19799502 1.0636288 0.4374312 -0.7476926 2.4608586
-0.29260665 0.95870817 1.3915898 3.9178977 0.18676513 2.181698 -0.5600278 -0.69079113
-0.59054184 -1.0420983 -0.2913196 -1.1774975 0.7192451 -0.14303854 1.5382824 -0.84053224
1.197289 1.8021711 2.0583189 0.33420545 -0.60287017 0.57590336 4.01607 -0.45550954
-1.7941899 0.3676501 0.113911144 2.9581985 0.2676039 -0.07793716 -1.2994466 -0.36148423
-0.26693723 0.39346635 -0.19572462 -2.8385854 -0.3021554 0.9920725 -0.12324485 2.7318852
-1.2092662 -0.18198197 0.3428149 -0.12796685 0.059227586 -0.8363985 -0.034783654 0.84985363
1.0497286 1.1792617 2.0842388 1.6071262 -1.1760303 2.4525564 -0.0067856372 0.22408617
0.6974784 0.49947542 -0.467504 0.33917254 1.7419454 -1.6773106 1.2531899 0.028533917
0.060231656 2.2771778 2.4417677 -0.5449891 0.3432905 -0.7246269 3.115414 -0.13120039
0.25213283 0.08215737 -0.4267345 1.5073503 0.36312076 1.6934981 1.2165916 -0.054729547
1.8554195 -0.5089798 -0.5925949 -1.5762396 0.7484796 0.18273331 -0.9925962 1.7237601
-0.43115318 -0.33116284 -1.0985702 0.31125295 0.30964786 0.00066532625 1.0726441 -0.34060663
-0.2077813 0.43869692 2.16799 -0.7627834 0.6170105 1.8496968 -0.09348501 -0.40582544
0.7555094 0.2886522 1.0312064 -0.571156 2.5543764 0.3154095 1.1459014 1.3480612
-0.23027632 0.87598026 1.0105587 0.29217103 1.4872632 -0.5193707 1.0261205 -0.19524495
1.0859549 0.24455222 0.2096468 -0.18337989 0.35515052 1.5601977 0.38724345 1.3994395

output_modules.0.outnet.0.linear.weight f4 [32, 144]
00000000: 64e5 2fc0 6a32 3fbe 4e3a 6bbf e5f7 6b3f
00000010: d541 fbbe 1cfb 8f3f 7f48 e9bf 81fe 97bf
00000020: d58b c9bf bca3 99bd 3824 50bf 5f1e 2bc0
00000030: dc6e 0e40 8a6e 493d f664 703f 4c87 acbd
00000040: 87d8 983f 8cea 2540 0a60 d83b 781f 9dbf
00000050: 357b 0140 ad14 cd3e 6a78 233e 5726 873e
00000060: 6cd7 00be b4f3 cdbd 4d42 8bbf 2ea8 c638
00000070: ada9 9fbf 8150 c1bf 3400 c33e 1871 20c0
00000080: 7cb9 903f 8bf5 d1be d6f4 963c 5abc 6b3f
00000090: 8ec9 bbbf 997a 38be 5b01 813d 2d2e 033f
000000a0: 1ba1 8bbf 10d6 4a3f f119 3d3f 3ba3 20c0
000000b0: 6d04 ca3e 6f9f 76bf 2fcf ec3b 181d 953f
000000c0: e143 efbe 016e b5be 7752 f4bd c087 e1bc
000000d0: c087 ebbe 567b 0cc0 8d9a 843e 1ff8 0e3f
000000e0: c548 c3bf d6be 30bf c900 d03d d77e 85c0
000000f0: 429e d6bd 7094 21be 3886 72bb 5f3e 5f3e
00000100: 1a2f 31be 8315 2640 a5b4 e3be 2e22 cfbf
00000110: be92 5a3f 743b 623e f47d 293f 5699 193f
00000120: 5609 71bf e753 b6bd 1e22 9fbe c374 b53e
00000130: fcc5 b13e bc0b 03bf 49da 43c0 0c4e 2040
00000140: 3ad6 4ec0 f15f 533f 3baf 2cbf f1c5 1b3e
00000150: b47c 743d 6ae7 823f 035f 133f 22d3 9f3c
00000160: a29f aebe 150d 1040 6a85 c03f 0233 913d
00000170: 9085 14c0 0332 ba3f 6fe3 03c0 1dcc 0840
00000180: bec5 9e3f e39e d0bd 3fd6 66bf d339 0d3f
00000190: eb9d bcbe af97 0240 8f2c 2ac0 7f33 4e40
000001a0: b015 fbbf b348 57bf 6471 aebe e799 04c0
000001b0: 056a 0fbe 01c0 ee3d d5fa 8b3e 80bb f53d
000001c0: ae35 0b3f 51cc 883f e62f 6e3f 9b75 bcbf
000001d0: 5d49 a33f 18d7 08bd 830e b2bf bb9b 273f
000001e0: 6157 db3c 9740 693d a99d 7a3c fed8 93be
000001f0: 8a7c 5cbe ed76 2ebf f1e9 b3be a3df 1140
00000200: 2dee afbf 998b 4cbf bdba 9bbe f7cd 503f
00000210: 06a3 8f3f f095 adbe b411 323f 2069 a1bc
00000220: 5343 7a3e f0e8 f5bf 8aa4 b4bf 38ef b8bf
00000230: 5378 713e 2e55 c73f 9d3f 93be b068 92bf
00000240: f765 233f 4994 aabe d02e 59bf 2b34 cebe
00000250: 1949 94bd 1d98 d7be d29e afbf 6d9c 59be
00000260: 796f f7bd 2ced 1540 2bd1 593f ac64 193f
00000270: e01e 963e a787 893d ef28 553f ed52 303f
00000280: a6dd dcbe 150f 6140 0c67 183f 982d 2ac0
00000290: b069 c73f 5942 f8bd e4a3 7e3f 0a01 2cbd
000002a0: fb5d 743e 2de7 7bbc 8de3 79bf 39fc 54bc
000002b0: 14f3 fabf ac0a 4940 a7bd 0ebf c6ac 8cbf
000002c0: 41d9 54bc 4ac8 2e3f 6279 0ebf a18f f2bf
000002d0: ec20 883f d6c1 613f 02c2 3b3e cc2d ffbe
000002e0: 7b8a 55bf 7fd2 b9bf 8769 bb3e 95b2 4d40
000002f0: 4ae6 71bd d194 80be 82c2 b1be 0c4f e5be
00000300: 87fc 1d3f 9629 403f 19b4 f03c dab2 b2bc
00000310: 97ec 3fbf 32dd e33f 43f3 bd3e 5550 2ec0
00000320: 77c1 2dbf ea76 0c3f 24e2 7fbf 685e ae3f
00000330: 4d06 6b3f e128 26be 4e20 a3bc 00be 50be
00000340: 4f1d 023f c205 28bf 983c a13e 0895 773f
00000350: 2bba 493f e16d 7dbe ea21 9bbf 788a b33f
00000360: 4b62 29bf 0def ae3c 1df4 0b40 d073 83be
00000370: aa43 c3be 6253 2fc0 3c95 13bf 27b0 12bf
00000380: cadf 29bf 6220 373e d2c8 8dbf b228 c5bd
00000390: 06e9 33be 6449 8d3f d41d 5bbe b433 e2be
000003a0: 712a 03bf 5e03 4dc0 a2bb 8fbe 8767 97be
000003b0: 5575 8cbe 0af8 76bd cdd0 66bf 44ef acbf
000003c0: 3cbe 303e 4c64 913c 7ebe 523f 794a bbbd
000003d0: d2c5 25bd f9de f43f f106 99bf f404 f13f
000003e0: 59fd 9abc f108 773e 66b2 683f d441 24bf
000003f0: f5e3 033f 231d 433d 5486 533e 09e6 3dbe
-2.748376 -0.18671575 -0.9188584 0.9217513 -0.49073663 1.1248507 -1.8225249 -1.1874543
-1.5745798 -0.07501933 -0.81305265 -2.6737287 2.2255163 0.049177684 0.93904054 -0.08424243
1.1941079 2.5924406 0.0066032456 -1.2275229 2.023145 0.40054837 0.15963903 0.26396438
-0.12582177 -0.10056248 -1.0879608 9.472702e-05 -1.2473656 -1.5102693 0.38086092 -2.5069027
1.1306605 -0.41007647 0.018427294 0.92084277 -1.4670885 -0.18015517 0.06299087 0.51242334
-1.090854 0.79232883 0.7386771 -2.5099628 0.39456502 -0.96337026 0.0072268466 1.1649504
-0.46731475 -0.3543549 -0.119297914 -0.027530551 -0.46002007 -2.1950278 0.25899163 0.5584735
-1.5256582 -0.6904119 0.101564 -4.1717334 -0.10479404 -0.1577928 -0.003700627 0.21801136
-0.17303124 2.595063 -0.44473758 -1.6182306 0.8538016 0.22092992 0.66207814 0.599996
-0.9415487 -0.08902722 -0.31080717 0.35440645 0.34721363 -0.5118978 -3.060198 2.5047636
-3.2318254 0.8256827 -0.6745488 0.15212227 0.05968924 1.0226872 0.5756685 0.019509856
-0.34106165 2.2507985 1.5040715 0.07089807 -2.320652 1.4546512 -2.0607564 2.137458
1.2404096 -0.10186555 -0.90170664 0.5516636 -0.36839232 2.040508 -2.6589696 3.221893
-1.9615993 -0.84095305 -0.34070885 -2.0718935 -0.14005287 0.116577156 0.27339807 0.119986534
0.54378784 1.0687352 0.9304184 -1.472339 1.2756764 -0.033408254 -1.3910679 0.65472
0.026775064 0.056946363 0.015296378 -0.2887649 -0.21531883 -0.68150216 -0.3513942 2.2792747
-1.374456 -0.7990051 -0.30415908 0.8156428 1.1221626 -0.33903456 0.6955826 -0.019703448
0.24439745 -1.9211712 -1.4112713 -1.4448004 0.23581056 1.557287 -0.2875947 -1.1438198
0.6382746 -0.33316258 -0.84837055 -0.40274176 -0.07240505 -0.4210824 -1.3720343 -0.21251078
-0.120818086 2.3426008 0.8508479 0.5991924 0.2932043 0.06715327 0.83265585 0.68876535
-0.43137854 3.5165455 0.5953224 -2.6590328 1.5579128 -0.1212203 0.9946883 -0.04199318
0.23863976 -0.015374941 -0.9761284 -0.012999588 -1.9605432 3.1412764 -0.55758137 -1.0990226
-0.0129912505 0.68274367 -0.55653965 -1.8950082 1.0635047 0.88186395 0.18335727 -0.49839628
-0.8341443 -1.4517363 0.36603948 3.2140248 -0.05905751 -0.25113538 -0.3471871 -0.4478687
0.6171345 0.75063455 0.029382752 -0.021813799 -0.7497038 1.7801878 0.37099656 -2.723653
-0.6787333 0.5486895 -0.9995444 1.362256 0.9180649 -0.16226532 -0.019912865 -0.20384979
0.5082597 -0.65633786 0.31491542 0.9671178 0.78799695 -0.24748947 -1.2119725 1.4026632
-0.6616561 0.021354223 2.1867745 -0.25674295 -0.3813756 -2.7394643 -0.5764959 -0.5730004
-0.663571 0.17883447 -1.107691 -0.09626903 -0.1756936 1.1038022 -0.21398097 -0.4418007
-0.51236635 -3.2033305 -0.2807284 -0.29571173 -0.27433267 -0.060295142 -0.90162355 -1.3510518
0.17260069 0.01774802 0.8232192 -0.09145064 -0.04047186 1.9130546 -1.1955243 1.8829637
-0.018919634 0.24124505 0.90897214 -0.64162946 0.5151971 0.04763521 0.20656711 -0.18544783

output_modules.0.outnet.0.linear.bias f4 [32]
00000000: 82d9 9b3d 3f35 103f 985e 02bf 7d40 13be
00000010: d6fb fc3e 029e e3be 1edf 03c0 c306 633d
00000020: 96a6 d8bd f13a 633f e88f 933d 401e 4cbe
00000030: 700d 85be b7a2 7abc c645 de3e 118d 043f
00000040: 823b 943e 9b06 1fbe 570e 02c0 e32c b1be
00000050: 9c23 f6bf c0c2 913d 46f6 a83e 72e2 06be
00000060: d7fe 58be ab26 08c0 1963 5d3e c8a1 6abd
00000070: f10a a2be 33a6 40bd c5f7 ec3e d8de 97be
0.07609846 0.5633125 -0.5092559 -0.14380069 0.49410886 -0.44456488 -2.060493 0.05542637
-0.10578649 0.8876181 0.07205182 -0.19933414 -0.25986814 -0.015297583 0.43412608 0.5177775
0.2895165 -0.15529864 -2.0321252 -0.34604558 -1.9229617 0.07117224 0.33000392 -0.1317232
-0.21190964 -2.12736 0.21619834 -0.057283193 -0.31648973 -0.0470335 0.46282783 -0.29662204

output_modules.0.outnet.1.linear.weight f4 [16, 32]
00000000: f1a8 133c 284c 72ba 8b52 b23b f055 4dbd
00000010: 50f0 343c 2033 e53a bfe9 03bc 7943 54bc
00000020: 2d3a 63bc 3884 0fbd 1e3f 893c 000f 9fbb
00000030: f8e5 f6bc f482 54ba 638c c8bb ef3e 9b3b
00000040: 4a7b f63c 2c31 66bd 9612 073d 736c 293c
00000050: 10ef 58bb 791b b5bc 74c6 b23c 2879 f13b
00000060: f78c 883b 9de1 66bd d624 bfbc 053b 19bd
00000070: 9192 463c 29db 923b db01 afbc cf2f d03b
00000080: 6d10 eb3b 0c1a 52bb f881 babc 7e11 9639
00000090: 7acd 2d3b dfc6 9fbc 37b4 efbc c97e 843c
000000a0: 1366 95bd ad2f 063d c93b a1bb d21f d4bb
000000b0: e63f f83b d7df 803c 2516 c5b9 5d68 023c
000000c0: b0e9 de3b 791c 763c 77c3 363c 2f3c 8f3c
000000d0: 370d 853b 6865 8bbc 17b1 693c deb7 483d
000000e0: d9f0 be3b d792 aabc 8553 70bc 92be 85bc
000000f0: 6461 3a3d e1f4 913c 1be4 6ebc a673 df3b
00000100: 65ab 8cbf d7b0 df3e 9773 4dbe 8aff 993e
00000110: da56 e7be 38fe 0dbf ace9 b93e 258f 803e
00000120: 59bb f83e b821 243f 893e 2f3f 3d72 39be
00000130: d42a 5dbf fd01 3a3f 5c8d 383f 3506 2b3f
00000140: c1fb 9dbe 3e41 20be 4dea f93e d8f4 223f
00000150: ece1 653e ab1f d03e f1b0 203f 5455 943d
00000160: ebc2 8e3e feb6 7c3e 557b 203f f8ea f63e
00000170: 12b0 0dbe 926e 66bf 943b 2a3d 8d39 37bf
00000180: 9a02 973f f1d1 383e c7ee f4be c3af 9f3e
00000190: 867e 323e ae62 fbbd cebb 87bf 74aa 1a3f
000001a0: 7875 0c3e 2e0e 893f 75d2 893e 40d2 abbd
000001b0: c5af f5be 9f31 b23d 7129 543e 4264 8cbe
000001c0: 9049 49bc 48e3 16bf 7930 b53e 8bc5 fb3e
000001d0: 7cbc b4bf 2ebc e13e 19f5 66bd 5066 2c3f
000001e0: afdd 32be b5ba 333f 58e5 babc 1d9a 1f3f
000001f0: 0e6f f13e ab6a cc3f 59b3 6dbf 607a 813e
00000200: 21bc 7dbb 356b 32bb e6fa c0bc cde2 c8ba
00000210: 530d e2b9 a5b6 89bc df21 563c c983 883c
00000220: 37aa d9bc aa33 e03c 75b9 e5bb 3845 4cbb
00000230: 43bf 8ebc 6d84 543c 53a7 6abc 7909 aabc
00000240: f96d 1b3d 05cd 10bc ba57 a6bb aa4d 1c3c
00000250: 66c0 47bc e343 09bd 73d8 ca3c d376 7d3c
00000260: 4a6a 8b3b 612b c73a c623 0e3c a46d c4bb
00000270: a108 c43b a379 7fbb 2a34 06bc fa30 dabc
00000280: 8d25 d83e da87 8f3f bf80 0a3f 58b0 58bf
00000290: 4ad4 9a3c 2657 a33e 4511 133d ebea b7be
000002a0: 27c9 04be b8c0 1cbf 10b6 06bf 8ef1 913e
000002b0: e533 143f a5ec 413f fcdc b1be 2ac8 81bf
000002c0: 4f5b 843e b5db 273f 2ea5 4fbd fbb8 10bf
000002d0: bfdc f6bc 0f83 373e b94c 893f bf09 17be
000002e0: 68e2 90bf cfee 2d3d 4636 18bf ac7d 9b3f
000002f0: 7fcf 433f 7896 223f 3d00 97be bd16 01be
00000300: 804e 9f3b f00c b5bc 3eb1 0dbd bc03 a13c
00000310: 229a 293c c43b 47bc bd0b 31bd 0636 223d
00000320: 1861 e3bc 4e1e 89bc 396a 9c3c cfad 8dba
00000330: 28d8 bb3c 401f af3c ce84 4a3c fca1 433c
00000340: 51f5 cfbb 3a85 953c e76f 14bc aef4 383b
00000350: 9f85 4ebb 808a 59bc c9fd e23b fb85 74bd
00000360: c4aa 423c 5327 93bc 40af 723c 030b 9abc
00000370: 2ace 303d 1b04 893b fdd5 913c 5e82 9dbb
00000380: 43eb 8ebc d107 acbc f64b 183c b901 683c
00000390: a042 863c 1b66 863b afd8 82bc a258 c43c
000003a0: f101 8a3c 639f 7cbc 74af 0b3d 468b 213c
000003b0: bda7 e7bb a90a 403d de01 8dbb 2c4a 8a3b
000003c0: c19d 3f3c fe14 4dbb 7fbd 1fbd 1094 c3bc
000003d0: f588 b3bb 256e 62bc a208 8fbc bd78 763c
000003e0: 45b6 b23a ea52 313b d094 923c 4aa5 873c
000003f0: 57bb ee3c 6acd a4bb 9d86 e13c bc29 10bd
0.009012447 -0.00092429155 0.005441969 -0.050130785 0.011043623 0.001748655 -0.008051335 -0.01295554
-0.013868851 -0.035038203 0.01675373 -0.004854083 -0.030138955 -0.0008106672 -0.006120251 0.004737727
0.030088086 -0.056199238 0.03297671 0.010340798 -0.0033101477 -0.022107827 0.021823145 0.0073691793
0.004167195 -0.056367505 -0.023332994 -0.0374098 0.012119905 0.0044816923 -0.02136319 0.0063533555
0.007173589 -0.0032058982 -0.022767052 0.00028623262 0.0026520179 -0.019504009 -0.029260738 0.016173737
-0.0729486 0.03276031 -0.004920457 -0.00647352 0.0075759767 0.015731735 -0.00037591267 0.007959452
0.00680276 0.015021437 0.011155001 0.017484752 0.004060413 -0.017016128 0.014263413 0.049003474
0.005827051 -0.020821972 -0.01466835 -0.016326223 0.045503035 0.017816963 -0.014580752 0.0068192063
-1.0989805 0.43689606 -0.20063625 0.30077773 -0.4518345 -0.5546603 0.3631109 0.2510921
0.48580435 0.6411395 0.68454796 -0.18109985 -0.86393476 0.72659284 0.720907 0.66806346
-0.30856135 -0.15649888 0.4881157 0.6365485 0.22449464 0.4064916 0.6276999 0.072428375
0.27883086 0.24679181 0.6268819 0.48226142 -0.13836697 -0.90012467 0.041560724 -0.7157219
1.1797669 0.18048836 -0.47838423 0.31188783 0.17431077 -0.12274681 -1.0604188 0.6041634
0.13716686 1.0707452 0.26918378 -0.083897114 -0.47985664 0.08700871 0.20718934 -0.2742024
-0.012285605 -0.58940554 0.35388544 0.4917415 -1.4120021 0.44088882 -0.056386087 0.67343616
-0.17467378 0.7020677 -0.022814438 0.62344533 0.4715504 1.5970052 -0.9285179 0.25288677
-0.003871687 -0.0027224545 -0.023557138 -0.0015326381 -0.00043116006 -0.016810725 0.013069599 0.016664403
-0.026570423 0.027368385 -0.0070106336 -0.0031169187 -0.017425185 0.012971026 -0.01432212 -0.02075647
0.037946675 -0.008837943 -0.005076376 0.009540001 -0.012191867 -0.033512007 0.024761414 0.015470224
0.004254614 0.0015195423 0.008675521 -0.0059945155 0.005982474 -0.0038982413 -0.008191148 -0.026634682
0.4221615 1.1213334 0.541027 -0.8464408 0.018900055 0.31902426 0.03590514 -0.35921416
-0.12967359 -0.61231565 -0.52621555 0.28504604 0.57891685 0.75751716 -0.3473891 -1.013921
0.25850913 0.6556962 -0.050694637 -0.5653226 -0.030134557 0.17921089 1.0726539 -0.14749812
-1.1319094 0.042464074 -0.59457815 1.2147727 0.7648849 0.6351085 -0.2949237 -0.1260633
0.004861653 -0.022100896 -0.03459286 0.019655101 0.0103516895 -0.012160245 -0.043224085 0.039602302
-0.027756259 -0.016738083 0.01909362 -0.0010809245 0.02293022 0.021377206 0.012360765 0.011940476
-0.0063463827 0.018252004 -0.009059883 0.0028222012 -0.003151275 -0.01327765 0.006927226 -0.059698086
0.011881534 -0.017963087 0.014812291 -0.018804079 0.043165363 0.0041813976 0.017802233 -0.0048068007
-0.017446166 -0.02099982 0.009295454 0.014160567 0.016389191 0.0041015274 -0.015972463 0.023968045
0.016846629 -0.01541886 0.034102872 0.0098598655 -0.0070695565 0.046885166 -0.004303201 0.0042202678
0.011695326 -0.003129303 -0.038999077 -0.023874313 -0.005478973 -0.013820206 -0.017460171 0.015043435
0.0013634643 0.0027057477 0.017893225 0.016558308 0.029142065 -0.00502937 0.027530009 -0.03519605

output_modules.0.outnet.1.linear.bias f4 [16]
00000000: fd71 12bd fd15 ff38 2c01 963d a695 9ebd
00000010: 79aa 19bc d6d7 9bbe 53af a03b dc35 a83c
00000020: 3a96 f9bb 10ca 8b3c fb9f 5dbb 7983 a1bd
00000030: fe54 18be 8fc7 113e 4a5d 8ebe ecf0 08bc
-0.03575324 0.00012163443 0.07324442 -0.07743387 -0.009379023 -0.30438107 0.004903713 0.020533495
-0.0076167854 0.017064124 -0.003381728 -0.078864045 -0.14876172 0.14236282 -0.2780555 -0.0083582215

output_modules.0.outnet.2.linear.weight f4 [1, 16]
00000000: 7114 33b8 e246 b638 4485 2a3e 4efc d13d
00000010: cf0c cb36 def5 2fbe a5b0 27ba 5c76 f739
00000020: fc11 113a ca57 9039 7182 803a 2fe9 483e
00000030: 564c 3b3e c1ec e73d e28f a7bd 6bad 243b
-4.2695963e-05 8.691639e-05 0.166524 0.102532014 6.0513626e-06 -0.17183635 -0.00063968665 0.00047199696
0.0005533991 0.00027531228 0.00098045 0.19620202 0.18290839 0.11324454 -0.0818174 0.002512778

output_modules.0.linear_nn.linear.weight f4 [1, 144]
00000000: 1764 b63c 23b2 c03c 9a1a d639 da0b bbbc
00000010: 686d 0b3e 2594 f8bd bf98 7b3e 6bc9 7d3e
00000020: 6fa0 e83d e46c 4b3e a098 cf3e 9917 0d3f
00000030: 6013 08bb dc75 a0be 0eaa 9abc b8d9 8c3d
00000040: 476b 253e e723 8c3e 4fad 183f 687d da3e
00000050: b11e 18bc 907d 5cbe 9bed 3e3f eb33 9ebd
00000060: cf28 e53e cb6f 6ebe 389d da3c 2ae6 9e3b
00000070: 910f f03e dca0 adbd cbd1 273d 128a d7bd
00000080: 4760 af3d 0d34 193f 9a39 09be 33e0 403d
00000090: 8174 4e3e 945b 76bd 515d df3c f731 02be
000000a0: f80f d8bd 96d3 be3e 8d1e af3e afd2 5dbe
000000b0: 6058 a03d 8ac1 68be 6f5e 2d3e 31f1 22be
000000c0: 35b5 003f 54e7 35be 5a07 12bc 9bcc 963b
000000d0: fa9d 2ebd 74f6 f53d f425 5b3f 0a11 9e3c
000000e0: 867b 763e 3462 2a3f 891f 56bd c056 103e
000000f0: 9a32 033f 72a7 d3be 26c4 d1ba 3c5a 20bc
00000100: bf1a f03d 7da7 b53e e24a a73e eb37 f5bc
00000110: 1bc2 05be 5829 e2bd b776 a2bd 152c 643e
00000120: 403b 12bd 688a cfbe 9938 dcbd ccff dfba
00000130: d9df c43e 5fc8 943e 7476 13be d9fe 073e
00000140: e3a7 22be 629f 4b3e 724a 2dbf fa48 f1bd
00000150: b9fe 89bd 144a cebd a9e4 00bd 646d 31bb
00000160: 93e5 8c3d 3c52 a83d 4279 103e d5af a0be
00000170: a303 c33d 3f48 143d 549c 0f3f a32d e7bd
00000180: c641 913c e773 91be 4a2f 7c3c f50b cbbe
00000190: 98d9 a6be 50ca 0e3d 67ac 8a3d af6c 27be
000001a0: 44fc c0bd 1e06 e93e 0ddc cd3e 2c97 0c3f
000001b0: 0d65 c93e e042 e8be a0e2 e1bc 674a 1d3c
000001c0: adf0 62be 9aea 60be 3768 4dbe 1d78 82bd
000001d0: 2a6d a23e b032 903e 434a 2cbe ddfc bdbe
000001e0: 7fb5 453b 6a37 61be 472c 1a3b 49da 043c
000001f0: 8da4 543e e1f6 debe 87e0 163f a4db 9d3c
00000200: b417 9bbd 5217 9ebd 3697 773e f71d a8be
00000210: 8728 debc 21d9 d3bd 060c 62bd eded 3c39
00000220: 0ca7 c3bc 7511 a23d b26c acbe f667 b9be
00000230: 6fd1 b83e f65d 54bd f9fc fb3d d7d3 a3be
0.022264523 0.023522442 0.0004083708 -0.0228328 0.13615954 -0.12137631 0.24569987 0.24783866
0.11358725 0.19865757 0.4054613 0.5511413 -0.0020763502 -0.3133992 -0.018879917 0.06877464
0.16154204 0.2737114 0.5963945 0.42673802 -0.009284661 -0.21532273 0.7458131 -0.07724746
0.44757697 -0.23284833 0.026686296 0.004849215 0.46886876 -0.08477947 0.04097156 -0.10524382
0.08563285 0.5984505 -0.1340088 0.047088813 0.2016163 -0.06014593 0.027266176 -0.12714373
-0.10549921 0.37270802 0.34202996 -0.216624 0.07829356 -0.2273008 0.16930555 -0.1591232
0.502765 -0.17764026 -0.008912886 0.0046020276 -0.042631127 0.12009898 0.85604787 0.019295234
0.24070558 0.66556096 -0.052276168 0.14095592 0.51249087 -0.41338688 -0.0016003891 -0.009787139
0.117238514 0.35479346 0.3267432 -0.02993389 -0.13062327 -0.11043042 -0.07932799 0.22282441
-0.035701036 -0.40535283 -0.10752983 -0.0017089783 0.38452032 0.2905912 -0.14400655 0.1328081
-0.15884356 0.19885018 -0.6769172 -0.11781497 -0.067380376 -0.10072723 -0.031468067 -0.0027073259
0.06879725 0.0821881 0.14108756 -0.3138415 0.09522178 0.03620171 0.5609791 -0.112880014
0.017731559 -0.2840874 0.015392134 -0.3965756 -0.32587886 0.03486091 0.067711644 -0.16350053
-0.09423116 0.4551248 0.40206948 0.5491817 0.39334908 -0.45363522 -0.027573884 0.009600258
-0.22162123 -0.21964493 -0.20059286 -0.06370566 0.3172391 0.28163671 -0.16825204 -0.37106982
0.0030167995 -0.21993795 0.0023524927 0.008108684 0.20765896 -0.4354773 0.5893635 0.019269772
-0.075728804 -0.07719292 0.24178776 -0.3283536 -0.027118934 -0.103441484 -0.055187248 0.00018017711
-0.023883365 0.07913486 -0.33676678 -0.36212128 0.36097285 -0.05184742 0.1230411 -0.31997558

exp_avg f4 [2, 2]
00000000: 66ce 04bd 9158 eeb9 46cc 71bc 986e de3b
-0.0324234 -0.00045460885 -0.014758175 0.006788086

exp_avg_sq f4 [2, 2]
00000000: 2ab2 d441 be95 883f 88c5 1841 594f 443e
26.586994 1.0670698 9.548225 0.19170894

exp_avg f4 [2, 2]
00000000: cc98 153d 2d05 0a3c 1dff 67ba 1a77 59bc
0.03652267 0.008424086 -0.00088499655 -0.013273025

exp_avg_sq f4 [2, 2]
00000000: dd76 da41 5e03 473d 020e 9340 a5fa bf40
27.308039 0.048587196 4.59546 5.9993463

exp_avg f4 [6]
00000000: 6881 92bb 1cac 943c 6d2e 17bc 0e6e b2bc
00000010: 7ca5 063c 0d4f 3f3b
-0.004470993 0.018148474 -0.009227377 -0.021780994 0.0082181655 0.0029191405

exp_avg_sq f4 [6]
00000000: c55c 1c3e e48a 163d 4fd9 ea3e e39d 193f
00000010: 63ef d73d d294 1e3b
0.15269764 0.03675355 0.45868918 0.6000654 0.10543706 0.002419759

exp_avg f4 [6, 12, 4]
00000000: 35e1 86b8 1caa c336 fb6d 2db8 95af f038
00000010: a883 8a38 8084 cd38 6bcd a738 5c61 b239
00000020: 6e9d f9b7 57c5 9238 7d4d 7ab9 7ecd 9236
00000030: 5cde 2fb8 063d fc38 33a6 3b37 138b 6839
00000040: be15 25b8 f333 5938 772b 2b39 5af9 e836
00000050: fff0 00b8 da18 8738 e43d 5fb5 df32 ac37
00000060: 8d1d 20b8 0259 d038 0304 11b8 8e51 5b39
00000070: a4d4 7538 72b8 3739 9bb6 d5b8 f768 6e37
00000080: 2020 8b38 2617 f937 9181 8639 4ce6 8539
00000090: 321d 83b7 d40b 1239 61ff 6fb7 df93 a2b6
000000a0: 7075 0db6 8c52 b238 8857 9b36 68c5 2f38
000000b0: 0781 a237 8e5d f838 366c f8b8 ace7 1137
000000c0: be94 ef38 cb0c a837 1bd4 81b8 1e25 f5b8
000000d0: d87f f035 4f00 3339 851a 1839 cf6e 32b9
000000e0: 5fe2 8239 7c4d 4239 aa1d 8bb9 898c 21b4
000000f0: d4b2 6b38 06cb 9a39 5b23 ac37 2fd3 39b9
00000100: 1172 8439 bb20 0a39 eeea 4038 f223 8ab6
00000110: 0974 ac39 1dce f038 322e b734 99fe 4236
00000120: 82ec e338 22f7 6739 84fa 0237 4604 98b8
00000130: 9f37 2ab8 131a b839 4762 dcb8 dd86 8b36
00000140: 47e9 9eb6 e705 57b7 b300 0f39 7812 6cb9
00000150: 264b 8539 581b a339 e83f abb7 af5f 1e37
00000160: cba0 8936 53b4 3e39 da52 c635 0984 e1b7
00000170: e120 b838 f88f e039 4819 c9b8 84db d4b6
00000180: 556f 8339 6179 3b37 1c99 1037 6cb9 4139
00000190: 5520 f1b8 bd96 9436 99bc 6fb8 1117 cb37
000001a0: 608e b33a c36f 6d37 3f45 fdb8 d968 0636
000001b0: a2b1 0e3a 1d77 0a39 fe25 7eb8 ab5a cc39
000001c0: 059b c03a a64a a7b8 2bf2 1139 eac9 88b6
000001d0: 7ebd d33a 77d1 bcb8 05dc 05b5 35dd 4ab8
000001e0: f8a8 8039 b7f3 12b7 3066 8fb8 d599 86b8
000001f0: 53ce c7b9 b81b aa39 cac0 ceb7 c4af 01b7
00000200: b848 52b9 3048 c0b8 a723 9039 6d6a 143a
00000210: cf0d a53a 2acf 1338 c03b 7bb7 fbb7 01b7
00000220: 4fe7 fe36 531d 6938 41d2 2336 58dd 57b7
00000230: 3b11 e338 5783 7539 39c7 56b8 b029 9eb6
00000240: 6b16 1fb9 e321 f2b6 f757 3f38 135b 9cb8
00000250: 4363 c2b7 d669 2d37 0a07 58b9 04fd 5839
00000260: ed5e c4ba 5f87 83b8 8303 0a38 669c c534
00000270: 5a24 74ba 0b0a d4b7 a12e 84b8 49de 56b9
00000280: b298 e6ba e756 7339 cb29 d736 57fd 0f37
00000290: da55 edba ddda 8638 ed35 61b5 3eef 4038
000002a0: 7dc3 6539 3f29 33b8 9aef b7b8 86a2 3039
000002b0: 8a07 4039 b352 8db9 d92c 9db7 134b 1d37
000002c0: 868c 7237 50b6 c538 169e 2938 9962 c2b9
000002d0: 7eb4 b5ba f00c b4b8 c3f9 c537 1ac8 e6b5
000002e0: 8056 8d36 c749 f2b8 279a 5eb4 793b 3838
000002f0: 556c acb3 9dd5 06ba 0d61 5eb8 c65e 4237
00000300: 9b7e 8fb9 c062 0a37 735d a337 0aa8 32b7
00000310: aff9 9039 7365 ee38 04bc 99b7 5d48 45b9
00000320: 0dfa 7e3a 9116 0839 03fe 9338 b9e1 39b4
00000330: 8a45 c039 eef6 3e38 bcd5 7936 f5f2 0fb8
00000340: 8ef6 8f3a 7594 5438 d281 2ab8 fc09 08b7
00000350: 8da3 973a 65ea 4439 4854 2036 2443 09b8
00000360: 23d6 88b9 050a 4639 3413 ecb7 681a 3cb9
00000370: fe13 96b8 967d 6338 7690 b3b7 2b66 cab7
00000380: 1be2 7d39 de8c df38 7809 aeb7 b37e 99b8
00000390: d8b4 6b3a 2c62 4d39 5223 0435 8c5d e136
000003a0: 4e68 00b7 b598 0039 a9eb 1b34 e471 05b8
000003b0: 66c0 2337 9177 3639 ac71 b9b7 f9cb 34b7
000003c0: 8c01 8639 325c 91b7 a3d8 0bb8 9ee4 0239
000003d0: 85e7 51b9 544f 75b9 4fe1 1939 e834 9838
000003e0: cd0c 06ba defc 4db9 2d1e be38 ad5b 70b6
000003f0: 1c83 0f39 bdeb c9b9 43f7 4938 6372 d439
-6.431566e-05 5.831256e-06 -4.134884e-05 0.000114767965 6.604876e-05 9.799842e-05 8.0014426e-05 0.00034023344
-2.9756422e-05 6.99858e-05 -0.00023870725 4.3750615e-06 -4.193034e-05 0.00012027663 1.1184765e-05 0.00022177053
-3.9359315e-05 5.1785213e-05 0.00016324023 6.943167e-06 -3.0742023e-05 6.4419306e-05 -8.3164036e-07 2.0527687e-05
-3.8174494e-05 9.934792e-05 -3.457443e-05 0.00020915849 5.861059e-05 0.00017520951 -0.000101906444 1.42103445e-05
6.63402e-05 2.9693892e-05 0.00025655006 0.0002553932 -1.5630012e-05 0.00013928051 -1.430497e-05 -4.8451907e-06
-2.1078995e-06 8.503077e-05 4.62955e-06 4.19071e-05 1.9371988e-05 0.000118429874 -0.000118457174 8.696614e-06
0.000114241135 2.0033118e-05 -6.190707e-05 -0.00011689424 1.7918601e-06 0.00017070885 0.00014505729 -0.00017016682
0.00024964192 0.00018530147 -0.00026534247 -1.504542e-07 5.6194913e-05 0.00029524433 2.0520461e-05 -0.00017721647
0.00025261988 0.00013172899 4.5995163e-05 -4.116905e-06 0.0003289285 0.000114824834 3.4120018e-07 2.9056448e-06
0.000108682565 0.00022121941 7.8069315e-06 -7.248721e-05 -4.058296e-05 0.00035114642 -0.00010508723 4.158223e-06
-4.735924e-06 -1.2816373e-05 0.00013637803 -0.00022513594 0.00025423727 0.00031110155 -2.0414547e-05 9.439812e-06
4.101637e-06 0.00018186988 1.4776263e-06 -2.6883574e-05 8.779928e-05 0.00042831874 -9.589136e-05 -6.3436473e-06
0.00025069216 1.1174329e-05 8.618717e-06 0.0001847499 -0.00011497798 4.428292e-06 -5.7157686e-05 2.4210227e-05
0.0013699047 1.4152322e-05 -0.00012076878 2.0028585e-06 0.00054433395 0.00013205079 -6.0593702e-05 0.00038977465
0.0014694637 -7.977085e-05 0.00013918492 -4.0766217e-06 0.0016154496 -9.0035544e-05 -4.986653e-07 -4.8366568e-05
0.00024539954 -8.759022e-06 -6.837805e-05 -6.4182714e-05 -0.0003810996 0.0003244558 -2.4646888e-05 -7.729923e-06
-0.0002005425 -9.1687194e-05 0.00027492383 0.00056616106 0.0012592616 3.5240468e-05 -1.49746775e-05 -7.7318355e-06
7.5967178e-06 5.557884e-05 2.4411277e-06 -1.2866534e-05 0.00010827413 0.00023413949 -5.1207116e-05 -4.71362e-06
-0.00015171773 -7.216107e-06 4.5619872e-05 -7.4556236e-05 -2.3172825e-05 1.0336245e-05 -0.00020601987 0.00020693621
-0.0014981903 -6.2717816e-05 3.2905034e-05 3.6807904e-07 -0.0009313278 -2.5277046e-05 -6.302936e-05 -0.00020491438
-0.0017593114 0.0002320666 6.4123647e-06 8.5824495e-06 -0.0018107251 6.4303844e-05 -8.3897504e-07 4.599918e-05
0.00021911967 -4.271534e-05 -8.770749e-05 0.00016845213 0.00018313355 -0.0002695523 -1.8736742e-05 9.375409e-06
1.4457042e-05 9.4276504e-05 4.043997e-05 -0.00037076024 -0.0013862995 -8.585479e-05 2.3600534e-05 -1.7194573e-06
4.2121974e-06 -0.00011553201 -2.0731441e-07 4.3924407e-05 -8.0290796e-08 -0.0005143525 -5.301931e-05 1.1585367e-05
-0.00027369414 8.248433e-06 1.947463e-05 -1.0648751e-05 0.0002765185 0.00011367621 -1.8326573e-05 -0.00018814341
0.00097265915 0.00012978377 7.0568196e-05 -1.7311585e-07 0.00036672904 4.55295e-05 3.7228301e-06 -3.4320128e-05
0.0010983513 5.0683e-05 -4.0652063e-05 -8.108556e-06 0.0011569128 0.00018779335 2.3890916e-06 -3.2725875e-05
-0.00026099486 0.00018886484 -2.8142334e-05 -0.00017938914 -7.156281e-05 5.423798e-05 -2.1405733e-05 -2.4127852e-05
0.00024212191 0.00010659707 -2.0746826e-05 -7.319208e-05 0.00089914864 0.00019586895 4.922523e-07 6.716413e-06
-7.65368e-06 0.00012263919 1.4521233e-07 -3.181574e-05 9.760353e-06 0.00017401415 -2.2106651e-05 -1.0776327e-05
0.00025559624 -1.7328279e-05 -3.334194e-05 0.00012482933 -0.00020018041 -0.00023394573 0.00014675151 7.257779e-05
-0.0005113602 -0.00019644524 9.065527e-05 -3.581615e-06 0.00013686385 -0.00038513346 4.8152415e-05 0.00040521016

exp_avg_sq f4 [6, 12, 4]
00000000: 25ef 9d35 91a2 4634 026b 2337 3d2e a739
00000010: db54 0c35 a8c8 893a ee4b 3439 759c 1f38
00000020: 4203 5e36 f3cd 143a ad24 a839 c651 a632
00000030: fbea 1e36 ea82 e536 9206 ad37 599c 9e3b
00000040: 6a59 9036 76be c639 9937 e436 7cbc 0934
00000050: 813c 9336 77bd f53a cf26 1832 8fce e237
00000060: 12dc b935 edbb d83a 60f1 b33a edb2 2938
00000070: cbf6 e335 a668 7737 3d50 1039 7f9b fc37
00000080: 3c93 d935 ee81 683a 4655 d238 3411 6d3c
00000090: 8db6 2736 f3a9 013b 3108 2036 786f de34
000000a0: c61c 3031 785e f639 a540 e831 0caf b437
000000b0: c796 1235 2572 2a38 a1ad d538 b6a9 e533
000000c0: bd1a 2a38 83fc e735 7eb1 7237 ecd9 dc38
000000d0: 4ae8 de37 bbb4 043c 5dcc 7438 d32d 5337
000000e0: b3de cb3b 0ddf 8e3b 9aa7 0d39 e892 0832
000000f0: d687 aa3a 1293 6338 6cb4 e835 07c2 e03a
00000100: 1f7f 003c 010a 393b b41e 8335 b499 a532
00000110: 7266 0c3c 5567 693c f42a 4631 74ee 2637
00000120: 7db2 bb37 23e6 4f3c 4741 9839 00ae 7937
00000130: da6d 5b39 94e4 db38 3138 b436 58fd 3e37
00000140: 4cd7 9a37 76b0 dc3b 6dd0 3937 585c a83b
00000150: b565 a63b 8a8a 7a3c 10f7 7535 8c24 0d34
00000160: 3838 9032 309c 6f3b 0dd0 1c31 6c82 0337
00000170: c778 1137 dddb b539 0260 e537 c735 ea32
00000180: 5fd9 a638 e835 8d35 c8ad 1037 8a85 1c38
00000190: e9bd 8a38 feb5 7e3b 5285 8338 77cf ce36
000001a0: 219f 473c bb9f 063b 7abe 1a39 4722 2d31
000001b0: 818a 233b 413e ba37 1bca 2437 1244 333a
000001c0: ee3b 773c 4249 913a ae79 2236 d68f 0a33
000001d0: d238 873c 4131 d33b cf11 8131 4b53 7e36
000001e0: 8fda 9438 106b c33b 92c1 003a 22ab f836
000001f0: 18be 043a d56b 8538 a9ad 3638 1a7a 7436
00000200: 6807 8e38 914b 473b bda9 4838 ef71 fe3a
00000210: 740b 223c 1ffe f03b 5de0 2135 18dd 8933
00000220: 0f65 2e33 15cb f03a 659f 1931 1aee 1e36
00000230: 6ab7 1537 f628 8339 0ded cc37 970f 8f32
00000240: 00f6 b837 b732 0735 0cbe 7737 4e61 1939
00000250: fef8 6637 dded 313b 6113 b038 a27d 5237
00000260: 6669 c23a 08c8 bd3a 994e 7237 5a51 3032
00000270: c263 f739 266b 8137 e1c3 0637 4742 e93a
00000280: 9b54 023b 2218 463a ddf9 0636 075a 1d33
00000290: 50be 083b d153 943b 836d 0831 ed44 0f37
000002a0: ffa2 6c37 1638 893b 0695 fa39 d508 5f37
000002b0: 9000 0d38 64cb 0e38 a76e 1238 3730 1437
000002c0: f3ba 3237 4048 0b3b f393 0538 76d9 b13b
000002d0: 4e78 a03a 17d3 a83b e5e5 aa35 307e 5434
000002e0: e943 4832 5665 a73a 6659 bb30 50cc f436
000002f0: 1eaa 5736 b0fd da38 8513 0b37 742c 4733
00000300: da80 0438 edcc 9a34 09e2 1c37 b2f0 2739
00000310: e964 f237 de35 a73a e003 7438 a2ca 6037
00000320: a26e d43a f7a5 2f3a a7e6 2038 3489 3032
00000330: 991e a239 438c 2637 e0cb 0737 4909 013b
00000340: 3327 fd3a 131b dd39 3b6a f735 6ed4 1933
00000350: f4ce 0f3b 3aa9 0f3b a104 2e31 18ea 1d37
00000360: 5914 c037 dc94 003b 4924 dd39 0a03 8937
00000370: 583f b138 4c10 2837 84ac 4138 3b61 2837
00000380: 476a d037 7954 883a 67c1 1338 a0d7 c43b
00000390: 78b0 ae3a eed7 1b3b d784 7b35 0418 5534
000003a0: 83f1 0e32 0ce4 133a 03ef 8e30 a362 0637
000003b0: 3230 4236 f0cb 1338 6ae3 a337 35a4 4033
000003c0: 9219 b538 e5b6 0436 7a44 9537 78f3 5e38
000003d0: e7e0 9d38 351e 2d3c a3eb 2b39 8d36 7536
000003e0: 15b2 463c 3586 bc3b 1195 2339 7611 c531
000003f0: cd90 483b f75e a338 bce2 5037 1359 1f3a
1.1767012e-06 1.8499328e-07 9.740472e-06 0.00031887172 5.2277545e-07 0.0010512071 0.00017194424 3.8054266e-05
3.3082474e-06 0.0005676441 0.00032070783 1.936213e-08 2.3680611e-06 6.8399722e-06 2.0626267e-05 0.0048404154
4.3019436e-06 0.00037907407 6.801402e-06 1.282769e-07 4.387985e-06 0.0018748482 8.8563885e-09 2.7037486e-05
1.3847623e-06 0.0016535498 0.0013728552 4.0459377e-05 1.6984644e-06 1.4746713e-05 0.00013762801 3.011315e-05
1.6210611e-06 0.00088694587 0.00010029464 0.014469434 2.4991198e-06 0.0019785136 2.3846626e-06 4.1431827e-07
2.5627727e-09 0.0004699116 6.759438e-09 2.1539185e-05 5.460865e-07 4.0637464e-05 0.000101889724 1.0694514e-07
4.055606e-05 1.7284332e-06 1.446565e-05 0.000105310086 2.657263e-05 0.00809973 5.836446e-05 1.2587249e-05
0.006221616 0.004360086 0.00013509244 7.9496445e-09 0.0013010453 5.4257987e-05 1.7337857e-06 0.0017147668
0.007842808 0.0028234723 9.769196e-07 1.9278424e-08 0.008569347 0.014245828 2.8837208e-09 9.94989e-06
2.2375252e-05 0.012689146 0.00029040335 1.4882069e-05 0.0002092639 0.0001048531 5.3709596e-06 1.1383869e-05
1.8458486e-05 0.006734903 1.1075387e-05 0.0051379614 0.0050780424 0.015291819 9.1629136e-07 1.3144944e-07
1.6789372e-08 0.00365616 2.281925e-09 7.838575e-06 8.670794e-06 0.0003468682 2.7343634e-05 2.726564e-08
7.955985e-05 1.0521007e-06 8.62353e-06 3.7317666e-05 6.615726e-05 0.00388658 6.2713996e-05 6.1634305e-06
0.012183935 0.0020541984 0.00014757543 2.5194298e-09 0.002495438 2.2201917e-05 9.822218e-06 0.00068384514
0.015089972 0.0011084455 2.4210708e-06 3.2261447e-08 0.016506586 0.0064450805 3.7564187e-09 3.7897432e-06
7.0979e-05 0.0059636906 0.0004911657 7.4108984e-06 0.00050637266 6.3620195e-05 4.3553915e-05 3.6429906e-06
6.772467e-05 0.0030410031 4.7841797e-05 0.0019412617 0.009890426 0.0073545123 6.0303665e-07 6.419776e-08
4.0604444e-08 0.001837107 2.2355036e-09 2.3682428e-06 8.9237965e-06 0.00025016785 2.442908e-05 1.665448e-08
2.2049062e-05 5.036522e-07 1.4766596e-05 0.00014627466 1.3767041e-05 0.0027149834 8.3959436e-05 1.2546227e-05
0.0014832437 0.001447917 1.4442624e-05 1.02630455e-08 0.00047185837 1.5427893e-05 8.032629e-06 0.0017796241
0.0019886855 0.00075566967 2.0112996e-06 3.663629e-08 0.0020865388 0.0045265933 1.9852855e-09 8.539512e-06
1.4104647e-05 0.004187594 0.00047794747 1.3293892e-05 3.3617544e-05 3.404486e-05 3.4912166e-05 8.832713e-06
1.0653154e-05 0.002125278 3.184746e-05 0.0054275347 0.0012242885 0.005152117 1.2732895e-06 1.9789945e-07
1.1656973e-08 0.0012771289 1.3631449e-09 7.2955518e-06 3.2136518e-06 0.00010442303 8.28959e-06 4.6373728e-08
3.1591255e-05 2.8833838e-07 9.3509525e-06 0.00016016027 2.8895638e-05 0.0012757143 5.8177742e-05 1.339862e-05
0.0016207288 0.0006700451 3.8361784e-05 1.0275745e-08 0.00030921845 9.927028e-06 8.094095e-06 0.0019689372
0.001931405 0.00042172577 1.8433851e-06 3.5816292e-08 0.0021943422 0.0021920935 2.5322964e-09 9.412433e-06
2.2897659e-05 0.0019619977 0.0004217944 1.6333088e-05 8.4518164e-05 1.0017375e-05 4.6175453e-05 1.0036219e-05
2.4845021e-05 0.0010401151 3.522765e-05 0.00600715 0.0013327738 0.0023779827 9.3698094e-07 1.9845908e-07
8.320401e-09 0.00056415866 1.0399791e-09 8.009988e-06 2.8936306e-06 3.5237463e-05 1.9537012e-05 4.485283e-08
8.6355154e-05 1.9775991e-06 1.7794071e-05 5.3155673e-05 7.528235e-05 0.010566284 0.00016395612 3.6539598e-06
0.012127419 0.0057533034 0.00015600423 5.7354397e-09 0.0030603886 7.790134e-05 1.2450557e-05 0.0006078642
