MLIPs/CACE-LES/dipep/cace-r-4-nl-2-nu-2/best_model.pth (torch, 298594 bytes, 15 tensors)

embedding_weights f4 [4, 4]
0.25771335 0.29033706 -0.033412784 0.1645009 0.14662659 -0.30894992 -0.46730116 0.5448405
0.16957816 -0.38334334 0.5372075 0.58226484 0.8375108 0.09170208 0.46954912 0.6677027
00000000: 01f3 833e 0fa7 943e d8db 08bd ed72 283e
00000010: 4825 163e af2e 9ebe 1942 efbe ab7a 0b3f
00000020: e6a5 2d3e 9445 c4be 6e86 093f 4f0f 153f
00000030: 1c67 563f 4dce bb3d be68 f03e 90ee 2a3f

embedding_weights f4 [4, 4]
0.113911904 0.39597422 0.013432458 0.06288833 0.06801813 -0.06711712 -0.3717152 0.36299068
0.4134199 -0.059686817 0.33172747 0.27185223 0.36063054 -0.27077138 0.2825598 0.04485558
00000000: a54a e93d 22bd ca3e d013 5c3c 99cb 803d
00000010: 174d 8b3d b374 89bd 7451 bebe ead9 b93e
00000020: c6ab d33e 2a7a 74bd 2fd8 a93e 3730 8b3e
00000030: 91a4 b83e 8ca2 8abe aeab 903e 7cba 373d

bessel_weights f4 [6]
0.42610514 1.4596809 2.2878304 3.200236 4.165666 5.137395
00000000: 742a da3e d3d6 ba3f d06b 1240 abd0 4c40
00000010: 234d 8540 8a65 a440

0 f4 [6, 12, 16]
0.5045887 -0.24060322 0.0070124706 0.65897316 0.6879818 1.6580913 0.4387438 0.35113597
0.8403999 -1.131749 0.6989188 0.74428326 0.17335747 0.038072776 -0.21554844 0.17100778
0.4392115 0.92769283 -0.02969037 0.09737584 0.61311513 0.29637924 1.3009602 0.66002476
0.3459761 -0.04064772 -0.029399866 -0.18924317 0.03315987 0.53063816 -0.0023247667 0.5956702
0.5328951 2.592575 0.7233275 0.112392545 0.93252903 1.5661598 -0.50083387 -0.02344758
-0.25091636 1.7798884 -0.5614457 -0.07502138 -0.019818388 0.26687834 -0.1481671 -0.027867215
-0.000501191 0.66158277 -0.09895839 1.1894748 0.72334856 0.7752418 -1.7216545 0.25756752
-0.05474068 0.38070747 0.013916256 -0.3122586 0.41735983 0.47128797 -0.003263896 0.6118757
0.6309749 1.2371445 -0.0070402045 0.4983588 0.4261786 0.36294004 -0.28930673 -0.84574234
-0.11775051 1.2306772 -0.5679572 -0.4056607 0.45115778 0.003677175 0.050700348 0.033205207
-0.015515284 0.20015086 0.032914463 0.4126407 0.99963206 0.16635944 1.1902659 -0.71718055
-0.017681431 1.4348376 2.9772513 0.29931062 -0.19860078 0.2447234 0.01911785 -0.00077425176
0.07604835 -0.10660253 0.07117994 -0.0333219 0.053193625 0.07928985 -1.1912003 0.24428979
0.3190373 0.2233874 -0.547096 0.95723313 0.99595547 -0.32867756 0.0011466084 1.1607361
-0.023389611 0.60662276 0.014073551 0.6256951 0.30654508 -0.035030887 -0.64136016 0.3035671
-0.12820931 -0.4108858 -0.09261271 0.3519766 0.282249 -0.14446522 -0.006008505 -0.12725656
0.03400099 -0.010347577 0.43434763 0.6553872 0.16919991 0.81277186 -0.13757922 -0.2343832
-0.01174329 2.4770343 0.71200883 0.061568145 0.05044681 0.34946957 0.88279927 0.2028005
-0.5888235 0.1316047 0.61021715 0.019732036 1.3755051 0.5074289 -0.4142232 -0.11708464
-0.30622518 1.2792592 -0.58990943 -0.2673234 -0.005665306 0.08776727 0.70204824 -0.20216382
0.10012679 -0.00012993388 -0.027648022 -0.36406755 -0.2577705 1.1061243 1.3006067 -0.16102438
0.7173779 -0.040617183 1.0175197 0.16215084 0.009357774 0.3933891 0.026411252 -0.48394024
0.0029526204 0.55287826 0.8003242 0.13845496 -0.053280156 -0.17084423 0.45844242 0.5359819
1.7404985 -0.11915896 -0.11431406 -0.084651425 0.2687837 0.012697009 -0.09360827 0.69678605
-0.80571085 0.76196206 0.030368932 -1.4585483 -0.10466187 1.7210844 1.302973 0.2917917
0.3891492 1.0982437 0.5444635 0.60858613 0.47483826 0.843175 0.6544824 0.81508756
0.09646377 -0.123989 0.061727818 0.43081102 -0.24561171 -0.13074361 0.6619881 0.061159078
0.0851569 0.6397645 0.08351863 0.45410034 -0.10043117 1.3405948 0.005852657 0.33058634
-0.41396594 0.6461037 0.51596946 -0.23257807 -0.4372855 1.2088939 0.4076777 0.54049295
1.0313458 -0.4052492 0.89525366 0.24030598 0.04913586 -0.52957255 1.1460025 0.98586965
0.021862859 0.6161106 1.4619595 -0.08575964 0.32806388 -0.42688784 0.33858916 -0.75058144
1.0390376 0.5717428 0.027141007 1.2915084 0.7804523 -0.6577002 -0.0025917045 0.12427024
00000000: ba2c 013f b160 76be dec8 e53b 77b2 283f
00000010: 931f 303f 563c d43f 07a3 e03e 18c8 b33e
00000020: 7324 573f 27dd 90bf 58ec 323f 5989 3e3f
00000030: 9f84 313e 33f2 1b3d bbb8 5cbe aa1c 2f3e
00000040: 54e0 e03e 477d 6d3f 3839 f3bc fc6c c73d
00000050: 1df5 1c3f 05bf 973e dd85 a63f 62f7 283f
00000060: c823 b13e 397e 26bd fdd7 f0bc f6c8 41be
00000070: a5d2 073d e7d7 073f 1d5b 18bb d87d 183f
00000080: d06b 083f c0ec 2540 fe2b 393f 102e e63d
00000090: 39ba 6e3f ed77 c83f a636 00bf 2415 c0bc
000000a0: 1c78 80be 62d3 e33f e8ba 0fbf cfa4 99bd
000000b0: 2c5a a2bc 47a4 883e 1eb9 17be c949 e4bc
000000c0: 5c62 03ba 7d5d 293f b2aa cabd b640 983f
000000d0: 5f2d 393f 3f76 463f 2d5f dcbf e4df 833e
000000e0: c337 60bd 17ec c23e 0201 643c 5ce0 9fbe
000000f0: 30b0 d53e a84c f13e 17e7 55bb e3a3 1c3f
00000100: 9287 213f c05a 9e3f 84b1 e6bb e228 ff3e
00000110: 1534 da3e 47d3 b93e 0320 94be 9282 58bf
00000120: 2e27 f1bd d586 9d3f a565 11bf c2b2 cfbe
00000130: 27fe e63e c2fc 703b 2bab 4f3d 2f02 083d
00000140: d133 7ebc 59f4 4c3e 51d1 063d a445 d33e
00000150: e3e7 7f3f 215a 2a3e a25a 983f 2599 37bf
00000160: a6d8 90bc c2a8 b73f 498b 3e40 3e3f 993e
00000170: 015e 4bbe c598 7a3e 0a9d 9c3c 28f7 4aba
00000180: 3dbf 9b3d 6d52 dabd cac6 913d 8b7c 08bd
00000190: 8fe1 593d b862 a23d 4079 98bf 1a27 7a3e
000001a0: db58 a33e abbf 643e 7c0e 0cbf 3b0d 753f
000001b0: f0f6 7e3f 6d48 a8be cb49 963a 0093 943f
000001c0: 929b bfbc a14b 1b3f c094 663c 8e2d 203f
000001d0: 7af3 9c3e 8c7c 0fbd 2e30 24bf 266d 9b3e
000001e0: 4d49 03be a05f d2be bcab bdbd 4736 b43e
000001f0: f182 903e b1ee 13be fee2 c4bb 8b4f 02be
00000200: 9f44 0b3d e288 29bc d062 de3e 75c7 273f
00000210: be42 2d3e d111 503f 91e1 0cbe 2602 70be
00000220: ee66 40bc bb87 1e40 3646 363f e12e 7c3d
00000230: 50a1 4e3d aded b23e 22ff 613f efaa 4f3e
00000240: 23bd 16bf 62c3 063e 3137 1c3f 14a5 a13c
00000250: 8d10 b03f dce6 013f 1015 d4be 12ca efbd
00000260: 8cc9 9cbe c4be a33f 4e04 17bf 9dde 88be
00000270: 08a4 b9bb 54bf b33d 6fb9 333f 0804 4fbe
00000280: 460f cd3d dc3e 08b9 1b7e e2bc 1067 babe
00000290: 7ffa 83be 7b95 8d3f 487a a63f 93e3 24be
000002a0: 14a6 373f 345e 26bd 163e 823f df0a 263e
000002b0: 5951 193c 4c6a c93e 695c d83c 04c7 f7be
000002c0: c080 413b 6e89 0d3f 0ce2 4c3f 23c7 0d3e
000002d0: 4b3c 5abd caf1 2ebe f7b8 ea3e 1c36 093f
000002e0: a8c8 de3f 9d09 f4bd 7d1d eabd ba5d adbd
000002f0: 049e 893e 1e07 503c b1b5 bfbd 9260 323f
00000300: 1143 4ebf f20f 433f 44c8 f83c b6b1 babf
00000310: f658 d6bd 7e4c dc3f d2c7 a63f b965 953e
00000320: 903e c73e 4093 8c3f f661 0b3f 4dcc 1b3f
00000330: 001e f33e 51da 573f 298c 273f 94a9 503f
00000340: cc8e c53d f2ed fdbd 4fd6 7c3d 4393 dc3e
00000350: a381 7bbe a7e1 05be 0d78 293f f181 7a3d
00000360: be66 ae3d 9bc7 233f d10b ab3d d77f e83e
00000370: dbae cdbd 9c98 ab3f a5c7 bf3b 9d42 a93e
00000380: 58f3 d3be 0d67 253f 9316 043f f228 6ebe
00000390: e3e3 dfbe 09bd 9a3f 22bb d03e bf5d 0a3f
000003a0: 2403 843f d37c cfbe 582f 653f c512 763e
000003b0: af42 493d 1192 07bf 36b0 923f f461 7c3f
000003c0: bd19 b33c 6db9 1d3f 7d21 bb3f c0a2 afbd
000003d0: fdf7 a73e 0b91 dabe 8f5b ad3e 1b26 40bf
000003e0: 2fff 843f bc5d 123f d156 de3c 2650 a53f
000003f0: b9cb 473f 0a5f 28bf 96d9 29bb 6581 fe3d

1 f4 [6, 12, 16]
1.7649747 1.4820586 2.6604714 -1.7165732 -0.25721613 2.9934828 -2.234089 -0.9359684
-1.26734 2.5412927 0.5187347 -0.17200929 0.43767014 -0.57928807 0.6250357 0.04516139
0.14883137 0.31875822 -1.0122839 3.439425 1.3334199 -1.0602924 -0.77352214 1.5404775
2.003197 -0.26435623 0.59028226 0.47387862 0.28656343 0.7303554 0.9109272 -0.11299135
-2.439585 -1.9137937 1.3407638 -1.5529828 0.30639142 0.65320337 -0.035259437 0.7169308
-0.54052335 1.4767959 0.11898937 1.3089515 1.3335963 0.38161972 0.5038466 0.49206117
2.0417268 -0.33147597 1.8354135 -1.3015736 0.19612291 -1.6890923 -0.4962851 2.8396056
-2.481599 1.3147128 -1.5264474 -0.35461885 0.45668426 0.51267326 -1.124498 0.6476928
-0.33980903 2.018423 1.2334508 1.2534068 1.2295616 -0.09193414 -0.6214454 -2.0215542
-0.50737166 1.7314432 1.3381251 1.3793501 1.2656358 0.25972155 1.2311422 -1.551794
1.055034 2.3359587 1.9820735 1.3525703 0.7049619 0.7016093 4.592749 -0.46363226
-2.614066 -0.009056054 1.3538966 0.18161272 -1.6717328 -0.5667862 -2.589725 -1.8886999
3.1689496 0.01835427 1.8542997 1.6556364 1.2063861 0.22613756 0.24734712 0.32424766
-0.8715387 -0.6190008 1.7659249 0.276425 -0.26435974 0.67850125 1.6347041 -0.03419168
0.27719292 2.2975786 3.087841 3.8043995 2.1288154 3.691103 0.36491153 2.299236
-1.7820598 -1.2812288 3.021096 1.4115741 0.8672087 1.2196296 0.7281516 -1.193035
-0.55592024 -0.9327822 2.9089646 2.0201807 1.9139469 -1.1452101 -0.9442513 0.20403457
0.64104044 0.25684777 1.6713113 1.4815253 -0.35183686 0.1236291 -2.0045605 -0.45286858
3.0897813 0.07972975 0.7113942 -2.4285464 -0.11627586 0.6417796 1.8138008 1.7534354
2.743733 3.6182184 -0.19944535 -2.7076628 -0.45713896 -0.7306242 1.0817991 3.050434
-0.45037648 0.3591 2.5942674 1.750969 -0.6449815 -0.13972105 0.71804965 -0.84179986
2.2910807 -0.20520471 -0.35711157 -0.32295913 1.3807943 0.73446035 2.0915363 -0.19889341
-0.86814266 1.6742918 -1.1808431 2.7917385 -0.17971851 1.3933676 1.0166951 2.3142157
0.4267212 -0.3196628 1.2156701 2.3912213 -1.03044 1.0058419 -1.7429845 0.8335943
0.09135502 -0.06752772 1.8056166 -0.26302016 0.5701162 0.9090293 0.69412756 1.1528952
0.58862877 -0.8407737 -0.6526122 1.5246947 -0.24634403 0.3631025 -0.1869793 -0.334618
-0.22570936 0.11026706 -0.3072572 1.016881 0.46019226 0.95098674 1.2159978 -0.1474751
-0.021669533 1.9491088 1.9521109 1.1752173 -0.20506738 0.39985317 2.4912844 2.7244544
-0.2847864 -0.55048305 0.67525876 -1.8789607 0.930821 -0.8592226 1.2044271 0.21302679
2.470793 2.6200657 0.3263109 0.06932086 -0.54009306 1.5832636 0.25277397 0.0978549
2.5770004 1.3372214 0.9576419 -0.14167471 -0.30715656 -0.5817309 -0.05579075 -0.48116365
1.9838859 1.7517197 0.98295623 -0.9478287 2.378637 0.7869852 1.8336858 0.25736538
00000000: b1ea e13f 19b4 bd3f 2a45 2a40 acb8 dbbf
00000010: d5b1 83be 3995 3f40 50fb 0ec0 a09b 6fbf
00000020: 3238 a2bf 8aa4 2240 cccb 043f 3423 30be
00000030: 4d16 e03e 394c 14bf 5702 203f 26fb 383d
00000040: 4067 183e 4734 a33e 8592 81bf 8a1f 5c40
00000050: 81ad aa3f a9b7 87bf 8c05 46bf 5e2e c53f
00000060: 6134 0040 b359 87be bd1c 173f 38a0 f23e
00000070: 71b8 923e 92f8 3a3f 8632 693f 0268 e7bd
00000080: 2922 1cc0 31f7 f4bf 269e ab3f 24c8 c6bf
00000090: 56df 9c3e 5638 273f 336c 10bd c788 373f
000000a0: bd5f 0abf a607 bd3f b3b0 f33d b98b a73f
000000b0: 49b3 aa3f a963 c33e 17fc 003f 71ef fb3e
000000c0: a7ab 0240 38b7 a9be d4ee ea3f f799 a6bf
000000d0: 72d4 483e 2d34 d8bf 1519 febe 19bc 3540
000000e0: 85d2 1ec0 8248 a83f a162 c3bf 9a90 b5be
000000f0: 85d2 e93e 8e3e 033f 8def 8fbf 32cf 253f
00000100: 73fb adbe d82d 0140 b7e1 9d3f a26f a03f
00000110: 4662 9d3f f747 bcbd 0c17 1fbf 2561 01c0
00000120: 1ce3 01bf ee9f dd3f af47 ab3f 8b8e b03f
00000130: 5b00 a23f 39fa 843e 1196 9d3f 30a1 c6bf
00000140: 5b0b 873f 5980 1540 96b4 fd3f 0621 ad3f
00000150: 6278 343f ab9c 333f cdf7 9240 3561 edbe
00000160: db4c 27c0 d85f 14bc 7c4c ad3f aff8 393e
00000170: 57fb d5bf e718 11bf 0ebe 25c0 ebc0 f1bf
00000180: 12d0 4a40 b25b 963c b159 ed3f e5eb d33f
00000190: dc6a 9a3f 9b90 673e 9048 7d3e ca03 a63e
000001a0: 291d 5fbf d676 1ebf d409 e23f 9487 8d3e
000001b0: 295a 87be 42b2 2d3f fc3d d13f 930c 0cbd
000001c0: 3bec 8d3e 870b 1340 309f 4540 487b 7340
000001d0: 833e 0840 083b 6c40 afd5 ba3e af26 1340
000001e0: 891a e4bf 4eff a3bf a359 4140 76ae b43f
000001f0: 6401 5e3f d31c 9c3f 2568 3a3f 5fb5 98bf
00000200: ca50 0ebf d0ca 6ebf 7a2c 3a40 a44a 0140
00000210: 36fc f43f 3f96 92bf 74ba 71bf 70ee 503e
00000220: 3a1b 243f 8d81 833e 87ed d53f 9fa2 bd3f
00000230: f623 b4be 4131 fd3d b84a 00c0 64de e7be
00000240: fabe 4540 5a49 a33d ee1d 363f 4e6d 1bc0
00000250: 0a22 eebd ab4b 243f a02a e83f 9270 e03f
00000260: 5299 2f40 e490 6740 673b 4cbe 594a 2dc0
00000270: 1e0e eabe 300a 3bbf 6578 8a3f 503a 4340
00000280: bf97 e6be f5db b73e 7a08 2640 c11f e03f
00000290: 821d 25bf 0913 0fbe 1ad2 373f 3280 57bf
000002a0: 11a1 1240 2f21 52be 54d7 b6be e65a a5be
000002b0: debd b03f 9805 3c3f bbdb 0540 b7aa 4bbe
000002c0: 993e 5ebf 324f d63f de25 97bf d8ab 3240
000002d0: 2108 38be df59 b23f 1123 823f 1c1c 1440
000002e0: 337b da3e d8aa a3be 149b 9b3f c509 1940
000002f0: 75e5 83bf 6dbf 803f 1e1a dfbf 7066 553f
00000300: 5718 bb3d f94b 8abd 721e e73f 94aa 86be
00000310: 23f3 113f 25b6 683f 58b2 313f 1292 933f
00000320: 60b0 163f f23c 57bf 9811 27bf 3229 c33f
00000330: 9c41 7cbe 92e8 b93e 8077 3fbe 0d53 abbe
00000340: 5b20 67be b2d3 e13d d150 9dbe 2829 823f
00000350: 529e eb3e de73 733f d1a5 9b3f b603 17be
00000360: 4e84 b1bc 667c f93f c5de f93f 856d 963f
00000370: 2ffd 51be 8eb9 cc3e 3471 1f40 765d 2e40
00000380: 86cf 91be 75ec 0cbf c2dd 2c3f c981 f0bf
00000390: 494a 6e3f 03f6 5bbf ab2a 9a3f b223 5a3e
000003a0: 7921 1e40 28af 2740 3912 a73e 18f8 8d3d
000003b0: 8a43 0abf 62a8 ca3f 976b 813e 2668 c83d
000003c0: 93ed 2440 122a ab3f 0528 753f 2d13 11be
000003d0: a043 9dbe 51ec 14bf d784 64bd 155b f6be
000003e0: f9ef fd3f 5a38 e03f 05a3 7b3f e7a4 72bf
000003f0: 973b 1840 dd77 493f 37b6 ea3f 65c5 833e

2 f4 [6, 12, 16]
-0.13962346 -0.043728035 0.4393751 0.57066387 0.1695392 2.1934936 0.47613353 -0.8828098
0.5295543 0.75041276 2.48235 -0.45733094 0.41907713 0.46252412 -1.4690964 -0.1501484
0.2332294 1.2297367 1.3482598 0.7398725 -0.73567754 -0.6448435 -0.195994 0.9358147
1.8289245 2.3354442 1.9940021 -0.13874651 -0.37503427 -0.8298654 0.5421306 0.5418433
0.3526324 0.32157207 1.1492158 0.3786082 -0.559424 -1.3639022 -0.3034188 -0.13348748
1.5946068 0.93571556 2.3067071 0.8766898 0.7111102 1.047211 0.8990701 0.2578658
0.07704569 -0.06076705 1.0914266 0.033528548 1.1105851 0.5995406 1.1894829 3.1333535
0.9669029 -0.5473877 1.3362075 0.15770221 -0.25017762 1.0839099 -0.13301897 0.85216457
1.263908 0.21803227 -0.6483667 0.0969078 2.654338 -0.3365076 0.15160854 0.40833583
-0.4928972 1.467682 2.026426 2.465147 0.3672728 0.5068875 1.1465241 -0.4915098
0.7894056 1.0189157 -0.10369804 -0.056678932 1.5789448 0.34280747 1.6982728 -0.77208453
1.6093262 0.50835663 1.4523487 0.6335028 0.7613412 0.13712446 -0.58311117 0.6471885
0.56517273 0.45570457 -0.87201655 -0.7847451 2.4086828 -0.3562507 -0.7779065 -2.0994508
-1.9040406 0.973784 -0.15114866 1.8306429 -0.7124941 0.4012249 0.36920002 0.6271971
-0.025225757 0.7900191 -0.37499478 1.1218516 1.615727 0.4966072 -0.7680174 1.6062849
2.2297587 1.3827846 -0.41681984 -0.57031465 0.20556751 0.53403854 0.73795116 0.4076096
0.24080813 0.19934513 1.6031805 0.83988124 0.822431 -0.45799056 1.765371 0.5383711
2.3453257 0.8827811 0.15206796 0.6389249 0.09723338 0.4338631 -0.44331652 -0.55775654
0.3596673 -0.35696977 0.6103506 0.4844732 0.32577252 0.18816914 0.7858301 -0.4442357
0.79681873 0.6221076 0.2468873 0.7628844 1.3813351 1.6883775 0.99961764 0.9469865
-0.0527366 -0.2772854 1.1027668 0.30198234 -0.12862414 0.27885985 0.11079694 1.2883326
-1.2472023 -0.22743192 -0.83396894 1.3656708 0.8565871 0.61698365 -1.071896 -0.49869797
0.16686174 0.11904894 -0.9087529 0.8106394 -1.5573672 1.674848 2.2321386 -1.0043206
0.782783 1.4945384 -0.27967668 2.1071556 1.0785456 0.13438897 0.59556884 -0.7872405
2.7893848 1.7778947 0.10912719 0.6980423 1.1276336 0.28943655 0.011279182 1.3402064
0.72960955 1.3880969 1.9135702 0.4339659 1.9656358 -0.018929228 0.27101648 0.19747394
-1.4988921 1.3140354 -0.45111847 -0.014640218 0.6443769 -1.0392 1.0778229 0.5125693
-0.5569982 0.016293414 -0.4126942 -0.04800057 2.5108607 -1.9087923 1.1782371 1.6804183
0.1974954 0.6859556 -0.83414817 0.887935 -0.21272473 0.90041566 1.9798179 0.53606457
-0.23239088 0.83959144 0.9135534 -0.057850584 -0.10676805 -0.049762547 0.19819096 0.88662
2.8787482 -0.018618727 0.14583445 1.3716233 0.34060365 -1.5922946 0.38855794 3.0739913
0.2756308 0.61088383 1.7992021 1.0685279 0.6349265 -1.1242174 0.80311793 -0.3488208
00000000: 74f9 0ebe 2b1c 33bd c6f5 e03e 0717 123f
00000010: af9b 2d3e 3362 0c40 c6c7 f33e d3ff 61bf
00000020: df90 073f 0d1b 403f d3de 1e40 4827 eabe
00000030: 4791 d63e f6cf ec3e 5a0b bcbf 81c0 19be
00000040: b0d3 6e3e 0368 9d3f c793 ac3f 4968 3d3f
00000050: 5d55 3cbf 7714 25bf a7b2 48be 8d91 6f3f
00000060: 331a ea3f eb77 1540 763b ff3f 9113 0ebe
00000070: 7e04 c0be 0f72 54bf 12c9 0a3f 3eb6 0a3f
00000080: 3c8c b43e 18a5 a43e 8119 933f efd8 c13e
00000090: 6936 0fbf 5994 aebf b559 9bbe f1b0 08be
000000a0: 131c cc3f 0e8b 6f3f 17a1 1340 be6e 603f
000000b0: 510b 363f 030b 863f 7529 663f fc06 843e
000000c0: 21ca 9d3d dfe6 78bd deb3 8b3f 3b55 093d
000000d0: a727 8e3f 7e7b 193f fa40 983f dd88 4840
000000e0: f386 773f 9a21 0cbf d908 ab3f b07c 213e
000000f0: 4817 80be 8fbd 8a3f 2036 08be 7527 5a3f
00000100: bdc7 a13f da43 5f3e 5cfb 25bf 9977 c63d
00000110: ace0 2940 b94a acbe 453f 1b3e 6511 d13e
00000120: 065d fcbe 01dd bb3f f7b0 0140 f8c4 1d40
00000130: 2e0b bc3e 61c3 013f 4dc1 923f 2ca7 fbbe
00000140: 7c16 4a3f d46b 823f a35f d4bd 2b28 68bd
00000150: dd1a ca3f 7684 af3e 0161 d93f 55a7 45bf
00000160: 67fe cd3f a923 023f 90e6 b93f 3d2d 223f
00000170: 42e7 423f 5b6a 0c3e c646 15bf 25ae 253f
00000180: 29af 103f 1c52 e93e 7a3c 5fbf 0ee5 48bf
00000190: dc27 1a40 7e66 b6be e124 47bf 675d 06c0
000001a0: 9ab7 f3bf e949 793f b7c6 1abe 8252 ea3f
000001b0: 0366 36bf 5a6d cd3e c907 bd3e fd8f 203f
000001c0: 3fa6 cebc b13e 4a3f 51ff bfbe d598 8f3f
000001d0: 24d0 ce3f 4d43 fe3e ca9c 44bf be9a cd3f
000001e0: 5eb4 0e40 16ff b03f 6969 d5be 2400 12bf
000001f0: 4a80 523e c0b6 083f 5eea 3c3f 35b2 d03e
00000200: 6896 763e 2121 4c3e 0535 cd3f 7502 573f
00000210: d78a 523f bd7d eabe adf7 e13f b0d2 093f
00000220: d119 1640 f1fd 613f b4b7 1b3e 9590 233f
00000230: 4b22 c73d 4e23 de3e 62fa e2be 22c9 0ebf
00000240: 5026 b83e bec4 b6be f03f 1c3f df0c f83e
00000250: a8cb a63e 69af 403e 292c 493f dd72 e3be
00000260: 50fc 4b3f 7242 1f3f 06d0 7c3e 644c 433f
00000270: 97cf b03f c11c d83f f1e6 7f3f b56d 723f
00000280: 5502 58bd 5af8 8dbe 7627 8d3f 6e9d 9a3e
00000290: 0cb6 03be b8c6 8e3e 82e9 e23d 15e8 a43f
000002a0: 53a4 9fbf eae3 68be fd7e 55bf 4dce ae3f
000002b0: 4b49 5b3f a4f2 1d3f e333 89bf 5755 ffbe
000002c0: cedd 2a3e eecf f33d 08a4 68bf 1086 4f3f
000002d0: cf57 c7bf 6b61 d63f 5cdb 0e40 948d 80bf
000002e0: 7764 483f 094d bf3f c831 8fbe a3db 0640
000002f0: c80d 8a3f 439d 093e 3377 183f 9888 49bf
00000300: 4885 3240 0e92 e33f 147e df3d e6b2 323f
00000310: 4c56 903f 0731 943e 51cc 383c e28b ab3f
00000320: b1c7 3a3f 29ad b13f deef f43f c730 de3e
00000330: f499 fb3f 7811 9bbc acc2 8a3e 9c36 4a3e
00000340: b2db bfbf 5032 a83f 00f9 e6be 86dd 6fbc
00000350: e2f5 243f 8104 85bf 1af6 893f be37 033f
00000360: 6f97 0ebf c479 853c a74c d3be 3f9c 44bd
00000370: f1b1 2040 4e53 f4bf 79d0 963f f217 d73f
00000380: 3c3c 4a3e c99a 2f3f bc8a 55bf b54f 633f
00000390: 83d4 59be a481 663f ac6a fd3f 873b 093f
000003a0: e0f7 6dbe 77ef 563f a3de 693f bcf4 6cbd
000003b0: 35a9 dabd d0d3 4bbd 92f2 4a3e 87f9 623f
000003c0: 693d 3840 4d86 98bc a055 153e 5a91 af3f
000003d0: 9a63 ae3e 4fd0 cbbf 11f1 c63e 46bc 4440
000003e0: 7b1f 8d3e e262 1c3f 414c e63f 86c5 883f
000003f0: 8b8a 223f 5be6 8fbf 2399 4d3f a498 b2be

l_matrix f4 [3, 10]
1.0 0.0 0.0 0.0 0.0 0.0 0.0 0.0
0.0 0.0 0.0 1.0 1.0 1.0 0.0 0.0
0.0 0.0 0.0 0.0 0.0 0.0 0.0 0.0
1.0 1.0 1.0 1.0 1.0 1.0
00000000: 0000 803f 0000 0000 0000 0000 0000 0000
00000010: 0000 0000 0000 0000 0000 0000 0000 0000
00000020: 0000 0000 0000 0000 0000 0000 0000 803f
00000030: 0000 803f 0000 803f 0000 0000 0000 0000
00000040: 0000 0000 0000 0000 0000 0000 0000 0000
00000050: 0000 0000 0000 0000 0000 0000 0000 0000
00000060: 0000 803f 0000 803f 0000 803f 0000 803f
00000070: 0000 803f 0000 803f

weight f4 [48, 576]
0.14848527 0.11115876 -0.011595836 -0.3771154 -0.75298905 0.12215845 0.90418684 -0.9825721
0.12497277 -1.2516669 -0.6192975 -0.2187476 0.41279104 0.45703995 -0.59857786 -0.16877306
0.7611702 -0.9125904 0.43668318 -0.50617266 0.0782181 -0.016111888 1.0204256 -0.08860889
1.574477 -1.4306178 0.14979447 1.6029924 -1.6082574 0.58709073 0.5659 -0.40052015
0.28524768 -1.2895788 -0.4299754 -0.48888445 0.030009417 1.2808448 0.17895468 0.23636483
0.31620702 -0.16606 -0.06318804 -0.13933338 -0.5201467 0.4959202 0.7282554 0.53266096
0.8200088 -0.00926708 -0.01389671 0.6250662 0.552715 -0.9332424 -0.14907572 1.1724766
0.6143804 -1.1697506 0.3225461 0.26744458 0.04012996 0.21304484 0.06616823 0.4830564
0.1009241 -2.2814214 -0.48286507 0.0028622255 0.10639868 -2.0795908 2.1694977 -0.4547514
-0.54746914 0.58387536 0.6713642 1.417523 0.47045407 1.5605794 -0.2836548 -1.9461265
-0.3961058 0.46698123 -0.9857393 -0.32837275 -0.1835614 -0.9315794 0.82283384 0.43140662
-1.0516587 -0.030262806 -0.60107994 0.928513 0.123352274 -0.051855706 -0.6826385 0.02796426
0.3184057 0.09090501 0.3710086 -0.21495093 0.8562911 0.12526713 -0.13713494 1.2296461
0.35561028 0.24659033 -0.6117759 0.10314996 -0.039586466 0.089807995 -0.4763506 -0.12368179
-0.3705911 -1.0437512 -0.4219728 0.60221696 0.31018555 -0.3395475 0.95829844 0.329991
0.099837594 -0.82848066 0.26306424 0.58693355 -0.013996401 -0.11786252 -0.18063648 0.15632951
0.6400475 1.0331929 -0.17518099 -0.5908339 -0.1836566 -0.70329 -0.2878188 0.08317989
-1.3612981 -1.2931993 0.2693521 0.5190502 -0.69560945 -0.43760177 -2.3573706 0.924205
0.00947696 0.5008377 0.17295682 -0.5096985 0.23872195 -0.23769684 -0.42577758 0.6718064
-0.3066769 -0.6544787 -0.06590881 0.08823684 0.6874617 -0.16334514 -0.012213129 0.038703494
0.5163266 0.35942498 0.1320298 0.24696305 0.8463521 0.18240269 1.0105846 0.6237429
-1.7983268 0.9981343 0.18226264 -1.4906547 -0.6452121 0.67595047 -0.6844836 -2.5992115
1.2080663 -1.2075964 -0.14143464 -0.8716679 -0.110421225 -0.2770484 0.69795895 -0.27912188
1.7723974 -0.30207685 0.1636263 0.9482245 -0.23993014 -1.5477961 0.1827963 -0.21897621
0.8107775 0.4170904 0.01672601 0.22000757 1.668289 0.39955342 0.3278135 -0.0787345
0.20496468 -0.74076325 0.014160459 -1.0178288 0.7031298 0.05277015 0.2381893 0.68502104
-0.13574712 -1.7084124 0.06507437 -1.5618148 1.9727198 -1.2121179 -0.24322326 -0.1204579
0.8708568 0.35715702 -0.28841132 2.1063774 0.22819923 0.67732435 -2.5772207 0.027912302
0.93592906 -0.7380237 0.25347507 -1.7853498 -0.2594159 -0.8991624 -0.20626117 -0.18143255
-0.82941127 1.2931316 -0.41530472 0.5615988 0.810407 -0.11111865 -0.03430619 -1.3307636
-0.05252723 -0.23179182 -0.14898127 -0.4265468 -0.3023887 -0.545293 -0.7312427 1.4253001
-0.10201468 -0.8256488 0.32874045 -0.47430867 -0.02635061 0.5091424 -0.02231556 0.068800285
00000000: 860c 183e 34a7 e33d 76fc 3dbc 4515 c1be
00000010: e4c3 40bf 362e fa3d ca78 673f d889 7bbf
00000020: b9f1 ff3d 9f36 a0bf 488a 1ebf 5fff 5fbe
00000030: 5959 d33e 2401 ea3e 663c 19bf d8d2 2cbe
00000040: 0ddc 423f 869f 69bf f094 df3e 8894 01bf
00000050: d030 a03d 14fd 83bc 4e9d 823f 9478 b5bd
00000060: 7688 c93f 7c1e b7bf b963 193e db2e cd3f
00000070: 61db cdbf 944b 163f d3de 103f fa10 cdbe
00000080: fc0b 923e eb10 a5bf bc25 dcbe 104f fabe
00000090: 4fd6 f53c b9f2 a33f e53f 373e 9f09 723e
000000a0: e3e5 a13e a20b 2abe bb68 81bd 69ad 0ebe
000000b0: 5628 05bf 41e9 fd3e f26e 3a3f 785c 083f
000000c0: 19ec 513f f3d4 17bc 07af 63bc 5704 203f
000000d0: bb7e 0d3f f9e8 6ebf 4ea7 18be b713 963f
000000e0: 0948 1d3f 63ba 95bf c324 a53e 7fee 883e
000000f0: 505f 243d 6d28 5a3e 3583 873d 2b53 f73e
00000100: 4bb1 ce3d cf02 12c0 173a f7be 2d94 3b3b
00000110: 8de7 d93d 0418 05c0 0dd9 0a40 2dd5 e8be
00000120: f026 0cbf db78 153f 86de 2b3f 6571 b53f
00000130: 5bdf f03e 11c1 c73f 343b 91be ac1a f9bf
00000140: 61ce cabe 2a18 ef3e 6959 7cbf 7920 a8be
00000150: 85f7 3bbe fd7b 6ebf 3da5 523f 54e1 dc3e
00000160: c19c 86bf b4e9 f7bc 60e0 19bf 07b3 6d3f
00000170: 1ea0 fc3d a666 54bd 66c1 2ebf 4e15 e53c
00000180: 1206 a33e 682c ba3d d7f4 bd3e 191c 5cbe
00000190: e535 5b3f 0746 003e 1a6d 0cbe 0b65 9d3f
000001a0: 8d12 b63e 2d82 7c3e 589d 1cbf 4940 d33d
000001b0: 6b25 22bd 41ed b73d 3ae4 f3be e14c fdbd
000001c0: 1ebe bdbe a499 85bf d20c d8be e42a 1a3f
000001d0: a4d0 9e3e 2bd9 adbe 0c53 753f 95f4 a83e
000001e0: a777 cc3d 4f17 54bf 5bb0 863e 4741 163f
000001f0: 2951 65bc e861 f1bd c5f8 38be d814 203e
00000200: 27da 233f aa3f 843f a562 33be e440 17bf
00000210: 7a10 3cbe d00a 34bf fc5c 93be 385a aa3d
00000220: 043f aebf 8e87 a5bf 85e8 893e 79e0 043f
00000230: 7613 32bf 570d e0be 29df 16c0 b398 6c3f
00000240: 4045 1b3c e636 003f 981b 313e 9a7b 02bf
00000250: 8773 743e cd66 73be 85ff d9be 81fb 2b3f
00000260: c104 9dbe eb8b 27bf 33fb 86bd 84b5 b43d
00000270: 7dfd 2f3f f343 27be 9319 48bc 8e87 1e3d
00000280: fb2d 043f 8d06 b83e d232 073e e2e3 7c3e
00000290: 88aa 583f c5c7 3a3e d65a 813f 9dad 1f3f
000002a0: 932f e6bf bb85 7f3f 0fa3 3a3e c6cd bebf
000002b0: 9f2c 25bf 170b 2d3f 513a 2fbf 7b59 26c0
000002c0: eba1 9a3f 8592 9abf 3ed4 10be a125 5fbf
000002d0: 8624 e2bd 4ad9 8dbe 70ad 323f 10e9 8ebe
000002e0: ebdd e23f d1a9 9abe a78d 273e d7be 723f
000002f0: 3fb0 75be 2f1e c6bf f42e 3b3e 4d3b 60be
00000300: 1d8f 4f3f df8c d53e fc04 893c aa49 613e
00000310: 7e8a d53f 4492 cc3e 2cd7 a73e 8e3f a1bd
00000320: 43e2 513e a9a2 3dbf 4501 683c 3748 82bf
00000330: 5100 343f 8325 583d e5e7 733e 8a5d 2f3f
00000340: 4b01 0bbe 42ad dabf b645 853d 8ce9 c7bf
00000350: 1582 fc3f ae26 9bbf 850f 79be a2b2 f6bd
00000360: 79f0 5e3f 49dd b63e a6aa 93be e3ce 0640
00000370: 0fad 693e 2165 2d3f 2ff1 24c0 57a8 e43c
00000380: 0c99 6f3f 1fef 3cbf 7cc7 813e 5886 e4bf
00000390: 29d2 84be 822f 66bf 2136 53be 74c9 39be
000003a0: 4c54 54bf 5685 a53f d2a2 d4be f0c4 0f3f
000003b0: d576 4f3f 2d92 e3bd a684 0cbd 7656 aabf
000003c0: cb26 57bd d65a 6dbe 8c8e 18be 5864 dabe
000003d0: b1d2 9abe 5298 0bbf b932 3bbf 3c70 b63f
000003e0: 13ed d0bd b85d 53bf ab50 a83e 96d8 f2be
000003f0: 3cdd d7bc 2857 023f 1fcf b6bc 2ae7 8c3d

bias f4 [48]
0.116142586 0.22410245 0.21848482 -0.15970606 0.32229087 0.15820304 0.29818198 -0.2505638
-0.03848947 -0.028199442 -0.23555912 0.24299964 -0.39590257 0.45909673 -0.3508911 -0.3785345
-0.07142866 -0.36488903 1.3188246 0.2914368 0.43581352 -0.41585395 -0.5414567 -0.8315435
0.21199116 0.12419746 0.047465615 0.17621036 0.28768972 -0.5683999 -0.23529409 1.0788522
0.6912916 -0.39394146 0.4651769 -0.40925705 0.29027098 -0.4689532 0.10783572 0.40673003
-0.031573214 0.5427928 0.07862496 0.27624825 -1.1602505 0.065237105 0.12847422 0.2973339
00000000: 2adc ed3d 1d7b 653e 7cba 5f3e fc89 23be
00000010: 4f03 a53e faff 213e 4fab 983e e649 80be
00000020: 22a7 1dbd 8402 e7bc 6936 71be e6d4 783e
00000030: beb3 cabe ba0e eb3e 00a8 b3be 46cf c1be
00000040: 3049 92bd bcd2 babe 3fcf a83f 3437 953e
00000050: f322 df3e cfea d4be e89c 0abf 09e0 54bf
00000060: 3614 593e 3d5b fe3d 4e6b 423d 7d70 343e
00000070: 114c 933e a882 11bf eff0 70be d417 8a3f
00000080: 7cf8 303f b2b2 c9be ab2b ee3e 248a d1be
00000090: 669e 943e a21a f0be f9d8 dc3d eb3e d03e
000000a0: ea52 01bd 78f4 0a3f 1f06 a13d 6970 8d3e
000000b0: 1783 94bf 089b 853d bf8e 033e 263c 983e

weight f4 [32, 1152]
-0.0057309153 -0.2097283 -0.14696154 -0.6215336 -0.17356788 -0.17880917 -0.842404 -1.4325277
-0.5552823 -0.45879796 1.0960958 1.1594036 -1.0604802 0.83503544 -0.9135476 -2.4772825
0.2728289 -0.5735423 -1.689503 -0.364493 -0.0434927 -0.5708544 0.5932476 -1.2396476
0.17490357 0.5528906 0.24953198 0.2856892 0.012549093 -0.10996166 0.069967456 0.22810788
0.25098833 1.3744181 -0.7496689 1.4943731 0.15511414 -1.4820065 0.2603961 0.89125425
-0.484689 -0.62033314 -0.38337064 -0.23506832 -1.1585506 2.2124577 -0.5491063 0.009337809
-0.61208797 -1.4156531 0.53841656 4.099678 -1.3177809 0.38965088 1.2773645 0.725649
-0.7296141 0.79649013 -0.77514386 2.261723 -0.25356415 1.4436611 -0.60120445 2.555603
-0.023951026 -0.5435331 1.3238072 -0.56360525 -0.040308632 -0.7637072 -0.62272763 0.6854401
-0.7894053 -0.08191867 -0.26830283 2.5305166 -0.55330235 -0.0036728124 -0.17155229 -0.18014678
-0.189058 -0.5265368 -0.40317693 0.06183666 0.13411076 0.085277274 -0.1858417 0.20802666
-0.07509456 0.0033690426 -0.79411364 -1.0526447 -1.3260098 -0.6049707 0.69429845 -0.034061603
0.71999526 -1.5462692 0.08698783 0.9508104 0.25427186 0.587602 0.49269146 0.34160486
0.23629726 0.04484245 -1.1559834 -0.6159638 -0.069601625 -0.27753723 0.1738947 1.7753657
0.7500988 0.74788797 -0.28293547 -0.8878023 -0.12428089 -0.35897765 -0.94187975 1.4840313
-0.0447607 0.11371274 -1.1733773 0.7580676 0.096035406 0.5024873 -0.015653057 0.83445257
-1.891809 -0.2693788 0.41750702 2.5376885 0.14545046 -1.2609469 0.8524814 0.64268875
-0.46262747 -1.574377 -1.1066704 0.23076059 -0.9876266 4.496677 0.87603265 0.17497782
0.89488685 -2.0273154 0.20785485 -0.92479765 -0.52615136 1.7057651 -0.749868 -3.8883555
-1.1272898 -1.3269237 0.20813304 0.4767684 0.84035116 1.5937086 -0.53258693 -1.2269205
-1.2473301 0.91568106 0.94943666 0.5777493 1.1221089 -2.1693795 1.4321046 1.1805754
-0.122020006 0.782674 -0.13505372 0.4449097 -0.73043615 0.8883828 -0.75662816 2.3579247
-0.34175897 -0.89387715 1.3021436 1.2723825 1.6040767 1.3664434 -0.44726425 -0.2940808
-0.47448117 2.22999 -0.44212314 -0.5993933 -1.3611302 -2.6383688 0.10602794 1.405562
0.53539014 -0.6926414 -0.20005779 0.86886173 -0.32786217 0.13230546 0.28024164 -0.61154246
0.13951202 0.63157374 0.65830386 0.6440667 0.11015969 0.8050324 0.38011965 0.687905
0.6411051 1.3956761 0.24834603 -0.053772576 0.6085149 0.1788662 -0.8490927 1.4739355
0.04368782 0.20491953 -1.4318393 0.5313691 0.59715825 0.73606384 0.47283348 0.6075022
0.38823122 1.129955 0.5790597 -0.37202418 -0.44172916 -0.20685321 -1.4347014 -2.008352
-1.4955572 -0.010782192 -0.29109466 0.486728 -0.7352018 0.39966536 -0.25111127 0.14700702
1.4221361 0.19053651 -1.8390843 1.0902736 -1.2192823 0.5670215 -0.7494905 -1.3847697
0.49771124 -0.95595396 -0.39981568 -1.1779795 -0.32556477 1.458771 0.1000252 0.8790272
00000000: 67ca bbbb 04c3 56be 167d 16be d31c 1fbf
00000010: c7bb 31be c019 37be caa7 57bf 115d b7bf
00000020: fb26 0ebf 91e7 eabe de4c 8c3f 5667 943f
00000030: d1bd 87bf e2c4 553f 41de 69bf cc8b 1ec0
00000040: 3bb0 8b3e abd3 12bf a241 d8bf d49e babe
00000050: 6725 32bd 8423 12bf 13df 173f c6ac 9ebf
00000060: ec19 333e 3d8a 0d3f 5085 7f3e db45 923e
00000070: b69a 4d3c 9433 e1bd 194b 8f3d 1d95 693e
00000080: 8b81 803e efec af3f 4dea 3fbf 9e47 bf3f
00000090: 3ed6 1e3e 64b2 bdbf a352 853e 3d29 643f
000000a0: 2829 f8be 27ce 1ebf 2849 c4be c0b5 70be
000000b0: 634b 94bf e898 0d40 3b92 0cbf 9cfd 183c
000000c0: ccb1 1cbf 1f34 b5bf abd5 093f 9030 8340
000000d0: 0bad a8bf 5280 c73e ae80 a33f 22c4 393f
000000e0: fdc7 3abf c7e6 4b3f d46f 46bf 12c0 1040
000000f0: 29d3 81be e3c9 b83f 89e8 19bf 008f 2340
00000100: f134 c4bc fc24 0bbf 8472 a93f 6f48 10bf
00000110: aa1a 25bd 5182 43bf 146b 1fbf 0179 2f3f
00000120: 7716 4abf fac4 a7bd fd5e 89be fcf3 2140
00000130: 39a5 0dbf 91b3 70bb 67ab 2fbe 6678 38be
00000140: 6c98 41be 1ecb 06bf 356d cebe 7048 7d3d
00000150: 5554 093e daa5 ae3d 494d 3ebe f104 553e
00000160: 2dcb 99bd 28cb 5c3b 084b 4bbf 10bd 86bf
00000170: b0ba a9bf 5cdf 1abf 8bbd 313f 2e84 0bbd
00000180: 9c51 383f 26ec c5bf ad26 b23d 4f68 733f
00000190: ec2f 823e 166d 163f 0e42 fc3e d5e6 ae3e
000001a0: e9f7 713e b8ac 373d 44f7 93bf ceaf 1dbf
000001b0: 4c8b 8ebd 5c19 8ebe 7411 323e 2f3f e33f
000001c0: 7a06 403f 9675 3f3f ebdc 90be 0347 63bf
000001d0: fb86 febd ebcb b7be 081f 71bf bdf4 bd3f
000001e0: ff56 37bd 3ae2 e83d 3a31 96bf b810 423f
000001f0: 36ae c43d 02a3 003f d73a 80bc af9e 553f
00000200: cc26 f2bf 05ec 89be 7bc3 d53e 7d69 2240
00000210: f7f0 143e b566 a1bf 393c 5a3f 4087 243f
00000220: 82dd ecbe 2f85 c9bf 60a7 8dbf 814c 6c3e
00000230: 19d5 7cbf c7e4 8f40 ad43 603f 632d 333e
00000240: 4e17 653f 89bf 01c0 e7d7 543e 8abf 6cbf
00000250: dbb1 06bf 8356 da3f 59f7 3fbf d1da 78c0
00000260: 084b 90bf a3d8 a9bf d420 553e fd1a f43e
00000270: 4121 573f a5fe cb3f 9e57 08bf bb0b 9dbf
00000280: 83a8 9fbf 136a 6a3f 480e 733f 61e7 133f
00000290: 44a1 8f3f 1dd7 0ac0 344f b73f 181d 973f
000002a0: a0e5 f9bd 535d 483f 864b 0abe 34cb e33e
000002b0: ddfd 3abf 0e6d 633f 62b2 41bf 3de8 1640
000002c0: 08fb aebe 22d5 64bf a4ac a63f 6edd a23f
000002d0: 6352 cd3f 9ee7 ae3f d2ff e4be c291 96be
000002e0: 32ef f2be 28b8 0e40 f75d e2be d771 19bf
000002f0: 8439 aebf 09db 28c0 2d25 d93d 75e9 b33f
00000300: 540f 093f f250 31bf f3db 4cbe b96d 5e3f
00000310: 8ddd a7be 157b 073e d57b 8f3e 0c8e 1cbf
00000320: 3ddc 0e3e d1ae 213f 9a86 283f 8ee1 243f
00000330: 679b e13d 9a16 4e3f 0b9f c23e 8b1a 303f
00000340: 771f 243f 84a5 b23f 6c4e 7e3e a240 5cbd
00000350: a2c7 1b3f b328 373e 245e 59bf eba9 bc3f
00000360: 00f2 323d 6dd6 513e 8346 b7bf ce07 083f
00000370: 5ddf 183f ae6e 3c3f 3b17 f23e 4485 1b3f
00000380: 3ec6 c63e 5ea2 903f 423d 143f f479 bebe
00000390: 532a e2be 54d1 53be 4ca4 b7bf d788 00c0
000003a0: 6b6e bfbf cba7 30bc 5c0a 95be 6a34 f93e
000003b0: 2f36 3cbf f0a0 cc3e a891 80be 0289 163e
000003c0: 8e08 b63f 011c 433e 1d67 ebbf 168e 8b3f
000003d0: 7111 9cbf 5228 113f 9cde 3fbf 2240 b1bf
000003e0: 02d4 fe3e 66b9 74bf a4b4 ccbe 08c8 96bf
000003f0: 6db0 a6be 02b9 ba3f 03da cc3d ed07 613f

bias f4 [32]
-1.2961137 -1.4725676 -0.68394816 -0.36691514 -0.28918982 -0.51300937 -0.63396025 -0.46188596
-1.4624541 -0.06305887 -0.80943054 -1.2976131 -0.732353 -0.550513 -0.84789807 -1.3341163
-1.5135688 -0.70976925 -1.0101883 -1.2042731 -0.16315429 -0.0799795 -0.94305056 -1.2335496
-0.6015455 -0.16035472 -0.67728364 -0.5408113 -1.2699301 -0.36679915 -0.83735794 -1.3158791
00000000: 0ee7 a5bf 187d bcbf 3a17 2fbf 4ddc bbbe
00000010: b010 94be 9554 03bf 384b 22bf 517c ecbe
00000020: b231 bbbf 0225 81bd d736 4fbf 3018 a6bf
00000030: 7c7b 3bbf 6cee 0cbf d90f 59bf 53c4 aabf
00000040: 9fbc c1bf 70b3 35bf da4d 81bf 9f25 9abf
00000050: eb11 27be 4bcc a3bd c36b 71bf f4e4 9dbf
00000060: e3fe 19bf 0734 24be 7662 2dbf 9c72 0abf
00000070: 128d a2bf 19cd bbbe 175d 56bf ba6e a8bf

weight f4 [16, 32]
-0.37379894 0.7235114 0.1830631 -0.19317356 -0.14302583 -0.2881006 0.3474075 -0.5242921
-0.12124946 -0.3941249 0.35981476 0.12775394 -0.2109041 -0.21572177 -0.029521784 0.65415615
-0.42608458 -0.6986142 -0.1814778 -0.09920885 0.08625009 -0.025005424 -0.2871288 -0.08940486
-0.10381316 -0.42826083 -0.1688572 -0.22956908 0.7128646 -0.4270747 0.23466197 0.3389216
-0.070862465 -0.38669452 1.3320984 -0.43294728 0.5820246 -0.19134352 1.07045 0.8319721
-0.44120517 -0.013859062 -0.36495355 0.5741395 -0.54187965 0.85126686 0.08541303 2.4584785
-0.75278693 0.25696847 0.27009085 1.555091 -0.7128752 -0.19069864 2.0930963 -0.09052401
-0.36698222 -0.008763776 -0.3683001 -0.38906488 0.24067086 -0.46299782 0.15449885 -0.48035353
0.6053839 0.49600878 1.0414711 -0.73178476 0.5440197 -0.075606525 -0.0093993815 -0.6969131
-0.1678486 -1.3257606 -1.1026801 -0.4866018 0.5492485 -0.1055164 -0.8177612 0.41299456
0.908436 0.41365188 -0.5483039 0.5228061 0.036326535 -0.2456642 -0.36205998 -0.091662176
-0.29207638 -0.4995333 -0.41921055 -0.9673758 1.6410838 -0.94365376 1.1568586 -0.72635514
1.4782611 1.0300353 -0.534371 0.31625494 -0.34100717 0.33475125 -0.34845948 0.5035741
0.19280794 0.36216384 0.82474077 -0.21939336 0.8844371 1.7767416 0.27627915 -0.8788943
0.3087124 -0.14537056 0.40512434 -0.597502 0.25529474 -1.0267566 -0.5656308 1.0960217
0.9813307 0.17973346 -1.6048791 0.43331733 0.3066556 -0.27789617 1.8775183 1.045645
1.4721315 1.4442526 0.56723017 -0.20174994 0.27008897 0.060166303 0.3339754 0.5229707
-2.1924071 0.15546362 -0.043634403 0.3947184 1.585999 -0.016175637 1.2497394 0.22742766
-0.63980305 0.6865525 -0.077059396 -0.3849785 -0.4885242 -0.17203753 -1.4123904 -0.2637858
0.72364676 1.6295812 -1.3373176 -0.1831573 0.24300215 0.09194533 -0.05449176 -0.2647941
0.3006358 0.22072247 0.1474474 -0.28377876 0.3762111 -0.236318 1.58177 1.361002
-0.059061665 -0.43633533 0.4765783 0.44310445 -1.1977054 0.9181805 -0.12209964 2.6348689
-0.24641144 0.010179139 0.3477026 1.9460527 -1.2492032 -0.54992026 1.781922 0.14513923
-0.5247427 -0.068806194 -0.9018537 -1.9949521 0.62445027 -0.70669156 0.47544175 -0.80781734
1.3716111 1.6711234 0.40531662 -0.47187793 -0.012492635 -0.030255722 -0.39232558 -0.03858875
-0.6725919 0.19724314 1.7850734 -0.5374421 0.7357653 1.3452854 0.07322745 -0.13680154
1.4116377 1.5624114 -0.576868 -0.77043825 0.18237308 -0.29089275 -1.0576227 0.2390786
-0.2074997 0.3667273 0.12443037 -0.40006658 1.2354696 -1.0828534 0.9672354 -1.4993808
4.0229263 1.1662439 0.68139476 -0.3625871 2.0818012 0.5849225 3.206861 3.8815112
1.046338 -0.71583307 0.41004542 0.8461956 2.267807 3.791848 3.711715 1.4347063
1.9073207 2.8555276 0.63009125 1.814388 -1.4628663 -1.5489707 0.14687677 1.234884
2.529683 3.0777497 0.09525058 1.2915485 1.7838095 0.98431253 2.2913725 2.2225528
00000000: 9362 bfbe 0b38 393f e574 3b3e 4acf 45be
00000010: 5d75 12be ec81 93be 65df b13e 0238 06bf
00000020: a351 f8bd bdca c9be a439 b83e eed1 023e
00000030: 3ff7 57be 2be6 5cbe abd7 f1bc c776 273f
00000040: c227 dabe 61d8 32bf 51d5 39be 022e cbbd
00000050: e3a3 b03d 2dd8 ccbc 8c02 93be e519 b7bd
00000060: fe9b d4bd 0145 dbbe e7e8 2cbe 2814 6bbe
00000070: 4b7e 363f 89a9 dabe 3a4b 703e 2287 ad3e
00000080: 5720 91bd d3fc c5be 3382 aa3f 44ab ddbe
00000090: 90ff 143f 8eef 43be 8104 893f 20fc 543f
000000a0: a5e5 e1be 1f11 63bc 31db babe cefa 123f
000000b0: a0b8 0abf a0ec 593f 07ed ae3d b657 1d40
000000c0: a5b6 40bf 5f91 833e 5949 8a3e 390d c73f
000000d0: fd7e 36bf 8146 43be 4af5 0540 a764 b9bd
000000e0: 18e5 bbbe f195 0fbc d591 bcbe 8333 c7be
000000f0: 6c72 763e 0d0e edbe f234 1e3e e6f0 f5be
00000100: 70fa 1a3f ddf4 fd3e ed4e 853f 3f56 3bbf
00000110: e044 0b3f 98d7 9abd ddff 19bc e668 32bf
00000120: 81e0 2bbe 86b2 a9bf 9f24 8dbf df23 f9be
00000130: 8d9b 0c3f fb18 d8bd cc58 51bf 0674 d33e
00000140: 438f 683f 2eca d33e a55d 0cbf 9fd6 053f
00000150: 22cb 143d 658f 7bbe ed5f b9be 61b9 bbbd
00000160: 098b 95be d4c2 ffbe c4a2 d6be f1a5 77bf
00000170: 090f d23f 4b93 71bf f113 943f 69f2 39bf
00000180: a937 bd3f 32d8 833f 8acc 08bf 2bec a13e
00000190: 7e98 aebe 8464 ab3e 4869 b2be 3bea 003f
000001a0: 726f 453e 8a6d b93e 3622 533f a7a8 60be
000001b0: 786a 623f 456c e33f 7674 8d3e 38ff 60bf
000001c0: 8d0f 9e3e 05dc 14be 756c cf3e e4f5 18bf
000001d0: feb5 823e c36c 83bf 2ecd 10bf 704a 8c3f
000001e0: 7d38 7b3f 0c0c 383e ae6c cdbf c5db dd3e
000001f0: f601 9d3e 6848 8ebe 8552 f03f b2d7 853f
00000200: ce6e bc3f 45dd b83f ff35 113f 8997 4ebe
00000210: 1a49 8a3e f170 763d d3fe aa3e 68e1 053f
00000220: 6650 0cc0 db31 1f3e fdb9 32bd 8818 ca3e
00000230: 0402 cb3f c582 84bc 76f7 9f3f cce2 683e
00000240: 22ca 23bf e8c1 2f3f 51d1 9dbd e71b c5be
00000250: d81f fabe 9b2a 30be 35c9 b4bf ef0e 87be
00000260: ea40 393f 1e96 d03f 392d abbf 968d 3bbe
00000270: 8ed5 783e d54d bc3d c032 5fbd 1893 87be
00000280: f0ec 993e 1205 623e 74fc 163e 734b 91be
00000290: be9e c03e 59fd 71be 7077 ca3f 5035 ae3f
000002a0: a5ea 71bd 5867 dfbe 1202 f43e 96de e23e
000002b0: 694e 99bf e10d 6b3f 600f fabd b1a1 2840
000002c0: 4853 7cbe 67c6 263c 1306 b23e 4118 f93f
000002d0: e4e5 9fbf 93c7 0cbf 0516 e43f 619f 143e
000002e0: 8a55 06bf 43ea 8cbd e2df 66bf 975a ffbf
000002f0: f9db 1f3f bde9 34bf 1a6d f33e 1ecd 4ebf
00000300: f490 af3f 5fe7 d53f a985 cf3e fc99 f1be
00000310: e9ad 4cbc d9da f7bc e6de c8be 3d0f 1ebd
00000320: fc2e 2cbf 1bfa 493e 497d e43f ce95 09bf
00000330: 1d5b 3c3f 5032 ac3f 46f8 953d b415 0cbe
00000340: 8bb0 b43f 19fd c73f 9fad 13bf 713b 45bf
00000350: 02c0 3a3e e5ef 94be 2e60 87bf 05d1 743e
00000360: cd7a 54be aec3 bb3e 5ad5 fe3d 87d5 ccbe
00000370: de23 9e3f f19a 8abf bd9c 773f b6eb bfbf
00000380: d0bb 8040 7b47 953f e36f 2e3f 04a5 b9be
00000390: 3b3c 0540 7bbd 153f 363d 4d40 ae6a 7840
000003a0: 67ee 853f d640 37bf 79f1 d13e 46a0 583f
000003b0: c023 1140 a3ad 7240 bd8c 6d40 75a4 b73f
000003c0: 1623 f43f f7c0 3640 a94d 213f de3d e83f
000003d0: 343f bbbf ac44 c6bf dd66 163e ae10 9e3f
000003e0: 54e6 2140 daf9 4440 bc12 c33d 7651 a53f
000003f0: df53 e43f e8fb 7b3f d9a5 1240 4e3e 0e40

bias f4 [16]
-0.55348486 -0.6509845 -0.28656593 -0.992737 -0.3619367 -0.7155829 -0.7850519 -6.7240305
-0.0022600424 -0.28156066 -6.5685916 -4.8307023 -0.45488676 -0.7697882 -0.14726463 -0.91024643
00000000: 2fb1 0dbf eca6 26bf c5b8 92be 0324 7ebf
00000010: c44f b9be 7130 37bf 29f9 48bf 422b d7c0
00000020: 381d 14bb b828 90be e731 d2c0 1d95 9ac0
00000030: ebe6 e8be d710 45bf 8acc 16be e905 69bf

weight f4 [1, 16]
-0.004190433 0.07414285 -0.28532767 -0.22593674 -0.19352198 0.2824615 -0.13379395 -0.09461298
-0.21328536 0.32223865 -0.12734039 0.37173206 0.32396707 -0.18674046 -0.31301478 -0.5564096
00000000: e64f 89bb 35d8 973d 7816 92be f65b 67be
00000010: a02a 46be cb9e 903e 4801 09be 73c4 c1bd
00000020: 7a67 5abe 77fc a43e 8565 02be aa53 be3e
00000030: 03df a53e e438 3fbe 7943 a0be dc70 0ebf

weight f4 [1, 1152]
0.0027305323 -0.020632386 0.14467849 -0.084399454 -0.00365019 0.019529654 -0.100944586 0.15931517
-0.07099885 -0.052131943 0.1149682 0.05305684 -0.17648572 0.038187616 -0.057612102 0.07999778
-0.031323895 -0.076438025 -0.015110901 0.07655412 -0.019884322 -0.06515369 0.054603904 -0.09743775
0.023637256 0.0049310885 -0.015967648 -0.122789875 -0.011665606 0.15048335 -0.42136434 0.10626617
0.0759858 0.2711133 -0.1890042 -0.062386524 0.0023713224 -0.66464406 0.3223868 -0.15914999
0.10004441 0.41696215 0.113304645 -0.15935053 -0.08206692 0.6119547 0.051405355 -0.37243754
-0.07801814 -0.44001076 -0.17614612 -0.34100595 0.06822633 0.1206861 -0.19234464 0.28010085
-0.2117336 0.047409154 0.45257264 0.11279245 -0.024494201 0.3963051 -0.15812099 -0.30653554
-0.07804308 0.2787563 -0.11796066 -0.33464018 0.17816342 -0.37619427 -0.29419354 -0.10537045
0.22199212 -0.6193825 0.07608363 0.20628285 0.22233517 0.014024958 0.0049593104 0.29082033
0.11910882 -0.10728742 -0.38670895 -0.059021704 0.29141653 0.18882632 -0.36355203 -0.22160697
0.105372146 -0.05467007 -0.0062433793 -0.070593685 -0.6913331 -0.30528966 -0.06787494 0.0005841022
-0.026773589 -0.112887904 -0.17532031 -0.08704216 -0.000638185 0.019207973 0.0060599167 -0.06304695
0.014747 -0.088483736 0.09815471 -0.043410186 -0.027971685 0.3410376 -0.113285534 -0.07216323
-0.023846189 0.0667392 -0.022335555 -0.0021059427 0.0023790419 0.007197623 -0.032265898 -0.15516287
-0.0009355902 -0.03493946 0.3523335 0.12881602 -0.0068179206 0.015410994 0.29540226 -0.124984495
0.1719535 0.2986537 0.13816465 -0.14607368 0.492047 0.0057957517 -0.10676622 0.1931471
0.015531899 0.4788907 0.0034729932 -0.051902436 -0.11409519 0.17704786 -0.020426955 0.049311105
0.050022166 -0.3070033 0.0484181 -0.43712392 -0.23971882 0.51884836 -0.028936809 -0.058612283
-0.04674461 0.07624002 0.43036905 0.39670172 0.5888555 -0.6767977 0.36752325 -0.5583643
0.4104857 -0.36995593 -0.137638 0.42800084 0.051907893 0.18963718 0.023736767 -0.048809256
0.33518922 0.24422142 -0.054402575 0.095282525 0.26536986 -0.03122528 0.42640337 -0.0043020574
0.08144592 0.10833903 0.09820285 0.037705094 0.18068938 -0.4546323 -0.0650019 -0.13859315
0.0025512064 0.3346286 -0.5680537 -0.30662572 -0.13453607 0.47682935 0.77884895 0.07556948
0.038046084 -0.0665921 -0.1213119 -0.43008187 -0.18034892 0.19277062 -0.015679413 -0.053129334
-0.016442813 -0.081082754 -0.022079498 0.04299539 0.014940369 -0.045097988 -0.021974552 0.119701646
-0.0013918725 0.17573737 -0.14713328 -0.15056469 0.059325464 0.0044260407 -0.03959929 -0.0652583
0.00059592247 0.03539156 0.022185883 0.04919618 -0.039795216 0.5979715 -0.59126425 0.057035044
-0.043003403 0.18904923 -0.13793392 0.17880988 0.180184 -0.21075445 -0.030480335 -0.42702636
0.016647661 -0.23432022 -0.3733797 0.032227047 -0.14530522 -0.5616207 0.23950091 0.49771136
0.12426096 0.57193714 0.37307853 0.432964 -0.015668055 0.10421821 -0.0572724 -0.5680122
0.09683399 0.41039243 -0.3524047 -0.6975941 -0.08808563 0.285941 -0.055751543 0.3404498
00000000: bbf2 323b 4005 a9bc 9926 143e 9fd9 acbd
00000010: 0738 6fbb a7fc 9f3c 09bc cebd 8423 233e
00000020: d867 91bd 4e88 55bd 7374 eb3d 2152 593d
00000030: acb8 34be 9e6a 1c3d abfa 6bbd e0d5 a33d
00000040: 7c4d 00bd 8a8b 9cbd b693 77bc 68c8 9c3d
00000050: 72e4 a2bc 4c6f 85bd 58a8 5f3d 718d c7bd
00000060: eba2 c13c f894 a13b 96ce 82bc 4279 fbbd
00000070: 1921 3fbc 4f18 1a3e 11bd d7be 14a2 d93d
00000080: 719e 9b3d 5dcf 8a3e 518a 41be 0389 7fbd
00000090: 3068 1b3b 1d26 2abf e20f a53e 37f8 22be
000000a0: 15e4 cc3d 107c d53e 440c e83d c92c 23be
000000b0: b412 a8bd 10a9 1c3f 6c8e 523d 22b0 bebe
000000c0: f9c7 9fbd 1749 e1be a65f 34be 5598 aebe
000000d0: 3fba 8b3d 462a f73d fef5 44be 6169 8f3e
000000e0: b1d0 58be 1a30 423d 9ab7 e73e baff e63d
000000f0: 10a8 c8bc 81e8 ca3e 78ea 21be 3af2 9cbe
00000100: 0dd5 9fbd 25b9 8e3e 5c95 f1bd f555 abbe
00000110: 7970 363e 899c c0be 89a0 96be 76cc d7bd
00000120: e751 633e da8f 1ebf bcd1 9b3d d03b 533e
00000130: d5ab 633e f0c8 653c b681 a23b 67e6 943e
00000140: 53ef f33d 82b9 dbbd b7fe c5be bec0 71bd
00000150: 8c34 953e b05b 413e 7e23 babe f0ec 62be
00000160: 5acd d73d b9ed 5fbd 4395 ccbb 6c93 90bd
00000170: 35fb 30bf ed4e 9cbe 0402 8bbd 6f1e 193a
00000180: 4954 dbbc c631 e7bd 2b87 33be 2943 b2bd
00000190: df4b 27ba 0a5a 9d3c 4492 c63b c21e 81bd
000001a0: 679d 713c f636 b5bd 5605 c93d e1ce 31bd
000001b0: e024 e5bc 7b9c ae3e 3f02 e8bd 51ca 93bd
000001c0: 1559 c3bc 90ae 883d 0ef9 b6bc db03 0abb
000001d0: b3e9 1b3b 0ada eb3b 3f29 04bd 04e3 1ebe
000001e0: 6542 75ba ae1c 0fbd 0e65 b43e 59e8 033e
000001f0: dd68 dfbb 657e 7c3c f73e 973e dff7 ffbd
00000200: 9414 303e 23e9 983e 097b 0d3e 5794 15be
00000210: 96ed fb3e 4aea bd3b 3fa8 dabd 5ac8 453e
00000220: 8279 7e3c 2931 f53e 289b 633b a697 54bd
00000230: bdaa e9bd 094c 353e 6e56 a7bc 71fa 493d
00000240: 0be4 4c3d 892f 9dbe 0f52 463d b5ce dfbe
00000250: da78 75be 3fd3 043f e30c edbc 6f13 70bd
00000260: 4777 3fbd ba23 9c3d 5559 dc3e 7d1c cb3e
00000270: 3cbf 163f 9d42 2dbf 022c bc3e f6f0 0ebf
00000280: 2f2b d23e dd6a bdbe faf0 0cbe ed22 db3e
00000290: 5f9d 543d 4030 423e 9c73 c23c 37ec 47bd
000002a0: ec9d ab3e 2e15 7a3e 3cd5 5ebd 7c23 c33d
000002b0: 8fde 873e 29cc ffbc 8b51 da3e 46f8 8cbb
000002c0: 1ecd a63d dae0 dd3d 931e c93d a870 1a3d
000002d0: a306 393e 91c5 e8be b71f 85bd 5deb 0dbe
000002e0: 2432 273b 7154 ab3e f86b 11bf 0cfe 9cbe
000002f0: d3c3 09be fa22 f43e a562 473f 2cc4 9a3d
00000300: 36d6 1b3d 7061 88bd 6072 f8bd b133 dcbe
00000310: 63ad 38be a965 453e 1d72 80bc 259e 59bd
00000320: 14b3 86bc b70e a6bd 10e0 b4bc ef1b 303d
00000330: 73c8 743c abb8 38bd fa03 b4bc 2326 f53d
00000340: 7e6f b6ba 7ff4 333e 1baa 16be a12d 1abe
00000350: 42ff 723d 5208 913b dd32 22bd 25a6 85bd
00000360: ae37 1c3a bef6 103d 2bbf b53c ef81 493d
00000370: 4f00 23bd a914 193f 185d 17bf 949d 693d
00000380: 5624 30bd 1f96 413e 8d3e 0dbe f019 373e
00000390: 2882 383e 04d0 57be e5b1 f9bc 33a3 dabe
000003a0: ad60 883c a4f1 6fbe a02b bfbe 8200 043d
000003b0: e4ca 14be 60c6 0fbf ba3f 753e 06d4 fe3e
000003c0: 887c fe3d 796a 123f 2604 bf3e 75ad dd3e
000003d0: 4b5a 80bc 5b70 d53d 7796 6abd 3f69 11bf
000003e0: e650 c63d f51e d23e 646e b4be 8795 32bf
000003f0: 3d66 b4bd dc66 923e bb5b 64bd 704f ae3e
