MLIPs/CACE-LES/dipep/cace-r-4-nl-2-nu-2/checkpoint.pt (torch, 861282 bytes, 43 tensors)

representation.node_embedding_sender.embedding_weights f4 [4, 4]
00000000: dac3 833e 04a2 943e 02e5 07bd 7a67 283e
00000010: 132b 163e 490e 9ebe 7333 efbe fe8f 0b3f
00000020: 10ca 2d3e 9b28 c4be 3789 093f 2f07 153f
00000030: 1468 563f 52e7 b93d 7ccb f03e 52fd 2a3f
0.2573536 0.29029858 -0.033177383 0.16445723 0.14664869 -0.30870274 -0.4671894 0.5451659
0.16971612 -0.3831223 0.53725 0.58214086 0.8375256 0.09077324 0.47030246 0.66792786

representation.node_embedding_receiver.embedding_weights f4 [4, 4]
00000000: b770 e93d 5bbf ca3e 009c 643c a7bb 803d
00000010: 3c92 8b3d 6f8c 89bd 0820 bebe 53e8 b93e
00000020: 807c d33e 55a0 73bd 77ed a93e ed5c 8b3e
00000030: 7221 b93e 25be 8abe 3a14 913e 2c40 363d
0.11398452 0.39599118 0.013953209 0.06285792 0.06815001 -0.06716239 -0.37133813 0.36310062
0.41305923 -0.059479076 0.33188984 0.27219334 0.3615833 -0.27098194 0.28335744 0.044494793

representation.radial_basis.bessel_weights f4 [6]
00000000: 5a1e da3e 60d7 ba3f 906c 1240 3fd1 4c40
00000010: 0e4d 8540 b365 a440
0.4260128 1.4596977 2.2878761 3.2002714 4.165656 5.1374145

representation.radial_transform.weights.0 f4 [6, 12, 16]
00000000: f0e0 003f 0c8a 76be 7e65 fd3b 68b2 283f
00000010: 801c 303f 8935 d43f f1d0 e03e 02a6 b33e
00000020: 023d 573f 99ff 90bf 0f5c 333f e38d 3e3f
00000030: f6f9 303e e9af 1a3d 0fbd 5cbe da2b 2f3e
00000040: b069 e03e c881 6d3f 8787 f7bc 4733 c83d
00000050: 7b53 1d3f 4aaf 973e 6480 a63f fff9 283f
00000060: 3766 b13e 0187 27bd e5ab efbc 6305 41be
00000070: d307 043d 48d8 073f 6628 74bb 3478 183f
00000080: 9825 083f 2cf2 2540 e137 393f 0e30 e63d
00000090: f4e6 6e3f d473 c83f 5247 00bf c7a5 bebc
000000a0: ccd1 80be 8bd8 e33f 2df5 0fbf 0740 9abd
000000b0: 1a93 a0bc 324d 883e 13b6 17be a8be e3bc
000000c0: 6890 c239 ae67 293f b5f2 cbbd cb3e 983f
000000d0: 5f4e 393f 9d8a 463f 8559 dcbf c7c4 833e
000000e0: d5a6 5fbd 80fb c23e 4efe 783c 5ec6 9fbe
000000f0: caaf d53e 9501 f13e ec6c 9dbb 4c81 1c3f
00000100: b26d 213f d260 9e3f 516d f5bb 6a1e ff3e
00000110: eb0b da3e 09f7 b93e 8dc2 93be 238a 58bf
00000120: 396b f2bd f1b6 9d3f 40a8 11bf c1a9 cfbe
00000130: 6ff4 e63e 20df 603b 5214 4f3d 7ea6 073d
00000140: 41b7 79bc 3bf9 4c3e bd73 093d 1938 d33e
00000150: 2202 803f decf 2a3e 8f4d 983f 4f8d 37bf
00000160: f5e3 8ebc fec7 b73f 298b 3e40 9b66 993e
00000170: d32f 4bbe 52db 793e 7ec4 963c 77c7 e7ba
00000180: 849f 9b3d bf0a dcbd e848 923d 29a9 08bd
00000190: 6531 5d3d 48de a23d 7677 98bf ad68 7a3e
000001a0: 882d a33e 9a97 643e 645b 0cbf 02d6 743f
000001b0: 12ea 7e3f 584e a8be ddc7 3f3a 3b91 943f
000001c0: 38fa c3bc d56d 1b3f 4305 593c d353 203f
000001d0: 9f0c 9d3e 5b40 0ebd c42a 24bf 437f 9b3e
000001e0: 337e 03be 0715 d3be ef19 c0bd 6936 b43e
000001f0: 798f 903e ab8b 13be a4fe c8bb 643e 02be
00000200: c121 0a3d bc2f 2bbc 0b38 de3e f8c3 273f
00000210: b1d0 2c3e 6902 503f d4a7 0cbe 9043 70be
00000220: a359 42bc 518d 1e40 4b9f 363f 323d 7a3d
00000230: 7ba8 4b3d 1908 b33e 42d6 613f 9f98 4f3e
00000240: a9b2 16bf 00d2 063e 1d40 1c3f 0bd3 a23c
00000250: 9e0d b03f cdc8 013f 640f d4be 2262 efbd
00000260: 4316 9dbe a4c1 a33f c349 17bf c510 89be
00000270: 4645 c3bb 320a b43d f3c0 333f d09b 4fbe
00000280: ea6b ce3d ad9d eab8 9278 dcbc 6f5f babe
00000290: 19cc 83be 7f99 8d3f 0864 a63f 4712 25be
000002a0: 14ad 373f de46 23bd 0b56 823f cc27 263e
000002b0: a7f0 1c3c 156c c93e fa47 d53c e3b6 f7be
000002c0: 2a2c 453b 2889 0d3f 85a6 4c3f d16e 0e3e
000002d0: 27a5 59bd 15d6 2ebe 38a1 ea3e 1e3a 093f
000002e0: 3acc de3f 741b f4bd 2756 eabd 4a1f adbd
000002f0: 6c9f 893e 79a0 4f3c d2c3 c0bd a05c 323f
00000300: df68 4ebf 9626 433f bbe5 013d 64b0 babf
00000310: 458a d5bd 0259 dc3f 8cd8 a63f ea66 953e
00000320: b396 c73e 6c8d 8c3f 4090 0b3f e1e8 1b3f
00000330: 10b1 f23e 89d3 573f e58b 273f bda3 503f
00000340: 5c50 c43d d8f5 febd 618d 783d 3ddd dc3e
00000350: 1eec 79be cd07 06be da8d 293f 5859 7d3d
00000360: 8106 b03d ddd8 233f a876 aa3d 5abd e83e
00000370: 3c5b cfbd 56a0 ab3f 3f93 8d3b 7b49 a93e
00000380: ab10 d4be df4e 253f 8418 043f f544 6dbe
00000390: 1f52 dfbe a0d1 9a3f ada6 d03e 0a8f 0a3f
000003a0: 7ef1 833f 1951 cfbe 3e32 653f 5a3d 753e
000003b0: 2fad 4a3d 25b6 07bf a4ab 923f d15c 7c3f
000003c0: e5f9 b63c 0c95 1d3f c21e bb3f 9578 afbd
000003d0: a88f a83e 9178 dabe 3253 ad3e d140 40bf
000003e0: 2401 853f 6f7c 123f 7a02 e93c 3557 a53f
000003f0: c8d7 473f 0496 28bf c293 6dbb a4b0 fd3d
0.5034323 -0.24076098 0.007733046 0.65897226 0.6879349 1.6578838 0.4390941 0.3508759
0.84077466 -1.1328002 0.70062345 0.7443525 0.17282853 0.037765417 -0.21556495 0.17106572
0.43830633 0.92776155 -0.030215992 0.097754054 0.61455506 0.29625922 1.3007932 0.66006464
0.34648296 -0.040900234 -0.02925677 -0.18849711 0.032234024 0.53064394 -0.0037255525 0.59558415
0.53182364 2.592906 0.7235089 0.112396345 0.93321157 1.5660348 -0.50108826 -0.023272408
-0.25160062 1.7800459 -0.56233484 -0.075317435 -0.019601393 0.26621395 -0.1481555 -0.027800873
0.00037110155 0.6617383 -0.09958402 1.1894163 0.7238521 0.7755526 -1.7214819 0.25736067
-0.054602463 0.38082504 0.01519735 -0.3120603 0.4173568 0.4707152 -0.0048042443 0.6113479
0.63058007 1.2373297 -0.007489838 0.49827892 0.42587218 0.36321285 -0.28859368 -0.8458578
-0.11836857 1.2321454 -0.56897354 -0.405592 0.45108363 0.003431268 0.05055649 0.033117764
-0.015241445 0.20016949 0.033557642 0.41253737 1.0000651 0.16680858 1.1898669 -0.71699995
-0.017442683 1.4357908 2.9772437 0.29961094 -0.19842462 0.2440007 0.018404242 -0.0017683347
0.075987846 -0.10744237 0.07142812 -0.03336445 0.054002184 0.07952553 -1.1911457 0.24453993
0.31870675 0.22323456 -0.5482695 0.9563905 0.9957591 -0.32872272 0.0007315854 1.1606821
-0.023923025 0.60714465 0.013245883 0.62627906 0.30673692 -0.034729343 -0.64127755 0.3037053
-0.1284111 -0.4122698 -0.093799464 0.35197762 0.2823446 -0.14408748 -0.006133871 -0.12719113
0.033723596 -0.0104483925 0.43402132 0.655334 0.16876484 0.8125368 -0.13735896 -0.23463273
-0.011862191 2.4773753 0.7133681 0.061093517 0.049721222 0.34967116 0.88217556 0.20273064
-0.58866364 0.13166046 0.6103533 0.019876024 1.3754156 0.5069702 -0.41417992 -0.11688639
-0.30681047 1.279347 -0.59096926 -0.26770607 -0.005959186 0.08791007 0.7021629 -0.20274282
0.10079177 -0.00011187359 -0.026912961 -0.36400935 -0.25741652 1.1062468 1.2999277 -0.16120254
0.7174847 -0.039862506 1.0182508 0.16226119 0.00957886 0.39340273 0.026035298 -0.4838172
0.0030086138 0.5528741 0.7994159 0.1390946 -0.053136017 -0.17073853 0.45826125 0.53604305
1.7406075 -0.11919299 -0.114422135 -0.084532335 0.26879442 0.012672537 -0.0941235 0.69672585
-0.8062877 0.7623075 0.03171323 -1.458508 -0.104267634 1.7214663 1.3034835 0.2918008
0.38982162 1.0980659 0.54516983 0.6090222 0.47400713 0.8430715 0.6544784 0.81499845
0.0958564 -0.12449235 0.060681704 0.4313754 -0.24406478 -0.13088913 0.66232073 0.061852783
0.085949905 0.6400278 0.08323413 0.45456964 -0.101248235 1.3408306 0.0043205316 0.33063874
-0.41418967 0.6457347 0.5159991 -0.23170836 -0.4361734 1.2095222 0.40752164 0.5412451
1.0308073 -0.4049156 0.8952979 0.23949185 0.049481567 -0.53012305 1.145863 0.98579127
0.022335956 0.6155555 1.4618762 -0.08567921 0.329221 -0.4267011 0.33852535 -0.750989
1.0390973 0.5722112 0.028443564 1.2917238 0.7806363 -0.65853906 -0.00362514 0.12387207

representation.radial_transform.weights.1 f4 [6, 12, 16]
00000000: 63ea e13f 78ad bd3f 353f 2a40 3fb3 dbbf
00000010: bf91 83be 0694 3f40 eff9 0ec0 8b90 6fbf
00000020: 0349 a2bf 36a4 2240 02cd 043f 9054 30be
00000030: 9809 e03e f553 14bf 3c4f 203f 825a 3b3d
00000040: 8c27 173e 641d a33e 5294 81bf 4b1e 5c40
00000050: 41aa aa3f 7ea5 87bf c303 46bf 0534 c53f
00000060: ac4a 0040 dc73 87be 5e20 173f 8877 f23e
00000070: efbe 923e e8f1 3a3f 6649 693f 71ad e6bd
00000080: a635 1cc0 2b01 f5bf 7972 ab3f 77c2 c6bf
00000090: 1a0f 9d3e 3737 273f 468c 11bd fc91 373f
000000a0: e26b 0abf fc07 bd3f e63c f53d fa8a a73f
000000b0: 18b1 aa3f 4a6a c33e a722 013f 84fe fb3e
000000c0: 29ab 0240 45b7 a9be facc ea3f 4590 a6bf
000000d0: 5ec0 483e eb30 d8bf ccc0 fdbe c6ba 3540
000000e0: 45e1 1ec0 d84e a83f ee5d c3bf ea51 b5be
000000f0: 3686 e93e 4e40 033f ceea 8fbf 47e4 253f
00000100: 81b5 adbe 042c 0140 1c14 9e3f 5569 a03f
00000110: 4d63 9d3f 0d09 bcbd 8422 1fbf f758 01c0
00000120: 04da 01bf cb9c dd3f 414a ab3f 9f81 b03f
00000130: d6fd a13f 3af3 843e f396 9d3f 96a2 c6bf
00000140: ec06 873f 157d 1540 8dc9 fd3f 101d ad3f
00000150: 2570 343f 8a9f 333f 9af7 9240 3b34 edbe
00000160: a84e 27c0 5b14 02bc 8750 ad3f 8d9f 3a3e
00000170: 3df1 d5bf 951f 11bf b5bf 25c0 10b4 f1bf
00000180: d6df 4a40 cfaa 933c 4f57 ed3f faeb d33f
00000190: 0266 9a3f 67c7 673e 3ad1 7c3e 28ab a53e
000001a0: 5d5e 5fbf 1761 1ebf fd0e e23f eeb1 8d3e
000001b0: 8a70 87be 4cac 2d3f 9042 d13f 576f 07bd
000001c0: fff2 8d3e d10a 1340 0690 4540 696d 7340
000001d0: 9d3e 0840 443a 6c40 05c0 ba3e 0226 1340
000001e0: 0226 e4bf c5fa a3bf 7357 4140 5ab0 b43f
000001f0: 6d60 5e3f f82a 9c3f 4dbd 3a3f 3cba 98bf
00000200: c251 0ebf dcb2 6ebf 6a21 3a40 dd4b 0140
00000210: 4408 f53f b4a9 92bf 21cc 71bf d2c6 503e
00000220: 7229 243f bd8d 833e 1de8 d53f fd9c bd3f
00000230: 5832 b4be 8ff9 fd3d 764c 00c0 ca93 e7be
00000240: 9abd 4540 7df4 a23d f4ca 353f 206d 1bc0
00000250: 385f efbd 8542 243f 8f29 e83f cb6b e03f
00000260: 2c9d 2f40 938f 6740 92f4 4bbe 9c51 2dc0
00000270: b30d eabe 7b17 3bbf 6e86 8a3f 8e39 4340
00000280: 8477 e6be 8588 b73e f008 2640 4a1e e03f
00000290: 3e1b 25bf 42b8 0ebe 99cb 373f f47e 57bf
000002a0: fbb6 1240 36b2 52be eac1 b6be 4fad a5be
000002b0: 53b8 b03f 51fa 3b3f 18d6 0540 fc09 4cbe
000002c0: 7173 5ebf 174d d63f 2128 97bf 75b4 3240
000002d0: 38fd 37be 3558 b23f 0122 823f 921a 1440
000002e0: 588d da3e a413 a4be a9be 9b3f 0409 1940
000002f0: bdda 83bf 8fbf 803f 9c1b dfbf cc6a 553f
00000300: 59f0 bc3d eff7 8abd 512a e73f ffaf 86be
00000310: b5f7 113f 5b99 683f aabd 313f 1d95 933f
00000320: 6d93 163f db4b 57bf 57f5 26bf 3d19 c33f
00000330: cdb8 7bbe 25e3 b93e 5af0 40be 926a abbe
00000340: 2911 67be 7a74 e23d b649 9dbe 2b25 823f
00000350: 3ca2 eb3e 62a0 733f 22a3 9b3f 3280 16be
00000360: aeb2 acbc d47c f93f 0bdd f93f 576a 963f
00000370: 3122 52be 8dbc cc3e 8470 1f40 f15d 2e40
00000380: 2701 92be a5ca 0cbf decd 2c3f 5c82 f0bf
00000390: c53b 6e3f 2df2 5bbf 111c 9a3f 7923 5a3e
000003a0: e51f 1e40 cdae 2740 50ae a63e f793 8e3d
000003b0: af3a 0abf ecab ca3f 7b7c 813e 8c0f c73d
000003c0: daed 2440 9f2a ab3f b81d 753f 7ca2 10be
000003d0: ae62 9dbe 26eb 14bf e9f0 62bd 3a7e f6be
000003e0: 88f1 fd3f b338 e03f 38ac 7b3f 379c 72bf
000003f0: 8a3a 1840 097f 493f 51ac ea3f 5e95 833e
1.7649654 1.4818563 2.6601079 -1.7164077 -0.25697133 2.9934096 -2.2340047 -0.9357993
-1.2678531 2.5412726 0.5187532 -0.17219758 0.4375732 -0.5794061 0.626209 0.04574061
0.1476118 0.3185836 -1.0123389 3.439349 1.3333207 -1.0597379 -0.7734949 1.54065
2.0045576 -0.2645558 0.59033763 0.4735682 0.28661296 0.7302537 0.9112762 -0.1126355
-2.4407744 -1.9140981 1.3394309 -1.5528096 0.30675584 0.65318626 -0.035534166 0.7170713
-0.54070866 1.4768062 0.11974506 1.3089287 1.3335295 0.3816703 0.504435 0.49217618
2.0416968 -0.33147636 1.8343804 -1.3012778 0.19604632 -1.6889929 -0.49561155 2.8395247
-2.4824994 1.3149061 -1.526304 -0.35414058 0.45610207 0.51269996 -1.1243532 0.6480145
-0.3392754 2.0183115 1.2349887 1.2532145 1.2295929 -0.09181414 -0.6216204 -2.021055
-0.5072329 1.7313474 1.3382035 1.3789557 1.265559 0.25966817 1.2311691 -1.5518367
1.0548987 2.3357594 1.9827133 1.3524494 0.7048362 0.7016531 4.592725 -0.4632891
-2.6141758 -0.007939423 1.35402 0.18224926 -1.6714245 -0.56688815 -2.5898259 -1.8883076
3.1699119 0.018025784 1.854227 1.6556389 1.206238 0.2263466 0.24689189 0.32357144
-0.8725336 -0.618669 1.7660824 0.27674812 -0.26453048 0.6784103 1.6348438 -0.033065166
0.27724454 2.2975352 3.0869155 3.8035529 2.1288216 3.6910563 0.36474624 2.2991948
-1.7824099 -1.2810904 3.0209625 1.4116318 0.86865884 1.2200613 0.729451 -1.1931834
-0.555935 -0.9324167 2.9082894 2.0202553 1.9143147 -1.1458039 -0.944521 0.20388344
0.6412574 0.25694075 1.671146 1.4813534 -0.3519466 0.12401115 -2.0046668 -0.45229942
3.0896974 0.07956789 0.71012807 -2.4285355 -0.116880834 0.64164 1.8137683 1.7532896
2.743968 3.618138 -0.19917515 -2.708106 -0.45713577 -0.73082703 1.0822275 3.0503879
-0.45013058 0.35846344 2.5942955 1.7509243 -0.64494693 -0.13937476 0.7179504 -0.8417809
2.2924182 -0.20575795 -0.3569482 -0.32358786 1.3806251 0.7342883 2.0911922 -0.19925684
-0.868949 1.6742276 -1.1809121 2.7922642 -0.17967689 1.3933169 1.0166627 2.3141217
0.42685962 -0.32046235 1.216756 2.3911753 -1.0301129 1.0058459 -1.7430301 0.83366084
0.0922553 -0.06785571 1.8059789 -0.2630615 0.57018596 0.90859 0.6943003 1.1529881
0.58818704 -0.8410012 -0.6521811 1.5242077 -0.24582215 0.3630611 -0.18841687 -0.33479744
-0.2256514 0.110573724 -0.307203 1.0167593 0.46022213 0.951666 1.2159159 -0.1469734
-0.021081295 1.949122 1.9520582 1.1751202 -0.20520855 0.39987603 2.4912424 2.7244837
-0.28516504 -0.5499671 0.6750163 -1.8789783 0.9305995 -0.85916406 1.2039815 0.21302594
2.4706967 2.620044 0.32554865 0.06961816 -0.53995794 1.5833716 0.25290284 0.09719762
2.5770173 1.3372382 0.9574847 -0.14124483 -0.3073935 -0.5817131 -0.05540553 -0.48143178
1.9839334 1.7517303 0.9830966 -0.94769615 2.378573 0.78709465 1.8333837 0.25699896

representation.radial_transform.weights.2 f4 [6, 12, 16]
00000000: e31e 0fbe 175b 33bd 89c2 e03e 0713 123f
00000010: 4cec 2d3e 9964 0c40 a4be f33e 53d8 61bf
00000020: a470 073f 6611 403f 9ede 1e40 d511 eabe
00000030: 6d83 d63e b190 ec3e 300a bcbf 32c4 19be
00000040: c26d 6e3e 6967 9d3f e08c ac3f 167e 3d3f
00000050: f757 3cbf ca0b 25bf 8da5 48be 4393 6f3f
00000060: 35e9 e93f 477e 1540 2633 ff3f 4aa1 0dbe
00000070: 3f2e c0be 376e 54bf 20c6 0a3f 54b3 0a3f
00000080: d0b0 b43e 7d60 a43e 7603 933f 5534 c23e
00000090: 412b 0fbf 9b93 aebf 4f48 9bbe 4628 08be
000000a0: de05 cc3f 6980 6f3f 1fa1 1340 2851 603f
000000b0: fd03 363f d80d 863f a818 663f 4feb 833e
000000c0: 8b80 a03d ab85 74bd 5dba 8b3f 380c 0b3d
000000d0: a133 8e3f a4ae 193f 4e3f 983f be80 4840
000000e0: 6ea4 773f be29 0cbf 1a07 ab3f 9552 213e
000000f0: 798c 80be e4c7 8a3f f459 08be eb30 5a3f
00000100: 24b1 a13f 9340 5f3e c7db 25bf 33f4 c83d
00000110: 68df 2940 8f37 acbe 5620 1b3e 8613 d13e
00000120: 4350 fcbe d0e5 bb3f 49b0 0140 3bc6 1d40
00000130: b2ee bb3e ecc6 013f 4cbf 923f 6c92 fbbe
00000140: d32b 4a3f b76b 823f 1051 d4bd e3ac 67bd
00000150: a826 ca3f 4f83 af3e c75f d93f 73c5 45bf
00000160: 51ee cd3f 7343 023f 09e6 b93f 0732 223f
00000170: 5a68 423f 856f 0c3e be37 15bf cfaa 253f
00000180: 17af 103f 3c31 e93e 6f3e 5fbf 7bdf 48bf
00000190: fb26 1a40 d1aa b6be 5620 47bf 4f5b 06c0
000001a0: 3c99 f3bf 3458 793f 1d9b 1abe c14e ea3f
000001b0: df72 36bf 7431 cd3e b10a bd3e 9383 203f
000001c0: 875b cdbc 3a39 4a3f dd21 c0be 06a7 8f3f
000001d0: 52cb ce3f 904a fe3e 1699 44bf 1d96 cd3f
000001e0: 0b9f 0e40 52f7 b03f 256b d5be ff10 12bf
000001f0: f9ee 523e a8c0 083f 25f0 3c3f f0ab d03e
00000200: 36ae 773e 0c7a 4b3e 4f36 cd3f d465 573f
00000210: e38d 523f acac eabe 4801 e23f 82d4 093f
00000220: 4905 1640 5226 623f ba68 1b3e 2299 233f
00000230: f779 c83d a440 de3e 11e7 e2be 8fcd 0ebf
00000240: 054f b83e d5d1 b6be c445 1c3f f543 f83e
00000250: 70b3 a63e 54c3 403e af27 493f fd44 e3be
00000260: 87cb 4b3f 8b50 1f3f 7673 7c3e d257 433f
00000270: 16d4 b03f 2810 d83f eed9 7f3f 3867 723f
00000280: 181f 5cbd f00b 8ebe 2228 8d3f 82c2 9a3e
00000290: 0ab0 03be 472e 8f3e 93c7 e23d 11eb a43f
000002a0: 6ca1 9fbf 56ae 68be 2c7f 55bf 23d2 ae3f
000002b0: d864 5b3f 08f4 1d3f e750 89bf 6058 ffbe
000002c0: c6bf 2a3e 8db5 f33d 7c95 68bf 7a87 4f3f
000002d0: 845d c7bf 725f d63f facf 0e40 268e 80bf
000002e0: fb50 483f 544c bf3f 8411 8fbe aed9 0640
000002f0: 2825 8a3f fe93 093e 4172 183f 1e8a 49bf
00000300: ff96 3240 2886 e33f 33cf de3d 03aa 323f
00000310: e05a 903f da0f 943e 00ff 3a3c 8895 ab3f
00000320: ad82 3a3f 5eab b13f 22f3 f43f a035 de3e
00000330: 3397 fb3f 83d6 9cbc c3ba 8a3e 5428 4a3e
00000340: e8de bfbf 3832 a83f a7e4 e6be bf2f 77bc
00000350: 8a01 253f 120d 85bf 4af7 893f 1e42 033f
00000360: 4c0e 0fbf 4a50 8a3c f345 d3be ac07 43bd
00000370: d4b0 2040 1552 f4bf fed1 963f 9e19 d73f
00000380: 3410 4a3e 488c 2f3f d48e 55bf 8c7a 633f
00000390: 1bb7 59be bf7a 663f 8771 fd3f 576c 093f
000003a0: 271c 6fbe 1fef 563f c0d1 693f fd07 6dbd
000003b0: bac0 d9bd 7856 4bbd 50d8 4a3e 39fc 623f
000003c0: 6240 3840 c0ef 95bc 90f5 153e a89d af3f
000003d0: 5b51 ae3e 3cc4 cbbf 8cf5 c63e eab4 4440
000003e0: 854a 8d3e 5b66 1c3f 964b e63f 21bd 883f
000003f0: 1075 223f cae0 8fbf e180 4d3f 2b9b b2be
-0.13976626 -0.043788042 0.4389842 0.57060283 0.16984671 2.19364 0.47606385 -0.8822071
0.5290625 0.7502655 2.4823375 -0.4571673 0.41897145 0.4620414 -1.4690609 -0.15016249
0.23284057 1.2297183 1.3480492 0.74020517 -0.73571724 -0.64471114 -0.19594403 0.9358408
1.8274294 2.3358324 1.9937484 -0.13831058 -0.37535283 -0.82980675 0.54208565 0.54179883
0.35291147 0.32104865 1.1485431 0.3793055 -0.55925375 -1.3638796 -0.30328605 -0.13296613
1.593929 0.93555313 2.306709 0.87623835 0.71099836 1.0472975 0.8988137 0.25765464
0.078370176 -0.05969779 1.0916249 0.0339472 1.1109506 0.60032105 1.1894319 3.1328578
0.96735275 -0.54751194 1.3361542 0.15754159 -0.25107172 1.0842252 -0.13315564 0.8523089
1.2632184 0.21801977 -0.6478848 0.09812202 2.6542606 -0.33636138 0.15149054 0.40835208
-0.49279985 1.4679508 2.0263846 2.465224 0.36705548 0.50694156 1.1464629 -0.4913515
0.7897312 1.0189122 -0.10367024 -0.056561362 1.5793047 0.34279868 1.6982354 -0.7725441
1.6088353 0.5088417 1.4523326 0.63357586 0.7594048 0.13714416 -0.5828818 0.6471376
0.56517166 0.45545375 -0.8720464 -0.78466004 2.4086292 -0.35677198 -0.77783716 -2.099323
-1.9031138 0.9740021 -0.15098234 1.8305284 -0.7126903 0.40076792 0.3692222 0.62700766
-0.025068058 0.7899357 -0.37525836 1.1222847 1.6155798 0.49666262 -0.7679609 1.6061436
2.2284572 1.3825476 -0.41683307 -0.57057184 0.20598973 0.5341897 0.7380393 0.40756178
0.2418755 0.19870776 1.6032199 0.8413975 0.8224775 -0.45834863 1.7656641 0.53839886
2.3440726 0.8833972 0.15176669 0.6390554 0.09788888 0.43408692 -0.44316915 -0.5578241
0.35997787 -0.35706964 0.61043954 0.48489347 0.32558775 0.18824512 0.7857618 -0.4438857
0.79607433 0.62232274 0.2465342 0.7630588 1.3814723 1.687993 0.9994191 0.9468875
-0.05374059 -0.27743483 1.1027873 0.30226523 -0.12860122 0.27964994 0.11073222 1.2884237
-1.2471137 -0.22722754 -0.83397174 1.3657879 0.8570075 0.6170049 -1.0727814 -0.49872112
0.16674718 0.118998624 -0.90853095 0.81066096 -1.5575414 1.6747878 2.231444 -1.004338
0.78248566 1.4945168 -0.2794305 2.107036 1.0792589 0.13435361 0.5954934 -0.78726375
2.790466 1.7775316 0.10879364 0.6979067 1.1277733 0.28918344 0.011413336 1.3405008
0.72855645 1.3880422 1.9136698 0.43400288 1.9655517 -0.019145256 0.27095613 0.19741946
-1.49899 1.3140326 -0.45096323 -0.015087067 0.64455473 -1.0394614 1.0778592 0.5127276
-0.5588119 0.016883988 -0.41264305 -0.04761474 2.5107927 -1.908755 1.1782835 1.6804693
0.19732744 0.6857343 -0.83421063 0.88858867 -0.21261255 0.90031046 1.9800271 0.5368094
-0.23350583 0.8395862 0.9133568 -0.057868946 -0.10632463 -0.04964301 0.19809079 0.8866611
2.8789296 -0.018302798 0.14644456 1.3719988 0.34046444 -1.5919261 0.38859212 3.073542
0.27595916 0.6109368 1.7991817 1.0682718 0.63459873 -1.1240475 0.8027478 -0.3488401

representation.message_passing_list.0.2.l_matrix f4 [3, 10]
00000000: 0000 803f 0000 0000 0000 0000 0000 0000
00000010: 0000 0000 0000 0000 0000 0000 0000 0000
00000020: 0000 0000 0000 0000 0000 0000 0000 803f
00000030: 0000 803f 0000 803f 0000 0000 0000 0000
00000040: 0000 0000 0000 0000 0000 0000 0000 0000
00000050: 0000 0000 0000 0000 0000 0000 0000 0000
00000060: 0000 803f 0000 803f 0000 803f 0000 803f
00000070: 0000 803f 0000 803f
1.0 0.0 0.0 0.0 0.0 0.0 0.0 0.0
0.0 0.0 0.0 1.0 1.0 1.0 0.0 0.0
0.0 0.0 0.0 0.0 0.0 0.0 0.0 0.0
1.0 1.0 1.0 1.0 1.0 1.0

representation.message_passing_list.0.2.hnet.0.linear.weight f4 [48, 576]
00000000: 189d 183e 1947 e43d 2495 45bc 3219 c1be
00000010: c5a5 40bf 362f fa3d 5f84 673f 2096 7bbf
00000020: 4e24 003e d142 a0bf f274 1ebf 0ee7 5fbe
00000030: b36d d33e 774c ea3e 8f5c 19bf 2783 2cbe
00000040: 79f8 423f 2b86 69bf eaf9 df3e c88f 01bf
00000050: e29a a13d 6ea6 86bc 61ad 823f a1ab b5bd
00000060: 4b8d c93f 7f20 b7bf d906 1a3e 6e2e cd3f
00000070: 07d8 cdbf c359 163f 8ff1 103f 2aa9 ccbe
00000080: aa23 923e 2213 a5bf 223d dcbe 1c49 fabe
00000090: e0e3 f83c 72e6 a33f 735c 373e 3334 723e
000000a0: d3f1 a13e 94d6 29be 6eb7 80bd 9761 0ebe
000000b0: c91e 05bf 7619 fe3e 7d89 3a3f 5b8e 083f
000000c0: be0e 523f 391c 20bc 81ad 60bc 1607 203f
000000d0: 9b95 0d3f c4e2 6ebf cc92 18be 7702 963f
000000e0: 4137 1d3f b2bf 95bf 8280 a53e 6fee 883e
000000f0: 719f 263d 5d05 5a3e b4bb 873d 824f f73e
00000100: 311a cf3d 7c01 12c0 05ec f6be 4fdf 4a3b
00000110: 0395 da3d a817 05c0 44dd 0a40 778b e8be
00000120: d716 0cbf ba80 153f 1102 2c3f b286 b53f
00000130: ee1a f13e 5ac3 c73f 75c8 90be f3fb f8bf
00000140: fb05 cbbe 1727 ef3e aa4c 7cbf acfb a7be
00000150: 16e9 3bbe ea7c 6ebf b1a6 523f 54fc dc3e
00000160: cb9d 86bf fff0 f7bc ebce 19bf 31e5 6d3f
00000170: 2b56 fd3d bef5 53bd dbb7 2ebf 2bcd e63c
00000180: 1751 a33e bfa1 b93d cb33 be3e 63b6 5bbe
00000190: d344 5b3f 4579 003e 9797 0cbe c857 9d3f
000001a0: 59f8 b53e 596e 7c3e 4c7b 1cbf b7f6 d23d
000001b0: 6cf1 23bd 5b05 b73d fb5a f4be bbc8 fcbd
000001c0: 208e bdbe bd8a 85bf 6de2 d7be d17a 1a3f
000001d0: 4b15 9f3e 79ca adbe 868d 753f b77c a93e
000001e0: 11ca cd3d d10f 54bf b3fe 863e e77d 163f
000001f0: e43c 60bc bfee f0bd b57b 38be 0295 203e
00000200: f3f4 233f 7943 843f f8b6 32be 7d33 17bf
00000210: 16ed 3bbe 0515 34bf f4da 92be 1c78 ab3d
00000220: 7a39 aebf d283 a5bf c720 8a3e e4e9 043f
00000230: ec12 32bf def1 dfbe 41db 16c0 dfbc 6c3f
00000240: 3195 1c3c 6f45 003f fe71 303e b573 02bf
00000250: 02d2 743e 8135 73be 45c6 d9be f1f3 2b3f
00000260: b3eb 9cbe bf9c 27bf f559 87bd ace8 b43d
00000270: 92e9 2f3f 53e1 27be 09a6 4bbc 0073 213d
00000280: 4046 043f fbfa b73e e488 073e 7941 7d3e
00000290: f4bc 583f 4d45 3b3e aa5f 813f 90d8 1f3f
000002a0: a721 e6bf b291 7f3f 14ba 3a3e caba bebf
000002b0: 2514 25bf 5913 2d3f fa1f 2fbf bc56 26c0
000002c0: 92a0 9a3f a18f 9abf ffa0 10be 4829 5fbf
000002d0: 7b89 e2bd 46a9 8dbe a7ae 323f d5b0 8ebe
000002e0: 09e0 e23f 39c0 9abe eec1 273e b4c6 723f
000002f0: 4d83 75be c21a c6bf 8051 3b3e e51c 60be
00000300: b5a4 4f3f 9980 d53e 0939 853c c9b2 613e
00000310: 518e d53f 04ee cc3e 76a7 a73e 36c1 a0bd
00000320: 2338 523e b270 3dbf 19f4 693c 2d48 82bf
00000330: a5ff 333f b84e 5c3d 3262 733e e651 2f3f
00000340: e11d 0bbe f299 dabf 86df 873d 29ed c7bf
00000350: f890 fc3f 9f20 9bbf 7570 78be 564f f6bd
00000360: c3fc 5e3f c9f3 b63e a22a 93be 55d6 0640
00000370: 033e 6a3e 8171 2d3f 99e5 24c0 c59a e63c
00000380: 89a4 6f3f 30de 3cbf 89d7 813e 6085 e4bf
00000390: 2cc0 84be 042a 66bf 20c9 52be 95cc 39be
000003a0: 3b48 54bf 1082 a53f b794 d4be 24dc 0f3f
000003b0: ba85 4f3f fc2f e3bd 5419 0bbd b753 aabf
000003c0: f644 58bd 9b80 6dbe 3396 18be bb63 dabe
000003d0: deee 9abe af9e 0bbf 482e 3bbf 7f67 b63f
000003e0: 93cb d0bd ab59 53bf d05e a83e e5da f2be
000003f0: a28d dabc 6a52 023f 5581 b1bc 9751 8c3d
0.14903677 0.11146373 -0.012059484 -0.37714535 -0.75252944 0.12216036 0.9043636 -0.9827595
0.12513849 -1.2520391 -0.61897194 -0.21865484 0.4129463 0.45761463 -0.5990686 -0.16846906
0.7616039 -0.9122035 0.43745357 -0.5061002 0.0789087 -0.016436782 1.0209161 -0.08870626
1.5746244 -1.4306792 0.15041675 1.6029794 -1.6081551 0.58730716 0.5661859 -0.39972812
0.28542835 -1.2896464 -0.4301539 -0.48883903 0.030382097 1.2804701 0.1790636 0.23652725
0.3162981 -0.16585761 -0.062849864 -0.13904415 -0.520001 0.496288 0.7286604 0.5334222
0.82053745 -0.009772354 -0.013713242 0.6251081 0.55306405 -0.93314767 -0.14899749 1.1719502
0.61412436 -1.1699126 0.32324606 0.2674441 0.0406794 0.21291108 0.066275984 0.48302847
0.101124175 -2.2813406 -0.48226944 0.0030955856 0.10672953 -2.0795689 2.169755 -0.45418903
-0.5472235 0.58399546 0.67190653 1.4181731 0.47090858 1.5606492 -0.28277937 -1.9451889
-0.39653 0.4670951 -0.9855448 -0.32809198 -0.18350634 -0.93159354 0.822856 0.4316126
-1.0516905 -0.030266283 -0.60081357 0.92927843 0.12369951 -0.05174803 -0.6824929 0.028174004
0.31897804 0.09064054 0.3714889 -0.21456294 0.8565189 0.1254626 -0.13729702 1.2292414
0.35541037 0.2465147 -0.61125636 0.10300963 -0.04002516 0.08936568 -0.47725663 -0.12342974
-0.37022495 -1.0432965 -0.42164937 0.6034365 0.31070933 -0.33943537 0.9591907 0.33102962
0.10048307 -0.82836634 0.26366195 0.5878586 -0.013686392 -0.11764287 -0.1801594 0.15681842
0.6404564 1.0333091 -0.1745261 -0.5906294 -0.1835216 -0.70344573 -0.28682673 0.083725184
-1.361129 -1.2930853 0.26978132 0.5191939 -0.6956012 -0.43739218 -2.3571322 0.92475694
0.009557054 0.5010595 0.17230985 -0.50957805 0.23908237 -0.23750879 -0.4253408 0.671691
-0.30648574 -0.6547355 -0.06608955 0.08833441 0.68715775 -0.16394548 -0.012429723 0.039416313
0.51669693 0.3593367 0.13235813 0.24732007 0.8466332 0.18288155 1.0107319 0.62439823
-1.797902 0.9983169 0.18235046 -1.4900753 -0.64483863 0.6760765 -0.6840817 -2.5990438
1.2080252 -1.2075082 -0.14123915 -0.87172365 -0.110613786 -0.27668208 0.6979775 -0.27869287
1.772462 -0.3022478 0.16382572 0.94834447 -0.23975869 -1.5476916 0.18292809 -0.21886022
0.811107 0.41699675 0.016262548 0.22040857 1.6684057 0.40025342 0.3274495 -0.07849352
0.20529227 -0.74000084 0.014279389 -1.0178276 0.7031196 0.05378601 0.23767927 0.6848434
-0.13585617 -1.707823 0.066344306 -1.561925 1.9731741 -1.211933 -0.24261649 -0.12026851
0.87104434 0.35732868 -0.28743464 2.1068318 0.22875218 0.6775132 -2.5765135 0.028149972
0.93610436 -0.7377653 0.25359753 -1.7853203 -0.25927866 -0.8990786 -0.20584536 -0.18144448
-0.82922715 1.2930317 -0.4151971 0.5619528 0.81063426 -0.11093137 -0.0339597 -1.3306798
-0.05280014 -0.2319359 -0.14901046 -0.42654213 -0.30260366 -0.54539007 -0.73117495 1.4250335
-0.10195079 -0.825587 0.32884836 -0.47432628 -0.026678864 0.50907004 -0.021668116 0.068514995

representation.message_passing_list.0.2.hnet.0.linear.bias f4 [48]
00000000: ef96 ee3d cb88 653e 7080 603e 7438 23be
00000010: 1903 a53e 9d52 213e 53a4 983e e7ce 80be
00000020: 5d6f 1fbd 349b e6bc d052 71be c4cb 783e
00000030: c3bd cabe 951b eb3e 3ba9 b3be a600 c2be
00000040: c976 94bd 3ffd babe 04d2 a83f a8eb 943e
00000050: 23b0 de3e 878b d4be 779c 0abf 02f4 54bf
00000060: 8ecc 583e 5b72 fe3d f17e 413d 7a29 343e
00000070: eeb2 923e 757a 11bf 64f5 70be e410 8a3f
00000080: b706 313f bbc5 c9be c1e3 ed3e f2a4 d1be
00000090: 66a6 943e 2411 f0be 5fbe dc3d f142 d03e
000000a0: e393 00bd 37f7 0a3f 1c96 9f3d 97fb 8c3e
000000b0: 6c82 94bf d2be 863d a742 033e dd42 983e
0.11649882 0.22415464 0.21923995 -0.15939504 0.32228926 0.1575417 0.2981287 -0.25157854
-0.038924564 -0.028150178 -0.23566747 0.2429648 -0.39597902 0.4591948 -0.3509005 -0.3789112
-0.07249219 -0.36521336 1.3189092 0.2908604 0.43493757 -0.415127 -0.54144996 -0.83184826
0.21171781 0.12424155 0.0472402 0.17593947 0.28652138 -0.5682748 -0.23531109 1.0786405
0.6915087 -0.3940867 0.46462825 -0.40946156 0.29033202 -0.46888077 0.10778498 0.40676072
-0.031391036 0.5428347 0.07792303 0.27535698 -1.1602302 0.06579365 0.12818395 0.29738513

output_modules.0.outnet.0.linear.weight f4 [32, 1152]
00000000: 2be3 b3bb 70cc 56be d476 16be c42f 1fbf
00000010: 980f 32be f876 35be 56c4 57bf 3350 b7bf
00000020: e62e 0ebf aa6c ebbe b34f 8c3f ac64 943f
00000030: b9ba 87bf 21d9 553f a0fb 69bf 0084 1ec0
00000040: 15f7 8b3e 0df4 12bf f63d d8bf 82da babe
00000050: c86b 2ebd cbfd 11bf e10e 183f 4dd6 9ebf
00000060: ec9e 323e 7d86 0d3f 54b7 7f3e 8fec 913e
00000070: 03bb 4c3c 6809 e1bd a4fa 8f3d 0b0c 683e
00000080: 0b26 803e 62e2 af3f b2c6 3fbf 0762 bf3f
00000090: 3bd0 1e3e e7c0 bdbf 2437 853e e31f 643f
000000a0: 4b0a f8be 29bc 1ebf db54 c4be 2b88 70be
000000b0: c451 94bf d9a5 0d40 5b7d 0cbf cf8c 2a3c
000000c0: 28ca 1cbf 9823 b5bf f0e0 093f 9330 8340
000000d0: 88a7 a8bf f185 c73e 6c7d a33f 45d2 393f
000000e0: f61d 3bbf 01ca 4b3f 395c 46bf 6ec0 1040
000000f0: 9adb 81be 83c2 b83f f3d9 19bf d88e 2340
00000100: 26df c7bc 6c7f 0bbf dd6e a93f af3a 10bf
00000110: c431 27bd 30b4 43bf 828c 1fbf 5154 2f3f
00000120: e15d 4abf 42e5 a9bd c185 89be 14f4 2140
00000130: a9b2 0dbf 4f8e 94bb 10b4 2fbe 2ba0 38be
00000140: 6c1c 42be 35cd 06bf f256 cebe 0729 7c3d
00000150: 0b68 093e 406d ad3d 9889 3ebe 56a4 543e
00000160: 794e 9abd 177d 2f3b bc26 4bbf fcbe 86bf
00000170: b8c2 a9bf 25ee 1abf adb0 313f 45e5 0bbd
00000180: 1b90 383f 32db c5bf b449 b23d 6674 733f
00000190: dd28 823e 8f45 163f d8cf fc3e 8877 ae3e
000001a0: b1a6 723e b9b7 383d 82fa 93bf 6ab4 1dbf
000001b0: 3995 8dbd e0ee 8dbe 1530 323e e725 e33f
000001c0: d90a 403f 7e78 3f3f bfbc 90be 1e59 63bf
000001d0: bd75 fcbd 1de3 b7be a61a 71bf 6bf1 bd3f
000001e0: 528e 37bd 87fc e93d 872b 96bf 150a 423f
000001f0: 9c1f c63d 039e 003f 1afe 81bc dfc2 553f
00000200: f93b f2bf 633b 8abe a9c6 d53e c169 2240
00000210: 09ca 143e 8f63 a1bf 794a 5a3f 606f 243f
00000220: d8ce ecbe 0c7b c9bf dfa0 8dbf a95b 6c3e
00000230: 8edd 7cbf c7e4 8f40 ba35 603f 95fd 323e
00000240: a2fd 643f 10c0 01c0 36f8 543e abc0 6cbf
00000250: 91a1 06bf 435b da3f 6b0f 40bf 39e0 78c0
00000260: 1c58 90bf 35e4 a9bf a873 553e bc2b f43e
00000270: b32f 573f 8510 cc3f 614d 08bf 1e12 9dbf
00000280: 4bba 9fbf 5d33 6a3f 0c3a 733f 80ec 133f
00000290: 249d 8f3f 1dda 0ac0 4741 b73f eb15 973f
000002a0: 77a7 fbbd 3e32 483f 2945 0abe e3d7 e33e
000002b0: 7801 3bbf bb4b 633f 36b7 41bf 9ce6 1640
000002c0: 8273 afbe 75d9 64bf 44b2 a63f 7edb a23f
000002d0: a04d cd3f a2e1 ae3f d64c e5be a385 96be
000002e0: 52fd f2be 74b5 0e40 a041 e2be ad86 19bf
000002f0: 603b aebf d3dc 28c0 7e36 d93d 2fe7 b33f
00000300: c31b 093f 864d 31bf b8c6 4cbe 916f 5e3f
00000310: 823f a8be b0f6 053e 6c05 903e e178 1cbf
00000320: 8e40 0f3e e8af 213f 6f92 283f 8fd9 243f
00000330: fe32 e23d d80a 4e3f babb c23e a0d0 2f3f
00000340: ca3a 243f 73b2 b23f d804 7e3e 2c8b 5bbd
00000350: bed5 1b3f cb8e 363e de87 59bf 22d0 bc3f
00000360: 9ba0 333d df6f 513e 923e b7bf 9e50 083f
00000370: 5ad6 183f a48e 3c3f 2657 f23e 5b1f 1b3f
00000380: e4fb c63e c58e 903f 1f47 143f fa1f bebe
00000390: 0f48 e2be 6230 54be c6ab b7bf 298c 00c0
000003a0: b671 bfbf a8d5 39bc 4ae0 94be 7949 f93e
000003b0: fd38 3cbf 1f85 cc3e ada2 80be ad51 163e
000003c0: 0a04 b63f 5eba 423e a35f ebbf a4a8 8b3f
000003d0: b80d 9cbf c125 113f 71da 3fbf cf53 b1bf
000003e0: 0acf fe3e 5cd2 74bf f4a7 ccbe 35c4 96bf
000003f0: 10ac a6be 1bbe ba3f 1111 cd3d 66fb 603f
-0.005489727 -0.20976424 -0.14693767 -0.6218226 -0.17388761 -0.17721164 -0.8428396 -1.432135
-0.5554031 -0.45981342 1.0961822 1.1593223 -1.0603858 0.8353444 -0.91399574 -2.4768066
0.27336946 -0.5740364 -1.6893909 -0.36494833 -0.042583257 -0.5702788 0.59397703 -1.240915
0.17443436 0.5528334 0.24972278 0.28500792 0.012495759 -0.10988122 0.07030228 0.22660844
0.25029024 1.3740962 -0.7491256 1.495179 0.15509121 -1.4824494 0.2601863 0.89111155
-0.48445353 -0.6200586 -0.3834599 -0.23489444 -1.1587453 2.2132475 -0.5487878 0.010409548
-0.61245966 -1.4151487 0.5385885 4.0996795 -1.3176126 0.38969377 1.2772651 0.7258647
-0.7309259 0.7960511 -0.7748447 2.261745 -0.25362855 1.443436 -0.6009819 2.5555935
-0.024398398 -0.54491305 1.3236958 -0.56339544 -0.040818945 -0.7644682 -0.6232377 0.6848803
-0.790495 -0.082956806 -0.2685986 2.5305223 -0.5535074 -0.004533566 -0.17158532 -0.18029849
-0.18956155 -0.5265687 -0.4030071 0.061562564 0.13418595 0.084681034 -0.18607175 0.20765814
-0.07534499 0.002677744 -0.7935598 -1.0527034 -1.3262548 -0.6051963 0.6941021 -0.034154195
0.7209489 -1.5457518 0.08705464 0.95099485 0.254218 0.5869989 0.49377322 0.3407557
0.236964 0.045097087 -1.1560824 -0.61603415 -0.069132276 -0.2772131 0.17401154 1.7745942
0.7501655 0.7479323 -0.28269002 -0.8880786 -0.12327144 -0.3591546 -0.9418129 1.48393
-0.04481346 0.11425119 -1.1732033 0.75796634 0.09673998 0.50241107 -0.015868235 0.83500475
-1.8924552 -0.26998433 0.41753128 2.5377047 0.14530195 -1.2608508 0.85269886 0.64232445
-0.4625156 -1.5740676 -1.1064719 0.2308184 -0.98775566 4.496677 0.8758198 0.17479546
0.8944951 -2.0273476 0.2079781 -0.9248149 -0.5259028 1.7059101 -0.75023526 -3.8886855
-1.1276889 -1.3272768 0.208449 0.47689617 0.8405716 1.5942541 -0.5324307 -1.2271154
-1.2478727 0.91484624 0.9501045 0.57782745 1.121983 -2.1695626 1.4316796 1.1803564
-0.12287801 0.78201663 -0.13502945 0.44500646 -0.73049116 0.8878743 -0.7567018 2.3578253
-0.34267813 -0.89394313 1.3023152 1.2723234 1.6039314 1.3662608 -0.44785184 -0.29398832
-0.47458893 2.229825 -0.44190693 -0.59971124 -1.361187 -2.638478 0.10606097 1.4054927
0.53557986 -0.69258916 -0.1999768 0.86888987 -0.32860953 0.13082385 0.28129137 -0.61121947
0.1398947 0.63159037 0.6584844 0.6439447 0.11044882 0.80485296 0.3803385 0.6867771
0.64152205 1.3960708 0.24806535 -0.05359952 0.6087302 0.17827909 -0.8497294 1.4751017
0.043854337 0.20452832 -1.431597 0.5324801 0.59702075 0.7365515 0.47332114 0.6059472
0.38864052 1.129357 0.5792102 -0.3713377 -0.441956 -0.20721582 -1.4349296 -2.0085547
-1.4956577 -0.0113424435 -0.2907737 0.48688868 -0.7352446 0.39945313 -0.25124112 0.14679594
1.4219983 0.19016406 -1.8388561 1.091084 -1.2191687 0.5669823 -0.7494269 -1.3853701
0.49767333 -0.9563348 -0.39971888 -1.1778628 -0.32553148 1.4589266 0.10013021 0.87883604

output_modules.0.outnet.0.linear.bias f4 [32]
00000000: 11e6 a5bf c47a bcbf dc11 2fbf 2881 bbbe
00000010: b338 94be cc53 03bf 263b 22bf 040b ecbe
00000020: 2830 bbbf 9781 80bd 2f3d 4fbf 1f1c a6bf
00000030: 1470 3bbf 55f7 0cbf 27e5 58bf a5c3 aabf
00000040: 9db4 c1bf 189b 35bf fc4e 81bf 0f31 9abf
00000050: 45d9 26be 5494 a4bd 2661 71bf e4dc 9dbf
00000060: a4ea 19bf f3d9 22be a571 2dbf 9124 0abf
00000070: c387 a2bf 1207 bcbe 2056 56bf bb58 a8bf
-1.2960836 -1.4724965 -0.68386626 -0.36621976 -0.28949508 -0.5129974 -0.63371503 -0.46102154
-1.4624071 -0.06274717 -0.80952734 -1.2977332 -0.7321789 -0.550649 -0.8472466 -1.3340956
-1.5133244 -0.7093978 -1.0102229 -1.2046221 -0.16293819 -0.08036104 -0.9428886 -1.2333035
-0.6012366 -0.15903454 -0.6775153 -0.53962046 -1.2697681 -0.36724144 -0.83725166 -1.3152078

output_modules.0.outnet.1.linear.weight f4 [16, 32]
00000000: 3b67 bfbe 4c35 393f 847d 3b3e b4af 45be
00000010: a56a 12be 3a6a 93be 3adb b13e a93c 06bf
00000020: d52d f8bd 54c8 c9be f045 b83e 8dec 023e
00000030: 1cd5 57be 60e3 5cbe d8fd f1bc ff77 273f
00000040: 7932 dabe edd5 32bf 48d6 39be ecf3 cabd
00000050: 7711 b13d 90d3 cabc 75e3 92be 824f b7bd
00000060: 3dc9 d4bd 7758 dbbe 8c81 2cbe 0725 6bbe
00000070: 1d7f 363f 63b2 dabe 8854 703e cd77 ad3e
00000080: e74a 91bd d402 c6be 8281 aa3f 26b2 ddbe
00000090: bc06 153f 1979 43be 0f06 893f f9fb 543f
000000a0: fb09 e2be b64c 58bc 9fd0 babe c2fa 123f
000000b0: e2bd 0abf 88ee 593f 07f0 ae3d b257 1d40
000000c0: 48c1 40bf 937c 833e b537 8a3e 3410 c73f
000000d0: ae7e 36bf 2441 43be 6df7 0540 5d85 b9bd
000000e0: 35e0 bbbe 37d8 12bc ccc6 bcbe 452d c7be
000000f0: 5e6e 763e 4c93 edbe f653 1e3e 72ed f5be
00000100: 26f9 1a3f d0f5 fd3e 634f 853f 5e59 3bbf
00000110: 7f45 0b3f 8855 9abd 8f49 1cbc f86f 32bf
00000120: ccbf 2bbe 6cb4 a9bf 4420 8dbf 3813 f9be
00000130: b9a6 0c3f 5b0a d8bd b95b 51bf 0d82 d33e
00000140: 208f 683f d0cf d33e 025e 0cbf c4d9 053f
00000150: a4f2 153d 7cf3 7bbe f43f b9be 5a13 bcbd
00000160: 6c9a 95be 56db ffbe 0295 d6be 87b0 77bf
00000170: 2513 d23f a794 71bf 0b15 943f 0704 3abf
00000180: e336 bd3f d1d6 833f 67d0 08bf 52ba a13e
00000190: 5da3 aebe f73e ab3e f973 b2be 0de9 003f
000001a0: 9fba 453e e01b b93e ab13 533f 94c1 60be
000001b0: 0860 623f 646b e33f 496a 8d3e 9606 61bf
000001c0: 8e26 9e3e 99e4 14be 4e69 cf3e d703 19bf
000001d0: bdb3 823e 9270 83bf 89dd 10bf c147 8c3f
000001e0: ea2f 7b3f a108 383e 9d61 cdbf d4c1 dd3e
000001f0: 6eff 9c3e b036 8ebe a84e f03f 03d2 853f
00000200: 7c72 bc3f 71e3 b83f af3c 113f d6b7 4dbe
00000210: 5946 8a3e a711 763d 35c4 aa3e 34e1 053f
00000220: ab51 0cc0 2148 1f3e 62cd 32bd 451f ca3e
00000230: a90e cb3f 68a3 86bc c0f8 9f3f 9611 693e
00000240: 61e5 23bf 86d6 2f3f d50a 9dbd 160b c5be
00000250: ae21 fabe 1686 2fbe 64d8 b4bf 8b27 87be
00000260: bd3f 393f 0e93 d03f ea2a abbf 34d6 3bbe
00000270: 6d62 783e cdf1 bd3d b3da 5ebd d6f7 87be
00000280: 83ba 993e f3dd 613e 87ab 163e 2638 91be
00000290: e6a1 c03e b2de 71be ff74 ca3f 0d2c ae3f
000002a0: 9923 74bd 8529 dfbe 0a10 f43e 59c0 e23e
000002b0: 8160 99bf c4fa 6a3f 7916 fabd 19a1 2840
000002c0: 79f3 7cbe c39c 203c 53ca b13e 810a f93f
000002d0: 6fe2 9fbf fabd 0cbf 511a e43f f372 143e
000002e0: 3b65 06bf 5680 8ebd 7cf2 66bf 0e70 ffbf
000002f0: 7fcd 1f3f a832 35bf 7757 f33e 48d8 4ebf
00000300: 0486 af3f 90e3 d53f 448a cf3e d7c1 f1be
00000310: 3590 5bbc 8a5c efbc b180 c9be 23fd 22bd
00000320: 59f1 2bbf 5f7d 493e ec79 e43f 2f92 09bf
00000330: 0192 3c3f d72f ac3f f683 943d a971 0bbe
00000340: 71ce b43f 5f03 c83f a6c1 13bf 5f9d 45bf
00000350: c674 3c3e b011 95be 8754 87bf e726 743e
00000360: 0e5b 55be 44f1 ba3e f65e fe3d e0a2 cdbe
00000370: ff2f 9e3f 2799 8abf 3bae 773f 3d17 c0bf
00000380: 92bb 8040 5f43 953f 284e 2e3f 852f b9be
00000390: 3537 0540 26b3 153f 9d3b 4d40 3a69 7840
000003a0: 81dc 853f b6f2 36bf 2ae1 d13e 3391 583f
000003b0: 9821 1140 1eac 7240 e98a 6d40 d09b b73f
000003c0: 521d f43f d1be 3640 e641 213f fa34 e83f
000003d0: db41 bbbf 663b c6bf 9aef 153e d711 9e3f
000003e0: 05e3 2140 dcf7 4440 ee69 c43d c852 a53f
000003f0: 364c e43f 9637 7c3f d4a3 1240 273e 0e40
-0.37383446 0.7234695 0.18309599 -0.19305307 -0.14298494 -0.28791982 0.3473757 -0.5243631
-0.12118117 -0.3941065 0.35990858 0.1278555 -0.21077389 -0.21571112 -0.029539987 0.65417475
-0.42616633 -0.69857675 -0.18148148 -0.09909806 0.08645909 -0.024759084 -0.2868916 -0.08950712
-0.10389946 -0.4284093 -0.16846293 -0.22963344 0.7128771 -0.42714223 0.23469746 0.33880463
-0.070943646 -0.38674033 1.3320773 -0.4329998 0.582134 -0.19089164 1.0704974 0.8319698
-0.4414824 -0.013201883 -0.3648729 0.57413876 -0.5419599 0.85129595 0.08541875 2.4584775
-0.75294924 0.2568098 0.26995626 1.555182 -0.7128705 -0.19067818 2.0932267 -0.0905864
-0.36694494 -0.008962682 -0.3687042 -0.38901725 0.24065539 -0.4640144 0.15461716 -0.4803272
0.6053642 0.49601603 1.0414852 -0.7318324 0.5440292 -0.07535845 -0.009539022 -0.697021
-0.16772383 -1.3258185 -1.1025472 -0.48647475 0.549419 -0.1054885 -0.8178058 0.41310158
0.9084339 0.41369486 -0.54830945 0.5228541 0.036608353 -0.246046 -0.36181605 -0.091833785
-0.29219377 -0.49972028 -0.4191056 -0.96753734 1.6412092 -0.9436745 1.1568922 -0.72662395
1.4782375 1.0299932 -0.53442997 0.31587464 -0.3410901 0.33446476 -0.34854105 0.5035561
0.19309472 0.3615408 0.82451886 -0.21948844 0.8842778 1.7767148 0.27620152 -0.87900674
0.3088879 -0.14540328 0.4051003 -0.59771484 0.25527754 -1.0268729 -0.56588036 1.0959398
0.98119986 0.17972042 -1.6045414 0.43311942 0.30663627 -0.27776098 1.8774004 1.0454715
1.4722438 1.444441 0.5673322 -0.20089659 0.27006796 0.06007543 0.3335282 0.5229676
-2.1924846 0.15554859 -0.0436529 0.39476982 1.5863849 -0.01643534 1.2497787 0.22760615
-0.6402188 0.6868671 -0.07668082 -0.3848502 -0.4885382 -0.17140993 -1.4128537 -0.26397356
0.7236288 1.6294878 -1.3372471 -0.18343431 0.24256296 0.092746355 -0.054407787 -0.2655627
0.3002511 0.22057323 0.1471387 -0.2836315 0.3762352 -0.23620108 1.5816954 1.3607193
-0.05960426 -0.43586364 0.47668487 0.44287375 -1.1982576 0.9178889 -0.122113176 2.6348326
-0.24702252 0.009803 0.34724674 1.945633 -1.2490977 -0.5497738 1.7820531 0.14496975
-0.52498215 -0.06958072 -0.9021375 -1.9956071 0.6242294 -0.7078042 0.47527668 -0.8079877
1.3712773 1.6710072 0.40535176 -0.472182 -0.013401081 -0.02921893 -0.39355996 -0.03979219
-0.6716514 0.19676732 1.7849708 -0.53738683 0.73660284 1.34521 0.07251732 -0.13617577
1.4125501 1.5626029 -0.5771736 -0.77193254 0.1840392 -0.29115057 -1.0572671 0.23842965
-0.20835516 0.36512196 0.12420456 -0.40163326 1.2358397 -1.0827988 0.9675023 -1.5007092
4.022897 1.1661185 0.68088007 -0.36169067 2.0814946 0.58476484 3.2067635 3.8814225
1.0457917 -0.714641 0.409921 0.84596556 2.2676754 3.7917552 3.7116034 1.4344425
1.9071448 2.8553965 0.6299118 1.8141167 -1.4629472 -1.5486877 0.14642182 1.2349194
2.5294812 3.0776281 0.09590517 1.2915888 1.7835758 0.9852232 2.2912493 2.2225435

output_modules.0.outnet.1.linear.bias f4 [16]
00000000: 29af 0dbf b3a5 26bf 23af 92be 9e22 7ebf
00000010: fc3d b9be 2a1b 37bf 16af 48bf 092b d7c0
00000020: fa7a 11bb f024 90be b431 d2c0 5195 9ac0
00000030: 5bd4 e8be c60d 45bf 7ed9 16be 0e10 69bf
-0.553454 -0.65096587 -0.28649244 -0.9927157 -0.36180103 -0.71525824 -0.7839216 -6.7240033
-0.0022198544 -0.2815318 -6.5685673 -4.830727 -0.45474514 -0.7697414 -0.14731404 -0.9104012

output_modules.0.outnet.2.linear.weight f4 [1, 16]
00000000: 6e81 8ebb 54ea 973d 073a 92be cc4f 67be
00000010: 212c 46be 07a4 903e 200d 09be a399 c2bd
00000020: fb90 5abe 7004 a53e a7ad 02be 032d be3e
00000030: 2d13 a63e 964b 3fbe d245 a0be be72 0ebf
-0.0043489253 0.074177414 -0.28559896 -0.22589034 -0.19352771 0.28250143 -0.13383913 -0.0950196
-0.21344368 0.32229948 -0.12761556 0.37143716 0.32436505 -0.18681177 -0.3130327 -0.5564383

output_modules.0.linear_nn.linear.weight f4 [1, 1152]
00000000: d8a0 153b e7fb a5bc 1848 143e 8f98 acbd
00000010: 9f0d 6abb 30f7 983c 079a d0bd 22cf 233e
00000020: e741 91bd 1410 55bd dc3e eb3d c5e8 583d
00000030: ab70 34be e4c5 1b3d 50a5 6bbd 267b a33d
00000040: a390 00bd 8b29 9cbd f560 7bbc 0eb1 9d3d
00000050: 6b1c a1bc c90a 85bd e28a 5f3d b4fa c7bd
00000060: 61a4 c33c 8b68 9e3b f6bb 81bc 9d4a fcbd
00000070: b65b 44bc c9a2 193e 2fd2 d7be 6987 d93d
00000080: abf6 9b3d fbbe 8a3e 8a58 41be 58a7 7fbd
00000090: ca02 1a3b 9f0f 2abf 7816 a53e 95bc 22be
000000a0: 2a46 cd3d 7462 d53e 3bf0 e73d e11b 23be
000000b0: e8b8 a7bd 509c 1c3f 4267 523d 0bd8 bebe
000000c0: c4bc 9fbd 39b5 e1be e268 34be ffaa aebe
000000d0: 9c7d 8b3d 1d92 f63d dd3c 45be 6f40 8f3e
000000e0: edeb 58be 9aef 403d 70c5 e73e 6354 e73d
000000f0: 3976 ccbc 8ee9 ca3e 564e 22be 5f11 9dbe
00000100: 1e46 a0bd e264 8e3e 429f f1bd af6b abbe
00000110: 8242 363e dc8c c0be 76a8 96be 7cbd d7bd
00000120: 903e 633e 5596 1ebf 535a 9b3d 0332 533e
00000130: 01b7 633e 4493 633c 9620 a33b 31fc 943e
00000140: bce2 f33d 7d4e dcbd 9ffd c5be 2152 70bd
00000150: 0f3c 953e a35b 413e 351b babe 9fd3 62be
00000160: b99e d73d 81ff 5fbd 2851 c6bb 09c2 91bd
00000170: 69f7 30bf f021 9cbe 687f 8abd d421 1c3a
00000180: 0f6f dcbc 21ec e5bd 3a9a 33be 18e2 b2bd
00000190: b8b5 abba 8f1d a33c 145d cc3b e800 82bd
000001a0: 289f 773c bd99 b4bd dd11 c83d 8066 31bd
000001b0: 7556 e6bc a46a ae3e 41c8 e7bd 345f 94bd
000001c0: af75 c3bc b92b 883d eefa b6bc bfe3 f4ba
000001d0: afc0 383b 2694 f13b 1d2e 06bd 7242 1ebe
000001e0: e3b1 99ba d507 0dbd 988f b43e 89fa 033e
000001f0: 23fa dfbb 87bb 843c bb66 973e 7e2e 00be
00000200: e792 2f3e a100 993e 898b 0d3e 6062 15be
00000210: 61f5 fb3e 4df2 bf3b c0c7 dabd bbeb 453e
00000220: fdcd 7d3c ba21 f53e 5183 5e3b 687a 54bd
00000230: 341f e9bd 4001 353e ab58 a5bc 3a0c 4a3d
00000240: 3d0c 4d3d b95f 9dbe 81a2 463d c5bd dfbe
00000250: a989 75be f9bf 043f e2a6 ecbc 914b 6ebd
00000260: ea19 3fbd a5d3 9b3d 386c dc3e ab49 cb3e
00000270: 19c5 163f 4934 2dbf 9327 bc3e acf6 0ebf
00000280: 0623 d23e 8283 bdbe 06f8 0cbe fa23 db3e
00000290: 9dca 523d 4c11 423e cac4 c23c 434c 48bd
000002a0: 4196 ab3e 8c11 7a3e 740d 5fbd 7afc c23d
000002b0: 84ea 873e 7b5c 00bd 8654 da3e a892 8abb
000002c0: ab92 a63d 475b dd3d 2869 c93d c0a4 1c3d
000002d0: abf7 383e 96e8 e8be ab1e 85bd 7dde 0dbe
000002e0: f434 293b a661 ab3e 366b 11bf c475 9dbe
000002f0: afa2 09be 1d0f f43e 9c63 473f 2bc6 9a3d
00000300: 0f84 1a3d 4c7f 87bd 9687 f8bd 6152 dcbe
00000310: 7afe 38be f5c3 453e c330 87bc 483e 5abd
00000320: bd8b 84bc cc8c a5bd b6b3 b7bc ee02 303d
00000330: c6d5 6e3c 09a4 36bd e4a6 b3bc d4ee f43d
00000340: 6e47 bdba abbb 333e dfae 16be 9c51 1abe
00000350: 660f 743d 17dd 8e3b ae78 23bd afa2 84bd
00000360: d2e9 413a b5db 0e3d 93fb b23c dcf8 483d
00000370: 4b71 23bd a4ee 183f 7a69 17bf 8a26 693d
00000380: 55ef 30bd f6a2 413e e33e 0dbe ade5 363e
00000390: 1877 383e 5e78 57be 7be3 fabc 218f dabe
000003a0: 3231 8a3c 5f85 6fbe d42d bfbe 9a43 043d
000003b0: cccb 14be a0be 0fbf e769 753e becd fe3e
000003c0: afaf fe3d 2d64 123f af0d bf3e f1ac dd3e
000003d0: 2007 81bc 4403 d53d 17ba 6abd f156 11bf
000003e0: 899c c53d 31f6 d13e f066 b4be 7491 32bf
000003f0: 796d b4bd 6685 923e 2929 65bd 2d47 ae3e
0.0022831466 -0.020261718 0.14480627 -0.08427536 -0.0035713685 0.018672556 -0.101856284 0.15996984
-0.07092648 -0.052017286 0.11486599 0.05295636 -0.17621104 0.03803052 -0.0575307 0.07982473
-0.031387936 -0.07625111 -0.015342941 0.07699786 -0.019666871 -0.06496198 0.05457581 -0.09764615
0.023882093 0.00483424 -0.015836697 -0.12318919 -0.011984756 0.15003504 -0.42152545 0.106215306
0.076154076 0.27098832 -0.18881431 -0.06241545 0.0023500198 -0.66430086 0.32243705 -0.15892251
0.10023148 0.41676676 0.11325117 -0.15928604 -0.08189565 0.61176014 0.051368006 -0.37274203
-0.07799676 -0.44083574 -0.17618135 -0.34114835 0.068110675 0.12039588 -0.19261499 0.27978846
-0.21183749 0.0471035 0.4526782 0.11295392 -0.024958717 0.39631313 -0.15850195 -0.30677316
-0.07825874 0.27811342 -0.11797954 -0.33480594 0.17798808 -0.37607467 -0.294254 -0.10534188
0.22191834 -0.6194814 0.07585587 0.20624547 0.22237779 0.013890091 0.00497825 0.29098657
0.119084805 -0.10757158 -0.3867006 -0.058672074 0.29147384 0.18882613 -0.36348882 -0.2215104
0.10528321 -0.054687027 -0.006052155 -0.071170874 -0.6912752 -0.30494642 -0.06762582 0.00059559685
-0.026908426 -0.11226679 -0.17539302 -0.0873453 -0.0013100421 0.019911556 0.0062366817 -0.06347829
0.015113629 -0.08818386 0.09769032 -0.043310642 -0.028117398 0.34065735 -0.11317492 -0.07244721
-0.023859827 0.066489644 -0.02233645 -0.0018683596 0.002819102 0.007372397 -0.03275882 -0.15455034
-0.0011725988 -0.034431297 0.35265803 0.1288854 -0.0068352385 0.016202701 0.29570565 -0.12517735
0.17145883 0.29883292 0.1382276 -0.14588308 0.49210647 0.005857742 -0.106826305 0.19328205
0.015491006 0.47877294 0.0033952782 -0.05187455 -0.11382905 0.17676258 -0.020183882 0.049328066
0.0500605 -0.30737093 0.04849482 -0.4369947 -0.23978294 0.5185543 -0.02888817 -0.058177534
-0.046655573 0.07608727 0.43051314 0.39704642 0.588945 -0.67657906 0.36748943 -0.5584514
0.41042346 -0.37014395 -0.13766488 0.42800885 0.05146276 0.1895191 0.023775477 -0.048900854
0.33513072 0.24420756 -0.05445619 0.09520812 0.2654611 -0.031338196 0.4264261 -0.0042289086
0.081334434 0.108084254 0.0983451 0.038243055 0.18063228 -0.4548995 -0.0649999 -0.13854404
0.0025818916 0.33472937 -0.56804216 -0.3075391 -0.13440965 0.4766778 0.77886367 0.07557329
0.037723597 -0.06616077 -0.12135236 -0.430316 -0.18065825 0.19313033 -0.016502744 -0.053282052
-0.016179914 -0.080834955 -0.02242456 0.042971544 0.014577335 -0.04459003 -0.021930166 0.11959615
-0.0014440843 0.17552058 -0.14715146 -0.15070194 0.059584998 0.004359852 -0.03991001 -0.06476342
0.00073972077 0.034877498 0.021848476 0.049065456 -0.039902966 0.59739137 -0.5914532 0.05692152
-0.043196995 0.18909821 -0.1379352 0.17861052 0.1801418 -0.2104201 -0.03062605 -0.42687324
0.016869161 -0.23390721 -0.37339652 0.032291032 -0.14530867 -0.56150246 0.2396618 0.49766344
0.12435853 0.57184106 0.37315127 0.43296006 -0.015750468 0.104010135 -0.057306375 -0.5677329
0.09648997 0.41008142 -0.35234785 -0.69753194 -0.08809943 0.286174 -0.055947457 0.34038678

exp_avg f4 [4, 4]
00000000: 4633 d23c 8c23 a13c ff2c 4cbd 1994 483d
00000010: 559b 703d 8d53 ca3a db9c 483d 3c32 95bd
00000020: fbec 6e3c fd73 713c 5543 41bd c958 2bbb
00000030: c4e7 9dbc 7400 863c afc0 b0bc 7907 973c
0.025659215 0.01967027 -0.0498476 0.048969362 0.058741886 0.0015436277 0.048977714 -0.07284972
0.014582868 0.014737126 -0.047183353 -0.002614545 -0.019275554 0.016357638 -0.021576254 0.01843618

exp_avg_sq f4 [4, 4]
00000000: 1fcc a23e 33e4 143f 4b8c 143f 7991 a53f
00000010: b402 2740 9a2c c13f ba15 0c40 7946 dd3e
00000020: ae6a 243e 5db1 443e 0e59 8c3f 32b5 e83e
00000030: 3005 ee3d 6359 253c 98ca 943c 5e36 703e
0.31796357 0.58160704 0.5802657 1.293502 2.60954 1.5091736 2.188826 0.4321783
0.1605632 0.19208284 1.0964677 0.4545074 0.11622083 0.010092112 0.01816301 0.2345824

exp_avg f4 [4, 4]
00000000: 21c5 823d ce41 6bbe ea3d 5ebd 0dc4 f83d
00000010: 4f63 893c 37bc 023e 3096 34bd 7466 84bc
00000020: 7214 963d ecb4 2a3c b3d0 ff3b 4c02 abbc
00000030: 832f bfbc d812 423d 9266 c5bc 2b95 ed3b
0.063852556 -0.22974321 -0.054258265 0.12146769 0.016770987 0.12767111 -0.044088542 -0.016162135
0.073281184 0.010419112 0.0078068613 -0.020875119 -0.023338085 0.047381252 -0.02409676 0.007250448

exp_avg_sq f4 [4, 4]
00000000: 9663 963f 7fb6 6041 4b22 b13d 2404 2340
00000010: d5f6 813f 850e ac40 6978 ad3f 3987 cd3e
00000020: cad9 b73e 9281 6a3f d1c4 933d 6d3d 0a3d
00000030: 9c1e b33c cfe6 bc3e f2cb d23c cc0e 943d
1.1749141 14.044555 0.08649119 2.5471277 1.0153452 5.3767724 1.3552371 0.4014223
0.35908347 0.9160396 0.07215274 0.033749986 0.021865182 0.36894843 0.025732014 0.07229385

exp_avg f4 [6]
00000000: 0732 e63d 19b1 cbbd 0513 b8bd 0174 8bbd
00000010: 084d 893d d7d9 193d
0.11240011 -0.09945888 -0.08988003 -0.06809235 0.06704146 0.037561264

exp_avg_sq f4 [6]
00000000: 4031 cc40 5c76 be40 94e4 b23f 1832 783f
00000010: c0fc d23e 1292 0240
6.381012 5.951948 1.3976007 0.96951437 0.41208458 2.0401654
